…
  top: "dir15_TL_label"
  top: "dir15_BR_label"
  top: "dir16_TL_label"
  top: "dir16_BR_label"
  top: "dir17_TL_label"
  top: "dir17_BR_label"
  top: "dir18_TL_label"
  top: "dir18_BR_label"
  top: "dir19_TL_label"
  top: "dir19_BR_label"
  top: "cls_label"
  include {
    phase: TRAIN
  }
  attention_data_param {
    source: "1__DATA/PASCAL/train.txt"
    batch_size: 128
    num_class: 20
    input_size: 224
    mean_value: 104
    mean_value: 117
    mean_value: 123
    cache_images: false
    root_folder: "/data1/PASCAL/VOCdevkit/VOC2007/"
  }
}
layer {
  name: "conv1/7x7_s2"
  type: "Convolution"
  bottom: "data"
  top: "conv1/7x7_s2"
  param {
    lr_mult: 0.25
    decay_mult: 1
  }
  param {
    lr_mult: 0.5
    decay_mult: 0
  }
  convolution_param {
    num_output: 64
    pad: 3
    kernel_size: 7
    group: 1
    stride: 2
  }
}
layer {
  name: "conv1/relu_7x7"
  type: "ReLU"
  bottom: "conv1/7x7_s2"
  top: "conv1/7x7_s2"
}
layer {
  name: "pool1/3x3_s2"
  type: "Pooling"
  bottom: "conv1/7x7_s2"
  top: "pool1/3x3_s2"
  pooling_param {
    pool: MAX
    kernel_size: 3
    stride: 2
    pad: 0
  }
}
layer {
  name: "conv2/3x3_reduce"
  type: "Convolution"
  bottom: "pool1/3x3_s2"
  top: "conv2/3x3_reduce"
  param {
    lr_mult: 0.25
    decay_mult: 1
  }
  param {
    lr_mult: 0.5
    decay_mult: 0
  }
  convolution_param {
    num_output: 64
    pad: 0
    kernel_size: 1
    group: 1
    stride: 1
  }
}
layer {
  name: "conv2/relu_3x3_reduce"
  type: "ReLU"
  bottom: "conv2/3x3_reduce"
  top: "conv2/3x3_reduce"
}
layer {
  name: "conv2/3x3"
  type: "Convolution"
  bottom: "conv2/3x3_reduce"
  top: "conv2/3x3"
  param {
    lr_mult: 0.25
    decay_mult: 1
  }
  param {
    lr_mult: 0.5
    decay_mult: 0
  }
  convolution_param {
    num_output: 192
    pad: 1
    kernel_size: 3
    group: 1
    stride: 1
  }
}
layer {
  name: "conv2/relu_3x3"
  type: "ReLU"
  bottom: "conv2/3x3"
  top: "conv2/3x3"
}
layer {
  name: "pool2/3x3_s2"
  type: "Pooling"
  bottom: "conv2/3x3"
  top: "pool2/3x3_s2"
  pooling_param {
    pool: MAX
    kernel_size: 3
    stride: 2
    pad: 0
  }
}
layer {
  name: "inception_3a/1x1"
  type: "Convolution"
  bottom: "pool2/3x3_s2"
  top: "inception_3a/1x1"
  param {
    lr_mult: 0.25
    decay_mult: 1
  }
  param {
    lr_mult: 0.5
    decay_mult: 0
  }
  convolution_param {
    num_output: 64
    pad: 0
    kernel_size: 1
    group: 1
    stride: 1
  }
}
layer {
  name: "inception_3a/relu_1x1"
  type: "ReLU"
  bottom: "inception_3a/1x1"
  top: "inception_3a/1x1"
}
layer {
  name: "inception_3a/3x3_reduce"
  type: "Convolution"
  bottom: "pool2/3x3_s2"
  top: "inception_3a/3x3_reduce"
  param {
    lr_mult: 0.25
    decay_mult: 1
  }
  param {
    lr_mult: 0.5
    decay_mult: 0
  }
  convolution_param {
    num_output: 96
    pad: 0
    kernel_size: 1
    group: 1
    stride: 1
  }
}
layer {
  name: "inception_3a/relu_3x3_reduce"
  type: "ReLU"
  bottom: "inception_3a/3x3_reduce"
  top: "inception_3a/3x3_reduce"
}
layer {
  name: "inception_3a/3x3"
  type: "Convolution"
  bottom: "inception_3a/3x3_reduce"
  top: "inception_3a/3x3"
  param {
    lr_mult: 0.25
    decay_mult: 1
  }
  param {
    lr_mult: 0.5
    decay_mult: 0
  }
  convolution_param {
    num_output: 128
    pad: 1
    kernel_size: 3
    group: 1
    stride: 1
  }
}
layer {
  name: "inception_3a/relu_3x3"
  type: "ReLU"
  bottom: "inception_3a/3x3"
  top: "inception_3a/3x3"
}
layer {
  name: "inception_3a/5x5_reduce"
  type: "Convolution"
  bottom: "pool2/3x3_s2"
  top: "inception_3a/5x5_reduce"
  param {
    lr_mult: 0.25
    decay_mult: 1
  }
  param {
    lr_mult: 0.5
    decay_mult: 0
  }
  convolution_param {
    num_output: 16
    pad: 0
    kernel_size: 1
    group: 1
    stride: 1
  }
}
layer {
  name: "inception_3a/relu_5x5_reduce"
  type: "ReLU"
  bottom: "inception_3a/5x5_reduce"
  top: "inception_3a/5x5_reduce"
}
layer {
  name: "inception_3a/5x5"
  type: "Convolution"
  bottom: "inception_3a/5x5_reduce"
  top: "inception_3a/5x5"
  param {
    lr_mult: 0.25
    decay_mult: 1
  }
  param {
    lr_mult: 0.5
    decay_mult: 0
  }
  convolution_param {
    num_output: 32
    pad: 2
    kernel_size: 5
    group: 1
    stride: 1
  }
}
layer {
  name: "inception_3a/relu_5x5"
  type: "ReLU"
  bottom: "inception_3a/5x5"
  top: "inception_3a/5x5"
}
layer {
  name: "inception_3a/pool"
  type: "Pooling"
  bottom: "pool2/3x3_s2"
  top: "inception_3a/pool"
  pooling_param {
    pool: MAX
    kernel_size: 3
    stride: 1
    pad: 1
  }
}
layer {
  name: "inception_3a/pool_proj"
  type: "Convolution"
  bottom: "inception_3a/pool"
  top: "inception_3a/pool_proj"
  param {
    lr_mult: 0.25
    decay_mult: 1
  }
  param {
    lr_mult: 0.5
    decay_mult: 0
  }
  convolution_param {
    num_output: 32
    pad: 0
    kernel_size: 1
    group: 1
    stride: 1
  }
}
layer {
  name: "inception_3a/relu_pool_proj"
  type: "ReLU"
  bottom: "inception_3a/pool_proj"
  top: "inception_3a/pool_proj"
}
layer {
  name: "inception_3a/output"
  type: "Concat"
  bottom: "inception_3a/1x1"
  bottom: "inception_3a/3x3"
  bottom: "inception_3a/5x5"
  bottom: "inception_3a/pool_proj"
  top: "inception_3a/output"
}
layer {
  name: "inception_3b/1x1"
  type: "Convolution"
  bottom: "inception_3a/output"
  top: "inception_3b/1x1"
  param {
    lr_mult: 0.25
    decay_mult: 1
  }
  param {
    lr_mult: 0.5
    decay_mult: 0
  }
  convolution_param {
    num_output: 128
    pad: 0
    kernel_size: 1
    group: 1
    stride: 1
  }
}
layer {
  name: "inception_3b/relu_1x1"
  type: "ReLU"
  bottom: "inception_3b/1x1"
  top: "inception_3b/1x1"
}
layer {
  name: "inception_3b/3x3_reduce"
  type: "Convolution"
  bottom: "inception_3a/output"
  top: "inception_3b/3x3_reduce"
  param {
    lr_mult: 0.25
    decay_mult: 1
  }
  param {
    lr_mult: 0.5
    decay_mult: 0
  }
  convolution_param {
    num_output: 128
    pad: 0
    kernel_size: 1
    group: 1
    stride: 1
  }
}
layer {
  name: "inception_3b/relu_3x3_reduce"
  type: "ReLU"
  bottom: "inception_3b/3x3_reduce"
  top: "inception_3b/3x3_reduce"
}
layer {
  name: "inception_3b/3x3"
  type: "Convolution"
  bottom: "inception_3b/3x3_reduce"
  top: "inception_3b/3x3"
  param {
    lr_mult: 0.25
    decay_mult: 1
  }
  param {
    lr_mult: 0.5
    decay_mult: 0
  }
  convolution_param {
    num_output: 192
    pad: 1
    kernel_size: 3
    group: 1
    stride: 1
  }
}
layer {
  name: "inception_3b/relu_3x3"
  type: "ReLU"
  bottom: "inception_3b/3x3"
  top: "inception_3b/3x3"
}
layer {
  name: "inception_3b/5x5_reduce"
  type: "Convolution"
  bottom: "inception_3a/output"
  top: "inception_3b/5x5_reduce"
  param {
    lr_mult: 0.25
    decay_mult: 1
  }
  param {
    lr_mult: 0.5
    decay_mult: 0
  }
  convolution_param {
    num_output: 32
    pad: 0
    kernel_size: 1
    group: 1
    stride: 1
  }
}
layer {
  name: "inception_3b/relu_5x5_reduce"
  type: "ReLU"
  bottom: "inception_3b/5x5_reduce"
  top: "inception_3b/5x5_reduce"
}
layer {
  name: "inception_3b/5x5"
  type: "Convolution"
  bottom: "inception_3b/5x5_reduce"
  top: "inception_3b/5x5"
  param {
    lr_mult: 0.25
    decay_mult: 1
  }
  param {
    lr_mult: 0.5
    decay_mult: 0
  }
  convolution_param {
    num_output: 96
    pad: 2
    kernel_size: 5
    group: 1
    stride: 1
  }
}
layer {
  name: "inception_3b/relu_5x5"
  type: "ReLU"
  bottom: "inception_3b/5x5"
  top: "inception_3b/5x5"
}
layer {
  name: "inception_3b/pool"
  type: "Pooling"
  bottom: "inception_3a/output"
  top: "inception_3b/pool"
  pooling_param {
    pool: MAX
    kernel_size: 3
    stride: 1
    pad: 1
  }
}
layer {
  name: "inception_3b/pool_proj"
  type: "Convolution"
  bottom: "inception_3b/pool"
  top: "inception_3b/pool_proj"
  param {
    lr_mult: 0.25
    decay_mult: 1
  }
  param {
    lr_mult: 0.5
    decay_mult: 0
  }
  convolution_param {
    num_output: 64
    pad: 0
    kernel_size: 1
    group: 1
    stride: 1
  }
}
layer {
  name: "inception_3b/relu_pool_proj"
  type: "ReLU"
  bottom: "inception_3b/pool_proj"
  top: "inception_3b/pool_proj"
}
layer {
  name: "inception_3b/output"
  type: "Concat"
  bottom: "inception_3b/1x1"
  bottom: "inception_3b/3x3"
  bottom: "inception_3b/5x5"
  bottom: "inception_3b/pool_proj"
  top: "inception_3b/output"
}
layer {
  name: "pool3/3x3_s2"
  type: "Pooling"
  bottom: "inception_3b/output"
  top: "pool3/3x3_s2"
  pooling_param {
    pool: MAX
    kernel_size: 3
    stride: 2
    pad: 0
  }
}
layer {
  name: "inception_4a/1x1"
  type: "Convolution"
  bottom: "pool3/3x3_s2"
  top: "inception_4a/1x1"
  param {
    lr_mult: 0.25
    decay_mult: 1
  }
  param {
    lr_mult: 0.5
    decay_mult: 0
  }
  convolution_param {
    num_output: 192
    pad: 0
    kernel_size: 1
    group: 1
    stride: 1
  }
}
layer {
  name: "inception_4a/relu_1x1"
  type: "ReLU"
  bottom: "inception_4a/1x1"
  top: "inception_4a/1x1"
}
layer {
  name: "inception_4a/3x3_reduce"
  type: "Convolution"
  bottom: "pool3/3x3_s2"
  top: "inception_4a/3x3_reduce"
  param {
    lr_mult: 0.25
    decay_mult: 1
  }
  param {
    lr_mult: 0.5
    decay_mult: 0
  }
  convolution_param {
    num_output: 96
    pad: 0
    kernel_size: 1
    group: 1
    stride: 1
  }
}
layer {
  name: "inception_4a/relu_3x3_reduce"
  type: "ReLU"
  bottom: "inception_4a/3x3_reduce"
  top: "inception_4a/3x3_reduce"
}
layer {
  name: "inception_4a/3x3"
  type: "Convolution"
  bottom: "inception_4a/3x3_reduce"
  top: "inception_4a/3x3"
  param {
    lr_mult: 0.25
    decay_mult: 1
  }
  param {
    lr_mult: 0.5
    decay_mult: 0
  }
  convolution_param {
    num_output: 208
    pad: 1
    kernel_size: 3
    group: 1
    stride: 1
  }
}
layer {
  name: "inception_4a/relu_3x3"
  type: "ReLU"
  bottom: "inception_4a/3x3"
  top: "inception_4a/3x3"
}
layer {
  name: "inception_4a/5x5_reduce"
  type: "Convolution"
  bottom: "pool3/3x3_s2"
  top: "inception_4a/5x5_reduce"
  param {
    lr_mult: 0.25
    decay_mult: 1
  }
  param {
    lr_mult: 0.5
    decay_mult: 0
  }
  convolution_param {
    num_output: 16
    pad: 0
    kernel_size: 1
    group: 1
    stride: 1
  }
}
layer {
  name: "inception_4a/relu_5x5_reduce"
  type: "ReLU"
  bottom: "inception_4a/5x5_reduce"
  top: "inception_4a/5x5_reduce"
}
layer {
  name: "inception_4a/5x5"
  type: "Convolution"
  bottom: "inception_4a/5x5_reduce"
  top: "inception_4a/5x5"
  param {
    lr_mult: 0.25
    decay_mult: 1
  }
  param {
    lr_mult: 0.5
    decay_mult: 0
  }
  convolution_param {
    num_output: 48
    pad: 2
    kernel_size: 5
    group: 1
    stride: 1
  }
}
layer {
  name: "inception_4a/relu_5x5"
  type: "ReLU"
  bottom: "inception_4a/5x5"
  top: "inception_4a/5x5"
}
layer {
  name: "inception_4a/pool"
  type: "Pooling"
  bottom: "pool3/3x3_s2"
  top: "inception_4a/pool"
  pooling_param {
    pool: MAX
    kernel_size: 3
    stride: 1
    pad: 1
  }
}
layer {
  name: "inception_4a/pool_proj"
  type: "Convolution"
  bottom: "inception_4a/pool"
  top: "inception_4a/pool_proj"
  param {
    lr_mult: 0.25
    decay_mult: 1
  }
  param {
    lr_mult: 0.5
    decay_mult: 0
  }
  convolution_param {
    num_output: 64
    pad: 0
    kernel_size: 1
    group: 1
    stride: 1
  }
}
layer {
  name: "inception_4a/relu_pool_proj"
  type: "ReLU"
  bottom: "inception_4a/pool_proj"
  top: "inception_4a/pool_proj"
}
layer {
  name: "inception_4a/output"
  type: "Concat"
  bottom: "inception_4a/1x1"
  bottom: "inception_4a/3x3"
  bottom: "inception_4a/5x5"
  bottom: "inception_4a/pool_proj"
  top: "inception_4a/output"
}
layer {
  name: "inception_4b/1x1"
  type: "Convolution"
  bottom: "inception_4a/output"
  top: "inception_4b/1x1"
  param {
    lr_mult: 0.25
    decay_mult: 1
  }
  param {
    lr_mult: 0.5
    decay_mult: 0
  }
  convolution_param {
    num_output: 160
    pad: 0
    kernel_size: 1
    group: 1
    stride: 1
  }
}
layer {
  name: "inception_4b/relu_1x1"
  type: "ReLU"
  bottom: "inception_4b/1x1"
  top: "inception_4b/1x1"
}
layer {
  name: "inception_4b/3x3_reduce"
  type: "Convolution"
  bottom: "inception_4a/output"
  top: "inception_4b/3x3_reduce"
  param {
    lr_mult: 0.25
    decay_mult: 1
  }
  param {
    lr_mult: 0.5
    decay_mult: 0
  }
  convolution_param {
    num_output: 112
    pad: 0
    kernel_size: 1
    group: 1
    stride: 1
  }
}
layer {
  name: "inception_4b/relu_3x3_reduce"
  type: "ReLU"
  bottom: "inception_4b/3x3_reduce"
  top: "inception_4b/3x3_reduce"
}
layer {
  name: "inception_4b/3x3"
  type: "Convolution"
  bottom: "inception_4b/3x3_reduce"
  top: "inception_4b/3x3"
  param {
    lr_mult: 0.25
    decay_mult: 1
  }
  param {
    lr_mult: 0.5
    decay_mult: 0
  }
  convolution_param {
    num_output: 224
    pad: 1
    kernel_size: 3
    group: 1
    stride: 1
  }
}
layer {
  name: "inception_4b/relu_3x3"
  type: "ReLU"
  bottom: "inception_4b/3x3"
  top: "inception_4b/3x3"
}
layer {
  name: "inception_4b/5x5_reduce"
  type: "Convolution"
  bottom: "inception_4a/output"
  top: "inception_4b/5x5_reduce"
  param {
    lr_mult: 0.25
    decay_mult: 1
  }
  param {
    lr_mult: 0.5
    decay_mult: 0
  }
  convolution_param {
    num_output: 24
    pad: 0
    kernel_size: 1
    group: 1
    stride: 1
  }
}
layer {
  name: "inception_4b/relu_5x5_reduce"
  type: "ReLU"
  bottom: "inception_4b/5x5_reduce"
  top: "inception_4b/5x5_reduce"
}
layer {
  name: "inception_4b/5x5"
  type: "Convolution"
  bottom: "inception_4b/5x5_reduce"
  top: "inception_4b/5x5"
  param {
    lr_mult: 0.25
    decay_mult: 1
  }
  param {
    lr_mult: 0.5
    decay_mult: 0
  }
  convolution_param {
    num_output: 64
    pad: 2
    kernel_size: 5
    group: 1
    stride: 1
  }
}
layer {
  name: "inception_4b/relu_5x5"
  type: "ReLU"
  bottom: "inception_4b/5x5"
  top: "inception_4b/5x5"
}
layer {
  name: "inception_4b/pool"
  type: "Pooling"
  bottom: "inception_4a/output"
  top: "inception_4b/pool"
  pooling_param {
    pool: MAX
    kernel_size: 3
    stride: 1
    pad: 1
  }
}
layer {
  name: "inception_4b/pool_proj"
  type: "Convolution"
  bottom: "inception_4b/pool"
  top: "inception_4b/pool_proj"
  param {
    lr_mult: 0.25
    decay_mult: 1
  }
  param {
    lr_mult: 0.5
    decay_mult: 0
  }
  convolution_param {
    num_output: 64
    pad: 0
    kernel_size: 1
    group: 1
    stride: 1
  }
}
layer {
  name: "inception_4b/relu_pool_proj"
  type: "ReLU"
  bottom: "inception_4b/pool_proj"
  top: "inception_4b/pool_proj"
}
layer {
  name: "inception_4b/output"
  type: "Concat"
  bottom: "inception_4b/1x1"
  bottom: "inception_4b/3x3"
  bottom: "inception_4b/5x5"
  bottom: "inception_4b/pool_proj"
  top: "inception_4b/output"
}
layer {
  name: "inception_4c/1x1"
  type: "Convolution"
  bottom: "inception_4b/output"
  top: "inception_4c/1x1"
  param {
    lr_mult: 0.25
    decay_mult: 1
  }
  param {
    lr_mult: 0.5
    decay_mult: 0
  }
  convolution_param {
    num_output: 128
    pad: 0
    kernel_size: 1
    group: 1
    stride: 1
  }
}
layer {
  name: "inception_4c/relu_1x1"
  type: "ReLU"
  bottom: "inception_4c/1x1"
  top: "inception_4c/1x1"
}
layer {
  name: "inception_4c/3x3_reduce"
  type: "Convolution"
  bottom: "inception_4b/output"
  top: "inception_4c/3x3_reduce"
  param {
    lr_mult: 0.25
    decay_mult: 1
  }
  param {
    lr_mult: 0.5
    decay_mult: 0
  }
  convolution_param {
    num_output: 128
    pad: 0
    kernel_size: 1
    group: 1
    stride: 1
  }
}
layer {
  name: "inception_4c/relu_3x3_reduce"
  type: "ReLU"
  bottom: "inception_4c/3x3_reduce"
  top: "inception_4c/3x3_reduce"
}
layer {
  name: "inception_4c/3x3"
  type: "Convolution"
  bottom: "inception_4c/3x3_reduce"
  top: "inception_4c/3x3"
  param {
    lr_mult: 0.25
    decay_mult: 1
  }
  param {
    lr_mult: 0.5
    decay_mult: 0
  }
  convolution_param {
    num_output: 256
    pad: 1
    kernel_size: 3
    group: 1
    stride: 1
  }
}
layer {
  name: "inception_4c/relu_3x3"
  type: "ReLU"
  bottom: "inception_4c/3x3"
  top: "inception_4c/3x3"
}
layer {
  name: "inception_4c/5x5_reduce"
  type: "Convolution"
  bottom: "inception_4b/output"
  top: "inception_4c/5x5_reduce"
  param {
    lr_mult: 0.25
    decay_mult: 1
  }
  param {
    lr_mult: 0.5
    decay_mult: 0
  }
  convolution_param {
    num_output: 24
    pad: 0
    kernel_size: 1
    group: 1
    stride: 1
  }
}
layer {
  name: "inception_4c/relu_5x5_reduce"
  type: "ReLU"
  bottom: "inception_4c/5x5_reduce"
  top: "inception_4c/5x5_reduce"
}
layer {
  name: "inception_4c/5x5"
  type: "Convolution"
  bottom: "inception_4c/5x5_reduce"
  top: "inception_4c/5x5"
  param {
    lr_mult: 0.25
    decay_mult: 1
  }
  param {
    lr_mult: 0.5
    decay_mult: 0
  }
  convolution_param {
    num_output: 64
    pad: 2
    kernel_size: 5
    group: 1
    stride: 1
  }
}
layer {
  name: "inception_4c/relu_5x5"
  type: "ReLU"
  bottom: "inception_4c/5x5"
  top: "inception_4c/5x5"
}
layer {
  name: "inception_4c/pool"
  type: "Pooling"
  bottom: "inception_4b/output"
  top: "inception_4c/pool"
  pooling_param {
    pool: MAX
    kernel_size: 3
    stride: 1
    pad: 1
  }
}
layer {
  name: "inception_4c/pool_proj"
  type: "Convolution"
  bottom: "inception_4c/pool"
  top: "inception_4c/pool_proj"
  param {
    lr_mult: 0.25
    decay_mult: 1
  }
  param {
    lr_mult: 0.5
    decay_mult: 0
  }
  convolution_param {
    num_output: 64
    pad: 0
    kernel_size: 1
    group: 1
    stride: 1
  }
}
layer {
  name: "inception_4c/relu_pool_proj"
  type: "ReLU"
  bottom: "inception_4c/pool_proj"
  top: "inception_4c/pool_proj"
}
layer {
  name: "inception_4c/output"
  type: "Concat"
  bottom: "inception_4c/1x1"
  bottom: "inception_4c/3x3"
  bottom: "inception_4c/5x5"
  bottom: "inception_4c/pool_proj"
  top: "inception_4c/output"
}
layer {
  name: "inception_4d/1x1"
  type: "Convolution"
  bottom: "inception_4c/output"
  top: "inception_4d/1x1"
  param {
    lr_mult: 0.25
    decay_mult: 1
  }
  param {
    lr_mult: 0.5
    decay_mult: 0
  }
  convolution_param {
    num_output: 112
    pad: 0
    kernel_size: 1
    group: 1
    stride: 1
  }
}
layer {
  name: "inception_4d/relu_1x1"
  type: "ReLU"
  bottom: "inception_4d/1x1"
  top: "inception_4d/1x1"
}
layer {
  name: "inception_4d/3x3_reduce"
  type: "Convolution"
  bottom: "inception_4c/output"
  top: "inception_4d/3x3_reduce"
  param {
    lr_mult: 0.25
    decay_mult: 1
  }
  param {
    lr_mult: 0.5
    decay_mult: 0
  }
  convolution_param {
    num_output: 144
    pad: 0
    kernel_size: 1
    group: 1
    stride: 1
  }
}
layer {
  name: "inception_4d/relu_3x3_reduce"
  type: "ReLU"
  bottom: "inception_4d/3x3_reduce"
  top: "inception_4d/3x3_reduce"
}
layer {
  name: "inception_4d/3x3"
  type: "Convolution"
  bottom: "inception_4d/3x3_reduce"
  top: "inception_4d/3x3"
  param {
    lr_mult: 0.25
    decay_mult: 1
  }
  param {
    lr_mult: 0.5
    decay_mult: 0
  }
  convolution_param {
    num_output: 288
    pad: 1
    kernel_size: 3
    group: 1
    stride: 1
  }
}
layer {
  name: "inception_4d/relu_3x3"
  type: "ReLU"
  bottom: "inception_4d/3x3"
  top: "inception_4d/3x3"
}
layer {
  name: "inception_4d/5x5_reduce"
  type: "Convolution"
  bottom: "inception_4c/output"
  top: "inception_4d/5x5_reduce"
  param {
    lr_mult: 0.25
    decay_mult: 1
  }
  param {
    lr_mult: 0.5
    decay_mult: 0
  }
  convolution_param {
    num_output: 32
    pad: 0
    kernel_size: 1
    group: 1
    stride: 1
  }
}
layer {
  name: "inception_4d/relu_5x5_reduce"
  type: "ReLU"
  bottom: "inception_4d/5x5_reduce"
  top: "inception_4d/5x5_reduce"
}
layer {
  name: "inception_4d/5x5"
  type: "Convolution"
  bottom: "inception_4d/5x5_reduce"
  top: "inception_4d/5x5"
  param {
    lr_mult: 0.25
    decay_mult: 1
  }
  param {
    lr_mult: 0.5
    decay_mult: 0
  }
  convolution_param {
    num_output: 64
    pad: 2
    kernel_size: 5
    group: 1
    stride: 1
  }
}
layer {
  name: "inception_4d/relu_5x5"
  type: "ReLU"
  bottom: "inception_4d/5x5"
  top: "inception_4d/5x5"
}
layer {
  name: "inception_4d/pool"
  type: "Pooling"
  bottom: "inception_4c/output"
  top: "inception_4d/pool"
  pooling_param {
    pool: MAX
    kernel_size: 3
    stride: 1
    pad: 1
  }
}
layer {
  name: "inception_4d/pool_proj"
  type: "Convolution"
  bottom: "inception_4d/pool"
  top: "inception_4d/pool_proj"
  param {
    lr_mult: 0.25
    decay_mult: 1
  }
  param {
    lr_mult: 0.5
    decay_mult: 0
  }
  convolution_param {
    num_output: 64
    pad: 0
    kernel_size: 1
    group: 1
    stride: 1
  }
}
layer {
  name: "inception_4d/relu_pool_proj"
  type: "ReLU"
  bottom: "inception_4d/pool_proj"
  top: "inception_4d/pool_proj"
}
layer {
  name: "inception_4d/output"
  type: "Concat"
  bottom: "inception_4d/1x1"
  bottom: "inception_4d/3x3"
  bottom: "inception_4d/5x5"
  bottom: "inception_4d/pool_proj"
  top: "inception_4d/output"
}
layer {
  name: "inception_4e/1x1"
  type: "Convolution"
  bottom: "inception_4d/output"
  top: "inception_4e/1x1"
  param {
    lr_mult: 0.25
    decay_mult: 1
  }
  param {
    lr_mult: 0.5
    decay_mult: 0
  }
  convolution_param {
    num_output: 256
    pad: 0
    kernel_size: 1
    group: 1
    stride: 1
  }
}
layer {
  name: "inception_4e/relu_1x1"
  type: "ReLU"
  bottom: "inception_4e/1x1"
  top: "inception_4e/1x1"
}
layer {
  name: "inception_4e/3x3_reduce"
  type: "Convolution"
  bottom: "inception_4d/output"
  top: "inception_4e/3x3_reduce"
  param {
    lr_mult: 0.25
    decay_mult: 1
  }
  param {
    lr_mult: 0.5
    decay_mult: 0
  }
  convolution_param {
    num_output: 160
    pad: 0
    kernel_size: 1
    group: 1
    stride: 1
  }
}
layer {
  name: "inception_4e/relu_3x3_reduce"
  type: "ReLU"
  bottom: "inception_4e/3x3_reduce"
  top: "inception_4e/3x3_reduce"
}
layer {
  name: "inception_4e/3x3"
  type: "Convolution"
  bottom: "inception_4e/3x3_reduce"
  top: "inception_4e/3x3"
  param {
    lr_mult: 0.25
    decay_mult: 1
  }
  param {
    lr_mult: 0.5
    decay_mult: 0
  }
  convolution_param {
    num_output: 320
    pad: 1
    kernel_size: 3
    group: 1
    stride: 1
  }
}
layer {
  name: "inception_4e/relu_3x3"
  type: "ReLU"
  bottom: "inception_4e/3x3"
  top: "inception_4e/3x3"
}
layer {
  name: "inception_4e/5x5_reduce"
  type: "Convolution"
  bottom: "inception_4d/output"
  top: "inception_4e/5x5_reduce"
  param {
    lr_mult: 0.25
    decay_mult: 1
  }
  param {
    lr_mult: 0.5
    decay_mult: 0
  }
  convolution_param {
    num_output: 32
    pad: 0
    kernel_size: 1
    group: 1
    stride: 1
  }
}
layer {
  name: "inception_4e/relu_5x5_reduce"
  type: "ReLU"
  bottom: "inception_4e/5x5_reduce"
  top: "inception_4e/5x5_reduce"
}
layer {
  name: "inception_4e/5x5"
  type: "Convolution"
  bottom: "inception_4e/5x5_reduce"
  top: "inception_4e/5x5"
  param {
    lr_mult: 0.25
    decay_mult: 1
  }
  param {
    lr_mult: 0.5
    decay_mult: 0
  }
  convolution_param {
    num_output: 128
    pad: 2
    kernel_size: 5
    group: 1
    stride: 1
  }
}
layer {
  name: "inception_4e/relu_5x5"
  type: "ReLU"
  bottom: "inception_4e/5x5"
  top: "inception_4e/5x5"
}
layer {
  name: "inception_4e/pool"
  type: "Pooling"
  bottom: "inception_4d/output"
  top: "inception_4e/pool"
  pooling_param {
    pool: MAX
    kernel_size: 3
    stride: 1
    pad: 1
  }
}
layer {
  name: "inception_4e/pool_proj"
  type: "Convolution"
  bottom: "inception_4e/pool"
  top: "inception_4e/pool_proj"
  param {
    lr_mult: 0.25
    decay_mult: 1
  }
  param {
    lr_mult: 0.5
    decay_mult: 0
  }
  convolution_param {
    num_output: 128
    pad: 0
    kernel_size: 1
    group: 1
    stride: 1
  }
}
layer {
  name: "inception_4e/relu_pool_proj"
  type: "ReLU"
  bottom: "inception_4e/pool_proj"
  top: "inception_4e/pool_proj"
}
layer {
  name: "inception_4e/output"
  type: "Concat"
  bottom: "inception_4e/1x1"
  bottom: "inception_4e/3x3"
  bottom: "inception_4e/5x5"
  bottom: "inception_4e/pool_proj"
  top: "inception_4e/output"
}
layer {
  name: "pool4/3x3_s2"
  type: "Pooling"
  bottom: "inception_4e/output"
  top: "pool4/3x3_s2"
  pooling_param {
    pool: MAX
    kernel_size: 3
    stride: 2
    pad: 0
  }
}
layer {
  name: "inception_5a/1x1"
  type: "Convolution"
  bottom: "pool4/3x3_s2"
  top: "inception_5a/1x1"
  param {
    lr_mult: 0.25
    decay_mult: 1
  }
  param {
    lr_mult: 0.5
    decay_mult: 0
  }
  convolution_param {
    num_output: 256
    pad: 0
    kernel_size: 1
    group: 1
    stride: 1
  }
}
layer {
  name: "inception_5a/relu_1x1"
  type: "ReLU"
  bottom: "inception_5a/1x1"
  top: "inception_5a/1x1"
}
layer {
  name: "inception_5a/3x3_reduce"
  type: "Convolution"
  bottom: "pool4/3x3_s2"
  top: "inception_5a/3x3_reduce"
  param {
    lr_mult: 0.25
    decay_mult: 1
  }
  param {
    lr_mult: 0.5
    decay_mult: 0
  }
  convolution_param {
    num_output: 160
    pad: 0
    kernel_size: 1
    group: 1
    stride: 1
  }
}
layer {
  name: "inception_5a/relu_3x3_reduce"
  type: "ReLU"
  bottom: "inception_5a/3x3_reduce"
  top: "inception_5a/3x3_reduce"
}
layer {
  name: "inception_5a/3x3"
  type: "Convolution"
  bottom: "inception_5a/3x3_reduce"
  top: "inception_5a/3x3"
  param {
    lr_mult: 0.25
    decay_mult: 1
  }
  param {
    lr_mult: 0.5
    decay_mult: 0
  }
  convolution_param {
    num_output: 320
    pad: 1
    kernel_size: 3
    group: 1
    stride: 1
  }
}
layer {
  name: "inception_5a/relu_3x3"
  type: "ReLU"
  bottom: "inception_5a/3x3"
  top: "inception_5a/3x3"
}
layer {
  name: "inception_5a/5x5_reduce"
  type: "Convolution"
  bottom: "pool4/3x3_s2"
  top: "inception_5a/5x5_reduce"
  param {
    lr_mult: 0.25
    decay_mult: 1
  }
  param {
    lr_mult: 0.5
    decay_mult: 0
  }
  convolution_param {
    num_output: 32
    pad: 0
    kernel_size: 1
    group: 1
    stride: 1
  }
}
layer {
  name: "inception_5a/relu_5x5_reduce"
  type: "ReLU"
  bottom: "inception_5a/5x5_reduce"
  top: "inception_5a/5x5_reduce"
}
layer {
  name: "inception_5a/5x5"
  type: "Convolution"
  bottom: "inception_5a/5x5_reduce"
  top: "inception_5a/5x5"
  param {
    lr_mult: 0.25
    decay_mult: 1
  }
  param {
    lr_mult: 0.5
    decay_mult: 0
  }
  convolution_param {
    num_output: 128
    pad: 2
    kernel_size: 5
    group: 1
    stride: 1
  }
}
layer {
  name: "inception_5a/relu_5x5"
  type: "ReLU"
  bottom: "inception_5a/5x5"
  top: "inception_5a/5x5"
}
layer {
  name: "inception_5a/pool"
  type: "Pooling"
  bottom: "pool4/3x3_s2"
  top: "inception_5a/pool"
  pooling_param {
    pool: MAX
    kernel_size: 3
    stride: 1
    pad: 1
  }
}
layer {
  name: "inception_5a/pool_proj"
  type: "Convolution"
  bottom: "inception_5a/pool"
  top: "inception_5a/pool_proj"
  param {
    lr_mult: 0.25
    decay_mult: 1
  }
  param {
    lr_mult: 0.5
    decay_mult: 0
  }
  convolution_param {
    num_output: 128
    pad: 0
    kernel_size: 1
    group: 1
    stride: 1
  }
}
layer {
  name: "inception_5a/relu_pool_proj"
  type: "ReLU"
  bottom: "inception_5a/pool_proj"
  top: "inception_5a/pool_proj"
}
layer {
  name: "inception_5a/output"
  type: "Concat"
  bottom: "inception_5a/1x1"
  bottom: "inception_5a/3x3"
  bottom: "inception_5a/5x5"
  bottom: "inception_5a/pool_proj"
  top: "inception_5a/output"
}
layer {
  name: "inception_5b/1x1"
  type: "Convolution"
  bottom: "inception_5a/output"
  top: "inception_5b/1x1"
  param {
    lr_mult: 0.25
    decay_mult: 1
  }
  param {
    lr_mult: 0.5
    decay_mult: 0
  }
  convolution_param {
    num_output: 384
    pad: 0
    kernel_size: 1
    group: 1
    stride: 1
  }
}
layer {
  name: "inception_5b/relu_1x1"
  type: "ReLU"
  bottom: "inception_5b/1x1"
  top: "inception_5b/1x1"
}
layer {
  name: "inception_5b/3x3_reduce"
  type: "Convolution"
  bottom: "inception_5a/output"
  top: "inception_5b/3x3_reduce"
  param {
    lr_mult: 0.25
    decay_mult: 1
  }
  param {
    lr_mult: 0.5
    decay_mult: 0
  }
  convolution_param {
    num_output: 192
    pad: 0
    kernel_size: 1
    group: 1
    stride: 1
  }
}
layer {
  name: "inception_5b/relu_3x3_reduce"
  type: "ReLU"
  bottom: "inception_5b/3x3_reduce"
  top: "inception_5b/3x3_reduce"
}
layer {
  name: "inception_5b/3x3"
  type: "Convolution"
  bottom: "inception_5b/3x3_reduce"
  top: "inception_5b/3x3"
  param {
    lr_mult: 0.25
    decay_mult: 1
  }
  param {
    lr_mult: 0.5
    decay_mult: 0
  }
  convolution_param {
    num_output: 384
    pad: 1
    kernel_size: 3
    group: 1
    stride: 1
  }
}
layer {
  name: "inception_5b/relu_3x3"
  type: "ReLU"
  bottom: "inception_5b/3x3"
  top: "inception_5b/3x3"
}
layer {
  name: "inception_5b/5x5_reduce"
  type: "Convolution"
  bottom: "inception_5a/output"
  top: "inception_5b/5x5_reduce"
  param {
    lr_mult: 0.25
    decay_mult: 1
  }
  param {
    lr_mult: 0.5
    decay_mult: 0
  }
  convolution_param {
    num_output: 48
    pad: 0
    kernel_size: 1
    group: 1
    stride: 1
  }
}
layer {
  name: "inception_5b/relu_5x5_reduce"
  type: "ReLU"
  bottom: "inception_5b/5x5_reduce"
  top: "inception_5b/5x5_reduce"
}
layer {
  name: "inception_5b/5x5"
  type: "Convolution"
  bottom: "inception_5b/5x5_reduce"
  top: "inception_5b/5x5"
  param {
    lr_mult: 0.25
    decay_mult: 1
  }
  param {
    lr_mult: 0.5
    
I1022 22:50:36.642977 13293 layer_factory.hpp:76] Creating layer data
I1022 22:50:36.643002 13293 net.cpp:110] Creating Layer data
I1022 22:50:36.643013 13293 net.cpp:433] data -> data
I1022 22:50:36.643043 13293 net.cpp:433] data -> dir0_TL_label
I1022 22:50:36.643059 13293 net.cpp:433] data -> dir0_BR_label
…
I1022 22:50:52.565125 13293 attention_data_layer.cpp:116] num: 4000 /data1/PASCAL/VOCdevkit/VOC2007/JPEGImages/004246.jpg 3 375 500 attention data parsing... 64
I1022 22:50:52.858352 13293 attention_data_layer.cpp:116] num: 5000 /data1/PASCAL/VOCdevkit/VOC2007/JPEGImages/008076.jpg 3 375 500 attention data parsing... 192
I1022 22:50:52.861030 13293 attention_data_layer.cpp:125] Number of images  : 5011
I1022 22:50:52.861037 13293 attention_data_layer.cpp:126] Number of windows : 5011840
I1022 22:50:52.861048 13293 attention_data_layer.cpp:134] output data size: 128,3,224,224
I1022 22:50:52.861132 13293 net.cpp:155] Setting up data
I1022 22:50:52.861146 13293 net.cpp:163] Top shape: 128 3 224 224 (19267584)
I1022 22:50:52.861153 13293 net.cpp:163] Top shape: 128 (128)
I1022 22:50:52.861171 13293 net.cpp:163] Top shape: 128 (128)
I1022 22:50:52.861186 13293 net.cpp:163] Top shape: 128 (128)
I1022 22:50:52.861191 13293 net.cpp:163] Top shape: 128 (128)
I1022 22:50:52.861196 13293 net.cpp:163] Top shape: 128 (128)
I1022 22:50:52.861202 13293 net.cpp:163] Top shape: 128 (128)
I1022 22:50:52.861207 13293 net.cpp:163] Top shape: 128 (128)
I1022 22:50:52.861212 13293 net.cpp:163] Top shape: 128 (128)
I1022 22:50:52.861217 13293 net.cpp:163] Top shape: 128 (128)
I1022 22:50:52.861222 13293 net.cpp:163] Top shape: 128 (128)
I1022 22:50:52.861227 13293 net.cpp:163] Top shape: 128 (128)
I1022 22:50:52.861232 13293 net.cpp:163] Top shape: 128 (128)
I1022 22:50:52.861238 13293 net.cpp:163] Top shape: 128 (128)
I1022 22:50:52.861243 13293 net.cpp:163] Top shape: 128 (128)
I1022 22:50:52.861248 13293 net.cpp:163] Top shape: 128 (128)
I1022 22:50:52.861253 13293 net.cpp:163] Top shape: 128 (128)
I1022 22:50:52.861258 13293 net.cpp:163] Top shape: 128 (128)
I1022 22:50:52.861263 13293 net.cpp:163] Top shape: 128 (128)
I1022 22:50:52.861268 13293 net.cpp:163] Top shape: 128 (128)
I1022 22:50:52.861274 13293 net.cpp:163] Top shape: 128 (128)
I1022 22:50:52.861279 13293 net.cpp:163] Top shape: 128 (128)
I1022 22:50:52.861284 13293 net.cpp:163] Top shape: 128 (128)
I1022 22:50:52.861289 13293 net.cpp:163] Top shape: 128 (128)
I1022 22:50:52.861294 13293 net.cpp:163] Top shape: 128 (128)
I1022 22:50:52.861299 13293 net.cpp:163] Top shape: 128 (128)
I1022 22:50:52.861304 13293 net.cpp:163] Top shape: 128 (128)
I1022 22:50:52.861309 13293 net.cpp:163] Top shape: 128 (128)
I1022 22:50:52.861313 13293 net.cpp:163] Top shape: 128 (128)
I1022 22:50:52.861318 13293 net.cpp:163] Top shape: 128 (128)
I1022 22:50:52.861323 13293 net.cpp:163] Top shape: 128 (128)
I1022 22:50:52.861328 13293 net.cpp:163] Top shape: 128 (128)
I1022 22:50:52.861333 13293 net.cpp:163] Top shape: 128 (128)
I1022 22:50:52.861338 13293 net.cpp:163] Top shape: 128 (128)
I1022 22:50:52.861343 13293 net.cpp:163] Top shape: 128 (128)
I1022 22:50:52.861348 13293 net.cpp:163] Top shape: 128 (128)
I1022 22:50:52.861353 13293 net.cpp:163] Top shape: 128 (128)
I1022 22:50:52.861358 13293 net.cpp:163] Top shape: 128 (128)
I1022 22:50:52.861363 13293 net.cpp:163] Top shape: 128 (128)
I1022 22:50:52.861368 13293 net.cpp:163] Top shape: 128 (128)
I1022 22:50:52.861373 13293 net.cpp:163] Top shape: 128 (128)
I1022 22:50:52.861378 13293 net.cpp:163] Top shape: 128 (128)
I1022 22:50:52.861387 13293 layer_factory.hpp:76] Creating layer conv1/7x7_s2
I1022 22:50:52.861404 13293 net.cpp:110] Creating Layer conv1/7x7_s2
I1022 22:50:52.861413 13293 net.cpp:477] conv1/7x7_s2 <- data
I1022 22:50:52.861438 13293 net.cpp:433] conv1/7x7_s2 -> conv1/7x7_s2
I1022 22:50:52.900892 13293 net.cpp:155] Setting up conv1/7x7_s2
I1022 22:50:52.900926 13293 net.cpp:163] Top shape: 128 64 112 112 (102760448)
I1022 22:50:52.900945 13293 layer_factory.hpp:76] Creating layer conv1/relu_7x7
I1022 22:50:52.900959 13293 net.cpp:110] Creating Layer conv1/relu_7x7
I1022 22:50:52.900965 13293 net.cpp:477] conv1/relu_7x7 <- conv1/7x7_s2
I1022 22:50:52.900974 13293 net.cpp:419] conv1/relu_7x7 -> conv1/7x7_s2 (in-place)
I1022 22:50:52.901048 13293 net.cpp:155] Setting up conv1/relu_7x7
I1022 22:50:52.901058 13293 net.cpp:163] Top shape: 128 64 112 112 (102760448)
I1022 22:50:52.901064 13293 layer_factory.hpp:76] Creating layer pool1/3x3_s2
I1022 22:50:52.901074 13293 net.cpp:110] Creating Layer pool1/3x3_s2
I1022 22:50:52.901079 13293 net.cpp:477] pool1/3x3_s2 <- conv1/7x7_s2
I1022 22:50:52.901087 13293 net.cpp:433] pool1/3x3_s2 -> pool1/3x3_s2
I1022 22:50:52.901268 13293 net.cpp:155] Setting up pool1/3x3_s2
I1022 22:50:52.901283 13293 net.cpp:163] Top shape: 128 64 56 56 (25690112)
I1022 22:50:52.901289 13293 layer_factory.hpp:76] Creating layer conv2/3x3_reduce
I1022 22:50:52.901301 13293 net.cpp:110] Creating Layer conv2/3x3_reduce
I1022 22:50:52.901306 13293 net.cpp:477] conv2/3x3_reduce <- pool1/3x3_s2
I1022 22:50:52.901314 13293 net.cpp:433] conv2/3x3_reduce -> conv2/3x3_reduce
I1022 22:50:52.902058 13293 net.cpp:155] Setting up conv2/3x3_reduce
I1022 22:50:52.902083 13293 net.cpp:163] Top shape: 128 64 56 56 (25690112)
I1022 22:50:52.902096 13293 layer_factory.hpp:76] Creating layer conv2/relu_3x3_reduce
I1022 22:50:52.902102 13293 net.cpp:110] Creating Layer conv2/relu_3x3_reduce
I1022 22:50:52.902107 13293 net.cpp:477] conv2/relu_3x3_reduce <- conv2/3x3_reduce
I1022 22:50:52.902115 13293 net.cpp:419] conv2/relu_3x3_reduce -> conv2/3x3_reduce (in-place)
I1022 22:50:52.902170 13293 net.cpp:155] Setting up conv2/relu_3x3_reduce
I1022 22:50:52.902179 13293 net.cpp:163] Top shape: 128 64 56 56 (25690112)
I1022 22:50:52.902184 13293 layer_factory.hpp:76] Creating layer conv2/3x3
I1022 22:50:52.902191 13293 net.cpp:110] Creating Layer conv2/3x3
I1022 22:50:52.902196 13293 net.cpp:477] conv2/3x3 <- conv2/3x3_reduce
I1022 22:50:52.902204 13293 net.cpp:433] conv2/3x3 -> conv2/3x3
I1022 22:50:52.902964 13293 net.cpp:155] Setting up conv2/3x3
I1022 22:50:52.902981 13293 net.cpp:163] Top shape: 128 192 56 56 (77070336)
I1022 22:50:52.902992 13293 layer_factory.hpp:76] Creating layer conv2/relu_3x3
I1022 22:50:52.902998 13293 net.cpp:110] Creating Layer conv2/relu_3x3
I1022 22:50:52.903004 13293 net.cpp:477] conv2/relu_3x3 <- conv2/3x3
I1022 22:50:52.903012 13293 net.cpp:419] conv2/relu_3x3 -> conv2/3x3 (in-place)
I1022 22:50:52.903069 13293 net.cpp:155] Setting up conv2/relu_3x3
I1022 22:50:52.903077 13293 net.cpp:163] Top shape: 128 192 56 56 (77070336)
I1022 22:50:52.903082 13293 layer_factory.hpp:76] Creating layer pool2/3x3_s2
I1022 22:50:52.903090 13293 net.cpp:110] Creating Layer pool2/3x3_s2
I1022 22:50:52.903095 13293 net.cpp:477] pool2/3x3_s2 <- conv2/3x3
I1022 22:50:52.903102 13293 net.cpp:433] pool2/3x3_s2 -> pool2/3x3_s2
I1022 22:50:52.903156 13293 net.cpp:155] Setting up pool2/3x3_s2
I1022 22:50:52.903163 13293 net.cpp:163] Top shape: 128 192 28 28 (19267584)
I1022 22:50:52.903167 13293 layer_factory.hpp:76] Creating layer pool2/3x3_s2_pool2/3x3_s2_0_split
I1022 22:50:52.903182 13293 net.cpp:110] Creating Layer pool2/3x3_s2_pool2/3x3_s2_0_split
I1022 22:50:52.903187 13293 net.cpp:477] pool2/3x3_s2_pool2/3x3_s2_0_split <- pool2/3x3_s2
I1022 22:50:52.903192 13293 net.cpp:433] pool2/3x3_s2_pool2/3x3_s2_0_split -> pool2/3x3_s2_pool2/3x3_s2_0_split_0
I1022 22:50:52.903200 13293 net.cpp:433] pool2/3x3_s2_pool2/3x3_s2_0_split -> pool2/3x3_s2_pool2/3x3_s2_0_split_1
I1022 22:50:52.903208 13293 net.cpp:433] pool2/3x3_s2_pool2/3x3_s2_0_split -> pool2/3x3_s2_pool2/3x3_s2_0_split_2
I1022 22:50:52.903216 13293 net.cpp:433] pool2/3x3_s2_pool2/3x3_s2_0_split -> pool2/3x3_s2_pool2/3x3_s2_0_split_3
I1022 22:50:52.903226 13293 net.cpp:155] Setting up pool2/3x3_s2_pool2/3x3_s2_0_split
I1022 22:50:52.903231 13293 net.cpp:163] Top shape: 128 192 28 28 (19267584)
I1022 22:50:52.903236 13293 net.cpp:163] Top shape: 128 192 28 28 (19267584)
I1022 22:50:52.903241 13293 net.cpp:163] Top shape: 128 192 28 28 (19267584)
I1022 22:50:52.903246 13293 net.cpp:163] Top shape: 128 192 28 28 (19267584)
I1022 22:50:52.903250 13293 layer_factory.hpp:76] Creating layer inception_3a/1x1
I1022 22:50:52.903259 13293 net.cpp:110] Creating Layer inception_3a/1x1
I1022 22:50:52.903264 13293 net.cpp:477] inception_3a/1x1 <- pool2/3x3_s2_pool2/3x3_s2_0_split_0
I1022 22:50:52.903270 13293 net.cpp:433] inception_3a/1x1 -> inception_3a/1x1
I1022 22:50:52.903967 13293 net.cpp:155] Setting up inception_3a/1x1
I1022 22:50:52.903982 13293 net.cpp:163] Top shape: 128 64 28 28 (6422528)
I1022 22:50:52.903991 13293 layer_factory.hpp:76] Creating layer inception_3a/relu_1x1
I1022 22:50:52.903998 13293 net.cpp:110] Creating Layer inception_3a/relu_1x1
I1022 22:50:52.904005 13293 net.cpp:477] inception_3a/relu_1x1 <- inception_3a/1x1
I1022 22:50:52.904011 13293 net.cpp:419] inception_3a/relu_1x1 -> inception_3a/1x1 (in-place)
I1022 22:50:52.904186 13293 net.cpp:155] Setting up inception_3a/relu_1x1
I1022 22:50:52.904198 13293 net.cpp:163] Top shape: 128 64 28 28 (6422528)
I1022 22:50:52.904204 13293 layer_factory.hpp:76] Creating layer inception_3a/3x3_reduce
I1022 22:50:52.904217 13293 net.cpp:110] Creating Layer inception_3a/3x3_reduce
I1022 22:50:52.904228 13293 net.cpp:477] inception_3a/3x3_reduce <- pool2/3x3_s2_pool2/3x3_s2_0_split_1
I1022 22:50:52.904235 13293 net.cpp:433] inception_3a/3x3_reduce -> inception_3a/3x3_reduce
I1022 22:50:52.904938 13293 net.cpp:155] Setting up inception_3a/3x3_reduce
I1022 22:50:52.904953 13293 net.cpp:163] Top shape: 128 96 28 28 (9633792)
I1022 22:50:52.904965 13293 layer_factory.hpp:76] Creating layer inception_3a/relu_3x3_reduce
I1022 22:50:52.904973 13293 net.cpp:110] Creating Layer inception_3a/relu_3x3_reduce
I1022 22:50:52.904978 13293 net.cpp:477] inception_3a/relu_3x3_reduce <- inception_3a/3x3_reduce
I1022 22:50:52.904985 13293 net.cpp:419] inception_3a/relu_3x3_reduce -> inception_3a/3x3_reduce (in-place)
I1022 22:50:52.905041 13293 net.cpp:155] Setting up inception_3a/relu_3x3_reduce
I1022 22:50:52.905050 13293 net.cpp:163] Top shape: 128 96 28 28 (9633792)
I1022 22:50:52.905055 13293 layer_factory.hpp:76] Creating layer inception_3a/3x3
I1022 22:50:52.905063 13293 net.cpp:110] Creating Layer inception_3a/3x3
I1022 22:50:52.905067 13293 net.cpp:477] inception_3a/3x3 <- inception_3a/3x3_reduce
I1022 22:50:52.905074 13293 net.cpp:433] inception_3a/3x3 -> inception_3a/3x3
I1022 22:50:52.905457 13293 net.cpp:155] Setting up inception_3a/3x3
I1022 22:50:52.905470 13293 net.cpp:163] Top shape: 128 128 28 28 (12845056)
I1022 22:50:52.905478 13293 layer_factory.hpp:76] Creating layer inception_3a/relu_3x3
I1022 22:50:52.905485 13293 net.cpp:110] Creating Layer inception_3a/relu_3x3
I1022 22:50:52.905491 13293 net.cpp:477] inception_3a/relu_3x3 <- inception_3a/3x3
I1022 22:50:52.905498 13293 net.cpp:419] inception_3a/relu_3x3 -> inception_3a/3x3 (in-place)
I1022 22:50:52.905555 13293 net.cpp:155] Setting up inception_3a/relu_3x3
I1022 22:50:52.905562 13293 net.cpp:163] Top shape: 128 128 28 28 (12845056)
I1022 22:50:52.905566 13293 layer_factory.hpp:76] Creating layer inception_3a/5x5_reduce
I1022 22:50:52.905576 13293 net.cpp:110] Creating Layer inception_3a/5x5_reduce
I1022 22:50:52.905581 13293 net.cpp:477] inception_3a/5x5_reduce <- pool2/3x3_s2_pool2/3x3_s2_0_split_2
I1022 22:50:52.905588 13293 net.cpp:433] inception_3a/5x5_reduce -> inception_3a/5x5_reduce
I1022 22:50:52.905918 13293 net.cpp:155] Setting up inception_3a/5x5_reduce
I1022 22:50:52.905932 13293 net.cpp:163] Top shape: 128 16 28 28 (1605632)
I1022 22:50:52.905941 13293 layer_factory.hpp:76] Creating layer inception_3a/relu_5x5_reduce
I1022 22:50:52.905948 13293 net.cpp:110] Creating Layer inception_3a/relu_5x5_reduce
I1022 22:50:52.905953 13293 net.cpp:477] inception_3a/relu_5x5_reduce <- inception_3a/5x5_reduce
I1022 22:50:52.905961 13293 net.cpp:419] inception_3a/relu_5x5_reduce -> inception_3a/5x5_reduce (in-place)
I1022 22:50:52.906030 13293 net.cpp:155] Setting up inception_3a/relu_5x5_reduce
I1022 22:50:52.906044 13293 net.cpp:163] Top shape: 128 16 28 28 (1605632)
I1022 22:50:52.906049 13293 layer_factory.hpp:76] Creating layer inception_3a/5x5
I1022 22:50:52.906059 13293 net.cpp:110] Creating Layer inception_3a/5x5
I1022 22:50:52.906064 13293 net.cpp:477] inception_3a/5x5 <- inception_3a/5x5_reduce
I1022 22:50:52.906070 13293 net.cpp:433] inception_3a/5x5 -> inception_3a/5x5
I1022 22:50:52.906399 13293 net.cpp:155] Setting up inception_3a/5x5
I1022 22:50:52.906415 13293 net.cpp:163] Top shape: 128 32 28 28 (3211264)
I1022 22:50:52.906424 13293 layer_factory.hpp:76] Creating layer inception_3a/relu_5x5
I1022 22:50:52.906432 13293 net.cpp:110] Creating Layer inception_3a/relu_5x5
I1022 22:50:52.906437 13293 net.cpp:477] inception_3a/relu_5x5 <- inception_3a/5x5
I1022 22:50:52.906445 13293 net.cpp:419] inception_3a/relu_5x5 -> inception_3a/5x5 (in-place)
I1022 22:50:52.906613 13293 net.cpp:155] Setting up inception_3a/relu_5x5
I1022 22:50:52.906625 13293 net.cpp:163] Top shape: 128 32 28 28 (3211264)
I1022 22:50:52.906631 13293 layer_factory.hpp:76] Creating layer inception_3a/pool
I1022 22:50:52.906636 13293 layer_factory.cpp:60] CUDNN does not support padding or multiple tops. Using Caffe's own pooling layer.
I1022 22:50:52.906647 13293 net.cpp:110] Creating Layer inception_3a/pool
I1022 22:50:52.906659 13293 net.cpp:477] inception_3a/pool <- pool2/3x3_s2_pool2/3x3_s2_0_split_3
I1022 22:50:52.906667 13293 net.cpp:433] inception_3a/pool -> inception_3a/pool
I1022 22:50:52.906678 13293 net.cpp:155] Setting up inception_3a/pool
I1022 22:50:52.906684 13293 net.cpp:163] Top shape: 128 192 28 28 (19267584)
I1022 22:50:52.906689 13293 layer_factory.hpp:76] Creating layer inception_3a/pool_proj
I1022 22:50:52.906697 13293 net.cpp:110] Creating Layer inception_3a/pool_proj
I1022 22:50:52.906702 13293 net.cpp:477] inception_3a/pool_proj <- inception_3a/pool
I1022 22:50:52.906709 13293 net.cpp:433] inception_3a/pool_proj -> inception_3a/pool_proj
I1022 22:50:52.907037 13293 net.cpp:155] Setting up inception_3a/pool_proj
I1022 22:50:52.907053 13293 net.cpp:163] Top shape: 128 32 28 28 (3211264)
I1022 22:50:52.907065 13293 layer_factory.hpp:76] Creating layer inception_3a/relu_pool_proj
I1022 22:50:52.907073 13293 net.cpp:110] Creating Layer inception_3a/relu_pool_proj
I1022 22:50:52.907078 13293 net.cpp:477] inception_3a/relu_pool_proj <- inception_3a/pool_proj
I1022 22:50:52.907086 13293 net.cpp:419] inception_3a/relu_pool_proj -> inception_3a/pool_proj (in-place)
I1022 22:50:52.907143 13293 net.cpp:155] Setting up inception_3a/relu_pool_proj
I1022 22:50:52.907151 13293 net.cpp:163] Top shape: 128 32 28 28 (3211264)
I1022 22:50:52.907156 13293 layer_factory.hpp:76] Creating layer inception_3a/output
I1022 22:50:52.907168 13293 net.cpp:110] Creating Layer inception_3a/output
I1022 22:50:52.907174 13293 net.cpp:477] inception_3a/output <- inception_3a/1x1
I1022 22:50:52.907181 13293 net.cpp:477] inception_3a/output <- inception_3a/3x3
I1022 22:50:52.907186 13293 net.cpp:477] inception_3a/output <- inception_3a/5x5
I1022 22:50:52.907191 13293 net.cpp:477] inception_3a/output <- inception_3a/pool_proj
I1022 22:50:52.907196 13293 net.cpp:433] inception_3a/output -> inception_3a/output
I1022 22:50:52.907205 13293 net.cpp:155] Setting up inception_3a/output
I1022 22:50:52.907212 13293 net.cpp:163] Top shape: 128 256 28 28 (25690112)
I1022 22:50:52.907215 13293 layer_factory.hpp:76] Creating layer inception_3a/output_inception_3a/output_0_split
I1022 22:50:52.907222 13293 net.cpp:110] Creating Layer inception_3a/output_inception_3a/output_0_split
I1022 22:50:52.907227 13293 net.cpp:477] inception_3a/output_inception_3a/output_0_split <- inception_3a/output
I1022 22:50:52.907233 13293 net.cpp:433] inception_3a/output_inception_3a/output_0_split -> inception_3a/output_inception_3a/output_0_split_0
I1022 22:50:52.907243 13293 net.cpp:433] inception_3a/output_inception_3a/output_0_split -> inception_3a/output_inception_3a/output_0_split_1
I1022 22:50:52.907250 13293 net.cpp:433] inception_3a/output_inception_3a/output_0_split -> inception_3a/output_inception_3a/output_0_split_2
I1022 22:50:52.907259 13293 net.cpp:433] inception_3a/output_inception_3a/output_0_split -> inception_3a/output_inception_3a/output_0_split_3
I1022 22:50:52.907269 13293 net.cpp:155] Setting up inception_3a/output_inception_3a/output_0_split
I1022 22:50:52.907274 13293 net.cpp:163] Top shape: 128 256 28 28 (25690112)
I1022 22:50:52.907279 13293 net.cpp:163] Top shape: 128 256 28 28 (25690112)
I1022 22:50:52.907284 13293 net.cpp:163] Top shape: 128 256 28 28 (25690112)
I1022 22:50:52.907289 13293 net.cpp:163] Top shape: 128 256 28 28 (25690112)
I1022 22:50:52.907292 13293 layer_factory.hpp:76] Creating layer inception_3b/1x1
I1022 22:50:52.907300 13293 net.cpp:110] Creating Layer inception_3b/1x1
I1022 22:50:52.907305 13293 net.cpp:477] inception_3b/1x1 <- inception_3a/output_inception_3a/output_0_split_0
I1022 22:50:52.907312 13293 net.cpp:433] inception_3b/1x1 -> inception_3b/1x1
I1022 22:50:52.907654 13293 net.cpp:155] Setting up inception_3b/1x1
I1022 22:50:52.907667 13293 net.cpp:163] Top shape: 128 128 28 28 (12845056)
I1022 22:50:52.907676 13293 layer_factory.hpp:76] Creating layer inception_3b/relu_1x1
I1022 22:50:52.907683 13293 net.cpp:110] Creating Layer inception_3b/relu_1x1
I1022 22:50:52.907696 13293 net.cpp:477] inception_3b/relu_1x1 <- inception_3b/1x1
I1022 22:50:52.907704 13293 net.cpp:419] inception_3b/relu_1x1 -> inception_3b/1x1 (in-place)
I1022 22:50:52.907762 13293 net.cpp:155] Setting up inception_3b/relu_1x1
I1022 22:50:52.907769 13293 net.cpp:163] Top shape: 128 128 28 28 (12845056)
I1022 22:50:52.907774 13293 layer_factory.hpp:76] Creating layer inception_3b/3x3_reduce
I1022 22:50:52.907783 13293 net.cpp:110] Creating Layer inception_3b/3x3_reduce
I1022 22:50:52.907788 13293 net.cpp:477] inception_3b/3x3_reduce <- inception_3a/output_inception_3a/output_0_split_1
I1022 22:50:52.907794 13293 net.cpp:433] inception_3b/3x3_reduce -> inception_3b/3x3_reduce
I1022 22:50:52.908133 13293 net.cpp:155] Setting up inception_3b/3x3_reduce
I1022 22:50:52.908148 13293 net.cpp:163] Top shape: 128 128 28 28 (12845056)
I1022 22:50:52.908155 13293 layer_factory.hpp:76] Creating layer inception_3b/relu_3x3_reduce
I1022 22:50:52.908162 13293 net.cpp:110] Creating Layer inception_3b/relu_3x3_reduce
I1022 22:50:52.908169 13293 net.cpp:477] inception_3b/relu_3x3_reduce <- inception_3b/3x3_reduce
I1022 22:50:52.908175 13293 net.cpp:419] inception_3b/relu_3x3_reduce -> inception_3b/3x3_reduce (in-place)
I1022 22:50:52.908344 13293 net.cpp:155] Setting up inception_3b/relu_3x3_reduce
I1022 22:50:52.908356 13293 net.cpp:163] Top shape: 128 128 28 28 (12845056)
I1022 22:50:52.908361 13293 layer_factory.hpp:76] Creating layer inception_3b/3x3
I1022 22:50:52.908370 13293 net.cpp:110] Creating Layer inception_3b/3x3
I1022 22:50:52.908375 13293 net.cpp:477] inception_3b/3x3 <- inception_3b/3x3_reduce
I1022 22:50:52.908382 13293 net.cpp:433] inception_3b/3x3 -> inception_3b/3x3
I1022 22:50:52.909224 13293 net.cpp:155] Setting up inception_3b/3x3
I1022 22:50:52.909240 13293 net.cpp:163] Top shape: 128 192 28 28 (19267584)
I1022 22:50:52.909250 13293 layer_factory.hpp:76] Creating layer inception_3b/relu_3x3
I1022 22:50:52.909256 13293 net.cpp:110] Creating Layer inception_3b/relu_3x3
I1022 22:50:52.909261 13293 net.cpp:477] inception_3b/relu_3x3 <- inception_3b/3x3
I1022 22:50:52.909268 13293 net.cpp:419] inception_3b/relu_3x3 -> inception_3b/3x3 (in-place)
I1022 22:50:52.909325 13293 net.cpp:155] Setting up inception_3b/relu_3x3
I1022 22:50:52.909334 13293 net.cpp:163] Top shape: 128 192 28 28 (19267584)
I1022 22:50:52.909338 13293 layer_factory.hpp:76] Creating layer inception_3b/5x5_reduce
I1022 22:50:52.909346 13293 net.cpp:110] Creating Layer inception_3b/5x5_reduce
I1022 22:50:52.909351 13293 net.cpp:477] inception_3b/5x5_reduce <- inception_3a/output_inception_3a/output_0_split_2
I1022 22:50:52.909358 13293 net.cpp:433] inception_3b/5x5_reduce -> inception_3b/5x5_reduce
I1022 22:50:52.909695 13293 net.cpp:155] Setting up inception_3b/5x5_reduce
I1022 22:50:52.909709 13293 net.cpp:163] Top shape: 128 32 28 28 (3211264)
I1022 22:50:52.909718 13293 layer_factory.hpp:76] Creating layer inception_3b/relu_5x5_reduce
I1022 22:50:52.909728 13293 net.cpp:110] Creating Layer inception_3b/relu_5x5_reduce
I1022 22:50:52.909732 13293 net.cpp:477] inception_3b/relu_5x5_reduce <- inception_3b/5x5_reduce
I1022 22:50:52.909739 13293 net.cpp:419] inception_3b/relu_5x5_reduce -> inception_3b/5x5_reduce (in-place)
I1022 22:50:52.909793 13293 net.cpp:155] Setting up inception_3b/relu_5x5_reduce
I1022 22:50:52.909801 13293 net.cpp:163] Top shape: 128 32 28 28 (3211264)
I1022 22:50:52.909806 13293 layer_factory.hpp:76] Creating layer inception_3b/5x5
I1022 22:50:52.909813 13293 net.cpp:110] Creating Layer inception_3b/5x5
I1022 22:50:52.909818 13293 net.cpp:477] inception_3b/5x5 <- inception_3b/5x5_reduce
I1022 22:50:52.909826 13293 net.cpp:433] inception_3b/5x5 -> inception_3b/5x5
I1022 22:50:52.910578 13293 net.cpp:155] Setting up inception_3b/5x5
I1022 22:50:52.910593 13293 net.cpp:163] Top shape: 128 96 28 28 (9633792)
I1022 22:50:52.910601 13293 layer_factory.hpp:76] Creating layer inception_3b/relu_5x5
I1022 22:50:52.910609 13293 net.cpp:110] Creating Layer inception_3b/relu_5x5
I1022 22:50:52.910619 13293 net.cpp:477] inception_3b/relu_5x5 <- inception_3b/5x5
I1022 22:50:52.910632 13293 net.cpp:419] inception_3b/relu_5x5 -> inception_3b/5x5 (in-place)
I1022 22:50:52.910691 13293 net.cpp:155] Setting up inception_3b/relu_5x5
I1022 22:50:52.910699 13293 net.cpp:163] Top shape: 128 96 28 28 (9633792)
I1022 22:50:52.910704 13293 layer_factory.hpp:76] Creating layer inception_3b/pool
I1022 22:50:52.910709 13293 layer_factory.cpp:60] CUDNN does not support padding or multiple tops. Using Caffe's own pooling layer.
I1022 22:50:52.910715 13293 net.cpp:110] Creating Layer inception_3b/pool
I1022 22:50:52.910720 13293 net.cpp:477] inception_3b/pool <- inception_3a/output_inception_3a/output_0_split_3
I1022 22:50:52.910727 13293 net.cpp:433] inception_3b/pool -> inception_3b/pool
I1022 22:50:52.910737 13293 net.cpp:155] Setting up inception_3b/pool
I1022 22:50:52.910743 13293 net.cpp:163] Top shape: 128 256 28 28 (25690112)
I1022 22:50:52.910748 13293 layer_factory.hpp:76] Creating layer inception_3b/pool_proj
I1022 22:50:52.910755 13293 net.cpp:110] Creating Layer inception_3b/pool_proj
I1022 22:50:52.910760 13293 net.cpp:477] inception_3b/pool_proj <- inception_3b/pool
I1022 22:50:52.910768 13293 net.cpp:433] inception_3b/pool_proj -> inception_3b/pool_proj
I1022 22:50:52.911105 13293 net.cpp:155] Setting up inception_3b/pool_proj
I1022 22:50:52.911118 13293 net.cpp:163] Top shape: 128 64 28 28 (6422528)
I1022 22:50:52.911126 13293 layer_factory.hpp:76] Creating layer inception_3b/relu_pool_proj
I1022 22:50:52.911134 13293 net.cpp:110] Creating Layer inception_3b/relu_pool_proj
I1022 22:50:52.911139 13293 net.cpp:477] inception_3b/relu_pool_proj <- inception_3b/pool_proj
I1022 22:50:52.911147 13293 net.cpp:419] inception_3b/relu_pool_proj -> inception_3b/pool_proj (in-place)
I1022 22:50:52.911317 13293 net.cpp:155] Setting up inception_3b/relu_pool_proj
I1022 22:50:52.911329 13293 net.cpp:163] Top shape: 128 64 28 28 (6422528)
I1022 22:50:52.911335 13293 layer_factory.hpp:76] Creating layer inception_3b/output
I1022 22:50:52.911344 13293 net.cpp:110] Creating Layer inception_3b/output
I1022 22:50:52.911350 13293 net.cpp:477] inception_3b/output <- inception_3b/1x1
I1022 22:50:52.911357 13293 net.cpp:477] inception_3b/output <- inception_3b/3x3
I1022 22:50:52.911363 13293 net.cpp:477] inception_3b/output <- inception_3b/5x5
I1022 22:50:52.911370 13293 net.cpp:477] inception_3b/output <- inception_3b/pool_proj
I1022 22:50:52.911376 13293 net.cpp:433] inception_3b/output -> inception_3b/output
I1022 22:50:52.911386 13293 net.cpp:155] Setting up inception_3b/output
I1022 22:50:52.911391 13293 net.cpp:163] Top shape: 128 480 28 28 (48168960)
I1022 22:50:52.911396 13293 layer_factory.hpp:76] Creating layer pool3/3x3_s2
I1022 22:50:52.911403 13293 net.cpp:110] Creating Layer pool3/3x3_s2
I1022 22:50:52.911408 13293 net.cpp:477] pool3/3x3_s2 <- inception_3b/output
I1022 22:50:52.911414 13293 net.cpp:433] pool3/3x3_s2 -> pool3/3x3_s2
I1022 22:50:52.911473 13293 net.cpp:155] Setting up pool3/3x3_s2
I1022 22:50:52.911480 13293 net.cpp:163] Top shape: 128 480 14 14 (12042240)
I1022 22:50:52.911484 13293 layer_factory.hpp:76] Creating layer pool3/3x3_s2_pool3/3x3_s2_0_split
I1022 22:50:52.911491 13293 net.cpp:110] Creating Layer pool3/3x3_s2_pool3/3x3_s2_0_split
I1022 22:50:52.911497 13293 net.cpp:477] pool3/3x3_s2_pool3/3x3_s2_0_split <- pool3/3x3_s2
I1022 22:50:52.911504 13293 net.cpp:433] pool3/3x3_s2_pool3/3x3_s2_0_split -> pool3/3x3_s2_pool3/3x3_s2_0_split_0
I1022 22:50:52.911514 13293 net.cpp:433] pool3/3x3_s2_pool3/3x3_s2_0_split -> pool3/3x3_s2_pool3/3x3_s2_0_split_1
I1022 22:50:52.911521 13293 net.cpp:433] pool3/3x3_s2_pool3/3x3_s2_0_split -> pool3/3x3_s2_pool3/3x3_s2_0_split_2
I1022 22:50:52.911528 13293 net.cpp:433] pool3/3x3_s2_pool3/3x3_s2_0_split -> pool3/3x3_s2_pool3/3x3_s2_0_split_3
I1022 22:50:52.911537 13293 net.cpp:155] Setting up pool3/3x3_s2_pool3/3x3_s2_0_split
I1022 22:50:52.911543 13293 net.cpp:163] Top shape: 128 480 14 14 (12042240)
I1022 22:50:52.911548 13293 net.cpp:163] Top shape: 128 480 14 14 (12042240)
I1022 22:50:52.911557 13293 net.cpp:163] Top shape: 128 480 14 14 (12042240)
I1022 22:50:52.911566 13293 net.cpp:163] Top shape: 128 480 14 14 (12042240)
I1022 22:50:52.911571 13293 layer_factory.hpp:76] Creating layer inception_4a/1x1
I1022 22:50:52.911581 13293 net.cpp:110] Creating Layer inception_4a/1x1
I1022 22:50:52.911584 13293 net.cpp:477] inception_4a/1x1 <- pool3/3x3_s2_pool3/3x3_s2_0_split_0
I1022 22:50:52.911592 13293 net.cpp:433] inception_4a/1x1 -> inception_4a/1x1
I1022 22:50:52.911972 13293 net.cpp:155] Setting up inception_4a/1x1
I1022 22:50:52.911988 13293 net.cpp:163] Top shape: 128 192 14 14 (4816896)
I1022 22:50:52.911998 13293 layer_factory.hpp:76] Creating layer inception_4a/relu_1x1
I1022 22:50:52.912004 13293 net.cpp:110] Creating Layer inception_4a/relu_1x1
I1022 22:50:52.912009 13293 net.cpp:477] inception_4a/relu_1x1 <- inception_4a/1x1
I1022 22:50:52.912016 13293 net.cpp:419] inception_4a/relu_1x1 -> inception_4a/1x1 (in-place)
I1022 22:50:52.912073 13293 net.cpp:155] Setting up inception_4a/relu_1x1
I1022 22:50:52.912081 13293 net.cpp:163] Top shape: 128 192 14 14 (4816896)
I1022 22:50:52.912086 13293 layer_factory.hpp:76] Creating layer inception_4a/3x3_reduce
I1022 22:50:52.912094 13293 net.cpp:110] Creating Layer inception_4a/3x3_reduce
I1022 22:50:52.912099 13293 net.cpp:477] inception_4a/3x3_reduce <- pool3/3x3_s2_pool3/3x3_s2_0_split_1
I1022 22:50:52.912106 13293 net.cpp:433] inception_4a/3x3_reduce -> inception_4a/3x3_reduce
I1022 22:50:52.912459 13293 net.cpp:155] Setting up inception_4a/3x3_reduce
I1022 22:50:52.912473 13293 net.cpp:163] Top shape: 128 96 14 14 (2408448)
I1022 22:50:52.912485 13293 layer_factory.hpp:76] Creating layer inception_4a/relu_3x3_reduce
I1022 22:50:52.912492 13293 net.cpp:110] Creating Layer inception_4a/relu_3x3_reduce
I1022 22:50:52.912498 13293 net.cpp:477] inception_4a/relu_3x3_reduce <- inception_4a/3x3_reduce
I1022 22:50:52.912505 13293 net.cpp:419] inception_4a/relu_3x3_reduce -> inception_4a/3x3_reduce (in-place)
I1022 22:50:52.912560 13293 net.cpp:155] Setting up inception_4a/relu_3x3_reduce
I1022 22:50:52.912569 13293 net.cpp:163] Top shape: 128 96 14 14 (2408448)
I1022 22:50:52.912572 13293 layer_factory.hpp:76] Creating layer inception_4a/3x3
I1022 22:50:52.912580 13293 net.cpp:110] Creating Layer inception_4a/3x3
I1022 22:50:52.912585 13293 net.cpp:477] inception_4a/3x3 <- inception_4a/3x3_reduce
I1022 22:50:52.912591 13293 net.cpp:433] inception_4a/3x3 -> inception_4a/3x3
I1022 22:50:52.913404 13293 net.cpp:155] Setting up inception_4a/3x3
I1022 22:50:52.913420 13293 net.cpp:163] Top shape: 128 208 14 14 (5218304)
I1022 22:50:52.913429 13293 layer_factory.hpp:76] Creating layer inception_4a/relu_3x3
I1022 22:50:52.913436 13293 net.cpp:110] Creating Layer inception_4a/relu_3x3
I1022 22:50:52.913441 13293 net.cpp:477] inception_4a/relu_3x3 <- inception_4a/3x3
I1022 22:50:52.913450 13293 net.cpp:419] inception_4a/relu_3x3 -> inception_4a/3x3 (in-place)
I1022 22:50:52.913622 13293 net.cpp:155] Setting up inception_4a/relu_3x3
I1022 22:50:52.913635 13293 net.cpp:163] Top shape: 128 208 14 14 (5218304)
I1022 22:50:52.913640 13293 layer_factory.hpp:76] Creating layer inception_4a/5x5_reduce
I1022 22:50:52.913650 13293 net.cpp:110] Creating Layer inception_4a/5x5_reduce
I1022 22:50:52.913655 13293 net.cpp:477] inception_4a/5x5_reduce <- pool3/3x3_s2_pool3/3x3_s2_0_split_2
I1022 22:50:52.913662 13293 net.cpp:433] inception_4a/5x5_reduce -> inception_4a/5x5_reduce
I1022 22:50:52.914000 13293 net.cpp:155] Setting up inception_4a/5x5_reduce
I1022 22:50:52.914024 13293 net.cpp:163] Top shape: 128 16 14 14 (401408)
I1022 22:50:52.914034 13293 layer_factory.hpp:76] Creating layer inception_4a/relu_5x5_reduce
I1022 22:50:52.914041 13293 net.cpp:110] Creating Layer inception_4a/relu_5x5_reduce
I1022 22:50:52.914047 13293 net.cpp:477] inception_4a/relu_5x5_reduce <- inception_4a/5x5_reduce
I1022 22:50:52.914054 13293 net.cpp:419] inception_4a/relu_5x5_reduce -> inception_4a/5x5_reduce (in-place)
I1022 22:50:52.914113 13293 net.cpp:155] Setting up inception_4a/relu_5x5_reduce
I1022 22:50:52.914130 13293 net.cpp:163] Top shape: 128 16 14 14 (401408)
I1022 22:50:52.914136 13293 layer_factory.hpp:76] Creating layer inception_4a/5x5
I1022 22:50:52.914144 13293 net.cpp:110] Creating Layer inception_4a/5x5
I1022 22:50:52.914149 13293 net.cpp:477] inception_4a/5x5 <- inception_4a/5x5_reduce
I1022 22:50:52.914156 13293 net.cpp:433] inception_4a/5x5 -> inception_4a/5x5
I1022 22:50:52.914496 13293 net.cpp:155] Setting up inception_4a/5x5
I1022 22:50:52.914510 13293 net.cpp:163] Top shape: 128 48 14 14 (1204224)
I1022 22:50:52.914518 13293 layer_factory.hpp:76] Creating layer inception_4a/relu_5x5
I1022 22:50:52.914525 13293 net.cpp:110] Creating Layer inception_4a/relu_5x5
I1022 22:50:52.914531 13293 net.cpp:477] inception_4a/relu_5x5 <- inception_4a/5x5
I1022 22:50:52.914538 13293 net.cpp:419] inception_4a/relu_5x5 -> inception_4a/5x5 (in-place)
I1022 22:50:52.914594 13293 net.cpp:155] Setting up inception_4a/relu_5x5
I1022 22:50:52.914603 13293 net.cpp:163] Top shape: 128 48 14 14 (1204224)
I1022 22:50:52.914608 13293 layer_factory.hpp:76] Creating layer inception_4a/pool
I1022 22:50:52.914613 13293 layer_factory.cpp:60] CUDNN does not support padding or multiple tops. Using Caffe's own pooling layer.
I1022 22:50:52.914618 13293 net.cpp:110] Creating Layer inception_4a/pool
I1022 22:50:52.914624 13293 net.cpp:477] inception_4a/pool <- pool3/3x3_s2_pool3/3x3_s2_0_split_3
I1022 22:50:52.914630 13293 net.cpp:433] inception_4a/pool -> inception_4a/pool
I1022 22:50:52.914641 13293 net.cpp:155] Setting up inception_4a/pool
I1022 22:50:52.914647 13293 net.cpp:163] Top shape: 128 480 14 14 (12042240)
I1022 22:50:52.914651 13293 layer_factory.hpp:76] Creating layer inception_4a/pool_proj
I1022 22:50:52.914659 13293 net.cpp:110] Creating Layer inception_4a/pool_proj
I1022 22:50:52.914664 13293 net.cpp:477] inception_4a/pool_proj <- inception_4a/pool
I1022 22:50:52.914671 13293 net.cpp:433] inception_4a/pool_proj -> inception_4a/pool_proj
I1022 22:50:52.915017 13293 net.cpp:155] Setting up inception_4a/pool_proj
I1022 22:50:52.915030 13293 net.cpp:163] Top shape: 128 64 14 14 (1605632)
I1022 22:50:52.915040 13293 layer_factory.hpp:76] Creating layer inception_4a/relu_pool_proj
I1022 22:50:52.915045 13293 net.cpp:110] Creating Layer inception_4a/relu_pool_proj
I1022 22:50:52.915051 13293 net.cpp:477] inception_4a/relu_pool_proj <- inception_4a/pool_proj
I1022 22:50:52.915058 13293 net.cpp:419] inception_4a/relu_pool_proj -> inception_4a/pool_proj (in-place)
I1022 22:50:52.915114 13293 net.cpp:155] Setting up inception_4a/relu_pool_proj
I1022 22:50:52.915122 13293 net.cpp:163] Top shape: 128 64 14 14 (1605632)
I1022 22:50:52.915127 13293 layer_factory.hpp:76] Creating layer inception_4a/output
I1022 22:50:52.915133 13293 net.cpp:110] Creating Layer inception_4a/output
I1022 22:50:52.915138 13293 net.cpp:477] inception_4a/output <- inception_4a/1x1
I1022 22:50:52.915144 13293 net.cpp:477] inception_4a/output <- inception_4a/3x3
I1022 22:50:52.915149 13293 net.cpp:477] inception_4a/output <- inception_4a/5x5
I1022 22:50:52.915154 13293 net.cpp:477] inception_4a/output <- inception_4a/pool_proj
I1022 22:50:52.915161 13293 net.cpp:433] inception_4a/output -> inception_4a/output
I1022 22:50:52.915170 13293 net.cpp:155] Setting up inception_4a/output
I1022 22:50:52.915176 13293 net.cpp:163] Top shape: 128 512 14 14 (12845056)
I1022 22:50:52.915180 13293 layer_factory.hpp:76] Creating layer inception_4a/output_inception_4a/output_0_split
I1022 22:50:52.915186 13293 net.cpp:110] Creating Layer inception_4a/output_inception_4a/output_0_split
I1022 22:50:52.915191 13293 net.cpp:477] inception_4a/output_inception_4a/output_0_split <- inception_4a/output
I1022 22:50:52.915199 13293 net.cpp:433] inception_4a/output_inception_4a/output_0_split -> inception_4a/output_inception_4a/output_0_split_0
I1022 22:50:52.915206 13293 net.cpp:433] inception_4a/output_inception_4a/output_0_split -> inception_4a/output_inception_4a/output_0_split_1
I1022 22:50:52.915215 13293 net.cpp:433] inception_4a/output_inception_4a/output_0_split -> inception_4a/output_inception_4a/output_0_split_2
I1022 22:50:52.915232 13293 net.cpp:433] inception_4a/output_inception_4a/output_0_split -> inception_4a/output_inception_4a/output_0_split_3
I1022 22:50:52.915242 13293 net.cpp:155] Setting up inception_4a/output_inception_4a/output_0_split
I1022 22:50:52.915248 13293 net.cpp:163] Top shape: 128 512 14 14 (12845056)
I1022 22:50:52.915253 13293 net.cpp:163] Top shape: 128 512 14 14 (12845056)
I1022 22:50:52.915257 13293 net.cpp:163] Top shape: 128 512 14 14 (12845056)
I1022 22:50:52.915262 13293 net.cpp:163] Top shape: 128 512 14 14 (12845056)
I1022 22:50:52.915266 13293 layer_factory.hpp:76] Creating layer inception_4b/1x1
I1022 22:50:52.915274 13293 net.cpp:110] Creating Layer inception_4b/1x1
I1022 22:50:52.915278 13293 net.cpp:477] inception_4b/1x1 <- inception_4a/output_inception_4a/output_0_split_0
I1022 22:50:52.915285 13293 net.cpp:433] inception_4b/1x1 -> inception_4b/1x1
I1022 22:50:52.915658 13293 net.cpp:155] Setting up inception_4b/1x1
I1022 22:50:52.915673 13293 net.cpp:163] Top shape: 128 160 14 14 (4014080)
I1022 22:50:52.915681 13293 layer_factory.hpp:76] Creating layer inception_4b/relu_1x1
I1022 22:50:52.915688 13293 net.cpp:110] Creating Layer inception_4b/relu_1x1
I1022 22:50:52.915693 13293 net.cpp:477] inception_4b/relu_1x1 <- inception_4b/1x1
I1022 22:50:52.915700 13293 net.cpp:419] inception_4b/relu_1x1 -> inception_4b/1x1 (in-place)
I1022 22:50:52.915870 13293 net.cpp:155] Setting up inception_4b/relu_1x1
I1022 22:50:52.915884 13293 net.cpp:163] Top shape: 128 160 14 14 (4014080)
I1022 22:50:52.915889 13293 layer_factory.hpp:76] Creating layer inception_4b/3x3_reduce
I1022 22:50:52.915899 13293 net.cpp:110] Creating Layer inception_4b/3x3_reduce
I1022 22:50:52.915904 13293 net.cpp:477] inception_4b/3x3_reduce <- inception_4a/output_inception_4a/output_0_split_1
I1022 22:50:52.915911 13293 net.cpp:433] inception_4b/3x3_reduce -> inception_4b/3x3_reduce
I1022 22:50:52.916271 13293 net.cpp:155] Setting up inception_4b/3x3_reduce
I1022 22:50:52.916285 13293 net.cpp:163] Top shape: 128 112 14 14 (2809856)
I1022 22:50:52.916293 13293 layer_factory.hpp:76] Creating layer inception_4b/relu_3x3_reduce
I1022 22:50:52.916301 13293 net.cpp:110] Creating Layer inception_4b/relu_3x3_reduce
I1022 22:50:52.916306 13293 net.cpp:477] inception_4b/relu_3x3_reduce <- inception_4b/3x3_reduce
I1022 22:50:52.916313 13293 net.cpp:419] inception_4b/relu_3x3_reduce -> inception_4b/3x3_reduce (in-place)
I1022 22:50:52.916369 13293 net.cpp:155] Setting up inception_4b/relu_3x3_reduce
I1022 22:50:52.916376 13293 net.cpp:163] Top shape: 128 112 14 14 (2809856)
I1022 22:50:52.916381 13293 layer_factory.hpp:76] Creating layer inception_4b/3x3
I1022 22:50:52.916389 13293 net.cpp:110] Creating Layer inception_4b/3x3
I1022 22:50:52.916394 13293 net.cpp:477] inception_4b/3x3 <- inception_4b/3x3_reduce
I1022 22:50:52.916400 13293 net.cpp:433] inception_4b/3x3 -> inception_4b/3x3
I1022 22:50:52.917237 13293 net.cpp:155] Setting up inception_4b/3x3
I1022 22:50:52.917251 13293 net.cpp:163] Top shape: 128 224 14 14 (5619712)
I1022 22:50:52.917260 13293 layer_factory.hpp:76] Creating layer inception_4b/relu_3x3
I1022 22:50:52.917268 13293 net.cpp:110] Creating Layer inception_4b/relu_3x3
I1022 22:50:52.917273 13293 net.cpp:477] inception_4b/relu_3x3 <- inception_4b/3x3
I1022 22:50:52.917280 13293 net.cpp:419] inception_4b/relu_3x3 -> inception_4b/3x3 (in-place)
I1022 22:50:52.917338 13293 net.cpp:155] Setting up inception_4b/relu_3x3
I1022 22:50:52.917346 13293 net.cpp:163] Top shape: 128 224 14 14 (5619712)
I1022 22:50:52.917351 13293 layer_factory.hpp:76] Creating layer inception_4b/5x5_reduce
I1022 22:50:52.917358 13293 net.cpp:110] Creating Layer inception_4b/5x5_reduce
I1022 22:50:52.917363 13293 net.cpp:477] inception_4b/5x5_reduce <- inception_4a/output_inception_4a/output_0_split_2
I1022 22:50:52.917371 13293 net.cpp:433] inception_4b/5x5_reduce -> inception_4b/5x5_reduce
I1022 22:50:52.917711 13293 net.cpp:155] Setting up inception_4b/5x5_reduce
I1022 22:50:52.917729 13293 net.cpp:163] Top shape: 128 24 14 14 (602112)
I1022 22:50:52.917742 13293 layer_factory.hpp:76] Creating layer inception_4b/relu_5x5_reduce
I1022 22:50:52.917749 13293 net.cpp:110] Creating Layer inception_4b/relu_5x5_reduce
I1022 22:50:52.917755 13293 net.cpp:477] inception_4b/relu_5x5_reduce <- inception_4b/5x5_reduce
I1022 22:50:52.917762 13293 net.cpp:419] inception_4b/relu_5x5_reduce -> inception_4b/5x5_reduce (in-place)
I1022 22:50:52.917933 13293 net.cpp:155] Setting up inception_4b/relu_5x5_reduce
I1022 22:50:52.917946 13293 net.cpp:163] Top shape: 128 24 14 14 (602112)
I1022 22:50:52.917953 13293 layer_factory.hpp:76] Creating layer inception_4b/5x5
I1022 22:50:52.917964 13293 net.cpp:110] Creating Layer inception_4b/5x5
I1022 22:50:52.917970 13293 net.cpp:477] inception_4b/5x5 <- inception_4b/5x5_reduce
I1022 22:50:52.917978 13293 net.cpp:433] inception_4b/5x5 -> inception_4b/5x5
I1022 22:50:52.918709 13293 net.cpp:155] Setting up inception_4b/5x5
I1022 22:50:52.918723 13293 net.cpp:163] Top shape: 128 64 14 14 (1605632)
I1022 22:50:52.918732 13293 layer_factory.hpp:76] Creating layer inception_4b/relu_5x5
I1022 22:50:52.918740 13293 net.cpp:110] Creating Layer inception_4b/relu_5x5
I1022 22:50:52.918745 13293 net.cpp:477] inception_4b/relu_5x5 <- inception_4b/5x5
I1022 22:50:52.918752 13293 net.cpp:419] inception_4b/relu_5x5 -> inception_4b/5x5 (in-place)
I1022 22:50:52.918810 13293 net.cpp:155] Setting up inception_4b/relu_5x5
I1022 22:50:52.918818 13293 net.cpp:163] Top shape: 128 64 14 14 (1605632)
I1022 22:50:52.918823 13293 layer_factory.hpp:76] Creating layer inception_4b/pool
I1022 22:50:52.918828 13293 layer_factory.cpp:60] CUDNN does not support padding or multiple tops. Using Caffe's own pooling layer.
I1022 22:50:52.918833 13293 net.cpp:110] Creating Layer inception_4b/pool
I1022 22:50:52.918839 13293 net.cpp:477] inception_4b/pool <- inception_4a/output_inception_4a/output_0_split_3
I1022 22:50:52.918846 13293 net.cpp:433] inception_4b/pool -> inception_4b/pool
I1022 22:50:52.918856 13293 net.cpp:155] Setting up inception_4b/pool
I1022 22:50:52.918862 13293 net.cpp:163] Top shape: 128 512 14 14 (12845056)
I1022 22:50:52.918866 13293 layer_factory.hpp:76] Creating layer inception_4b/pool_proj
I1022 22:50:52.918874 13293 net.cpp:110] Creating Layer inception_4b/pool_proj
I1022 22:50:52.918879 13293 net.cpp:477] inception_4b/pool_proj <- inception_4b/pool
I1022 22:50:52.918886 13293 net.cpp:433] inception_4b/pool_proj -> inception_4b/pool_proj
I1022 22:50:52.919250 13293 net.cpp:155] Setting up inception_4b/pool_proj
I1022 22:50:52.919263 13293 net.cpp:163] Top shape: 128 64 14 14 (1605632)
I1022 22:50:52.919271 13293 layer_factory.hpp:76] Creating layer inception_4b/relu_pool_proj
I1022 22:50:52.919278 13293 net.cpp:110] Creating Layer inception_4b/relu_pool_proj
I1022 22:50:52.919284 13293 net.cpp:477] inception_4b/relu_pool_proj <- inception_4b/pool_proj
I1022 22:50:52.919291 13293 net.cpp:419] inception_4b/relu_pool_proj -> inception_4b/pool_proj (in-place)
I1022 22:50:52.919348 13293 net.cpp:155] Setting up inception_4b/relu_pool_proj
I1022 22:50:52.919356 13293 net.cpp:163] Top shape: 128 64 14 14 (1605632)
I1022 22:50:52.919361 13293 layer_factory.hpp:76] Creating layer inception_4b/output
I1022 22:50:52.919368 13293 net.cpp:110] Creating Layer inception_4b/output
I1022 22:50:52.919373 13293 net.cpp:477] inception_4b/output <- inception_4b/1x1
I1022 22:50:52.919378 13293 net.cpp:477] inception_4b/output <- inception_4b/3x3
I1022 22:50:52.919384 13293 net.cpp:477] inception_4b/output <- inception_4b/5x5
I1022 22:50:52.919389 13293 net.cpp:477] inception_4b/output <- inception_4b/pool_proj
I1022 22:50:52.919395 13293 net.cpp:433] inception_4b/output -> inception_4b/output
I1022 22:50:52.919404 13293 net.cpp:155] Setting up inception_4b/output
I1022 22:50:52.919409 13293 net.cpp:163] Top shape: 128 512 14 14 (12845056)
I1022 22:50:52.919414 13293 layer_factory.hpp:76] Creating layer inception_4b/output_inception_4b/output_0_split
I1022 22:50:52.919420 13293 net.cpp:110] Creating Layer inception_4b/output_inception_4b/output_0_split
I1022 22:50:52.919435 13293 net.cpp:477] inception_4b/output_inception_4b/output_0_split <- inception_4b/output
I1022 22:50:52.919441 13293 net.cpp:433] inception_4b/output_inception_4b/output_0_split -> inception_4b/output_inception_4b/output_0_split_0
I1022 22:50:52.919450 13293 net.cpp:433] inception_4b/output_inception_4b/output_0_split -> inception_4b/output_inception_4b/output_0_split_1
I1022 22:50:52.919458 13293 net.cpp:433] inception_4b/output_inception_4b/output_0_split -> inception_4b/output_inception_4b/output_0_split_2
I1022 22:50:52.919466 13293 net.cpp:433] inception_4b/output_inception_4b/output_0_split -> inception_4b/output_inception_4b/output_0_split_3
I1022 22:50:52.919476 13293 net.cpp:155] Setting up inception_4b/output_inception_4b/output_0_split
I1022 22:50:52.919481 13293 net.cpp:163] Top shape: 128 512 14 14 (12845056)
I1022 22:50:52.919486 13293 net.cpp:163] Top shape: 128 512 14 14 (12845056)
I1022 22:50:52.919492 13293 net.cpp:163] Top shape: 128 512 14 14 (12845056)
I1022 22:50:52.919495 13293 net.cpp:163] Top shape: 128 512 14 14 (12845056)
I1022 22:50:52.919500 13293 layer_factory.hpp:76] Creating layer inception_4c/1x1
I1022 22:50:52.919508 13293 net.cpp:110] Creating Layer inception_4c/1x1
I1022 22:50:52.919512 13293 net.cpp:477] inception_4c/1x1 <- inception_4b/output_inception_4b/output_0_split_0
I1022 22:50:52.919519 13293 net.cpp:433] inception_4c/1x1 -> inception_4c/1x1
I1022 22:50:52.919886 13293 net.cpp:155] Setting up inception_4c/1x1
I1022 22:50:52.919900 13293 net.cpp:163] Top shape: 128 128 14 14 (3211264)
I1022 22:50:52.919909 13293 layer_factory.hpp:76] Creating layer inception_4c/relu_1x1
I1022 22:50:52.919915 13293 net.cpp:110] Creating Layer inception_4c/relu_1x1
I1022 22:50:52.919921 13293 net.cpp:477] inception_4c/relu_1x1 <- inception_4c/1x1
I1022 22:50:52.919929 13293 net.cpp:419] inception_4c/relu_1x1 -> inception_4c/1x1 (in-place)
I1022 22:50:52.919984 13293 net.cpp:155] Setting up inception_4c/relu_1x1
I1022 22:50:52.919992 13293 net.cpp:163] Top shape: 128 128 14 14 (3211264)
I1022 22:50:52.919996 13293 layer_factory.hpp:76] Creating layer inception_4c/3x3_reduce
I1022 22:50:52.920004 13293 net.cpp:110] Creating Layer inception_4c/3x3_reduce
I1022 22:50:52.920009 13293 net.cpp:477] inception_4c/3x3_reduce <- inception_4b/output_inception_4b/output_0_split_1
I1022 22:50:52.920017 13293 net.cpp:433] inception_4c/3x3_reduce -> inception_4c/3x3_reduce
I1022 22:50:52.920379 13293 net.cpp:155] Setting up inception_4c/3x3_reduce
I1022 22:50:52.920392 13293 net.cpp:163] Top shape: 128 128 14 14 (3211264)
I1022 22:50:52.920402 13293 layer_factory.hpp:76] Creating layer inception_4c/relu_3x3_reduce
I1022 22:50:52.920408 13293 net.cpp:110] Creating Layer inception_4c/relu_3x3_reduce
I1022 22:50:52.920413 13293 net.cpp:477] inception_4c/relu_3x3_reduce <- inception_4c/3x3_reduce
I1022 22:50:52.920420 13293 net.cpp:419] inception_4c/relu_3x3_reduce -> inception_4c/3x3_reduce (in-place)
I1022 22:50:52.920595 13293 net.cpp:155] Setting up inception_4c/relu_3x3_reduce
I1022 22:50:52.920608 13293 net.cpp:163] Top shape: 128 128 14 14 (3211264)
I1022 22:50:52.920614 13293 layer_factory.hpp:76] Creating layer inception_4c/3x3
I1022 22:50:52.920622 13293 net.cpp:110] Creating Layer inception_4c/3x3
I1022 22:50:52.920627 13293 net.cpp:477] inception_4c/3x3 <- inception_4c/3x3_reduce
I1022 22:50:52.920634 13293 net.cpp:433] inception_4c/3x3 -> inception_4c/3x3
I1022 22:50:52.921536 13293 net.cpp:155] Setting up inception_4c/3x3
I1022 22:50:52.921551 13293 net.cpp:163] Top shape: 128 256 14 14 (6422528)
I1022 22:50:52.921561 13293 layer_factory.hpp:76] Creating layer inception_4c/relu_3x3
I1022 22:50:52.921567 13293 net.cpp:110] Creating Layer inception_4c/relu_3x3
I1022 22:50:52.921572 13293 net.cpp:477] inception_4c/relu_3x3 <- inception_4c/3x3
I1022 22:50:52.921581 13293 net.cpp:419] inception_4c/relu_3x3 -> inception_4c/3x3 (in-place)
I1022 22:50:52.921638 13293 net.cpp:155] Setting up inception_4c/relu_3x3
I1022 22:50:52.921650 13293 net.cpp:163] Top shape: 128 256 14 14 (6422528)
I1022 22:50:52.921660 13293 layer_factory.hpp:76] Creating layer inception_4c/5x5_reduce
I1022 22:50:52.921669 13293 net.cpp:110] Creating Layer inception_4c/5x5_reduce
I1022 22:50:52.921674 13293 net.cpp:477] inception_4c/5x5_reduce <- inception_4b/output_inception_4b/output_0_split_2
I1022 22:50:52.921680 13293 net.cpp:433] inception_4c/5x5_reduce -> inception_4c/5x5_reduce
I1022 22:50:52.922035 13293 net.cpp:155] Setting up inception_4c/5x5_reduce
I1022 22:50:52.922049 13293 net.cpp:163] Top shape: 128 24 14 14 (602112)
I1022 22:50:52.922058 13293 layer_factory.hpp:76] Creating layer inception_4c/relu_5x5_reduce
I1022 22:50:52.922065 13293 net.cpp:110] Creating Layer inception_4c/relu_5x5_reduce
I1022 22:50:52.922070 13293 net.cpp:477] inception_4c/relu_5x5_reduce <- inception_4c/5x5_reduce
I1022 22:50:52.922078 13293 net.cpp:419] inception_4c/relu_5x5_reduce -> inception_4c/5x5_reduce (in-place)
I1022 22:50:52.922134 13293 net.cpp:155] Setting up inception_4c/relu_5x5_reduce
I1022 22:50:52.922142 13293 net.cpp:163] Top shape: 128 24 14 14 (602112)
I1022 22:50:52.922147 13293 layer_factory.hpp:76] Creating layer inception_4c/5x5
I1022 22:50:52.922155 13293 net.cpp:110] Creating Layer inception_4c/5x5
I1022 22:50:52.922160 13293 net.cpp:477] inception_4c/5x5 <- inception_4c/5x5_reduce
I1022 22:50:52.922166 13293 net.cpp:433] inception_4c/5x5 -> inception_4c/5x5
I1022 22:50:52.922523 13293 net.cpp:155] Setting up inception_4c/5x5
I1022 22:50:52.922538 13293 net.cpp:163] Top shape: 128 64 14 14 (1605632)
I1022 22:50:52.922545 13293 layer_factory.hpp:76] Creating layer inception_4c/relu_5x5
I1022 22:50:52.922552 13293 net.cpp:110] Creating Layer inception_4c/relu_5x5
I1022 22:50:52.922557 13293 net.cpp:477] inception_4c/relu_5x5 <- inception_4c/5x5
I1022 22:50:52.922564 13293 net.cpp:419] inception_4c/relu_5x5 -> inception_4c/5x5 (in-place)
I1022 22:50:52.922622 13293 net.cpp:155] Setting up inception_4c/relu_5x5
I1022 22:50:52.922631 13293 net.cpp:163] Top shape: 128 64 14 14 (1605632)
I1022 22:50:52.922636 13293 layer_factory.hpp:76] Creating layer inception_4c/pool
I1022 22:50:52.922641 13293 layer_factory.cpp:60] CUDNN does not support padding or multiple tops. Using Caffe's own pooling layer.
I1022 22:50:52.922646 13293 net.cpp:110] Creating Layer inception_4c/pool
I1022 22:50:52.922652 13293 net.cpp:477] inception_4c/pool <- inception_4b/output_inception_4b/output_0_split_3
I1022 22:50:52.922657 13293 net.cpp:433] inception_4c/pool -> inception_4c/pool
I1022 22:50:52.922668 13293 net.cpp:155] Setting up inception_4c/pool
I1022 22:50:52.922674 13293 net.cpp:163] Top shape: 128 512 14 14 (12845056)
I1022 22:50:52.922678 13293 layer_factory.hpp:76] Creating layer inception_4c/pool_proj
I1022 22:50:52.922687 13293 net.cpp:110] Creating Layer inception_4c/pool_proj
I1022 22:50:52.922691 13293 net.cpp:477] inception_4c/pool_proj <- inception_4c/pool
I1022 22:50:52.922698 13293 net.cpp:433] inception_4c/pool_proj -> inception_4c/pool_proj
I1022 22:50:52.923424 13293 net.cpp:155] Setting up inception_4c/pool_proj
I1022 22:50:52.923439 13293 net.cpp:163] Top shape: 128 64 14 14 (1605632)
I1022 22:50:52.923456 13293 layer_factory.hpp:76] Creating layer inception_4c/relu_pool_proj
I1022 22:50:52.923465 13293 net.cpp:110] Creating Layer inception_4c/relu_pool_proj
I1022 22:50:52.923470 13293 net.cpp:477] inception_4c/relu_pool_proj <- inception_4c/pool_proj
I1022 22:50:52.923477 13293 net.cpp:419] inception_4c/relu_pool_proj -> inception_4c/pool_proj (in-place)
I1022 22:50:52.923653 13293 net.cpp:155] Setting up inception_4c/relu_pool_proj
I1022 22:50:52.923666 13293 net.cpp:163] Top shape: 128 64 14 14 (1605632)
I1022 22:50:52.923672 13293 layer_factory.hpp:76] Creating layer inception_4c/output
I1022 22:50:52.923679 13293 net.cpp:110] Creating Layer inception_4c/output
I1022 22:50:52.923684 13293 net.cpp:477] inception_4c/output <- inception_4c/1x1
I1022 22:50:52.923691 13293 net.cpp:477] inception_4c/output <- inception_4c/3x3
I1022 22:50:52.923701 13293 net.cpp:477] inception_4c/output <- inception_4c/5x5
I1022 22:50:52.923712 13293 net.cpp:477] inception_4c/output <- inception_4c/pool_proj
I1022 22:50:52.923718 13293 net.cpp:433] inception_4c/output -> inception_4c/output
I1022 22:50:52.923728 13293 net.cpp:155] Setting up inception_4c/output
I1022 22:50:52.923734 13293 net.cpp:163] Top shape: 128 512 14 14 (12845056)
I1022 22:50:52.923738 13293 layer_factory.hpp:76] Creating layer inception_4c/output_inception_4c/output_0_split
I1022 22:50:52.923744 13293 net.cpp:110] Creating Layer inception_4c/output_inception_4c/output_0_split
I1022 22:50:52.923749 13293 net.cpp:477] inception_4c/output_inception_4c/output_0_split <- inception_4c/output
I1022 22:50:52.923756 13293 net.cpp:433] inception_4c/output_inception_4c/output_0_split -> inception_4c/output_inception_4c/output_0_split_0
I1022 22:50:52.923765 13293 net.cpp:433] inception_4c/output_inception_4c/output_0_split -> inception_4c/output_inception_4c/output_0_split_1
I1022 22:50:52.923774 13293 net.cpp:433] inception_4c/output_inception_4c/output_0_split -> inception_4c/output_inception_4c/output_0_split_2
I1022 22:50:52.923781 13293 net.cpp:433] inception_4c/output_inception_4c/output_0_split -> inception_4c/output_inception_4c/output_0_split_3
I1022 22:50:52.923791 13293 net.cpp:155] Setting up inception_4c/output_inception_4c/output_0_split
I1022 22:50:52.923796 13293 net.cpp:163] Top shape: 128 512 14 14 (12845056)
I1022 22:50:52.923801 13293 net.cpp:163] Top shape: 128 512 14 14 (12845056)
I1022 22:50:52.923806 13293 net.cpp:163] Top shape: 128 512 14 14 (12845056)
I1022 22:50:52.923810 13293 net.cpp:163] Top shape: 128 512 14 14 (12845056)
I1022 22:50:52.923815 13293 layer_factory.hpp:76] Creating layer inception_4d/1x1
I1022 22:50:52.923822 13293 net.cpp:110] Creating Layer inception_4d/1x1
I1022 22:50:52.923827 13293 net.cpp:477] inception_4d/1x1 <- inception_4c/output_inception_4c/output_0_split_0
I1022 22:50:52.923835 13293 net.cpp:433] inception_4d/1x1 -> inception_4d/1x1
I1022 22:50:52.924207 13293 net.cpp:155] Setting up inception_4d/1x1
I1022 22:50:52.924221 13293 net.cpp:163] Top shape: 128 112 14 14 (2809856)
I1022 22:50:52.924231 13293 layer_factory.hpp:76] Creating layer inception_4d/relu_1x1
I1022 22:50:52.924237 13293 net.cpp:110] Creating Layer inception_4d/relu_1x1
I1022 22:50:52.924243 13293 net.cpp:477] inception_4d/relu_1x1 <- inception_4d/1x1
I1022 22:50:52.924250 13293 net.cpp:419] inception_4d/relu_1x1 -> inception_4d/1x1 (in-place)
I1022 22:50:52.924307 13293 net.cpp:155] Setting up inception_4d/relu_1x1
I1022 22:50:52.924319 13293 net.cpp:163] Top shape: 128 112 14 14 (2809856)
I1022 22:50:52.924324 13293 layer_factory.hpp:76] Creating layer inception_4d/3x3_reduce
I1022 22:50:52.924332 13293 net.cpp:110] Creating Layer inception_4d/3x3_reduce
I1022 22:50:52.924337 13293 net.cpp:477] inception_4d/3x3_reduce <- inception_4c/output_inception_4c/output_0_split_1
I1022 22:50:52.924345 13293 net.cpp:433] inception_4d/3x3_reduce -> inception_4d/3x3_reduce
I1022 22:50:52.924722 13293 net.cpp:155] Setting up inception_4d/3x3_reduce
I1022 22:50:52.924738 13293 net.cpp:163] Top shape: 128 144 14 14 (3612672)
I1022 22:50:52.924747 13293 layer_factory.hpp:76] Creating layer inception_4d/relu_3x3_reduce
I1022 22:50:52.924756 13293 net.cpp:110] Creating Layer inception_4d/relu_3x3_reduce
I1022 22:50:52.924760 13293 net.cpp:477] inception_4d/relu_3x3_reduce <- inception_4d/3x3_reduce
I1022 22:50:52.924767 13293 net.cpp:419] inception_4d/relu_3x3_reduce -> inception_4d/3x3_reduce (in-place)
I1022 22:50:52.924825 13293 net.cpp:155] Setting up inception_4d/relu_3x3_reduce
I1022 22:50:52.924834 13293 net.cpp:163] Top shape: 128 144 14 14 (3612672)
I1022 22:50:52.924839 13293 layer_factory.hpp:76] Creating layer inception_4d/3x3
I1022 22:50:52.924846 13293 net.cpp:110] Creating Layer inception_4d/3x3
I1022 22:50:52.924851 13293 net.cpp:477] inception_4d/3x3 <- inception_4d/3x3_reduce
I1022 22:50:52.924857 13293 net.cpp:433] inception_4d/3x3 -> inception_4d/3x3
I1022 22:50:52.925861 13293 net.cpp:155] Setting up inception_4d/3x3
I1022 22:50:52.925880 13293 net.cpp:163] Top shape: 128 288 14 14 (7225344)
I1022 22:50:52.925894 13293 layer_factory.hpp:76] Creating layer inception_4d/relu_3x3
I1022 22:50:52.925901 13293 net.cpp:110] Creating Layer inception_4d/relu_3x3
I1022 22:50:52.925907 13293 net.cpp:477] inception_4d/relu_3x3 <- inception_4d/3x3
I1022 22:50:52.925915 13293 net.cpp:419] inception_4d/relu_3x3 -> inception_4d/3x3 (in-place)
I1022 22:50:52.925971 13293 net.cpp:155] Setting up inception_4d/relu_3x3
I1022 22:50:52.925978 13293 net.cpp:163] Top shape: 128 288 14 14 (7225344)
I1022 22:50:52.925983 13293 layer_factory.hpp:76] Creating layer inception_4d/5x5_reduce
I1022 22:50:52.925992 13293 net.cpp:110] Creating Layer inception_4d/5x5_reduce
I1022 22:50:52.925997 13293 net.cpp:477] inception_4d/5x5_reduce <- inception_4c/output_inception_4c/output_0_split_2
I1022 22:50:52.926003 13293 net.cpp:433] inception_4d/5x5_reduce -> inception_4d/5x5_reduce
I1022 22:50:52.926359 13293 net.cpp:155] Setting up inception_4d/5x5_reduce
I1022 22:50:52.926373 13293 net.cpp:163] Top shape: 128 32 14 14 (802816)
I1022 22:50:52.926381 13293 layer_factory.hpp:76] Creating layer inception_4d/relu_5x5_reduce
I1022 22:50:52.926388 13293 net.cpp:110] Creating Layer inception_4d/relu_5x5_reduce
I1022 22:50:52.926394 13293 net.cpp:477] inception_4d/relu_5x5_reduce <- inception_4d/5x5_reduce
I1022 22:50:52.926401 13293 net.cpp:419] inception_4d/relu_5x5_reduce -> inception_4d/5x5_reduce (in-place)
I1022 22:50:52.926576 13293 net.cpp:155] Setting up inception_4d/relu_5x5_reduce
I1022 22:50:52.926589 13293 net.cpp:163] Top shape: 128 32 14 14 (802816)
I1022 22:50:52.926595 13293 layer_factory.hpp:76] Creating layer inception_4d/5x5
I1022 22:50:52.926604 13293 net.cpp:110] Creating Layer inception_4d/5x5
I1022 22:50:52.926609 13293 net.cpp:477] inception_4d/5x5 <- inception_4d/5x5_reduce
I1022 22:50:52.926615 13293 net.cpp:433] inception_4d/5x5 -> inception_4d/5x5
I1022 22:50:52.926978 13293 net.cpp:155] Setting up inception_4d/5x5
I1022 22:50:52.926992 13293 net.cpp:163] Top shape: 128 64 14 14 (1605632)
I1022 22:50:52.927000 13293 layer_factory.hpp:76] Creating layer inception_4d/relu_5x5
I1022 22:50:52.927007 13293 net.cpp:110] Creating Layer inception_4d/relu_5x5
I1022 22:50:52.927013 13293 net.cpp:477] inception_4d/relu_5x5 <- inception_4d/5x5
I1022 22:50:52.927021 13293 net.cpp:419] inception_4d/relu_5x5 -> inception_4d/5x5 (in-place)
I1022 22:50:52.927078 13293 net.cpp:155] Setting up inception_4d/relu_5x5
I1022 22:50:52.927085 13293 net.cpp:163] Top shape: 128 64 14 14 (1605632)
I1022 22:50:52.927090 13293 layer_factory.hpp:76] Creating layer inception_4d/pool
I1022 22:50:52.927095 13293 layer_factory.cpp:60] CUDNN does not support padding or multiple tops. Using Caffe's own pooling layer.
I1022 22:50:52.927101 13293 net.cpp:110] Creating Layer inception_4d/pool
I1022 22:50:52.927106 13293 net.cpp:477] inception_4d/pool <- inception_4c/output_inception_4c/output_0_split_3
I1022 22:50:52.927114 13293 net.cpp:433] inception_4d/pool -> inception_4d/pool
I1022 22:50:52.927124 13293 net.cpp:155] Setting up inception_4d/pool
I1022 22:50:52.927129 13293 net.cpp:163] Top shape: 128 512 14 14 (12845056)
I1022 22:50:52.927134 13293 layer_factory.hpp:76] Creating layer inception_4d/pool_proj
I1022 22:50:52.927141 13293 net.cpp:110] Creating Layer inception_4d/pool_proj
I1022 22:50:52.927146 13293 net.cpp:477] inception_4d/pool_proj <- inception_4d/pool
I1022 22:50:52.927153 13293 net.cpp:433] inception_4d/pool_proj -> inception_4d/pool_proj
I1022 22:50:52.927510 13293 net.cpp:155] Setting up inception_4d/pool_proj
I1022 22:50:52.927523 13293 net.cpp:163] Top shape: 128 64 14 14 (1605632)
I1022 22:50:52.927532 13293 layer_factory.hpp:76] Creating layer inception_4d/relu_pool_proj
I1022 22:50:52.927538 13293 net.cpp:110] Creating Layer inception_4d/relu_pool_proj
I1022 22:50:52.927544 13293 net.cpp:477] inception_4d/relu_pool_proj <- inception_4d/pool_proj
I1022 22:50:52.927551 13293 net.cpp:419] inception_4d/relu_pool_proj -> inception_4d/pool_proj (in-place)
I1022 22:50:52.927614 13293 net.cpp:155] Setting up inception_4d/relu_pool_proj
I1022 22:50:52.927629 13293 net.cpp:163] Top shape: 128 64 14 14 (1605632)
I1022 22:50:52.927634 13293 layer_factory.hpp:76] Creating layer inception_4d/output
I1022 22:50:52.927640 13293 net.cpp:110] Creating Layer inception_4d/output
I1022 22:50:52.927645 13293 net.cpp:477] inception_4d/output <- inception_4d/1x1
I1022 22:50:52.927651 13293 net.cpp:477] inception_4d/output <- inception_4d/3x3
I1022 22:50:52.927657 13293 net.cpp:477] inception_4d/output <- inception_4d/5x5
I1022 22:50:52.927662 13293 net.cpp:477] inception_4d/output <- inception_4d/pool_proj
I1022 22:50:52.927669 13293 net.cpp:433] inception_4d/output -> inception_4d/output
I1022 22:50:52.927677 13293 net.cpp:155] Setting up inception_4d/output
I1022 22:50:52.927683 13293 net.cpp:163] Top shape: 128 528 14 14 (13246464)
I1022 22:50:52.927687 13293 layer_factory.hpp:76] Creating layer inception_4d/output_inception_4d/output_0_split
I1022 22:50:52.927695 13293 net.cpp:110] Creating Layer inception_4d/output_inception_4d/output_0_split
I1022 22:50:52.927698 13293 net.cpp:477] inception_4d/output_inception_4d/output_0_split <- inception_4d/output
I1022 22:50:52.927706 13293 net.cpp:433] inception_4d/output_inception_4d/output_0_split -> inception_4d/output_inception_4d/output_0_split_0
I1022 22:50:52.927714 13293 net.cpp:433] inception_4d/output_inception_4d/output_0_split -> inception_4d/output_inception_4d/output_0_split_1
I1022 22:50:52.927722 13293 net.cpp:433] inception_4d/output_inception_4d/output_0_split -> inception_4d/output_inception_4d/output_0_split_2
I1022 22:50:52.927731 13293 net.cpp:433] inception_4d/output_inception_4d/output_0_split -> inception_4d/output_inception_4d/output_0_split_3
I1022 22:50:52.927741 13293 net.cpp:155] Setting up inception_4d/output_inception_4d/output_0_split
I1022 22:50:52.927745 13293 net.cpp:163] Top shape: 128 528 14 14 (13246464)
I1022 22:50:52.927750 13293 net.cpp:163] Top shape: 128 528 14 14 (13246464)
I1022 22:50:52.927755 13293 net.cpp:163] Top shape: 128 528 14 14 (13246464)
I1022 22:50:52.927759 13293 net.cpp:163] Top shape: 128 528 14 14 (13246464)
I1022 22:50:52.927763 13293 layer_factory.hpp:76] Creating layer inception_4e/1x1
I1022 22:50:52.927772 13293 net.cpp:110] Creating Layer inception_4e/1x1
I1022 22:50:52.927775 13293 net.cpp:477] inception_4e/1x1 <- inception_4d/output_inception_4d/output_0_split_0
I1022 22:50:52.927783 13293 net.cpp:433] inception_4e/1x1 -> inception_4e/1x1
I1022 22:50:52.928567 13293 net.cpp:155] Setting up inception_4e/1x1
I1022 22:50:52.928582 13293 net.cpp:163] Top shape: 128 256 14 14 (6422528)
I1022 22:50:52.928591 13293 layer_factory.hpp:76] Creating layer inception_4e/relu_1x1
I1022 22:50:52.928598 13293 net.cpp:110] Creating Layer inception_4e/relu_1x1
I1022 22:50:52.928603 13293 net.cpp:477] inception_4e/relu_1x1 <- inception_4e/1x1
I1022 22:50:52.928611 13293 net.cpp:419] inception_4e/relu_1x1 -> inception_4e/1x1 (in-place)
I1022 22:50:52.928786 13293 net.cpp:155] Setting up inception_4e/relu_1x1
I1022 22:50:52.928799 13293 net.cpp:163] Top shape: 128 256 14 14 (6422528)
I1022 22:50:52.928805 13293 layer_factory.hpp:76] Creating layer inception_4e/3x3_reduce
I1022 22:50:52.928814 13293 net.cpp:110] Creating Layer inception_4e/3x3_reduce
I1022 22:50:52.928819 13293 net.cpp:477] inception_4e/3x3_reduce <- inception_4d/output_inception_4d/output_0_split_1
I1022 22:50:52.928828 13293 net.cpp:433] inception_4e/3x3_reduce -> inception_4e/3x3_reduce
I1022 22:50:52.929214 13293 net.cpp:155] Setting up inception_4e/3x3_reduce
I1022 22:50:52.929231 13293 net.cpp:163] Top shape: 128 160 14 14 (4014080)
I1022 22:50:52.929240 13293 layer_factory.hpp:76] Creating layer inception_4e/relu_3x3_reduce
I1022 22:50:52.929247 13293 net.cpp:110] Creating Layer inception_4e/relu_3x3_reduce
I1022 22:50:52.929253 13293 net.cpp:477] inception_4e/relu_3x3_reduce <- inception_4e/3x3_reduce
I1022 22:50:52.929260 13293 net.cpp:419] inception_4e/relu_3x3_reduce -> inception_4e/3x3_reduce (in-place)
I1022 22:50:52.929322 13293 net.cpp:155] Setting up inception_4e/relu_3x3_reduce
I1022 22:50:52.929337 13293 net.cpp:163] Top shape: 128 160 14 14 (4014080)
I1022 22:50:52.929342 13293 layer_factory.hpp:76] Creating layer inception_4e/3x3
I1022 22:50:52.929349 13293 net.cpp:110] Creating Layer inception_4e/3x3
I1022 22:50:52.929354 13293 net.cpp:477] inception_4e/3x3 <- inception_4e/3x3_reduce
I1022 22:50:52.929363 13293 net.cpp:433] inception_4e/3x3 -> inception_4e/3x3
I1022 22:50:52.930488 13293 net.cpp:155] Setting up inception_4e/3x3
I1022 22:50:52.930505 13293 net.cpp:163] Top shape: 128 320 14 14 (8028160)
I1022 22:50:52.930513 13293 layer_factory.hpp:76] Creating layer inception_4e/relu_3x3
I1022 22:50:52.930521 13293 net.cpp:110] Creating Layer inception_4e/relu_3x3
I1022 22:50:52.930526 13293 net.cpp:477] inception_4e/relu_3x3 <- inception_4e/3x3
I1022 22:50:52.930533 13293 net.cpp:419] inception_4e/relu_3x3 -> inception_4e/3x3 (in-place)
I1022 22:50:52.930590 13293 net.cpp:155] Setting up inception_4e/relu_3x3
I1022 22:50:52.930600 13293 net.cpp:163] Top shape: 128 320 14 14 (8028160)
I1022 22:50:52.930606 13293 layer_factory.hpp:76] Creating layer inception_4e/5x5_reduce
I1022 22:50:52.930615 13293 net.cpp:110] Creating Layer inception_4e/5x5_reduce
I1022 22:50:52.930620 13293 net.cpp:477] inception_4e/5x5_reduce <- inception_4d/output_inception_4d/output_0_split_2
I1022 22:50:52.930627 13293 net.cpp:433] inception_4e/5x5_reduce -> inception_4e/5x5_reduce
I1022 22:50:52.930974 13293 net.cpp:155] Setting up inception_4e/5x5_reduce
I1022 22:50:52.930989 13293 net.cpp:163] Top shape: 128 32 14 14 (802816)
I1022 22:50:52.930996 13293 layer_factory.hpp:76] Creating layer inception_4e/relu_5x5_reduce
I1022 22:50:52.931005 13293 net.cpp:110] Creating Layer inception_4e/relu_5x5_reduce
I1022 22:50:52.931010 13293 net.cpp:477] inception_4e/relu_5x5_reduce <- inception_4e/5x5_reduce
I1022 22:50:52.931016 13293 net.cpp:419] inception_4e/relu_5x5_reduce -> inception_4e/5x5_reduce (in-place)
I1022 22:50:52.931073 13293 net.cpp:155] Setting up inception_4e/relu_5x5_reduce
I1022 22:50:52.931082 13293 net.cpp:163] Top shape: 128 32 14 14 (802816)
I1022 22:50:52.931085 13293 layer_factory.hpp:76] Creating layer inception_4e/5x5
I1022 22:50:52.931093 13293 net.cpp:110] Creating Layer inception_4e/5x5
I1022 22:50:52.931098 13293 net.cpp:477] inception_4e/5x5 <- inception_4e/5x5_reduce
I1022 22:50:52.931105 13293 net.cpp:433] inception_4e/5x5 -> inception_4e/5x5
I1022 22:50:52.931875 13293 net.cpp:155] Setting up inception_4e/5x5
I1022 22:50:52.931891 13293 net.cpp:163] Top shape: 128 128 14 14 (3211264)
I1022 22:50:52.931900 13293 layer_factory.hpp:76] Creating layer inception_4e/relu_5x5
I1022 22:50:52.931907 13293 net.cpp:110] Creating Layer inception_4e/relu_5x5
I1022 22:50:52.931912 13293 net.cpp:477] inception_4e/relu_5x5 <- inception_4e/5x5
I1022 22:50:52.931920 13293 net.cpp:419] inception_4e/relu_5x5 -> inception_4e/5x5 (in-place)
I1022 22:50:52.932096 13293 net.cpp:155] Setting up inception_4e/relu_5x5
I1022 22:50:52.932108 13293 net.cpp:163] Top shape: 128 128 14 14 (3211264)
I1022 22:50:52.932113 13293 layer_factory.hpp:76] Creating layer inception_4e/pool
I1022 22:50:52.932118 13293 layer_factory.cpp:60] CUDNN does not support padding or multiple tops. Using Caffe's own pooling layer.
I1022 22:50:52.932124 13293 net.cpp:110] Creating Layer inception_4e/pool
I1022 22:50:52.932131 13293 net.cpp:477] inception_4e/pool <- inception_4d/output_inception_4d/output_0_split_3
I1022 22:50:52.932137 13293 net.cpp:433] inception_4e/pool -> inception_4e/pool
I1022 22:50:52.932148 13293 net.cpp:155] Setting up inception_4e/pool
I1022 22:50:52.932154 13293 net.cpp:163] Top shape: 128 528 14 14 (13246464)
I1022 22:50:52.932159 13293 layer_factory.hpp:76] Creating layer inception_4e/pool_proj
I1022 22:50:52.932167 13293 net.cpp:110] Creating Layer inception_4e/pool_proj
I1022 22:50:52.932171 13293 net.cpp:477] inception_4e/pool_proj <- inception_4e/pool
I1022 22:50:52.932178 13293 net.cpp:433] inception_4e/pool_proj -> inception_4e/pool_proj
I1022 22:50:52.932556 13293 net.cpp:155] Setting up inception_4e/pool_proj
I1022 22:50:52.932577 13293 net.cpp:163] Top shape: 128 128 14 14 (3211264)
I1022 22:50:52.932587 13293 layer_factory.hpp:76] Creating layer inception_4e/relu_pool_proj
I1022 22:50:52.932595 13293 net.cpp:110] Creating Layer inception_4e/relu_pool_proj
I1022 22:50:52.932600 13293 net.cpp:477] inception_4e/relu_pool_proj <- inception_4e/pool_proj
I1022 22:50:52.932606 13293 net.cpp:419] inception_4e/relu_pool_proj -> inception_4e/pool_proj (in-place)
I1022 22:50:52.932667 13293 net.cpp:155] Setting up inception_4e/relu_pool_proj
I1022 22:50:52.932674 13293 net.cpp:163] Top shape: 128 128 14 14 (3211264)
I1022 22:50:52.932678 13293 layer_factory.hpp:76] Creating layer inception_4e/output
I1022 22:50:52.932685 13293 net.cpp:110] Creating Layer inception_4e/output
I1022 22:50:52.932693 13293 net.cpp:477] inception_4e/output <- inception_4e/1x1
I1022 22:50:52.932699 13293 net.cpp:477] inception_4e/output <- inception_4e/3x3
I1022 22:50:52.932705 13293 net.cpp:477] inception_4e/output <- inception_4e/5x5
I1022 22:50:52.932711 13293 net.cpp:477] inception_4e/output <- inception_4e/pool_proj
I1022 22:50:52.932718 13293 net.cpp:433] inception_4e/output -> inception_4e/output
I1022 22:50:52.932726 13293 net.cpp:155] Setting up inception_4e/output
I1022 22:50:52.932732 13293 net.cpp:163] Top shape: 128 832 14 14 (20873216)
I1022 22:50:52.932736 13293 layer_factory.hpp:76] Creating layer pool4/3x3_s2
I1022 22:50:52.932744 13293 net.cpp:110] Creating Layer pool4/3x3_s2
I1022 22:50:52.932749 13293 net.cpp:477] pool4/3x3_s2 <- inception_4e/output
I1022 22:50:52.932755 13293 net.cpp:433] pool4/3x3_s2 -> pool4/3x3_s2
I1022 22:50:52.932811 13293 net.cpp:155] Setting up pool4/3x3_s2
I1022 22:50:52.932819 13293 net.cpp:163] Top shape: 128 832 7 7 (5218304)
I1022 22:50:52.932824 13293 layer_factory.hpp:76] Creating layer pool4/3x3_s2_pool4/3x3_s2_0_split
I1022 22:50:52.932832 13293 net.cpp:110] Creating Layer pool4/3x3_s2_pool4/3x3_s2_0_split
I1022 22:50:52.932837 13293 net.cpp:477] pool4/3x3_s2_pool4/3x3_s2_0_split <- pool4/3x3_s2
I1022 22:50:52.932844 13293 net.cpp:433] pool4/3x3_s2_pool4/3x3_s2_0_split -> pool4/3x3_s2_pool4/3x3_s2_0_split_0
I1022 22:50:52.932853 13293 net.cpp:433] pool4/3x3_s2_pool4/3x3_s2_0_split -> pool4/3x3_s2_pool4/3x3_s2_0_split_1
I1022 22:50:52.932860 13293 net.cpp:433] pool4/3x3_s2_pool4/3x3_s2_0_split -> pool4/3x3_s2_pool4/3x3_s2_0_split_2
I1022 22:50:52.932868 13293 net.cpp:433] pool4/3x3_s2_pool4/3x3_s2_0_split -> pool4/3x3_s2_pool4/3x3_s2_0_split_3
I1022 22:50:52.932878 13293 net.cpp:155] Setting up pool4/3x3_s2_pool4/3x3_s2_0_split
I1022 22:50:52.932883 13293 net.cpp:163] Top shape: 128 832 7 7 (5218304)
I1022 22:50:52.932888 13293 net.cpp:163] Top shape: 128 832 7 7 (5218304)
I1022 22:50:52.932893 13293 net.cpp:163] Top shape: 128 832 7 7 (5218304)
I1022 22:50:52.932898 13293 net.cpp:163] Top shape: 128 832 7 7 (5218304)
I1022 22:50:52.932903 13293 layer_factory.hpp:76] Creating layer inception_5a/1x1
I1022 22:50:52.932909 13293 net.cpp:110] Creating Layer inception_5a/1x1
I1022 22:50:52.932914 13293 net.cpp:477] inception_5a/1x1 <- pool4/3x3_s2_pool4/3x3_s2_0_split_0
I1022 22:50:52.932921 13293 net.cpp:433] inception_5a/1x1 -> inception_5a/1x1
I1022 22:50:52.933751 13293 net.cpp:155] Setting up inception_5a/1x1
I1022 22:50:52.933766 13293 net.cpp:163] Top shape: 128 256 7 7 (1605632)
I1022 22:50:52.933775 13293 layer_factory.hpp:76] Creating layer inception_5a/relu_1x1
I1022 22:50:52.933782 13293 net.cpp:110] Creating Layer inception_5a/relu_1x1
I1022 22:50:52.933789 13293 net.cpp:477] inception_5a/relu_1x1 <- inception_5a/1x1
I1022 22:50:52.933795 13293 net.cpp:419] inception_5a/relu_1x1 -> inception_5a/1x1 (in-place)
I1022 22:50:52.933852 13293 net.cpp:155] Setting up inception_5a/relu_1x1
I1022 22:50:52.933861 13293 net.cpp:163] Top shape: 128 256 7 7 (1605632)
I1022 22:50:52.933866 13293 layer_factory.hpp:76] Creating layer inception_5a/3x3_reduce
I1022 22:50:52.933873 13293 net.cpp:110] Creating Layer inception_5a/3x3_reduce
I1022 22:50:52.933884 13293 net.cpp:477] inception_5a/3x3_reduce <- pool4/3x3_s2_pool4/3x3_s2_0_split_1
I1022 22:50:52.933897 13293 net.cpp:433] inception_5a/3x3_reduce -> inception_5a/3x3_reduce
I1022 22:50:52.934685 13293 net.cpp:155] Setting up inception_5a/3x3_reduce
I1022 22:50:52.934701 13293 net.cpp:163] Top shape: 128 160 7 7 (1003520)
I1022 22:50:52.934710 13293 layer_factory.hpp:76] Creating layer inception_5a/relu_3x3_reduce
I1022 22:50:52.934717 13293 net.cpp:110] Creating Layer inception_5a/relu_3x3_reduce
I1022 22:50:52.934723 13293 net.cpp:477] inception_5a/relu_3x3_reduce <- inception_5a/3x3_reduce
I1022 22:50:52.934731 13293 net.cpp:419] inception_5a/relu_3x3_reduce -> inception_5a/3x3_reduce (in-place)
I1022 22:50:52.934908 13293 net.cpp:155] Setting up inception_5a/relu_3x3_reduce
I1022 22:50:52.934922 13293 net.cpp:163] Top shape: 128 160 7 7 (1003520)
I1022 22:50:52.934927 13293 layer_factory.hpp:76] Creating layer inception_5a/3x3
I1022 22:50:52.934937 13293 net.cpp:110] Creating Layer inception_5a/3x3
I1022 22:50:52.934942 13293 net.cpp:477] inception_5a/3x3 <- inception_5a/3x3_reduce
I1022 22:50:52.934948 13293 net.cpp:433] inception_5a/3x3 -> inception_5a/3x3
I1022 22:50:52.936069 13293 net.cpp:155] Setting up inception_5a/3x3
I1022 22:50:52.936084 13293 net.cpp:163] Top shape: 128 320 7 7 (2007040)
I1022 22:50:52.936094 13293 layer_factory.hpp:76] Creating layer inception_5a/relu_3x3
I1022 22:50:52.936100 13293 net.cpp:110] Creating Layer inception_5a/relu_3x3
I1022 22:50:52.936105 13293 net.cpp:477] inception_5a/relu_3x3 <- inception_5a/3x3
I1022 22:50:52.936112 13293 net.cpp:419] inception_5a/relu_3x3 -> inception_5a/3x3 (in-place)
I1022 22:50:52.936172 13293 net.cpp:155] Setting up inception_5a/relu_3x3
I1022 22:50:52.936179 13293 net.cpp:163] Top shape: 128 320 7 7 (2007040)
I1022 22:50:52.936184 13293 layer_factory.hpp:76] Creating layer inception_5a/5x5_reduce
I1022 22:50:52.936192 13293 net.cpp:110] Creating Layer inception_5a/5x5_reduce
I1022 22:50:52.936197 13293 net.cpp:477] inception_5a/5x5_reduce <- pool4/3x3_s2_pool4/3x3_s2_0_split_2
I1022 22:50:52.936204 13293 net.cpp:433] inception_5a/5x5_reduce -> inception_5a/5x5_reduce
I1022 22:50:52.936568 13293 net.cpp:155] Setting up inception_5a/5x5_reduce
I1022 22:50:52.936581 13293 net.cpp:163] Top shape: 128 32 7 7 (200704)
I1022 22:50:52.936589 13293 layer_factory.hpp:76] Creating layer inception_5a/relu_5x5_reduce
I1022 22:50:52.936596 13293 net.cpp:110] Creating Layer inception_5a/relu_5x5_reduce
I1022 22:50:52.936601 13293 net.cpp:477] inception_5a/relu_5x5_reduce <- inception_5a/5x5_reduce
I1022 22:50:52.936609 13293 net.cpp:419] inception_5a/relu_5x5_reduce -> inception_5a/5x5_reduce (in-place)
I1022 22:50:52.936667 13293 net.cpp:155] Setting up inception_5a/relu_5x5_reduce
I1022 22:50:52.936676 13293 net.cpp:163] Top shape: 128 32 7 7 (200704)
I1022 22:50:52.936681 13293 layer_factory.hpp:76] Creating layer inception_5a/5x5
I1022 22:50:52.936688 13293 net.cpp:110] Creating Layer inception_5a/5x5
I1022 22:50:52.936693 13293 net.cpp:477] inception_5a/5x5 <- inception_5a/5x5_reduce
I1022 22:50:52.936700 13293 net.cpp:433] inception_5a/5x5 -> inception_5a/5x5
I1022 22:50:52.937096 13293 net.cpp:155] Setting up inception_5a/5x5
I1022 22:50:52.937110 13293 net.cpp:163] Top shape: 128 128 7 7 (802816)
I1022 22:50:52.937119 13293 layer_factory.hpp:76] Creating layer inception_5a/relu_5x5
I1022 22:50:52.937126 13293 net.cpp:110] Creating Layer inception_5a/relu_5x5
I1022 22:50:52.937131 13293 net.cpp:477] inception_5a/relu_5x5 <- inception_5a/5x5
I1022 22:50:52.937139 13293 net.cpp:419] inception_5a/relu_5x5 -> inception_5a/5x5 (in-place)
I1022 22:50:52.937196 13293 net.cpp:155] Setting up inception_5a/relu_5x5
I1022 22:50:52.937204 13293 net.cpp:163] Top shape: 128 128 7 7 (802816)
I1022 22:50:52.937209 13293 layer_factory.hpp:76] Creating layer inception_5a/pool
I1022 22:50:52.937214 13293 layer_factory.cpp:60] CUDNN does not support padding or multiple tops. Using Caffe's own pooling layer.
I1022 22:50:52.937221 13293 net.cpp:110] Creating Layer inception_5a/pool
I1022 22:50:52.937230 13293 net.cpp:477] inception_5a/pool <- pool4/3x3_s2_pool4/3x3_s2_0_split_3
I1022 22:50:52.937242 13293 net.cpp:433] inception_5a/pool -> inception_5a/pool
I1022 22:50:52.937253 13293 net.cpp:155] Setting up inception_5a/pool
I1022 22:50:52.937259 13293 net.cpp:163] Top shape: 128 832 7 7 (5218304)
I1022 22:50:52.937264 13293 layer_factory.hpp:76] Creating layer inception_5a/pool_proj
I1022 22:50:52.937284 13293 net.cpp:110] Creating Layer inception_5a/pool_proj
I1022 22:50:52.937290 13293 net.cpp:477] inception_5a/pool_proj <- inception_5a/pool
I1022 22:50:52.937297 13293 net.cpp:433] inception_5a/pool_proj -> inception_5a/pool_proj
I1022 22:50:52.938074 13293 net.cpp:155] Setting up inception_5a/pool_proj
I1022 22:50:52.938091 13293 net.cpp:163] Top shape: 128 128 7 7 (802816)
I1022 22:50:52.938099 13293 layer_factory.hpp:76] Creating layer inception_5a/relu_pool_proj
I1022 22:50:52.938107 13293 net.cpp:110] Creating Layer inception_5a/relu_pool_proj
I1022 22:50:52.938112 13293 net.cpp:477] inception_5a/relu_pool_proj <- inception_5a/pool_proj
I1022 22:50:52.938119 13293 net.cpp:419] inception_5a/relu_pool_proj -> inception_5a/pool_proj (in-place)
I1022 22:50:52.938295 13293 net.cpp:155] Setting up inception_5a/relu_pool_proj
I1022 22:50:52.938308 13293 net.cpp:163] Top shape: 128 128 7 7 (802816)
I1022 22:50:52.938313 13293 layer_factory.hpp:76] Creating layer inception_5a/output
I1022 22:50:52.938320 13293 net.cpp:110] Creating Layer inception_5a/output
I1022 22:50:52.938326 13293 net.cpp:477] inception_5a/output <- inception_5a/1x1
I1022 22:50:52.938333 13293 net.cpp:477] inception_5a/output <- inception_5a/3x3
I1022 22:50:52.938338 13293 net.cpp:477] inception_5a/output <- inception_5a/5x5
I1022 22:50:52.938344 13293 net.cpp:477] inception_5a/output <- inception_5a/pool_proj
I1022 22:50:52.938349 13293 net.cpp:433] inception_5a/output -> inception_5a/output
I1022 22:50:52.938359 13293 net.cpp:155] Setting up inception_5a/output
I1022 22:50:52.938364 13293 net.cpp:163] Top shape: 128 832 7 7 (5218304)
I1022 22:50:52.938369 13293 layer_factory.hpp:76] Creating layer inception_5a/output_inception_5a/output_0_split
I1022 22:50:52.938374 13293 net.cpp:110] Creating Layer inception_5a/output_inception_5a/output_0_split
I1022 22:50:52.938380 13293 net.cpp:477] inception_5a/output_inception_5a/output_0_split <- inception_5a/output
I1022 22:50:52.938386 13293 net.cpp:433] inception_5a/output_inception_5a/output_0_split -> inception_5a/output_inception_5a/output_0_split_0
I1022 22:50:52.938395 13293 net.cpp:433] inception_5a/output_inception_5a/output_0_split -> inception_5a/output_inception_5a/output_0_split_1
I1022 22:50:52.938405 13293 net.cpp:433] inception_5a/output_inception_5a/output_0_split -> inception_5a/output_inception_5a/output_0_split_2
I1022 22:50:52.938412 13293 net.cpp:433] inception_5a/output_inception_5a/output_0_split -> inception_5a/output_inception_5a/output_0_split_3
I1022 22:50:52.938422 13293 net.cpp:155] Setting up inception_5a/output_inception_5a/output_0_split
I1022 22:50:52.938427 13293 net.cpp:163] Top shape: 128 832 7 7 (5218304)
I1022 22:50:52.938432 13293 net.cpp:163] Top shape: 128 832 7 7 (5218304)
I1022 22:50:52.938436 13293 net.cpp:163] Top shape: 128 832 7 7 (5218304)
I1022 22:50:52.938441 13293 net.cpp:163] Top shape: 128 832 7 7 (5218304)
I1022 22:50:52.938446 13293 layer_factory.hpp:76] Creating layer inception_5b/1x1
I1022 22:50:52.938453 13293 net.cpp:110] Creating Layer inception_5b/1x1
I1022 22:50:52.938458 13293 net.cpp:477] inception_5b/1x1 <- inception_5a/output_inception_5a/output_0_split_0
I1022 22:50:52.938465 13293 net.cpp:433] inception_5b/1x1 -> inception_5b/1x1
I1022 22:50:52.939401 13293 net.cpp:155] Setting up inception_5b/1x1
I1022 22:50:52.939416 13293 net.cpp:163] Top shape: 128 384 7 7 (2408448)
I1022 22:50:52.939425 13293 layer_factory.hpp:76] Creating layer inception_5b/relu_1x1
I1022 22:50:52.939432 13293 net.cpp:110] Creating Layer inception_5b/relu_1x1
I1022 22:50:52.939437 13293 net.cpp:477] inception_5b/relu_1x1 <- inception_5b/1x1
I1022 22:50:52.939450 13293 net.cpp:419] inception_5b/relu_1x1 -> inception_5b/1x1 (in-place)
I1022 22:50:52.939515 13293 net.cpp:155] Setting up inception_5b/relu_1x1
I1022 22:50:52.939524 13293 net.cpp:163] Top shape: 128 384 7 7 (2408448)
I1022 22:50:52.939529 13293 layer_factory.hpp:76] Creating layer inception_5b/3x3_reduce
I1022 22:50:52.939538 13293 net.cpp:110] Creating Layer inception_5b/3x3_reduce
I1022 22:50:52.939543 13293 net.cpp:477] inception_5b/3x3_reduce <- inception_5a/output_inception_5a/output_0_split_1
I1022 22:50:52.939549 13293 net.cpp:433] inception_5b/3x3_reduce -> inception_5b/3x3_reduce
I1022 22:50:52.940374 13293 net.cpp:155] Setting up inception_5b/3x3_reduce
I1022 22:50:52.940389 13293 net.cpp:163] Top shape: 128 192 7 7 (1204224)
I1022 22:50:52.940398 13293 layer_factory.hpp:76] Creating layer inception_5b/relu_3x3_reduce
I1022 22:50:52.940405 13293 net.cpp:110] Creating Layer inception_5b/relu_3x3_reduce
I1022 22:50:52.940412 13293 net.cpp:477] inception_5b/relu_3x3_reduce <- inception_5b/3x3_reduce
I1022 22:50:52.940418 13293 net.cpp:419] inception_5b/relu_3x3_reduce -> inception_5b/3x3_reduce (in-place)
I1022 22:50:52.940479 13293 net.cpp:155] Setting up inception_5b/relu_3x3_reduce
I1022 22:50:52.940486 13293 net.cpp:163] Top shape: 128 192 7 7 (1204224)
I1022 22:50:52.940491 13293 layer_factory.hpp:76] Creating layer inception_5b/3x3
I1022 22:50:52.940500 13293 net.cpp:110] Creating Layer inception_5b/3x3
I1022 22:50:52.940505 13293 net.cpp:477] inception_5b/3x3 <- inception_5b/3x3_reduce
I1022 22:50:52.940511 13293 net.cpp:433] inception_5b/3x3 -> inception_5b/3x3
I1022 22:50:52.941908 13293 net.cpp:155] Setting up inception_5b/3x3
I1022 22:50:52.941923 13293 net.cpp:163] Top shape: 128 384 7 7 (2408448)
I1022 22:50:52.941932 13293 layer_factory.hpp:76] Creating layer inception_5b/relu_3x3
I1022 22:50:52.941939 13293 net.cpp:110] Creating Layer inception_5b/relu_3x3
I1022 22:50:52.941946 13293 net.cpp:477] inception_5b/relu_3x3 <- inception_5b/3x3
I1022 22:50:52.941952 13293 net.cpp:419] inception_5b/relu_3x3 -> inception_5b/3x3 (in-place)
I1022 22:50:52.942136 13293 net.cpp:155] Setting up inception_5b/relu_3x3
I1022 22:50:52.942149 13293 net.cpp:163] Top shape: 128 384 7 7 (2408448)
I1022 22:50:52.942155 13293 layer_factory.hpp:76] Creating layer inception_5b/5x5_reduce
I1022 22:50:52.942164 13293 net.cpp:110] Creating Layer inception_5b/5x5_reduce
I1022 22:50:52.942172 13293 net.cpp:477] inception_5b/5x5_reduce <- inception_5a/output_inception_5a/output_0_split_2
I1022 22:50:52.942179 13293 net.cpp:433] inception_5b/5x5_reduce -> inception_5b/5x5_reduce
I1022 22:50:52.942564 13293 net.cpp:155] Setting up inception_5b/5x5_reduce
I1022 22:50:52.942579 13293 net.cpp:163] Top shape: 128 48 7 7 (301056)
I1022 22:50:52.942589 13293 layer_factory.hpp:76] Creating layer inception_5b/relu_5x5_reduce
I1022 22:50:52.942596 13293 net.cpp:110] Creating Layer inception_5b/relu_5x5_reduce
I1022 22:50:52.942601 13293 net.cpp:477] inception_5b/relu_5x5_reduce <- inception_5b/5x5_reduce
I1022 22:50:52.942608 13293 net.cpp:419] inception_5b/relu_5x5_reduce -> inception_5b/5x5_reduce (in-place)
I1022 22:50:52.942668 13293 net.cpp:155] Setting up inception_5b/relu_5x5_reduce
I1022 22:50:52.942677 13293 net.cpp:163] Top shape: 128 48 7 7 (301056)
I1022 22:50:52.942682 13293 layer_factory.hpp:76] Creating layer inception_5b/5x5
I1022 22:50:52.942689 13293 net.cpp:110] Creating Layer inception_5b/5x5
I1022 22:50:52.942694 13293 net.cpp:477] inception_5b/5x5 <- inception_5b/5x5_reduce
I1022 22:50:52.942701 13293 net.cpp:433] inception_5b/5x5 -> inception_5b/5x5
I1022 22:50:52.943132 13293 net.cpp:155] Setting up inception_5b/5x5
I1022 22:50:52.943146 13293 net.cpp:163] Top shape: 128 128 7 7 (802816)
I1022 22:50:52.943155 13293 layer_factory.hpp:76] Creating layer inception_5b/relu_5x5
I1022 22:50:52.943161 13293 net.cpp:110] Creating Layer inception_5b/relu_5x5
I1022 22:50:52.943167 13293 net.cpp:477] inception_5b/relu_5x5 <- inception_5b/5x5
I1022 22:50:52.943174 13293 net.cpp:419] inception_5b/relu_5x5 -> inception_5b/5x5 (in-place)
I1022 22:50:52.943243 13293 net.cpp:155] Setting up inception_5b/relu_5x5
I1022 22:50:52.943251 13293 net.cpp:163] Top shape: 128 128 7 7 (802816)
I1022 22:50:52.943256 13293 layer_factory.hpp:76] Creating layer inception_5b/pool
I1022 22:50:52.943261 13293 layer_factory.cpp:60] CUDNN does not support padding or multiple tops. Using Caffe's own pooling layer.
I1022 22:50:52.943267 13293 net.cpp:110] Creating Layer inception_5b/pool
I1022 22:50:52.943272 13293 net.cpp:477] inception_5b/pool <- inception_5a/output_inception_5a/output_0_split_3
I1022 22:50:52.943279 13293 net.cpp:433] inception_5b/pool -> inception_5b/pool
I1022 22:50:52.943290 13293 net.cpp:155] Setting up inception_5b/pool
I1022 22:50:52.943296 13293 net.cpp:163] Top shape: 128 832 7 7 (5218304)
I1022 22:50:52.943300 13293 layer_factory.hpp:76] Creating layer inception_5b/pool_proj
I1022 22:50:52.943308 13293 net.cpp:110] Creating Layer inception_5b/pool_proj
I1022 22:50:52.943313 13293 net.cpp:477] inception_5b/pool_proj <- inception_5b/pool
I1022 22:50:52.943320 13293 net.cpp:433] inception_5b/pool_proj -> inception_5b/pool_proj
I1022 22:50:52.944097 13293 net.cpp:155] Setting up inception_5b/pool_proj
I1022 22:50:52.944113 13293 net.cpp:163] Top shape: 128 128 7 7 (802816)
I1022 22:50:52.944120 13293 layer_factory.hpp:76] Creating layer inception_5b/relu_pool_proj
I1022 22:50:52.944128 13293 net.cpp:110] Creating Layer inception_5b/relu_pool_proj
I1022 22:50:52.944133 13293 net.cpp:477] inception_5b/relu_pool_proj <- inception_5b/pool_proj
I1022 22:50:52.944140 13293 net.cpp:419] inception_5b/relu_pool_proj -> inception_5b/pool_proj (in-place)
I1022 22:50:52.944200 13293 net.cpp:155] Setting up inception_5b/relu_pool_proj
I1022 22:50:52.944208 13293 net.cpp:163] Top shape: 128 128 7 7 (802816)
I1022 22:50:52.944212 13293 layer_factory.hpp:76] Creating layer inception_5b/output
I1022 22:50:52.944219 13293 net.cpp:110] Creating Layer inception_5b/output
I1022 22:50:52.944224 13293 net.cpp:477] inception_5b/output <- inception_5b/1x1
I1022 22:50:52.944231 13293 net.cpp:477] inception_5b/output <- inception_5b/3x3
I1022 22:50:52.944236 13293 net.cpp:477] inception_5b/output <- inception_5b/5x5
I1022 22:50:52.944241 13293 net.cpp:477] inception_5b/output <- inception_5b/pool_proj
I1022 22:50:52.944247 13293 net.cpp:433] inception_5b/output -> inception_5b/output
I1022 22:50:52.944255 13293 net.cpp:155] Setting up inception_5b/output
I1022 22:50:52.944262 13293 net.cpp:163] Top shape: 128 1024 7 7 (6422528)
I1022 22:50:52.944267 13293 layer_factory.hpp:76] Creating layer pool5/7x7_s1
I1022 22:50:52.944272 13293 net.cpp:110] Creating Layer pool5/7x7_s1
I1022 22:50:52.944278 13293 net.cpp:477] pool5/7x7_s1 <- inception_5b/output
I1022 22:50:52.944284 13293 net.cpp:433] pool5/7x7_s1 -> pool5/7x7_s1
I1022 22:50:52.944465 13293 net.cpp:155] Setting up pool5/7x7_s1
I1022 22:50:52.944478 13293 net.cpp:163] Top shape: 128 1024 1 1 (131072)
I1022 22:50:52.944484 13293 layer_factory.hpp:76] Creating layer pool5/drop_7x7_s1
I1022 22:50:52.944491 13293 net.cpp:110] Creating Layer pool5/drop_7x7_s1
I1022 22:50:52.944496 13293 net.cpp:477] pool5/drop_7x7_s1 <- pool5/7x7_s1
I1022 22:50:52.944502 13293 net.cpp:419] pool5/drop_7x7_s1 -> pool5/7x7_s1 (in-place)
I1022 22:50:52.944514 13293 net.cpp:155] Setting up pool5/drop_7x7_s1
I1022 22:50:52.944519 13293 net.cpp:163] Top shape: 128 1024 1 1 (131072)
I1022 22:50:52.944524 13293 layer_factory.hpp:76] Creating layer pool5/7x7_s1_pool5/drop_7x7_s1_0_split
I1022 22:50:52.944535 13293 net.cpp:110] Creating Layer pool5/7x7_s1_pool5/drop_7x7_s1_0_split
I1022 22:50:52.944538 13293 net.cpp:477] pool5/7x7_s1_pool5/drop_7x7_s1_0_split <- pool5/7x7_s1
I1022 22:50:52.944548 13293 net.cpp:433] pool5/7x7_s1_pool5/drop_7x7_s1_0_split -> pool5/7x7_s1_pool5/drop_7x7_s1_0_split_0
…
I1022 22:50:52.944978 13293 net.cpp:433] pool5/7x7_s1_pool5/drop_7x7_s1_0_split -> pool5/7x7_s1_pool5/drop_7x7_s1_0_split_37
I1022 22:50:52.944988 13293 net.cpp:433] pool5/7x7_s1_pool5/drop_7x7_s1_0_split -> pool5/7x7_s1_pool5/drop_7x7_s1_0_split_38
I1022 22:50:52.944999 13293 net.cpp:433] pool5/7x7_s1_pool5/drop_7x7_s1_0_split -> pool5/7x7_s1_pool5/drop_7x7_s1_0_split_39
I1022 22:50:52.945009 13293 net.cpp:433] pool5/7x7_s1_pool5/drop_7x7_s1_0_split -> pool5/7x7_s1_pool5/drop_7x7_s1_0_split_40
I1022 22:50:52.945049 13293 net.cpp:155] Setting up pool5/7x7_s1_pool5/drop_7x7_s1_0_split
I1022 22:50:52.945055 13293 net.cpp:163] Top shape: 128 1024 1 1 (131072)
I1022 22:50:52.945060 13293 net.cpp:163] Top shape: 128 1024 1 1 (131072)
I1022 22:50:52.945065 13293 net.cpp:163] Top shape: 128 1024 1 1 (131072)
I1022 22:50:52.945070 13293 net.cpp:163] Top shape: 128 1024 1 1 (131072)
I1022 22:50:52.945075 13293 net.cpp:163] Top shape: 128 1024 1 1 (131072)
I1022 22:50:52.945080 13293 net.cpp:163] Top shape: 128 1024 1 1 (131072)
I1022 22:50:52.945083 13293 net.cpp:163] Top shape: 128 1024 1 1 (131072)
I1022 22:50:52.945088 13293 net.cpp:163] Top shape: 128 1024 1 1 (131072)
I1022 22:50:52.945093 13293 net.cpp:163] Top shape: 128 1024 1 1 (131072)
I1022 22:50:52.945097 13293 net.cpp:163] Top shape: 128 1024 1 1 (131072)
I1022 22:50:52.945102 13293 net.cpp:163] Top shape: 128 1024 1 1 (131072)
I1022 22:50:52.945106 13293 net.cpp:163] Top shape: 128 1024 1 1 (131072)
I1022 22:50:52.945111 13293 net.cpp:163] Top shape: 128 1024 1 1 (131072)
I1022 22:50:52.945116 13293 net.cpp:163] Top shape: 128 1024 1 1 (131072)
I1022 22:50:52.945121 13293 net.cpp:163] Top shape: 128 1024 1 1 (131072)
I1022 22:50:52.945125 13293 net.cpp:163] Top shape: 128 1024 1 1 (131072)
I1022 22:50:52.945129 13293 net.cpp:163] Top shape: 128 1024 1 1 (131072)
I1022 22:50:52.945134 13293 net.cpp:163] Top shape: 128 1024 1 1 (131072)
I1022 22:50:52.945138 13293 net.cpp:163] Top shape: 128 1024 1 1 (131072)
I1022 22:50:52.945143 13293 net.cpp:163] Top shape: 128 1024 1 1 (131072)
I1022 22:50:52.945148 13293 net.cpp:163] Top shape: 128 1024 1 1 (131072)
I1022 22:50:52.945152 13293 net.cpp:163] Top shape: 128 1024 1 1 (131072)
I1022 22:50:52.945158 13293 net.cpp:163] Top shape: 128 1024 1 1 (131072)
I1022 22:50:52.945161 13293 net.cpp:163] Top shape: 128 1024 1 1 (131072)
I1022 22:50:52.945166 13293 net.cpp:163] Top shape: 128 1024 1 1 (131072)
I1022 22:50:52.945171 13293 net.cpp:163] Top shape: 128 1024 1 1 (131072)
I1022 22:50:52.945175 13293 net.cpp:163] Top shape: 128 1024 1 1 (131072)
I1022 22:50:52.945180 13293 net.cpp:163] Top shape: 128 1024 1 1 (131072)
I1022 22:50:52.945184 13293 net.cpp:163] Top shape: 128 1024 1 1 (131072)
I1022 22:50:52.945189 13293 net.cpp:163] Top shape: 128 1024 1 1 (131072)
I1022 22:50:52.945194 13293 net.cpp:163] Top shape: 128 1024 1 1 (131072)
I1022 22:50:52.945199 13293 net.cpp:163] Top shape: 128 1024 1 1 (131072)
I1022 22:50:52.945204 13293 net.cpp:163] Top shape: 128 1024 1 1 (131072)
I1022 22:50:52.945207 13293 net.cpp:163] Top shape: 128 1024 1 1 (131072)
I1022 22:50:52.945212 13293 net.cpp:163] Top shape: 128 1024 1 1 (131072)
I1022 22:50:52.945217 13293 net.cpp:163] Top shape: 128 1024 1 1 (131072)
I1022 22:50:52.945221 13293 net.cpp:163] Top shape: 128 1024 1 1 (131072)
I1022 22:50:52.945226 13293 net.cpp:163] Top shape: 128 1024 1 1 (131072)
I1022 22:50:52.945230 13293 net.cpp:163] Top shape: 128 1024 1 1 (131072)
I1022 22:50:52.945235 13293 net.cpp:163] Top shape: 128 1024 1 1 (131072)
I1022 22:50:52.945240 13293 net.cpp:163] Top shape: 128 1024 1 1 (131072)
I1022 22:50:52.945245 13293 layer_factory.hpp:76] Creating layer dir0_TL
I1022 22:50:52.945253 13293 net.cpp:110] Creating Layer dir0_TL
I1022 22:50:52.945258 13293 net.cpp:477] dir0_TL <- pool5/7x7_s1_pool5/drop_7x7_s1_0_split_0
I1022 22:50:52.945267 13293 net.cpp:433] dir0_TL -> dir0_TL
I1022 22:50:52.945776 13293 net.cpp:155] Setting up dir0_TL
I1022 22:50:52.945797 13293 net.cpp:163] Top shape: 128 4 1 1 (512)
I1022 22:50:52.945806 13293 layer_factory.hpp:76] Creating layer dir0_BR
I1022 22:50:52.945816 13293 net.cpp:110] Creating Layer dir0_BR
I1022 22:50:52.945822 13293 net.cpp:477] dir0_BR <- pool5/7x7_s1_pool5/drop_7x7_s1_0_split_1
I1022 22:50:52.945832 13293 net.cpp:433] dir0_BR -> dir0_BR
I1022 22:50:52.946302 13293 net.cpp:155] Setting up dir0_BR
I1022 22:50:52.946316 13293 net.cpp:163] Top shape: 128 4 1 1 (512)
I1022 22:50:52.946326 13293 layer_factory.hpp:76] Creating layer dir1_TL
I1022 22:50:52.946336 13293 net.cpp:110] Creating Layer dir1_TL
I1022 22:50:52.946341 13293 net.cpp:477] dir1_TL <- pool5/7x7_s1_pool5/drop_7x7_s1_0_split_2
I1022 22:50:52.946352 13293 net.cpp:433] dir1_TL -> dir1_TL
I1022 22:50:52.946815 13293 net.cpp:155] Setting up dir1_TL
I1022 22:50:52.946828 13293 net.cpp:163] Top shape: 128 4 1 1 (512)
I1022 22:50:52.946836 13293 layer_factory.hpp:76] Creating layer dir1_BR
I1022 22:50:52.946846 13293 net.cpp:110] Creating Layer dir1_BR
I1022 22:50:52.946852 13293 net.cpp:477] dir1_BR <- pool5/7x7_s1_pool5/drop_7x7_s1_0_split_3
I1022 22:50:52.946861 13293 net.cpp:433] dir1_BR -> dir1_BR
I1022 22:50:52.947324 13293 net.cpp:155] Setting up dir1_BR
I1022 22:50:52.947337 13293 net.cpp:163] Top shape: 128 4 1 1 (512)
I1022 22:50:52.947345 13293 layer_factory.hpp:76] Creating layer dir2_TL
I1022 22:50:52.947355 13293 net.cpp:110] Creating Layer dir2_TL
I1022 22:50:52.947360 13293 net.cpp:477] dir2_TL <- pool5/7x7_s1_pool5/drop_7x7_s1_0_split_4
I1022 22:50:52.947370 13293 net.cpp:433] dir2_TL -> dir2_TL
I1022 22:50:52.947826 13293 net.cpp:155] Setting up dir2_TL
I1022 22:50:52.947840 13293 net.cpp:163] Top shape: 128 4 1 1 (512)
I1022 22:50:52.947849 13293 layer_factory.hpp:76] Creating layer dir2_BR
I1022 22:50:52.947859 13293 net.cpp:110] Creating Layer dir2_BR
I1022 22:50:52.947865 13293 net.cpp:477] dir2_BR <- pool5/7x7_s1_pool5/drop_7x7_s1_0_split_5
I1022 22:50:52.947873 13293 net.cpp:433] dir2_BR -> dir2_BR
I1022 22:50:52.948333 13293 net.cpp:155] Setting up dir2_BR
I1022 22:50:52.948349 13293 net.cpp:163] Top shape: 128 4 1 1 (512)
I1022 22:50:52.948357 13293 layer_factory.hpp:76] Creating layer dir3_TL
I1022 22:50:52.948366 13293 net.cpp:110] Creating Layer dir3_TL
I1022 22:50:52.948372 13293 net.cpp:477] dir3_TL <- pool5/7x7_s1_pool5/drop_7x7_s1_0_split_6
I1022 22:50:52.948380 13293 net.cpp:433] dir3_TL -> dir3_TL
I1022 22:50:52.948839 13293 net.cpp:155] Setting up dir3_TL
I1022 22:50:52.948853 13293 net.cpp:163] Top shape: 128 4 1 1 (512)
I1022 22:50:52.948861 13293 layer_factory.hpp:76] Creating layer dir3_BR
I1022 22:50:52.948870 13293 net.cpp:110] Creating Layer dir3_BR
I1022 22:50:52.948875 13293 net.cpp:477] dir3_BR <- pool5/7x7_s1_pool5/drop_7x7_s1_0_split_7
I1022 22:50:52.948884 13293 net.cpp:433] dir3_BR -> dir3_BR
I1022 22:50:52.949344 13293 net.cpp:155] Setting up dir3_BR
I1022 22:50:52.949357 13293 net.cpp:163] Top shape: 128 4 1 1 (512)
I1022 22:50:52.949380 13293 layer_factory.hpp:76] Creating layer dir4_TL
I1022 22:50:52.949390 13293 net.cpp:110] Creating Layer dir4_TL
I1022 22:50:52.949395 13293 net.cpp:477] dir4_TL <- pool5/7x7_s1_pool5/drop_7x7_s1_0_split_8
I1022 22:50:52.949404 13293 net.cpp:433] dir4_TL -> dir4_TL
I1022 22:50:52.949862 13293 net.cpp:155] Setting up dir4_TL
I1022 22:50:52.949875 13293 net.cpp:163] Top shape: 128 4 1 1 (512)
I1022 22:50:52.949884 13293 layer_factory.hpp:76] Creating layer dir4_BR
I1022 22:50:52.949893 13293 net.cpp:110] Creating Layer dir4_BR
I1022 22:50:52.949899 13293 net.cpp:477] dir4_BR <- pool5/7x7_s1_pool5/drop_7x7_s1_0_split_9
I1022 22:50:52.949908 13293 net.cpp:433] dir4_BR -> dir4_BR
I1022 22:50:52.950371 13293 net.cpp:155] Setting up dir4_BR
I1022 22:50:52.950387 13293 net.cpp:163] Top shape: 128 4 1 1 (512)
I1022 22:50:52.950394 13293 layer_factory.hpp:76] Creating layer dir5_TL
I1022 22:50:52.950403 13293 net.cpp:110] Creating Layer dir5_TL
I1022 22:50:52.950409 13293 net.cpp:477] dir5_TL <- pool5/7x7_s1_pool5/drop_7x7_s1_0_split_10
I1022 22:50:52.950423 13293 net.cpp:433] dir5_TL -> dir5_TL
I1022 22:50:52.950891 13293 net.cpp:155] Setting up dir5_TL
I1022 22:50:52.950904 13293 net.cpp:163] Top shape: 128 4 1 1 (512)
I1022 22:50:52.950912 13293 layer_factory.hpp:76] Creating layer dir5_BR
I1022 22:50:52.950922 13293 net.cpp:110] Creating Layer dir5_BR
I1022 22:50:52.950927 13293 net.cpp:477] dir5_BR <- pool5/7x7_s1_pool5/drop_7x7_s1_0_split_11
I1022 22:50:52.950935 13293 net.cpp:433] dir5_BR -> dir5_BR
I1022 22:50:52.951393 13293 net.cpp:155] Setting up dir5_BR
I1022 22:50:52.951409 13293 net.cpp:163] Top shape: 128 4 1 1 (512)
I1022 22:50:52.951417 13293 layer_factory.hpp:76] Creating layer dir6_TL
I1022 22:50:52.951426 13293 net.cpp:110] Creating Layer dir6_TL
I1022 22:50:52.951432 13293 net.cpp:477] dir6_TL <- pool5/7x7_s1_pool5/drop_7x7_s1_0_split_12
I1022 22:50:52.951441 13293 net.cpp:433] dir6_TL -> dir6_TL
I1022 22:50:52.951900 13293 net.cpp:155] Setting up dir6_TL
I1022 22:50:52.951913 13293 net.cpp:163] Top shape: 128 4 1 1 (512)
I1022 22:50:52.951921 13293 layer_factory.hpp:76] Creating layer dir6_BR
I1022 22:50:52.951930 13293 net.cpp:110] Creating Layer dir6_BR
I1022 22:50:52.951936 13293 net.cpp:477] dir6_BR <- pool5/7x7_s1_pool5/drop_7x7_s1_0_split_13
I1022 22:50:52.951944 13293 net.cpp:433] dir6_BR -> dir6_BR
I1022 22:50:52.952404 13293 net.cpp:155] Setting up dir6_BR
I1022 22:50:52.952419 13293 net.cpp:163] Top shape: 128 4 1 1 (512)
I1022 22:50:52.952428 13293 layer_factory.hpp:76] Creating layer dir7_TL
I1022 22:50:52.952437 13293 net.cpp:110] Creating Layer dir7_TL
I1022 22:50:52.952443 13293 net.cpp:477] dir7_TL <- pool5/7x7_s1_pool5/drop_7x7_s1_0_split_14
I1022 22:50:52.952452 13293 net.cpp:433] dir7_TL -> dir7_TL
I1022 22:50:52.952913 13293 net.cpp:155] Setting up dir7_TL
I1022 22:50:52.952926 13293 net.cpp:163] Top shape: 128 4 1 1 (512)
I1022 22:50:52.952934 13293 layer_factory.hpp:76] Creating layer dir7_BR
I1022 22:50:52.952944 13293 net.cpp:110] Creating Layer dir7_BR
I1022 22:50:52.952950 13293 net.cpp:477] dir7_BR <- pool5/7x7_s1_pool5/drop_7x7_s1_0_split_15
I1022 22:50:52.952957 13293 net.cpp:433] dir7_BR -> dir7_BR
I1022 22:50:52.953416 13293 net.cpp:155] Setting up dir7_BR
I1022 22:50:52.953430 13293 net.cpp:163] Top shape: 128 4 1 1 (512)
I1022 22:50:52.953438 13293 layer_factory.hpp:76] Creating layer dir8_TL
I1022 22:50:52.953447 13293 net.cpp:110] Creating Layer dir8_TL
I1022 22:50:52.953454 13293 net.cpp:477] dir8_TL <- pool5/7x7_s1_pool5/drop_7x7_s1_0_split_16
I1022 22:50:52.953461 13293 net.cpp:433] dir8_TL -> dir8_TL
I1022 22:50:52.953919 13293 net.cpp:155] Setting up dir8_TL
I1022 22:50:52.953933 13293 net.cpp:163] Top shape: 128 4 1 1 (512)
I1022 22:50:52.953941 13293 layer_factory.hpp:76] Creating layer dir8_BR
I1022 22:50:52.953951 13293 net.cpp:110] Creating Layer dir8_BR
I1022 22:50:52.953956 13293 net.cpp:477] dir8_BR <- pool5/7x7_s1_pool5/drop_7x7_s1_0_split_17
I1022 22:50:52.953965 13293 net.cpp:433] dir8_BR -> dir8_BR
I1022 22:50:52.954432 13293 net.cpp:155] Setting up dir8_BR
I1022 22:50:52.954447 13293 net.cpp:163] Top shape: 128 4 1 1 (512)
I1022 22:50:52.954455 13293 layer_factory.hpp:76] Creating layer dir9_TL
I1022 22:50:52.954464 13293 net.cpp:110] Creating Layer dir9_TL
I1022 22:50:52.954470 13293 net.cpp:477] dir9_TL <- pool5/7x7_s1_pool5/drop_7x7_s1_0_split_18
I1022 22:50:52.954478 13293 net.cpp:433] dir9_TL -> dir9_TL
I1022 22:50:52.954937 13293 net.cpp:155] Setting up dir9_TL
I1022 22:50:52.954952 13293 net.cpp:163] Top shape: 128 4 1 1 (512)
I1022 22:50:52.954959 13293 layer_factory.hpp:76] Creating layer dir9_BR
I1022 22:50:52.954968 13293 net.cpp:110] Creating Layer dir9_BR
I1022 22:50:52.954974 13293 net.cpp:477] dir9_BR <- pool5/7x7_s1_pool5/drop_7x7_s1_0_split_19
I1022 22:50:52.954982 13293 net.cpp:433] dir9_BR -> dir9_BR
I1022 22:50:52.955445 13293 net.cpp:155] Setting up dir9_BR
I1022 22:50:52.955458 13293 net.cpp:163] Top shape: 128 4 1 1 (512)
I1022 22:50:52.955466 13293 layer_factory.hpp:76] Creating layer dir10_TL
I1022 22:50:52.955476 13293 net.cpp:110] Creating Layer dir10_TL
I1022 22:50:52.955485 13293 net.cpp:477] dir10_TL <- pool5/7x7_s1_pool5/drop_7x7_s1_0_split_20
I1022 22:50:52.955500 13293 net.cpp:433] dir10_TL -> dir10_TL
I1022 22:50:52.955960 13293 net.cpp:155] Setting up dir10_TL
I1022 22:50:52.955973 13293 net.cpp:163] Top shape: 128 4 1 1 (512)
I1022 22:50:52.955981 13293 layer_factory.hpp:76] Creating layer dir10_BR
I1022 22:50:52.955991 13293 net.cpp:110] Creating Layer dir10_BR
I1022 22:50:52.955996 13293 net.cpp:477] dir10_BR <- pool5/7x7_s1_pool5/drop_7x7_s1_0_split_21
I1022 22:50:52.956006 13293 net.cpp:433] dir10_BR -> dir10_BR
I1022 22:50:52.956465 13293 net.cpp:155] Setting up dir10_BR
I1022 22:50:52.956478 13293 net.cpp:163] Top shape: 128 4 1 1 (512)
I1022 22:50:52.956485 13293 layer_factory.hpp:76] Creating layer dir11_TL
I1022 22:50:52.956496 13293 net.cpp:110] Creating Layer dir11_TL
I1022 22:50:52.956501 13293 net.cpp:477] dir11_TL <- pool5/7x7_s1_pool5/drop_7x7_s1_0_split_22
I1022 22:50:52.956509 13293 net.cpp:433] dir11_TL -> dir11_TL
I1022 22:50:52.956970 13293 net.cpp:155] Setting up dir11_TL
I1022 22:50:52.956984 13293 net.cpp:163] Top shape: 128 4 1 1 (512)
I1022 22:50:52.956991 13293 layer_factory.hpp:76] Creating layer dir11_BR
I1022 22:50:52.957001 13293 net.cpp:110] Creating Layer dir11_BR
I1022 22:50:52.957006 13293 net.cpp:477] dir11_BR <- pool5/7x7_s1_pool5/drop_7x7_s1_0_split_23
I1022 22:50:52.957015 13293 net.cpp:433] dir11_BR -> dir11_BR
I1022 22:50:52.957476 13293 net.cpp:155] Setting up dir11_BR
I1022 22:50:52.957490 13293 net.cpp:163] Top shape: 128 4 1 1 (512)
I1022 22:50:52.957499 13293 layer_factory.hpp:76] Creating layer dir12_TL
I1022 22:50:52.957507 13293 net.cpp:110] Creating Layer dir12_TL
I1022 22:50:52.957514 13293 net.cpp:477] dir12_TL <- pool5/7x7_s1_pool5/drop_7x7_s1_0_split_24
I1022 22:50:52.957521 13293 net.cpp:433] dir12_TL -> dir12_TL
I1022 22:50:52.957991 13293 net.cpp:155] Setting up dir12_TL
I1022 22:50:52.958016 13293 net.cpp:163] Top shape: 128 4 1 1 (512)
I1022 22:50:52.958027 13293 layer_factory.hpp:76] Creating layer dir12_BR
I1022 22:50:52.958036 13293 net.cpp:110] Creating Layer dir12_BR
I1022 22:50:52.958042 13293 net.cpp:477] dir12_BR <- pool5/7x7_s1_pool5/drop_7x7_s1_0_split_25
I1022 22:50:52.958051 13293 net.cpp:433] dir12_BR -> dir12_BR
I1022 22:50:52.958514 13293 net.cpp:155] Setting up dir12_BR
I1022 22:50:52.958530 13293 net.cpp:163] Top shape: 128 4 1 1 (512)
I1022 22:50:52.958539 13293 layer_factory.hpp:76] Creating layer dir13_TL
I1022 22:50:52.958549 13293 net.cpp:110] Creating Layer dir13_TL
I1022 22:50:52.958554 13293 net.cpp:477] dir13_TL <- pool5/7x7_s1_pool5/drop_7x7_s1_0_split_26
I1022 22:50:52.958564 13293 net.cpp:433] dir13_TL -> dir13_TL
I1022 22:50:52.959025 13293 net.cpp:155] Setting up dir13_TL
I1022 22:50:52.959039 13293 net.cpp:163] Top shape: 128 4 1 1 (512)
I1022 22:50:52.959048 13293 layer_factory.hpp:76] Creating layer dir13_BR
I1022 22:50:52.959056 13293 net.cpp:110] Creating Layer dir13_BR
I1022 22:50:52.959063 13293 net.cpp:477] dir13_BR <- pool5/7x7_s1_pool5/drop_7x7_s1_0_split_27
I1022 22:50:52.959070 13293 net.cpp:433] dir13_BR -> dir13_BR
I1022 22:50:52.959534 13293 net.cpp:155] Setting up dir13_BR
I1022 22:50:52.959547 13293 net.cpp:163] Top shape: 128 4 1 1 (512)
I1022 22:50:52.959555 13293 layer_factory.hpp:76] Creating layer dir14_TL
I1022 22:50:52.959564 13293 net.cpp:110] Creating Layer dir14_TL
I1022 22:50:52.959570 13293 net.cpp:477] dir14_TL <- pool5/7x7_s1_pool5/drop_7x7_s1_0_split_28
I1022 22:50:52.959579 13293 net.cpp:433] dir14_TL -> dir14_TL
I1022 22:50:52.960043 13293 net.cpp:155] Setting up dir14_TL
I1022 22:50:52.960058 13293 net.cpp:163] Top shape: 128 4 1 1 (512)
I1022 22:50:52.960067 13293 layer_factory.hpp:76] Creating layer dir14_BR
I1022 22:50:52.960077 13293 net.cpp:110] Creating Layer dir14_BR
I1022 22:50:52.960083 13293 net.cpp:477] dir14_BR <- pool5/7x7_s1_pool5/drop_7x7_s1_0_split_29
I1022 22:50:52.960090 13293 net.cpp:433] dir14_BR -> dir14_BR
I1022 22:50:52.960553 13293 net.cpp:155] Setting up dir14_BR
I1022 22:50:52.960572 13293 net.cpp:163] Top shape: 128 4 1 1 (512)
I1022 22:50:52.960585 13293 layer_factory.hpp:76] Creating layer dir15_TL
I1022 22:50:52.960595 13293 net.cpp:110] Creating Layer dir15_TL
I1022 22:50:52.960602 13293 net.cpp:477] dir15_TL <- pool5/7x7_s1_pool5/drop_7x7_s1_0_split_30
I1022 22:50:52.960609 13293 net.cpp:433] dir15_TL -> dir15_TL
I1022 22:50:52.961074 13293 net.cpp:155] Setting up dir15_TL
I1022 22:50:52.961088 13293 net.cpp:163] Top shape: 128 4 1 1 (512)
I1022 22:50:52.961097 13293 layer_factory.hpp:76] Creating layer dir15_BR
I1022 22:50:52.961105 13293 net.cpp:110] Creating Layer dir15_BR
I1022 22:50:52.961112 13293 net.cpp:477] dir15_BR <- pool5/7x7_s1_pool5/drop_7x7_s1_0_split_31
I1022 22:50:52.961119 13293 net.cpp:433] dir15_BR -> dir15_BR
I1022 22:50:52.961585 13293 net.cpp:155] Setting up dir15_BR
I1022 22:50:52.961599 13293 net.cpp:163] Top shape: 128 4 1 1 (512)
I1022 22:50:52.961607 13293 layer_factory.hpp:76] Creating layer dir16_TL
I1022 22:50:52.961616 13293 net.cpp:110] Creating Layer dir16_TL
I1022 22:50:52.961622 13293 net.cpp:477] dir16_TL <- pool5/7x7_s1_pool5/drop_7x7_s1_0_split_32
I1022 22:50:52.961632 13293 net.cpp:433] dir16_TL -> dir16_TL
I1022 22:50:52.962105 13293 net.cpp:155] Setting up dir16_TL
I1022 22:50:52.962118 13293 net.cpp:163] Top shape: 128 4 1 1 (512)
I1022 22:50:52.962126 13293 layer_factory.hpp:76] Creating layer dir16_BR
I1022 22:50:52.962136 13293 net.cpp:110] Creating Layer dir16_BR
I1022 22:50:52.962141 13293 net.cpp:477] dir16_BR <- pool5/7x7_s1_pool5/drop_7x7_s1_0_split_33
I1022 22:50:52.962149 13293 net.cpp:433] dir16_BR -> dir16_BR
I1022 22:50:52.962615 13293 net.cpp:155] Setting up dir16_BR
I1022 22:50:52.962630 13293 net.cpp:163] Top shape: 128 4 1 1 (512)
I1022 22:50:52.962637 13293 layer_factory.hpp:76] Creating layer dir17_TL
I1022 22:50:52.962646 13293 net.cpp:110] Creating Layer dir17_TL
I1022 22:50:52.962651 13293 net.cpp:477] dir17_TL <- pool5/7x7_s1_pool5/drop_7x7_s1_0_split_34
I1022 22:50:52.962661 13293 net.cpp:433] dir17_TL -> dir17_TL
I1022 22:50:52.963130 13293 net.cpp:155] Setting up dir17_TL
I1022 22:50:52.963145 13293 net.cpp:163] Top shape: 128 4 1 1 (512)
I1022 22:50:52.963152 13293 layer_factory.hpp:76] Creating layer dir17_BR
I1022 22:50:52.963161 13293 net.cpp:110] Creating Layer dir17_BR
I1022 22:50:52.963166 13293 net.cpp:477] dir17_BR <- pool5/7x7_s1_pool5/drop_7x7_s1_0_split_35
I1022 22:50:52.963174 13293 net.cpp:433] dir17_BR -> dir17_BR
I1022 22:50:52.963639 13293 net.cpp:155] Setting up dir17_BR
I1022 22:50:52.963651 13293 net.cpp:163] Top shape: 128 4 1 1 (512)
I1022 22:50:52.963660 13293 layer_factory.hpp:76] Creating layer dir18_TL
I1022 22:50:52.963670 13293 net.cpp:110] Creating Layer dir18_TL
I1022 22:50:52.963675 13293 net.cpp:477] dir18_TL <- pool5/7x7_s1_pool5/drop_7x7_s1_0_split_36
I1022 22:50:52.963683 13293 net.cpp:433] dir18_TL -> dir18_TL
I1022 22:50:52.964146 13293 net.cpp:155] Setting up dir18_TL
I1022 22:50:52.964159 13293 net.cpp:163] Top shape: 128 4 1 1 (512)
I1022 22:50:52.964169 13293 layer_factory.hpp:76] Creating layer dir18_BR
I1022 22:50:52.964177 13293 net.cpp:110] Creating Layer dir18_BR
I1022 22:50:52.964184 13293 net.cpp:477] dir18_BR <- pool5/7x7_s1_pool5/drop_7x7_s1_0_split_37
I1022 22:50:52.964192 13293 net.cpp:433] dir18_BR -> dir18_BR
I1022 22:50:52.964654 13293 net.cpp:155] Setting up dir18_BR
I1022 22:50:52.964668 13293 net.cpp:163] Top shape: 128 4 1 1 (512)
I1022 22:50:52.964676 13293 layer_factory.hpp:76] Creating layer dir19_TL
I1022 22:50:52.964685 13293 net.cpp:110] Creating Layer dir19_TL
I1022 22:50:52.964691 13293 net.cpp:477] dir19_TL <- pool5/7x7_s1_pool5/drop_7x7_s1_0_split_38
I1022 22:50:52.964699 13293 net.cpp:433] dir19_TL -> dir19_TL
I1022 22:50:52.965165 13293 net.cpp:155] Setting up dir19_TL
I1022 22:50:52.965178 13293 net.cpp:163] Top shape: 128 4 1 1 (512)
I1022 22:50:52.965186 13293 layer_factory.hpp:76] Creating layer dir19_BR
I1022 22:50:52.965195 13293 net.cpp:110] Creating Layer dir19_BR
I1022 22:50:52.965200 13293 net.cpp:477] dir19_BR <- pool5/7x7_s1_pool5/drop_7x7_s1_0_split_39
I1022 22:50:52.965214 13293 net.cpp:433] dir19_BR -> dir19_BR
I1022 22:50:52.965687 13293 net.cpp:155] Setting up dir19_BR
I1022 22:50:52.965699 13293 net.cpp:163] Top shape: 128 4 1 1 (512)
I1022 22:50:52.965708 13293 layer_factory.hpp:76] Creating layer cls
I1022 22:50:52.965718 13293 net.cpp:110] Creating Layer cls
I1022 22:50:52.965723 13293 net.cpp:477] cls <- pool5/7x7_s1_pool5/drop_7x7_s1_0_split_40
I1022 22:50:52.965731 13293 net.cpp:433] cls -> cls
I1022 22:50:52.966671 13293 net.cpp:155] Setting up cls
I1022 22:50:52.966686 13293 net.cpp:163] Top shape: 128 21 1 1 (2688)
I1022 22:50:52.966694 13293 layer_factory.hpp:76] Creating layer loss0_TL
I1022 22:50:52.966703 13293 net.cpp:110] Creating Layer loss0_TL
I1022 22:50:52.966708 13293 net.cpp:477] loss0_TL <- dir0_TL
I1022 22:50:52.966714 13293 net.cpp:477] loss0_TL <- dir0_TL_label
I1022 22:50:52.966722 13293 net.cpp:433] loss0_TL -> loss0_TL
I1022 22:50:52.966742 13293 layer_factory.hpp:76] Creating layer loss0_TL
…
I1023 00:58:14.971611 13293 attention_data_layer.cpp:116] num: 3000 /data1/PASCAL/VOCdevkit/VOC2007/JPEGImages/008574.jpg 3 500 333 attention data parsing... 64
I1023 00:58:15.259068 13293 attention_data_layer.cpp:116] num: 4000 /data1/PASCAL/VOCdevkit/VOC2007/JPEGImages/002955.jpg 3 375 500 attention data parsing... 64
I1023 00:58:15.533918 13293 attention_data_layer.cpp:125] Number of images  : 4952
I1023 00:58:15.533942 13293 attention_data_layer.cpp:126] Number of windows : 479232
I1023 00:58:15.533951 13293 attention_data_layer.cpp:134] output data size: 64,3,224,224
I1023 00:58:15.534000 13293 net.cpp:155] Setting up data
I1023 00:58:15.534013 13293 net.cpp:163] Top shape: 64 3 224 224 (9633792)
I1023 00:58:15.534020 13293 net.cpp:163] Top shape: 64 (64)
I1023 00:58:15.534025 13293 net.cpp:163] Top shape: 64 (64)
I1023 00:58:15.534032 13293 net.cpp:163] Top shape: 64 (64)
I1023 00:58:15.534037 13293 net.cpp:163] Top shape: 64 (64)
I1023 00:58:15.534042 13293 net.cpp:163] Top shape: 64 (64)
I1023 00:58:15.534047 13293 net.cpp:163] Top shape: 64 (64)
I1023 00:58:15.534051 13293 net.cpp:163] Top shape: 64 (64)
I1023 00:58:15.534056 13293 net.cpp:163] Top shape: 64 (64)
I1023 00:58:15.534060 13293 net.cpp:163] Top shape: 64 (64)
I1023 00:58:15.534065 13293 net.cpp:163] Top shape: 64 (64)
I1023 00:58:15.534070 13293 net.cpp:163] Top shape: 64 (64)
I1023 00:58:15.534073 13293 net.cpp:163] Top shape: 64 (64)
I1023 00:58:15.534078 13293 net.cpp:163] Top shape: 64 (64)
I1023 00:58:15.534082 13293 net.cpp:163] Top shape: 64 (64)
I1023 00:58:15.534086 13293 net.cpp:163] Top shape: 64 (64)
I1023 00:58:15.534091 13293 net.cpp:163] Top shape: 64 (64)
I1023 00:58:15.534096 13293 net.cpp:163] Top shape: 64 (64)
I1023 00:58:15.534101 13293 net.cpp:163] Top shape: 64 (64)
I1023 00:58:15.534104 13293 net.cpp:163] Top shape: 64 (64)
I1023 00:58:15.534109 13293 net.cpp:163] Top shape: 64 (64)
I1023 00:58:15.534113 13293 net.cpp:163] Top shape: 64 (64)
I1023 00:58:15.534117 13293 net.cpp:163] Top shape: 64 (64)
I1023 00:58:15.534121 13293 net.cpp:163] Top shape: 64 (64)
I1023 00:58:15.534126 13293 net.cpp:163] Top shape: 64 (64)
I1023 00:58:15.534131 13293 net.cpp:163] Top shape: 64 (64)
I1023 00:58:15.534134 13293 net.cpp:163] Top shape: 64 (64)
I1023 00:58:15.534138 13293 net.cpp:163] Top shape: 64 (64)
I1023 00:58:15.534142 13293 net.cpp:163] Top shape: 64 (64)
I1023 00:58:15.534147 13293 net.cpp:163] Top shape: 64 (64)
I1023 00:58:15.534152 13293 net.cpp:163] Top shape: 64 (64)
I1023 00:58:15.534169 13293 net.cpp:163] Top shape: 64 (64)
I1023 00:58:15.534174 13293 net.cpp:163] Top shape: 64 (64)
I1023 00:58:15.534178 13293 net.cpp:163] Top shape: 64 (64)
I1023 00:58:15.534183 13293 net.cpp:163] Top shape: 64 (64)
I1023 00:58:15.534186 13293 net.cpp:163] Top shape: 64 (64)
I1023 00:58:15.534191 13293 net.cpp:163] Top shape: 64 (64)
I1023 00:58:15.534195 13293 net.cpp:163] Top shape: 64 (64)
I1023 00:58:15.534199 13293 net.cpp:163] Top shape: 64 (64)
I1023 00:58:15.534204 13293 net.cpp:163] Top shape: 64 (64)
I1023 00:58:15.534209 13293 net.cpp:163] Top shape: 64 (64)
I1023 00:58:15.534212 13293 net.cpp:163] Top shape: 64 (64)
I1023 00:58:15.534219 13293 layer_factory.hpp:76] Creating layer dir0_TL_label_data_1_split
I1023 00:58:15.534231 13293 net.cpp:110] Creating Layer dir0_TL_label_data_1_split
I1023 00:58:15.534239 13293 net.cpp:477] dir0_TL_label_data_1_split <- dir0_TL_label
I1023 00:58:15.534247 13293 net.cpp:433] dir0_TL_label_data_1_split -> dir0_TL_label_data_1_split_0
I1023 00:58:15.534257 13293 net.cpp:433] dir0_TL_label_data_1_split -> dir0_TL_label_data_1_split_1
I1023 00:58:15.534267 13293 net.cpp:155] Setting up dir0_TL_label_data_1_split
I1023 00:58:15.534272 13293 net.cpp:163] Top shape: 64 (64)
I1023 00:58:15.534277 13293 net.cpp:163] Top shape: 64 (64)
I1023 00:58:15.534281 13293 layer_factory.hpp:76] Creating layer dir0_BR_label_data_2_split
I1023 00:58:15.534289 13293 net.cpp:110] Creating Layer dir0_BR_label_data_2_split
I1023 00:58:15.534293 13293 net.cpp:477] dir0_BR_label_data_2_split <- dir0_BR_label
I1023 00:58:15.534301 13293 net.cpp:433] dir0_BR_label_data_2_split -> dir0_BR_label_data_2_split_0
I1023 00:58:15.534312 13293 net.cpp:433] dir0_BR_label_data_2_split -> dir0_BR_label_data_2_split_1
I1023 00:58:15.534320 13293 net.cpp:155] Setting up dir0_BR_label_data_2_split
I1023 00:58:15.534325 13293 net.cpp:163] Top shape: 64 (64)
I1023 00:58:15.534330 13293 net.cpp:163] Top shape: 64 (64)
I1023 00:58:15.534334 13293 layer_factory.hpp:76] Creating layer dir1_TL_label_data_3_split
I1023 00:58:15.534340 13293 net.cpp:110] Creating Layer dir1_TL_label_data_3_split
I1023 00:58:15.534345 13293 net.cpp:477] dir1_TL_label_data_3_split <- dir1_TL_label
I1023 00:58:15.534353 13293 net.cpp:433] dir1_TL_label_data_3_split -> dir1_TL_label_data_3_split_0
I1023 00:58:15.534359 13293 net.cpp:433] dir1_TL_label_data_3_split -> dir1_TL_label_data_3_split_1
I1023 00:58:15.534368 13293 net.cpp:155] Setting up dir1_TL_label_data_3_split
I1023 00:58:15.534373 13293 net.cpp:163] Top shape: 64 (64)
I1023 00:58:15.534376 13293 net.cpp:163] Top shape: 64 (64)
I1023 00:58:15.534381 13293 layer_factory.hpp:76] Creating layer dir1_BR_label_data_4_split
I1023 00:58:15.534387 13293 net.cpp:110] Creating Layer dir1_BR_label_data_4_split
I1023 00:58:15.534392 13293 net.cpp:477] dir1_BR_label_data_4_split <- dir1_BR_label
I1023 00:58:15.534399 13293 net.cpp:433] dir1_BR_label_data_4_split -> dir1_BR_label_data_4_split_0
I1023 00:58:15.534406 13293 net.cpp:433] dir1_BR_label_data_4_split -> dir1_BR_label_data_4_split_1
I1023 00:58:15.534414 13293 net.cpp:155] Setting up dir1_BR_label_data_4_split
I1023 00:58:15.534418 13293 net.cpp:163] Top shape: 64 (64)
I1023 00:58:15.534423 13293 net.cpp:163] Top shape: 64 (64)
I1023 00:58:15.534427 13293 layer_factory.hpp:76] Creating layer dir2_TL_label_data_5_split
I1023 00:58:15.534433 13293 net.cpp:110] Creating Layer dir2_TL_label_data_5_split
I1023 00:58:15.534437 13293 net.cpp:477] dir2_TL_label_data_5_split <- dir2_TL_label
I1023 00:58:15.534445 13293 net.cpp:433] dir2_TL_label_data_5_split -> dir2_TL_label_data_5_split_0
I1023 00:58:15.534451 13293 net.cpp:433] dir2_TL_label_data_5_split -> dir2_TL_label_data_5_split_1
I1023 00:58:15.534458 13293 net.cpp:155] Setting up dir2_TL_label_data_5_split
I1023 00:58:15.534463 13293 net.cpp:163] Top shape: 64 (64)
I1023 00:58:15.534468 13293 net.cpp:163] Top shape: 64 (64)
I1023 00:58:15.534472 13293 layer_factory.hpp:76] Creating layer dir2_BR_label_data_6_split
I1023 00:58:15.534478 13293 net.cpp:110] Creating Layer dir2_BR_label_data_6_split
I1023 00:58:15.534487 13293 net.cpp:477] dir2_BR_label_data_6_split <- dir2_BR_label
I1023 00:58:15.534494 13293 net.cpp:433] dir2_BR_label_data_6_split -> dir2_BR_label_data_6_split_0
I1023 00:58:15.534502 13293 net.cpp:433] dir2_BR_label_data_6_split -> dir2_BR_label_data_6_split_1
I1023 00:58:15.534509 13293 net.cpp:155] Setting up dir2_BR_label_data_6_split
I1023 00:58:15.534514 13293 net.cpp:163] Top shape: 64 (64)
I1023 00:58:15.534518 13293 net.cpp:163] Top shape: 64 (64)
I1023 00:58:15.534523 13293 layer_factory.hpp:76] Creating layer dir3_TL_label_data_7_split
I1023 00:58:15.534529 13293 net.cpp:110] Creating Layer dir3_TL_label_data_7_split
I1023 00:58:15.534533 13293 net.cpp:477] dir3_TL_label_data_7_split <- dir3_TL_label
I1023 00:58:15.534540 13293 net.cpp:433] dir3_TL_label_data_7_split -> dir3_TL_label_data_7_split_0
I1023 00:58:15.534548 13293 net.cpp:433] dir3_TL_label_data_7_split -> dir3_TL_label_data_7_split_1
I1023 00:58:15.534554 13293 net.cpp:155] Setting up dir3_TL_label_data_7_split
I1023 00:58:15.534559 13293 net.cpp:163] Top shape: 64 (64)
I1023 00:58:15.534564 13293 net.cpp:163] Top shape: 64 (64)
I1023 00:58:15.534569 13293 layer_factory.hpp:76] Creating layer dir3_BR_label_data_8_split
I1023 00:58:15.534575 13293 net.cpp:110] Creating Layer dir3_BR_label_data_8_split
I1023 00:58:15.534579 13293 net.cpp:477] dir3_BR_label_data_8_split <- dir3_BR_label
I1023 00:58:15.534586 13293 net.cpp:433] dir3_BR_label_data_8_split -> dir3_BR_label_data_8_split_0
I1023 00:58:15.534593 13293 net.cpp:433] dir3_BR_label_data_8_split -> dir3_BR_label_data_8_split_1
I1023 00:58:15.534603 13293 net.cpp:155] Setting up dir3_BR_label_data_8_split
I1023 00:58:15.534610 13293 net.cpp:163] Top shape: 64 (64)
I1023 00:58:15.534613 13293 net.cpp:163] Top shape: 64 (64)
I1023 00:58:15.534618 13293 layer_factory.hpp:76] Creating layer dir4_TL_label_data_9_split
I1023 00:58:15.534625 13293 net.cpp:110] Creating Layer dir4_TL_label_data_9_split
I1023 00:58:15.534629 13293 net.cpp:477] dir4_TL_label_data_9_split <- dir4_TL_label
I1023 00:58:15.534636 13293 net.cpp:433] dir4_TL_label_data_9_split -> dir4_TL_label_data_9_split_0
I1023 00:58:15.534642 13293 net.cpp:433] dir4_TL_label_data_9_split -> dir4_TL_label_data_9_split_1
I1023 00:58:15.534649 13293 net.cpp:155] Setting up dir4_TL_label_data_9_split
I1023 00:58:15.534654 13293 net.cpp:163] Top shape: 64 (64)
I1023 00:58:15.534659 13293 net.cpp:163] Top shape: 64 (64)
I1023 00:58:15.534663 13293 layer_factory.hpp:76] Creating layer dir4_BR_label_data_10_split
I1023 00:58:15.534669 13293 net.cpp:110] Creating Layer dir4_BR_label_data_10_split
I1023 00:58:15.534673 13293 net.cpp:477] dir4_BR_label_data_10_split <- dir4_BR_label
I1023 00:58:15.534679 13293 net.cpp:433] dir4_BR_label_data_10_split -> dir4_BR_label_data_10_split_0
I1023 00:58:15.534687 13293 net.cpp:433] dir4_BR_label_data_10_split -> dir4_BR_label_data_10_split_1
I1023 00:58:15.534693 13293 net.cpp:155] Setting up dir4_BR_label_data_10_split
I1023 00:58:15.534698 13293 net.cpp:163] Top shape: 64 (64)
I1023 00:58:15.534703 13293 net.cpp:163] Top shape: 64 (64)
I1023 00:58:15.534708 13293 layer_factory.hpp:76] Creating layer dir5_TL_label_data_11_split
I1023 00:58:15.534714 13293 net.cpp:110] Creating Layer dir5_TL_label_data_11_split
I1023 00:58:15.534718 13293 net.cpp:477] dir5_TL_label_data_11_split <- dir5_TL_label
I1023 00:58:15.534724 13293 net.cpp:433] dir5_TL_label_data_11_split -> dir5_TL_label_data_11_split_0
I1023 00:58:15.534731 13293 net.cpp:433] dir5_TL_label_data_11_split -> dir5_TL_label_data_11_split_1
I1023 00:58:15.534739 13293 net.cpp:155] Setting up dir5_TL_label_data_11_split
I1023 00:58:15.534744 13293 net.cpp:163] Top shape: 64 (64)
I1023 00:58:15.534749 13293 net.cpp:163] Top shape: 64 (64)
I1023 00:58:15.534752 13293 layer_factory.hpp:76] Creating layer dir5_BR_label_data_12_split
I1023 00:58:15.534759 13293 net.cpp:110] Creating Layer dir5_BR_label_data_12_split
I1023 00:58:15.534762 13293 net.cpp:477] dir5_BR_label_data_12_split <- dir5_BR_label
I1023 00:58:15.534773 13293 net.cpp:433] dir5_BR_label_data_12_split -> dir5_BR_label_data_12_split_0
I1023 00:58:15.534785 13293 net.cpp:433] dir5_BR_label_data_12_split -> dir5_BR_label_data_12_split_1
I1023 00:58:15.534793 13293 net.cpp:155] Setting up dir5_BR_label_data_12_split
I1023 00:58:15.534800 13293 net.cpp:163] Top shape: 64 (64)
I1023 00:58:15.534803 13293 net.cpp:163] Top shape: 64 (64)
I1023 00:58:15.534807 13293 layer_factory.hpp:76] Creating layer dir6_TL_label_data_13_split
I1023 00:58:15.534813 13293 net.cpp:110] Creating Layer dir6_TL_label_data_13_split
I1023 00:58:15.534818 13293 net.cpp:477] dir6_TL_label_data_13_split <- dir6_TL_label
I1023 00:58:15.534824 13293 net.cpp:433] dir6_TL_label_data_13_split -> dir6_TL_label_data_13_split_0
I1023 00:58:15.534832 13293 net.cpp:433] dir6_TL_label_data_13_split -> dir6_TL_label_data_13_split_1
I1023 00:58:15.534838 13293 net.cpp:155] Setting up dir6_TL_label_data_13_split
I1023 00:58:15.534843 13293 net.cpp:163] Top shape: 64 (64)
I1023 00:58:15.534847 13293 net.cpp:163] Top shape: 64 (64)
I1023 00:58:15.534852 13293 layer_factory.hpp:76] Creating layer dir6_BR_label_data_14_split
I1023 00:58:15.534858 13293 net.cpp:110] Creating Layer dir6_BR_label_data_14_split
I1023 00:58:15.534862 13293 net.cpp:477] dir6_BR_label_data_14_split <- dir6_BR_label
I1023 00:58:15.534868 13293 net.cpp:433] dir6_BR_label_data_14_split -> dir6_BR_label_data_14_split_0
I1023 00:58:15.534875 13293 net.cpp:433] dir6_BR_label_data_14_split -> dir6_BR_label_data_14_split_1
I1023 00:58:15.534883 13293 net.cpp:155] Setting up dir6_BR_label_data_14_split
I1023 00:58:15.534891 13293 net.cpp:163] Top shape: 64 (64)
I1023 00:58:15.534896 13293 net.cpp:163] Top shape: 64 (64)
I1023 00:58:15.534900 13293 layer_factory.hpp:76] Creating layer dir7_TL_label_data_15_split
I1023 00:58:15.534906 13293 net.cpp:110] Creating Layer dir7_TL_label_data_15_split
…
I1023 00:58:15.614691 13293 net.cpp:155] Setting up inception_5b/relu_pool_proj
I1023 00:58:15.614708 13293 net.cpp:163] Top shape: 64 128 7 7 (401408)
I1023 00:58:15.614720 13293 layer_factory.hpp:76] Creating layer inception_5b/output
I1023 00:58:15.614734 13293 net.cpp:110] Creating Layer inception_5b/output
I1023 00:58:15.614745 13293 net.cpp:477] inception_5b/output <- inception_5b/1x1
I1023 00:58:15.614759 13293 net.cpp:477] inception_5b/output <- inception_5b/3x3
I1023 00:58:15.614771 13293 net.cpp:477] inception_5b/output <- inception_5b/5x5
I1023 00:58:15.614784 13293 net.cpp:477] inception_5b/output <- inception_5b/pool_proj
I1023 00:58:15.614797 13293 net.cpp:433] inception_5b/output -> inception_5b/output
I1023 00:58:15.614817 13293 net.cpp:155] Setting up inception_5b/output
I1023 00:58:15.614830 13293 net.cpp:163] Top shape: 64 1024 7 7 (3211264)
I1023 00:58:15.614840 13293 layer_factory.hpp:76] Creating layer pool5/7x7_s1
I1023 00:58:15.614855 13293 net.cpp:110] Creating Layer pool5/7x7_s1
I1023 00:58:15.614866 13293 net.cpp:477] pool5/7x7_s1 <- inception_5b/output
I1023 00:58:15.614881 13293 net.cpp:433] pool5/7x7_s1 -> pool5/7x7_s1
I1023 00:58:15.615017 13293 net.cpp:155] Setting up pool5/7x7_s1
I1023 00:58:15.615034 13293 net.cpp:163] Top shape: 64 1024 1 1 (65536)
I1023 00:58:15.615046 13293 layer_factory.hpp:76] Creating layer pool5/drop_7x7_s1
I1023 00:58:15.615058 13293 net.cpp:110] Creating Layer pool5/drop_7x7_s1
I1023 00:58:15.615069 13293 net.cpp:477] pool5/drop_7x7_s1 <- pool5/7x7_s1
I1023 00:58:15.615082 13293 net.cpp:419] pool5/drop_7x7_s1 -> pool5/7x7_s1 (in-place)
I1023 00:58:15.615115 13293 net.cpp:155] Setting up pool5/drop_7x7_s1
I1023 00:58:15.615129 13293 net.cpp:163] Top shape: 64 1024 1 1 (65536)
I1023 00:58:15.615139 13293 layer_factory.hpp:76] Creating layer pool5/7x7_s1_pool5/drop_7x7_s1_0_split
I1023 00:58:15.615160 13293 net.cpp:110] Creating Layer pool5/7x7_s1_pool5/drop_7x7_s1_0_split
I1023 00:58:15.615170 13293 net.cpp:477] pool5/7x7_s1_pool5/drop_7x7_s1_0_split <- pool5/7x7_s1
I1023 00:58:15.615188 13293 net.cpp:433] pool5/7x7_s1_pool5/drop_7x7_s1_0_split -> pool5/7x7_s1_pool5/drop_7x7_s1_0_split_0
…
I1023 00:58:15.616122 13293 net.cpp:433] pool5/7x7_s1_pool5/drop_7x7_s1_0_split -> pool5/7x7_s1_pool5/drop_7x7_s1_0_split_37
I1023 00:58:15.616144 13293 net.cpp:433] pool5/7x7_s1_pool5/drop_7x7_s1_0_split -> pool5/7x7_s1_pool5/drop_7x7_s1_0_split_38
I1023 00:58:15.616168 13293 net.cpp:433] pool5/7x7_s1_pool5/drop_7x7_s1_0_split -> pool5/7x7_s1_pool5/drop_7x7_s1_0_split_39
I1023 00:58:15.616190 13293 net.cpp:433] pool5/7x7_s1_pool5/drop_7x7_s1_0_split -> pool5/7x7_s1_pool5/drop_7x7_s1_0_split_40
I1023 00:58:15.616245 13293 net.cpp:155] Setting up pool5/7x7_s1_pool5/drop_7x7_s1_0_split
I1023 00:58:15.616258 13293 net.cpp:163] Top shape: 64 1024 1 1 (65536)
I1023 00:58:15.616276 13293 net.cpp:163] Top shape: 64 1024 1 1 (65536)
I1023 00:58:15.616287 13293 net.cpp:163] Top shape: 64 1024 1 1 (65536)
I1023 00:58:15.616298 13293 net.cpp:163] Top shape: 64 1024 1 1 (65536)
I1023 00:58:15.616308 13293 net.cpp:163] Top shape: 64 1024 1 1 (65536)
I1023 00:58:15.616319 13293 net.cpp:163] Top shape: 64 1024 1 1 (65536)
I1023 00:58:15.616330 13293 net.cpp:163] Top shape: 64 1024 1 1 (65536)
I1023 00:58:15.616341 13293 net.cpp:163] Top shape: 64 1024 1 1 (65536)
I1023 00:58:15.616353 13293 net.cpp:163] Top shape: 64 1024 1 1 (65536)
I1023 00:58:15.616363 13293 net.cpp:163] Top shape: 64 1024 1 1 (65536)
I1023 00:58:15.616374 13293 net.cpp:163] Top shape: 64 1024 1 1 (65536)
I1023 00:58:15.616384 13293 net.cpp:163] Top shape: 64 1024 1 1 (65536)
I1023 00:58:15.616395 13293 net.cpp:163] Top shape: 64 1024 1 1 (65536)
I1023 00:58:15.616405 13293 net.cpp:163] Top shape: 64 1024 1 1 (65536)
I1023 00:58:15.616416 13293 net.cpp:163] Top shape: 64 1024 1 1 (65536)
I1023 00:58:15.616427 13293 net.cpp:163] Top shape: 64 1024 1 1 (65536)
I1023 00:58:15.616439 13293 net.cpp:163] Top shape: 64 1024 1 1 (65536)
I1023 00:58:15.616451 13293 net.cpp:163] Top shape: 64 1024 1 1 (65536)
I1023 00:58:15.616461 13293 net.cpp:163] Top shape: 64 1024 1 1 (65536)
I1023 00:58:15.616472 13293 net.cpp:163] Top shape: 64 1024 1 1 (65536)
I1023 00:58:15.616483 13293 net.cpp:163] Top shape: 64 1024 1 1 (65536)
I1023 00:58:15.616494 13293 net.cpp:163] Top shape: 64 1024 1 1 (65536)
I1023 00:58:15.616504 13293 net.cpp:163] Top shape: 64 1024 1 1 (65536)
I1023 00:58:15.616515 13293 net.cpp:163] Top shape: 64 1024 1 1 (65536)
I1023 00:58:15.616526 13293 net.cpp:163] Top shape: 64 1024 1 1 (65536)
I1023 00:58:15.616536 13293 net.cpp:163] Top shape: 64 1024 1 1 (65536)
I1023 00:58:15.616547 13293 net.cpp:163] Top shape: 64 1024 1 1 (65536)
I1023 00:58:15.616559 13293 net.cpp:163] Top shape: 64 1024 1 1 (65536)
I1023 00:58:15.616569 13293 net.cpp:163] Top shape: 64 1024 1 1 (65536)
I1023 00:58:15.616580 13293 net.cpp:163] Top shape: 64 1024 1 1 (65536)
I1023 00:58:15.616590 13293 net.cpp:163] Top shape: 64 1024 1 1 (65536)
I1023 00:58:15.616601 13293 net.cpp:163] Top shape: 64 1024 1 1 (65536)
I1023 00:58:15.616611 13293 net.cpp:163] Top shape: 64 1024 1 1 (65536)
I1023 00:58:15.616622 13293 net.cpp:163] Top shape: 64 1024 1 1 (65536)
I1023 00:58:15.616633 13293 net.cpp:163] Top shape: 64 1024 1 1 (65536)
I1023 00:58:15.616652 13293 net.cpp:163] Top shape: 64 1024 1 1 (65536)
I1023 00:58:15.616664 13293 net.cpp:163] Top shape: 64 1024 1 1 (65536)
I1023 00:58:15.616674 13293 net.cpp:163] Top shape: 64 1024 1 1 (65536)
I1023 00:58:15.616685 13293 net.cpp:163] Top shape: 64 1024 1 1 (65536)
I1023 00:58:15.616696 13293 net.cpp:163] Top shape: 64 1024 1 1 (65536)
I1023 00:58:15.616706 13293 net.cpp:163] Top shape: 64 1024 1 1 (65536)
I1023 00:58:15.616716 13293 layer_factory.hpp:76] Creating layer dir0_TL
I1023 00:58:15.616735 13293 net.cpp:110] Creating Layer dir0_TL
I1023 00:58:15.616746 13293 net.cpp:477] dir0_TL <- pool5/7x7_s1_pool5/drop_7x7_s1_0_split_0
I1023 00:58:15.616765 13293 net.cpp:433] dir0_TL -> dir0_TL
I1023 00:58:15.618412 13293 net.cpp:155] Setting up dir0_TL
I1023 00:58:15.618444 13293 net.cpp:163] Top shape: 64 4 1 1 (256)
I1023 00:58:15.618464 13293 layer_factory.hpp:76] Creating layer dir0_TL_dir0_TL_0_split
I1023 00:58:15.618479 13293 net.cpp:110] Creating Layer dir0_TL_dir0_TL_0_split
I1023 00:58:15.618491 13293 net.cpp:477] dir0_TL_dir0_TL_0_split <- dir0_TL
I1023 00:58:15.618508 13293 net.cpp:433] dir0_TL_dir0_TL_0_split -> dir0_TL_dir0_TL_0_split_0
I1023 00:58:15.618528 13293 net.cpp:433] dir0_TL_dir0_TL_0_split -> dir0_TL_dir0_TL_0_split_1
I1023 00:58:15.618546 13293 net.cpp:155] Setting up dir0_TL_dir0_TL_0_split
I1023 00:58:15.618559 13293 net.cpp:163] Top shape: 64 4 1 1 (256)
I1023 00:58:15.618571 13293 net.cpp:163] Top shape: 64 4 1 1 (256)
I1023 00:58:15.618580 13293 layer_factory.hpp:76] Creating layer dir0_BR
I1023 00:58:15.618597 13293 net.cpp:110] Creating Layer dir0_BR
I1023 00:58:15.618618 13293 net.cpp:477] dir0_BR <- pool5/7x7_s1_pool5/drop_7x7_s1_0_split_1
I1023 00:58:15.618636 13293 net.cpp:433] dir0_BR -> dir0_BR
I1023 00:58:15.620275 13293 net.cpp:155] Setting up dir0_BR
I1023 00:58:15.620306 13293 net.cpp:163] Top shape: 64 4 1 1 (256)
I1023 00:58:15.620324 13293 layer_factory.hpp:76] Creating layer dir0_BR_dir0_BR_0_split
I1023 00:58:15.620340 13293 net.cpp:110] Creating Layer dir0_BR_dir0_BR_0_split
I1023 00:58:15.620352 13293 net.cpp:477] dir0_BR_dir0_BR_0_split <- dir0_BR
I1023 00:58:15.620368 13293 net.cpp:433] dir0_BR_dir0_BR_0_split -> dir0_BR_dir0_BR_0_split_0
I1023 00:58:15.620388 13293 net.cpp:433] dir0_BR_dir0_BR_0_split -> dir0_BR_dir0_BR_0_split_1
I1023 00:58:15.620406 13293 net.cpp:155] Setting up dir0_BR_dir0_BR_0_split
I1023 00:58:15.620419 13293 net.cpp:163] Top shape: 64 4 1 1 (256)
I1023 00:58:15.620430 13293 net.cpp:163] Top shape: 64 4 1 1 (256)
I1023 00:58:15.620440 13293 layer_factory.hpp:76] Creating layer dir1_TL
I1023 00:58:15.620457 13293 net.cpp:110] Creating Layer dir1_TL
I1023 00:58:15.620470 13293 net.cpp:477] dir1_TL <- pool5/7x7_s1_pool5/drop_7x7_s1_0_split_2
I1023 00:58:15.620486 13293 net.cpp:433] dir1_TL -> dir1_TL
I1023 00:58:15.622066 13293 net.cpp:155] Setting up dir1_TL
I1023 00:58:15.622097 13293 net.cpp:163] Top shape: 64 4 1 1 (256)
I1023 00:58:15.622114 13293 layer_factory.hpp:76] Creating layer dir1_TL_dir1_TL_0_split
I1023 00:58:15.622129 13293 net.cpp:110] Creating Layer dir1_TL_dir1_TL_0_split
I1023 00:58:15.622143 13293 net.cpp:477] dir1_TL_dir1_TL_0_split <- dir1_TL
I1023 00:58:15.622159 13293 net.cpp:433] dir1_TL_dir1_TL_0_split -> dir1_TL_dir1_TL_0_split_0
I1023 00:58:15.622179 13293 net.cpp:433] dir1_TL_dir1_TL_0_split -> dir1_TL_dir1_TL_0_split_1
I1023 00:58:15.622196 13293 net.cpp:155] Setting up dir1_TL_dir1_TL_0_split
I1023 00:58:15.622210 13293 net.cpp:163] Top shape: 64 4 1 1 (256)
I1023 00:58:15.622220 13293 net.cpp:163] Top shape: 64 4 1 1 (256)
I1023 00:58:15.622230 13293 layer_factory.hpp:76] Creating layer dir1_BR
I1023 00:58:15.622246 13293 net.cpp:110] Creating Layer dir1_BR
I1023 00:58:15.622258 13293 net.cpp:477] dir1_BR <- pool5/7x7_s1_pool5/drop_7x7_s1_0_split_3
I1023 00:58:15.622274 13293 net.cpp:433] dir1_BR -> dir1_BR
I1023 00:58:15.623885 13293 net.cpp:155] Setting up dir1_BR
I1023 00:58:15.623915 13293 net.cpp:163] Top shape: 64 4 1 1 (256)
I1023 00:58:15.623934 13293 layer_factory.hpp:76] Creating layer dir1_BR_dir1_BR_0_split
I1023 00:58:15.623966 13293 net.cpp:110] Creating Layer dir1_BR_dir1_BR_0_split
I1023 00:58:15.623980 13293 net.cpp:477] dir1_BR_dir1_BR_0_split <- dir1_BR
I1023 00:58:15.623996 13293 net.cpp:433] dir1_BR_dir1_BR_0_split -> dir1_BR_dir1_BR_0_split_0
I1023 00:58:15.624016 13293 net.cpp:433] dir1_BR_dir1_BR_0_split -> dir1_BR_dir1_BR_0_split_1
I1023 00:58:15.624033 13293 net.cpp:155] Setting up dir1_BR_dir1_BR_0_split
I1023 00:58:15.624045 13293 net.cpp:163] Top shape: 64 4 1 1 (256)
I1023 00:58:15.624058 13293 net.cpp:163] Top shape: 64 4 1 1 (256)
I1023 00:58:15.624066 13293 layer_factory.hpp:76] Creating layer dir2_TL
I1023 00:58:15.624083 13293 net.cpp:110] Creating Layer dir2_TL
I1023 00:58:15.624095 13293 net.cpp:477] dir2_TL <- pool5/7x7_s1_pool5/drop_7x7_s1_0_split_4
I1023 00:58:15.624112 13293 net.cpp:433] dir2_TL -> dir2_TL
I1023 00:58:15.625692 13293 net.cpp:155] Setting up dir2_TL
I1023 00:58:15.625722 13293 net.cpp:163] Top shape: 64 4 1 1 (256)
I1023 00:58:15.625741 13293 layer_factory.hpp:76] Creating layer dir2_TL_dir2_TL_0_split
I1023 00:58:15.625756 13293 net.cpp:110] Creating Layer dir2_TL_dir2_TL_0_split
I1023 00:58:15.625768 13293 net.cpp:477] dir2_TL_dir2_TL_0_split <- dir2_TL
I1023 00:58:15.625784 13293 net.cpp:433] dir2_TL_dir2_TL_0_split -> dir2_TL_dir2_TL_0_split_0
I1023 00:58:15.625804 13293 net.cpp:433] dir2_TL_dir2_TL_0_split -> dir2_TL_dir2_TL_0_split_1
I1023 00:58:15.625823 13293 net.cpp:155] Setting up dir2_TL_dir2_TL_0_split
I1023 00:58:15.625834 13293 net.cpp:163] Top shape: 64 4 1 1 (256)
I1023 00:58:15.625845 13293 net.cpp:163] Top shape: 64 4 1 1 (256)
I1023 00:58:15.625864 13293 layer_factory.hpp:76] Creating layer dir2_BR
I1023 00:58:15.625883 13293 net.cpp:110] Creating Layer dir2_BR
I1023 00:58:15.625896 13293 net.cpp:477] dir2_BR <- pool5/7x7_s1_pool5/drop_7x7_s1_0_split_5
I1023 00:58:15.625913 13293 net.cpp:433] dir2_BR -> dir2_BR
I1023 00:58:15.627478 13293 net.cpp:155] Setting up dir2_BR
I1023 00:58:15.627508 13293 net.cpp:163] Top shape: 64 4 1 1 (256)
I1023 00:58:15.627526 13293 layer_factory.hpp:76] Creating layer dir2_BR_dir2_BR_0_split
I1023 00:58:15.627542 13293 net.cpp:110] Creating Layer dir2_BR_dir2_BR_0_split
I1023 00:58:15.627552 13293 net.cpp:477] dir2_BR_dir2_BR_0_split <- dir2_BR
I1023 00:58:15.627568 13293 net.cpp:433] dir2_BR_dir2_BR_0_split -> dir2_BR_dir2_BR_0_split_0
I1023 00:58:15.627585 13293 net.cpp:433] dir2_BR_dir2_BR_0_split -> dir2_BR_dir2_BR_0_split_1
I1023 00:58:15.627602 13293 net.cpp:155] Setting up dir2_BR_dir2_BR_0_split
I1023 00:58:15.627614 13293 net.cpp:163] Top shape: 64 4 1 1 (256)
I1023 00:58:15.627624 13293 net.cpp:163] Top shape: 64 4 1 1 (256)
I1023 00:58:15.627634 13293 layer_factory.hpp:76] Creating layer dir3_TL
I1023 00:58:15.627650 13293 net.cpp:110] Creating Layer dir3_TL
I1023 00:58:15.627660 13293 net.cpp:477] dir3_TL <- pool5/7x7_s1_pool5/drop_7x7_s1_0_split_6
I1023 00:58:15.627676 13293 net.cpp:433] dir3_TL -> dir3_TL
I1023 00:58:15.629153 13293 net.cpp:155] Setting up dir3_TL
I1023 00:58:15.629180 13293 net.cpp:163] Top shape: 64 4 1 1 (256)
I1023 00:58:15.629197 13293 layer_factory.hpp:76] Creating layer dir3_TL_dir3_TL_0_split
I1023 00:58:15.629212 13293 net.cpp:110] Creating Layer dir3_TL_dir3_TL_0_split
I1023 00:58:15.629223 13293 net.cpp:477] dir3_TL_dir3_TL_0_split <- dir3_TL
I1023 00:58:15.629240 13293 net.cpp:433] dir3_TL_dir3_TL_0_split -> dir3_TL_dir3_TL_0_split_0
I1023 00:58:15.629258 13293 net.cpp:433] dir3_TL_dir3_TL_0_split -> dir3_TL_dir3_TL_0_split_1
I1023 00:58:15.629276 13293 net.cpp:155] Setting up dir3_TL_dir3_TL_0_split
I1023 00:58:15.629287 13293 net.cpp:163] Top shape: 64 4 1 1 (256)
I1023 00:58:15.629297 13293 net.cpp:163] Top shape: 64 4 1 1 (256)
I1023 00:58:15.629307 13293 layer_factory.hpp:76] Creating layer dir3_BR
I1023 00:58:15.629330 13293 net.cpp:110] Creating Layer dir3_BR
I1023 00:58:15.629343 13293 net.cpp:477] dir3_BR <- pool5/7x7_s1_pool5/drop_7x7_s1_0_split_7
I1023 00:58:15.629358 13293 net.cpp:433] dir3_BR -> dir3_BR
I1023 00:58:15.630863 13293 net.cpp:155] Setting up dir3_BR
I1023 00:58:15.630909 13293 net.cpp:163] Top shape: 64 4 1 1 (256)
I1023 00:58:15.630954 13293 layer_factory.hpp:76] Creating layer dir3_BR_dir3_BR_0_split
I1023 00:58:15.630970 13293 net.cpp:110] Creating Layer dir3_BR_dir3_BR_0_split
I1023 00:58:15.630981 13293 net.cpp:477] dir3_BR_dir3_BR_0_split <- dir3_BR
I1023 00:58:15.630996 13293 net.cpp:433] dir3_BR_dir3_BR_0_split -> dir3_BR_dir3_BR_0_split_0
I1023 00:58:15.631014 13293 net.cpp:433] dir3_BR_dir3_BR_0_split -> dir3_BR_dir3_BR_0_split_1
I1023 00:58:15.631031 13293 net.cpp:155] Setting up dir3_BR_dir3_BR_0_split
I1023 00:58:15.631042 13293 net.cpp:163] Top shape: 64 4 1 1 (256)
I1023 00:58:15.631053 13293 net.cpp:163] Top shape: 64 4 1 1 (256)
I1023 00:58:15.631062 13293 layer_factory.hpp:76] Creating layer dir4_TL
I1023 00:58:15.631078 13293 net.cpp:110] Creating Layer dir4_TL
I1023 00:58:15.631089 13293 net.cpp:477] dir4_TL <- pool5/7x7_s1_pool5/drop_7x7_s1_0_split_8
I1023 00:58:15.631104 13293 net.cpp:433] dir4_TL -> dir4_TL
I1023 00:58:15.632589 13293 net.cpp:155] Setting up dir4_TL
I1023 00:58:15.632617 13293 net.cpp:163] Top shape: 64 4 1 1 (256)
I1023 00:58:15.632635 13293 layer_factory.hpp:76] Creating layer dir4_TL_dir4_TL_0_split
I1023 00:58:15.632650 13293 net.cpp:110] Creating Layer dir4_TL_dir4_TL_0_split
I1023 00:58:15.632661 13293 net.cpp:477] dir4_TL_dir4_TL_0_split <- dir4_TL
I1023 00:58:15.632676 13293 net.cpp:433] dir4_TL_dir4_TL_0_split -> dir4_TL_dir4_TL_0_split_0
I1023 00:58:15.632695 13293 net.cpp:433] dir4_TL_dir4_TL_0_split -> dir4_TL_dir4_TL_0_split_1
I1023 00:58:15.632712 13293 net.cpp:155] Setting up dir4_TL_dir4_TL_0_split
I1023 00:58:15.632733 13293 net.cpp:163] Top shape: 64 4 1 1 (256)
I1023 00:58:15.632745 13293 net.cpp:163] Top shape: 64 4 1 1 (256)
I1023 00:58:15.632753 13293 layer_factory.hpp:76] Creating layer dir4_BR
I1023 00:58:15.632771 13293 net.cpp:110] Creating Layer dir4_BR
I1023 00:58:15.632781 13293 net.cpp:477] dir4_BR <- pool5/7x7_s1_pool5/drop_7x7_s1_0_split_9
I1023 00:58:15.632797 13293 net.cpp:433] dir4_BR -> dir4_BR
I1023 00:58:15.634289 13293 net.cpp:155] Setting up dir4_BR
I1023 00:58:15.634318 13293 net.cpp:163] Top shape: 64 4 1 1 (256)
I1023 00:58:15.634335 13293 layer_factory.hpp:76] Creating layer dir4_BR_dir4_BR_0_split
I1023 00:58:15.634351 13293 net.cpp:110] Creating Layer dir4_BR_dir4_BR_0_split
I1023 00:58:15.634361 13293 net.cpp:477] dir4_BR_dir4_BR_0_split <- dir4_BR
I1023 00:58:15.634377 13293 net.cpp:433] dir4_BR_dir4_BR_0_split -> dir4_BR_dir4_BR_0_split_0
I1023 00:58:15.634395 13293 net.cpp:433] dir4_BR_dir4_BR_0_split -> dir4_BR_dir4_BR_0_split_1
I1023 00:58:15.634413 13293 net.cpp:155] Setting up dir4_BR_dir4_BR_0_split
I1023 00:58:15.634424 13293 net.cpp:163] Top shape: 64 4 1 1 (256)
I1023 00:58:15.634434 13293 net.cpp:163] Top shape: 64 4 1 1 (256)
I1023 00:58:15.634443 13293 layer_factory.hpp:76] Creating layer dir5_TL
I1023 00:58:15.634460 13293 net.cpp:110] Creating Layer dir5_TL
I1023 00:58:15.634470 13293 net.cpp:477] dir5_TL <- pool5/7x7_s1_pool5/drop_7x7_s1_0_split_10
I1023 00:58:15.634486 13293 net.cpp:433] dir5_TL -> dir5_TL
I1023 00:58:15.635993 13293 net.cpp:155] Setting up dir5_TL
I1023 00:58:15.636019 13293 net.cpp:163] Top shape: 64 4 1 1 (256)
I1023 00:58:15.636037 13293 layer_factory.hpp:76] Creating layer dir5_TL_dir5_TL_0_split
I1023 00:58:15.636051 13293 net.cpp:110] Creating Layer dir5_TL_dir5_TL_0_split
I1023 00:58:15.636062 13293 net.cpp:477] dir5_TL_dir5_TL_0_split <- dir5_TL
I1023 00:58:15.636077 13293 net.cpp:433] dir5_TL_dir5_TL_0_split -> dir5_TL_dir5_TL_0_split_0
I1023 00:58:15.636096 13293 net.cpp:433] dir5_TL_dir5_TL_0_split -> dir5_TL_dir5_TL_0_split_1
I1023 00:58:15.636112 13293 net.cpp:155] Setting up dir5_TL_dir5_TL_0_split
I1023 00:58:15.636124 13293 net.cpp:163] Top shape: 64 4 1 1 (256)
I1023 00:58:15.636134 13293 net.cpp:163] Top shape: 64 4 1 1 (256)
I1023 00:58:15.636143 13293 layer_factory.hpp:76] Creating layer dir5_BR
I1023 00:58:15.636159 13293 net.cpp:110] Creating Layer dir5_BR
I1023 00:58:15.636170 13293 net.cpp:477] dir5_BR <- pool5/7x7_s1_pool5/drop_7x7_s1_0_split_11
I1023 00:58:15.636203 13293 net.cpp:433] dir5_BR -> dir5_BR
I1023 00:58:15.637696 13293 net.cpp:155] Setting up dir5_BR
I1023 00:58:15.637722 13293 net.cpp:163] Top shape: 64 4 1 1 (256)
I1023 00:58:15.637740 13293 layer_factory.hpp:76] Creating layer dir5_BR_dir5_BR_0_split
I1023 00:58:15.637754 13293 net.cpp:110] Creating Layer dir5_BR_dir5_BR_0_split
I1023 00:58:15.637765 13293 net.cpp:477] dir5_BR_dir5_BR_0_split <- dir5_BR
I1023 00:58:15.637780 13293 net.cpp:433] dir5_BR_dir5_BR_0_split -> dir5_BR_dir5_BR_0_split_0
I1023 00:58:15.637799 13293 net.cpp:433] dir5_BR_dir5_BR_0_split -> dir5_BR_dir5_BR_0_split_1
I1023 00:58:15.637815 13293 net.cpp:155] Setting up dir5_BR_dir5_BR_0_split
I1023 00:58:15.637827 13293 net.cpp:163] Top shape: 64 4 1 1 (256)
I1023 00:58:15.637837 13293 net.cpp:163] Top shape: 64 4 1 1 (256)
I1023 00:58:15.637846 13293 layer_factory.hpp:76] Creating layer dir6_TL
I1023 00:58:15.637863 13293 net.cpp:110] Creating Layer dir6_TL
I1023 00:58:15.637874 13293 net.cpp:477] dir6_TL <- pool5/7x7_s1_pool5/drop_7x7_s1_0_split_12
I1023 00:58:15.637889 13293 net.cpp:433] dir6_TL -> dir6_TL
I1023 00:58:15.639356 13293 net.cpp:155] Setting up dir6_TL
I1023 00:58:15.639384 13293 net.cpp:163] Top shape: 64 4 1 1 (256)
I1023 00:58:15.639401 13293 layer_factory.hpp:76] Creating layer dir6_TL_dir6_TL_0_split
I1023 00:58:15.639415 13293 net.cpp:110] Creating Layer dir6_TL_dir6_TL_0_split
I1023 00:58:15.639425 13293 net.cpp:477] dir6_TL_dir6_TL_0_split <- dir6_TL
I1023 00:58:15.639439 13293 net.cpp:433] dir6_TL_dir6_TL_0_split -> dir6_TL_dir6_TL_0_split_0
I1023 00:58:15.639466 13293 net.cpp:433] dir6_TL_dir6_TL_0_split -> dir6_TL_dir6_TL_0_split_1
I1023 00:58:15.639482 13293 net.cpp:155] Setting up dir6_TL_dir6_TL_0_split
I1023 00:58:15.639494 13293 net.cpp:163] Top shape: 64 4 1 1 (256)
I1023 00:58:15.639503 13293 net.cpp:163] Top shape: 64 4 1 1 (256)
I1023 00:58:15.639513 13293 layer_factory.hpp:76] Creating layer dir6_BR
I1023 00:58:15.639528 13293 net.cpp:110] Creating Layer dir6_BR
I1023 00:58:15.639538 13293 net.cpp:477] dir6_BR <- pool5/7x7_s1_pool5/drop_7x7_s1_0_split_13
I1023 00:58:15.639552 13293 net.cpp:433] dir6_BR -> dir6_BR
I1023 00:58:15.640960 13293 net.cpp:155] Setting up dir6_BR
I1023 00:58:15.640986 13293 net.cpp:163] Top shape: 64 4 1 1 (256)
I1023 00:58:15.641002 13293 layer_factory.hpp:76] Creating layer dir6_BR_dir6_BR_0_split
I1023 00:58:15.641016 13293 net.cpp:110] Creating Layer dir6_BR_dir6_BR_0_split
I1023 00:58:15.641027 13293 net.cpp:477] dir6_BR_dir6_BR_0_split <- dir6_BR
I1023 00:58:15.641041 13293 net.cpp:433] dir6_BR_dir6_BR_0_split -> dir6_BR_dir6_BR_0_split_0
I1023 00:58:15.641057 13293 net.cpp:433] dir6_BR_dir6_BR_0_split -> dir6_BR_dir6_BR_0_split_1
I1023 00:58:15.641073 13293 net.cpp:155] Setting up dir6_BR_dir6_BR_0_split
I1023 00:58:15.641084 13293 net.cpp:163] Top shape: 64 4 1 1 (256)
I1023 00:58:15.641094 13293 net.cpp:163] Top shape: 64 4 1 1 (256)
I1023 00:58:15.641103 13293 layer_factory.hpp:76] Creating layer dir7_TL
I1023 00:58:15.641119 13293 net.cpp:110] Creating Layer dir7_TL
I1023 00:58:15.641129 13293 net.cpp:477] dir7_TL <- pool5/7x7_s1_pool5/drop_7x7_s1_0_split_14
I1023 00:58:15.641144 13293 net.cpp:433] dir7_TL -> dir7_TL
I1023 00:58:15.642550 13293 net.cpp:155] Setting up dir7_TL
I1023 00:58:15.642577 13293 net.cpp:163] Top shape: 64 4 1 1 (256)
I1023 00:58:15.642595 13293 layer_factory.hpp:76] Creating layer dir7_TL_dir7_TL_0_split
I1023 00:58:15.642607 13293 net.cpp:110] Creating Layer dir7_TL_dir7_TL_0_split
I1023 00:58:15.642618 13293 net.cpp:477] dir7_TL_dir7_TL_0_split <- dir7_TL
I1023 00:58:15.642632 13293 net.cpp:433] dir7_TL_dir7_TL_0_split -> dir7_TL_dir7_TL_0_split_0
I1023 00:58:15.642649 13293 net.cpp:433] dir7_TL_dir7_TL_0_split -> dir7_TL_dir7_TL_0_split_1
I1023 00:58:15.642666 13293 net.cpp:155] Setting up dir7_TL_dir7_TL_0_split
I1023 00:58:15.642676 13293 net.cpp:163] Top shape: 64 4 1 1 (256)
I1023 00:58:15.642686 13293 net.cpp:163] Top shape: 64 4 1 1 (256)
I1023 00:58:15.642694 13293 layer_factory.hpp:76] Creating layer dir7_BR
I1023 00:58:15.642724 13293 net.cpp:110] Creating Layer dir7_BR
I1023 00:58:15.642735 13293 net.cpp:477] dir7_BR <- pool5/7x7_s1_pool5/drop_7x7_s1_0_split_15
I1023 00:58:15.642750 13293 net.cpp:433] dir7_BR -> dir7_BR
I1023 00:58:15.644155 13293 net.cpp:155] Setting up dir7_BR
I1023 00:58:15.644181 13293 net.cpp:163] Top shape: 64 4 1 1 (256)
I1023 00:58:15.644197 13293 layer_factory.hpp:76] Creating layer dir7_BR_dir7_BR_0_split
I1023 00:58:15.644210 13293 net.cpp:110] Creating Layer dir7_BR_dir7_BR_0_split
I1023 00:58:15.644220 13293 net.cpp:477] dir7_BR_dir7_BR_0_split <- dir7_BR
I1023 00:58:15.644234 13293 net.cpp:433] dir7_BR_dir7_BR_0_split -> dir7_BR_dir7_BR_0_split_0
I1023 00:58:15.644251 13293 net.cpp:433] dir7_BR_dir7_BR_0_split -> dir7_BR_dir7_BR_0_split_1
I1023 00:58:15.644266 13293 net.cpp:155] Setting up dir7_BR_dir7_BR_0_split
I1023 00:58:15.644278 13293 net.cpp:163] Top shape: 64 4 1 1 (256)
I1023 00:58:15.644287 13293 net.cpp:163] Top shape: 64 4 1 1 (256)
I1023 00:58:15.644295 13293 layer_factory.hpp:76] Creating layer dir8_TL
I1023 00:58:15.644309 13293 net.cpp:110] Creating Layer dir8_TL
I1023 00:58:15.644320 13293 net.cpp:477] dir8_TL <- pool5/7x7_s1_pool5/drop_7x7_s1_0_split_16
I1023 00:58:15.644333 13293 net.cpp:433] dir8_TL -> dir8_TL
I1023 00:58:15.645761 13293 net.cpp:155] Setting up dir8_TL
I1023 00:58:15.645787 13293 net.cpp:163] Top shape: 64 4 1 1 (256)
I1023 00:58:15.645802 13293 layer_factory.hpp:76] Creating layer dir8_TL_dir8_TL_0_split
I1023 00:58:15.645817 13293 net.cpp:110] Creating Layer dir8_TL_dir8_TL_0_split
I1023 00:58:15.645834 13293 net.cpp:477] dir8_TL_dir8_TL_0_split <- dir8_TL
I1023 00:58:15.645849 13293 net.cpp:433] dir8_TL_dir8_TL_0_split -> dir8_TL_dir8_TL_0_split_0
I1023 00:58:15.645866 13293 net.cpp:433] dir8_TL_dir8_TL_0_split -> dir8_TL_dir8_TL_0_split_1
I1023 00:58:15.645882 13293 net.cpp:155] Setting up dir8_TL_dir8_TL_0_split
I1023 00:58:15.645894 13293 net.cpp:163] Top shape: 64 4 1 1 (256)
I1023 00:58:15.645902 13293 net.cpp:163] Top shape: 64 4 1 1 (256)
I1023 00:58:15.645910 13293 layer_factory.hpp:76] Creating layer dir8_BR
I1023 00:58:15.645925 13293 net.cpp:110] Creating Layer dir8_BR
I1023 00:58:15.645936 13293 net.cpp:477] dir8_BR <- pool5/7x7_s1_pool5/drop_7x7_s1_0_split_17
I1023 00:58:15.645948 13293 net.cpp:433] dir8_BR -> dir8_BR
I1023 00:58:15.647377 13293 net.cpp:155] Setting up dir8_BR
I1023 00:58:15.647405 13293 net.cpp:163] Top shape: 64 4 1 1 (256)
I1023 00:58:15.647421 13293 layer_factory.hpp:76] Creating layer dir8_BR_dir8_BR_0_split
I1023 00:58:15.647434 13293 net.cpp:110] Creating Layer dir8_BR_dir8_BR_0_split
I1023 00:58:15.647445 13293 net.cpp:477] dir8_BR_dir8_BR_0_split <- dir8_BR
I1023 00:58:15.647460 13293 net.cpp:433] dir8_BR_dir8_BR_0_split -> dir8_BR_dir8_BR_0_split_0
I1023 00:58:15.647476 13293 net.cpp:433] dir8_BR_dir8_BR_0_split -> dir8_BR_dir8_BR_0_split_1
I1023 00:58:15.647491 13293 net.cpp:155] Setting up dir8_BR_dir8_BR_0_split
I1023 00:58:15.647502 13293 net.cpp:163] Top shape: 64 4 1 1 (256)
I1023 00:58:15.647511 13293 net.cpp:163] Top shape: 64 4 1 1 (256)
I1023 00:58:15.647521 13293 layer_factory.hpp:76] Creating layer dir9_TL
I1023 00:58:15.647536 13293 net.cpp:110] Creating Layer dir9_TL
I1023 00:58:15.647546 13293 net.cpp:477] dir9_TL <- pool5/7x7_s1_pool5/drop_7x7_s1_0_split_18
I1023 00:58:15.647560 13293 net.cpp:433] dir9_TL -> dir9_TL
I1023 00:58:15.649251 13293 net.cpp:155] Setting up dir9_TL
I1023 00:58:15.649279 13293 net.cpp:163] Top shape: 64 4 1 1 (256)
I1023 00:58:15.649296 13293 layer_factory.hpp:76] Creating layer dir9_TL_dir9_TL_0_split
I1023 00:58:15.649309 13293 net.cpp:110] Creating Layer dir9_TL_dir9_TL_0_split
I1023 00:58:15.649320 13293 net.cpp:477] dir9_TL_dir9_TL_0_split <- dir9_TL
I1023 00:58:15.649335 13293 net.cpp:433] dir9_TL_dir9_TL_0_split -> dir9_TL_dir9_TL_0_split_0
I1023 00:58:15.649353 13293 net.cpp:433] dir9_TL_dir9_TL_0_split -> dir9_TL_dir9_TL_0_split_1
I1023 00:58:15.649369 13293 net.cpp:155] Setting up dir9_TL_dir9_TL_0_split
I1023 00:58:15.649394 13293 net.cpp:163] Top shape: 64 4 1 1 (256)
I1023 00:58:15.649405 13293 net.cpp:163] Top shape: 64 4 1 1 (256)
I1023 00:58:15.649412 13293 layer_factory.hpp:76] Creating layer dir9_BR
I1023 00:58:15.649427 13293 net.cpp:110] Creating Layer dir9_BR
I1023 00:58:15.649438 13293 net.cpp:477] dir9_BR <- pool5/7x7_s1_pool5/drop_7x7_s1_0_split_19
I1023 00:58:15.649452 13293 net.cpp:433] dir9_BR -> dir9_BR
I1023 00:58:15.650857 13293 net.cpp:155] Setting up dir9_BR
I1023 00:58:15.650884 13293 net.cpp:163] Top shape: 64 4 1 1 (256)
I1023 00:58:15.650899 13293 layer_factory.hpp:76] Creating layer dir9_BR_dir9_BR_0_split
I1023 00:58:15.650913 13293 net.cpp:110] Creating Layer dir9_BR_dir9_BR_0_split
I1023 00:58:15.650923 13293 net.cpp:477] dir9_BR_dir9_BR_0_split <- dir9_BR
I1023 00:58:15.650936 13293 net.cpp:433] dir9_BR_dir9_BR_0_split -> dir9_BR_dir9_BR_0_split_0
I1023 00:58:15.650951 13293 net.cpp:433] dir9_BR_dir9_BR_0_split -> dir9_BR_dir9_BR_0_split_1
I1023 00:58:15.650966 13293 net.cpp:155] Setting up dir9_BR_dir9_BR_0_split
I1023 00:58:15.650976 13293 net.cpp:163] Top shape: 64 4 1 1 (256)
I1023 00:58:15.650985 13293 net.cpp:163] Top shape: 64 4 1 1 (256)
I1023 00:58:15.650993 13293 layer_factory.hpp:76] Creating layer dir10_TL
I1023 00:58:15.651007 13293 net.cpp:110] Creating Layer dir10_TL
I1023 00:58:15.651016 13293 net.cpp:477] dir10_TL <- pool5/7x7_s1_pool5/drop_7x7_s1_0_split_20
I1023 00:58:15.651031 13293 net.cpp:433] dir10_TL -> dir10_TL
I1023 00:58:15.652369 13293 net.cpp:155] Setting up dir10_TL
I1023 00:58:15.652393 13293 net.cpp:163] Top shape: 64 4 1 1 (256)
I1023 00:58:15.652408 13293 layer_factory.hpp:76] Creating layer dir10_TL_dir10_TL_0_split
I1023 00:58:15.652429 13293 net.cpp:110] Creating Layer dir10_TL_dir10_TL_0_split
I1023 00:58:15.652441 13293 net.cpp:477] dir10_TL_dir10_TL_0_split <- dir10_TL
I1023 00:58:15.652454 13293 net.cpp:433] dir10_TL_dir10_TL_0_split -> dir10_TL_dir10_TL_0_split_0
I1023 00:58:15.652472 13293 net.cpp:433] dir10_TL_dir10_TL_0_split -> dir10_TL_dir10_TL_0_split_1
I1023 00:58:15.652487 13293 net.cpp:155] Setting up dir10_TL_dir10_TL_0_split
I1023 00:58:15.652497 13293 net.cpp:163] Top shape: 64 4 1 1 (256)
I1023 00:58:15.652505 13293 net.cpp:163] Top shape: 64 4 1 1 (256)
I1023 00:58:15.652513 13293 layer_factory.hpp:76] Creating layer dir10_BR
I1023 00:58:15.652528 13293 net.cpp:110] Creating Layer dir10_BR
I1023 00:58:15.652537 13293 net.cpp:477] dir10_BR <- pool5/7x7_s1_pool5/drop_7x7_s1_0_split_21
I1023 00:58:15.652551 13293 net.cpp:433] dir10_BR -> dir10_BR
I1023 00:58:15.653893 13293 net.cpp:155] Setting up dir10_BR
I1023 00:58:15.653918 13293 net.cpp:163] Top shape: 64 4 1 1 (256)
I1023 00:58:15.653934 13293 layer_factory.hpp:76] Creating layer dir10_BR_dir10_BR_0_split
I1023 00:58:15.653946 13293 net.cpp:110] Creating Layer dir10_BR_dir10_BR_0_split
I1023 00:58:15.653956 13293 net.cpp:477] dir10_BR_dir10_BR_0_split <- dir10_BR
I1023 00:58:15.653970 13293 net.cpp:433] dir10_BR_dir10_BR_0_split -> dir10_BR_dir10_BR_0_split_0
I1023 00:58:15.653986 13293 net.cpp:433] dir10_BR_dir10_BR_0_split -> dir10_BR_dir10_BR_0_split_1
I1023 00:58:15.654000 13293 net.cpp:155] Setting up dir10_BR_dir10_BR_0_split
I1023 00:58:15.654018 13293 net.cpp:163] Top shape: 64 4 1 1 (256)
I1023 00:58:15.654029 13293 net.cpp:163] Top shape: 64 4 1 1 (256)
I1023 00:58:15.654037 13293 layer_factory.hpp:76] Creating layer dir11_TL
I1023 00:58:15.654052 13293 net.cpp:110] Creating Layer dir11_TL
I1023 00:58:15.654062 13293 net.cpp:477] dir11_TL <- pool5/7x7_s1_pool5/drop_7x7_s1_0_split_22
I1023 00:58:15.654075 13293 net.cpp:433] dir11_TL -> dir11_TL
I1023 00:58:15.655439 13293 net.cpp:155] Setting up dir11_TL
I1023 00:58:15.655464 13293 net.cpp:163] Top shape: 64 4 1 1 (256)
I1023 00:58:15.655479 13293 layer_factory.hpp:76] Creating layer dir11_TL_dir11_TL_0_split
I1023 00:58:15.655491 13293 net.cpp:110] Creating Layer dir11_TL_dir11_TL_0_split
I1023 00:58:15.655501 13293 net.cpp:477] dir11_TL_dir11_TL_0_split <- dir11_TL
I1023 00:58:15.655514 13293 net.cpp:433] dir11_TL_dir11_TL_0_split -> dir11_TL_dir11_TL_0_split_0
I1023 00:58:15.655544 13293 net.cpp:433] dir11_TL_dir11_TL_0_split -> dir11_TL_dir11_TL_0_split_1
I1023 00:58:15.655561 13293 net.cpp:155] Setting up dir11_TL_dir11_TL_0_split
I1023 00:58:15.655571 13293 net.cpp:163] Top shape: 64 4 1 1 (256)
I1023 00:58:15.655580 13293 net.cpp:163] Top shape: 64 4 1 1 (256)
I1023 00:58:15.655587 13293 layer_factory.hpp:76] Creating layer dir11_BR
I1023 00:58:15.655601 13293 net.cpp:110] Creating Layer dir11_BR
I1023 00:58:15.655611 13293 net.cpp:477] dir11_BR <- pool5/7x7_s1_pool5/drop_7x7_s1_0_split_23
I1023 00:58:15.655625 13293 net.cpp:433] dir11_BR -> dir11_BR
I1023 00:58:15.656970 13293 net.cpp:155] Setting up dir11_BR
I1023 00:58:15.656994 13293 net.cpp:163] Top shape: 64 4 1 1 (256)
I1023 00:58:15.657009 13293 layer_factory.hpp:76] Creating layer dir11_BR_dir11_BR_0_split
I1023 00:58:15.657021 13293 net.cpp:110] Creating Layer dir11_BR_dir11_BR_0_split
I1023 00:58:15.657032 13293 net.cpp:477] dir11_BR_dir11_BR_0_split <- dir11_BR
I1023 00:58:15.657045 13293 net.cpp:433] dir11_BR_dir11_BR_0_split -> dir11_BR_dir11_BR_0_split_0
I1023 00:58:15.657062 13293 net.cpp:433] dir11_BR_dir11_BR_0_split -> dir11_BR_dir11_BR_0_split_1
I1023 00:58:15.657078 13293 net.cpp:155] Setting up dir11_BR_dir11_BR_0_split
I1023 00:58:15.657086 13293 net.cpp:163] Top shape: 64 4 1 1 (256)
I1023 00:58:15.657095 13293 net.cpp:163] Top shape: 64 4 1 1 (256)
I1023 00:58:15.657104 13293 layer_factory.hpp:76] Creating layer dir12_TL
I1023 00:58:15.657116 13293 net.cpp:110] Creating Layer dir12_TL
I1023 00:58:15.657126 13293 net.cpp:477] dir12_TL <- pool5/7x7_s1_pool5/drop_7x7_s1_0_split_24
I1023 00:58:15.657148 13293 net.cpp:433] dir12_TL -> dir12_TL
I1023 00:58:15.658506 13293 net.cpp:155] Setting up dir12_TL
I1023 00:58:15.658532 13293 net.cpp:163] Top shape: 64 4 1 1 (256)
I1023 00:58:15.658548 13293 layer_factory.hpp:76] Creating layer dir12_TL_dir12_TL_0_split
I1023 00:58:15.658560 13293 net.cpp:110] Creating Layer dir12_TL_dir12_TL_0_split
I1023 00:58:15.658571 13293 net.cpp:477] dir12_TL_dir12_TL_0_split <- dir12_TL
I1023 00:58:15.658584 13293 net.cpp:433] dir12_TL_dir12_TL_0_split -> dir12_TL_dir12_TL_0_split_0
I1023 00:58:15.658601 13293 net.cpp:433] dir12_TL_dir12_TL_0_split -> dir12_TL_dir12_TL_0_split_1
I1023 00:58:15.658617 13293 net.cpp:155] Setting up dir12_TL_dir12_TL_0_split
I1023 00:58:15.658625 13293 net.cpp:163] Top shape: 64 4 1 1 (256)
I1023 00:58:15.658634 13293 net.cpp:163] Top shape: 64 4 1 1 (256)
I1023 00:58:15.658643 13293 layer_factory.hpp:76] Creating layer dir12_BR
I1023 00:58:15.658656 13293 net.cpp:110] Creating Layer dir12_BR
I1023 00:58:15.658665 13293 net.cpp:477] dir12_BR <- pool5/7x7_s1_pool5/drop_7x7_s1_0_split_25
I1023 00:58:15.658679 13293 net.cpp:433] dir12_BR -> dir12_BR
I1023 00:58:15.660020 13293 net.cpp:155] Setting up dir12_BR
I1023 00:58:15.660045 13293 net.cpp:163] Top shape: 64 4 1 1 (256)
I1023 00:58:15.660059 13293 layer_factory.hpp:76] Creating layer dir12_BR_dir12_BR_0_split
I1023 00:58:15.660073 13293 net.cpp:110] Creating Layer dir12_BR_dir12_BR_0_split
I1023 00:58:15.660081 13293 net.cpp:477] dir12_BR_dir12_BR_0_split <- dir12_BR
I1023 00:58:15.660094 13293 net.cpp:433] dir12_BR_dir12_BR_0_split -> dir12_BR_dir12_BR_0_split_0
I1023 00:58:15.660110 13293 net.cpp:433] dir12_BR_dir12_BR_0_split -> dir12_BR_dir12_BR_0_split_1
I1023 00:58:15.660125 13293 net.cpp:155] Setting up dir12_BR_dir12_BR_0_split
I1023 00:58:15.660135 13293 net.cpp:163] Top shape: 64 4 1 1 (256)
I1023 00:58:15.660143 13293 net.cpp:163] Top shape: 64 4 1 1 (256)
I1023 00:58:15.660151 13293 layer_factory.hpp:76] Creating layer dir13_TL
I1023 00:58:15.660164 13293 net.cpp:110] Creating Layer dir13_TL
I1023 00:58:15.660174 13293 net.cpp:477] dir13_TL <- pool5/7x7_s1_pool5/drop_7x7_s1_0_split_26
I1023 00:58:15.660188 13293 net.cpp:433] dir13_TL -> dir13_TL
I1023 00:58:15.661535 13293 net.cpp:155] Setting up dir13_TL
I1023 00:58:15.661561 13293 net.cpp:163] Top shape: 64 4 1 1 (256)
I1023 00:58:15.661576 13293 layer_factory.hpp:76] Creating layer dir13_TL_dir13_TL_0_split
I1023 00:58:15.661602 13293 net.cpp:110] Creating Layer dir13_TL_dir13_TL_0_split
I1023 00:58:15.661613 13293 net.cpp:477] dir13_TL_dir13_TL_0_split <- dir13_TL
I1023 00:58:15.661626 13293 net.cpp:433] dir13_TL_dir13_TL_0_split -> dir13_TL_dir13_TL_0_split_0
I1023 00:58:15.661643 13293 net.cpp:433] dir13_TL_dir13_TL_0_split -> dir13_TL_dir13_TL_0_split_1
I1023 00:58:15.661659 13293 net.cpp:155] Setting up dir13_TL_dir13_TL_0_split
I1023 00:58:15.661669 13293 net.cpp:163] Top shape: 64 4 1 1 (256)
I1023 00:58:15.661677 13293 net.cpp:163] Top shape: 64 4 1 1 (256)
I1023 00:58:15.661685 13293 layer_factory.hpp:76] Creating layer dir13_BR
I1023 00:58:15.661700 13293 net.cpp:110] Creating Layer dir13_BR
I1023 00:58:15.661710 13293 net.cpp:477] dir13_BR <- pool5/7x7_s1_pool5/drop_7x7_s1_0_split_27
I1023 00:58:15.661722 13293 net.cpp:433] dir13_BR -> dir13_BR
I1023 00:58:15.663059 13293 net.cpp:155] Setting up dir13_BR
I1023 00:58:15.663084 13293 net.cpp:163] Top shape: 64 4 1 1 (256)
I1023 00:58:15.663100 13293 layer_factory.hpp:76] Creating layer dir13_BR_dir13_BR_0_split
I1023 00:58:15.663111 13293 net.cpp:110] Creating Layer dir13_BR_dir13_BR_0_split
I1023 00:58:15.663121 13293 net.cpp:477] dir13_BR_dir13_BR_0_split <- dir13_BR
I1023 00:58:15.663133 13293 net.cpp:433] dir13_BR_dir13_BR_0_split -> dir13_BR_dir13_BR_0_split_0
I1023 00:58:15.663149 13293 net.cpp:433] dir13_BR_dir13_BR_0_split -> dir13_BR_dir13_BR_0_split_1
I1023 00:58:15.663163 13293 net.cpp:155] Setting up dir13_BR_dir13_BR_0_split
I1023 00:58:15.663173 13293 net.cpp:163] Top shape: 64 4 1 1 (256)
I1023 00:58:15.663182 13293 net.cpp:163] Top shape: 64 4 1 1 (256)
I1023 00:58:15.663197 13293 layer_factory.hpp:76] Creating layer dir14_TL
I1023 00:58:15.663210 13293 net.cpp:110] Creating Layer dir14_TL
I1023 00:58:15.663219 13293 net.cpp:477] dir14_TL <- pool5/7x7_s1_pool5/drop_7x7_s1_0_split_28
I1023 00:58:15.663233 13293 net.cpp:433] dir14_TL -> dir14_TL
I1023 00:58:15.664530 13293 net.cpp:155] Setting up dir14_TL
I1023 00:58:15.664554 13293 net.cpp:163] Top shape: 64 4 1 1 (256)
I1023 00:58:15.664568 13293 layer_factory.hpp:76] Creating layer dir14_TL_dir14_TL_0_split
I1023 00:58:15.664580 13293 net.cpp:110] Creating Layer dir14_TL_dir14_TL_0_split
I1023 00:58:15.664590 13293 net.cpp:477] dir14_TL_dir14_TL_0_split <- dir14_TL
I1023 00:58:15.664602 13293 net.cpp:433] dir14_TL_dir14_TL_0_split -> dir14_TL_dir14_TL_0_split_0
I1023 00:58:15.664618 13293 net.cpp:433] dir14_TL_dir14_TL_0_split -> dir14_TL_dir14_TL_0_split_1
I1023 00:58:15.664630 13293 net.cpp:155] Setting up dir14_TL_dir14_TL_0_split
I1023 00:58:15.664640 13293 net.cpp:163] Top shape: 64 4 1 1 (256)
I1023 00:58:15.664649 13293 net.cpp:163] Top shape: 64 4 1 1 (256)
I1023 00:58:15.664655 13293 layer_factory.hpp:76] Creating layer dir14_BR
I1023 00:58:15.664669 13293 net.cpp:110] Creating Layer dir14_BR
I1023 00:58:15.664677 13293 net.cpp:477] dir14_BR <- pool5/7x7_s1_pool5/drop_7x7_s1_0_split_29
I1023 00:58:15.664690 13293 net.cpp:433] dir14_BR -> dir14_BR
I1023 00:58:15.665977 13293 net.cpp:155] Setting up dir14_BR
I1023 00:58:15.666002 13293 net.cpp:163] Top shape: 64 4 1 1 (256)
I1023 00:58:15.666025 13293 layer_factory.hpp:76] Creating layer dir14_BR_dir14_BR_0_split
I1023 00:58:15.666038 13293 net.cpp:110] Creating Layer dir14_BR_dir14_BR_0_split
I1023 00:58:15.666048 13293 net.cpp:477] dir14_BR_dir14_BR_0_split <- dir14_BR
I1023 00:58:15.666059 13293 net.cpp:433] dir14_BR_dir14_BR_0_split -> dir14_BR_dir14_BR_0_split_0
I1023 00:58:15.666074 13293 net.cpp:433] dir14_BR_dir14_BR_0_split -> dir14_BR_dir14_BR_0_split_1
I1023 00:58:15.666087 13293 net.cpp:155] Setting up dir14_BR_dir14_BR_0_split
I1023 00:58:15.666097 13293 net.cpp:163] Top shape: 64 4 1 1 (256)
I1023 00:58:15.666106 13293 net.cpp:163] Top shape: 64 4 1 1 (256)
I1023 00:58:15.666115 13293 layer_factory.hpp:76] Creating layer dir15_TL
I1023 00:58:15.666126 13293 net.cpp:110] Creating Layer dir15_TL
I1023 00:58:15.666136 13293 net.cpp:477] dir15_TL <- pool5/7x7_s1_pool5/drop_7x7_s1_0_split_30
I1023 00:58:15.666149 13293 net.cpp:433] dir15_TL -> dir15_TL
I1023 00:58:15.667455 13293 net.cpp:155] Setting up dir15_TL
I1023 00:58:15.667479 13293 net.cpp:163] Top shape: 64 4 1 1 (256)
I1023 00:58:15.667495 13293 layer_factory.hpp:76] Creating layer dir15_TL_dir15_TL_0_split
I1023 00:58:15.667505 13293 net.cpp:110] Creating Layer dir15_TL_dir15_TL_0_split
I1023 00:58:15.667515 13293 net.cpp:477] dir15_TL_dir15_TL_0_split <- dir15_TL
I1023 00:58:15.667527 13293 net.cpp:433] dir15_TL_dir15_TL_0_split -> dir15_TL_dir15_TL_0_split_0
I1023 00:58:15.667542 13293 net.cpp:433] dir15_TL_dir15_TL_0_split -> dir15_TL_dir15_TL_0_split_1
I1023 00:58:15.667557 13293 net.cpp:155] Setting up dir15_TL_dir15_TL_0_split
I1023 00:58:15.667567 13293 net.cpp:163] Top shape: 64 4 1 1 (256)
I1023 00:58:15.667575 13293 net.cpp:163] Top shape: 64 4 1 1 (256)
I1023 00:58:15.667583 13293 layer_factory.hpp:76] Creating layer dir15_BR
I1023 00:58:15.667596 13293 net.cpp:110] Creating Layer dir15_BR
I1023 00:58:15.667605 13293 net.cpp:477] dir15_BR <- pool5/7x7_s1_pool5/drop_7x7_s1_0_split_31
I1023 00:58:15.667616 13293 net.cpp:433] dir15_BR -> dir15_BR
I1023 00:58:15.668905 13293 net.cpp:155] Setting up dir15_BR
I1023 00:58:15.668930 13293 net.cpp:163] Top shape: 64 4 1 1 (256)
I1023 00:58:15.668943 13293 layer_factory.hpp:76] Creating layer dir15_BR_dir15_BR_0_split
I1023 00:58:15.668956 13293 net.cpp:110] Creating Layer dir15_BR_dir15_BR_0_split
I1023 00:58:15.668965 13293 net.cpp:477] dir15_BR_dir15_BR_0_split <- dir15_BR
I1023 00:58:15.668977 13293 net.cpp:433] dir15_BR_dir15_BR_0_split -> dir15_BR_dir15_BR_0_split_0
I1023 00:58:15.668992 13293 net.cpp:433] dir15_BR_dir15_BR_0_split -> dir15_BR_dir15_BR_0_split_1
I1023 00:58:15.669014 13293 net.cpp:155] Setting up dir15_BR_dir15_BR_0_split
I1023 00:58:15.669025 13293 net.cpp:163] Top shape: 64 4 1 1 (256)
I1023 00:58:15.669034 13293 net.cpp:163] Top shape: 64 4 1 1 (256)
I1023 00:58:15.669042 13293 layer_factory.hpp:76] Creating layer dir16_TL
I1023 00:58:15.669055 13293 net.cpp:110] Creating Layer dir16_TL
I1023 00:58:15.669064 13293 net.cpp:477] dir16_TL <- pool5/7x7_s1_pool5/drop_7x7_s1_0_split_32
I1023 00:58:15.669077 13293 net.cpp:433] dir16_TL -> dir16_TL
I1023 00:58:15.670392 13293 net.cpp:155] Setting up dir16_TL
I1023 00:58:15.670418 13293 net.cpp:163] Top shape: 64 4 1 1 (256)
I1023 00:58:15.670433 13293 layer_factory.hpp:76] Creating layer dir16_TL_dir16_TL_0_split
I1023 00:58:15.670444 13293 net.cpp:110] Creating Layer dir16_TL_dir16_TL_0_split
I1023 00:58:15.670454 13293 net.cpp:477] dir16_TL_dir16_TL_0_split <- dir16_TL
I1023 00:58:15.670465 13293 net.cpp:433] dir16_TL_dir16_TL_0_split -> dir16_TL_dir16_TL_0_split_0
I1023 00:58:15.670480 13293 net.cpp:433] dir16_TL_dir16_TL_0_split -> dir16_TL_dir16_TL_0_split_1
I1023 00:58:15.670495 13293 net.cpp:155] Setting up dir16_TL_dir16_TL_0_split
I1023 00:58:15.670505 13293 net.cpp:163] Top shape: 64 4 1 1 (256)
I1023 00:58:15.670512 13293 net.cpp:163] Top shape: 64 4 1 1 (256)
I1023 00:58:15.670521 13293 layer_factory.hpp:76] Creating layer dir16_BR
I1023 00:58:15.670562 13293 net.cpp:110] Creating Layer dir16_BR
I1023 00:58:15.670572 13293 net.cpp:477] dir16_BR <- pool5/7x7_s1_pool5/drop_7x7_s1_0_split_33
I1023 00:58:15.670585 13293 net.cpp:433] dir16_BR -> dir16_BR
I1023 00:58:15.671869 13293 net.cpp:155] Setting up dir16_BR
I1023 00:58:15.671892 13293 net.cpp:163] Top shape: 64 4 1 1 (256)
I1023 00:58:15.671908 13293 layer_factory.hpp:76] Creating layer dir16_BR_dir16_BR_0_split
I1023 00:58:15.671919 13293 net.cpp:110] Creating Layer dir16_BR_dir16_BR_0_split
I1023 00:58:15.671929 13293 net.cpp:477] dir16_BR_dir16_BR_0_split <- dir16_BR
I1023 00:58:15.671941 13293 net.cpp:433] dir16_BR_dir16_BR_0_split -> dir16_BR_dir16_BR_0_split_0
I1023 00:58:15.671957 13293 net.cpp:433] dir16_BR_dir16_BR_0_split -> dir16_BR_dir16_BR_0_split_1
I1023 00:58:15.671969 13293 net.cpp:155] Setting up dir16_BR_dir16_BR_0_split
I1023 00:58:15.671979 13293 net.cpp:163] Top shape: 64 4 1 1 (256)
I1023 00:58:15.671988 13293 net.cpp:163] Top shape: 64 4 1 1 (256)
I1023 00:58:15.671995 13293 layer_factory.hpp:76] Creating layer dir17_TL
I1023 00:58:15.672021 13293 net.cpp:110] Creating Layer dir17_TL
I1023 00:58:15.672032 13293 net.cpp:477] dir17_TL <- pool5/7x7_s1_pool5/drop_7x7_s1_0_split_34
I1023 00:58:15.672044 13293 net.cpp:433] dir17_TL -> dir17_TL
I1023 00:58:15.673333 13293 net.cpp:155] Setting up dir17_TL
I1023 00:58:15.673357 13293 net.cpp:163] Top shape: 64 4 1 1 (256)
I1023 00:58:15.673372 13293 layer_factory.hpp:76] Creating layer dir17_TL_dir17_TL_0_split
I1023 00:58:15.673383 13293 net.cpp:110] Creating Layer dir17_TL_dir17_TL_0_split
I1023 00:58:15.673393 13293 net.cpp:477] dir17_TL_dir17_TL_0_split <- dir17_TL
I1023 00:58:15.673404 13293 net.cpp:433] dir17_TL_dir17_TL_0_split -> dir17_TL_dir17_TL_0_split_0
I1023 00:58:15.673418 13293 net.cpp:433] dir17_TL_dir17_TL_0_split -> dir17_TL_dir17_TL_0_split_1
I1023 00:58:15.673432 13293 net.cpp:155] Setting up dir17_TL_dir17_TL_0_split
I1023 00:58:15.673442 13293 net.cpp:163] Top shape: 64 4 1 1 (256)
I1023 00:58:15.673450 13293 net.cpp:163] Top shape: 64 4 1 1 (256)
I1023 00:58:15.673459 13293 layer_factory.hpp:76] Creating layer dir17_BR
I1023 00:58:15.673471 13293 net.cpp:110] Creating Layer dir17_BR
I1023 00:58:15.673480 13293 net.cpp:477] dir17_BR <- pool5/7x7_s1_pool5/drop_7x7_s1_0_split_35
I1023 00:58:15.673491 13293 net.cpp:433] dir17_BR -> dir17_BR
I1023 00:58:15.674789 13293 net.cpp:155] Setting up dir17_BR
I1023 00:58:15.674813 13293 net.cpp:163] Top shape: 64 4 1 1 (256)
I1023 00:58:15.674828 13293 layer_factory.hpp:76] Creating layer dir17_BR_dir17_BR_0_split
I1023 00:58:15.674839 13293 net.cpp:110] Creating Layer dir17_BR_dir17_BR_0_split
I1023 00:58:15.674855 13293 net.cpp:477] dir17_BR_dir17_BR_0_split <- dir17_BR
I1023 00:58:15.674868 13293 net.cpp:433] dir17_BR_dir17_BR_0_split -> dir17_BR_dir17_BR_0_split_0
I1023 00:58:15.674882 13293 net.cpp:433] dir17_BR_dir17_BR_0_split -> dir17_BR_dir17_BR_0_split_1
I1023 00:58:15.674896 13293 net.cpp:155] Setting up dir17_BR_dir17_BR_0_split
I1023 00:58:15.674906 13293 net.cpp:163] Top shape: 64 4 1 1 (256)
I1023 00:58:15.674914 13293 net.cpp:163] Top shape: 64 4 1 1 (256)
I1023 00:58:15.674921 13293 layer_factory.hpp:76] Creating layer dir18_TL
I1023 00:58:15.674933 13293 net.cpp:110] Creating Layer dir18_TL
I1023 00:58:15.674942 13293 net.cpp:477] dir18_TL <- pool5/7x7_s1_pool5/drop_7x7_s1_0_split_36
I1023 00:58:15.674954 13293 net.cpp:433] dir18_TL -> dir18_TL
I1023 00:58:15.676194 13293 net.cpp:155] Setting up dir18_TL
I1023 00:58:15.676216 13293 net.cpp:163] Top shape: 64 4 1 1 (256)
I1023 00:58:15.676230 13293 layer_factory.hpp:76] Creating layer dir18_TL_dir18_TL_0_split
I1023 00:58:15.676241 13293 net.cpp:110] Creating Layer dir18_TL_dir18_TL_0_split
I1023 00:58:15.676250 13293 net.cpp:477] dir18_TL_dir18_TL_0_split <- dir18_TL
I1023 00:58:15.676261 13293 net.cpp:433] dir18_TL_dir18_TL_0_split -> dir18_TL_dir18_TL_0_split_0
I1023 00:58:15.676275 13293 net.cpp:433] dir18_TL_dir18_TL_0_split -> dir18_TL_dir18_TL_0_split_1
I1023 00:58:15.676288 13293 net.cpp:155] Setting up dir18_TL_dir18_TL_0_split
I1023 00:58:15.676297 13293 net.cpp:163] Top shape: 64 4 1 1 (256)
I1023 00:58:15.676306 13293 net.cpp:163] Top shape: 64 4 1 1 (256)
I1023 00:58:15.676312 13293 layer_factory.hpp:76] Creating layer dir18_BR
I1023 00:58:15.676326 13293 net.cpp:110] Creating Layer dir18_BR
I1023 00:58:15.676334 13293 net.cpp:477] dir18_BR <- pool5/7x7_s1_pool5/drop_7x7_s1_0_split_37
I1023 00:58:15.676345 13293 net.cpp:433] dir18_BR -> dir18_BR
I1023 00:58:15.677577 13293 net.cpp:155] Setting up dir18_BR
I1023 00:58:15.677599 13293 net.cpp:163] Top shape: 64 4 1 1 (256)
I1023 00:58:15.677613 13293 layer_factory.hpp:76] Creating layer dir18_BR_dir18_BR_0_split
I1023 00:58:15.677624 13293 net.cpp:110] Creating Layer dir18_BR_dir18_BR_0_split
I1023 00:58:15.677634 13293 net.cpp:477] dir18_BR_dir18_BR_0_split <- dir18_BR
I1023 00:58:15.677644 13293 net.cpp:433] dir18_BR_dir18_BR_0_split -> dir18_BR_dir18_BR_0_split_0
I1023 00:58:15.677659 13293 net.cpp:433] dir18_BR_dir18_BR_0_split -> dir18_BR_dir18_BR_0_split_1
I1023 00:58:15.677686 13293 net.cpp:155] Setting up dir18_BR_dir18_BR_0_split
I1023 00:58:15.677696 13293 net.cpp:163] Top shape: 64 4 1 1 (256)
I1023 00:58:15.677706 13293 net.cpp:163] Top shape: 64 4 1 1 (256)
I1023 00:58:15.677712 13293 layer_factory.hpp:76] Creating layer dir19_TL
I1023 00:58:15.677726 13293 net.cpp:110] Creating Layer dir19_TL
I1023 00:58:15.677734 13293 net.cpp:477] dir19_TL <- pool5/7x7_s1_pool5/drop_7x7_s1_0_split_38
I1023 00:58:15.677747 13293 net.cpp:433] dir19_TL -> dir19_TL
I1023 00:58:15.680171 13293 net.cpp:155] Setting up dir19_TL
I1023 00:58:15.680198 13293 net.cpp:163] Top shape: 64 4 1 1 (256)
I1023 00:58:15.680212 13293 layer_factory.hpp:76] Creating layer dir19_TL_dir19_TL_0_split
I1023 00:58:15.680224 13293 net.cpp:110] Creating Layer dir19_TL_dir19_TL_0_split
I1023 00:58:15.680233 13293 net.cpp:477] dir19_TL_dir19_TL_0_split <- dir19_TL
I1023 00:58:15.680245 13293 net.cpp:433] dir19_TL_dir19_TL_0_split -> dir19_TL_dir19_TL_0_split_0
I1023 00:58:15.680260 13293 net.cpp:433] dir19_TL_dir19_TL_0_split -> dir19_TL_dir19_TL_0_split_1
I1023 00:58:15.680274 13293 net.cpp:155] Setting up dir19_TL_dir19_TL_0_split
I1023 00:58:15.680284 13293 net.cpp:163] Top shape: 64 4 1 1 (256)
I1023 00:58:15.680291 13293 net.cpp:163] Top shape: 64 4 1 1 (256)
I1023 00:58:15.680299 13293 layer_factory.hpp:76] Creating layer dir19_BR
I1023 00:58:15.680312 13293 net.cpp:110] Creating Layer dir19_BR
I1023 00:58:15.680321 13293 net.cpp:477] dir19_BR <- pool5/7x7_s1_pool5/drop_7x7_s1_0_split_39
I1023 00:58:15.680333 13293 net.cpp:433] dir19_BR -> dir19_BR
I1023 00:58:15.681551 13293 net.cpp:155] Setting up dir19_BR
I1023 00:58:15.681582 13293 net.cpp:163] Top shape: 64 4 1 1 (256)
I1023 00:58:15.681596 13293 layer_factory.hpp:76] Creating layer dir19_BR_dir19_BR_0_split
I1023 00:58:15.681608 13293 net.cpp:110] Creating Layer dir19_BR_dir19_BR_0_split
I1023 00:58:15.681617 13293 net.cpp:477] dir19_BR_dir19_BR_0_split <- dir19_BR
I1023 00:58:15.681629 13293 net.cpp:433] dir19_BR_dir19_BR_0_split -> dir19_BR_dir19_BR_0_split_0
I1023 00:58:15.681643 13293 net.cpp:433] dir19_BR_dir19_BR_0_split -> dir19_BR_dir19_BR_0_split_1
I1023 00:58:15.681658 13293 net.cpp:155] Setting up dir19_BR_dir19_BR_0_split
I1023 00:58:15.681666 13293 net.cpp:163] Top shape: 64 4 1 1 (256)
I1023 00:58:15.681674 13293 net.cpp:163] Top shape: 64 4 1 1 (256)
I1023 00:58:15.681682 13293 layer_factory.hpp:76] Creating layer cls
I1023 00:58:15.681694 13293 net.cpp:110] Creating Layer cls
I1023 00:58:15.681704 13293 net.cpp:477] cls <- pool5/7x7_s1_pool5/drop_7x7_s1_0_split_40
I1023 00:58:15.681715 13293 net.cpp:433] cls -> cls
I1023 00:58:15.683799 13293 net.cpp:155] Setting up cls
I1023 00:58:15.683822 13293 net.cpp:163] Top shape: 64 21 1 1 (1344)
I1023 00:58:15.683836 13293 layer_factory.hpp:76] Creating layer cls_cls_0_split
I1023 00:58:15.683848 13293 net.cpp:110] Creating Layer cls_cls_0_split
I1023 00:58:15.683856 13293 net.cpp:477] cls_cls_0_split <- cls
I1023 00:58:15.683867 13293 net.cpp:433] cls_cls_0_split -> cls_cls_0_split_0
I1023 00:58:15.683881 13293 net.cpp:433] cls_cls_0_split -> cls_cls_0_split_1
I1023 00:58:15.683894 13293 net.cpp:155] Setting up cls_cls_0_split
I1023 00:58:15.683903 13293 net.cpp:163] Top shape: 64 21 1 1 (1344)
I1023 00:58:15.683912 13293 net.cpp:163] Top shape: 64 21 1 1 (1344)
I1023 00:58:15.683919 13293 layer_factory.hpp:76] Creating layer loss0_TL
I1023 00:58:15.683930 13293 net.cpp:110] Creating Layer loss0_TL
I1023 00:58:15.683938 13293 net.cpp:477] loss0_TL <- dir0_TL_dir0_TL_0_split_0
I1023 00:58:15.683948 13293 net.cpp:477] loss0_TL <- dir0_TL_label_data_1_split_0
I1023 00:58:15.683959 13293 net.cpp:433] loss0_TL -> loss0_TL
I1023 00:58:15.683974 13293 layer_factory.hpp:76] Creating layer loss0_TL
…
