layer {
  name: "data"
  type: "AttentionData"
  top: "data"
  top: "dir0_TL_label"
  top: "dir0_BR_label"
  top: "dir1_TL_label"
  top: "dir1_BR_label"
  top: "dir2_TL_label"
  top: "dir2_BR_label"
  top: "dir3_TL_label"
  top: "dir3_BR_label"
  top: "dir4_TL_label"
  top: "dir4_BR_label"
  top: "dir5_TL_label"
  top: "dir5_BR_label"
  top: "dir6_TL_label"
  top: "dir6_BR_label"
  top: "dir7_TL_label"
  top: "dir7_BR_label"
  top: "dir8_TL_label"
  top: "dir8_BR_label"
  top: "dir9_TL_label"
  top: "dir9_BR_label"
  top: "dir10_TL_label"
  top: "dir10_BR_label"
  top: "dir11_TL_label"
  top: "dir11_BR_label"
  top: "dir12_TL_label"
  top: "dir12_BR_label"
  top: "dir13_TL_label"
  top: "dir13_BR_label"
  top: "dir14_TL_label"
  top: "dir14_BR_label"
  top: "dir15_TL_label"
  top: "dir15_BR_label"
  top: "dir16_TL_label"
  top: "dir16_BR_label"
  top: "dir17_TL_label"
  top: "dir17_BR_label"
  top: "dir18_TL_label"
  top: "dir18_BR_label"
  top: "dir19_TL_label"
  top: "dir19_BR_label"
  top: "dir20_TL_label"
  top: "dir20_BR_label"
  top: "dir21_TL_label"
  top: "dir21_BR_label"
  top: "dir22_TL_label"
  top: "dir22_BR_label"
  top: "dir23_TL_label"
  top: "dir23_BR_label"
  top: "dir24_TL_label"
  top: "dir24_BR_label"
  top: "dir25_TL_label"
  top: "dir25_BR_label"
  top: "dir26_TL_label"
  top: "dir26_BR_label"
  top: "dir27_TL_label"
  top: "dir27_BR_label"
  top: "dir28_TL_label"
  top: "dir28_BR_label"
  top: "dir29_TL_label"
  top: "dir29_BR_label"
  top: "dir30_TL_label"
  top: "dir30_BR_label"
  top: "dir31_TL_label"
  top: "dir31_BR_label"
  top: "dir32_TL_label"
  top: "dir32_BR_label"
  top: "dir33_TL_label"
  top: "dir33_BR_label"
  top: "dir34_TL_label"
  top: "dir34_BR_label"
  top: "dir35_TL_label"
  top: "dir35_BR_label"
  top: "dir36_TL_label"
  top: "dir36_BR_label"
  top: "dir37_TL_label"
  top: "dir37_BR_label"
  top: "dir38_TL_label"
  top: "dir38_BR_label"
  top: "dir39_TL_label"
  top: "dir39_BR_label"
  top: "dir40_TL_label"
  top: "dir40_BR_label"
  top: "dir41_TL_label"
  top: "dir41_BR_label"
  top: "dir42_TL_label"
  top: "dir42_BR_label"
  top: "dir43_TL_label"
  top: "dir43_BR_label"
  top: "dir44_TL_label"
  top: "dir44_BR_label"
  top: "dir45_TL_label"
  top: "dir45_BR_label"
  top: "dir46_TL_label"
  top: "dir46_BR_label"
  top: "dir47_TL_label"
  top: "dir47_BR_label"
  top: "dir48_TL_label"
  top: "dir48_BR_label"
  top: "dir49_TL_label"
  top: "dir49_BR_label"
  top: "dir50_TL_label"
  top: "dir50_BR_label"
  top: "dir51_TL_label"
  top: "dir51_BR_label"
  top: "dir52_TL_label"
  top: "dir52_BR_label"
  top: "dir53_TL_label"
  top: "dir53_BR_label"
  top: "dir54_TL_label"
  top: "dir54_BR_label"
  top: "dir55_TL_label"
  top: "dir55_BR_label"
  top: "dir56_TL_label"
  top: "dir56_BR_label"
  top: "dir57_TL_label"
  top: "dir57_BR_label"
  top: "dir58_TL_label"
  top: "dir58_BR_label"
  top: "dir59_TL_label"
  top: "dir59_BR_label"
  top: "dir60_TL_label"
  top: "dir60_BR_label"
  top: "dir61_TL_label"
  top: "dir61_BR_label"
  top: "dir62_TL_label"
  top: "dir62_BR_label"
  top: "dir63_TL_label"
  top: "dir63_BR_label"
  top: "dir64_TL_label"
  top: "dir64_BR_label"
  top: "dir65_TL_label"
  top: "dir65_BR_label"
  top: "dir66_TL_label"
  top: "dir66_BR_label"
  top: "dir67_TL_label"
  top: "dir67_BR_label"
  top: "dir68_TL_label"
  top: "dir68_BR_label"
  top: "dir69_TL_label"
  top: "dir69_BR_label"
  top: "dir70_TL_label"
  top: "dir70_BR_label"
  top: "dir71_TL_label"
  top: "dir71_BR_label"
  top: "dir72_TL_label"
  top: "dir72_BR_label"
  top: "dir73_TL_label"
  top: "dir73_BR_label"
  top: "dir74_TL_label"
  top: "dir74_BR_label"
  top: "dir75_TL_label"
  top: "dir75_BR_label"
  top: "dir76_TL_label"
  top: "dir76_BR_label"
  top: "dir77_TL_label"
  top: "dir77_BR_label"
  top: "dir78_TL_label"
  top: "dir78_BR_label"
  top: "dir79_TL_label"
  top: "dir79_BR_label"
  top: "dir80_TL_label"
  top: "dir80_BR_label"
  top: "dir81_TL_label"
  top: "dir81_BR_label"
  top: "dir82_TL_label"
  top: "dir82_BR_label"
  top: "dir83_TL_label"
  top: "dir83_BR_label"
  top: "dir84_TL_label"
  top: "dir84_BR_label"
  top: "dir85_TL_label"
  top: "dir85_BR_label"
  top: "dir86_TL_label"
  top: "dir86_BR_label"
  top: "dir87_TL_label"
  top: "dir87_BR_label"
  top: "dir88_TL_label"
  top: "dir88_BR_label"
  top: "dir89_TL_label"
  top: "dir89_BR_label"
  top: "dir90_TL_label"
  top: "dir90_BR_label"
  top: "dir91_TL_label"
  top: "dir91_BR_label"
  top: "dir92_TL_label"
  top: "dir92_BR_label"
  top: "dir93_TL_label"
  top: "dir93_BR_label"
  top: "dir94_TL_label"
  top: "dir94_BR_label"
  top: "dir95_TL_label"
  top: "dir95_BR_label"
  top: "dir96_TL_label"
  top: "dir96_BR_label"
  top: "dir97_TL_label"
  top: "dir97_BR_label"
  top: "dir98_TL_label"
  top: "dir98_BR_label"
  top: "dir99_TL_label"
  top: "dir99_BR_label"
  top: "dir100_TL_label"
  top: "dir100_BR_label"
  top: "dir101_TL_label"
  top: "dir101_BR_label"
  top: "dir102_TL_label"
  top: "dir102_BR_label"
  top: "dir103_TL_label"
  top: "dir103_BR_label"
  top: "dir104_TL_label"
  top: "dir104_BR_label"
  top: "dir105_TL_label"
  top: "dir105_BR_label"
  top: "dir106_TL_label"
  top: "dir106_BR_label"
  top: "dir107_TL_label"
  top: "dir107_BR_label"
  top: "dir108_TL_label"
  top: "dir108_BR_label"
  top: "dir109_TL_label"
  top: "dir109_BR_label"
  top: "dir110_TL_label"
  top: "dir110_BR_label"
  top: "dir111_TL_label"
  top: "dir111_BR_label"
  top: "dir112_TL_label"
  top: "dir112_BR_label"
  top: "dir113_TL_label"
  top: "dir113_BR_label"
  top: "dir114_TL_label"
  top: "dir114_BR_label"
  top: "dir115_TL_label"
  top: "dir115_BR_label"
  top: "dir116_TL_label"
  top: "dir116_BR_label"
  top: "dir117_TL_label"
  top: "dir117_BR_label"
  top: "dir118_TL_label"
  top: "dir118_BR_label"
  top: "dir119_TL_label"
  top: "dir119_BR_label"
  top: "dir120_TL_label"
  top: "dir120_BR_label"
  top: "dir121_TL_label"
  top: "dir121_BR_label"
  top: "dir122_TL_label"
  top: "dir122_BR_label"
  top: "dir123_TL_label"
  top: "dir123_BR_label"
  top: "dir124_TL_label"
  top: "dir124_BR_label"
  top: "dir125_TL_label"
  top: "dir125_BR_label"
  top: "dir126_TL_label"
  top: "dir126_BR_label"
  top: "dir127_TL_label"
  top: "dir127_BR_label"
  top: "dir128_TL_label"
  top: "dir128_BR_label"
  top: "dir129_TL_label"
  top: "dir129_BR_label"
  top: "dir130_TL_label"
  top: "dir130_BR_label"
  top: "dir131_TL_label"
  top: "dir131_BR_label"
  top: "dir132_TL_label"
  top: "dir132_BR_label"
  top: "dir133_TL_label"
  top: "dir133_BR_label"
  top: "dir134_TL_label"
  top: "dir134_BR_label"
  top: "dir135_TL_label"
  top: "dir135_BR_label"
  top: "dir136_TL_label"
  top: "dir136_BR_label"
  top: "dir137_TL_label"
  top: "dir137_BR_label"
  top: "dir138_TL_label"
  top: "dir138_BR_label"
  top: "dir139_TL_label"
  top: "dir139_BR_label"
  top: "dir140_TL_label"
  top: "dir140_BR_label"
  top: "dir141_TL_label"
  top: "dir141_BR_label"
  top: "dir142_TL_label"
  top: "dir142_BR_label"
  top: "dir143_TL_label"
  top: "dir143_BR_label"
  top: "dir144_TL_label"
  top: "dir144_BR_label"
  top: "dir145_TL_label"
  top: "dir145_BR_label"
  top: "dir146_TL_label"
  top: "dir146_BR_label"
  top: "dir147_TL_label"
  top: "dir147_BR_label"
  top: "dir148_TL_label"
  top: "dir148_BR_label"
  top: "dir149_TL_label"
  top: "dir149_BR_label"
  top: "dir150_TL_label"
  top: "dir150_BR_label"
  top: "dir151_TL_label"
  top: "dir151_BR_label"
  top: "dir152_TL_label"
  top: "dir152_BR_label"
  top: "dir153_TL_label"
  top: "dir153_BR_label"
  top: "dir154_TL_label"
  top: "dir154_BR_label"
  top: "dir155_TL_label"
  top: "dir155_BR_label"
  top: "dir156_TL_label"
  top: "dir156_BR_label"
  top: "dir157_TL_label"
  top: "dir157_BR_label"
  top: "dir158_TL_label"
  top: "dir158_BR_label"
  top: "dir159_TL_label"
  top: "dir159_BR_label"
  top: "dir160_TL_label"
  top: "dir160_BR_label"
  top: "dir161_TL_label"
  top: "dir161_BR_label"
  top: "dir162_TL_label"
  top: "dir162_BR_label"
  top: "dir163_TL_label"
  top: "dir163_BR_label"
  top: "dir164_TL_label"
  top: "dir164_BR_label"
  top: "dir165_TL_label"
  top: "dir165_BR_label"
  top: "dir166_TL_label"
  top: "dir166_BR_label"
  top: "dir167_TL_label"
  top: "dir167_BR_label"
  top: "dir168_TL_label"
  top: "dir168_BR_label"
  top: "dir169_TL_label"
  top: "dir169_BR_label"
  top: "dir170_TL_label"
  top: "dir170_BR_label"
  top: "dir171_TL_label"
  top: "dir171_BR_label"
  top: "dir172_TL_label"
  top: "dir172_BR_label"
  top: "dir173_TL_label"
  top: "dir173_BR_label"
  top: "dir174_TL_label"
  top: "dir174_BR_label"
  top: "dir175_TL_label"
  top: "dir175_BR_label"
  top: "dir176_TL_label"
  top: "dir176_BR_label"
  top: "dir177_TL_label"
  top: "dir177_BR_label"
  top: "dir178_TL_label"
  top: "dir178_BR_label"
  top: "dir179_TL_label"
  top: "dir179_BR_label"
  top: "dir180_TL_label"
  top: "dir180_BR_label"
  top: "dir181_TL_label"
  top: "dir181_BR_label"
  top: "dir182_TL_label"
  top: "dir182_BR_label"
  top: "dir183_TL_label"
  top: "dir183_BR_label"
  top: "dir184_TL_label"
  top: "dir184_BR_label"
  top: "dir185_TL_label"
  top: "dir185_BR_label"
  top: "dir186_TL_label"
  top: "dir186_BR_label"
  top: "dir187_TL_label"
  top: "dir187_BR_label"
  top: "dir188_TL_label"
  top: "dir188_BR_label"
  top: "dir189_TL_label"
  top: "dir189_BR_label"
  top: "dir190_TL_label"
  top: "dir190_BR_label"
  top: "dir191_TL_label"
  top: "dir191_BR_label"
  top: "dir192_TL_label"
  top: "dir192_BR_label"
  top: "dir193_TL_label"
  top: "dir193_BR_label"
  top: "dir194_TL_label"
  top: "dir194_BR_label"
  top: "dir195_TL_label"
  top: "dir195_BR_label"
  top: "dir196_TL_label"
  top: "dir196_BR_label"
  top: "dir197_TL_label"
  top: "dir197_BR_label"
  top: "dir198_TL_label"
  top: "dir198_BR_label"
  top: "dir199_TL_label"
  top: "dir199_BR_label"
  top: "dir200_TL_label"
  top: "dir200_BR_label"
  top: "dir201_TL_label"
  top: "dir201_BR_label"
  top: "dir202_TL_label"
  top: "dir202_BR_label"
  top: "dir203_TL_label"
  top: "dir203_BR_label"
  top: "dir204_TL_label"
  top: "dir204_BR_label"
  top: "dir205_TL_label"
  top: "dir205_BR_label"
  top: "dir206_TL_label"
  top: "dir206_BR_label"
  top: "dir207_TL_label"
  top: "dir207_BR_label"
  top: "dir208_TL_label"
  top: "dir208_BR_label"
  top: "dir209_TL_label"
  top: "dir209_BR_label"
  top: "dir210_TL_label"
  top: "dir210_BR_label"
  top: "dir211_TL_label"
  top: "dir211_BR_label"
  top: "dir212_TL_label"
  top: "dir212_BR_label"
  top: "dir213_TL_label"
  top: "dir213_BR_label"
  top: "dir214_TL_label"
  top: "dir214_BR_label"
  top: "dir215_TL_label"
  top: "dir215_BR_label"
  top: "dir216_TL_label"
  top: "dir216_BR_label"
  top: "dir217_TL_label"
  top: "dir217_BR_label"
  top: "dir218_TL_label"
  top: "dir218_BR_label"
  top: "dir219_TL_label"
  top: "dir219_BR_label"
  top: "dir220_TL_label"
  top: "dir220_BR_label"
  top: "dir221_TL_label"
  top: "dir221_BR_label"
  top: "dir222_TL_label"
  top: "dir222_BR_label"
  top: "dir223_TL_label"
  top: "dir223_BR_label"
  top: "dir224_TL_label"
  top: "dir224_BR_label"
  top: "dir225_TL_label"
  top: "dir225_BR_label"
  top: "dir226_TL_label"
  top: "dir226_BR_label"
  top: "dir227_TL_label"
  top: "dir227_BR_label"
  top: "dir228_TL_label"
  top: "dir228_BR_label"
  top: "dir229_TL_label"
  top: "dir229_BR_label"
  top: "dir230_TL_label"
  top: "dir230_BR_label"
  top: "dir231_TL_label"
  top: "dir231_BR_label"
  top: "dir232_TL_label"
  top: "dir232_BR_label"
  top: "dir233_TL_label"
  top: "dir233_BR_label"
  top: "dir234_TL_label"
  top: "dir234_BR_label"
  top: "dir235_TL_label"
  top: "dir235_BR_label"
  top: "dir236_TL_label"
  top: "dir236_BR_label"
  top: "dir237_TL_label"
  top: "dir237_BR_label"
  top: "dir238_TL_label"
  top: "dir238_BR_label"
  top: "dir239_TL_label"
  top: "dir239_BR_label"
  top: "dir240_TL_label"
  top: "dir240_BR_label"
  top: "dir241_TL_label"
  top: "dir241_BR_label"
  top: "dir242_TL_label"
  top: "dir242_BR_label"
  top: "dir243_TL_label"
  top: "dir243_BR_label"
  top: "dir244_TL_label"
  top: "dir244_BR_label"
  top: "dir245_TL_label"
  top: "dir245_BR_label"
  top: "dir246_TL_label"
  top: "dir246_BR_label"
  top: "dir247_TL_label"
  top: "dir247_BR_label"
  top: "dir248_TL_label"
  top: "dir248_BR_label"
  top: "dir249_TL_label"
  top: "dir249_BR_label"
  top: "dir250_TL_label"
  top: "dir250_BR_label"
  top: "dir251_TL_label"
  top: "dir251_BR_label"
  top: "dir252_TL_label"
  top: "dir252_BR_label"
  top: "dir253_TL_label"
  top: "dir253_BR_label"
  top: "dir254_TL_label"
  top: "dir254_BR_label"
  top: "dir255_TL_label"
  top: "dir255_BR_label"
  top: "dir256_TL_label"
  top: "dir256_BR_label"
  top: "dir257_TL_label"
  top: "dir257_BR_label"
  top: "dir258_TL_label"
  top: "dir258_BR_label"
  top: "dir259_TL_label"
  top: "dir259_BR_label"
  top: "dir260_TL_label"
  top: "dir260_BR_label"
  top: "dir261_TL_label"
  top: "dir261_BR_label"
  top: "dir262_TL_label"
  top: "dir262_BR_label"
  top: "dir263_TL_label"
  top: "dir263_BR_label"
  top: "dir264_TL_label"
  top: "dir264_BR_label"
  top: "dir265_TL_label"
  top: "dir265_BR_label"
  top: "dir266_TL_label"
  top: "dir266_BR_label"
  top: "dir267_TL_label"
  top: "dir267_BR_label"
  top: "dir268_TL_label"
  top: "dir268_BR_label"
  top: "dir269_TL_label"
  top: "dir269_BR_label"
  top: "dir270_TL_label"
  top: "dir270_BR_label"
  top: "dir271_TL_label"
  top: "dir271_BR_label"
  top: "dir272_TL_label"
  top: "dir272_BR_label"
  top: "dir273_TL_label"
  top: "dir273_BR_label"
  top: "dir274_TL_label"
  top: "dir274_BR_label"
  top: "dir275_TL_label"
  top: "dir275_BR_label"
  top: "dir276_TL_label"
  top: "dir276_BR_label"
  top: "dir277_TL_label"
  top: "dir277_BR_label"
  top: "dir278_TL_label"
  top: "dir278_BR_label"
  top: "dir279_TL_label"
  top: "dir279_BR_label"
  top: "dir280_TL_label"
  top: "dir280_BR_label"
  top: "dir281_TL_label"
  top: "dir281_BR_label"
  top: "dir282_TL_label"
  top: "dir282_BR_label"
  top: "dir283_TL_label"
  top: "dir283_BR_label"
  top: "dir284_TL_label"
  top: "dir284_BR_label"
  top: "dir285_TL_label"
  top: "dir285_BR_label"
  top: "dir286_TL_label"
  top: "dir286_BR_label"
  top: "dir287_TL_label"
  top: "dir287_BR_label"
  top: "dir288_TL_label"
  top: "dir288_BR_label"
  top: "dir289_TL_label"
  top: "dir289_BR_label"
  top: "dir290_TL_label"
  top: "dir290_BR_label"
  top: "dir291_TL_label"
  top: "dir291_BR_label"
  top: "dir292_TL_label"
  top: "dir292_BR_label"
  top: "dir293_TL_label"
  top: "dir293_BR_label"
  top: "dir294_TL_label"
  top: "dir294_BR_label"
  top: "dir295_TL_label"
  top: "dir295_BR_label"
  top: "dir296_TL_label"
  top: "dir296_BR_label"
  top: "dir297_TL_label"
  top: "dir297_BR_label"
  top: "dir298_TL_label"
  top: "dir298_BR_label"
  top: "dir299_TL_label"
  top: "dir299_BR_label"
  top: "dir300_TL_label"
  top: "dir300_BR_label"
  top: "dir301_TL_label"
  top: "dir301_BR_label"
  top: "dir302_TL_label"
  top: "dir302_BR_label"
  top: "dir303_TL_label"
  top: "dir303_BR_label"
  top: "dir304_TL_label"
  top: "dir304_BR_label"
  top: "dir305_TL_label"
  top: "dir305_BR_label"
  top: "dir306_TL_label"
  top: "dir306_BR_label"
  top: "dir307_TL_label"
  top: "dir307_BR_label"
  top: "dir308_TL_label"
  top: "dir308_BR_label"
  top: "dir309_TL_label"
  top: "dir309_BR_label"
  top: "dir310_TL_label"
  top: "dir310_BR_label"
  top: "dir311_TL_label"
  top: "dir311_BR_label"
  top: "dir312_TL_label"
  top: "dir312_BR_label"
  top: "dir313_TL_label"
  top: "dir313_BR_label"
  top: "dir314_TL_label"
  top: "dir314_BR_label"
  top: "dir315_TL_label"
  top: "dir315_BR_label"
  top: "dir316_TL_label"
  top: "dir316_BR_label"
  top: "dir317_TL_label"
  top: "dir317_BR_label"
  top: "dir318_TL_label"
  top: "dir318_BR_label"
  top: "dir319_TL_label"
  top: "dir319_BR_label"
  top: "dir320_TL_label"
  top: "dir320_BR_label"
  top: "dir321_TL_label"
  top: "dir321_BR_label"
  top: "dir322_TL_label"
  top: "dir322_BR_label"
  top: "dir323_TL_label"
  top: "dir323_BR_label"
  top: "dir324_TL_label"
  top: "dir324_BR_label"
  top: "dir325_TL_label"
  top: "dir325_BR_label"
  top: "dir326_TL_label"
  top: "dir326_BR_label"
  top: "dir327_TL_label"
  top: "dir327_BR_label"
  top: "dir328_TL_label"
  top: "dir328_BR_label"
  top: "dir329_TL_label"
  top: "dir329_BR_label"
  top: "dir330_TL_label"
  top: "dir330_BR_label"
  top: "dir331_TL_label"
  top: "dir331_BR_label"
  top: "dir332_TL_label"
  top: "dir332_BR_label"
  top: "dir333_TL_label"
  top: "dir333_BR_label"
  top: "dir334_TL_label"
  top: "dir334_BR_label"
  top: "dir335_TL_label"
  top: "dir335_BR_label"
  top: "dir336_TL_label"
  top: "dir336_BR_label"
  top: "dir337_TL_label"
  top: "dir337_BR_label"
  top: "dir338_TL_label"
  top: "dir338_BR_label"
  top: "dir339_TL_label"
  top: "dir339_BR_label"
  top: "dir340_TL_label"
  top: "dir340_BR_label"
  top: "dir341_TL_label"
  top: "dir341_BR_label"
  top: "dir342_TL_label"
  top: "dir342_BR_label"
  top: "dir343_TL_label"
  top: "dir343_BR_label"
  top: "dir344_TL_label"
  top: "dir344_BR_label"
  top: "dir345_TL_label"
  top: "dir345_BR_label"
  top: "dir346_TL_label"
  top: "dir346_BR_label"
  top: "dir347_TL_label"
  top: "dir347_BR_label"
  top: "dir348_TL_label"
  top: "dir348_BR_label"
  top: "dir349_TL_label"
  top: "dir349_BR_label"
  top: "dir350_TL_label"
  top: "dir350_BR_label"
  top: "dir351_TL_label"
  top: "dir351_BR_label"
  top: "dir352_TL_label"
  top: "dir352_BR_label"
  top: "dir353_TL_label"
  top: "dir353_BR_label"
  top: "dir354_TL_label"
  top: "dir354_BR_label"
  top: "dir355_TL_label"
  top: "dir355_BR_label"
  top: "dir356_TL_label"
  top: "dir356_BR_label"
  top: "dir357_TL_label"
  top: "dir357_BR_label"
  top: "dir358_TL_label"
  top: "dir358_BR_label"
  top: "dir359_TL_label"
  top: "dir359_BR_label"
  top: "dir360_TL_label"
  top: "dir360_BR_label"
  top: "dir361_TL_label"
  top: "dir361_BR_label"
  top: "dir362_TL_label"
  top: "dir362_BR_label"
  top: "dir363_TL_label"
  top: "dir363_BR_label"
  top: "dir364_TL_label"
  top: "dir364_BR_label"
  top: "dir365_TL_label"
  top: "dir365_BR_label"
  top: "dir366_TL_label"
  top: "dir366_BR_label"
  top: "dir367_TL_label"
  top: "dir367_BR_label"
  top: "dir368_TL_label"
  top: "dir368_BR_label"
  top: "dir369_TL_label"
  top: "dir369_BR_label"
  top: "dir370_TL_label"
  top: "dir370_BR_label"
  top: "dir371_TL_label"
  top: "dir371_BR_label"
  top: "dir372_TL_label"
  top: "dir372_BR_label"
  top: "dir373_TL_label"
  top: "dir373_BR_label"
  top: "dir374_TL_label"
  top: "dir374_BR_label"
  top: "dir375_TL_label"
  top: "dir375_BR_label"
  top: "dir376_TL_label"
  top: "dir376_BR_label"
  top: "dir377_TL_label"
  top: "dir377_BR_label"
  top: "dir378_TL_label"
  top: "dir378_BR_label"
  top: "dir379_TL_label"
  top: "dir379_BR_label"
  top: "dir380_TL_label"
  top: "dir380_BR_label"
  top: "dir381_TL_label"
  top: "dir381_BR_label"
  top: "dir382_TL_label"
  top: "dir382_BR_label"
  top: "dir383_TL_label"
  top: "dir383_BR_label"
  top: "dir384_TL_label"
  top: "dir384_BR_label"
  top: "dir385_TL_label"
  top: "dir385_BR_label"
  top: "dir386_TL_label"
  top: "dir386_BR_label"
  top: "dir387_TL_label"
  top: "dir387_BR_label"
  top: "dir388_TL_label"
  top: "dir388_BR_label"
  top: "dir389_TL_label"
  top: "dir389_BR_label"
  top: "dir390_TL_label"
  top: "dir390_BR_label"
  top: "dir391_TL_label"
  top: "dir391_BR_label"
  top: "dir392_TL_label"
  top: "dir392_BR_label"
  top: "dir393_TL_label"
  top: "dir393_BR_label"
  top: "dir394_TL_label"
  top: "dir394_BR_label"
  top: "dir395_TL_label"
  top: "dir395_BR_label"
  top: "dir396_TL_label"
  top: "dir396_BR_label"
  top: "dir397_TL_label"
  top: "dir397_BR_label"
  top: "dir398_TL_label"
  top: "dir398_BR_label"
  top: "dir399_TL_label"
  top: "dir399_BR_label"
  top: "dir400_TL_label"
  top: "dir400_BR_label"
  top: "dir401_TL_label"
  top: "dir401_BR_label"
  top: "dir402_TL_label"
  top: "dir402_BR_label"
  top: "dir403_TL_label"
  top: "dir403_BR_label"
  top: "dir404_TL_label"
  top: "dir404_BR_label"
  top: "dir405_TL_label"
  top: "dir405_BR_label"
  top: "dir406_TL_label"
  top: "dir406_BR_label"
  top: "dir407_TL_label"
  top: "dir407_BR_label"
  top: "dir408_TL_label"
  top: "dir408_BR_label"
  top: "dir409_TL_label"
  top: "dir409_BR_label"
  top: "dir410_TL_label"
  top: "dir410_BR_label"
  top: "dir411_TL_label"
  top: "dir411_BR_label"
  top: "dir412_TL_label"
  top: "dir412_BR_label"
  top: "dir413_TL_label"
  top: "dir413_BR_label"
  top: "dir414_TL_label"
  top: "dir414_BR_label"
  top: "dir415_TL_label"
  top: "dir415_BR_label"
  top: "dir416_TL_label"
  top: "dir416_BR_label"
  top: "dir417_TL_label"
  top: "dir417_BR_label"
  top: "dir418_TL_label"
  top: "dir418_BR_label"
  top: "dir419_TL_label"
  top: "dir419_BR_label"
  top: "dir420_TL_label"
  top: "dir420_BR_label"
  top: "dir421_TL_label"
  top: "dir421_BR_label"
  top: "dir422_TL_label"
  top: "dir422_BR_label"
  top: "dir423_TL_label"
  top: "dir423_BR_label"
  top: "dir424_TL_label"
  top: "dir424_BR_label"
  top: "dir425_TL_label"
  top: "dir425_BR_label"
  top: "dir426_TL_label"
  top: "dir426_BR_label"
  top: "dir427_TL_label"
  top: "dir427_BR_label"
  top: "dir428_TL_label"
  top: "dir428_BR_label"
  top: "dir429_TL_label"
  top: "dir429_BR_label"
  top: "dir430_TL_label"
  top: "dir430_BR_label"
  top: "dir431_TL_label"
  top: "dir431_BR_label"
  top: "dir432_TL_label"
  top: "dir432_BR_label"
  top: "dir433_TL_label"
  top: "dir433_BR_label"
  top: "dir434_TL_label"
  top: "dir434_BR_label"
  top: "dir435_TL_label"
  top: "dir435_BR_label"
  top: "dir436_TL_label"
  top: "dir436_BR_label"
  top: "dir437_TL_label"
  top: "dir437_BR_label"
  top: "dir438_TL_label"
  top: "dir438_BR_label"
  top: "dir439_TL_label"
  top: "dir439_BR_label"
  top: "dir440_TL_label"
  top: "dir440_BR_label"
  top: "dir441_TL_label"
  top: "dir441_BR_label"
  top: "dir442_TL_label"
  top: "dir442_BR_label"
  top: "dir443_TL_label"
  top: "dir443_BR_label"
  top: "dir444_TL_label"
  top: "dir444_BR_label"
  top: "dir445_TL_label"
  top: "dir445_BR_label"
  top: "dir446_TL_label"
  top: "dir446_BR_label"
  top: "dir447_TL_label"
  top: "dir447_BR_label"
  top: "dir448_TL_label"
  top: "dir448_BR_label"
  top: "dir449_TL_label"
  top: "dir449_BR_label"
  top: "dir450_TL_label"
  top: "dir450_BR_label"
  top: "dir451_TL_label"
  top: "dir451_BR_label"
  top: "dir452_TL_label"
  top: "dir452_BR_label"
  top: "dir453_TL_label"
  top: "dir453_BR_label"
  top: "dir454_TL_label"
  top: "dir454_BR_label"
  top: "dir455_TL_label"
  top: "dir455_BR_label"
  top: "dir456_TL_label"
  top: "dir456_BR_label"
  top: "dir457_TL_label"
  top: "dir457_BR_label"
  top: "dir458_TL_label"
  top: "dir458_BR_label"
  top: "dir459_TL_label"
  top: "dir459_BR_label"
  top: "dir460_TL_label"
  top: "dir460_BR_label"
  top: "dir461_TL_label"
  top: "dir461_BR_label"
  top: "dir462_TL_label"
  top: "dir462_BR_label"
  top: "dir463_TL_label"
  top: "dir463_BR_label"
  top: "dir464_TL_label"
  top: "dir464_BR_label"
  top: "dir465_TL_label"
  top: "dir465_BR_label"
  top: "dir466_TL_label"
  top: "dir466_BR_label"
  top: "dir467_TL_label"
  top: "dir467_BR_label"
  top: "dir468_TL_label"
  top: "dir468_BR_label"
  top: "dir469_TL_label"
  top: "dir469_BR_label"
  top: "dir470_TL_label"
  top: "dir470_BR_label"
  top: "dir471_TL_label"
  top: "dir471_BR_label"
  top: "dir472_TL_label"
  top: "dir472_BR_label"
  top: "dir473_TL_label"
  top: "dir473_BR_label"
  top: "dir474_TL_label"
  top: "dir474_BR_label"
  top: "dir475_TL_label"
  top: "dir475_BR_label"
  top: "dir476_TL_label"
  top: "dir476_BR_label"
  top: "dir477_TL_label"
  top: "dir477_BR_label"
  top: "dir478_TL_label"
  top: "dir478_BR_label"
  top: "dir479_TL_label"
  top: "dir479_BR_label"
  top: "dir480_TL_label"
  top: "dir480_BR_label"
  top: "dir481_TL_label"
  top: "dir481_BR_label"
  top: "dir482_TL_label"
  top: "dir482_BR_label"
  top: "dir483_TL_label"
  top: "dir483_BR_label"
  top: "dir484_TL_label"
  top: "dir484_BR_label"
  top: "dir485_TL_label"
  top: "dir485_BR_label"
  top: "dir486_TL_label"
  top: "dir486_BR_label"
  top: "dir487_TL_label"
  top: "dir487_BR_label"
  top: "dir488_TL_label"
  top: "dir488_BR_label"
  top: "dir489_TL_label"
  top: "dir489_BR_label"
  top: "dir490_TL_label"
  top: "dir490_BR_label"
  top: "dir491_TL_label"
  top: "dir491_BR_label"
  top: "dir492_TL_label"
  top: "dir492_BR_label"
  top: "dir493_TL_label"
  top: "dir493_BR_label"
  top: "dir494_TL_label"
  top: "dir494_BR_label"
  top: "dir495_TL_label"
  top: "dir495_BR_label"
  top: "dir496_TL_label"
  top: "dir496_BR_label"
  top: "dir497_TL_label"
  top: "dir497_BR_label"
  top: "dir498_TL_label"
  top: "dir498_BR_label"
  top: "dir499_TL_label"
  top: "dir499_BR_label"
  top: "dir500_TL_label"
  top: "dir500_BR_label"
  top: "dir501_TL_label"
  top: "dir501_BR_label"
  top: "dir502_TL_label"
  top: "dir502_BR_label"
  top: "dir503_TL_label"
  top: "dir503_BR_label"
  top: "dir504_TL_label"
  top: "dir504_BR_label"
  top: "dir505_TL_label"
  top: "dir505_BR_label"
  top: "dir506_TL_label"
  top: "dir506_BR_label"
  top: "dir507_TL_label"
  top: "dir507_BR_label"
  top: "dir508_TL_label"
  top: "dir508_BR_label"
  top: "dir509_TL_label"
  top: "dir509_BR_label"
  top: "dir510_TL_label"
  top: "dir510_BR_label"
  top: "dir511_TL_label"
  top: "dir511_BR_label"
  top: "dir512_TL_label"
  top: "dir512_BR_label"
  top: "dir513_TL_label"
  top: "dir513_BR_label"
  top: "dir514_TL_label"
  top: "dir514_BR_label"
  top: "dir515_TL_label"
  top: "dir515_BR_label"
  top: "dir516_TL_label"
  top: "dir516_BR_label"
  top: "dir517_TL_label"
  top: "dir517_BR_label"
  top: "dir518_TL_label"
  top: "dir518_BR_label"
  top: "dir519_TL_label"
  top: "dir519_BR_label"
  top: "dir520_TL_label"
  top: "dir520_BR_label"
  top: "dir521_TL_label"
  top: "dir521_BR_label"
  top: "dir522_TL_label"
  top: "dir522_BR_label"
  top: "dir523_TL_label"
  top: "dir523_BR_label"
  top: "dir524_TL_label"
  top: "dir524_BR_label"
  top: "dir525_TL_label"
  top: "dir525_BR_label"
  top: "dir526_TL_label"
  top: "dir526_BR_label"
  top: "dir527_TL_label"
  top: "dir527_BR_label"
  top: "dir528_TL_label"
  top: "dir528_BR_label"
  top: "dir529_TL_label"
  top: "dir529_BR_label"
  top: "dir530_TL_label"
  top: "dir530_BR_label"
  top: "dir531_TL_label"
  top: "dir531_BR_label"
  top: "dir532_TL_label"
  top: "dir532_BR_label"
  top: "dir533_TL_label"
  top: "dir533_BR_label"
  top: "dir534_TL_label"
  top: "dir534_BR_label"
  top: "dir535_TL_label"
  top: "dir535_BR_label"
  top: "dir536_TL_label"
  top: "dir536_BR_label"
  top: "dir537_TL_label"
  top: "dir537_BR_label"
  top: "dir538_TL_label"
  top: "dir538_BR_label"
  top: "dir539_TL_label"
  top: "dir539_BR_label"
  top: "dir540_TL_label"
  top: "dir540_BR_label"
  top: "dir541_TL_label"
  top: "dir541_BR_label"
  top: "dir542_TL_label"
  top: "dir542_BR_label"
  top: "dir543_TL_label"
  top: "dir543_BR_label"
  top: "dir544_TL_label"
  top: "dir544_BR_label"
  top: "dir545_TL_label"
  top: "dir545_BR_label"
  top: "dir546_TL_label"
  top: "dir546_BR_label"
  top: "dir547_TL_label"
  top: "dir547_BR_label"
  top: "dir548_TL_label"
  top: "dir548_BR_label"
  top: "dir549_TL_label"
  top: "dir549_BR_label"
  top: "dir550_TL_label"
  top: "dir550_BR_label"
  top: "dir551_TL_label"
  top: "dir551_BR_label"
  top: "dir552_TL_label"
  top: "dir552_BR_label"
  top: "dir553_TL_label"
  top: "dir553_BR_label"
  top: "dir554_TL_label"
  top: "dir554_BR_label"
  top: "dir555_TL_label"
  top: "dir555_BR_label"
  top: "dir556_TL_label"
  top: "dir556_BR_label"
  top: "dir557_TL_label"
  top: "dir557_BR_label"
  top: "dir558_TL_label"
  top: "dir558_BR_label"
  top: "dir559_TL_label"
  top: "dir559_BR_label"
  top: "dir560_TL_label"
  top: "dir560_BR_label"
  top: "dir561_TL_label"
  top: "dir561_BR_label"
  top: "dir562_TL_label"
  top: "dir562_BR_label"
  top: "dir563_TL_label"
  top: "dir563_BR_label"
  top: "dir564_TL_label"
  top: "dir564_BR_label"
  top: "dir565_TL_label"
  top: "dir565_BR_label"
  top: "dir566_TL_label"
  top: "dir566_BR_label"
  top: "dir567_TL_label"
  top: "dir567_BR_label"
  top: "dir568_TL_label"
  top: "dir568_BR_label"
  top: "dir569_TL_label"
  top: "dir569_BR_label"
  top: "dir570_TL_label"
  top: "dir570_BR_label"
  top: "dir571_TL_label"
  top: "dir571_BR_label"
  top: "dir572_TL_label"
  top: "dir572_BR_label"
  top: "dir573_TL_label"
  top: "dir573_BR_label"
  top: "dir574_TL_label"
  top: "dir574_BR_label"
  top: "dir575_TL_label"
  top: "dir575_BR_label"
  top: "dir576_TL_label"
  top: "dir576_BR_label"
  top: "dir577_TL_label"
  top: "dir577_BR_label"
  top: "dir578_TL_label"
  top: "dir578_BR_label"
  top: "dir579_TL_label"
  top: "dir579_BR_label"
  top: "dir580_TL_label"
  top: "dir580_BR_label"
  top: "dir581_TL_label"
  top: "dir581_BR_label"
  top: "dir582_TL_label"
  top: "dir582_BR_label"
  top: "dir583_TL_label"
  top: "dir583_BR_label"
  top: "dir584_TL_label"
  top: "dir584_BR_label"
  top: "dir585_TL_label"
  top: "dir585_BR_label"
  top: "dir586_TL_label"
  top: "dir586_BR_label"
  top: "dir587_TL_label"
  top: "dir587_BR_label"
  top: "dir588_TL_label"
  top: "dir588_BR_label"
  top: "dir589_TL_label"
  top: "dir589_BR_label"
  top: "dir590_TL_label"
  top: "dir590_BR_label"
  top: "dir591_TL_label"
  top: "dir591_BR_label"
  top: "dir592_TL_label"
  top: "dir592_BR_label"
  top: "dir593_TL_label"
  top: "dir593_BR_label"
  top: "dir594_TL_label"
  top: "dir594_BR_label"
  top: "dir595_TL_label"
  top: "dir595_BR_label"
  top: "dir596_TL_label"
  top: "dir596_BR_label"
  top: "dir597_TL_label"
  top: "dir597_BR_label"
  top: "dir598_TL_label"
  top: "dir598_BR_label"
  top: "dir599_TL_label"
  top: "dir599_BR_label"
  top: "dir600_TL_label"
  top: "dir600_BR_label"
  top: "dir601_TL_label"
  top: "dir601_BR_label"
  top: "dir602_TL_label"
  top: "dir602_BR_label"
  top: "dir603_TL_label"
  top: "dir603_BR_label"
  top: "dir604_TL_label"
  top: "dir604_BR_label"
  top: "dir605_TL_label"
  top: "dir605_BR_label"
  top: "dir606_TL_label"
  top: "dir606_BR_label"
  top: "dir607_TL_label"
  top: "dir607_BR_label"
  top: "dir608_TL_label"
  top: "dir608_BR_label"
  top: "dir609_TL_label"
  top: "dir609_BR_label"
  top: "dir610_TL_label"
  top: "dir610_BR_label"
  top: "dir611_TL_label"
  top: "dir611_BR_label"
  top: "dir612_TL_label"
  top: "dir612_BR_label"
  top: "dir613_TL_label"
  top: "dir613_BR_label"
  top: "dir614_TL_label"
  top: "dir614_BR_label"
  top: "dir615_TL_label"
  top: "dir615_BR_label"
  top: "dir616_TL_label"
  top: "dir616_BR_label"
  top: "dir617_TL_label"
  top: "dir617_BR_label"
  top: "dir618_TL_label"
  top: "dir618_BR_label"
  top: "dir619_TL_label"
  top: "dir619_BR_label"
  top: "dir620_TL_label"
  top: "dir620_BR_label"
  top: "dir621_TL_label"
  top: "dir621_BR_label"
  top: "dir622_TL_label"
  top: "dir622_BR_label"
  top: "dir623_TL_label"
  top: "dir623_BR_label"
  top: "dir624_TL_label"
  top: "dir624_BR_label"
  top: "dir625_TL_label"
  top: "dir625_BR_label"
  top: "dir626_TL_label"
  top: "dir626_BR_label"
  top: "dir627_TL_label"
  top: "dir627_BR_label"
  top: "dir628_TL_label"
  top: "dir628_BR_label"
  top: "dir629_TL_label"
  top: "dir629_BR_label"
  top: "dir630_TL_label"
  top: "dir630_BR_label"
  top: "dir631_TL_label"
  top: "dir631_BR_label"
  top: "dir632_TL_label"
  top: "dir632_BR_label"
  top: "dir633_TL_label"
  top: "dir633_BR_label"
  top: "dir634_TL_label"
  top: "dir634_BR_label"
  top: "dir635_TL_label"
  top: "dir635_BR_label"
  top: "dir636_TL_label"
  top: "dir636_BR_label"
  top: "dir637_TL_label"
  top: "dir637_BR_label"
  top: "dir638_TL_label"
  top: "dir638_BR_label"
  top: "dir639_TL_label"
  top: "dir639_BR_label"
  top: "dir640_TL_label"
  top: "dir640_BR_label"
  top: "dir641_TL_label"
  top: "dir641_BR_label"
  top: "dir642_TL_label"
  top: "dir642_BR_label"
  top: "dir643_TL_label"
  top: "dir643_BR_label"
  top: "dir644_TL_label"
  top: "dir644_BR_label"
  top: "dir645_TL_label"
  top: "dir645_BR_label"
  top: "dir646_TL_label"
  top: "dir646_BR_label"
  top: "dir647_TL_label"
  top: "dir647_BR_label"
  top: "dir648_TL_label"
  top: "dir648_BR_label"
  top: "dir649_TL_label"
  top: "dir649_BR_label"
  top: "dir650_TL_label"
  top: "dir650_BR_label"
  top: "dir651_TL_label"
  top: "dir651_BR_label"
  top: "dir652_TL_label"
  top: "dir652_BR_label"
  top: "dir653_TL_label"
  top: "dir653_BR_label"
  top: "dir654_TL_label"
  top: "dir654_BR_label"
  top: "dir655_TL_label"
  top: "dir655_BR_label"
  top: "dir656_TL_label"
  top: "dir656_BR_label"
  top: "dir657_TL_label"
  top: "dir657_BR_label"
  top: "dir658_TL_label"
  top: "dir658_BR_label"
  top: "dir659_TL_label"
  top: "dir659_BR_label"
  top: "dir660_TL_label"
  top: "dir660_BR_label"
  top: "dir661_TL_label"
  top: "dir661_BR_label"
  top: "dir662_TL_label"
  top: "dir662_BR_label"
  top: "dir663_TL_label"
  top: "dir663_BR_label"
  top: "dir664_TL_label"
  top: "dir664_BR_label"
  top: "dir665_TL_label"
  top: "dir665_BR_label"
  top: "dir666_TL_label"
  top: "dir666_BR_label"
  top: "dir667_TL_label"
  top: "dir667_BR_label"
  top: "dir668_TL_label"
  top: "dir668_BR_label"
  top: "dir669_TL_label"
  top: "dir669_BR_label"
  top: "dir670_TL_label"
  top: "dir670_BR_label"
  top: "dir671_TL_label"
  top: "dir671_BR_label"
  top: "dir672_TL_label"
  top: "dir672_BR_label"
  top: "dir673_TL_label"
  top: "dir673_BR_label"
  top: "dir674_TL_label"
  top: "dir674_BR_label"
  top: "dir675_TL_label"
  top: "dir675_BR_label"
  top: "dir676_TL_label"
  top: "dir676_BR_label"
  top: "dir677_TL_label"
  top: "dir677_BR_label"
  top: "dir678_TL_label"
  top: "dir678_BR_label"
  top: "dir679_TL_label"
  top: "dir679_BR_label"
  top: "dir680_TL_label"
  top: "dir680_BR_label"
  top: "dir681_TL_label"
  top: "dir681_BR_label"
  top: "dir682_TL_label"
  top: "dir682_BR_label"
  top: "dir683_TL_label"
  top: "dir683_BR_label"
  top: "dir684_TL_label"
  top: "dir684_BR_label"
  top: "dir685_TL_label"
  top: "dir685_BR_label"
  top: "dir686_TL_label"
  top: "dir686_BR_label"
  top: "dir687_TL_label"
  top: "dir687_BR_label"
  top: "dir688_TL_label"
  top: "dir688_BR_label"
  top: "dir689_TL_label"
  top: "dir689_BR_label"
  top: "dir690_TL_label"
  top: "dir690_BR_label"
  top: "dir691_TL_label"
  top: "dir691_BR_label"
  top: "dir692_TL_label"
  top: "dir692_BR_label"
  top: "dir693_TL_label"
  top: "dir693_BR_label"
  top: "dir694_TL_label"
  top: "dir694_BR_label"
  top: "dir695_TL_label"
  top: "dir695_BR_label"
  top: "dir696_TL_label"
  top: "dir696_BR_label"
  top: "dir697_TL_label"
  top: "dir697_BR_label"
  top: "dir698_TL_label"
  top: "dir698_BR_label"
  top: "dir699_TL_label"
  top: "dir699_BR_label"
  top: "dir700_TL_label"
  top: "dir700_BR_label"
  top: "dir701_TL_label"
  top: "dir701_BR_label"
  top: "dir702_TL_label"
  top: "dir702_BR_label"
  top: "dir703_TL_label"
  top: "dir703_BR_label"
  top: "dir704_TL_label"
  top: "dir704_BR_label"
  top: "dir705_TL_label"
  top: "dir705_BR_label"
  top: "dir706_TL_label"
  top: "dir706_BR_label"
  top: "dir707_TL_label"
  top: "dir707_BR_label"
  top: "dir708_TL_label"
  top: "dir708_BR_label"
  top: "dir709_TL_label"
  top: "dir709_BR_label"
  top: "dir710_TL_label"
  top: "dir710_BR_label"
  top: "dir711_TL_label"
  top: "dir711_BR_label"
  top: "dir712_TL_label"
  top: "dir712_BR_label"
  top: "dir713_TL_label"
  top: "dir713_BR_label"
  top: "dir714_TL_label"
  top: "dir714_BR_label"
  top: "dir715_TL_label"
  top: "dir715_BR_label"
  top: "dir716_TL_label"
  top: "dir716_BR_label"
  top: "dir717_TL_label"
  top: "dir717_BR_label"
  top: "dir718_TL_label"
  top: "dir718_BR_label"
  top: "dir719_TL_label"
  top: "dir719_BR_label"
  top: "dir720_TL_label"
  top: "dir720_BR_label"
  top: "dir721_TL_label"
  top: "dir721_BR_label"
  top: "dir722_TL_label"
  top: "dir722_BR_label"
  top: "dir723_TL_label"
  top: "dir723_BR_label"
  top: "dir724_TL_label"
  top: "dir724_BR_label"
  top: "dir725_TL_label"
  top: "dir725_BR_label"
  top: "dir726_TL_label"
  top: "dir726_BR_label"
  top: "dir727_TL_label"
  top: "dir727_BR_label"
  top: "dir728_TL_label"
  top: "dir728_BR_label"
  top: "dir729_TL_label"
  top: "dir729_BR_label"
  top: "dir730_TL_label"
  top: "dir730_BR_label"
  top: "dir731_TL_label"
  top: "dir731_BR_label"
  top: "dir732_TL_label"
  top: "dir732_BR_label"
  top: "dir733_TL_label"
  top: "dir733_BR_label"
  top: "dir734_TL_label"
  top: "dir734_BR_label"
  top: "dir735_TL_label"
  top: "dir735_BR_label"
  top: "dir736_TL_label"
  top: "dir736_BR_label"
  top: "dir737_TL_label"
  top: "dir737_BR_label"
  top: "dir738_TL_label"
  top: "dir738_BR_label"
  top: "dir739_TL_label"
  top: "dir739_BR_label"
  top: "dir740_TL_label"
  top: "dir740_BR_label"
  top: "dir741_TL_label"
  top: "dir741_BR_label"
  top: "dir742_TL_label"
  top: "dir742_BR_label"
  top: "dir743_TL_label"
  top: "dir743_BR_label"
  top: "dir744_TL_label"
  top: "dir744_BR_label"
  top: "dir745_TL_label"
  top: "dir745_BR_label"
  top: "dir746_TL_label"
  top: "dir746_BR_label"
  top: "dir747_TL_label"
  top: "dir747_BR_label"
  top: "dir748_TL_label"
  top: "dir748_BR_label"
  top: "dir749_TL_label"
  top: "dir749_BR_label"
  top: "dir750_TL_label"
  top: "dir750_BR_label"
  top: "dir751_TL_label"
  top: "dir751_BR_label"
  top: "dir752_TL_label"
  top: "dir752_BR_label"
  top: "dir753_TL_label"
  top: "dir753_BR_label"
  top: "dir754_TL_label"
  top: "dir754_BR_label"
  top: "dir755_TL_label"
  top: "dir755_BR_label"
  top: "dir756_TL_label"
  top: "dir756_BR_label"
  top: "dir757_TL_label"
  top: "dir757_BR_label"
  top: "dir758_TL_label"
  top: "dir758_BR_label"
  top: "dir759_TL_label"
  top: "dir759_BR_label"
  top: "dir760_TL_label"
  top: "dir760_BR_label"
  top: "dir761_TL_label"
  top: "dir761_BR_label"
  top: "dir762_TL_label"
  top: "dir762_BR_label"
  top: "dir763_TL_label"
  top: "dir763_BR_label"
  top: "dir764_TL_label"
  top: "dir764_BR_label"
  top: "dir765_TL_label"
  top: "dir765_BR_label"
  top: "dir766_TL_label"
  top: "dir766_BR_label"
  top: "dir767_TL_label"
  top: "dir767_BR_label"
  top: "dir768_TL_label"
  top: "dir768_BR_label"
  top: "dir769_TL_label"
  top: "dir769_BR_label"
  top: "dir770_TL_label"
  top: "dir770_BR_label"
  top: "dir771_TL_label"
  top: "dir771_BR_label"
  top: "dir772_TL_label"
  top: "dir772_BR_label"
  top: "dir773_TL_label"
  top: "dir773_BR_label"
  top: "dir774_TL_label"
  top: "dir774_BR_label"
  top: "dir775_TL_label"
  top: "dir775_BR_label"
  top: "dir776_TL_label"
  top: "dir776_BR_label"
  top: "dir777_TL_label"
  top: "dir777_BR_label"
  top: "dir778_TL_label"
  top: "dir778_BR_label"
  top: "dir779_TL_label"
  top: "dir779_BR_label"
  top: "dir780_TL_label"
  top: "dir780_BR_label"
  top: "dir781_TL_label"
  top: "dir781_BR_label"
  top: "dir782_TL_label"
  top: "dir782_BR_label"
  top: "dir783_TL_label"
  top: "dir783_BR_label"
  top: "dir784_TL_label"
  top: "dir784_BR_label"
  top: "dir785_TL_label"
  top: "dir785_BR_label"
  top: "dir786_TL_label"
  top: "dir786_BR_label"
  top: "dir787_TL_label"
  top: "dir787_BR_label"
  top: "dir788_TL_label"
  top: "dir788_BR_label"
  top: "dir789_TL_label"
  top: "dir789_BR_label"
  top: "dir790_TL_label"
  top: "dir790_BR_label"
  top: "dir791_TL_label"
  top: "dir791_BR_label"
  top: "dir792_TL_label"
  top: "dir792_BR_label"
  top: "dir793_TL_label"
  top: "dir793_BR_label"
  top: "dir794_TL_label"
  top: "dir794_BR_label"
  top: "dir795_TL_label"
  top: "dir795_BR_label"
  top: "dir796_TL_label"
  top: "dir796_BR_label"
  top: "dir797_TL_label"
  top: "dir797_BR_label"
  top: "dir798_TL_label"
  top: "dir798_BR_label"
  top: "dir799_TL_label"
  top: "dir799_BR_label"
  top: "dir800_TL_label"
  top: "dir800_BR_label"
  top: "dir801_TL_label"
  top: "dir801_BR_label"
  top: "dir802_TL_label"
  top: "dir802_BR_label"
  top: "dir803_TL_label"
  top: "dir803_BR_label"
  top: "dir804_TL_label"
  top: "dir804_BR_label"
  top: "dir805_TL_label"
  top: "dir805_BR_label"
  top: "dir806_TL_label"
  top: "dir806_BR_label"
  top: "dir807_TL_label"
  top: "dir807_BR_label"
  top: "dir808_TL_label"
  top: "dir808_BR_label"
  top: "dir809_TL_label"
  top: "dir809_BR_label"
  top: "dir810_TL_label"
  top: "dir810_BR_label"
  top: "dir811_TL_label"
  top: "dir811_BR_label"
  top: "dir812_TL_label"
  top: "dir812_BR_label"
  top: "dir813_TL_label"
  top: "dir813_BR_label"
  top: "dir814_TL_label"
  top: "dir814_BR_label"
  top: "dir815_TL_label"
  top: "dir815_BR_label"
  top: "dir816_TL_label"
  top: "dir816_BR_label"
  top: "dir817_TL_label"
  top: "dir817_BR_label"
  top: "dir818_TL_label"
  top: "dir818_BR_label"
  top: "dir819_TL_label"
  top: "dir819_BR_label"
  top: "dir820_TL_label"
  top: "dir820_BR_label"
  top: "dir821_TL_label"
  top: "dir821_BR_label"
  top: "dir822_TL_label"
  top: "dir822_BR_label"
  top: "dir823_TL_label"
  top: "dir823_BR_label"
  top: "dir824_TL_label"
  top: "dir824_BR_label"
  top: "dir825_TL_label"
  top: "dir825_BR_label"
  top: "dir826_TL_label"
  top: "dir826_BR_label"
  top: "dir827_TL_label"
  top: "dir827_BR_label"
  top: "dir828_TL_label"
  top: "dir828_BR_label"
  top: "dir829_TL_label"
  top: "dir829_BR_label"
  top: "dir830_TL_label"
  top: "dir830_BR_label"
  top: "dir831_TL_label"
  top: "dir831_BR_label"
  top: "dir832_TL_label"
  top: "dir832_BR_label"
  top: "dir833_TL_label"
  top: "dir833_BR_label"
  top: "dir834_TL_label"
  top: "dir834_BR_label"
  top: "dir835_TL_label"
  top: "dir835_BR_label"
  top: "dir836_TL_label"
  top: "dir836_BR_label"
  top: "dir837_TL_label"
  top: "dir837_BR_label"
  top: "dir838_TL_label"
  top: "dir838_BR_label"
  top: "dir839_TL_label"
  top: "dir839_BR_label"
  top: "dir840_TL_label"
  top: "dir840_BR_label"
  top: "dir841_TL_label"
  top: "dir841_BR_label"
  top: "dir842_TL_label"
  top: "dir842_BR_label"
  top: "dir843_TL_label"
  top: "dir843_BR_label"
  top: "dir844_TL_label"
  top: "dir844_BR_label"
  top: "dir845_TL_label"
  top: "dir845_BR_label"
  top: "dir846_TL_label"
  top: "dir846_BR_label"
  top: "dir847_TL_label"
  top: "dir847_BR_label"
  top: "dir848_TL_label"
  top: "dir848_BR_label"
  top: "dir849_TL_label"
  top: "dir849_BR_label"
  top: "dir850_TL_label"
  top: "dir850_BR_label"
  top: "dir851_TL_label"
  top: "dir851_BR_label"
  top: "dir852_TL_label"
  top: "dir852_BR_label"
  top: "dir853_TL_label"
  top: "dir853_BR_label"
  top: "dir854_TL_label"
  top: "dir854_BR_label"
  top: "dir855_TL_label"
  top: "dir855_BR_label"
  top: "dir856_TL_label"
  top: "dir856_BR_label"
  top: "dir857_TL_label"
  top: "dir857_BR_label"
  top: "dir858_TL_label"
  top: "dir858_BR_label"
  top: "dir859_TL_label"
  top: "dir859_BR_label"
  top: "dir860_TL_label"
  top: "dir860_BR_label"
  top: "dir861_TL_label"
  top: "dir861_BR_label"
  top: "dir862_TL_label"
  top: "dir862_BR_label"
  top: "dir863_TL_label"
  top: "dir863_BR_label"
  top: "dir864_TL_label"
  top: "dir864_BR_label"
  top: "dir865_TL_label"
  top: "dir865_BR_label"
  top: "dir866_TL_label"
  top: "dir866_BR_label"
  top: "dir867_TL_label"
  top: "dir867_BR_label"
  top: "dir868_TL_label"
  top: "dir868_BR_label"
  top: "dir869_TL_label"
  top: "dir869_BR_label"
  top: "dir870_TL_label"
  top: "dir870_BR_label"
  top: "dir871_TL_label"
  top: "dir871_BR_label"
  top: "dir872_TL_label"
  top: "dir872_BR_label"
  top: "dir873_TL_label"
  top: "dir873_BR_label"
  top: "dir874_TL_label"
  top: "dir874_BR_label"
  top: "dir875_TL_label"
  top: "dir875_BR_label"
  top: "dir876_TL_label"
  top: "dir876_BR_label"
  top: "dir877_TL_label"
  top: "dir877_BR_label"
  top: "dir878_TL_label"
  top: "dir878_BR_label"
  top: "dir879_TL_label"
  top: "dir879_BR_label"
  top: "dir880_TL_label"
  top: "dir880_BR_label"
  top: "dir881_TL_label"
  top: "dir881_BR_label"
  top: "dir882_TL_label"
  top: "dir882_BR_label"
  top: "dir883_TL_label"
  top: "dir883_BR_label"
  top: "dir884_TL_label"
  top: "dir884_BR_label"
  top: "dir885_TL_label"
  top: "dir885_BR_label"
  top: "dir886_TL_label"
  top: "dir886_BR_label"
  top: "dir887_TL_label"
  top: "dir887_BR_label"
  top: "dir888_TL_label"
  top: "dir888_BR_label"
  top: "dir889_TL_label"
  top: "dir889_BR_label"
  top: "dir890_TL_label"
  top: "dir890_BR_label"
  top: "dir891_TL_label"
  top: "dir891_BR_label"
  top: "dir892_TL_label"
  top: "dir892_BR_label"
  top: "dir893_TL_label"
  top: "dir893_BR_label"
  top: "dir894_TL_label"
  top: "dir894_BR_label"
  top: "dir895_TL_label"
  top: "dir895_BR_label"
  top: "dir896_TL_label"
  top: "dir896_BR_label"
  top: "dir897_TL_label"
  top: "dir897_BR_label"
  top: "dir898_TL_label"
  top: "dir898_BR_label"
  top: "dir899_TL_label"
  top: "dir899_BR_label"
  top: "dir900_TL_label"
  top: "dir900_BR_label"
  top: "dir901_TL_label"
  top: "dir901_BR_label"
  top: "dir902_TL_label"
  top: "dir902_BR_label"
  top: "dir903_TL_label"
  top: "dir903_BR_label"
  top: "dir904_TL_label"
  top: "dir904_BR_label"
  top: "dir905_TL_label"
  top: "dir905_BR_label"
  top: "dir906_TL_label"
  top: "dir906_BR_label"
  top: "dir907_TL_label"
  top: "dir907_BR_label"
  top: "dir908_TL_label"
  top: "dir908_BR_label"
  top: "dir909_TL_label"
  top: "dir909_BR_label"
  top: "dir910_TL_label"
  top: "dir910_BR_label"
  top: "dir911_TL_label"
  top: "dir911_BR_label"
  top: "dir912_TL_label"
  top: "dir912_BR_label"
  top: "dir913_TL_label"
  top: "dir913_BR_label"
  top: "dir914_TL_label"
  top: "dir914_BR_label"
  top: "dir915_TL_label"
  top: "dir915_BR_label"
  top: "dir916_TL_label"
  top: "dir916_BR_label"
  top: "dir917_TL_label"
  top: "dir917_BR_label"
  top: "dir918_TL_label"
  top: "dir918_BR_label"
  top: "dir919_TL_label"
  top: "dir919_BR_label"
  top: "dir920_TL_label"
  top: "dir920_BR_label"
  top: "dir921_TL_label"
  top: "dir921_BR_label"
  top: "dir922_TL_label"
  top: "dir922_BR_label"
  top: "dir923_TL_label"
  top: "dir923_BR_label"
  top: "dir924_TL_label"
  top: "dir924_BR_label"
  top: "dir925_TL_label"
  top: "dir925_BR_label"
  top: "dir926_TL_label"
  top: "dir926_BR_label"
  top: "dir927_TL_label"
  top: "dir927_BR_label"
  top: "dir928_TL_label"
  top: "dir928_BR_label"
  top: "dir929_TL_label"
  top: "dir929_BR_label"
  top: "dir930_TL_label"
  top: "dir930_BR_label"
  top: "dir931_TL_label"
  top: "dir931_BR_label"
  top: "dir932_TL_label"
  top: "dir932_BR_label"
  top: "dir933_TL_label"
  top: "dir933_BR_label"
  top: "dir934_TL_label"
  top: "dir934_BR_label"
  top: "dir935_TL_label"
  top: "dir935_BR_label"
  top: "dir936_TL_label"
  top: "dir936_BR_label"
  top: "dir937_TL_label"
  top: "dir937_BR_label"
  top: "dir938_TL_label"
  top: "dir938_BR_label"
  top: "dir939_TL_label"
  top: "dir939_BR_label"
  top: "dir940_TL_label"
  top: "dir940_BR_label"
  top: "dir941_TL_label"
  top: "dir941_BR_label"
  top: "dir942_TL_label"
  top: "dir942_BR_label"
  top: "dir943_TL_label"
  top: "dir943_BR_label"
  top: "dir944_TL_label"
  top: "dir944_BR_label"
  top: "dir945_TL_label"
  top: "dir945_BR_label"
  top: "dir946_TL_label"
  top: "dir946_BR_label"
  top: "dir947_TL_label"
  top: "dir947_BR_label"
  top: "dir948_TL_label"
  top: "dir948_BR_label"
  top: "dir949_TL_label"
  top: "dir949_BR_label"
  top: "dir950_TL_label"
  top: "dir950_BR_label"
  top: "dir951_TL_label"
  top: "dir951_BR_label"
  top: "dir952_TL_label"
  top: "dir952_BR_label"
  top: "dir953_TL_label"
  top: "dir953_BR_label"
  top: "dir954_TL_label"
  top: "dir954_BR_label"
  top: "dir955_TL_label"
  top: "dir955_BR_label"
  top: "dir956_TL_label"
  top: "dir956_BR_label"
  top: "dir957_TL_label"
  top: "dir957_BR_label"
  top: "dir958_TL_label"
  top: "dir958_BR_label"
  top: "dir959_TL_label"
  top: "dir959_BR_label"
  top: "dir960_TL_label"
  top: "dir960_BR_label"
  top: "dir961_TL_label"
  top: "dir961_BR_label"
  top: "dir962_TL_label"
  top: "dir962_BR_label"
  top: "dir963_TL_label"
  top: "dir963_BR_label"
  top: "dir964_TL_label"
  top: "dir964_BR_label"
  top: "dir965_TL_label"
  top: "dir965_BR_label"
  top: "dir966_TL_label"
  top: "dir966_BR_label"
  top: "dir967_TL_label"
  top: "dir967_BR_label"
  top: "dir968_TL_label"
  top: "dir968_BR_label"
  top: "dir969_TL_label"
  top: "dir969_BR_label"
  top: "dir970_TL_label"
  top: "dir970_BR_label"
  top: "dir971_TL_label"
  top: "dir971_BR_label"
  top: "dir972_TL_label"
  top: "dir972_BR_label"
  top: "dir973_TL_label"
  top: "dir973_BR_label"
  top: "dir974_TL_label"
  top: "dir974_BR_label"
  top: "dir975_TL_label"
  top: "dir975_BR_label"
  top: "dir976_TL_label"
  top: "dir976_BR_label"
  top: "dir977_TL_label"
  top: "dir977_BR_label"
  top: "dir978_TL_label"
  top: "dir978_BR_label"
  top: "dir979_TL_label"
  top: "dir979_BR_label"
  top: "dir980_TL_label"
  top: "dir980_BR_label"
  top: "dir981_TL_label"
  top: "dir981_BR_label"
  top: "dir982_TL_label"
  top: "dir982_BR_label"
  top: "dir983_TL_label"
  top: "dir983_BR_label"
  top: "dir984_TL_label"
  top: "dir984_BR_label"
  top: "dir985_TL_label"
  top: "dir985_BR_label"
  top: "dir986_TL_label"
  top: "dir986_BR_label"
  top: "dir987_TL_label"
  top: "dir987_BR_label"
  top: "dir988_TL_label"
  top: "dir988_BR_label"
  top: "dir989_TL_label"
  top: "dir989_BR_label"
  top: "dir990_TL_label"
  top: "dir990_BR_label"
  top: "dir991_TL_label"
  top: "dir991_BR_label"
  top: "dir992_TL_label"
  top: "dir992_BR_label"
  top: "dir993_TL_label"
  top: "dir993_BR_label"
  top: "dir994_TL_label"
  top: "dir994_BR_label"
  top: "dir995_TL_label"
  top: "dir995_BR_label"
  top: "dir996_TL_label"
  top: "dir996_BR_label"
  top: "dir997_TL_label"
  top: "dir997_BR_label"
  top: "dir998_TL_label"
  top: "dir998_BR_label"
  top: "dir999_TL_label"
  top: "dir999_BR_label"
  top: "cls_label"
  include {
    phase: TEST
  }
  attention_data_param {
    source: "1__DATA/IMAGENET/LOC/val.txt"
    batch_size: 64
    num_class: 1000
    input_size: 224
    mean_value: 104
    mean_value: 117
    mean_value: 123
    cache_images: false
	random_sampling: false
    root_folder: "/data/IMAGENET/ILSVRC2015/"
  }
}

layer {
  name: "conv1/7x7_s2"
  type: "Convolution"
  bottom: "data"
  top: "conv1/7x7_s2"
  param {
    lr_mult: 0.25
    decay_mult: 1
  }
  param {
    lr_mult: 0.5
    decay_mult: 0
  }
  convolution_param {
    num_output: 64
    pad: 3
    kernel_size: 7
    group: 1
    stride: 2
  }
}

layer {
  name: "conv1/relu_7x7"
  type: "ReLU"
  bottom: "conv1/7x7_s2"
  top: "conv1/7x7_s2"
}

layer {
  name: "pool1/3x3_s2"
  type: "Pooling"
  bottom: "conv1/7x7_s2"
  top: "pool1/3x3_s2"
  pooling_param {
    pool: MAX
    kernel_size: 3
    stride: 2
    pad: 0
  }
}

layer {
  name: "conv2/3x3_reduce"
  type: "Convolution"
  bottom: "pool1/3x3_s2"
  top: "conv2/3x3_reduce"
  param {
    lr_mult: 0.25
    decay_mult: 1
  }
  param {
    lr_mult: 0.5
    decay_mult: 0
  }
  convolution_param {
    num_output: 64
    pad: 0
    kernel_size: 1
    group: 1
    stride: 1
  }
}

layer {
  name: "conv2/relu_3x3_reduce"
  type: "ReLU"
  bottom: "conv2/3x3_reduce"
  top: "conv2/3x3_reduce"
}

layer {
  name: "conv2/3x3"
  type: "Convolution"
  bottom: "conv2/3x3_reduce"
  top: "conv2/3x3"
  param {
    lr_mult: 0.25
    decay_mult: 1
  }
  param {
    lr_mult: 0.5
    decay_mult: 0
  }
  convolution_param {
    num_output: 192
    pad: 1
    kernel_size: 3
    group: 1
    stride: 1
  }
}

layer {
  name: "conv2/relu_3x3"
  type: "ReLU"
  bottom: "conv2/3x3"
  top: "conv2/3x3"
}

layer {
  name: "pool2/3x3_s2"
  type: "Pooling"
  bottom: "conv2/3x3"
  top: "pool2/3x3_s2"
  pooling_param {
    pool: MAX
    kernel_size: 3
    stride: 2
    pad: 0
  }
}

layer {
  name: "inception_3a/1x1"
  type: "Convolution"
  bottom: "pool2/3x3_s2"
  top: "inception_3a/1x1"
  param {
    lr_mult: 0.25
    decay_mult: 1
  }
  param {
    lr_mult: 0.5
    decay_mult: 0
  }
  convolution_param {
    num_output: 64
    pad: 0
    kernel_size: 1
    group: 1
    stride: 1
  }
}

layer {
  name: "inception_3a/relu_1x1"
  type: "ReLU"
  bottom: "inception_3a/1x1"
  top: "inception_3a/1x1"
}

layer {
  name: "inception_3a/3x3_reduce"
  type: "Convolution"
  bottom: "pool2/3x3_s2"
  top: "inception_3a/3x3_reduce"
  param {
    lr_mult: 0.25
    decay_mult: 1
  }
  param {
    lr_mult: 0.5
    decay_mult: 0
  }
  convolution_param {
    num_output: 96
    pad: 0
    kernel_size: 1
    group: 1
    stride: 1
  }
}

layer {
  name: "inception_3a/relu_3x3_reduce"
  type: "ReLU"
  bottom: "inception_3a/3x3_reduce"
  top: "inception_3a/3x3_reduce"
}

layer {
  name: "inception_3a/3x3"
  type: "Convolution"
  bottom: "inception_3a/3x3_reduce"
  top: "inception_3a/3x3"
  param {
    lr_mult: 0.25
    decay_mult: 1
  }
  param {
    lr_mult: 0.5
    decay_mult: 0
  }
  convolution_param {
    num_output: 128
    pad: 1
    kernel_size: 3
    group: 1
    stride: 1
  }
}

layer {
  name: "inception_3a/relu_3x3"
  type: "ReLU"
  bottom: "inception_3a/3x3"
  top: "inception_3a/3x3"
}

layer {
  name: "inception_3a/5x5_reduce"
  type: "Convolution"
  bottom: "pool2/3x3_s2"
  top: "inception_3a/5x5_reduce"
  param {
    lr_mult: 0.25
    decay_mult: 1
  }
  param {
    lr_mult: 0.5
    decay_mult: 0
  }
  convolution_param {
    num_output: 16
    pad: 0
    kernel_size: 1
    group: 1
    stride: 1
  }
}

layer {
  name: "inception_3a/relu_5x5_reduce"
  type: "ReLU"
  bottom: "inception_3a/5x5_reduce"
  top: "inception_3a/5x5_reduce"
}

layer {
  name: "inception_3a/5x5"
  type: "Convolution"
  bottom: "inception_3a/5x5_reduce"
  top: "inception_3a/5x5"
  param {
    lr_mult: 0.25
    decay_mult: 1
  }
  param {
    lr_mult: 0.5
    decay_mult: 0
  }
  convolution_param {
    num_output: 32
    pad: 2
    kernel_size: 5
    group: 1
    stride: 1
  }
}

layer {
  name: "inception_3a/relu_5x5"
  type: "ReLU"
  bottom: "inception_3a/5x5"
  top: "inception_3a/5x5"
}

layer {
  name: "inception_3a/pool"
  type: "Pooling"
  bottom: "pool2/3x3_s2"
  top: "inception_3a/pool"
  pooling_param {
    pool: MAX
    kernel_size: 3
    stride: 1
    pad: 1
  }
}

layer {
  name: "inception_3a/pool_proj"
  type: "Convolution"
  bottom: "inception_3a/pool"
  top: "inception_3a/pool_proj"
  param {
    lr_mult: 0.25
    decay_mult: 1
  }
  param {
    lr_mult: 0.5
    decay_mult: 0
  }
  convolution_param {
    num_output: 32
    pad: 0
    kernel_size: 1
    group: 1
    stride: 1
  }
}

layer {
  name: "inception_3a/relu_pool_proj"
  type: "ReLU"
  bottom: "inception_3a/pool_proj"
  top: "inception_3a/pool_proj"
}

layer {
  name: "inception_3a/output"
  type: "Concat"
  bottom: "inception_3a/1x1"
  bottom: "inception_3a/3x3"
  bottom: "inception_3a/5x5"
  bottom: "inception_3a/pool_proj"
  top: "inception_3a/output"
}

layer {
  name: "inception_3b/1x1"
  type: "Convolution"
  bottom: "inception_3a/output"
  top: "inception_3b/1x1"
  param {
    lr_mult: 0.25
    decay_mult: 1
  }
  param {
    lr_mult: 0.5
    decay_mult: 0
  }
  convolution_param {
    num_output: 128
    pad: 0
    kernel_size: 1
    group: 1
    stride: 1
  }
}

layer {
  name: "inception_3b/relu_1x1"
  type: "ReLU"
  bottom: "inception_3b/1x1"
  top: "inception_3b/1x1"
}

layer {
  name: "inception_3b/3x3_reduce"
  type: "Convolution"
  bottom: "inception_3a/output"
  top: "inception_3b/3x3_reduce"
  param {
    lr_mult: 0.25
    decay_mult: 1
  }
  param {
    lr_mult: 0.5
    decay_mult: 0
  }
  convolution_param {
    num_output: 128
    pad: 0
    kernel_size: 1
    group: 1
    stride: 1
  }
}

layer {
  name: "inception_3b/relu_3x3_reduce"
  type: "ReLU"
  bottom: "inception_3b/3x3_reduce"
  top: "inception_3b/3x3_reduce"
}

layer {
  name: "inception_3b/3x3"
  type: "Convolution"
  bottom: "inception_3b/3x3_reduce"
  top: "inception_3b/3x3"
  param {
    lr_mult: 0.25
    decay_mult: 1
  }
  param {
    lr_mult: 0.5
    decay_mult: 0
  }
  convolution_param {
    num_output: 192
    pad: 1
    kernel_size: 3
    group: 1
    stride: 1
  }
}

layer {
  name: "inception_3b/relu_3x3"
  type: "ReLU"
  bottom: "inception_3b/3x3"
  top: "inception_3b/3x3"
}

layer {
  name: "inception_3b/5x5_reduce"
  type: "Convolution"
  bottom: "inception_3a/output"
  top: "inception_3b/5x5_reduce"
  param {
    lr_mult: 0.25
    decay_mult: 1
  }
  param {
    lr_mult: 0.5
    decay_mult: 0
  }
  convolution_param {
    num_output: 32
    pad: 0
    kernel_size: 1
    group: 1
    stride: 1
  }
}

layer {
  name: "inception_3b/relu_5x5_reduce"
  type: "ReLU"
  bottom: "inception_3b/5x5_reduce"
  top: "inception_3b/5x5_reduce"
}

layer {
  name: "inception_3b/5x5"
  type: "Convolution"
  bottom: "inception_3b/5x5_reduce"
  top: "inception_3b/5x5"
  param {
    lr_mult: 0.25
    decay_mult: 1
  }
  param {
    lr_mult: 0.5
    decay_mult: 0
  }
  convolution_param {
    num_output: 96
    pad: 2
    kernel_size: 5
    group: 1
    stride: 1
  }
}

layer {
  name: "inception_3b/relu_5x5"
  type: "ReLU"
  bottom: "inception_3b/5x5"
  top: "inception_3b/5x5"
}

layer {
  name: "inception_3b/pool"
  type: "Pooling"
  bottom: "inception_3a/output"
  top: "inception_3b/pool"
  pooling_param {
    pool: MAX
    kernel_size: 3
    stride: 1
    pad: 1
  }
}

layer {
  name: "inception_3b/pool_proj"
  type: "Convolution"
  bottom: "inception_3b/pool"
  top: "inception_3b/pool_proj"
  param {
    lr_mult: 0.25
    decay_mult: 1
  }
  param {
    lr_mult: 0.5
    decay_mult: 0
  }
  convolution_param {
    num_output: 64
    pad: 0
    kernel_size: 1
    group: 1
    stride: 1
  }
}

layer {
  name: "inception_3b/relu_pool_proj"
  type: "ReLU"
  bottom: "inception_3b/pool_proj"
  top: "inception_3b/pool_proj"
}

layer {
  name: "inception_3b/output"
  type: "Concat"
  bottom: "inception_3b/1x1"
  bottom: "inception_3b/3x3"
  bottom: "inception_3b/5x5"
  bottom: "inception_3b/pool_proj"
  top: "inception_3b/output"
}

layer {
  name: "pool3/3x3_s2"
  type: "Pooling"
  bottom: "inception_3b/output"
  top: "pool3/3x3_s2"
  pooling_param {
    pool: MAX
    kernel_size: 3
    stride: 2
    pad: 0
  }
}

layer {
  name: "inception_4a/1x1"
  type: "Convolution"
  bottom: "pool3/3x3_s2"
  top: "inception_4a/1x1"
  param {
    lr_mult: 0.25
    decay_mult: 1
  }
  param {
    lr_mult: 0.5
    decay_mult: 0
  }
  convolution_param {
    num_output: 192
    pad: 0
    kernel_size: 1
    group: 1
    stride: 1
  }
}

layer {
  name: "inception_4a/relu_1x1"
  type: "ReLU"
  bottom: "inception_4a/1x1"
  top: "inception_4a/1x1"
}

layer {
  name: "inception_4a/3x3_reduce"
  type: "Convolution"
  bottom: "pool3/3x3_s2"
  top: "inception_4a/3x3_reduce"
  param {
    lr_mult: 0.25
    decay_mult: 1
  }
  param {
    lr_mult: 0.5
    decay_mult: 0
  }
  convolution_param {
    num_output: 96
    pad: 0
    kernel_size: 1
    group: 1
    stride: 1
  }
}

layer {
  name: "inception_4a/relu_3x3_reduce"
  type: "ReLU"
  bottom: "inception_4a/3x3_reduce"
  top: "inception_4a/3x3_reduce"
}

layer {
  name: "inception_4a/3x3"
  type: "Convolution"
  bottom: "inception_4a/3x3_reduce"
  top: "inception_4a/3x3"
  param {
    lr_mult: 0.25
    decay_mult: 1
  }
  param {
    lr_mult: 0.5
    decay_mult: 0
  }
  convolution_param {
    num_output: 208
    pad: 1
    kernel_size: 3
    group: 1
    stride: 1
  }
}

layer {
  name: "inception_4a/relu_3x3"
  type: "ReLU"
  bottom: "inception_4a/3x3"
  top: "inception_4a/3x3"
}

layer {
  name: "inception_4a/5x5_reduce"
  type: "Convolution"
  bottom: "pool3/3x3_s2"
  top: "inception_4a/5x5_reduce"
  param {
    lr_mult: 0.25
    decay_mult: 1
  }
  param {
    lr_mult: 0.5
    decay_mult: 0
  }
  convolution_param {
    num_output: 16
    pad: 0
    kernel_size: 1
    group: 1
    stride: 1
  }
}

layer {
  name: "inception_4a/relu_5x5_reduce"
  type: "ReLU"
  bottom: "inception_4a/5x5_reduce"
  top: "inception_4a/5x5_reduce"
}

layer {
  name: "inception_4a/5x5"
  type: "Convolution"
  bottom: "inception_4a/5x5_reduce"
  top: "inception_4a/5x5"
  param {
    lr_mult: 0.25
    decay_mult: 1
  }
  param {
    lr_mult: 0.5
    decay_mult: 0
  }
  convolution_param {
    num_output: 48
    pad: 2
    kernel_size: 5
    group: 1
    stride: 1
  }
}

layer {
  name: "inception_4a/relu_5x5"
  type: "ReLU"
  bottom: "inception_4a/5x5"
  top: "inception_4a/5x5"
}

layer {
  name: "inception_4a/pool"
  type: "Pooling"
  bottom: "pool3/3x3_s2"
  top: "inception_4a/pool"
  pooling_param {
    pool: MAX
    kernel_size: 3
    stride: 1
    pad: 1
  }
}

layer {
  name: "inception_4a/pool_proj"
  type: "Convolution"
  bottom: "inception_4a/pool"
  top: "inception_4a/pool_proj"
  param {
    lr_mult: 0.25
    decay_mult: 1
  }
  param {
    lr_mult: 0.5
    decay_mult: 0
  }
  convolution_param {
    num_output: 64
    pad: 0
    kernel_size: 1
    group: 1
    stride: 1
  }
}

layer {
  name: "inception_4a/relu_pool_proj"
  type: "ReLU"
  bottom: "inception_4a/pool_proj"
  top: "inception_4a/pool_proj"
}

layer {
  name: "inception_4a/output"
  type: "Concat"
  bottom: "inception_4a/1x1"
  bottom: "inception_4a/3x3"
  bottom: "inception_4a/5x5"
  bottom: "inception_4a/pool_proj"
  top: "inception_4a/output"
}

layer {
  name: "inception_4b/1x1"
  type: "Convolution"
  bottom: "inception_4a/output"
  top: "inception_4b/1x1"
  param {
    lr_mult: 0.25
    decay_mult: 1
  }
  param {
    lr_mult: 0.5
    decay_mult: 0
  }
  convolution_param {
    num_output: 160
    pad: 0
    kernel_size: 1
    group: 1
    stride: 1
  }
}

layer {
  name: "inception_4b/relu_1x1"
  type: "ReLU"
  bottom: "inception_4b/1x1"
  top: "inception_4b/1x1"
}

layer {
  name: "inception_4b/3x3_reduce"
  type: "Convolution"
  bottom: "inception_4a/output"
  top: "inception_4b/3x3_reduce"
  param {
    lr_mult: 0.25
    decay_mult: 1
  }
  param {
    lr_mult: 0.5
    decay_mult: 0
  }
  convolution_param {
    num_output: 112
    pad: 0
    kernel_size: 1
    group: 1
    stride: 1
  }
}

layer {
  name: "inception_4b/relu_3x3_reduce"
  type: "ReLU"
  bottom: "inception_4b/3x3_reduce"
  top: "inception_4b/3x3_reduce"
}

layer {
  name: "inception_4b/3x3"
  type: "Convolution"
  bottom: "inception_4b/3x3_reduce"
  top: "inception_4b/3x3"
  param {
    lr_mult: 0.25
    decay_mult: 1
  }
  param {
    lr_mult: 0.5
    decay_mult: 0
  }
  convolution_param {
    num_output: 224
    pad: 1
    kernel_size: 3
    group: 1
    stride: 1
  }
}

layer {
  name: "inception_4b/relu_3x3"
  type: "ReLU"
  bottom: "inception_4b/3x3"
  top: "inception_4b/3x3"
}

layer {
  name: "inception_4b/5x5_reduce"
  type: "Convolution"
  bottom: "inception_4a/output"
  top: "inception_4b/5x5_reduce"
  param {
    lr_mult: 0.25
    decay_mult: 1
  }
  param {
    lr_mult: 0.5
    decay_mult: 0
  }
  convolution_param {
    num_output: 24
    pad: 0
    kernel_size: 1
    group: 1
    stride: 1
  }
}

layer {
  name: "inception_4b/relu_5x5_reduce"
  type: "ReLU"
  bottom: "inception_4b/5x5_reduce"
  top: "inception_4b/5x5_reduce"
}

layer {
  name: "inception_4b/5x5"
  type: "Convolution"
  bottom: "inception_4b/5x5_reduce"
  top: "inception_4b/5x5"
  param {
    lr_mult: 0.25
    decay_mult: 1
  }
  param {
    lr_mult: 0.5
    decay_mult: 0
  }
  convolution_param {
    num_output: 64
    pad: 2
    kernel_size: 5
    group: 1
    stride: 1
  }
}

layer {
  name: "inception_4b/relu_5x5"
  type: "ReLU"
  bottom: "inception_4b/5x5"
  top: "inception_4b/5x5"
}

layer {
  name: "inception_4b/pool"
  type: "Pooling"
  bottom: "inception_4a/output"
  top: "inception_4b/pool"
  pooling_param {
    pool: MAX
    kernel_size: 3
    stride: 1
    pad: 1
  }
}

layer {
  name: "inception_4b/pool_proj"
  type: "Convolution"
  bottom: "inception_4b/pool"
  top: "inception_4b/pool_proj"
  param {
    lr_mult: 0.25
    decay_mult: 1
  }
  param {
    lr_mult: 0.5
    decay_mult: 0
  }
  convolution_param {
    num_output: 64
    pad: 0
    kernel_size: 1
    group: 1
    stride: 1
  }
}

layer {
  name: "inception_4b/relu_pool_proj"
  type: "ReLU"
  bottom: "inception_4b/pool_proj"
  top: "inception_4b/pool_proj"
}

layer {
  name: "inception_4b/output"
  type: "Concat"
  bottom: "inception_4b/1x1"
  bottom: "inception_4b/3x3"
  bottom: "inception_4b/5x5"
  bottom: "inception_4b/pool_proj"
  top: "inception_4b/output"
}

layer {
  name: "inception_4c/1x1"
  type: "Convolution"
  bottom: "inception_4b/output"
  top: "inception_4c/1x1"
  param {
    lr_mult: 0.25
    decay_mult: 1
  }
  param {
    lr_mult: 0.5
    decay_mult: 0
  }
  convolution_param {
    num_output: 128
    pad: 0
    kernel_size: 1
    group: 1
    stride: 1
  }
}

layer {
  name: "inception_4c/relu_1x1"
  type: "ReLU"
  bottom: "inception_4c/1x1"
  top: "inception_4c/1x1"
}

layer {
  name: "inception_4c/3x3_reduce"
  type: "Convolution"
  bottom: "inception_4b/output"
  top: "inception_4c/3x3_reduce"
  param {
    lr_mult: 0.25
    decay_mult: 1
  }
  param {
    lr_mult: 0.5
    decay_mult: 0
  }
  convolution_param {
    num_output: 128
    pad: 0
    kernel_size: 1
    group: 1
    stride: 1
  }
}

layer {
  name: "inception_4c/relu_3x3_reduce"
  type: "ReLU"
  bottom: "inception_4c/3x3_reduce"
  top: "inception_4c/3x3_reduce"
}

layer {
  name: "inception_4c/3x3"
  type: "Convolution"
  bottom: "inception_4c/3x3_reduce"
  top: "inception_4c/3x3"
  param {
    lr_mult: 0.25
    decay_mult: 1
  }
  param {
    lr_mult: 0.5
    decay_mult: 0
  }
  convolution_param {
    num_output: 256
    pad: 1
    kernel_size: 3
    group: 1
    stride: 1
  }
}

layer {
  name: "inception_4c/relu_3x3"
  type: "ReLU"
  bottom: "inception_4c/3x3"
  top: "inception_4c/3x3"
}

layer {
  name: "inception_4c/5x5_reduce"
  type: "Convolution"
  bottom: "inception_4b/output"
  top: "inception_4c/5x5_reduce"
  param {
    lr_mult: 0.25
    decay_mult: 1
  }
  param {
    lr_mult: 0.5
    decay_mult: 0
  }
  convolution_param {
    num_output: 24
    pad: 0
    kernel_size: 1
    group: 1
    stride: 1
  }
}

layer {
  name: "inception_4c/relu_5x5_reduce"
  type: "ReLU"
  bottom: "inception_4c/5x5_reduce"
  top: "inception_4c/5x5_reduce"
}

layer {
  name: "inception_4c/5x5"
  type: "Convolution"
  bottom: "inception_4c/5x5_reduce"
  top: "inception_4c/5x5"
  param {
    lr_mult: 0.25
    decay_mult: 1
  }
  param {
    lr_mult: 0.5
    decay_mult: 0
  }
  convolution_param {
    num_output: 64
    pad: 2
    kernel_size: 5
    group: 1
    stride: 1
  }
}

layer {
  name: "inception_4c/relu_5x5"
  type: "ReLU"
  bottom: "inception_4c/5x5"
  top: "inception_4c/5x5"
}

layer {
  name: "inception_4c/pool"
  type: "Pooling"
  bottom: "inception_4b/output"
  top: "inception_4c/pool"
  pooling_param {
    pool: MAX
    kernel_size: 3
    stride: 1
    pad: 1
  }
}

layer {
  name: "inception_4c/pool_proj"
  type: "Convolution"
  bottom: "inception_4c/pool"
  top: "inception_4c/pool_proj"
  param {
    lr_mult: 0.25
    decay_mult: 1
  }
  param {
    lr_mult: 0.5
    decay_mult: 0
  }
  convolution_param {
    num_output: 64
    pad: 0
    kernel_size: 1
    group: 1
    stride: 1
  }
}

layer {
  name: "inception_4c/relu_pool_proj"
  type: "ReLU"
  bottom: "inception_4c/pool_proj"
  top: "inception_4c/pool_proj"
}

layer {
  name: "inception_4c/output"
  type: "Concat"
  bottom: "inception_4c/1x1"
  bottom: "inception_4c/3x3"
  bottom: "inception_4c/5x5"
  bottom: "inception_4c/pool_proj"
  top: "inception_4c/output"
}

layer {
  name: "inception_4d/1x1"
  type: "Convolution"
  bottom: "inception_4c/output"
  top: "inception_4d/1x1"
  param {
    lr_mult: 0.25
    decay_mult: 1
  }
  param {
    lr_mult: 0.5
    decay_mult: 0
  }
  convolution_param {
    num_output: 112
    pad: 0
    kernel_size: 1
    group: 1
    stride: 1
  }
}

layer {
  name: "inception_4d/relu_1x1"
  type: "ReLU"
  bottom: "inception_4d/1x1"
  top: "inception_4d/1x1"
}

layer {
  name: "inception_4d/3x3_reduce"
  type: "Convolution"
  bottom: "inception_4c/output"
  top: "inception_4d/3x3_reduce"
  param {
    lr_mult: 0.25
    decay_mult: 1
  }
  param {
    lr_mult: 0.5
    decay_mult: 0
  }
  convolution_param {
    num_output: 144
    pad: 0
    kernel_size: 1
    group: 1
    stride: 1
  }
}

layer {
  name: "inception_4d/relu_3x3_reduce"
  type: "ReLU"
  bottom: "inception_4d/3x3_reduce"
  top: "inception_4d/3x3_reduce"
}

layer {
  name: "inception_4d/3x3"
  type: "Convolution"
  bottom: "inception_4d/3x3_reduce"
  top: "inception_4d/3x3"
  param {
    lr_mult: 0.25
    decay_mult: 1
  }
  param {
    lr_mult: 0.5
    decay_mult: 0
  }
  convolution_param {
    num_output: 288
    pad: 1
    kernel_size: 3
    group: 1
    stride: 1
  }
}

layer {
  name: "inception_4d/relu_3x3"
  type: "ReLU"
  bottom: "inception_4d/3x3"
  top: "inception_4d/3x3"
}

layer {
  name: "inception_4d/5x5_reduce"
  type: "Convolution"
  bottom: "inception_4c/output"
  top: "inception_4d/5x5_reduce"
  param {
    lr_mult: 0.25
    decay_mult: 1
  }
  param {
    lr_mult: 0.5
    decay_mult: 0
  }
  convolution_param {
    num_output: 32
    pad: 0
    kernel_size: 1
    group: 1
    stride: 1
  }
}

layer {
  name: "inception_4d/relu_5x5_reduce"
  type: "ReLU"
  bottom: "inception_4d/5x5_reduce"
  top: "inception_4d/5x5_reduce"
}

layer {
  name: "inception_4d/5x5"
  type: "Convolution"
  bottom: "inception_4d/5x5_reduce"
  top: "inception_4d/5x5"
  param {
    lr_mult: 0.25
    decay_mult: 1
  }
  param {
    lr_mult: 0.5
    decay_mult: 0
  }
  convolution_param {
    num_output: 64
    pad: 2
    kernel_size: 5
    group: 1
    stride: 1
  }
}

layer {
  name: "inception_4d/relu_5x5"
  type: "ReLU"
  bottom: "inception_4d/5x5"
  top: "inception_4d/5x5"
}

layer {
  name: "inception_4d/pool"
  type: "Pooling"
  bottom: "inception_4c/output"
  top: "inception_4d/pool"
  pooling_param {
    pool: MAX
    kernel_size: 3
    stride: 1
    pad: 1
  }
}

layer {
  name: "inception_4d/pool_proj"
  type: "Convolution"
  bottom: "inception_4d/pool"
  top: "inception_4d/pool_proj"
  param {
    lr_mult: 0.25
    decay_mult: 1
  }
  param {
    lr_mult: 0.5
    decay_mult: 0
  }
  convolution_param {
    num_output: 64
    pad: 0
    kernel_size: 1
    group: 1
    stride: 1
  }
}

layer {
  name: "inception_4d/relu_pool_proj"
  type: "ReLU"
  bottom: "inception_4d/pool_proj"
  top: "inception_4d/pool_proj"
}

layer {
  name: "inception_4d/output"
  type: "Concat"
  bottom: "inception_4d/1x1"
  bottom: "inception_4d/3x3"
  bottom: "inception_4d/5x5"
  bottom: "inception_4d/pool_proj"
  top: "inception_4d/output"
}

layer {
  name: "inception_4e/1x1"
  type: "Convolution"
  bottom: "inception_4d/output"
  top: "inception_4e/1x1"
  param {
    lr_mult: 0.25
    decay_mult: 1
  }
  param {
    lr_mult: 0.5
    decay_mult: 0
  }
  convolution_param {
    num_output: 256
    pad: 0
    kernel_size: 1
    group: 1
    stride: 1
  }
}

layer {
  name: "inception_4e/relu_1x1"
  type: "ReLU"
  bottom: "inception_4e/1x1"
  top: "inception_4e/1x1"
}

layer {
  name: "inception_4e/3x3_reduce"
  type: "Convolution"
  bottom: "inception_4d/output"
  top: "inception_4e/3x3_reduce"
  param {
    lr_mult: 0.25
    decay_mult: 1
  }
  param {
    lr_mult: 0.5
    decay_mult: 0
  }
  convolution_param {
    num_output: 160
    pad: 0
    kernel_size: 1
    group: 1
    stride: 1
  }
}

layer {
  name: "inception_4e/relu_3x3_reduce"
  type: "ReLU"
  bottom: "inception_4e/3x3_reduce"
  top: "inception_4e/3x3_reduce"
}

layer {
  name: "inception_4e/3x3"
  type: "Convolution"
  bottom: "inception_4e/3x3_reduce"
  top: "inception_4e/3x3"
  param {
    lr_mult: 0.25
    decay_mult: 1
  }
  param {
    lr_mult: 0.5
    decay_mult: 0
  }
  convolution_param {
    num_output: 320
    pad: 1
    kernel_size: 3
    group: 1
    stride: 1
  }
}

layer {
  name: "inception_4e/relu_3x3"
  type: "ReLU"
  bottom: "inception_4e/3x3"
  top: "inception_4e/3x3"
}

layer {
  name: "inception_4e/5x5_reduce"
  type: "Convolution"
  bottom: "inception_4d/output"
  top: "inception_4e/5x5_reduce"
  param {
    lr_mult: 0.25
    decay_mult: 1
  }
  param {
    lr_mult: 0.5
    decay_mult: 0
  }
  convolution_param {
    num_output: 32
    pad: 0
    kernel_size: 1
    group: 1
    stride: 1
  }
}

layer {
  name: "inception_4e/relu_5x5_reduce"
  type: "ReLU"
  bottom: "inception_4e/5x5_reduce"
  top: "inception_4e/5x5_reduce"
}

layer {
  name: "inception_4e/5x5"
  type: "Convolution"
  bottom: "inception_4e/5x5_reduce"
  top: "inception_4e/5x5"
  param {
    lr_mult: 0.25
    decay_mult: 1
  }
  param {
    lr_mult: 0.5
    decay_mult: 0
  }
  convolution_param {
    num_output: 128
    pad: 2
    kernel_size: 5
    group: 1
    stride: 1
  }
}

layer {
  name: "inception_4e/relu_5x5"
  type: "ReLU"
  bottom: "inception_4e/5x5"
  top: "inception_4e/5x5"
}

layer {
  name: "inception_4e/pool"
  type: "Pooling"
  bottom: "inception_4d/output"
  top: "inception_4e/pool"
  pooling_param {
    pool: MAX
    kernel_size: 3
    stride: 1
    pad: 1
  }
}

layer {
  name: "inception_4e/pool_proj"
  type: "Convolution"
  bottom: "inception_4e/pool"
  top: "inception_4e/pool_proj"
  param {
    lr_mult: 0.25
    decay_mult: 1
  }
  param {
    lr_mult: 0.5
    decay_mult: 0
  }
  convolution_param {
    num_output: 128
    pad: 0
    kernel_size: 1
    group: 1
    stride: 1
  }
}

layer {
  name: "inception_4e/relu_pool_proj"
  type: "ReLU"
  bottom: "inception_4e/pool_proj"
  top: "inception_4e/pool_proj"
}

layer {
  name: "inception_4e/output"
  type: "Concat"
  bottom: "inception_4e/1x1"
  bottom: "inception_4e/3x3"
  bottom: "inception_4e/5x5"
  bottom: "inception_4e/pool_proj"
  top: "inception_4e/output"
}

layer {
  name: "pool4/3x3_s2"
  type: "Pooling"
  bottom: "inception_4e/output"
  top: "pool4/3x3_s2"
  pooling_param {
    pool: MAX
    kernel_size: 3
    stride: 2
    pad: 0
  }
}

layer {
  name: "inception_5a/1x1"
  type: "Convolution"
  bottom: "pool4/3x3_s2"
  top: "inception_5a/1x1"
  param {
    lr_mult: 0.25
    decay_mult: 1
  }
  param {
    lr_mult: 0.5
    decay_mult: 0
  }
  convolution_param {
    num_output: 256
    pad: 0
    kernel_size: 1
    group: 1
    stride: 1
  }
}

layer {
  name: "inception_5a/relu_1x1"
  type: "ReLU"
  bottom: "inception_5a/1x1"
  top: "inception_5a/1x1"
}

layer {
  name: "inception_5a/3x3_reduce"
  type: "Convolution"
  bottom: "pool4/3x3_s2"
  top: "inception_5a/3x3_reduce"
  param {
    lr_mult: 0.25
    decay_mult: 1
  }
  param {
    lr_mult: 0.5
    decay_mult: 0
  }
  convolution_param {
    num_output: 160
    pad: 0
    kernel_size: 1
    group: 1
    stride: 1
  }
}

layer {
  name: "inception_5a/relu_3x3_reduce"
  type: "ReLU"
  bottom: "inception_5a/3x3_reduce"
  top: "inception_5a/3x3_reduce"
}

layer {
  name: "inception_5a/3x3"
  type: "Convolution"
  bottom: "inception_5a/3x3_reduce"
  top: "inception_5a/3x3"
  param {
    lr_mult: 0.25
    decay_mult: 1
  }
  param {
    lr_mult: 0.5
    decay_mult: 0
  }
  convolution_param {
    num_output: 320
    pad: 1
    kernel_size: 3
    group: 1
    stride: 1
  }
}

layer {
  name: "inception_5a/relu_3x3"
  type: "ReLU"
  bottom: "inception_5a/3x3"
  top: "inception_5a/3x3"
}

layer {
  name: "inception_5a/5x5_reduce"
  type: "Convolution"
  bottom: "pool4/3x3_s2"
  top: "inception_5a/5x5_reduce"
  param {
    lr_mult: 0.25
    decay_mult: 1
  }
  param {
    lr_mult: 0.5
    decay_mult: 0
  }
  convolution_param {
    num_output: 32
    pad: 0
    kernel_size: 1
    group: 1
    stride: 1
  }
}

layer {
  name: "inception_5a/relu_5x5_reduce"
  type: "ReLU"
  bottom: "inception_5a/5x5_reduce"
  top: "inception_5a/5x5_reduce"
}

layer {
  name: "inception_5a/5x5"
  type: "Convolution"
  bottom: "inception_5a/5x5_reduce"
  top: "inception_5a/5x5"
  param {
    lr_mult: 0.25
    decay_mult: 1
  }
  param {
    lr_mult: 0.5
    decay_mult: 0
  }
  convolution_param {
    num_output: 128
    pad: 2
    kernel_size: 5
    group: 1
    stride: 1
  }
}

layer {
  name: "inception_5a/relu_5x5"
  type: "ReLU"
  bottom: "inception_5a/5x5"
  top: "inception_5a/5x5"
}

layer {
  name: "inception_5a/pool"
  type: "Pooling"
  bottom: "pool4/3x3_s2"
  top: "inception_5a/pool"
  pooling_param {
    pool: MAX
    kernel_size: 3
    stride: 1
    pad: 1
  }
}

layer {
  name: "inception_5a/pool_proj"
  type: "Convolution"
  bottom: "inception_5a/pool"
  top: "inception_5a/pool_proj"
  param {
    lr_mult: 0.25
    decay_mult: 1
  }
  param {
    lr_mult: 0.5
    decay_mult: 0
  }
  convolution_param {
    num_output: 128
    pad: 0
    kernel_size: 1
    group: 1
    stride: 1
  }
}

layer {
  name: "inception_5a/relu_pool_proj"
  type: "ReLU"
  bottom: "inception_5a/pool_proj"
  top: "inception_5a/pool_proj"
}

layer {
  name: "inception_5a/output"
  type: "Concat"
  bottom: "inception_5a/1x1"
  bottom: "inception_5a/3x3"
  bottom: "inception_5a/5x5"
  bottom: "inception_5a/pool_proj"
  top: "inception_5a/output"
}

layer {
  name: "inception_5b/1x1"
  type: "Convolution"
  bottom: "inception_5a/output"
  top: "inception_5b/1x1"
  param {
    lr_mult: 0.25
    decay_mult: 1
  }
  param {
    lr_mult: 0.5
    decay_mult: 0
  }
  convolution_param {
    num_output: 384
    pad: 0
    kernel_size: 1
    group: 1
    stride: 1
  }
}

layer {
  name: "inception_5b/relu_1x1"
  type: "ReLU"
  bottom: "inception_5b/1x1"
  top: "inception_5b/1x1"
}

layer {
  name: "inception_5b/3x3_reduce"
  type: "Convolution"
  bottom: "inception_5a/output"
  top: "inception_5b/3x3_reduce"
  param {
    lr_mult: 0.25
    decay_mult: 1
  }
  param {
    lr_mult: 0.5
    decay_mult: 0
  }
  convolution_param {
    num_output: 192
    pad: 0
    kernel_size: 1
    group: 1
    stride: 1
  }
}

layer {
  name: "inception_5b/relu_3x3_reduce"
  type: "ReLU"
  bottom: "inception_5b/3x3_reduce"
  top: "inception_5b/3x3_reduce"
}

layer {
  name: "inception_5b/3x3"
  type: "Convolution"
  bottom: "inception_5b/3x3_reduce"
  top: "inception_5b/3x3"
  param {
    lr_mult: 0.25
    decay_mult: 1
  }
  param {
    lr_mult: 0.5
    decay_mult: 0
  }
  convolution_param {
    num_output: 384
    pad: 1
    kernel_size: 3
    group: 1
    stride: 1
  }
}

layer {
  name: "inception_5b/relu_3x3"
  type: "ReLU"
  bottom: "inception_5b/3x3"
  top: "inception_5b/3x3"
}

layer {
  name: "inception_5b/5x5_reduce"
  type: "Convolution"
  bottom: "inception_5a/output"
  top: "inception_5b/5x5_reduce"
  param {
    lr_mult: 0.25
    decay_mult: 1
  }
  param {
    lr_mult: 0.5
    decay_mult: 0
  }
  convolution_param {
    num_output: 48
    pad: 0
    kernel_size: 1
    group: 1
    stride: 1
  }
}

layer {
  name: "inception_5b/relu_5x5_reduce"
  type: "ReLU"
  bottom: "inception_5b/5x5_reduce"
  top: "inception_5b/5x5_reduce"
}

layer {
  name: "inception_5b/5x5"
  type: "Convolution"
  bottom: "inception_5b/5x5_reduce"
  top: "inception_5b/5x5"
  param {
    lr_mult: 0.25
    decay_mult: 1
  }
  param {
    lr_mult: 0.5
    decay_mult: 0
  }
  convolution_param {
    num_output: 128
    pad: 2
    kernel_size: 5
    group: 1
    stride: 1
  }
}

layer {
  name: "inception_5b/relu_5x5"
  type: "ReLU"
  bottom: "inception_5b/5x5"
  top: "inception_5b/5x5"
}

layer {
  name: "inception_5b/pool"
  type: "Pooling"
  bottom: "inception_5a/output"
  top: "inception_5b/pool"
  pooling_param {
    pool: MAX
    kernel_size: 3
    stride: 1
    pad: 1
  }
}

layer {
  name: "inception_5b/pool_proj"
  type: "Convolution"
  bottom: "inception_5b/pool"
  top: "inception_5b/pool_proj"
  param {
    lr_mult: 0.25
    decay_mult: 1
  }
  param {
    lr_mult: 0.5
    decay_mult: 0
  }
  convolution_param {
    num_output: 128
    pad: 0
    kernel_size: 1
    group: 1
    stride: 1
  }
}

layer {
  name: "inception_5b/relu_pool_proj"
  type: "ReLU"
  bottom: "inception_5b/pool_proj"
  top: "inception_5b/pool_proj"
}

layer {
  name: "inception_5b/output"
  type: "Concat"
  bottom: "inception_5b/1x1"
  bottom: "inception_5b/3x3"
  bottom: "inception_5b/5x5"
  bottom: "inception_5b/pool_proj"
  top: "inception_5b/output"
}

layer {
  name: "pool5/7x7_s1"
  type: "Pooling"
  bottom: "inception_5b/output"
  top: "pool5/7x7_s1"
  pooling_param {
    pool: AVE
    kernel_size: 7
    stride: 1
    pad: 0
  }
}

layer {
  name: "pool5/drop_7x7_s1"
  type: "Dropout"
  bottom: "pool5/7x7_s1"
  top: "pool5/7x7_s1"
}

layer {
  name: "dir0_TL"
  type: "Convolution"
  bottom: "pool5/7x7_s1"
  top: "dir0_TL"
  param {
    lr_mult: 1
    decay_mult: 1
  }
  param {
    lr_mult: 2
    decay_mult: 0
  }
  convolution_param {
    num_output: 4
    kernel_size: 1
    weight_filler {
      type: "gaussian"
      std: 0.01
    }
    bias_filler {
      type: "constant"
      value: 0
    }
  }
}

layer {
  name: "dir0_BR"
  type: "Convolution"
  bottom: "pool5/7x7_s1"
  top: "dir0_BR"
  param {
    lr_mult: 1
    decay_mult: 1
  }
  param {
    lr_mult: 2
    decay_mult: 0
  }
  convolution_param {
    num_output: 4
    kernel_size: 1
    weight_filler {
      type: "gaussian"
      std: 0.01
    }
    bias_filler {
      type: "constant"
      value: 0
    }
  }
}

layer {
  name: "dir1_TL"
  type: "Convolution"
  bottom: "pool5/7x7_s1"
  top: "dir1_TL"
  param {
    lr_mult: 1
    decay_mult: 1
  }
  param {
    lr_mult: 2
    decay_mult: 0
  }
  convolution_param {
    num_output: 4
    kernel_size: 1
    weight_filler {
      type: "gaussian"
      std: 0.01
    }
    bias_filler {
      type: "constant"
      value: 0
    }
  }
}

layer {
  name: "dir1_BR"
  type: "Convolution"
  bottom: "pool5/7x7_s1"
  top: "dir1_BR"
  param {
    lr_mult: 1
    decay_mult: 1
  }
  param {
    lr_mult: 2
    decay_mult: 0
  }
  convolution_param {
    num_output: 4
    kernel_size: 1
    weight_filler {
      type: "gaussian"
      std: 0.01
    }
    bias_filler {
      type: "constant"
      value: 0
    }
  }
}

layer {
  name: "dir2_TL"
  type: "Convolution"
  bottom: "pool5/7x7_s1"
  top: "dir2_TL"
  param {
    lr_mult: 1
    decay_mult: 1
  }
  param {
    lr_mult: 2
    decay_mult: 0
  }
  convolution_param {
    num_output: 4
    kernel_size: 1
    weight_filler {
      type: "gaussian"
      std: 0.01
    }
    bias_filler {
      type: "constant"
      value: 0
    }
  }
}

layer {
  name: "dir2_BR"
  type: "Convolution"
  bottom: "pool5/7x7_s1"
  top: "dir2_BR"
  param {
    lr_mult: 1
    decay_mult: 1
  }
  param {
    lr_mult: 2
    decay_mult: 0
  }
  convolution_param {
    num_output: 4
    kernel_size: 1
    weight_filler {
      type: "gaussian"
      std: 0.01
    }
    bias_filler {
      type: "constant"
      value: 0
    }
  }
}

layer {
  name: "dir3_TL"
  type: "Convolution"
  bottom: "pool5/7x7_s1"
  top: "dir3_TL"
  param {
    lr_mult: 1
    decay_mult: 1
  }
  param {
    lr_mult: 2
    decay_mult: 0
  }
  convolution_param {
    num_output: 4
    kernel_size: 1
    weight_filler {
      type: "gaussian"
      std: 0.01
    }
    bias_filler {
      type: "constant"
      value: 0
    }
  }
}

layer {
  name: "dir3_BR"
  type: "Convolution"
  bottom: "pool5/7x7_s1"
  top: "dir3_BR"
  param {
    lr_mult: 1
    decay_mult: 1
  }
  param {
    lr_mult: 2
    decay_mult: 0
  }
  convolution_param {
    num_output: 4
    kernel_size: 1
    weight_filler {
      type: "gaussian"
      std: 0.01
    }
    bias_filler {
      type: "constant"
      value: 0
    }
  }
}

layer {
  name: "dir4_TL"
  type: "Convolution"
  bottom: "pool5/7x7_s1"
  top: "dir4_TL"
  param {
    lr_mult: 1
    decay_mult: 1
  }
  param {
    lr_mult: 2
    decay_mult: 0
  }
  convolution_param {
    num_output: 4
    kernel_size: 1
    weight_filler {
      type: "gaussian"
      std: 0.01
    }
    bias_filler {
      type: "constant"
      value: 0
    }
  }
}

layer {
  name: "dir4_BR"
  type: "Convolution"
  bottom: "pool5/7x7_s1"
  top: "dir4_BR"
  param {
    lr_mult: 1
    decay_mult: 1
  }
  param {
    lr_mult: 2
    decay_mult: 0
  }
  convolution_param {
    num_output: 4
    kernel_size: 1
    weight_filler {
      type: "gaussian"
      std: 0.01
    }
    bias_filler {
      type: "constant"
      value: 0
    }
  }
}

layer {
  name: "dir5_TL"
  type: "Convolution"
  bottom: "pool5/7x7_s1"
  top: "dir5_TL"
  param {
    lr_mult: 1
    decay_mult: 1
  }
  param {
    lr_mult: 2
    decay_mult: 0
  }
  convolution_param {
    num_output: 4
    kernel_size: 1
    weight_filler {
      type: "gaussian"
      std: 0.01
    }
    bias_filler {
      type: "constant"
      value: 0
    }
  }
}

layer {
  name: "dir5_BR"
  type: "Convolution"
  bottom: "pool5/7x7_s1"
  top: "dir5_BR"
  param {
    lr_mult: 1
    decay_mult: 1
  }
  param {
    lr_mult: 2
    decay_mult: 0
  }
  convolution_param {
    num_output: 4
    kernel_size: 1
    weight_filler {
      type: "gaussian"
      std: 0.01
    }
    bias_filler {
      type: "constant"
      value: 0
    }
  }
}

layer {
  name: "dir6_TL"
  type: "Convolution"
  bottom: "pool5/7x7_s1"
  top: "dir6_TL"
  param {
    lr_mult: 1
    decay_mult: 1
  }
  param {
    lr_mult: 2
    decay_mult: 0
  }
  convolution_param {
    num_output: 4
    kernel_size: 1
    weight_filler {
      type: "gaussian"
      std: 0.01
    }
    bias_filler {
      type: "constant"
      value: 0
    }
  }
}

layer {
  name: "dir6_BR"
  type: "Convolution"
  bottom: "pool5/7x7_s1"
  top: "dir6_BR"
  param {
    lr_mult: 1
    decay_mult: 1
  }
  param {
    lr_mult: 2
    decay_mult: 0
  }
  convolution_param {
    num_output: 4
    kernel_size: 1
    weight_filler {
      type: "gaussian"
      std: 0.01
    }
    bias_filler {
      type: "constant"
      value: 0
    }
  }
}

layer {
  name: "dir7_TL"
  type: "Convolution"
  bottom: "pool5/7x7_s1"
  top: "dir7_TL"
  param {
    lr_mult: 1
    decay_mult: 1
  }
  param {
    lr_mult: 2
    decay_mult: 0
  }
  convolution_param {
    num_output: 4
    kernel_size: 1
    weight_filler {
      type: "gaussian"
      std: 0.01
    }
    bias_filler {
      type: "constant"
      value: 0
    }
  }
}

layer {
  name: "dir7_BR"
  type: "Convolution"
  bottom: "pool5/7x7_s1"
  top: "dir7_BR"
  param {
    lr_mult: 1
    decay_mult: 1
  }
  param {
    lr_mult: 2
    decay_mult: 0
  }
  convolution_param {
    num_output: 4
    kernel_size: 1
    weight_filler {
      type: "gaussian"
      std: 0.01
    }
    bias_filler {
      type: "constant"
      value: 0
    }
  }
}

layer {
  name: "dir8_TL"
  type: "Convolution"
  bottom: "pool5/7x7_s1"
  top: "dir8_TL"
  param {
    lr_mult: 1
    decay_mult: 1
  }
  param {
    lr_mult: 2
    decay_mult: 0
  }
  convolution_param {
    num_output: 4
    kernel_size: 1
    weight_filler {
      type: "gaussian"
      std: 0.01
    }
    bias_filler {
      type: "constant"
      value: 0
    }
  }
}

layer {
  name: "dir8_BR"
  type: "Convolution"
  bottom: "pool5/7x7_s1"
  top: "dir8_BR"
  param {
    lr_mult: 1
    decay_mult: 1
  }
  param {
    lr_mult: 2
    decay_mult: 0
  }
  convolution_param {
    num_output: 4
    kernel_size: 1
    weight_filler {
      type: "gaussian"
      std: 0.01
    }
    bias_filler {
      type: "constant"
      value: 0
    }
  }
}

layer {
  name: "dir9_TL"
  type: "Convolution"
  bottom: "pool5/7x7_s1"
  top: "dir9_TL"
  param {
    lr_mult: 1
    decay_mult: 1
  }
  param {
    lr_mult: 2
    decay_mult: 0
  }
  convolution_param {
    num_output: 4
    kernel_size: 1
    weight_filler {
      type: "gaussian"
      std: 0.01
    }
    bias_filler {
      type: "constant"
      value: 0
    }
  }
}

layer {
  name: "dir9_BR"
  type: "Convolution"
  bottom: "pool5/7x7_s1"
  top: "dir9_BR"
  param {
    lr_mult: 1
    decay_mult: 1
  }
  param {
    lr_mult: 2
    decay_mult: 0
  }
  convolution_param {
    num_output: 4
    kernel_size: 1
    weight_filler {
      type: "gaussian"
      std: 0.01
    }
    bias_filler {
      type: "constant"
      value: 0
    }
  }
}

layer {
  name: "dir10_TL"
  type: "Convolution"
  bottom: "pool5/7x7_s1"
  top: "dir10_TL"
  param {
    lr_mult: 1
    decay_mult: 1
  }
  param {
    lr_mult: 2
    decay_mult: 0
  }
  convolution_param {
    num_output: 4
    kernel_size: 1
    weight_filler {
      type: "gaussian"
      std: 0.01
    }
    bias_filler {
      type: "constant"
      value: 0
    }
  }
}

layer {
  name: "dir10_BR"
  type: "Convolution"
  bottom: "pool5/7x7_s1"
  top: "dir10_BR"
  param {
    lr_mult: 1
    decay_mult: 1
  }
  param {
    lr_mult: 2
    decay_mult: 0
  }
  convolution_param {
    num_output: 4
    kernel_size: 1
    weight_filler {
      type: "gaussian"
      std: 0.01
    }
    bias_filler {
      type: "constant"
      value: 0
    }
  }
}

layer {
  name: "dir11_TL"
  type: "Convolution"
  bottom: "pool5/7x7_s1"
  top: "dir11_TL"
  param {
    lr_mult: 1
    decay_mult: 1
  }
  param {
    lr_mult: 2
    decay_mult: 0
  }
  convolution_param {
    num_output: 4
    kernel_size: 1
    weight_filler {
      type: "gaussian"
      std: 0.01
    }
    bias_filler {
      type: "constant"
      value: 0
    }
  }
}

layer {
  name: "dir11_BR"
  type: "Convolution"
  bottom: "pool5/7x7_s1"
  top: "dir11_BR"
  param {
    lr_mult: 1
    decay_mult: 1
  }
  param {
    lr_mult: 2
    decay_mult: 0
  }
  convolution_param {
    num_output: 4
    kernel_size: 1
    weight_filler {
      type: "gaussian"
      std: 0.01
    }
    bias_filler {
      type: "constant"
      value: 0
    }
  }
}

layer {
  name: "dir12_TL"
  type: "Convolution"
  bottom: "pool5/7x7_s1"
  top: "dir12_TL"
  param {
    lr_mult: 1
    decay_mult: 1
  }
  param {
    lr_mult: 2
    decay_mult: 0
  }
  convolution_param {
    num_output: 4
    kernel_size: 1
    weight_filler {
      type: "gaussian"
      std: 0.01
    }
    bias_filler {
      type: "constant"
      value: 0
    }
  }
}

layer {
  name: "dir12_BR"
  type: "Convolution"
  bottom: "pool5/7x7_s1"
  top: "dir12_BR"
  param {
    lr_mult: 1
    decay_mult: 1
  }
  param {
    lr_mult: 2
    decay_mult: 0
  }
  convolution_param {
    num_output: 4
    kernel_size: 1
    weight_filler {
      type: "gaussian"
      std: 0.01
    }
    bias_filler {
      type: "constant"
      value: 0
    }
  }
}

layer {
  name: "dir13_TL"
  type: "Convolution"
  bottom: "pool5/7x7_s1"
  top: "dir13_TL"
  param {
    lr_mult: 1
    decay_mult: 1
  }
  param {
    lr_mult: 2
    decay_mult: 0
  }
  convolution_param {
    num_output: 4
    kernel_size: 1
    weight_filler {
      type: "gaussian"
      std: 0.01
    }
    bias_filler {
      type: "constant"
      value: 0
    }
  }
}

layer {
  name: "dir13_BR"
  type: "Convolution"
  bottom: "pool5/7x7_s1"
  top: "dir13_BR"
  param {
    lr_mult: 1
    decay_mult: 1
  }
  param {
    lr_mult: 2
    decay_mult: 0
  }
  convolution_param {
    num_output: 4
    kernel_size: 1
    weight_filler {
      type: "gaussian"
      std: 0.01
    }
    bias_filler {
      type: "constant"
      value: 0
    }
  }
}

layer {
  name: "dir14_TL"
  type: "Convolution"
  bottom: "pool5/7x7_s1"
  top: "dir14_TL"
  param {
    lr_mult: 1
    decay_mult: 1
  }
  param {
    lr_mult: 2
    decay_mult: 0
  }
  convolution_param {
    num_output: 4
    kernel_size: 1
    weight_filler {
      type: "gaussian"
      std: 0.01
    }
    bias_filler {
      type: "constant"
      value: 0
    }
  }
}

layer {
  name: "dir14_BR"
  type: "Convolution"
  bottom: "pool5/7x7_s1"
  top: "dir14_BR"
  param {
    lr_mult: 1
    decay_mult: 1
  }
  param {
    lr_mult: 2
    decay_mult: 0
  }
  convolution_param {
    num_output: 4
    kernel_size: 1
    weight_filler {
      type: "gaussian"
      std: 0.01
    }
    bias_filler {
      type: "constant"
      value: 0
    }
  }
}

layer {
  name: "dir15_TL"
  type: "Convolution"
  bottom: "pool5/7x7_s1"
  top: "dir15_TL"
  param {
    lr_mult: 1
    decay_mult: 1
  }
  param {
    lr_mult: 2
    decay_mult: 0
  }
  convolution_param {
    num_output: 4
    kernel_size: 1
    weight_filler {
      type: "gaussian"
      std: 0.01
    }
    bias_filler {
      type: "constant"
      value: 0
    }
  }
}

layer {
  name: "dir15_BR"
  type: "Convolution"
  bottom: "pool5/7x7_s1"
  top: "dir15_BR"
  param {
    lr_mult: 1
    decay_mult: 1
  }
  param {
    lr_mult: 2
    decay_mult: 0
  }
  convolution_param {
    num_output: 4
    kernel_size: 1
    weight_filler {
      type: "gaussian"
      std: 0.01
    }
    bias_filler {
      type: "constant"
      value: 0
    }
  }
}

layer {
  name: "dir16_TL"
  type: "Convolution"
  bottom: "pool5/7x7_s1"
  top: "dir16_TL"
  param {
    lr_mult: 1
    decay_mult: 1
  }
  param {
    lr_mult: 2
    decay_mult: 0
  }
  convolution_param {
    num_output: 4
    kernel_size: 1
    weight_filler {
      type: "gaussian"
      std: 0.01
    }
    bias_filler {
      type: "constant"
      value: 0
    }
  }
}

layer {
  name: "dir16_BR"
  type: "Convolution"
  bottom: "pool5/7x7_s1"
  top: "dir16_BR"
  param {
    lr_mult: 1
    decay_mult: 1
  }
  param {
    lr_mult: 2
    decay_mult: 0
  }
  convolution_param {
    num_output: 4
    kernel_size: 1
    weight_filler {
      type: "gaussian"
      std: 0.01
    }
    bias_filler {
      type: "constant"
      value: 0
    }
  }
}

layer {
  name: "dir17_TL"
  type: "Convolution"
  bottom: "pool5/7x7_s1"
  top: "dir17_TL"
  param {
    lr_mult: 1
    decay_mult: 1
  }
  param {
    lr_mult: 2
    decay_mult: 0
  }
  convolution_param {
    num_output: 4
    kernel_size: 1
    weight_filler {
      type: "gaussian"
      std: 0.01
    }
    bias_filler {
      type: "constant"
      value: 0
    }
  }
}

layer {
  name: "dir17_BR"
  type: "Convolution"
  bottom: "pool5/7x7_s1"
  top: "dir17_BR"
  param {
    lr_mult: 1
    decay_mult: 1
  }
  param {
    lr_mult: 2
    decay_mult: 0
  }
  convolution_param {
    num_output: 4
    kernel_size: 1
    weight_filler {
      type: "gaussian"
      std: 0.01
    }
    bias_filler {
      type: "constant"
      value: 0
    }
  }
}

layer {
  name: "dir18_TL"
  type: "Convolution"
  bottom: "pool5/7x7_s1"
  top: "dir18_TL"
  param {
    lr_mult: 1
    decay_mult: 1
  }
  param {
    lr_mult: 2
    decay_mult: 0
  }
  convolution_param {
    num_output: 4
    kernel_size: 1
    weight_filler {
      type: "gaussian"
      std: 0.01
    }
    bias_filler {
      type: "constant"
      value: 0
    }
  }
}

layer {
  name: "dir18_BR"
  type: "Convolution"
  bottom: "pool5/7x7_s1"
  top: "dir18_BR"
  param {
    lr_mult: 1
    decay_mult: 1
  }
  param {
    lr_mult: 2
    decay_mult: 0
  }
  convolution_param {
    num_output: 4
    kernel_size: 1
    weight_filler {
      type: "gaussian"
      std: 0.01
    }
    bias_filler {
      type: "constant"
      value: 0
    }
  }
}

layer {
  name: "dir19_TL"
  type: "Convolution"
  bottom: "pool5/7x7_s1"
  top: "dir19_TL"
  param {
    lr_mult: 1
    decay_mult: 1
  }
  param {
    lr_mult: 2
    decay_mult: 0
  }
  convolution_param {
    num_output: 4
    kernel_size: 1
    weight_filler {
      type: "gaussian"
      std: 0.01
    }
    bias_filler {
      type: "constant"
      value: 0
    }
  }
}

layer {
  name: "dir19_BR"
  type: "Convolution"
  bottom: "pool5/7x7_s1"
  top: "dir19_BR"
  param {
    lr_mult: 1
    decay_mult: 1
  }
  param {
    lr_mult: 2
    decay_mult: 0
  }
  convolution_param {
    num_output: 4
    kernel_size: 1
    weight_filler {
      type: "gaussian"
      std: 0.01
    }
    bias_filler {
      type: "constant"
      value: 0
    }
  }
}

layer {
  name: "dir20_TL"
  type: "Convolution"
  bottom: "pool5/7x7_s1"
  top: "dir20_TL"
  param {
    lr_mult: 1
    decay_mult: 1
  }
  param {
    lr_mult: 2
    decay_mult: 0
  }
  convolution_param {
    num_output: 4
    kernel_size: 1
    weight_filler {
      type: "gaussian"
      std: 0.01
    }
    bias_filler {
      type: "constant"
      value: 0
    }
  }
}

layer {
  name: "dir20_BR"
  type: "Convolution"
  bottom: "pool5/7x7_s1"
  top: "dir20_BR"
  param {
    lr_mult: 1
    decay_mult: 1
  }
  param {
    lr_mult: 2
    decay_mult: 0
  }
  convolution_param {
    num_output: 4
    kernel_size: 1
    weight_filler {
      type: "gaussian"
      std: 0.01
    }
    bias_filler {
      type: "constant"
      value: 0
    }
  }
}

layer {
  name: "dir21_TL"
  type: "Convolution"
  bottom: "pool5/7x7_s1"
  top: "dir21_TL"
  param {
    lr_mult: 1
    decay_mult: 1
  }
  param {
    lr_mult: 2
    decay_mult: 0
  }
  convolution_param {
    num_output: 4
    kernel_size: 1
    weight_filler {
      type: "gaussian"
      std: 0.01
    }
    bias_filler {
      type: "constant"
      value: 0
    }
  }
}

layer {
  name: "dir21_BR"
  type: "Convolution"
  bottom: "pool5/7x7_s1"
  top: "dir21_BR"
  param {
    lr_mult: 1
    decay_mult: 1
  }
  param {
    lr_mult: 2
    decay_mult: 0
  }
  convolution_param {
    num_output: 4
    kernel_size: 1
    weight_filler {
      type: "gaussian"
      std: 0.01
    }
    bias_filler {
      type: "constant"
      value: 0
    }
  }
}

layer {
  name: "dir22_TL"
  type: "Convolution"
  bottom: "pool5/7x7_s1"
  top: "dir22_TL"
  param {
    lr_mult: 1
    decay_mult: 1
  }
  param {
    lr_mult: 2
    decay_mult: 0
  }
  convolution_param {
    num_output: 4
    kernel_size: 1
    weight_filler {
      type: "gaussian"
      std: 0.01
    }
    bias_filler {
      type: "constant"
      value: 0
    }
  }
}

layer {
  name: "dir22_BR"
  type: "Convolution"
  bottom: "pool5/7x7_s1"
  top: "dir22_BR"
  param {
    lr_mult: 1
    decay_mult: 1
  }
  param {
    lr_mult: 2
    decay_mult: 0
  }
  convolution_param {
    num_output: 4
    kernel_size: 1
    weight_filler {
      type: "gaussian"
      std: 0.01
    }
    bias_filler {
      type: "constant"
      value: 0
    }
  }
}

layer {
  name: "dir23_TL"
  type: "Convolution"
  bottom: "pool5/7x7_s1"
  top: "dir23_TL"
  param {
    lr_mult: 1
    decay_mult: 1
  }
  param {
    lr_mult: 2
    decay_mult: 0
  }
  convolution_param {
    num_output: 4
    kernel_size: 1
    weight_filler {
      type: "gaussian"
      std: 0.01
    }
    bias_filler {
      type: "constant"
      value: 0
    }
  }
}

layer {
  name: "dir23_BR"
  type: "Convolution"
  bottom: "pool5/7x7_s1"
  top: "dir23_BR"
  param {
    lr_mult: 1
    decay_mult: 1
  }
  param {
    lr_mult: 2
    decay_mult: 0
  }
  convolution_param {
    num_output: 4
    kernel_size: 1
    weight_filler {
      type: "gaussian"
      std: 0.01
    }
    bias_filler {
      type: "constant"
      value: 0
    }
  }
}

layer {
  name: "dir24_TL"
  type: "Convolution"
  bottom: "pool5/7x7_s1"
  top: "dir24_TL"
  param {
    lr_mult: 1
    decay_mult: 1
  }
  param {
    lr_mult: 2
    decay_mult: 0
  }
  convolution_param {
    num_output: 4
    kernel_size: 1
    weight_filler {
      type: "gaussian"
      std: 0.01
    }
    bias_filler {
      type: "constant"
      value: 0
    }
  }
}

layer {
  name: "dir24_BR"
  type: "Convolution"
  bottom: "pool5/7x7_s1"
  top: "dir24_BR"
  param {
    lr_mult: 1
    decay_mult: 1
  }
  param {
    lr_mult: 2
    decay_mult: 0
  }
  convolution_param {
    num_output: 4
    kernel_size: 1
    weight_filler {
      type: "gaussian"
      std: 0.01
    }
    bias_filler {
      type: "constant"
      value: 0
    }
  }
}

layer {
  name: "dir25_TL"
  type: "Convolution"
  bottom: "pool5/7x7_s1"
  top: "dir25_TL"
  param {
    lr_mult: 1
    decay_mult: 1
  }
  param {
    lr_mult: 2
    decay_mult: 0
  }
  convolution_param {
    num_output: 4
    kernel_size: 1
    weight_filler {
      type: "gaussian"
      std: 0.01
    }
    bias_filler {
      type: "constant"
      value: 0
    }
  }
}

layer {
  name: "dir25_BR"
  type: "Convolution"
  bottom: "pool5/7x7_s1"
  top: "dir25_BR"
  param {
    lr_mult: 1
    decay_mult: 1
  }
  param {
    lr_mult: 2
    decay_mult: 0
  }
  convolution_param {
    num_output: 4
    kernel_size: 1
    weight_filler {
      type: "gaussian"
      std: 0.01
    }
    bias_filler {
      type: "constant"
      value: 0
    }
  }
}

layer {
  name: "dir26_TL"
  type: "Convolution"
  bottom: "pool5/7x7_s1"
  top: "dir26_TL"
  param {
    lr_mult: 1
    decay_mult: 1
  }
  param {
    lr_mult: 2
    decay_mult: 0
  }
  convolution_param {
    num_output: 4
    kernel_size: 1
    weight_filler {
      type: "gaussian"
      std: 0.01
    }
    bias_filler {
      type: "constant"
      value: 0
    }
  }
}

layer {
  name: "dir26_BR"
  type: "Convolution"
  bottom: "pool5/7x7_s1"
  top: "dir26_BR"
  param {
    lr_mult: 1
    decay_mult: 1
  }
  param {
    lr_mult: 2
    decay_mult: 0
  }
  convolution_param {
    num_output: 4
    kernel_size: 1
    weight_filler {
      type: "gaussian"
      std: 0.01
    }
    bias_filler {
      type: "constant"
      value: 0
    }
  }
}

layer {
  name: "dir27_TL"
  type: "Convolution"
  bottom: "pool5/7x7_s1"
  top: "dir27_TL"
  param {
    lr_mult: 1
    decay_mult: 1
  }
  param {
    lr_mult: 2
    decay_mult: 0
  }
  convolution_param {
    num_output: 4
    kernel_size: 1
    weight_filler {
      type: "gaussian"
      std: 0.01
    }
    bias_filler {
      type: "constant"
      value: 0
    }
  }
}

layer {
  name: "dir27_BR"
  type: "Convolution"
  bottom: "pool5/7x7_s1"
  top: "dir27_BR"
  param {
    lr_mult: 1
    decay_mult: 1
  }
  param {
    lr_mult: 2
    decay_mult: 0
  }
  convolution_param {
    num_output: 4
    kernel_size: 1
    weight_filler {
      type: "gaussian"
      std: 0.01
    }
    bias_filler {
      type: "constant"
      value: 0
    }
  }
}

layer {
  name: "dir28_TL"
  type: "Convolution"
  bottom: "pool5/7x7_s1"
  top: "dir28_TL"
  param {
    lr_mult: 1
    decay_mult: 1
  }
  param {
    lr_mult: 2
    decay_mult: 0
  }
  convolution_param {
    num_output: 4
    kernel_size: 1
    weight_filler {
      type: "gaussian"
      std: 0.01
    }
    bias_filler {
      type: "constant"
      value: 0
    }
  }
}

layer {
  name: "dir28_BR"
  type: "Convolution"
  bottom: "pool5/7x7_s1"
  top: "dir28_BR"
  param {
    lr_mult: 1
    decay_mult: 1
  }
  param {
    lr_mult: 2
    decay_mult: 0
  }
  convolution_param {
    num_output: 4
    kernel_size: 1
    weight_filler {
      type: "gaussian"
      std: 0.01
    }
    bias_filler {
      type: "constant"
      value: 0
    }
  }
}

layer {
  name: "dir29_TL"
  type: "Convolution"
  bottom: "pool5/7x7_s1"
  top: "dir29_TL"
  param {
    lr_mult: 1
    decay_mult: 1
  }
  param {
    lr_mult: 2
    decay_mult: 0
  }
  convolution_param {
    num_output: 4
    kernel_size: 1
    weight_filler {
      type: "gaussian"
      std: 0.01
    }
    bias_filler {
      type: "constant"
      value: 0
    }
  }
}

layer {
  name: "dir29_BR"
  type: "Convolution"
  bottom: "pool5/7x7_s1"
  top: "dir29_BR"
  param {
    lr_mult: 1
    decay_mult: 1
  }
  param {
    lr_mult: 2
    decay_mult: 0
  }
  convolution_param {
    num_output: 4
    kernel_size: 1
    weight_filler {
      type: "gaussian"
      std: 0.01
    }
    bias_filler {
      type: "constant"
      value: 0
    }
  }
}

layer {
  name: "dir30_TL"
  type: "Convolution"
  bottom: "pool5/7x7_s1"
  top: "dir30_TL"
  param {
    lr_mult: 1
    decay_mult: 1
  }
  param {
    lr_mult: 2
    decay_mult: 0
  }
  convolution_param {
    num_output: 4
    kernel_size: 1
    weight_filler {
      type: "gaussian"
      std: 0.01
    }
    bias_filler {
      type: "constant"
      value: 0
    }
  }
}

layer {
  name: "dir30_BR"
  type: "Convolution"
  bottom: "pool5/7x7_s1"
  top: "dir30_BR"
  param {
    lr_mult: 1
    decay_mult: 1
  }
  param {
    lr_mult: 2
    decay_mult: 0
  }
  convolution_param {
    num_output: 4
    kernel_size: 1
    weight_filler {
      type: "gaussian"
      std: 0.01
    }
    bias_filler {
      type: "constant"
      value: 0
    }
  }
}

layer {
  name: "dir31_TL"
  type: "Convolution"
  bottom: "pool5/7x7_s1"
  top: "dir31_TL"
  param {
    lr_mult: 1
    decay_mult: 1
  }
  param {
    lr_mult: 2
    decay_mult: 0
  }
  convolution_param {
    num_output: 4
    kernel_size: 1
    weight_filler {
      type: "gaussian"
      std: 0.01
    }
    bias_filler {
      type: "constant"
      value: 0
    }
  }
}

layer {
  name: "dir31_BR"
  type: "Convolution"
  bottom: "pool5/7x7_s1"
  top: "dir31_BR"
  param {
    lr_mult: 1
    decay_mult: 1
  }
  param {
    lr_mult: 2
    decay_mult: 0
  }
  convolution_param {
    num_output: 4
    kernel_size: 1
    weight_filler {
      type: "gaussian"
      std: 0.01
    }
    bias_filler {
      type: "constant"
      value: 0
    }
  }
}

layer {
  name: "dir32_TL"
  type: "Convolution"
  bottom: "pool5/7x7_s1"
  top: "dir32_TL"
  param {
    lr_mult: 1
    decay_mult: 1
  }
  param {
    lr_mult: 2
    decay_mult: 0
  }
  convolution_param {
    num_output: 4
    kernel_size: 1
    weight_filler {
      type: "gaussian"
      std: 0.01
    }
    bias_filler {
      type: "constant"
      value: 0
    }
  }
}

layer {
  name: "dir32_BR"
  type: "Convolution"
  bottom: "pool5/7x7_s1"
  top: "dir32_BR"
  param {
    lr_mult: 1
    decay_mult: 1
  }
  param {
    lr_mult: 2
    decay_mult: 0
  }
  convolution_param {
    num_output: 4
    kernel_size: 1
    weight_filler {
      type: "gaussian"
      std: 0.01
    }
    bias_filler {
      type: "constant"
      value: 0
    }
  }
}

layer {
  name: "dir33_TL"
  type: "Convolution"
  bottom: "pool5/7x7_s1"
  top: "dir33_TL"
  param {
    lr_mult: 1
    decay_mult: 1
  }
  param {
    lr_mult: 2
    decay_mult: 0
  }
  convolution_param {
    num_output: 4
    kernel_size: 1
    weight_filler {
      type: "gaussian"
      std: 0.01
    }
    bias_filler {
      type: "constant"
      value: 0
    }
  }
}

layer {
  name: "dir33_BR"
  type: "Convolution"
  bottom: "pool5/7x7_s1"
  top: "dir33_BR"
  param {
    lr_mult: 1
    decay_mult: 1
  }
  param {
    lr_mult: 2
    decay_mult: 0
  }
  convolution_param {
    num_output: 4
    kernel_size: 1
    weight_filler {
      type: "gaussian"
      std: 0.01
    }
    bias_filler {
      type: "constant"
      value: 0
    }
  }
}

layer {
  name: "dir34_TL"
  type: "Convolution"
  bottom: "pool5/7x7_s1"
  top: "dir34_TL"
  param {
    lr_mult: 1
    decay_mult: 1
  }
  param {
    lr_mult: 2
    decay_mult: 0
  }
  convolution_param {
    num_output: 4
    kernel_size: 1
    weight_filler {
      type: "gaussian"
      std: 0.01
    }
    bias_filler {
      type: "constant"
      value: 0
    }
  }
}

layer {
  name: "dir34_BR"
  type: "Convolution"
  bottom: "pool5/7x7_s1"
  top: "dir34_BR"
  param {
    lr_mult: 1
    decay_mult: 1
  }
  param {
    lr_mult: 2
    decay_mult: 0
  }
  convolution_param {
    num_output: 4
    kernel_size: 1
    weight_filler {
      type: "gaussian"
      std: 0.01
    }
    bias_filler {
      type: "constant"
      value: 0
    }
  }
}

layer {
  name: "dir35_TL"
  type: "Convolution"
  bottom: "pool5/7x7_s1"
  top: "dir35_TL"
  param {
    lr_mult: 1
    decay_mult: 1
  }
  param {
    lr_mult: 2
    decay_mult: 0
  }
  convolution_param {
    num_output: 4
    kernel_size: 1
    weight_filler {
      type: "gaussian"
      std: 0.01
    }
    bias_filler {
      type: "constant"
      value: 0
    }
  }
}

layer {
  name: "dir35_BR"
  type: "Convolution"
  bottom: "pool5/7x7_s1"
  top: "dir35_BR"
  param {
    lr_mult: 1
    decay_mult: 1
  }
  param {
    lr_mult: 2
    decay_mult: 0
  }
  convolution_param {
    num_output: 4
    kernel_size: 1
    weight_filler {
      type: "gaussian"
      std: 0.01
    }
    bias_filler {
      type: "constant"
      value: 0
    }
  }
}

layer {
  name: "dir36_TL"
  type: "Convolution"
  bottom: "pool5/7x7_s1"
  top: "dir36_TL"
  param {
    lr_mult: 1
    decay_mult: 1
  }
  param {
    lr_mult: 2
    decay_mult: 0
  }
  convolution_param {
    num_output: 4
    kernel_size: 1
    weight_filler {
      type: "gaussian"
      std: 0.01
    }
    bias_filler {
      type: "constant"
      value: 0
    }
  }
}

layer {
  name: "dir36_BR"
  type: "Convolution"
  bottom: "pool5/7x7_s1"
  top: "dir36_BR"
  param {
    lr_mult: 1
    decay_mult: 1
  }
  param {
    lr_mult: 2
    decay_mult: 0
  }
  convolution_param {
    num_output: 4
    kernel_size: 1
    weight_filler {
      type: "gaussian"
      std: 0.01
    }
    bias_filler {
      type: "constant"
      value: 0
    }
  }
}

layer {
  name: "dir37_TL"
  type: "Convolution"
  bottom: "pool5/7x7_s1"
  top: "dir37_TL"
  param {
    lr_mult: 1
    decay_mult: 1
  }
  param {
    lr_mult: 2
    decay_mult: 0
  }
  convolution_param {
    num_output: 4
    kernel_size: 1
    weight_filler {
      type: "gaussian"
      std: 0.01
    }
    bias_filler {
      type: "constant"
      value: 0
    }
  }
}

layer {
  name: "dir37_BR"
  type: "Convolution"
  bottom: "pool5/7x7_s1"
  top: "dir37_BR"
  param {
    lr_mult: 1
    decay_mult: 1
  }
  param {
    lr_mult: 2
    decay_mult: 0
  }
  convolution_param {
    num_output: 4
    kernel_size: 1
    weight_filler {
      type: "gaussian"
      std: 0.01
    }
    bias_filler {
      type: "constant"
      value: 0
    }
  }
}

layer {
  name: "dir38_TL"
  type: "Convolution"
  bottom: "pool5/7x7_s1"
  top: "dir38_TL"
  param {
    lr_mult: 1
    decay_mult: 1
  }
  param {
    lr_mult: 2
    decay_mult: 0
  }
  convolution_param {
    num_output: 4
    kernel_size: 1
    weight_filler {
      type: "gaussian"
      std: 0.01
    }
    bias_filler {
      type: "constant"
      value: 0
    }
  }
}

layer {
  name: "dir38_BR"
  type: "Convolution"
  bottom: "pool5/7x7_s1"
  top: "dir38_BR"
  param {
    lr_mult: 1
    decay_mult: 1
  }
  param {
    lr_mult: 2
    decay_mult: 0
  }
  convolution_param {
    num_output: 4
    kernel_size: 1
    weight_filler {
      type: "gaussian"
      std: 0.01
    }
    bias_filler {
      type: "constant"
      value: 0
    }
  }
}

layer {
  name: "dir39_TL"
  type: "Convolution"
  bottom: "pool5/7x7_s1"
  top: "dir39_TL"
  param {
    lr_mult: 1
    decay_mult: 1
  }
  param {
    lr_mult: 2
    decay_mult: 0
  }
  convolution_param {
    num_output: 4
    kernel_size: 1
    weight_filler {
      type: "gaussian"
      std: 0.01
    }
    bias_filler {
      type: "constant"
      value: 0
    }
  }
}

layer {
  name: "dir39_BR"
  type: "Convolution"
  bottom: "pool5/7x7_s1"
  top: "dir39_BR"
  param {
    lr_mult: 1
    decay_mult: 1
  }
  param {
    lr_mult: 2
    decay_mult: 0
  }
  convolution_param {
    num_output: 4
    kernel_size: 1
    weight_filler {
      type: "gaussian"
      std: 0.01
    }
    bias_filler {
      type: "constant"
      value: 0
    }
  }
}

layer {
  name: "dir40_TL"
  type: "Convolution"
  bottom: "pool5/7x7_s1"
  top: "dir40_TL"
  param {
    lr_mult: 1
    decay_mult: 1
  }
  param {
    lr_mult: 2
    decay_mult: 0
  }
  convolution_param {
    num_output: 4
    kernel_size: 1
    weight_filler {
      type: "gaussian"
      std: 0.01
    }
    bias_filler {
      type: "constant"
      value: 0
    }
  }
}

layer {
  name: "dir40_BR"
  type: "Convolution"
  bottom: "pool5/7x7_s1"
  top: "dir40_BR"
  param {
    lr_mult: 1
    decay_mult: 1
  }
  param {
    lr_mult: 2
    decay_mult: 0
  }
  convolution_param {
    num_output: 4
    kernel_size: 1
    weight_filler {
      type: "gaussian"
      std: 0.01
    }
    bias_filler {
      type: "constant"
      value: 0
    }
  }
}

layer {
  name: "dir41_TL"
  type: "Convolution"
  bottom: "pool5/7x7_s1"
  top: "dir41_TL"
  param {
    lr_mult: 1
    decay_mult: 1
  }
  param {
    lr_mult: 2
    decay_mult: 0
  }
  convolution_param {
    num_output: 4
    kernel_size: 1
    weight_filler {
      type: "gaussian"
      std: 0.01
    }
    bias_filler {
      type: "constant"
      value: 0
    }
  }
}

layer {
  name: "dir41_BR"
  type: "Convolution"
  bottom: "pool5/7x7_s1"
  top: "dir41_BR"
  param {
    lr_mult: 1
    decay_mult: 1
  }
  param {
    lr_mult: 2
    decay_mult: 0
  }
  convolution_param {
    num_output: 4
    kernel_size: 1
    weight_filler {
      type: "gaussian"
      std: 0.01
    }
    bias_filler {
      type: "constant"
      value: 0
    }
  }
}

layer {
  name: "dir42_TL"
  type: "Convolution"
  bottom: "pool5/7x7_s1"
  top: "dir42_TL"
  param {
    lr_mult: 1
    decay_mult: 1
  }
  param {
    lr_mult: 2
    decay_mult: 0
  }
  convolution_param {
    num_output: 4
    kernel_size: 1
    weight_filler {
      type: "gaussian"
      std: 0.01
    }
    bias_filler {
      type: "constant"
      value: 0
    }
  }
}

layer {
  name: "dir42_BR"
  type: "Convolution"
  bottom: "pool5/7x7_s1"
  top: "dir42_BR"
  param {
    lr_mult: 1
    decay_mult: 1
  }
  param {
    lr_mult: 2
    decay_mult: 0
  }
  convolution_param {
    num_output: 4
    kernel_size: 1
    weight_filler {
      type: "gaussian"
      std: 0.01
    }
    bias_filler {
      type: "constant"
      value: 0
    }
  }
}

layer {
  name: "dir43_TL"
  type: "Convolution"
  bottom: "pool5/7x7_s1"
  top: "dir43_TL"
  param {
    lr_mult: 1
    decay_mult: 1
  }
  param {
    lr_mult: 2
    decay_mult: 0
  }
  convolution_param {
    num_output: 4
    kernel_size: 1
    weight_filler {
      type: "gaussian"
      std: 0.01
    }
    bias_filler {
      type: "constant"
      value: 0
    }
  }
}

layer {
  name: "dir43_BR"
  type: "Convolution"
  bottom: "pool5/7x7_s1"
  top: "dir43_BR"
  param {
    lr_mult: 1
    decay_mult: 1
  }
  param {
    lr_mult: 2
    decay_mult: 0
  }
  convolution_param {
    num_output: 4
    kernel_size: 1
    weight_filler {
      type: "gaussian"
      std: 0.01
    }
    bias_filler {
      type: "constant"
      value: 0
    }
  }
}

layer {
  name: "dir44_TL"
  type: "Convolution"
  bottom: "pool5/7x7_s1"
  top: "dir44_TL"
  param {
    lr_mult: 1
    decay_mult: 1
  }
  param {
    lr_mult: 2
    decay_mult: 0
  }
  convolution_param {
    num_output: 4
    kernel_size: 1
    weight_filler {
      type: "gaussian"
      std: 0.01
    }
    bias_filler {
      type: "constant"
      value: 0
    }
  }
}

layer {
  name: "dir44_BR"
  type: "Convolution"
  bottom: "pool5/7x7_s1"
  top: "dir44_BR"
  param {
    lr_mult: 1
    decay_mult: 1
  }
  param {
    lr_mult: 2
    decay_mult: 0
  }
  convolution_param {
    num_output: 4
    kernel_size: 1
    weight_filler {
      type: "gaussian"
      std: 0.01
    }
    bias_filler {
      type: "constant"
      value: 0
    }
  }
}

layer {
  name: "dir45_TL"
  type: "Convolution"
  bottom: "pool5/7x7_s1"
  top: "dir45_TL"
  param {
    lr_mult: 1
    decay_mult: 1
  }
  param {
    lr_mult: 2
    decay_mult: 0
  }
  convolution_param {
    num_output: 4
    kernel_size: 1
    weight_filler {
      type: "gaussian"
      std: 0.01
    }
    bias_filler {
      type: "constant"
      value: 0
    }
  }
}

layer {
  name: "dir45_BR"
  type: "Convolution"
  bottom: "pool5/7x7_s1"
  top: "dir45_BR"
  param {
    lr_mult: 1
    decay_mult: 1
  }
  param {
    lr_mult: 2
    decay_mult: 0
  }
  convolution_param {
    num_output: 4
    kernel_size: 1
    weight_filler {
      type: "gaussian"
      std: 0.01
    }
    bias_filler {
      type: "constant"
      value: 0
    }
  }
}

layer {
  name: "dir46_TL"
  type: "Convolution"
  bottom: "pool5/7x7_s1"
  top: "dir46_TL"
  param {
    lr_mult: 1
    decay_mult: 1
  }
  param {
    lr_mult: 2
    decay_mult: 0
  }
  convolution_param {
    num_output: 4
    kernel_size: 1
    weight_filler {
      type: "gaussian"
      std: 0.01
    }
    bias_filler {
      type: "constant"
      value: 0
    }
  }
}

layer {
  name: "dir46_BR"
  type: "Convolution"
  bottom: "pool5/7x7_s1"
  top: "dir46_BR"
  param {
    lr_mult: 1
    decay_mult: 1
  }
  param {
    lr_mult: 2
    decay_mult: 0
  }
  convolution_param {
    num_output: 4
    kernel_size: 1
    weight_filler {
      type: "gaussian"
      std: 0.01
    }
    bias_filler {
      type: "constant"
      value: 0
    }
  }
}

layer {
  name: "dir47_TL"
  type: "Convolution"
  bottom: "pool5/7x7_s1"
  top: "dir47_TL"
  param {
    lr_mult: 1
    decay_mult: 1
  }
  param {
    lr_mult: 2
    decay_mult: 0
  }
  convolution_param {
    num_output: 4
    kernel_size: 1
    weight_filler {
      type: "gaussian"
      std: 0.01
    }
    bias_filler {
      type: "constant"
      value: 0
    }
  }
}

layer {
  name: "dir47_BR"
  type: "Convolution"
  bottom: "pool5/7x7_s1"
  top: "dir47_BR"
  param {
    lr_mult: 1
    decay_mult: 1
  }
  param {
    lr_mult: 2
    decay_mult: 0
  }
  convolution_param {
    num_output: 4
    kernel_size: 1
    weight_filler {
      type: "gaussian"
      std: 0.01
    }
    bias_filler {
      type: "constant"
      value: 0
    }
  }
}

layer {
  name: "dir48_TL"
  type: "Convolution"
  bottom: "pool5/7x7_s1"
  top: "dir48_TL"
  param {
    lr_mult: 1
    decay_mult: 1
  }
  param {
    lr_mult: 2
    decay_mult: 0
  }
  convolution_param {
    num_output: 4
    kernel_size: 1
    weight_filler {
      type: "gaussian"
      std: 0.01
    }
    bias_filler {
      type: "constant"
      value: 0
    }
  }
}

layer {
  name: "dir48_BR"
  type: "Convolution"
  bottom: "pool5/7x7_s1"
  top: "dir48_BR"
  param {
    lr_mult: 1
    decay_mult: 1
  }
  param {
    lr_mult: 2
    decay_mult: 0
  }
  convolution_param {
    num_output: 4
    kernel_size: 1
    weight_filler {
      type: "gaussian"
      std: 0.01
    }
    bias_filler {
      type: "constant"
      value: 0
    }
  }
}

layer {
  name: "dir49_TL"
  type: "Convolution"
  bottom: "pool5/7x7_s1"
  top: "dir49_TL"
  param {
    lr_mult: 1
    decay_mult: 1
  }
  param {
    lr_mult: 2
    decay_mult: 0
  }
  convolution_param {
    num_output: 4
    kernel_size: 1
    weight_filler {
      type: "gaussian"
      std: 0.01
    }
    bias_filler {
      type: "constant"
      value: 0
    }
  }
}

layer {
  name: "dir49_BR"
  type: "Convolution"
  bottom: "pool5/7x7_s1"
  top: "dir49_BR"
  param {
    lr_mult: 1
    decay_mult: 1
  }
  param {
    lr_mult: 2
    decay_mult: 0
  }
  convolution_param {
    num_output: 4
    kernel_size: 1
    weight_filler {
      type: "gaussian"
      std: 0.01
    }
    bias_filler {
      type: "constant"
      value: 0
    }
  }
}

layer {
  name: "dir50_TL"
  type: "Convolution"
  bottom: "pool5/7x7_s1"
  top: "dir50_TL"
  param {
    lr_mult: 1
    decay_mult: 1
  }
  param {
    lr_mult: 2
    decay_mult: 0
  }
  convolution_param {
    num_output: 4
    kernel_size: 1
    weight_filler {
      type: "gaussian"
      std: 0.01
    }
    bias_filler {
      type: "constant"
      value: 0
    }
  }
}

layer {
  name: "dir50_BR"
  type: "Convolution"
  bottom: "pool5/7x7_s1"
  top: "dir50_BR"
  param {
    lr_mult: 1
    decay_mult: 1
  }
  param {
    lr_mult: 2
    decay_mult: 0
  }
  convolution_param {
    num_output: 4
    kernel_size: 1
    weight_filler {
      type: "gaussian"
      std: 0.01
    }
    bias_filler {
      type: "constant"
      value: 0
    }
  }
}

layer {
  name: "dir51_TL"
  type: "Convolution"
  bottom: "pool5/7x7_s1"
  top: "dir51_TL"
  param {
    lr_mult: 1
    decay_mult: 1
  }
  param {
    lr_mult: 2
    decay_mult: 0
  }
  convolution_param {
    num_output: 4
    kernel_size: 1
    weight_filler {
      type: "gaussian"
      std: 0.01
    }
    bias_filler {
      type: "constant"
      value: 0
    }
  }
}

layer {
  name: "dir51_BR"
  type: "Convolution"
  bottom: "pool5/7x7_s1"
  top: "dir51_BR"
  param {
    lr_mult: 1
    decay_mult: 1
  }
  param {
    lr_mult: 2
    decay_mult: 0
  }
  convolution_param {
    num_output: 4
    kernel_size: 1
    weight_filler {
      type: "gaussian"
      std: 0.01
    }
    bias_filler {
      type: "constant"
      value: 0
    }
  }
}

layer {
  name: "dir52_TL"
  type: "Convolution"
  bottom: "pool5/7x7_s1"
  top: "dir52_TL"
  param {
    lr_mult: 1
    decay_mult: 1
  }
  param {
    lr_mult: 2
    decay_mult: 0
  }
  convolution_param {
    num_output: 4
    kernel_size: 1
    weight_filler {
      type: "gaussian"
      std: 0.01
    }
    bias_filler {
      type: "constant"
      value: 0
    }
  }
}

layer {
  name: "dir52_BR"
  type: "Convolution"
  bottom: "pool5/7x7_s1"
  top: "dir52_BR"
  param {
    lr_mult: 1
    decay_mult: 1
  }
  param {
    lr_mult: 2
    decay_mult: 0
  }
  convolution_param {
    num_output: 4
    kernel_size: 1
    weight_filler {
      type: "gaussian"
      std: 0.01
    }
    bias_filler {
      type: "constant"
      value: 0
    }
  }
}

layer {
  name: "dir53_TL"
  type: "Convolution"
  bottom: "pool5/7x7_s1"
  top: "dir53_TL"
  param {
    lr_mult: 1
    decay_mult: 1
  }
  param {
    lr_mult: 2
    decay_mult: 0
  }
  convolution_param {
    num_output: 4
    kernel_size: 1
    weight_filler {
      type: "gaussian"
      std: 0.01
    }
    bias_filler {
      type: "constant"
      value: 0
    }
  }
}

layer {
  name: "dir53_BR"
  type: "Convolution"
  bottom: "pool5/7x7_s1"
  top: "dir53_BR"
  param {
    lr_mult: 1
    decay_mult: 1
  }
  param {
    lr_mult: 2
    decay_mult: 0
  }
  convolution_param {
    num_output: 4
    kernel_size: 1
    weight_filler {
      type: "gaussian"
      std: 0.01
    }
    bias_filler {
      type: "constant"
      value: 0
    }
  }
}

layer {
  name: "dir54_TL"
  type: "Convolution"
  bottom: "pool5/7x7_s1"
  top: "dir54_TL"
  param {
    lr_mult: 1
    decay_mult: 1
  }
  param {
    lr_mult: 2
    decay_mult: 0
  }
  convolution_param {
    num_output: 4
    kernel_size: 1
    weight_filler {
      type: "gaussian"
      std: 0.01
    }
    bias_filler {
      type: "constant"
      value: 0
    }
  }
}

layer {
  name: "dir54_BR"
  type: "Convolution"
  bottom: "pool5/7x7_s1"
  top: "dir54_BR"
  param {
    lr_mult: 1
    decay_mult: 1
  }
  param {
    lr_mult: 2
    decay_mult: 0
  }
  convolution_param {
    num_output: 4
    kernel_size: 1
    weight_filler {
      type: "gaussian"
      std: 0.01
    }
    bias_filler {
      type: "constant"
      value: 0
    }
  }
}

layer {
  name: "dir55_TL"
  type: "Convolution"
  bottom: "pool5/7x7_s1"
  top: "dir55_TL"
  param {
    lr_mult: 1
    decay_mult: 1
  }
  param {
    lr_mult: 2
    decay_mult: 0
  }
  convolution_param {
    num_output: 4
    kernel_size: 1
    weight_filler {
      type: "gaussian"
      std: 0.01
    }
    bias_filler {
      type: "constant"
      value: 0
    }
  }
}

layer {
  name: "dir55_BR"
  type: "Convolution"
  bottom: "pool5/7x7_s1"
  top: "dir55_BR"
  param {
    lr_mult: 1
    decay_mult: 1
  }
  param {
    lr_mult: 2
    decay_mult: 0
  }
  convolution_param {
    num_output: 4
    kernel_size: 1
    weight_filler {
      type: "gaussian"
      std: 0.01
    }
    bias_filler {
      type: "constant"
      value: 0
    }
  }
}

layer {
  name: "dir56_TL"
  type: "Convolution"
  bottom: "pool5/7x7_s1"
  top: "dir56_TL"
  param {
    lr_mult: 1
    decay_mult: 1
  }
  param {
    lr_mult: 2
    decay_mult: 0
  }
  convolution_param {
    num_output: 4
    kernel_size: 1
    weight_filler {
      type: "gaussian"
      std: 0.01
    }
    bias_filler {
      type: "constant"
      value: 0
    }
  }
}

layer {
  name: "dir56_BR"
  type: "Convolution"
  bottom: "pool5/7x7_s1"
  top: "dir56_BR"
  param {
    lr_mult: 1
    decay_mult: 1
  }
  param {
    lr_mult: 2
    decay_mult: 0
  }
  convolution_param {
    num_output: 4
    kernel_size: 1
    weight_filler {
      type: "gaussian"
      std: 0.01
    }
    bias_filler {
      type: "constant"
      value: 0
    }
  }
}

layer {
  name: "dir57_TL"
  type: "Convolution"
  bottom: "pool5/7x7_s1"
  top: "dir57_TL"
  param {
    lr_mult: 1
    decay_mult: 1
  }
  param {
    lr_mult: 2
    decay_mult: 0
  }
  convolution_param {
    num_output: 4
    kernel_size: 1
    weight_filler {
      type: "gaussian"
      std: 0.01
    }
    bias_filler {
      type: "constant"
      value: 0
    }
  }
}

layer {
  name: "dir57_BR"
  type: "Convolution"
  bottom: "pool5/7x7_s1"
  top: "dir57_BR"
  param {
    lr_mult: 1
    decay_mult: 1
  }
  param {
    lr_mult: 2
    decay_mult: 0
  }
  convolution_param {
    num_output: 4
    kernel_size: 1
    weight_filler {
      type: "gaussian"
      std: 0.01
    }
    bias_filler {
      type: "constant"
      value: 0
    }
  }
}

layer {
  name: "dir58_TL"
  type: "Convolution"
  bottom: "pool5/7x7_s1"
  top: "dir58_TL"
  param {
    lr_mult: 1
    decay_mult: 1
  }
  param {
    lr_mult: 2
    decay_mult: 0
  }
  convolution_param {
    num_output: 4
    kernel_size: 1
    weight_filler {
      type: "gaussian"
      std: 0.01
    }
    bias_filler {
      type: "constant"
      value: 0
    }
  }
}

layer {
  name: "dir58_BR"
  type: "Convolution"
  bottom: "pool5/7x7_s1"
  top: "dir58_BR"
  param {
    lr_mult: 1
    decay_mult: 1
  }
  param {
    lr_mult: 2
    decay_mult: 0
  }
  convolution_param {
    num_output: 4
    kernel_size: 1
    weight_filler {
      type: "gaussian"
      std: 0.01
    }
    bias_filler {
      type: "constant"
      value: 0
    }
  }
}

layer {
  name: "dir59_TL"
  type: "Convolution"
  bottom: "pool5/7x7_s1"
  top: "dir59_TL"
  param {
    lr_mult: 1
    decay_mult: 1
  }
  param {
    lr_mult: 2
    decay_mult: 0
  }
  convolution_param {
    num_output: 4
    kernel_size: 1
    weight_filler {
      type: "gaussian"
      std: 0.01
    }
    bias_filler {
      type: "constant"
      value: 0
    }
  }
}

layer {
  name: "dir59_BR"
  type: "Convolution"
  bottom: "pool5/7x7_s1"
  top: "dir59_BR"
  param {
    lr_mult: 1
    decay_mult: 1
  }
  param {
    lr_mult: 2
    decay_mult: 0
  }
  convolution_param {
    num_output: 4
    kernel_size: 1
    weight_filler {
      type: "gaussian"
      std: 0.01
    }
    bias_filler {
      type: "constant"
      value: 0
    }
  }
}

layer {
  name: "dir60_TL"
  type: "Convolution"
  bottom: "pool5/7x7_s1"
  top: "dir60_TL"
  param {
    lr_mult: 1
    decay_mult: 1
  }
  param {
    lr_mult: 2
    decay_mult: 0
  }
  convolution_param {
    num_output: 4
    kernel_size: 1
    weight_filler {
      type: "gaussian"
      std: 0.01
    }
    bias_filler {
      type: "constant"
      value: 0
    }
  }
}

layer {
  name: "dir60_BR"
  type: "Convolution"
  bottom: "pool5/7x7_s1"
  top: "dir60_BR"
  param {
    lr_mult: 1
    decay_mult: 1
  }
  param {
    lr_mult: 2
    decay_mult: 0
  }
  convolution_param {
    num_output: 4
    kernel_size: 1
    weight_filler {
      type: "gaussian"
      std: 0.01
    }
    bias_filler {
      type: "constant"
      value: 0
    }
  }
}

layer {
  name: "dir61_TL"
  type: "Convolution"
  bottom: "pool5/7x7_s1"
  top: "dir61_TL"
  param {
    lr_mult: 1
    decay_mult: 1
  }
  param {
    lr_mult: 2
    decay_mult: 0
  }
  convolution_param {
    num_output: 4
    kernel_size: 1
    weight_filler {
      type: "gaussian"
      std: 0.01
    }
    bias_filler {
      type: "constant"
      value: 0
    }
  }
}

layer {
  name: "dir61_BR"
  type: "Convolution"
  bottom: "pool5/7x7_s1"
  top: "dir61_BR"
  param {
    lr_mult: 1
    decay_mult: 1
  }
  param {
    lr_mult: 2
    decay_mult: 0
  }
  convolution_param {
    num_output: 4
    kernel_size: 1
    weight_filler {
      type: "gaussian"
      std: 0.01
    }
    bias_filler {
      type: "constant"
      value: 0
    }
  }
}

layer {
  name: "dir62_TL"
  type: "Convolution"
  bottom: "pool5/7x7_s1"
  top: "dir62_TL"
  param {
    lr_mult: 1
    decay_mult: 1
  }
  param {
    lr_mult: 2
    decay_mult: 0
  }
  convolution_param {
    num_output: 4
    kernel_size: 1
    weight_filler {
      type: "gaussian"
      std: 0.01
    }
    bias_filler {
      type: "constant"
      value: 0
    }
  }
}

layer {
  name: "dir62_BR"
  type: "Convolution"
  bottom: "pool5/7x7_s1"
  top: "dir62_BR"
  param {
    lr_mult: 1
    decay_mult: 1
  }
  param {
    lr_mult: 2
    decay_mult: 0
  }
  convolution_param {
    num_output: 4
    kernel_size: 1
    weight_filler {
      type: "gaussian"
      std: 0.01
    }
    bias_filler {
      type: "constant"
      value: 0
    }
  }
}

layer {
  name: "dir63_TL"
  type: "Convolution"
  bottom: "pool5/7x7_s1"
  top: "dir63_TL"
  param {
    lr_mult: 1
    decay_mult: 1
  }
  param {
    lr_mult: 2
    decay_mult: 0
  }
  convolution_param {
    num_output: 4
    kernel_size: 1
    weight_filler {
      type: "gaussian"
      std: 0.01
    }
    bias_filler {
      type: "constant"
      value: 0
    }
  }
}

layer {
  name: "dir63_BR"
  type: "Convolution"
  bottom: "pool5/7x7_s1"
  top: "dir63_BR"
  param {
    lr_mult: 1
    decay_mult: 1
  }
  param {
    lr_mult: 2
    decay_mult: 0
  }
  convolution_param {
    num_output: 4
    kernel_size: 1
    weight_filler {
      type: "gaussian"
      std: 0.01
    }
    bias_filler {
      type: "constant"
      value: 0
    }
  }
}

layer {
  name: "dir64_TL"
  type: "Convolution"
  bottom: "pool5/7x7_s1"
  top: "dir64_TL"
  param {
    lr_mult: 1
    decay_mult: 1
  }
  param {
    lr_mult: 2
    decay_mult: 0
  }
  convolution_param {
    num_output: 4
    kernel_size: 1
    weight_filler {
      type: "gaussian"
      std: 0.01
    }
    bias_filler {
      type: "constant"
      value: 0
    }
  }
}

layer {
  name: "dir64_BR"
  type: "Convolution"
  bottom: "pool5/7x7_s1"
  top: "dir64_BR"
  param {
    lr_mult: 1
    decay_mult: 1
  }
  param {
    lr_mult: 2
    decay_mult: 0
  }
  convolution_param {
    num_output: 4
    kernel_size: 1
    weight_filler {
      type: "gaussian"
      std: 0.01
    }
    bias_filler {
      type: "constant"
      value: 0
    }
  }
}

layer {
  name: "dir65_TL"
  type: "Convolution"
  bottom: "pool5/7x7_s1"
  top: "dir65_TL"
  param {
    lr_mult: 1
    decay_mult: 1
  }
  param {
    lr_mult: 2
    decay_mult: 0
  }
  convolution_param {
    num_output: 4
    kernel_size: 1
    weight_filler {
      type: "gaussian"
      std: 0.01
    }
    bias_filler {
      type: "constant"
      value: 0
    }
  }
}

layer {
  name: "dir65_BR"
  type: "Convolution"
  bottom: "pool5/7x7_s1"
  top: "dir65_BR"
  param {
    lr_mult: 1
    decay_mult: 1
  }
  param {
    lr_mult: 2
    decay_mult: 0
  }
  convolution_param {
    num_output: 4
    kernel_size: 1
    weight_filler {
      type: "gaussian"
      std: 0.01
    }
    bias_filler {
      type: "constant"
      value: 0
    }
  }
}

layer {
  name: "dir66_TL"
  type: "Convolution"
  bottom: "pool5/7x7_s1"
  top: "dir66_TL"
  param {
    lr_mult: 1
    decay_mult: 1
  }
  param {
    lr_mult: 2
    decay_mult: 0
  }
  convolution_param {
    num_output: 4
    kernel_size: 1
    weight_filler {
      type: "gaussian"
      std: 0.01
    }
    bias_filler {
      type: "constant"
      value: 0
    }
  }
}

layer {
  name: "dir66_BR"
  type: "Convolution"
  bottom: "pool5/7x7_s1"
  top: "dir66_BR"
  param {
    lr_mult: 1
    decay_mult: 1
  }
  param {
    lr_mult: 2
    decay_mult: 0
  }
  convolution_param {
    num_output: 4
    kernel_size: 1
    weight_filler {
      type: "gaussian"
      std: 0.01
    }
    bias_filler {
      type: "constant"
      value: 0
    }
  }
}

layer {
  name: "dir67_TL"
  type: "Convolution"
  bottom: "pool5/7x7_s1"
  top: "dir67_TL"
  param {
    lr_mult: 1
    decay_mult: 1
  }
  param {
    lr_mult: 2
    decay_mult: 0
  }
  convolution_param {
    num_output: 4
    kernel_size: 1
    weight_filler {
      type: "gaussian"
      std: 0.01
    }
    bias_filler {
      type: "constant"
      value: 0
    }
  }
}

layer {
  name: "dir67_BR"
  type: "Convolution"
  bottom: "pool5/7x7_s1"
  top: "dir67_BR"
  param {
    lr_mult: 1
    decay_mult: 1
  }
  param {
    lr_mult: 2
    decay_mult: 0
  }
  convolution_param {
    num_output: 4
    kernel_size: 1
    weight_filler {
      type: "gaussian"
      std: 0.01
    }
    bias_filler {
      type: "constant"
      value: 0
    }
  }
}

layer {
  name: "dir68_TL"
  type: "Convolution"
  bottom: "pool5/7x7_s1"
  top: "dir68_TL"
  param {
    lr_mult: 1
    decay_mult: 1
  }
  param {
    lr_mult: 2
    decay_mult: 0
  }
  convolution_param {
    num_output: 4
    kernel_size: 1
    weight_filler {
      type: "gaussian"
      std: 0.01
    }
    bias_filler {
      type: "constant"
      value: 0
    }
  }
}

layer {
  name: "dir68_BR"
  type: "Convolution"
  bottom: "pool5/7x7_s1"
  top: "dir68_BR"
  param {
    lr_mult: 1
    decay_mult: 1
  }
  param {
    lr_mult: 2
    decay_mult: 0
  }
  convolution_param {
    num_output: 4
    kernel_size: 1
    weight_filler {
      type: "gaussian"
      std: 0.01
    }
    bias_filler {
      type: "constant"
      value: 0
    }
  }
}

layer {
  name: "dir69_TL"
  type: "Convolution"
  bottom: "pool5/7x7_s1"
  top: "dir69_TL"
  param {
    lr_mult: 1
    decay_mult: 1
  }
  param {
    lr_mult: 2
    decay_mult: 0
  }
  convolution_param {
    num_output: 4
    kernel_size: 1
    weight_filler {
      type: "gaussian"
      std: 0.01
    }
    bias_filler {
      type: "constant"
      value: 0
    }
  }
}

layer {
  name: "dir69_BR"
  type: "Convolution"
  bottom: "pool5/7x7_s1"
  top: "dir69_BR"
  param {
    lr_mult: 1
    decay_mult: 1
  }
  param {
    lr_mult: 2
    decay_mult: 0
  }
  convolution_param {
    num_output: 4
    kernel_size: 1
    weight_filler {
      type: "gaussian"
      std: 0.01
    }
    bias_filler {
      type: "constant"
      value: 0
    }
  }
}

layer {
  name: "dir70_TL"
  type: "Convolution"
  bottom: "pool5/7x7_s1"
  top: "dir70_TL"
  param {
    lr_mult: 1
    decay_mult: 1
  }
  param {
    lr_mult: 2
    decay_mult: 0
  }
  convolution_param {
    num_output: 4
    kernel_size: 1
    weight_filler {
      type: "gaussian"
      std: 0.01
    }
    bias_filler {
      type: "constant"
      value: 0
    }
  }
}

layer {
  name: "dir70_BR"
  type: "Convolution"
  bottom: "pool5/7x7_s1"
  top: "dir70_BR"
  param {
    lr_mult: 1
    decay_mult: 1
  }
  param {
    lr_mult: 2
    decay_mult: 0
  }
  convolution_param {
    num_output: 4
    kernel_size: 1
    weight_filler {
      type: "gaussian"
      std: 0.01
    }
    bias_filler {
      type: "constant"
      value: 0
    }
  }
}

layer {
  name: "dir71_TL"
  type: "Convolution"
  bottom: "pool5/7x7_s1"
  top: "dir71_TL"
  param {
    lr_mult: 1
    decay_mult: 1
  }
  param {
    lr_mult: 2
    decay_mult: 0
  }
  convolution_param {
    num_output: 4
    kernel_size: 1
    weight_filler {
      type: "gaussian"
      std: 0.01
    }
    bias_filler {
      type: "constant"
      value: 0
    }
  }
}

layer {
  name: "dir71_BR"
  type: "Convolution"
  bottom: "pool5/7x7_s1"
  top: "dir71_BR"
  param {
    lr_mult: 1
    decay_mult: 1
  }
  param {
    lr_mult: 2
    decay_mult: 0
  }
  convolution_param {
    num_output: 4
    kernel_size: 1
    weight_filler {
      type: "gaussian"
      std: 0.01
    }
    bias_filler {
      type: "constant"
      value: 0
    }
  }
}

layer {
  name: "dir72_TL"
  type: "Convolution"
  bottom: "pool5/7x7_s1"
  top: "dir72_TL"
  param {
    lr_mult: 1
    decay_mult: 1
  }
  param {
    lr_mult: 2
    decay_mult: 0
  }
  convolution_param {
    num_output: 4
    kernel_size: 1
    weight_filler {
      type: "gaussian"
      std: 0.01
    }
    bias_filler {
      type: "constant"
      value: 0
    }
  }
}

layer {
  name: "dir72_BR"
  type: "Convolution"
  bottom: "pool5/7x7_s1"
  top: "dir72_BR"
  param {
    lr_mult: 1
    decay_mult: 1
  }
  param {
    lr_mult: 2
    decay_mult: 0
  }
  convolution_param {
    num_output: 4
    kernel_size: 1
    weight_filler {
      type: "gaussian"
      std: 0.01
    }
    bias_filler {
      type: "constant"
      value: 0
    }
  }
}

layer {
  name: "dir73_TL"
  type: "Convolution"
  bottom: "pool5/7x7_s1"
  top: "dir73_TL"
  param {
    lr_mult: 1
    decay_mult: 1
  }
  param {
    lr_mult: 2
    decay_mult: 0
  }
  convolution_param {
    num_output: 4
    kernel_size: 1
    weight_filler {
      type: "gaussian"
      std: 0.01
    }
    bias_filler {
      type: "constant"
      value: 0
    }
  }
}

layer {
  name: "dir73_BR"
  type: "Convolution"
  bottom: "pool5/7x7_s1"
  top: "dir73_BR"
  param {
    lr_mult: 1
    decay_mult: 1
  }
  param {
    lr_mult: 2
    decay_mult: 0
  }
  convolution_param {
    num_output: 4
    kernel_size: 1
    weight_filler {
      type: "gaussian"
      std: 0.01
    }
    bias_filler {
      type: "constant"
      value: 0
    }
  }
}

layer {
  name: "dir74_TL"
  type: "Convolution"
  bottom: "pool5/7x7_s1"
  top: "dir74_TL"
  param {
    lr_mult: 1
    decay_mult: 1
  }
  param {
    lr_mult: 2
    decay_mult: 0
  }
  convolution_param {
    num_output: 4
    kernel_size: 1
    weight_filler {
      type: "gaussian"
      std: 0.01
    }
    bias_filler {
      type: "constant"
      value: 0
    }
  }
}

layer {
  name: "dir74_BR"
  type: "Convolution"
  bottom: "pool5/7x7_s1"
  top: "dir74_BR"
  param {
    lr_mult: 1
    decay_mult: 1
  }
  param {
    lr_mult: 2
    decay_mult: 0
  }
  convolution_param {
    num_output: 4
    kernel_size: 1
    weight_filler {
      type: "gaussian"
      std: 0.01
    }
    bias_filler {
      type: "constant"
      value: 0
    }
  }
}

layer {
  name: "dir75_TL"
  type: "Convolution"
  bottom: "pool5/7x7_s1"
  top: "dir75_TL"
  param {
    lr_mult: 1
    decay_mult: 1
  }
  param {
    lr_mult: 2
    decay_mult: 0
  }
  convolution_param {
    num_output: 4
    kernel_size: 1
    weight_filler {
      type: "gaussian"
      std: 0.01
    }
    bias_filler {
      type: "constant"
      value: 0
    }
  }
}

layer {
  name: "dir75_BR"
  type: "Convolution"
  bottom: "pool5/7x7_s1"
  top: "dir75_BR"
  param {
    lr_mult: 1
    decay_mult: 1
  }
  param {
    lr_mult: 2
    decay_mult: 0
  }
  convolution_param {
    num_output: 4
    kernel_size: 1
    weight_filler {
      type: "gaussian"
      std: 0.01
    }
    bias_filler {
      type: "constant"
      value: 0
    }
  }
}

layer {
  name: "dir76_TL"
  type: "Convolution"
  bottom: "pool5/7x7_s1"
  top: "dir76_TL"
  param {
    lr_mult: 1
    decay_mult: 1
  }
  param {
    lr_mult: 2
    decay_mult: 0
  }
  convolution_param {
    num_output: 4
    kernel_size: 1
    weight_filler {
      type: "gaussian"
      std: 0.01
    }
    bias_filler {
      type: "constant"
      value: 0
    }
  }
}

layer {
  name: "dir76_BR"
  type: "Convolution"
  bottom: "pool5/7x7_s1"
  top: "dir76_BR"
  param {
    lr_mult: 1
    decay_mult: 1
  }
  param {
    lr_mult: 2
    decay_mult: 0
  }
  convolution_param {
    num_output: 4
    kernel_size: 1
    weight_filler {
      type: "gaussian"
      std: 0.01
    }
    bias_filler {
      type: "constant"
      value: 0
    }
  }
}

layer {
  name: "dir77_TL"
  type: "Convolution"
  bottom: "pool5/7x7_s1"
  top: "dir77_TL"
  param {
    lr_mult: 1
    decay_mult: 1
  }
  param {
    lr_mult: 2
    decay_mult: 0
  }
  convolution_param {
    num_output: 4
    kernel_size: 1
    weight_filler {
      type: "gaussian"
      std: 0.01
    }
    bias_filler {
      type: "constant"
      value: 0
    }
  }
}

layer {
  name: "dir77_BR"
  type: "Convolution"
  bottom: "pool5/7x7_s1"
  top: "dir77_BR"
  param {
    lr_mult: 1
    decay_mult: 1
  }
  param {
    lr_mult: 2
    decay_mult: 0
  }
  convolution_param {
    num_output: 4
    kernel_size: 1
    weight_filler {
      type: "gaussian"
      std: 0.01
    }
    bias_filler {
      type: "constant"
      value: 0
    }
  }
}

layer {
  name: "dir78_TL"
  type: "Convolution"
  bottom: "pool5/7x7_s1"
  top: "dir78_TL"
  param {
    lr_mult: 1
    decay_mult: 1
  }
  param {
    lr_mult: 2
    decay_mult: 0
  }
  convolution_param {
    num_output: 4
    kernel_size: 1
    weight_filler {
      type: "gaussian"
      std: 0.01
    }
    bias_filler {
      type: "constant"
      value: 0
    }
  }
}

layer {
  name: "dir78_BR"
  type: "Convolution"
  bottom: "pool5/7x7_s1"
  top: "dir78_BR"
  param {
    lr_mult: 1
    decay_mult: 1
  }
  param {
    lr_mult: 2
    decay_mult: 0
  }
  convolution_param {
    num_output: 4
    kernel_size: 1
    weight_filler {
      type: "gaussian"
      std: 0.01
    }
    bias_filler {
      type: "constant"
      value: 0
    }
  }
}

layer {
  name: "dir79_TL"
  type: "Convolution"
  bottom: "pool5/7x7_s1"
  top: "dir79_TL"
  param {
    lr_mult: 1
    decay_mult: 1
  }
  param {
    lr_mult: 2
    decay_mult: 0
  }
  convolution_param {
    num_output: 4
    kernel_size: 1
    weight_filler {
      type: "gaussian"
      std: 0.01
    }
    bias_filler {
      type: "constant"
      value: 0
    }
  }
}

layer {
  name: "dir79_BR"
  type: "Convolution"
  bottom: "pool5/7x7_s1"
  top: "dir79_BR"
  param {
    lr_mult: 1
    decay_mult: 1
  }
  param {
    lr_mult: 2
    decay_mult: 0
  }
  convolution_param {
    num_output: 4
    kernel_size: 1
    weight_filler {
      type: "gaussian"
      std: 0.01
    }
    bias_filler {
      type: "constant"
      value: 0
    }
  }
}

layer {
  name: "dir80_TL"
  type: "Convolution"
  bottom: "pool5/7x7_s1"
  top: "dir80_TL"
  param {
    lr_mult: 1
    decay_mult: 1
  }
  param {
    lr_mult: 2
    decay_mult: 0
  }
  convolution_param {
    num_output: 4
    kernel_size: 1
    weight_filler {
      type: "gaussian"
      std: 0.01
    }
    bias_filler {
      type: "constant"
      value: 0
    }
  }
}

layer {
  name: "dir80_BR"
  type: "Convolution"
  bottom: "pool5/7x7_s1"
  top: "dir80_BR"
  param {
    lr_mult: 1
    decay_mult: 1
  }
  param {
    lr_mult: 2
    decay_mult: 0
  }
  convolution_param {
    num_output: 4
    kernel_size: 1
    weight_filler {
      type: "gaussian"
      std: 0.01
    }
    bias_filler {
      type: "constant"
      value: 0
    }
  }
}

layer {
  name: "dir81_TL"
  type: "Convolution"
  bottom: "pool5/7x7_s1"
  top: "dir81_TL"
  param {
    lr_mult: 1
    decay_mult: 1
  }
  param {
    lr_mult: 2
    decay_mult: 0
  }
  convolution_param {
    num_output: 4
    kernel_size: 1
    weight_filler {
      type: "gaussian"
      std: 0.01
    }
    bias_filler {
      type: "constant"
      value: 0
    }
  }
}

layer {
  name: "dir81_BR"
  type: "Convolution"
  bottom: "pool5/7x7_s1"
  top: "dir81_BR"
  param {
    lr_mult: 1
    decay_mult: 1
  }
  param {
    lr_mult: 2
    decay_mult: 0
  }
  convolution_param {
    num_output: 4
    kernel_size: 1
    weight_filler {
      type: "gaussian"
      std: 0.01
    }
    bias_filler {
      type: "constant"
      value: 0
    }
  }
}

layer {
  name: "dir82_TL"
  type: "Convolution"
  bottom: "pool5/7x7_s1"
  top: "dir82_TL"
  param {
    lr_mult: 1
    decay_mult: 1
  }
  param {
    lr_mult: 2
    decay_mult: 0
  }
  convolution_param {
    num_output: 4
    kernel_size: 1
    weight_filler {
      type: "gaussian"
      std: 0.01
    }
    bias_filler {
      type: "constant"
      value: 0
    }
  }
}

layer {
  name: "dir82_BR"
  type: "Convolution"
  bottom: "pool5/7x7_s1"
  top: "dir82_BR"
  param {
    lr_mult: 1
    decay_mult: 1
  }
  param {
    lr_mult: 2
    decay_mult: 0
  }
  convolution_param {
    num_output: 4
    kernel_size: 1
    weight_filler {
      type: "gaussian"
      std: 0.01
    }
    bias_filler {
      type: "constant"
      value: 0
    }
  }
}

layer {
  name: "dir83_TL"
  type: "Convolution"
  bottom: "pool5/7x7_s1"
  top: "dir83_TL"
  param {
    lr_mult: 1
    decay_mult: 1
  }
  param {
    lr_mult: 2
    decay_mult: 0
  }
  convolution_param {
    num_output: 4
    kernel_size: 1
    weight_filler {
      type: "gaussian"
      std: 0.01
    }
    bias_filler {
      type: "constant"
      value: 0
    }
  }
}

layer {
  name: "dir83_BR"
  type: "Convolution"
  bottom: "pool5/7x7_s1"
  top: "dir83_BR"
  param {
    lr_mult: 1
    decay_mult: 1
  }
  param {
    lr_mult: 2
    decay_mult: 0
  }
  convolution_param {
    num_output: 4
    kernel_size: 1
    weight_filler {
      type: "gaussian"
      std: 0.01
    }
    bias_filler {
      type: "constant"
      value: 0
    }
  }
}

layer {
  name: "dir84_TL"
  type: "Convolution"
  bottom: "pool5/7x7_s1"
  top: "dir84_TL"
  param {
    lr_mult: 1
    decay_mult: 1
  }
  param {
    lr_mult: 2
    decay_mult: 0
  }
  convolution_param {
    num_output: 4
    kernel_size: 1
    weight_filler {
      type: "gaussian"
      std: 0.01
    }
    bias_filler {
      type: "constant"
      value: 0
    }
  }
}

layer {
  name: "dir84_BR"
  type: "Convolution"
  bottom: "pool5/7x7_s1"
  top: "dir84_BR"
  param {
    lr_mult: 1
    decay_mult: 1
  }
  param {
    lr_mult: 2
    decay_mult: 0
  }
  convolution_param {
    num_output: 4
    kernel_size: 1
    weight_filler {
      type: "gaussian"
      std: 0.01
    }
    bias_filler {
      type: "constant"
      value: 0
    }
  }
}

layer {
  name: "dir85_TL"
  type: "Convolution"
  bottom: "pool5/7x7_s1"
  top: "dir85_TL"
  param {
    lr_mult: 1
    decay_mult: 1
  }
  param {
    lr_mult: 2
    decay_mult: 0
  }
  convolution_param {
    num_output: 4
    kernel_size: 1
    weight_filler {
      type: "gaussian"
      std: 0.01
    }
    bias_filler {
      type: "constant"
      value: 0
    }
  }
}

layer {
  name: "dir85_BR"
  type: "Convolution"
  bottom: "pool5/7x7_s1"
  top: "dir85_BR"
  param {
    lr_mult: 1
    decay_mult: 1
  }
  param {
    lr_mult: 2
    decay_mult: 0
  }
  convolution_param {
    num_output: 4
    kernel_size: 1
    weight_filler {
      type: "gaussian"
      std: 0.01
    }
    bias_filler {
      type: "constant"
      value: 0
    }
  }
}

layer {
  name: "dir86_TL"
  type: "Convolution"
  bottom: "pool5/7x7_s1"
  top: "dir86_TL"
  param {
    lr_mult: 1
    decay_mult: 1
  }
  param {
    lr_mult: 2
    decay_mult: 0
  }
  convolution_param {
    num_output: 4
    kernel_size: 1
    weight_filler {
      type: "gaussian"
      std: 0.01
    }
    bias_filler {
      type: "constant"
      value: 0
    }
  }
}

layer {
  name: "dir86_BR"
  type: "Convolution"
  bottom: "pool5/7x7_s1"
  top: "dir86_BR"
  param {
    lr_mult: 1
    decay_mult: 1
  }
  param {
    lr_mult: 2
    decay_mult: 0
  }
  convolution_param {
    num_output: 4
    kernel_size: 1
    weight_filler {
      type: "gaussian"
      std: 0.01
    }
    bias_filler {
      type: "constant"
      value: 0
    }
  }
}

layer {
  name: "dir87_TL"
  type: "Convolution"
  bottom: "pool5/7x7_s1"
  top: "dir87_TL"
  param {
    lr_mult: 1
    decay_mult: 1
  }
  param {
    lr_mult: 2
    decay_mult: 0
  }
  convolution_param {
    num_output: 4
    kernel_size: 1
    weight_filler {
      type: "gaussian"
      std: 0.01
    }
    bias_filler {
      type: "constant"
      value: 0
    }
  }
}

layer {
  name: "dir87_BR"
  type: "Convolution"
  bottom: "pool5/7x7_s1"
  top: "dir87_BR"
  param {
    lr_mult: 1
    decay_mult: 1
  }
  param {
    lr_mult: 2
    decay_mult: 0
  }
  convolution_param {
    num_output: 4
    kernel_size: 1
    weight_filler {
      type: "gaussian"
      std: 0.01
    }
    bias_filler {
      type: "constant"
      value: 0
    }
  }
}

layer {
  name: "dir88_TL"
  type: "Convolution"
  bottom: "pool5/7x7_s1"
  top: "dir88_TL"
  param {
    lr_mult: 1
    decay_mult: 1
  }
  param {
    lr_mult: 2
    decay_mult: 0
  }
  convolution_param {
    num_output: 4
    kernel_size: 1
    weight_filler {
      type: "gaussian"
      std: 0.01
    }
    bias_filler {
      type: "constant"
      value: 0
    }
  }
}

layer {
  name: "dir88_BR"
  type: "Convolution"
  bottom: "pool5/7x7_s1"
  top: "dir88_BR"
  param {
    lr_mult: 1
    decay_mult: 1
  }
  param {
    lr_mult: 2
    decay_mult: 0
  }
  convolution_param {
    num_output: 4
    kernel_size: 1
    weight_filler {
      type: "gaussian"
      std: 0.01
    }
    bias_filler {
      type: "constant"
      value: 0
    }
  }
}

layer {
  name: "dir89_TL"
  type: "Convolution"
  bottom: "pool5/7x7_s1"
  top: "dir89_TL"
  param {
    lr_mult: 1
    decay_mult: 1
  }
  param {
    lr_mult: 2
    decay_mult: 0
  }
  convolution_param {
    num_output: 4
    kernel_size: 1
    weight_filler {
      type: "gaussian"
      std: 0.01
    }
    bias_filler {
      type: "constant"
      value: 0
    }
  }
}

layer {
  name: "dir89_BR"
  type: "Convolution"
  bottom: "pool5/7x7_s1"
  top: "dir89_BR"
  param {
    lr_mult: 1
    decay_mult: 1
  }
  param {
    lr_mult: 2
    decay_mult: 0
  }
  convolution_param {
    num_output: 4
    kernel_size: 1
    weight_filler {
      type: "gaussian"
      std: 0.01
    }
    bias_filler {
      type: "constant"
      value: 0
    }
  }
}

layer {
  name: "dir90_TL"
  type: "Convolution"
  bottom: "pool5/7x7_s1"
  top: "dir90_TL"
  param {
    lr_mult: 1
    decay_mult: 1
  }
  param {
    lr_mult: 2
    decay_mult: 0
  }
  convolution_param {
    num_output: 4
    kernel_size: 1
    weight_filler {
      type: "gaussian"
      std: 0.01
    }
    bias_filler {
      type: "constant"
      value: 0
    }
  }
}

layer {
  name: "dir90_BR"
  type: "Convolution"
  bottom: "pool5/7x7_s1"
  top: "dir90_BR"
  param {
    lr_mult: 1
    decay_mult: 1
  }
  param {
    lr_mult: 2
    decay_mult: 0
  }
  convolution_param {
    num_output: 4
    kernel_size: 1
    weight_filler {
      type: "gaussian"
      std: 0.01
    }
    bias_filler {
      type: "constant"
      value: 0
    }
  }
}

layer {
  name: "dir91_TL"
  type: "Convolution"
  bottom: "pool5/7x7_s1"
  top: "dir91_TL"
  param {
    lr_mult: 1
    decay_mult: 1
  }
  param {
    lr_mult: 2
    decay_mult: 0
  }
  convolution_param {
    num_output: 4
    kernel_size: 1
    weight_filler {
      type: "gaussian"
      std: 0.01
    }
    bias_filler {
      type: "constant"
      value: 0
    }
  }
}

layer {
  name: "dir91_BR"
  type: "Convolution"
  bottom: "pool5/7x7_s1"
  top: "dir91_BR"
  param {
    lr_mult: 1
    decay_mult: 1
  }
  param {
    lr_mult: 2
    decay_mult: 0
  }
  convolution_param {
    num_output: 4
    kernel_size: 1
    weight_filler {
      type: "gaussian"
      std: 0.01
    }
    bias_filler {
      type: "constant"
      value: 0
    }
  }
}

layer {
…
  top: "acc880_TL"
  include {
    phase: TEST
  }
  accuracy_param {
    attention_net_ignore_label: 4
  }
}

layer {
  name: "acc880_BR"
  type: "Accuracy"
  bottom: "dir880_BR"
  bottom: "dir880_BR_label"
  top: "acc880_BR"
  include {
    phase: TEST
  }
  accuracy_param {
    attention_net_ignore_label: 4
  }
}

layer {
  name: "acc881_TL"
  type: "Accuracy"
  bottom: "dir881_TL"
  bottom: "dir881_TL_label"
  top: "acc881_TL"
  include {
    phase: TEST
  }
  accuracy_param {
    attention_net_ignore_label: 4
  }
}

layer {
  name: "acc881_BR"
  type: "Accuracy"
  bottom: "dir881_BR"
  bottom: "dir881_BR_label"
  top: "acc881_BR"
  include {
    phase: TEST
  }
  accuracy_param {
    attention_net_ignore_label: 4
  }
}

layer {
  name: "acc882_TL"
  type: "Accuracy"
  bottom: "dir882_TL"
  bottom: "dir882_TL_label"
  top: "acc882_TL"
  include {
    phase: TEST
  }
  accuracy_param {
    attention_net_ignore_label: 4
  }
}

layer {
  name: "acc882_BR"
  type: "Accuracy"
  bottom: "dir882_BR"
  bottom: "dir882_BR_label"
  top: "acc882_BR"
  include {
    phase: TEST
  }
  accuracy_param {
    attention_net_ignore_label: 4
  }
}

layer {
  name: "acc883_TL"
  type: "Accuracy"
  bottom: "dir883_TL"
  bottom: "dir883_TL_label"
  top: "acc883_TL"
  include {
    phase: TEST
  }
  accuracy_param {
    attention_net_ignore_label: 4
  }
}

layer {
  name: "acc883_BR"
  type: "Accuracy"
  bottom: "dir883_BR"
  bottom: "dir883_BR_label"
  top: "acc883_BR"
  include {
    phase: TEST
  }
  accuracy_param {
    attention_net_ignore_label: 4
  }
}

layer {
  name: "acc884_TL"
  type: "Accuracy"
  bottom: "dir884_TL"
  bottom: "dir884_TL_label"
  top: "acc884_TL"
  include {
    phase: TEST
  }
  accuracy_param {
    attention_net_ignore_label: 4
  }
}

layer {
  name: "acc884_BR"
  type: "Accuracy"
  bottom: "dir884_BR"
  bottom: "dir884_BR_label"
  top: "acc884_BR"
  include {
    phase: TEST
  }
  accuracy_param {
    attention_net_ignore_label: 4
  }
}

layer {
  name: "acc885_TL"
  type: "Accuracy"
  bottom: "dir885_TL"
  bottom: "dir885_TL_label"
  top: "acc885_TL"
  include {
    phase: TEST
  }
  accuracy_param {
    attention_net_ignore_label: 4
  }
}

layer {
  name: "acc885_BR"
  type: "Accuracy"
  bottom: "dir885_BR"
  bottom: "dir885_BR_label"
  top: "acc885_BR"
  include {
    phase: TEST
  }
  accuracy_param {
    attention_net_ignore_label: 4
  }
}

layer {
  name: "acc886_TL"
  type: "Accuracy"
  bottom: "dir886_TL"
  bottom: "dir886_TL_label"
  top: "acc886_TL"
  include {
    phase: TEST
  }
  accuracy_param {
    attention_net_ignore_label: 4
  }
}

layer {
  name: "acc886_BR"
  type: "Accuracy"
  bottom: "dir886_BR"
  bottom: "dir886_BR_label"
  top: "acc886_BR"
  include {
    phase: TEST
  }
  accuracy_param {
    attention_net_ignore_label: 4
  }
}

layer {
  name: "acc887_TL"
  type: "Accuracy"
  bottom: "dir887_TL"
  bottom: "dir887_TL_label"
  top: "acc887_TL"
  include {
    phase: TEST
  }
  accuracy_param {
    attention_net_ignore_label: 4
  }
}

layer {
  name: "acc887_BR"
  type: "Accuracy"
  bottom: "dir887_BR"
  bottom: "dir887_BR_label"
  top: "acc887_BR"
  include {
    phase: TEST
  }
  accuracy_param {
    attention_net_ignore_label: 4
  }
}

layer {
  name: "acc888_TL"
  type: "Accuracy"
  bottom: "dir888_TL"
  bottom: "dir888_TL_label"
  top: "acc888_TL"
  include {
    phase: TEST
  }
  accuracy_param {
    attention_net_ignore_label: 4
  }
}

layer {
  name: "acc888_BR"
  type: "Accuracy"
  bottom: "dir888_BR"
  bottom: "dir888_BR_label"
  top: "acc888_BR"
  include {
    phase: TEST
  }
  accuracy_param {
    attention_net_ignore_label: 4
  }
}

layer {
  name: "acc889_TL"
  type: "Accuracy"
  bottom: "dir889_TL"
  bottom: "dir889_TL_label"
  top: "acc889_TL"
  include {
    phase: TEST
  }
  accuracy_param {
    attention_net_ignore_label: 4
  }
}

layer {
  name: "acc889_BR"
  type: "Accuracy"
  bottom: "dir889_BR"
  bottom: "dir889_BR_label"
  top: "acc889_BR"
  include {
    phase: TEST
  }
  accuracy_param {
    attention_net_ignore_label: 4
  }
}

layer {
  name: "acc890_TL"
  type: "Accuracy"
  bottom: "dir890_TL"
  bottom: "dir890_TL_label"
  top: "acc890_TL"
  include {
    phase: TEST
  }
  accuracy_param {
    attention_net_ignore_label: 4
  }
}

layer {
  name: "acc890_BR"
  type: "Accuracy"
  bottom: "dir890_BR"
  bottom: "dir890_BR_label"
  top: "acc890_BR"
  include {
    phase: TEST
  }
  accuracy_param {
    attention_net_ignore_label: 4
  }
}

layer {
  name: "acc891_TL"
  type: "Accuracy"
  bottom: "dir891_TL"
  bottom: "dir891_TL_label"
  top: "acc891_TL"
  include {
    phase: TEST
  }
  accuracy_param {
    attention_net_ignore_label: 4
  }
}

layer {
  name: "acc891_BR"
  type: "Accuracy"
  bottom: "dir891_BR"
  bottom: "dir891_BR_label"
  top: "acc891_BR"
  include {
    phase: TEST
  }
  accuracy_param {
    attention_net_ignore_label: 4
  }
}

layer {
  name: "acc892_TL"
  type: "Accuracy"
  bottom: "dir892_TL"
  bottom: "dir892_TL_label"
  top: "acc892_TL"
  include {
    phase: TEST
  }
  accuracy_param {
    attention_net_ignore_label: 4
  }
}

layer {
  name: "acc892_BR"
  type: "Accuracy"
  bottom: "dir892_BR"
  bottom: "dir892_BR_label"
  top: "acc892_BR"
  include {
    phase: TEST
  }
  accuracy_param {
    attention_net_ignore_label: 4
  }
}

layer {
  name: "acc893_TL"
  type: "Accuracy"
  bottom: "dir893_TL"
  bottom: "dir893_TL_label"
  top: "acc893_TL"
  include {
    phase: TEST
  }
  accuracy_param {
    attention_net_ignore_label: 4
  }
}

layer {
  name: "acc893_BR"
  type: "Accuracy"
  bottom: "dir893_BR"
  bottom: "dir893_BR_label"
  top: "acc893_BR"
  include {
    phase: TEST
  }
  accuracy_param {
    attention_net_ignore_label: 4
  }
}

layer {
  name: "acc894_TL"
  type: "Accuracy"
  bottom: "dir894_TL"
  bottom: "dir894_TL_label"
  top: "acc894_TL"
  include {
    phase: TEST
  }
  accuracy_param {
    attention_net_ignore_label: 4
  }
}

layer {
  name: "acc894_BR"
  type: "Accuracy"
  bottom: "dir894_BR"
  bottom: "dir894_BR_label"
  top: "acc894_BR"
  include {
    phase: TEST
  }
  accuracy_param {
    attention_net_ignore_label: 4
  }
}

layer {
  name: "acc895_TL"
  type: "Accuracy"
  bottom: "dir895_TL"
  bottom: "dir895_TL_label"
  top: "acc895_TL"
  include {
    phase: TEST
  }
  accuracy_param {
    attention_net_ignore_label: 4
  }
}

layer {
  name: "acc895_BR"
  type: "Accuracy"
  bottom: "dir895_BR"
  bottom: "dir895_BR_label"
  top: "acc895_BR"
  include {
    phase: TEST
  }
  accuracy_param {
    attention_net_ignore_label: 4
  }
}

layer {
  name: "acc896_TL"
  type: "Accuracy"
  bottom: "dir896_TL"
  bottom: "dir896_TL_label"
  top: "acc896_TL"
  include {
    phase: TEST
  }
  accuracy_param {
    attention_net_ignore_label: 4
  }
}

layer {
  name: "acc896_BR"
  type: "Accuracy"
  bottom: "dir896_BR"
  bottom: "dir896_BR_label"
  top: "acc896_BR"
  include {
    phase: TEST
  }
  accuracy_param {
    attention_net_ignore_label: 4
  }
}

layer {
  name: "acc897_TL"
  type: "Accuracy"
  bottom: "dir897_TL"
  bottom: "dir897_TL_label"
  top: "acc897_TL"
  include {
    phase: TEST
  }
  accuracy_param {
    attention_net_ignore_label: 4
  }
}

layer {
  name: "acc897_BR"
  type: "Accuracy"
  bottom: "dir897_BR"
  bottom: "dir897_BR_label"
  top: "acc897_BR"
  include {
    phase: TEST
  }
  accuracy_param {
    attention_net_ignore_label: 4
  }
}

layer {
  name: "acc898_TL"
  type: "Accuracy"
  bottom: "dir898_TL"
  bottom: "dir898_TL_label"
  top: "acc898_TL"
  include {
    phase: TEST
  }
  accuracy_param {
    attention_net_ignore_label: 4
  }
}

layer {
  name: "acc898_BR"
  type: "Accuracy"
  bottom: "dir898_BR"
  bottom: "dir898_BR_label"
  top: "acc898_BR"
  include {
    phase: TEST
  }
  accuracy_param {
    attention_net_ignore_label: 4
  }
}

layer {
  name: "acc899_TL"
  type: "Accuracy"
  bottom: "dir899_TL"
  bottom: "dir899_TL_label"
  top: "acc899_TL"
  include {
    phase: TEST
  }
  accuracy_param {
    attention_net_ignore_label: 4
  }
}

layer {
  name: "acc899_BR"
  type: "Accuracy"
  bottom: "dir899_BR"
  bottom: "dir899_BR_label"
  top: "acc899_BR"
  include {
    phase: TEST
  }
  accuracy_param {
    attention_net_ignore_label: 4
  }
}

layer {
  name: "acc900_TL"
  type: "Accuracy"
  bottom: "dir900_TL"
  bottom: "dir900_TL_label"
  top: "acc900_TL"
  include {
    phase: TEST
  }
  accuracy_param {
    attention_net_ignore_label: 4
  }
}

layer {
  name: "acc900_BR"
  type: "Accuracy"
  bottom: "dir900_BR"
  bottom: "dir900_BR_label"
  top: "acc900_BR"
  include {
    phase: TEST
  }
  accuracy_param {
    attention_net_ignore_label: 4
  }
}

layer {
  name: "acc901_TL"
  type: "Accuracy"
  bottom: "dir901_TL"
  bottom: "dir901_TL_label"
  top: "acc901_TL"
  include {
    phase: TEST
  }
  accuracy_param {
    attention_net_ignore_label: 4
  }
}

layer {
  name: "acc901_BR"
  type: "Accuracy"
  bottom: "dir901_BR"
  bottom: "dir901_BR_label"
  top: "acc901_BR"
  include {
    phase: TEST
  }
  accuracy_param {
    attention_net_ignore_label: 4
  }
}

layer {
  name: "acc902_TL"
  type: "Accuracy"
  bottom: "dir902_TL"
  bottom: "dir902_TL_label"
  top: "acc902_TL"
  include {
    phase: TEST
  }
  accuracy_param {
    attention_net_ignore_label: 4
  }
}

layer {
  name: "acc902_BR"
  type: "Accuracy"
  bottom: "dir902_BR"
  bottom: "dir902_BR_label"
  top: "acc902_BR"
  include {
    phase: TEST
  }
  accuracy_param {
    attention_net_ignore_label: 4
  }
}

layer {
  name: "acc903_TL"
  type: "Accuracy"
  bottom: "dir903_TL"
  bottom: "dir903_TL_label"
  top: "acc903_TL"
  include {
    phase: TEST
  }
  accuracy_param {
    attention_net_ignore_label: 4
  }
}

layer {
  name: "acc903_BR"
  type: "Accuracy"
  bottom: "dir903_BR"
  bottom: "dir903_BR_label"
  top: "acc903_BR"
  include {
    phase: TEST
  }
  accuracy_param {
    attention_net_ignore_label: 4
  }
}

layer {
  name: "acc904_TL"
  type: "Accuracy"
  bottom: "dir904_TL"
  bottom: "dir904_TL_label"
  top: "acc904_TL"
  include {
    phase: TEST
  }
  accuracy_param {
    attention_net_ignore_label: 4
  }
}

layer {
  name: "acc904_BR"
  type: "Accuracy"
  bottom: "dir904_BR"
  bottom: "dir904_BR_label"
  top: "acc904_BR"
  include {
    phase: TEST
  }
  accuracy_param {
    attention_net_ignore_label: 4
  }
}

layer {
  name: "acc905_TL"
  type: "Accuracy"
  bottom: "dir905_TL"
  bottom: "dir905_TL_label"
  top: "acc905_TL"
  include {
    phase: TEST
  }
  accuracy_param {
    attention_net_ignore_label: 4
  }
}

layer {
  name: "acc905_BR"
  type: "Accuracy"
  bottom: "dir905_BR"
  bottom: "dir905_BR_label"
  top: "acc905_BR"
  include {
    phase: TEST
  }
  accuracy_param {
    attention_net_ignore_label: 4
  }
}

layer {
  name: "acc906_TL"
  type: "Accuracy"
  bottom: "dir906_TL"
  bottom: "dir906_TL_label"
  top: "acc906_TL"
  include {
    phase: TEST
  }
  accuracy_param {
    attention_net_ignore_label: 4
  }
}

layer {
  name: "acc906_BR"
  type: "Accuracy"
  bottom: "dir906_BR"
  bottom: "dir906_BR_label"
  top: "acc906_BR"
  include {
    phase: TEST
  }
  accuracy_param {
    attention_net_ignore_label: 4
  }
}

layer {
  name: "acc907_TL"
  type: "Accuracy"
  bottom: "dir907_TL"
  bottom: "dir907_TL_label"
  top: "acc907_TL"
  include {
    phase: TEST
  }
  accuracy_param {
    attention_net_ignore_label: 4
  }
}

layer {
  name: "acc907_BR"
  type: "Accuracy"
  bottom: "dir907_BR"
  bottom: "dir907_BR_label"
  top: "acc907_BR"
  include {
    phase: TEST
  }
  accuracy_param {
    attention_net_ignore_label: 4
  }
}

layer {
  name: "acc908_TL"
  type: "Accuracy"
  bottom: "dir908_TL"
  bottom: "dir908_TL_label"
  top: "acc908_TL"
  include {
    phase: TEST
  }
  accuracy_param {
    attention_net_ignore_label: 4
  }
}

layer {
  name: "acc908_BR"
  type: "Accuracy"
  bottom: "dir908_BR"
  bottom: "dir908_BR_label"
  top: "acc908_BR"
  include {
    phase: TEST
  }
  accuracy_param {
    attention_net_ignore_label: 4
  }
}

layer {
  name: "acc909_TL"
  type: "Accuracy"
  bottom: "dir909_TL"
  bottom: "dir909_TL_label"
  top: "acc909_TL"
  include {
    phase: TEST
  }
  accuracy_param {
    attention_net_ignore_label: 4
  }
}

layer {
  name: "acc909_BR"
  type: "Accuracy"
  bottom: "dir909_BR"
  bottom: "dir909_BR_label"
  top: "acc909_BR"
  include {
    phase: TEST
  }
  accuracy_param {
    attention_net_ignore_label: 4
  }
}

layer {
  name: "acc910_TL"
  type: "Accuracy"
  bottom: "dir910_TL"
  bottom: "dir910_TL_label"
  top: "acc910_TL"
  include {
    phase: TEST
  }
  accuracy_param {
    attention_net_ignore_label: 4
  }
}

layer {
  name: "acc910_BR"
  type: "Accuracy"
  bottom: "dir910_BR"
  bottom: "dir910_BR_label"
  top: "acc910_BR"
  include {
    phase: TEST
  }
  accuracy_param {
    attention_net_ignore_label: 4
  }
}

layer {
  name: "acc911_TL"
  type: "Accuracy"
  bottom: "dir911_TL"
  bottom: "dir911_TL_label"
  top: "acc911_TL"
  include {
    phase: TEST
  }
  accuracy_param {
    attention_net_ignore_label: 4
  }
}

layer {
  name: "acc911_BR"
  type: "Accuracy"
  bottom: "dir911_BR"
  bottom: "dir911_BR_label"
  top: "acc911_BR"
  include {
    phase: TEST
  }
  accuracy_param {
    attention_net_ignore_label: 4
  }
}

layer {
  name: "acc912_TL"
  type: "Accuracy"
  bottom: "dir912_TL"
  bottom: "dir912_TL_label"
  top: "acc912_TL"
  include {
    phase: TEST
  }
  accuracy_param {
    attention_net_ignore_label: 4
  }
}

layer {
  name: "acc912_BR"
  type: "Accuracy"
  bottom: "dir912_BR"
  bottom: "dir912_BR_label"
  top: "acc912_BR"
  include {
    phase: TEST
  }
  accuracy_param {
    attention_net_ignore_label: 4
  }
}

layer {
  name: "acc913_TL"
  type: "Accuracy"
  bottom: "dir913_TL"
  bottom: "dir913_TL_label"
  top: "acc913_TL"
  include {
    phase: TEST
  }
  accuracy_param {
    attention_net_ignore_label: 4
  }
}

layer {
  name: "acc913_BR"
  type: "Accuracy"
  bottom: "dir913_BR"
  bottom: "dir913_BR_label"
  top: "acc913_BR"
  include {
    phase: TEST
  }
  accuracy_param {
    attention_net_ignore_label: 4
  }
}

layer {
  name: "acc914_TL"
  type: "Accuracy"
  bottom: "dir914_TL"
  bottom: "dir914_TL_label"
  top: "acc914_TL"
  include {
    phase: TEST
  }
  accuracy_param {
    attention_net_ignore_label: 4
  }
}

layer {
  name: "acc914_BR"
  type: "Accuracy"
  bottom: "dir914_BR"
  bottom: "dir914_BR_label"
  top: "acc914_BR"
  include {
    phase: TEST
  }
  accuracy_param {
    attention_net_ignore_label: 4
  }
}

layer {
  name: "acc915_TL"
  type: "Accuracy"
  bottom: "dir915_TL"
  bottom: "dir915_TL_label"
  top: "acc915_TL"
  include {
    phase: TEST
  }
  accuracy_param {
    attention_net_ignore_label: 4
  }
}

layer {
  name: "acc915_BR"
  type: "Accuracy"
  bottom: "dir915_BR"
  bottom: "dir915_BR_label"
  top: "acc915_BR"
  include {
    phase: TEST
  }
  accuracy_param {
    attention_net_ignore_label: 4
  }
}

layer {
  name: "acc916_TL"
  type: "Accuracy"
  bottom: "dir916_TL"
  bottom: "dir916_TL_label"
  top: "acc916_TL"
  include {
    phase: TEST
  }
  accuracy_param {
    attention_net_ignore_label: 4
  }
}

layer {
  name: "acc916_BR"
  type: "Accuracy"
  bottom: "dir916_BR"
  bottom: "dir916_BR_label"
  top: "acc916_BR"
  include {
    phase: TEST
  }
  accuracy_param {
    attention_net_ignore_label: 4
  }
}

layer {
  name: "acc917_TL"
  type: "Accuracy"
  bottom: "dir917_TL"
  bottom: "dir917_TL_label"
  top: "acc917_TL"
  include {
    phase: TEST
  }
  accuracy_param {
    attention_net_ignore_label: 4
  }
}

layer {
  name: "acc917_BR"
  type: "Accuracy"
  bottom: "dir917_BR"
  bottom: "dir917_BR_label"
  top: "acc917_BR"
  include {
    phase: TEST
  }
  accuracy_param {
    attention_net_ignore_label: 4
  }
}

layer {
  name: "acc918_TL"
  type: "Accuracy"
  bottom: "dir918_TL"
  bottom: "dir918_TL_label"
  top: "acc918_TL"
  include {
    phase: TEST
  }
  accuracy_param {
    attention_net_ignore_label: 4
  }
}

layer {
  name: "acc918_BR"
  type: "Accuracy"
  bottom: "dir918_BR"
  bottom: "dir918_BR_label"
  top: "acc918_BR"
  include {
    phase: TEST
  }
  accuracy_param {
    attention_net_ignore_label: 4
  }
}

layer {
  name: "acc919_TL"
  type: "Accuracy"
  bottom: "dir919_TL"
  bottom: "dir919_TL_label"
  top: "acc919_TL"
  include {
    phase: TEST
  }
  accuracy_param {
    attention_net_ignore_label: 4
  }
}

layer {
  name: "acc919_BR"
  type: "Accuracy"
  bottom: "dir919_BR"
  bottom: "dir919_BR_label"
  top: "acc919_BR"
  include {
    phase: TEST
  }
  accuracy_param {
    attention_net_ignore_label: 4
  }
}

layer {
  name: "acc920_TL"
  type: "Accuracy"
  bottom: "dir920_TL"
  bottom: "dir920_TL_label"
  top: "acc920_TL"
  include {
    phase: TEST
  }
  accuracy_param {
    attention_net_ignore_label: 4
  }
}

layer {
  name: "acc920_BR"
  type: "Accuracy"
  bottom: "dir920_BR"
  bottom: "dir920_BR_label"
  top: "acc920_BR"
  include {
    phase: TEST
  }
  accuracy_param {
    attention_net_ignore_label: 4
  }
}

layer {
  name: "acc921_TL"
  type: "Accuracy"
  bottom: "dir921_TL"
  bottom: "dir921_TL_label"
  top: "acc921_TL"
  include {
    phase: TEST
  }
  accuracy_param {
    attention_net_ignore_label: 4
  }
}

layer {
  name: "acc921_BR"
  type: "Accuracy"
  bottom: "dir921_BR"
  bottom: "dir921_BR_label"
  top: "acc921_BR"
  include {
    phase: TEST
  }
  accuracy_param {
    attention_net_ignore_label: 4
  }
}

layer {
  name: "acc922_TL"
  type: "Accuracy"
  bottom: "dir922_TL"
  bottom: "dir922_TL_label"
  top: "acc922_TL"
  include {
    phase: TEST
  }
  accuracy_param {
    attention_net_ignore_label: 4
  }
}

layer {
  name: "acc922_BR"
  type: "Accuracy"
  bottom: "dir922_BR"
  bottom: "dir922_BR_label"
  top: "acc922_BR"
  include {
    phase: TEST
  }
  accuracy_param {
    attention_net_ignore_label: 4
  }
}

layer {
  name: "acc923_TL"
  type: "Accuracy"
  bottom: "dir923_TL"
  bottom: "dir923_TL_label"
  top: "acc923_TL"
  include {
    phase: TEST
  }
  accuracy_param {
    attention_net_ignore_label: 4
  }
}

layer {
  name: "acc923_BR"
  type: "Accuracy"
  bottom: "dir923_BR"
  bottom: "dir923_BR_label"
  top: "acc923_BR"
  include {
    phase: TEST
  }
  accuracy_param {
    attention_net_ignore_label: 4
  }
}

layer {
  name: "acc924_TL"
  type: "Accuracy"
  bottom: "dir924_TL"
  bottom: "dir924_TL_label"
  top: "acc924_TL"
  include {
    phase: TEST
  }
  accuracy_param {
    attention_net_ignore_label: 4
  }
}

layer {
  name: "acc924_BR"
  type: "Accuracy"
  bottom: "dir924_BR"
  bottom: "dir924_BR_label"
  top: "acc924_BR"
  include {
    phase: TEST
  }
  accuracy_param {
    attention_net_ignore_label: 4
  }
}

layer {
  name: "acc925_TL"
  type: "Accuracy"
  bottom: "dir925_TL"
  bottom: "dir925_TL_label"
  top: "acc925_TL"
  include {
    phase: TEST
  }
  accuracy_param {
    attention_net_ignore_label: 4
  }
}

layer {
  name: "acc925_BR"
  type: "Accuracy"
  bottom: "dir925_BR"
  bottom: "dir925_BR_label"
  top: "acc925_BR"
  include {
    phase: TEST
  }
  accuracy_param {
    attention_net_ignore_label: 4
  }
}

layer {
  name: "acc926_TL"
  type: "Accuracy"
  bottom: "dir926_TL"
  bottom: "dir926_TL_label"
  top: "acc926_TL"
  include {
    phase: TEST
  }
  accuracy_param {
    attention_net_ignore_label: 4
  }
}

layer {
  name: "acc926_BR"
  type: "Accuracy"
  bottom: "dir926_BR"
  bottom: "dir926_BR_label"
  top: "acc926_BR"
  include {
    phase: TEST
  }
  accuracy_param {
    attention_net_ignore_label: 4
  }
}

layer {
  name: "acc927_TL"
  type: "Accuracy"
  bottom: "dir927_TL"
  bottom: "dir927_TL_label"
  top: "acc927_TL"
  include {
    phase: TEST
  }
  accuracy_param {
    attention_net_ignore_label: 4
  }
}

layer {
  name: "acc927_BR"
  type: "Accuracy"
  bottom: "dir927_BR"
  bottom: "dir927_BR_label"
  top: "acc927_BR"
  include {
    phase: TEST
  }
  accuracy_param {
    attention_net_ignore_label: 4
  }
}

layer {
  name: "acc928_TL"
  type: "Accuracy"
  bottom: "dir928_TL"
  bottom: "dir928_TL_label"
  top: "acc928_TL"
  include {
    phase: TEST
  }
  accuracy_param {
    attention_net_ignore_label: 4
  }
}

layer {
  name: "acc928_BR"
  type: "Accuracy"
  bottom: "dir928_BR"
  bottom: "dir928_BR_label"
  top: "acc928_BR"
  include {
    phase: TEST
  }
  accuracy_param {
    attention_net_ignore_label: 4
  }
}

layer {
  name: "acc929_TL"
  type: "Accuracy"
  bottom: "dir929_TL"
  bottom: "dir929_TL_label"
  top: "acc929_TL"
  include {
    phase: TEST
  }
  accuracy_param {
    attention_net_ignore_label: 4
  }
}

layer {
  name: "acc929_BR"
  type: "Accuracy"
  bottom: "dir929_BR"
  bottom: "dir929_BR_label"
  top: "acc929_BR"
  include {
    phase: TEST
  }
  accuracy_param {
    attention_net_ignore_label: 4
  }
}

layer {
  name: "acc930_TL"
  type: "Accuracy"
  bottom: "dir930_TL"
  bottom: "dir930_TL_label"
  top: "acc930_TL"
  include {
    phase: TEST
  }
  accuracy_param {
    attention_net_ignore_label: 4
  }
}

layer {
  name: "acc930_BR"
  type: "Accuracy"
  bottom: "dir930_BR"
  bottom: "dir930_BR_label"
  top: "acc930_BR"
  include {
    phase: TEST
  }
  accuracy_param {
    attention_net_ignore_label: 4
  }
}

layer {
  name: "acc931_TL"
  type: "Accuracy"
  bottom: "dir931_TL"
  bottom: "dir931_TL_label"
  top: "acc931_TL"
  include {
    phase: TEST
  }
  accuracy_param {
    attention_net_ignore_label: 4
  }
}

layer {
  name: "acc931_BR"
  type: "Accuracy"
  bottom: "dir931_BR"
  bottom: "dir931_BR_label"
  top: "acc931_BR"
  include {
    phase: TEST
  }
  accuracy_param {
    attention_net_ignore_label: 4
  }
}

layer {
  name: "acc932_TL"
  type: "Accuracy"
  bottom: "dir932_TL"
  bottom: "dir932_TL_label"
  top: "acc932_TL"
  include {
    phase: TEST
  }
  accuracy_param {
    attention_net_ignore_label: 4
  }
}

layer {
  name: "acc932_BR"
  type: "Accuracy"
  bottom: "dir932_BR"
  bottom: "dir932_BR_label"
  top: "acc932_BR"
  include {
    phase: TEST
  }
  accuracy_param {
    attention_net_ignore_label: 4
  }
}

layer {
  name: "acc933_TL"
  type: "Accuracy"
  bottom: "dir933_TL"
  bottom: "dir933_TL_label"
  top: "acc933_TL"
  include {
    phase: TEST
  }
  accuracy_param {
    attention_net_ignore_label: 4
  }
}

layer {
  name: "acc933_BR"
  type: "Accuracy"
  bottom: "dir933_BR"
  bottom: "dir933_BR_label"
  top: "acc933_BR"
  include {
    phase: TEST
  }
  accuracy_param {
    attention_net_ignore_label: 4
  }
}

layer {
  name: "acc934_TL"
  type: "Accuracy"
  bottom: "dir934_TL"
  bottom: "dir934_TL_label"
  top: "acc934_TL"
  include {
    phase: TEST
  }
  accuracy_param {
    attention_net_ignore_label: 4
  }
}

layer {
  name: "acc934_BR"
  type: "Accuracy"
  bottom: "dir934_BR"
  bottom: "dir934_BR_label"
  top: "acc934_BR"
  include {
    phase: TEST
  }
  accuracy_param {
    attention_net_ignore_label: 4
  }
}

layer {
  name: "acc935_TL"
  type: "Accuracy"
  bottom: "dir935_TL"
  bottom: "dir935_TL_label"
  top: "acc935_TL"
  include {
    phase: TEST
  }
  accuracy_param {
    attention_net_ignore_label: 4
  }
}

layer {
  name: "acc935_BR"
  type: "Accuracy"
  bottom: "dir935_BR"
  bottom: "dir935_BR_label"
  top: "acc935_BR"
  include {
    phase: TEST
  }
  accuracy_param {
    attention_net_ignore_label: 4
  }
}

layer {
  name: "acc936_TL"
  type: "Accuracy"
  bottom: "dir936_TL"
  bottom: "dir936_TL_label"
  top: "acc936_TL"
  include {
    phase: TEST
  }
  accuracy_param {
    attention_net_ignore_label: 4
  }
}

layer {
  name: "acc936_BR"
  type: "Accuracy"
  bottom: "dir936_BR"
  bottom: "dir936_BR_label"
  top: "acc936_BR"
  include {
    phase: TEST
  }
  accuracy_param {
    attention_net_ignore_label: 4
  }
}

layer {
  name: "acc937_TL"
  type: "Accuracy"
  bottom: "dir937_TL"
  bottom: "dir937_TL_label"
  top: "acc937_TL"
  include {
    phase: TEST
  }
  accuracy_param {
    attention_net_ignore_label: 4
  }
}

layer {
  name: "acc937_BR"
  type: "Accuracy"
  bottom: "dir937_BR"
  bottom: "dir937_BR_label"
  top: "acc937_BR"
  include {
    phase: TEST
  }
  accuracy_param {
    attention_net_ignore_label: 4
  }
}

layer {
  name: "acc938_TL"
  type: "Accuracy"
  bottom: "dir938_TL"
  bottom: "dir938_TL_label"
  top: "acc938_TL"
  include {
    phase: TEST
  }
  accuracy_param {
    attention_net_ignore_label: 4
  }
}

layer {
  name: "acc938_BR"
  type: "Accuracy"
  bottom: "dir938_BR"
  bottom: "dir938_BR_label"
  top: "acc938_BR"
  include {
    phase: TEST
  }
  accuracy_param {
    attention_net_ignore_label: 4
  }
}

layer {
  name: "acc939_TL"
  type: "Accuracy"
  bottom: "dir939_TL"
  bottom: "dir939_TL_label"
  top: "acc939_TL"
  include {
    phase: TEST
  }
  accuracy_param {
    attention_net_ignore_label: 4
  }
}

layer {
  name: "acc939_BR"
  type: "Accuracy"
  bottom: "dir939_BR"
  bottom: "dir939_BR_label"
  top: "acc939_BR"
  include {
    phase: TEST
  }
  accuracy_param {
    attention_net_ignore_label: 4
  }
}

layer {
  name: "acc940_TL"
  type: "Accuracy"
  bottom: "dir940_TL"
  bottom: "dir940_TL_label"
  top: "acc940_TL"
  include {
    phase: TEST
  }
  accuracy_param {
    attention_net_ignore_label: 4
  }
}

layer {
  name: "acc940_BR"
  type: "Accuracy"
  bottom: "dir940_BR"
  bottom: "dir940_BR_label"
  top: "acc940_BR"
  include {
    phase: TEST
  }
  accuracy_param {
    attention_net_ignore_label: 4
  }
}

layer {
  name: "acc941_TL"
  type: "Accuracy"
  bottom: "dir941_TL"
  bottom: "dir941_TL_label"
  top: "acc941_TL"
  include {
    phase: TEST
  }
  accuracy_param {
    attention_net_ignore_label: 4
  }
}

layer {
  name: "acc941_BR"
  type: "Accuracy"
  bottom: "dir941_BR"
  bottom: "dir941_BR_label"
  top: "acc941_BR"
  include {
    phase: TEST
  }
  accuracy_param {
    attention_net_ignore_label: 4
  }
}

layer {
  name: "acc942_TL"
  type: "Accuracy"
  bottom: "dir942_TL"
  bottom: "dir942_TL_label"
  top: "acc942_TL"
  include {
    phase: TEST
  }
  accuracy_param {
    attention_net_ignore_label: 4
  }
}

layer {
  name: "acc942_BR"
  type: "Accuracy"
  bottom: "dir942_BR"
  bottom: "dir942_BR_label"
  top: "acc942_BR"
  include {
    phase: TEST
  }
  accuracy_param {
    attention_net_ignore_label: 4
  }
}

layer {
  name: "acc943_TL"
  type: "Accuracy"
  bottom: "dir943_TL"
  bottom: "dir943_TL_label"
  top: "acc943_TL"
  include {
    phase: TEST
  }
  accuracy_param {
    attention_net_ignore_label: 4
  }
}

layer {
  name: "acc943_BR"
  type: "Accuracy"
  bottom: "dir943_BR"
  bottom: "dir943_BR_label"
  top: "acc943_BR"
  include {
    phase: TEST
  }
  accuracy_param {
    attention_net_ignore_label: 4
  }
}

layer {
  name: "acc944_TL"
  type: "Accuracy"
  bottom: "dir944_TL"
  bottom: "dir944_TL_label"
  top: "acc944_TL"
  include {
    phase: TEST
  }
  accuracy_param {
    attention_net_ignore_label: 4
  }
}

layer {
  name: "acc944_BR"
  type: "Accuracy"
  bottom: "dir944_BR"
  bottom: "dir944_BR_label"
  top: "acc944_BR"
  include {
    phase: TEST
  }
  accuracy_param {
    attention_net_ignore_label: 4
  }
}

layer {
  name: "acc945_TL"
  type: "Accuracy"
  bottom: "dir945_TL"
  bottom: "dir945_TL_label"
  top: "acc945_TL"
  include {
    phase: TEST
  }
  accuracy_param {
    attention_net_ignore_label: 4
  }
}

layer {
  name: "acc945_BR"
  type: "Accuracy"
  bottom: "dir945_BR"
  bottom: "dir945_BR_label"
  top: "acc945_BR"
  include {
    phase: TEST
  }
  accuracy_param {
    attention_net_ignore_label: 4
  }
}

layer {
  name: "acc946_TL"
  type: "Accuracy"
  bottom: "dir946_TL"
  bottom: "dir946_TL_label"
  top: "acc946_TL"
  include {
    phase: TEST
  }
  accuracy_param {
    attention_net_ignore_label: 4
  }
}

layer {
  name: "acc946_BR"
  type: "Accuracy"
  bottom: "dir946_BR"
  bottom: "dir946_BR_label"
  top: "acc946_BR"
  include {
    phase: TEST
  }
  accuracy_param {
    attention_net_ignore_label: 4
  }
}

layer {
  name: "acc947_TL"
  type: "Accuracy"
  bottom: "dir947_TL"
  bottom: "dir947_TL_label"
  top: "acc947_TL"
  include {
    phase: TEST
  }
  accuracy_param {
    attention_net_ignore_label: 4
  }
}

layer {
  name: "acc947_BR"
  type: "Accuracy"
  bottom: "dir947_BR"
  bottom: "dir947_BR_label"
  top: "acc947_BR"
  include {
    phase: TEST
  }
  accuracy_param {
    attention_net_ignore_label: 4
  }
}

layer {
  name: "acc948_TL"
  type: "Accuracy"
  bottom: "dir948_TL"
  bottom: "dir948_TL_label"
  top: "acc948_TL"
  include {
    phase: TEST
  }
  accuracy_param {
    attention_net_ignore_label: 4
  }
}

layer {
  name: "acc948_BR"
  type: "Accuracy"
  bottom: "dir948_BR"
  bottom: "dir948_BR_label"
  top: "acc948_BR"
  include {
    phase: TEST
  }
  accuracy_param {
    attention_net_ignore_label: 4
  }
}

layer {
  name: "acc949_TL"
  type: "Accuracy"
  bottom: "dir949_TL"
  bottom: "dir949_TL_label"
  top: "acc949_TL"
  include {
    phase: TEST
  }
  accuracy_param {
    attention_net_ignore_label: 4
  }
}

layer {
  name: "acc949_BR"
  type: "Accuracy"
  bottom: "dir949_BR"
  bottom: "dir949_BR_label"
  top: "acc949_BR"
  include {
    phase: TEST
  }
  accuracy_param {
    attention_net_ignore_label: 4
  }
}

layer {
  name: "acc950_TL"
  type: "Accuracy"
  bottom: "dir950_TL"
  bottom: "dir950_TL_label"
  top: "acc950_TL"
  include {
    phase: TEST
  }
  accuracy_param {
    attention_net_ignore_label: 4
  }
}

layer {
  name: "acc950_BR"
  type: "Accuracy"
  bottom: "dir950_BR"
  bottom: "dir950_BR_label"
  top: "acc950_BR"
  include {
    phase: TEST
  }
  accuracy_param {
    attention_net_ignore_label: 4
  }
}

layer {
  name: "acc951_TL"
  type: "Accuracy"
  bottom: "dir951_TL"
  bottom: "dir951_TL_label"
  top: "acc951_TL"
  include {
    phase: TEST
  }
  accuracy_param {
    attention_net_ignore_label: 4
  }
}

layer {
  name: "acc951_BR"
  type: "Accuracy"
  bottom: "dir951_BR"
  bottom: "dir951_BR_label"
  top: "acc951_BR"
  include {
    phase: TEST
  }
  accuracy_param {
    attention_net_ignore_label: 4
  }
}

layer {
  name: "acc952_TL"
  type: "Accuracy"
  bottom: "dir952_TL"
  bottom: "dir952_TL_label"
  top: "acc952_TL"
  include {
    phase: TEST
  }
  accuracy_param {
    attention_net_ignore_label: 4
  }
}

layer {
  name: "acc952_BR"
  type: "Accuracy"
  bottom: "dir952_BR"
  bottom: "dir952_BR_label"
  top: "acc952_BR"
  include {
    phase: TEST
  }
  accuracy_param {
    attention_net_ignore_label: 4
  }
}

layer {
  name: "acc953_TL"
  type: "Accuracy"
  bottom: "dir953_TL"
  bottom: "dir953_TL_label"
  top: "acc953_TL"
  include {
    phase: TEST
  }
  accuracy_param {
    attention_net_ignore_label: 4
  }
}

layer {
  name: "acc953_BR"
  type: "Accuracy"
  bottom: "dir953_BR"
  bottom: "dir953_BR_label"
  top: "acc953_BR"
  include {
    phase: TEST
  }
  accuracy_param {
    attention_net_ignore_label: 4
  }
}

layer {
  name: "acc954_TL"
  type: "Accuracy"
  bottom: "dir954_TL"
  bottom: "dir954_TL_label"
  top: "acc954_TL"
  include {
    phase: TEST
  }
  accuracy_param {
    attention_net_ignore_label: 4
  }
}

layer {
  name: "acc954_BR"
  type: "Accuracy"
  bottom: "dir954_BR"
  bottom: "dir954_BR_label"
  top: "acc954_BR"
  include {
    phase: TEST
  }
  accuracy_param {
    attention_net_ignore_label: 4
  }
}

layer {
  name: "acc955_TL"
  type: "Accuracy"
  bottom: "dir955_TL"
  bottom: "dir955_TL_label"
  top: "acc955_TL"
  include {
    phase: TEST
  }
  accuracy_param {
    attention_net_ignore_label: 4
  }
}

layer {
  name: "acc955_BR"
  type: "Accuracy"
  bottom: "dir955_BR"
  bottom: "dir955_BR_label"
  top: "acc955_BR"
  include {
    phase: TEST
  }
  accuracy_param {
    attention_net_ignore_label: 4
  }
}

layer {
  name: "acc956_TL"
  type: "Accuracy"
  bottom: "dir956_TL"
  bottom: "dir956_TL_label"
  top: "acc956_TL"
  include {
    phase: TEST
  }
  accuracy_param {
    attention_net_ignore_label: 4
  }
}

layer {
  name: "acc956_BR"
  type: "Accuracy"
  bottom: "dir956_BR"
  bottom: "dir956_BR_label"
  top: "acc956_BR"
  include {
    phase: TEST
  }
  accuracy_param {
    attention_net_ignore_label: 4
  }
}

layer {
  name: "acc957_TL"
  type: "Accuracy"
  bottom: "dir957_TL"
  bottom: "dir957_TL_label"
  top: "acc957_TL"
  include {
    phase: TEST
  }
  accuracy_param {
    attention_net_ignore_label: 4
  }
}

layer {
  name: "acc957_BR"
  type: "Accuracy"
  bottom: "dir957_BR"
  bottom: "dir957_BR_label"
  top: "acc957_BR"
  include {
    phase: TEST
  }
  accuracy_param {
    attention_net_ignore_label: 4
  }
}

layer {
  name: "acc958_TL"
  type: "Accuracy"
  bottom: "dir958_TL"
  bottom: "dir958_TL_label"
  top: "acc958_TL"
  include {
    phase: TEST
  }
  accuracy_param {
    attention_net_ignore_label: 4
  }
}

layer {
  name: "acc958_BR"
  type: "Accuracy"
  bottom: "dir958_BR"
  bottom: "dir958_BR_label"
  top: "acc958_BR"
  include {
    phase: TEST
  }
  accuracy_param {
    attention_net_ignore_label: 4
  }
}

layer {
  name: "acc959_TL"
  type: "Accuracy"
  bottom: "dir959_TL"
  bottom: "dir959_TL_label"
  top: "acc959_TL"
  include {
    phase: TEST
  }
  accuracy_param {
    attention_net_ignore_label: 4
  }
}

layer {
  name: "acc959_BR"
  type: "Accuracy"
  bottom: "dir959_BR"
  bottom: "dir959_BR_label"
  top: "acc959_BR"
  include {
    phase: TEST
  }
  accuracy_param {
    attention_net_ignore_label: 4
  }
}

layer {
  name: "acc960_TL"
  type: "Accuracy"
  bottom: "dir960_TL"
  bottom: "dir960_TL_label"
  top: "acc960_TL"
  include {
    phase: TEST
  }
  accuracy_param {
    attention_net_ignore_label: 4
  }
}

layer {
  name: "acc960_BR"
  type: "Accuracy"
  bottom: "dir960_BR"
  bottom: "dir960_BR_label"
  top: "acc960_BR"
  include {
    phase: TEST
  }
  accuracy_param {
    attention_net_ignore_label: 4
  }
}

layer {
  name: "acc961_TL"
  type: "Accuracy"
  bottom: "dir961_TL"
  bottom: "dir961_TL_label"
  top: "acc961_TL"
  include {
    phase: TEST
  }
  accuracy_param {
    attention_net_ignore_label: 4
  }
}

layer {
  name: "acc961_BR"
  type: "Accuracy"
  bottom: "dir961_BR"
  bottom: "dir961_BR_label"
  top: "acc961_BR"
  include {
    phase: TEST
  }
  accuracy_param {
    attention_net_ignore_label: 4
  }
}

layer {
  name: "acc962_TL"
  type: "Accuracy"
  bottom: "dir962_TL"
  bottom: "dir962_TL_label"
  top: "acc962_TL"
  include {
    phase: TEST
  }
  accuracy_param {
    attention_net_ignore_label: 4
  }
}

layer {
  name: "acc962_BR"
  type: "Accuracy"
  bottom: "dir962_BR"
  bottom: "dir962_BR_label"
  top: "acc962_BR"
  include {
    phase: TEST
  }
  accuracy_param {
    attention_net_ignore_label: 4
  }
}

layer {
  name: "acc963_TL"
  type: "Accuracy"
  bottom: "dir963_TL"
  bottom: "dir963_TL_label"
  top: "acc963_TL"
  include {
    phase: TEST
  }
  accuracy_param {
    attention_net_ignore_label: 4
  }
}

layer {
  name: "acc963_BR"
  type: "Accuracy"
  bottom: "dir963_BR"
  bottom: "dir963_BR_label"
  top: "acc963_BR"
  include {
    phase: TEST
  }
  accuracy_param {
    attention_net_ignore_label: 4
  }
}

layer {
  name: "acc964_TL"
  type: "Accuracy"
  bottom: "dir964_TL"
  bottom: "dir964_TL_label"
  top: "acc964_TL"
  include {
    phase: TEST
  }
  accuracy_param {
    attention_net_ignore_label: 4
  }
}

layer {
  name: "acc964_BR"
  type: "Accuracy"
  bottom: "dir964_BR"
  bottom: "dir964_BR_label"
  top: "acc964_BR"
  include {
    phase: TEST
  }
  accuracy_param {
    attention_net_ignore_label: 4
  }
}

layer {
  name: "acc965_TL"
  type: "Accuracy"
  bottom: "dir965_TL"
  bottom: "dir965_TL_label"
  top: "acc965_TL"
  include {
    phase: TEST
  }
  accuracy_param {
    attention_net_ignore_label: 4
  }
}

layer {
  name: "acc965_BR"
  type: "Accuracy"
  bottom: "dir965_BR"
  bottom: "dir965_BR_label"
  top: "acc965_BR"
  include {
    phase: TEST
  }
  accuracy_param {
    attention_net_ignore_label: 4
  }
}

layer {
  name: "acc966_TL"
  type: "Accuracy"
  bottom: "dir966_TL"
  bottom: "dir966_TL_label"
  top: "acc966_TL"
  include {
    phase: TEST
  }
  accuracy_param {
    attention_net_ignore_label: 4
  }
}

layer {
  name: "acc966_BR"
  type: "Accuracy"
  bottom: "dir966_BR"
  bottom: "dir966_BR_label"
  top: "acc966_BR"
  include {
    phase: TEST
  }
  accuracy_param {
    attention_net_ignore_label: 4
  }
}

layer {
  name: "acc967_TL"
  type: "Accuracy"
  bottom: "dir967_TL"
  bottom: "dir967_TL_label"
  top: "acc967_TL"
  include {
    phase: TEST
  }
  accuracy_param {
    attention_net_ignore_label: 4
  }
}

layer {
  name: "acc967_BR"
  type: "Accuracy"
  bottom: "dir967_BR"
  bottom: "dir967_BR_label"
  top: "acc967_BR"
  include {
    phase: TEST
  }
  accuracy_param {
    attention_net_ignore_label: 4
  }
}

layer {
  name: "acc968_TL"
  type: "Accuracy"
  bottom: "dir968_TL"
  bottom: "dir968_TL_label"
  top: "acc968_TL"
  include {
    phase: TEST
  }
  accuracy_param {
    attention_net_ignore_label: 4
  }
}

layer {
  name: "acc968_BR"
  type: "Accuracy"
  bottom: "dir968_BR"
  bottom: "dir968_BR_label"
  top: "acc968_BR"
  include {
    phase: TEST
  }
  accuracy_param {
    attention_net_ignore_label: 4
  }
}

layer {
  name: "acc969_TL"
  type: "Accuracy"
  bottom: "dir969_TL"
  bottom: "dir969_TL_label"
  top: "acc969_TL"
  include {
    phase: TEST
  }
  accuracy_param {
    attention_net_ignore_label: 4
  }
}

layer {
  name: "acc969_BR"
  type: "Accuracy"
  bottom: "dir969_BR"
  bottom: "dir969_BR_label"
  top: "acc969_BR"
  include {
    phase: TEST
  }
  accuracy_param {
    attention_net_ignore_label: 4
  }
}

layer {
  name: "acc970_TL"
  type: "Accuracy"
  bottom: "dir970_TL"
  bottom: "dir970_TL_label"
  top: "acc970_TL"
  include {
    phase: TEST
  }
  accuracy_param {
    attention_net_ignore_label: 4
  }
}

layer {
  name: "acc970_BR"
  type: "Accuracy"
  bottom: "dir970_BR"
  bottom: "dir970_BR_label"
  top: "acc970_BR"
  include {
    phase: TEST
  }
  accuracy_param {
    attention_net_ignore_label: 4
  }
}

layer {
  name: "acc971_TL"
  type: "Accuracy"
  bottom: "dir971_TL"
  bottom: "dir971_TL_label"
  top: "acc971_TL"
  include {
    phase: TEST
  }
  accuracy_param {
    attention_net_ignore_label: 4
  }
}

layer {
  name: "acc971_BR"
  type: "Accuracy"
  bottom: "dir971_BR"
  bottom: "dir971_BR_label"
  top: "acc971_BR"
  include {
    phase: TEST
  }
  accuracy_param {
    attention_net_ignore_label: 4
  }
}

layer {
  name: "acc972_TL"
  type: "Accuracy"
  bottom: "dir972_TL"
  bottom: "dir972_TL_label"
  top: "acc972_TL"
  include {
    phase: TEST
  }
  accuracy_param {
    attention_net_ignore_label: 4
  }
}

layer {
  name: "acc972_BR"
  type: "Accuracy"
  bottom: "dir972_BR"
  bottom: "dir972_BR_label"
  top: "acc972_BR"
  include {
    phase: TEST
  }
  accuracy_param {
    attention_net_ignore_label: 4
  }
}

layer {
  name: "acc973_TL"
  type: "Accuracy"
  bottom: "dir973_TL"
  bottom: "dir973_TL_label"
  top: "acc973_TL"
  include {
    phase: TEST
  }
  accuracy_param {
    attention_net_ignore_label: 4
  }
}

layer {
  name: "acc973_BR"
  type: "Accuracy"
  bottom: "dir973_BR"
  bottom: "dir973_BR_label"
  top: "acc973_BR"
  include {
    phase: TEST
  }
  accuracy_param {
    attention_net_ignore_label: 4
  }
}

layer {
  name: "acc974_TL"
  type: "Accuracy"
  bottom: "dir974_TL"
  bottom: "dir974_TL_label"
  top: "acc974_TL"
  include {
    phase: TEST
  }
  accuracy_param {
    attention_net_ignore_label: 4
  }
}

layer {
  name: "acc974_BR"
  type: "Accuracy"
  bottom: "dir974_BR"
  bottom: "dir974_BR_label"
  top: "acc974_BR"
  include {
    phase: TEST
  }
  accuracy_param {
    attention_net_ignore_label: 4
  }
}

layer {
  name: "acc975_TL"
  type: "Accuracy"
  bottom: "dir975_TL"
  bottom: "dir975_TL_label"
  top: "acc975_TL"
  include {
    phase: TEST
  }
  accuracy_param {
    attention_net_ignore_label: 4
  }
}

layer {
  name: "acc975_BR"
  type: "Accuracy"
  bottom: "dir975_BR"
  bottom: "dir975_BR_label"
  top: "acc975_BR"
  include {
    phase: TEST
  }
  accuracy_param {
    attention_net_ignore_label: 4
  }
}

layer {
  name: "acc976_TL"
  type: "Accuracy"
  bottom: "dir976_TL"
  bottom: "dir976_TL_label"
  top: "acc976_TL"
  include {
    phase: TEST
  }
  accuracy_param {
    attention_net_ignore_label: 4
  }
}

layer {
  name: "acc976_BR"
  type: "Accuracy"
  bottom: "dir976_BR"
  bottom: "dir976_BR_label"
  top: "acc976_BR"
  include {
    phase: TEST
  }
  accuracy_param {
    attention_net_ignore_label: 4
  }
}

layer {
  name: "acc977_TL"
  type: "Accuracy"
  bottom: "dir977_TL"
  bottom: "dir977_TL_label"
  top: "acc977_TL"
  include {
    phase: TEST
  }
  accuracy_param {
    attention_net_ignore_label: 4
  }
}

layer {
  name: "acc977_BR"
  type: "Accuracy"
  bottom: "dir977_BR"
  bottom: "dir977_BR_label"
  top: "acc977_BR"
  include {
    phase: TEST
  }
  accuracy_param {
    attention_net_ignore_label: 4
  }
}

layer {
  name: "acc978_TL"
  type: "Accuracy"
  bottom: "dir978_TL"
  bottom: "dir978_TL_label"
  top: "acc978_TL"
  include {
    phase: TEST
  }
  accuracy_param {
    attention_net_ignore_label: 4
  }
}

layer {
  name: "acc978_BR"
  type: "Accuracy"
  bottom: "dir978_BR"
  bottom: "dir978_BR_label"
  top: "acc978_BR"
  include {
    phase: TEST
  }
  accuracy_param {
    attention_net_ignore_label: 4
  }
}

layer {
  name: "acc979_TL"
  type: "Accuracy"
  bottom: "dir979_TL"
  bottom: "dir979_TL_label"
  top: "acc979_TL"
  include {
    phase: TEST
  }
  accuracy_param {
    attention_net_ignore_label: 4
  }
}

layer {
  name: "acc979_BR"
  type: "Accuracy"
  bottom: "dir979_BR"
  bottom: "dir979_BR_label"
  top: "acc979_BR"
  include {
    phase: TEST
  }
  accuracy_param {
    attention_net_ignore_label: 4
  }
}

layer {
  name: "acc980_TL"
  type: "Accuracy"
  bottom: "dir980_TL"
  bottom: "dir980_TL_label"
  top: "acc980_TL"
  include {
    phase: TEST
  }
  accuracy_param {
    attention_net_ignore_label: 4
  }
}

layer {
  name: "acc980_BR"
  type: "Accuracy"
  bottom: "dir980_BR"
  bottom: "dir980_BR_label"
  top: "acc980_BR"
  include {
    phase: TEST
  }
  accuracy_param {
    attention_net_ignore_label: 4
  }
}

layer {
  name: "acc981_TL"
  type: "Accuracy"
  bottom: "dir981_TL"
  bottom: "dir981_TL_label"
  top: "acc981_TL"
  include {
    phase: TEST
  }
  accuracy_param {
    attention_net_ignore_label: 4
  }
}

layer {
  name: "acc981_BR"
  type: "Accuracy"
  bottom: "dir981_BR"
  bottom: "dir981_BR_label"
  top: "acc981_BR"
  include {
    phase: TEST
  }
  accuracy_param {
    attention_net_ignore_label: 4
  }
}

layer {
  name: "acc982_TL"
  type: "Accuracy"
  bottom: "dir982_TL"
  bottom: "dir982_TL_label"
  top: "acc982_TL"
  include {
    phase: TEST
  }
  accuracy_param {
    attention_net_ignore_label: 4
  }
}

layer {
  name: "acc982_BR"
  type: "Accuracy"
  bottom: "dir982_BR"
  bottom: "dir982_BR_label"
  top: "acc982_BR"
  include {
    phase: TEST
  }
  accuracy_param {
    attention_net_ignore_label: 4
  }
}

layer {
  name: "acc983_TL"
  type: "Accuracy"
  bottom: "dir983_TL"
  bottom: "dir983_TL_label"
  top: "acc983_TL"
  include {
    phase: TEST
  }
  accuracy_param {
    attention_net_ignore_label: 4
  }
}

layer {
  name: "acc983_BR"
  type: "Accuracy"
  bottom: "dir983_BR"
  bottom: "dir983_BR_label"
  top: "acc983_BR"
  include {
    phase: TEST
  }
  accuracy_param {
    attention_net_ignore_label: 4
  }
}

layer {
  name: "acc984_TL"
  type: "Accuracy"
  bottom: "dir984_TL"
  bottom: "dir984_TL_label"
  top: "acc984_TL"
  include {
    phase: TEST
  }
  accuracy_param {
    attention_net_ignore_label: 4
  }
}

layer {
  name: "acc984_BR"
  type: "Accuracy"
  bottom: "dir984_BR"
  bottom: "dir984_BR_label"
  top: "acc984_BR"
  include {
    phase: TEST
  }
  accuracy_param {
    attention_net_ignore_label: 4
  }
}

layer {
  name: "acc985_TL"
  type: "Accuracy"
  bottom: "dir985_TL"
  bottom: "dir985_TL_label"
  top: "acc985_TL"
  include {
    phase: TEST
  }
  accuracy_param {
    attention_net_ignore_label: 4
  }
}

layer {
  name: "acc985_BR"
  type: "Accuracy"
  bottom: "dir985_BR"
  bottom: "dir985_BR_label"
  top: "acc985_BR"
  include {
    phase: TEST
  }
  accuracy_param {
    attention_net_ignore_label: 4
  }
}

layer {
  name: "acc986_TL"
  type: "Accuracy"
  bottom: "dir986_TL"
  bottom: "dir986_TL_label"
  top: "acc986_TL"
  include {
    phase: TEST
  }
  accuracy_param {
    attention_net_ignore_label: 4
  }
}

layer {
  name: "acc986_BR"
  type: "Accuracy"
  bottom: "dir986_BR"
  bottom: "dir986_BR_label"
  top: "acc986_BR"
  include {
    phase: TEST
  }
  accuracy_param {
    attention_net_ignore_label: 4
  }
}

layer {
  name: "acc987_TL"
  type: "Accuracy"
  bottom: "dir987_TL"
  bottom: "dir987_TL_label"
  top: "acc987_TL"
  include {
    phase: TEST
  }
  accuracy_param {
    attention_net_ignore_label: 4
  }
}

layer {
  name: "acc987_BR"
  type: "Accuracy"
  bottom: "dir987_BR"
  bottom: "dir987_BR_label"
  top: "acc987_BR"
  include {
    phase: TEST
  }
  accuracy_param {
    attention_net_ignore_label: 4
  }
}

layer {
  name: "acc988_TL"
  type: "Accuracy"
  bottom: "dir988_TL"
  bottom: "dir988_TL_label"
  top: "acc988_TL"
  include {
    phase: TEST
  }
  accuracy_param {
    attention_net_ignore_label: 4
  }
}

layer {
  name: "acc988_BR"
  type: "Accuracy"
  bottom: "dir988_BR"
  bottom: "dir988_BR_label"
  top: "acc988_BR"
  include {
    phase: TEST
  }
  accuracy_param {
    attention_net_ignore_label: 4
  }
}

layer {
  name: "acc989_TL"
  type: "Accuracy"
  bottom: "dir989_TL"
  bottom: "dir989_TL_label"
  top: "acc989_TL"
  include {
    phase: TEST
  }
  accuracy_param {
    attention_net_ignore_label: 4
  }
}

layer {
  name: "acc989_BR"
  type: "Accuracy"
  bottom: "dir989_BR"
  bottom: "dir989_BR_label"
  top: "acc989_BR"
  include {
    phase: TEST
  }
  accuracy_param {
    attention_net_ignore_label: 4
  }
}

layer {
  name: "acc990_TL"
  type: "Accuracy"
  bottom: "dir990_TL"
  bottom: "dir990_TL_label"
  top: "acc990_TL"
  include {
    phase: TEST
  }
  accuracy_param {
    attention_net_ignore_label: 4
  }
}

layer {
  name: "acc990_BR"
  type: "Accuracy"
  bottom: "dir990_BR"
  bottom: "dir990_BR_label"
  top: "acc990_BR"
  include {
    phase: TEST
  }
  accuracy_param {
    attention_net_ignore_label: 4
  }
}

layer {
  name: "acc991_TL"
  type: "Accuracy"
  bottom: "dir991_TL"
  bottom: "dir991_TL_label"
  top: "acc991_TL"
  include {
    phase: TEST
  }
  accuracy_param {
    attention_net_ignore_label: 4
  }
}

layer {
  name: "acc991_BR"
  type: "Accuracy"
  bottom: "dir991_BR"
  bottom: "dir991_BR_label"
  top: "acc991_BR"
  include {
    phase: TEST
  }
  accuracy_param {
    attention_net_ignore_label: 4
  }
}

layer {
  name: "acc992_TL"
  type: "Accuracy"
  bottom: "dir992_TL"
  bottom: "dir992_TL_label"
  top: "acc992_TL"
  include {
    phase: TEST
  }
  accuracy_param {
    attention_net_ignore_label: 4
  }
}

layer {
  name: "acc992_BR"
  type: "Accuracy"
  bottom: "dir992_BR"
  bottom: "dir992_BR_label"
  top: "acc992_BR"
  include {
    phase: TEST
  }
  accuracy_param {
    attention_net_ignore_label: 4
  }
}

layer {
  name: "acc993_TL"
  type: "Accuracy"
  bottom: "dir993_TL"
  bottom: "dir993_TL_label"
  top: "acc993_TL"
  include {
    phase: TEST
  }
  accuracy_param {
    attention_net_ignore_label: 4
  }
}

layer {
  name: "acc993_BR"
  type: "Accuracy"
  bottom: "dir993_BR"
  bottom: "dir993_BR_label"
  top: "acc993_BR"
  include {
    phase: TEST
  }
  accuracy_param {
    attention_net_ignore_label: 4
  }
}

layer {
  name: "acc994_TL"
  type: "Accuracy"
  bottom: "dir994_TL"
  bottom: "dir994_TL_label"
  top: "acc994_TL"
  include {
    phase: TEST
  }
  accuracy_param {
    attention_net_ignore_label: 4
  }
}

layer {
  name: "acc994_BR"
  type: "Accuracy"
  bottom: "dir994_BR"
  bottom: "dir994_BR_label"
  top: "acc994_BR"
  include {
    phase: TEST
  }
  accuracy_param {
    attention_net_ignore_label: 4
  }
}

layer {
  name: "acc995_TL"
  type: "Accuracy"
  bottom: "dir995_TL"
  bottom: "dir995_TL_label"
  top: "acc995_TL"
  include {
    phase: TEST
  }
  accuracy_param {
    attention_net_ignore_label: 4
  }
}

layer {
  name: "acc995_BR"
  type: "Accuracy"
  bottom: "dir995_BR"
  bottom: "dir995_BR_label"
  top: "acc995_BR"
  include {
    phase: TEST
  }
  accuracy_param {
    attention_net_ignore_label: 4
  }
}

layer {
  name: "acc996_TL"
  type: "Accuracy"
  bottom: "dir996_TL"
  bottom: "dir996_TL_label"
  top: "acc996_TL"
  include {
    phase: TEST
  }
  accuracy_param {
    attention_net_ignore_label: 4
  }
}

layer {
  name: "acc996_BR"
  type: "Accuracy"
  bottom: "dir996_BR"
  bottom: "dir996_BR_label"
  top: "acc996_BR"
  include {
    phase: TEST
  }
  accuracy_param {
    attention_net_ignore_label: 4
  }
}

layer {
  name: "acc997_TL"
  type: "Accuracy"
  bottom: "dir997_TL"
  bottom: "dir997_TL_label"
  top: "acc997_TL"
  include {
    phase: TEST
  }
  accuracy_param {
    attention_net_ignore_label: 4
  }
}

layer {
  name: "acc997_BR"
  type: "Accuracy"
  bottom: "dir997_BR"
  bottom: "dir997_BR_label"
  top: "acc997_BR"
  include {
    phase: TEST
  }
  accuracy_param {
    attention_net_ignore_label: 4
  }
}

layer {
  name: "acc998_TL"
  type: "Accuracy"
  bottom: "dir998_TL"
  bottom: "dir998_TL_label"
  top: "acc998_TL"
  include {
    phase: TEST
  }
  accuracy_param {
    attention_net_ignore_label: 4
  }
}

layer {
  name: "acc998_BR"
  type: "Accuracy"
  bottom: "dir998_BR"
  bottom: "dir998_BR_label"
  top: "acc998_BR"
  include {
    phase: TEST
  }
  accuracy_param {
    attention_net_ignore_label: 4
  }
}

layer {
  name: "acc999_TL"
  type: "Accuracy"
  bottom: "dir999_TL"
  bottom: "dir999_TL_label"
  top: "acc999_TL"
  include {
    phase: TEST
  }
  accuracy_param {
    attention_net_ignore_label: 4
  }
}

layer {
  name: "acc999_BR"
  type: "Accuracy"
  bottom: "dir999_BR"
  bottom: "dir999_BR_label"
  top: "acc999_BR"
  include {
    phase: TEST
  }
  accuracy_param {
    attention_net_ignore_label: 4
  }
}

layer {
  name: "acc_cls"
  type: "Accuracy"
  bottom: "cls"
  bottom: "cls_label"
  top: "acc_cls"
  include {
    phase: TEST
  }
  accuracy_param {
    attention_net_ignore_label: -1
  }
}

