input: "data"
input_shape {
  dim: 1
  dim: 3
  dim: 224
  dim: 224
}

layer {
  name: "conv1/7x7_s2"
  type: "Convolution"
  bottom: "data"
  top: "conv1/7x7_s2"
  param {
    lr_mult: 0.25
    decay_mult: 1
  }
  param {
    lr_mult: 0.5
    decay_mult: 0
  }
  convolution_param {
    num_output: 64
    pad: 3
    kernel_size: 7
    group: 1
    stride: 2
  }
}

layer {
  name: "conv1/relu_7x7"
  type: "ReLU"
  bottom: "conv1/7x7_s2"
  top: "conv1/7x7_s2"
}

layer {
  name: "pool1/3x3_s2"
  type: "Pooling"
  bottom: "conv1/7x7_s2"
  top: "pool1/3x3_s2"
  pooling_param {
    pool: MAX
    kernel_size: 3
    stride: 2
    pad: 0
  }
}

layer {
  name: "conv2/3x3_reduce"
  type: "Convolution"
  bottom: "pool1/3x3_s2"
  top: "conv2/3x3_reduce"
  param {
    lr_mult: 0.25
    decay_mult: 1
  }
  param {
    lr_mult: 0.5
    decay_mult: 0
  }
  convolution_param {
    num_output: 64
    pad: 0
    kernel_size: 1
    group: 1
    stride: 1
  }
}

layer {
  name: "conv2/relu_3x3_reduce"
  type: "ReLU"
  bottom: "conv2/3x3_reduce"
  top: "conv2/3x3_reduce"
}

layer {
  name: "conv2/3x3"
  type: "Convolution"
  bottom: "conv2/3x3_reduce"
  top: "conv2/3x3"
  param {
    lr_mult: 0.25
    decay_mult: 1
  }
  param {
    lr_mult: 0.5
    decay_mult: 0
  }
  convolution_param {
    num_output: 192
    pad: 1
    kernel_size: 3
    group: 1
    stride: 1
  }
}

layer {
  name: "conv2/relu_3x3"
  type: "ReLU"
  bottom: "conv2/3x3"
  top: "conv2/3x3"
}

layer {
  name: "pool2/3x3_s2"
  type: "Pooling"
  bottom: "conv2/3x3"
  top: "pool2/3x3_s2"
  pooling_param {
    pool: MAX
    kernel_size: 3
    stride: 2
    pad: 0
  }
}

layer {
  name: "inception_3a/1x1"
  type: "Convolution"
  bottom: "pool2/3x3_s2"
  top: "inception_3a/1x1"
  param {
    lr_mult: 0.25
    decay_mult: 1
  }
  param {
    lr_mult: 0.5
    decay_mult: 0
  }
  convolution_param {
    num_output: 64
    pad: 0
    kernel_size: 1
    group: 1
    stride: 1
  }
}

layer {
  name: "inception_3a/relu_1x1"
  type: "ReLU"
  bottom: "inception_3a/1x1"
  top: "inception_3a/1x1"
}

layer {
  name: "inception_3a/3x3_reduce"
  type: "Convolution"
  bottom: "pool2/3x3_s2"
  top: "inception_3a/3x3_reduce"
  param {
    lr_mult: 0.25
    decay_mult: 1
  }
  param {
    lr_mult: 0.5
    decay_mult: 0
  }
  convolution_param {
    num_output: 96
    pad: 0
    kernel_size: 1
    group: 1
    stride: 1
  }
}

layer {
  name: "inception_3a/relu_3x3_reduce"
  type: "ReLU"
  bottom: "inception_3a/3x3_reduce"
  top: "inception_3a/3x3_reduce"
}

layer {
  name: "inception_3a/3x3"
  type: "Convolution"
  bottom: "inception_3a/3x3_reduce"
  top: "inception_3a/3x3"
  param {
    lr_mult: 0.25
    decay_mult: 1
  }
  param {
    lr_mult: 0.5
    decay_mult: 0
  }
  convolution_param {
    num_output: 128
    pad: 1
    kernel_size: 3
    group: 1
    stride: 1
  }
}

layer {
  name: "inception_3a/relu_3x3"
  type: "ReLU"
  bottom: "inception_3a/3x3"
  top: "inception_3a/3x3"
}

layer {
  name: "inception_3a/5x5_reduce"
  type: "Convolution"
  bottom: "pool2/3x3_s2"
  top: "inception_3a/5x5_reduce"
  param {
    lr_mult: 0.25
    decay_mult: 1
  }
  param {
    lr_mult: 0.5
    decay_mult: 0
  }
  convolution_param {
    num_output: 16
    pad: 0
    kernel_size: 1
    group: 1
    stride: 1
  }
}

layer {
  name: "inception_3a/relu_5x5_reduce"
  type: "ReLU"
  bottom: "inception_3a/5x5_reduce"
  top: "inception_3a/5x5_reduce"
}

layer {
  name: "inception_3a/5x5"
  type: "Convolution"
  bottom: "inception_3a/5x5_reduce"
  top: "inception_3a/5x5"
  param {
    lr_mult: 0.25
    decay_mult: 1
  }
  param {
    lr_mult: 0.5
    decay_mult: 0
  }
  convolution_param {
    num_output: 32
    pad: 2
    kernel_size: 5
    group: 1
    stride: 1
  }
}

layer {
  name: "inception_3a/relu_5x5"
  type: "ReLU"
  bottom: "inception_3a/5x5"
  top: "inception_3a/5x5"
}

layer {
  name: "inception_3a/pool"
  type: "Pooling"
  bottom: "pool2/3x3_s2"
  top: "inception_3a/pool"
  pooling_param {
    pool: MAX
    kernel_size: 3
    stride: 1
    pad: 1
  }
}

layer {
  name: "inception_3a/pool_proj"
  type: "Convolution"
  bottom: "inception_3a/pool"
  top: "inception_3a/pool_proj"
  param {
    lr_mult: 0.25
    decay_mult: 1
  }
  param {
    lr_mult: 0.5
    decay_mult: 0
  }
  convolution_param {
    num_output: 32
    pad: 0
    kernel_size: 1
    group: 1
    stride: 1
  }
}

layer {
  name: "inception_3a/relu_pool_proj"
  type: "ReLU"
  bottom: "inception_3a/pool_proj"
  top: "inception_3a/pool_proj"
}

layer {
  name: "inception_3a/output"
  type: "Concat"
  bottom: "inception_3a/1x1"
  bottom: "inception_3a/3x3"
  bottom: "inception_3a/5x5"
  bottom: "inception_3a/pool_proj"
  top: "inception_3a/output"
}

layer {
  name: "inception_3b/1x1"
  type: "Convolution"
  bottom: "inception_3a/output"
  top: "inception_3b/1x1"
  param {
    lr_mult: 0.25
    decay_mult: 1
  }
  param {
    lr_mult: 0.5
    decay_mult: 0
  }
  convolution_param {
    num_output: 128
    pad: 0
    kernel_size: 1
    group: 1
    stride: 1
  }
}

layer {
  name: "inception_3b/relu_1x1"
  type: "ReLU"
  bottom: "inception_3b/1x1"
  top: "inception_3b/1x1"
}

layer {
  name: "inception_3b/3x3_reduce"
  type: "Convolution"
  bottom: "inception_3a/output"
  top: "inception_3b/3x3_reduce"
  param {
    lr_mult: 0.25
    decay_mult: 1
  }
  param {
    lr_mult: 0.5
    decay_mult: 0
  }
  convolution_param {
    num_output: 128
    pad: 0
    kernel_size: 1
    group: 1
    stride: 1
  }
}

layer {
  name: "inception_3b/relu_3x3_reduce"
  type: "ReLU"
  bottom: "inception_3b/3x3_reduce"
  top: "inception_3b/3x3_reduce"
}

layer {
  name: "inception_3b/3x3"
  type: "Convolution"
  bottom: "inception_3b/3x3_reduce"
  top: "inception_3b/3x3"
  param {
    lr_mult: 0.25
    decay_mult: 1
  }
  param {
    lr_mult: 0.5
    decay_mult: 0
  }
  convolution_param {
    num_output: 192
    pad: 1
    kernel_size: 3
    group: 1
    stride: 1
  }
}

layer {
  name: "inception_3b/relu_3x3"
  type: "ReLU"
  bottom: "inception_3b/3x3"
  top: "inception_3b/3x3"
}

layer {
  name: "inception_3b/5x5_reduce"
  type: "Convolution"
  bottom: "inception_3a/output"
  top: "inception_3b/5x5_reduce"
  param {
    lr_mult: 0.25
    decay_mult: 1
  }
  param {
    lr_mult: 0.5
    decay_mult: 0
  }
  convolution_param {
    num_output: 32
    pad: 0
    kernel_size: 1
    group: 1
    stride: 1
  }
}

layer {
  name: "inception_3b/relu_5x5_reduce"
  type: "ReLU"
  bottom: "inception_3b/5x5_reduce"
  top: "inception_3b/5x5_reduce"
}

layer {
  name: "inception_3b/5x5"
  type: "Convolution"
  bottom: "inception_3b/5x5_reduce"
  top: "inception_3b/5x5"
  param {
    lr_mult: 0.25
    decay_mult: 1
  }
  param {
    lr_mult: 0.5
    decay_mult: 0
  }
  convolution_param {
    num_output: 96
    pad: 2
    kernel_size: 5
    group: 1
    stride: 1
  }
}

layer {
  name: "inception_3b/relu_5x5"
  type: "ReLU"
  bottom: "inception_3b/5x5"
  top: "inception_3b/5x5"
}

layer {
  name: "inception_3b/pool"
  type: "Pooling"
  bottom: "inception_3a/output"
  top: "inception_3b/pool"
  pooling_param {
    pool: MAX
    kernel_size: 3
    stride: 1
    pad: 1
  }
}

layer {
  name: "inception_3b/pool_proj"
  type: "Convolution"
  bottom: "inception_3b/pool"
  top: "inception_3b/pool_proj"
  param {
    lr_mult: 0.25
    decay_mult: 1
  }
  param {
    lr_mult: 0.5
    decay_mult: 0
  }
  convolution_param {
    num_output: 64
    pad: 0
    kernel_size: 1
    group: 1
    stride: 1
  }
}

layer {
  name: "inception_3b/relu_pool_proj"
  type: "ReLU"
  bottom: "inception_3b/pool_proj"
  top: "inception_3b/pool_proj"
}

layer {
  name: "inception_3b/output"
  type: "Concat"
  bottom: "inception_3b/1x1"
  bottom: "inception_3b/3x3"
  bottom: "inception_3b/5x5"
  bottom: "inception_3b/pool_proj"
  top: "inception_3b/output"
}

layer {
  name: "pool3/3x3_s2"
  type: "Pooling"
  bottom: "inception_3b/output"
  top: "pool3/3x3_s2"
  pooling_param {
    pool: MAX
    kernel_size: 3
    stride: 2
    pad: 0
  }
}

layer {
  name: "inception_4a/1x1"
  type: "Convolution"
  bottom: "pool3/3x3_s2"
  top: "inception_4a/1x1"
  param {
    lr_mult: 0.25
    decay_mult: 1
  }
  param {
    lr_mult: 0.5
    decay_mult: 0
  }
  convolution_param {
    num_output: 192
    pad: 0
    kernel_size: 1
    group: 1
    stride: 1
  }
}

layer {
  name: "inception_4a/relu_1x1"
  type: "ReLU"
  bottom: "inception_4a/1x1"
  top: "inception_4a/1x1"
}

layer {
  name: "inception_4a/3x3_reduce"
  type: "Convolution"
  bottom: "pool3/3x3_s2"
  top: "inception_4a/3x3_reduce"
  param {
    lr_mult: 0.25
    decay_mult: 1
  }
  param {
    lr_mult: 0.5
    decay_mult: 0
  }
  convolution_param {
    num_output: 96
    pad: 0
    kernel_size: 1
    group: 1
    stride: 1
  }
}

layer {
  name: "inception_4a/relu_3x3_reduce"
  type: "ReLU"
  bottom: "inception_4a/3x3_reduce"
  top: "inception_4a/3x3_reduce"
}

layer {
  name: "inception_4a/3x3"
  type: "Convolution"
  bottom: "inception_4a/3x3_reduce"
  top: "inception_4a/3x3"
  param {
    lr_mult: 0.25
    decay_mult: 1
  }
  param {
    lr_mult: 0.5
    decay_mult: 0
  }
  convolution_param {
    num_output: 208
    pad: 1
    kernel_size: 3
    group: 1
    stride: 1
  }
}

layer {
  name: "inception_4a/relu_3x3"
  type: "ReLU"
  bottom: "inception_4a/3x3"
  top: "inception_4a/3x3"
}

layer {
  name: "inception_4a/5x5_reduce"
  type: "Convolution"
  bottom: "pool3/3x3_s2"
  top: "inception_4a/5x5_reduce"
  param {
    lr_mult: 0.25
    decay_mult: 1
  }
  param {
    lr_mult: 0.5
    decay_mult: 0
  }
  convolution_param {
    num_output: 16
    pad: 0
    kernel_size: 1
    group: 1
    stride: 1
  }
}

layer {
  name: "inception_4a/relu_5x5_reduce"
  type: "ReLU"
  bottom: "inception_4a/5x5_reduce"
  top: "inception_4a/5x5_reduce"
}

layer {
  name: "inception_4a/5x5"
  type: "Convolution"
  bottom: "inception_4a/5x5_reduce"
  top: "inception_4a/5x5"
  param {
    lr_mult: 0.25
    decay_mult: 1
  }
  param {
    lr_mult: 0.5
    decay_mult: 0
  }
  convolution_param {
    num_output: 48
    pad: 2
    kernel_size: 5
    group: 1
    stride: 1
  }
}

layer {
  name: "inception_4a/relu_5x5"
  type: "ReLU"
  bottom: "inception_4a/5x5"
  top: "inception_4a/5x5"
}

layer {
  name: "inception_4a/pool"
  type: "Pooling"
  bottom: "pool3/3x3_s2"
  top: "inception_4a/pool"
  pooling_param {
    pool: MAX
    kernel_size: 3
    stride: 1
    pad: 1
  }
}

layer {
  name: "inception_4a/pool_proj"
  type: "Convolution"
  bottom: "inception_4a/pool"
  top: "inception_4a/pool_proj"
  param {
    lr_mult: 0.25
    decay_mult: 1
  }
  param {
    lr_mult: 0.5
    decay_mult: 0
  }
  convolution_param {
    num_output: 64
    pad: 0
    kernel_size: 1
    group: 1
    stride: 1
  }
}

layer {
  name: "inception_4a/relu_pool_proj"
  type: "ReLU"
  bottom: "inception_4a/pool_proj"
  top: "inception_4a/pool_proj"
}

layer {
  name: "inception_4a/output"
  type: "Concat"
  bottom: "inception_4a/1x1"
  bottom: "inception_4a/3x3"
  bottom: "inception_4a/5x5"
  bottom: "inception_4a/pool_proj"
  top: "inception_4a/output"
}

layer {
  name: "inception_4b/1x1"
  type: "Convolution"
  bottom: "inception_4a/output"
  top: "inception_4b/1x1"
  param {
    lr_mult: 0.25
    decay_mult: 1
  }
  param {
    lr_mult: 0.5
    decay_mult: 0
  }
  convolution_param {
    num_output: 160
    pad: 0
    kernel_size: 1
    group: 1
    stride: 1
  }
}

layer {
  name: "inception_4b/relu_1x1"
  type: "ReLU"
  bottom: "inception_4b/1x1"
  top: "inception_4b/1x1"
}

layer {
  name: "inception_4b/3x3_reduce"
  type: "Convolution"
  bottom: "inception_4a/output"
  top: "inception_4b/3x3_reduce"
  param {
    lr_mult: 0.25
    decay_mult: 1
  }
  param {
    lr_mult: 0.5
    decay_mult: 0
  }
  convolution_param {
    num_output: 112
    pad: 0
    kernel_size: 1
    group: 1
    stride: 1
  }
}

layer {
  name: "inception_4b/relu_3x3_reduce"
  type: "ReLU"
  bottom: "inception_4b/3x3_reduce"
  top: "inception_4b/3x3_reduce"
}

layer {
  name: "inception_4b/3x3"
  type: "Convolution"
  bottom: "inception_4b/3x3_reduce"
  top: "inception_4b/3x3"
  param {
    lr_mult: 0.25
    decay_mult: 1
  }
  param {
    lr_mult: 0.5
    decay_mult: 0
  }
  convolution_param {
    num_output: 224
    pad: 1
    kernel_size: 3
    group: 1
    stride: 1
  }
}

layer {
  name: "inception_4b/relu_3x3"
  type: "ReLU"
  bottom: "inception_4b/3x3"
  top: "inception_4b/3x3"
}

layer {
  name: "inception_4b/5x5_reduce"
  type: "Convolution"
  bottom: "inception_4a/output"
  top: "inception_4b/5x5_reduce"
  param {
    lr_mult: 0.25
    decay_mult: 1
  }
  param {
    lr_mult: 0.5
    decay_mult: 0
  }
  convolution_param {
    num_output: 24
    pad: 0
    kernel_size: 1
    group: 1
    stride: 1
  }
}

layer {
  name: "inception_4b/relu_5x5_reduce"
  type: "ReLU"
  bottom: "inception_4b/5x5_reduce"
  top: "inception_4b/5x5_reduce"
}

layer {
  name: "inception_4b/5x5"
  type: "Convolution"
  bottom: "inception_4b/5x5_reduce"
  top: "inception_4b/5x5"
  param {
    lr_mult: 0.25
    decay_mult: 1
  }
  param {
    lr_mult: 0.5
    decay_mult: 0
  }
  convolution_param {
    num_output: 64
    pad: 2
    kernel_size: 5
    group: 1
    stride: 1
  }
}

layer {
  name: "inception_4b/relu_5x5"
  type: "ReLU"
  bottom: "inception_4b/5x5"
  top: "inception_4b/5x5"
}

layer {
  name: "inception_4b/pool"
  type: "Pooling"
  bottom: "inception_4a/output"
  top: "inception_4b/pool"
  pooling_param {
    pool: MAX
    kernel_size: 3
    stride: 1
    pad: 1
  }
}

layer {
  name: "inception_4b/pool_proj"
  type: "Convolution"
  bottom: "inception_4b/pool"
  top: "inception_4b/pool_proj"
  param {
    lr_mult: 0.25
    decay_mult: 1
  }
  param {
    lr_mult: 0.5
    decay_mult: 0
  }
  convolution_param {
    num_output: 64
    pad: 0
    kernel_size: 1
    group: 1
    stride: 1
  }
}

layer {
  name: "inception_4b/relu_pool_proj"
  type: "ReLU"
  bottom: "inception_4b/pool_proj"
  top: "inception_4b/pool_proj"
}

layer {
  name: "inception_4b/output"
  type: "Concat"
  bottom: "inception_4b/1x1"
  bottom: "inception_4b/3x3"
  bottom: "inception_4b/5x5"
  bottom: "inception_4b/pool_proj"
  top: "inception_4b/output"
}

layer {
  name: "inception_4c/1x1"
  type: "Convolution"
  bottom: "inception_4b/output"
  top: "inception_4c/1x1"
  param {
    lr_mult: 0.25
    decay_mult: 1
  }
  param {
    lr_mult: 0.5
    decay_mult: 0
  }
  convolution_param {
    num_output: 128
    pad: 0
    kernel_size: 1
    group: 1
    stride: 1
  }
}

layer {
  name: "inception_4c/relu_1x1"
  type: "ReLU"
  bottom: "inception_4c/1x1"
  top: "inception_4c/1x1"
}

layer {
  name: "inception_4c/3x3_reduce"
  type: "Convolution"
  bottom: "inception_4b/output"
  top: "inception_4c/3x3_reduce"
  param {
    lr_mult: 0.25
    decay_mult: 1
  }
  param {
    lr_mult: 0.5
    decay_mult: 0
  }
  convolution_param {
    num_output: 128
    pad: 0
    kernel_size: 1
    group: 1
    stride: 1
  }
}

layer {
  name: "inception_4c/relu_3x3_reduce"
  type: "ReLU"
  bottom: "inception_4c/3x3_reduce"
  top: "inception_4c/3x3_reduce"
}

layer {
  name: "inception_4c/3x3"
  type: "Convolution"
  bottom: "inception_4c/3x3_reduce"
  top: "inception_4c/3x3"
  param {
    lr_mult: 0.25
    decay_mult: 1
  }
  param {
    lr_mult: 0.5
    decay_mult: 0
  }
  convolution_param {
    num_output: 256
    pad: 1
    kernel_size: 3
    group: 1
    stride: 1
  }
}

layer {
  name: "inception_4c/relu_3x3"
  type: "ReLU"
  bottom: "inception_4c/3x3"
  top: "inception_4c/3x3"
}

layer {
  name: "inception_4c/5x5_reduce"
  type: "Convolution"
  bottom: "inception_4b/output"
  top: "inception_4c/5x5_reduce"
  param {
    lr_mult: 0.25
    decay_mult: 1
  }
  param {
    lr_mult: 0.5
    decay_mult: 0
  }
  convolution_param {
    num_output: 24
    pad: 0
    kernel_size: 1
    group: 1
    stride: 1
  }
}

layer {
  name: "inception_4c/relu_5x5_reduce"
  type: "ReLU"
  bottom: "inception_4c/5x5_reduce"
  top: "inception_4c/5x5_reduce"
}

layer {
  name: "inception_4c/5x5"
  type: "Convolution"
  bottom: "inception_4c/5x5_reduce"
  top: "inception_4c/5x5"
  param {
    lr_mult: 0.25
    decay_mult: 1
  }
  param {
    lr_mult: 0.5
    decay_mult: 0
  }
  convolution_param {
    num_output: 64
    pad: 2
    kernel_size: 5
    group: 1
    stride: 1
  }
}

layer {
  name: "inception_4c/relu_5x5"
  type: "ReLU"
  bottom: "inception_4c/5x5"
  top: "inception_4c/5x5"
}

layer {
  name: "inception_4c/pool"
  type: "Pooling"
  bottom: "inception_4b/output"
  top: "inception_4c/pool"
  pooling_param {
    pool: MAX
    kernel_size: 3
    stride: 1
    pad: 1
  }
}

layer {
  name: "inception_4c/pool_proj"
  type: "Convolution"
  bottom: "inception_4c/pool"
  top: "inception_4c/pool_proj"
  param {
    lr_mult: 0.25
    decay_mult: 1
  }
  param {
    lr_mult: 0.5
    decay_mult: 0
  }
  convolution_param {
    num_output: 64
    pad: 0
    kernel_size: 1
    group: 1
    stride: 1
  }
}

layer {
  name: "inception_4c/relu_pool_proj"
  type: "ReLU"
  bottom: "inception_4c/pool_proj"
  top: "inception_4c/pool_proj"
}

layer {
  name: "inception_4c/output"
  type: "Concat"
  bottom: "inception_4c/1x1"
  bottom: "inception_4c/3x3"
  bottom: "inception_4c/5x5"
  bottom: "inception_4c/pool_proj"
  top: "inception_4c/output"
}

layer {
  name: "inception_4d/1x1"
  type: "Convolution"
  bottom: "inception_4c/output"
  top: "inception_4d/1x1"
  param {
    lr_mult: 0.25
    decay_mult: 1
  }
  param {
    lr_mult: 0.5
    decay_mult: 0
  }
  convolution_param {
    num_output: 112
    pad: 0
    kernel_size: 1
    group: 1
    stride: 1
  }
}

layer {
  name: "inception_4d/relu_1x1"
  type: "ReLU"
  bottom: "inception_4d/1x1"
  top: "inception_4d/1x1"
}

layer {
  name: "inception_4d/3x3_reduce"
  type: "Convolution"
  bottom: "inception_4c/output"
  top: "inception_4d/3x3_reduce"
  param {
    lr_mult: 0.25
    decay_mult: 1
  }
  param {
    lr_mult: 0.5
    decay_mult: 0
  }
  convolution_param {
    num_output: 144
    pad: 0
    kernel_size: 1
    group: 1
    stride: 1
  }
}

layer {
  name: "inception_4d/relu_3x3_reduce"
  type: "ReLU"
  bottom: "inception_4d/3x3_reduce"
  top: "inception_4d/3x3_reduce"
}

layer {
  name: "inception_4d/3x3"
  type: "Convolution"
  bottom: "inception_4d/3x3_reduce"
  top: "inception_4d/3x3"
  param {
    lr_mult: 0.25
    decay_mult: 1
  }
  param {
    lr_mult: 0.5
    decay_mult: 0
  }
  convolution_param {
    num_output: 288
    pad: 1
    kernel_size: 3
    group: 1
    stride: 1
  }
}

layer {
  name: "inception_4d/relu_3x3"
  type: "ReLU"
  bottom: "inception_4d/3x3"
  top: "inception_4d/3x3"
}

layer {
  name: "inception_4d/5x5_reduce"
  type: "Convolution"
  bottom: "inception_4c/output"
  top: "inception_4d/5x5_reduce"
  param {
    lr_mult: 0.25
    decay_mult: 1
  }
  param {
    lr_mult: 0.5
    decay_mult: 0
  }
  convolution_param {
    num_output: 32
    pad: 0
    kernel_size: 1
    group: 1
    stride: 1
  }
}

layer {
  name: "inception_4d/relu_5x5_reduce"
  type: "ReLU"
  bottom: "inception_4d/5x5_reduce"
  top: "inception_4d/5x5_reduce"
}

layer {
  name: "inception_4d/5x5"
  type: "Convolution"
  bottom: "inception_4d/5x5_reduce"
  top: "inception_4d/5x5"
  param {
    lr_mult: 0.25
    decay_mult: 1
  }
  param {
    lr_mult: 0.5
    decay_mult: 0
  }
  convolution_param {
    num_output: 64
    pad: 2
    kernel_size: 5
    group: 1
    stride: 1
  }
}

layer {
  name: "inception_4d/relu_5x5"
  type: "ReLU"
  bottom: "inception_4d/5x5"
  top: "inception_4d/5x5"
}

layer {
  name: "inception_4d/pool"
  type: "Pooling"
  bottom: "inception_4c/output"
  top: "inception_4d/pool"
  pooling_param {
    pool: MAX
    kernel_size: 3
    stride: 1
    pad: 1
  }
}

layer {
  name: "inception_4d/pool_proj"
  type: "Convolution"
  bottom: "inception_4d/pool"
  top: "inception_4d/pool_proj"
  param {
    lr_mult: 0.25
    decay_mult: 1
  }
  param {
    lr_mult: 0.5
    decay_mult: 0
  }
  convolution_param {
    num_output: 64
    pad: 0
    kernel_size: 1
    group: 1
    stride: 1
  }
}

layer {
  name: "inception_4d/relu_pool_proj"
  type: "ReLU"
  bottom: "inception_4d/pool_proj"
  top: "inception_4d/pool_proj"
}

layer {
  name: "inception_4d/output"
  type: "Concat"
  bottom: "inception_4d/1x1"
  bottom: "inception_4d/3x3"
  bottom: "inception_4d/5x5"
  bottom: "inception_4d/pool_proj"
  top: "inception_4d/output"
}

layer {
  name: "inception_4e/1x1"
  type: "Convolution"
  bottom: "inception_4d/output"
  top: "inception_4e/1x1"
  param {
    lr_mult: 0.25
    decay_mult: 1
  }
  param {
    lr_mult: 0.5
    decay_mult: 0
  }
  convolution_param {
    num_output: 256
    pad: 0
    kernel_size: 1
    group: 1
    stride: 1
  }
}

layer {
  name: "inception_4e/relu_1x1"
  type: "ReLU"
  bottom: "inception_4e/1x1"
  top: "inception_4e/1x1"
}

layer {
  name: "inception_4e/3x3_reduce"
  type: "Convolution"
  bottom: "inception_4d/output"
  top: "inception_4e/3x3_reduce"
  param {
    lr_mult: 0.25
    decay_mult: 1
  }
  param {
    lr_mult: 0.5
    decay_mult: 0
  }
  convolution_param {
    num_output: 160
    pad: 0
    kernel_size: 1
    group: 1
    stride: 1
  }
}

layer {
  name: "inception_4e/relu_3x3_reduce"
  type: "ReLU"
  bottom: "inception_4e/3x3_reduce"
  top: "inception_4e/3x3_reduce"
}

layer {
  name: "inception_4e/3x3"
  type: "Convolution"
  bottom: "inception_4e/3x3_reduce"
  top: "inception_4e/3x3"
  param {
    lr_mult: 0.25
    decay_mult: 1
  }
  param {
    lr_mult: 0.5
    decay_mult: 0
  }
  convolution_param {
    num_output: 320
    pad: 1
    kernel_size: 3
    group: 1
    stride: 1
  }
}

layer {
  name: "inception_4e/relu_3x3"
  type: "ReLU"
  bottom: "inception_4e/3x3"
  top: "inception_4e/3x3"
}

layer {
  name: "inception_4e/5x5_reduce"
  type: "Convolution"
  bottom: "inception_4d/output"
  top: "inception_4e/5x5_reduce"
  param {
    lr_mult: 0.25
    decay_mult: 1
  }
  param {
    lr_mult: 0.5
    decay_mult: 0
  }
  convolution_param {
    num_output: 32
    pad: 0
    kernel_size: 1
    group: 1
    stride: 1
  }
}

layer {
  name: "inception_4e/relu_5x5_reduce"
  type: "ReLU"
  bottom: "inception_4e/5x5_reduce"
  top: "inception_4e/5x5_reduce"
}

layer {
  name: "inception_4e/5x5"
  type: "Convolution"
  bottom: "inception_4e/5x5_reduce"
  top: "inception_4e/5x5"
  param {
    lr_mult: 0.25
    decay_mult: 1
  }
  param {
    lr_mult: 0.5
    decay_mult: 0
  }
  convolution_param {
    num_output: 128
    pad: 2
    kernel_size: 5
    group: 1
    stride: 1
  }
}

layer {
  name: "inception_4e/relu_5x5"
  type: "ReLU"
  bottom: "inception_4e/5x5"
  top: "inception_4e/5x5"
}

layer {
  name: "inception_4e/pool"
  type: "Pooling"
  bottom: "inception_4d/output"
  top: "inception_4e/pool"
  pooling_param {
    pool: MAX
    kernel_size: 3
    stride: 1
    pad: 1
  }
}

layer {
  name: "inception_4e/pool_proj"
  type: "Convolution"
  bottom: "inception_4e/pool"
  top: "inception_4e/pool_proj"
  param {
    lr_mult: 0.25
    decay_mult: 1
  }
  param {
    lr_mult: 0.5
    decay_mult: 0
  }
  convolution_param {
    num_output: 128
    pad: 0
    kernel_size: 1
    group: 1
    stride: 1
  }
}

layer {
  name: "inception_4e/relu_pool_proj"
  type: "ReLU"
  bottom: "inception_4e/pool_proj"
  top: "inception_4e/pool_proj"
}

layer {
  name: "inception_4e/output"
  type: "Concat"
  bottom: "inception_4e/1x1"
  bottom: "inception_4e/3x3"
  bottom: "inception_4e/5x5"
  bottom: "inception_4e/pool_proj"
  top: "inception_4e/output"
}

layer {
  name: "pool4/3x3_s2"
  type: "Pooling"
  bottom: "inception_4e/output"
  top: "pool4/3x3_s2"
  pooling_param {
    pool: MAX
    kernel_size: 3
    stride: 2
    pad: 0
  }
}

layer {
  name: "inception_5a/1x1"
  type: "Convolution"
  bottom: "pool4/3x3_s2"
  top: "inception_5a/1x1"
  param {
    lr_mult: 0.25
    decay_mult: 1
  }
  param {
    lr_mult: 0.5
    decay_mult: 0
  }
  convolution_param {
    num_output: 256
    pad: 0
    kernel_size: 1
    group: 1
    stride: 1
  }
}

layer {
  name: "inception_5a/relu_1x1"
  type: "ReLU"
  bottom: "inception_5a/1x1"
  top: "inception_5a/1x1"
}

layer {
  name: "inception_5a/3x3_reduce"
  type: "Convolution"
  bottom: "pool4/3x3_s2"
  top: "inception_5a/3x3_reduce"
  param {
    lr_mult: 0.25
    decay_mult: 1
  }
  param {
    lr_mult: 0.5
    decay_mult: 0
  }
  convolution_param {
    num_output: 160
    pad: 0
    kernel_size: 1
    group: 1
    stride: 1
  }
}

layer {
  name: "inception_5a/relu_3x3_reduce"
  type: "ReLU"
  bottom: "inception_5a/3x3_reduce"
  top: "inception_5a/3x3_reduce"
}

layer {
  name: "inception_5a/3x3"
  type: "Convolution"
  bottom: "inception_5a/3x3_reduce"
  top: "inception_5a/3x3"
  param {
    lr_mult: 0.25
    decay_mult: 1
  }
  param {
    lr_mult: 0.5
    decay_mult: 0
  }
  convolution_param {
    num_output: 320
    pad: 1
    kernel_size: 3
    group: 1
    stride: 1
  }
}

layer {
  name: "inception_5a/relu_3x3"
  type: "ReLU"
  bottom: "inception_5a/3x3"
  top: "inception_5a/3x3"
}

layer {
  name: "inception_5a/5x5_reduce"
  type: "Convolution"
  bottom: "pool4/3x3_s2"
  top: "inception_5a/5x5_reduce"
  param {
    lr_mult: 0.25
    decay_mult: 1
  }
  param {
    lr_mult: 0.5
    decay_mult: 0
  }
  convolution_param {
    num_output: 32
    pad: 0
    kernel_size: 1
    group: 1
    stride: 1
  }
}

layer {
  name: "inception_5a/relu_5x5_reduce"
  type: "ReLU"
  bottom: "inception_5a/5x5_reduce"
  top: "inception_5a/5x5_reduce"
}

layer {
  name: "inception_5a/5x5"
  type: "Convolution"
  bottom: "inception_5a/5x5_reduce"
  top: "inception_5a/5x5"
  param {
    lr_mult: 0.25
    decay_mult: 1
  }
  param {
    lr_mult: 0.5
    decay_mult: 0
  }
  convolution_param {
    num_output: 128
    pad: 2
    kernel_size: 5
    group: 1
    stride: 1
  }
}

layer {
  name: "inception_5a/relu_5x5"
  type: "ReLU"
  bottom: "inception_5a/5x5"
  top: "inception_5a/5x5"
}

layer {
  name: "inception_5a/pool"
  type: "Pooling"
  bottom: "pool4/3x3_s2"
  top: "inception_5a/pool"
  pooling_param {
    pool: MAX
    kernel_size: 3
    stride: 1
    pad: 1
  }
}

layer {
  name: "inception_5a/pool_proj"
  type: "Convolution"
  bottom: "inception_5a/pool"
  top: "inception_5a/pool_proj"
  param {
    lr_mult: 0.25
    decay_mult: 1
  }
  param {
    lr_mult: 0.5
    decay_mult: 0
  }
  convolution_param {
    num_output: 128
    pad: 0
    kernel_size: 1
    group: 1
    stride: 1
  }
}

layer {
  name: "inception_5a/relu_pool_proj"
  type: "ReLU"
  bottom: "inception_5a/pool_proj"
  top: "inception_5a/pool_proj"
}

layer {
  name: "inception_5a/output"
  type: "Concat"
  bottom: "inception_5a/1x1"
  bottom: "inception_5a/3x3"
  bottom: "inception_5a/5x5"
  bottom: "inception_5a/pool_proj"
  top: "inception_5a/output"
}

layer {
  name: "inception_5b/1x1"
  type: "Convolution"
  bottom: "inception_5a/output"
  top: "inception_5b/1x1"
  param {
    lr_mult: 0.25
    decay_mult: 1
  }
  param {
    lr_mult: 0.5
    decay_mult: 0
  }
  convolution_param {
    num_output: 384
    pad: 0
    kernel_size: 1
    group: 1
    stride: 1
  }
}

layer {
  name: "inception_5b/relu_1x1"
  type: "ReLU"
  bottom: "inception_5b/1x1"
  top: "inception_5b/1x1"
}

layer {
  name: "inception_5b/3x3_reduce"
  type: "Convolution"
  bottom: "inception_5a/output"
  top: "inception_5b/3x3_reduce"
  param {
    lr_mult: 0.25
    decay_mult: 1
  }
  param {
    lr_mult: 0.5
    decay_mult: 0
  }
  convolution_param {
    num_output: 192
    pad: 0
    kernel_size: 1
    group: 1
    stride: 1
  }
}

layer {
  name: "inception_5b/relu_3x3_reduce"
  type: "ReLU"
  bottom: "inception_5b/3x3_reduce"
  top: "inception_5b/3x3_reduce"
}

layer {
  name: "inception_5b/3x3"
  type: "Convolution"
  bottom: "inception_5b/3x3_reduce"
  top: "inception_5b/3x3"
  param {
    lr_mult: 0.25
    decay_mult: 1
  }
  param {
    lr_mult: 0.5
    decay_mult: 0
  }
  convolution_param {
    num_output: 384
    pad: 1
    kernel_size: 3
    group: 1
    stride: 1
  }
}

layer {
  name: "inception_5b/relu_3x3"
  type: "ReLU"
  bottom: "inception_5b/3x3"
  top: "inception_5b/3x3"
}

layer {
  name: "inception_5b/5x5_reduce"
  type: "Convolution"
  bottom: "inception_5a/output"
  top: "inception_5b/5x5_reduce"
  param {
    lr_mult: 0.25
    decay_mult: 1
  }
  param {
    lr_mult: 0.5
    decay_mult: 0
  }
  convolution_param {
    num_output: 48
    pad: 0
    kernel_size: 1
    group: 1
    stride: 1
  }
}

layer {
  name: "inception_5b/relu_5x5_reduce"
  type: "ReLU"
  bottom: "inception_5b/5x5_reduce"
  top: "inception_5b/5x5_reduce"
}

layer {
  name: "inception_5b/5x5"
  type: "Convolution"
  bottom: "inception_5b/5x5_reduce"
  top: "inception_5b/5x5"
  param {
    lr_mult: 0.25
    decay_mult: 1
  }
  param {
    lr_mult: 0.5
    decay_mult: 0
  }
  convolution_param {
    num_output: 128
    pad: 2
    kernel_size: 5
    group: 1
    stride: 1
  }
}

layer {
  name: "inception_5b/relu_5x5"
  type: "ReLU"
  bottom: "inception_5b/5x5"
  top: "inception_5b/5x5"
}

layer {
  name: "inception_5b/pool"
  type: "Pooling"
  bottom: "inception_5a/output"
  top: "inception_5b/pool"
  pooling_param {
    pool: MAX
    kernel_size: 3
    stride: 1
    pad: 1
  }
}

layer {
  name: "inception_5b/pool_proj"
  type: "Convolution"
  bottom: "inception_5b/pool"
  top: "inception_5b/pool_proj"
  param {
    lr_mult: 0.25
    decay_mult: 1
  }
  param {
    lr_mult: 0.5
    decay_mult: 0
  }
  convolution_param {
    num_output: 128
    pad: 0
    kernel_size: 1
    group: 1
    stride: 1
  }
}

layer {
  name: "inception_5b/relu_pool_proj"
  type: "ReLU"
  bottom: "inception_5b/pool_proj"
  top: "inception_5b/pool_proj"
}

layer {
  name: "inception_5b/output"
  type: "Concat"
  bottom: "inception_5b/1x1"
  bottom: "inception_5b/3x3"
  bottom: "inception_5b/5x5"
  bottom: "inception_5b/pool_proj"
  top: "inception_5b/output"
}

layer {
  name: "pool5/7x7_s1"
  type: "Pooling"
  bottom: "inception_5b/output"
  top: "pool5/7x7_s1"
  pooling_param {
    pool: AVE
    kernel_size: 7
    stride: 1
    pad: 0
  }
}

layer {
  name: "pool5/drop_7x7_s1"
  type: "Dropout"
  bottom: "pool5/7x7_s1"
  top: "pool5/7x7_s1"
}

layer {
  name: "dir0_TL"
  type: "Convolution"
  bottom: "pool5/7x7_s1"
  top: "dir0_TL"
  param {
    lr_mult: 1
    decay_mult: 1
  }
  param {
    lr_mult: 2
    decay_mult: 0
  }
  convolution_param {
    num_output: 4
    kernel_size: 1
    weight_filler {
      type: "gaussian"
      std: 0.01
    }
    bias_filler {
      type: "constant"
      value: 0
    }
  }
}

layer {
  name: "dir0_BR"
  type: "Convolution"
  bottom: "pool5/7x7_s1"
  top: "dir0_BR"
  param {
    lr_mult: 1
    decay_mult: 1
  }
  param {
    lr_mult: 2
    decay_mult: 0
  }
  convolution_param {
    num_output: 4
    kernel_size: 1
    weight_filler {
      type: "gaussian"
      std: 0.01
    }
    bias_filler {
      type: "constant"
      value: 0
    }
  }
}

layer {
  name: "dir1_TL"
  type: "Convolution"
  bottom: "pool5/7x7_s1"
  top: "dir1_TL"
  param {
    lr_mult: 1
    decay_mult: 1
  }
  param {
    lr_mult: 2
    decay_mult: 0
  }
  convolution_param {
    num_output: 4
    kernel_size: 1
    weight_filler {
      type: "gaussian"
      std: 0.01
    }
    bias_filler {
      type: "constant"
      value: 0
    }
  }
}

layer {
  name: "dir1_BR"
  type: "Convolution"
  bottom: "pool5/7x7_s1"
  top: "dir1_BR"
  param {
    lr_mult: 1
    decay_mult: 1
  }
  param {
    lr_mult: 2
    decay_mult: 0
  }
  convolution_param {
    num_output: 4
    kernel_size: 1
    weight_filler {
      type: "gaussian"
      std: 0.01
    }
    bias_filler {
      type: "constant"
      value: 0
    }
  }
}

layer {
  name: "dir2_TL"
  type: "Convolution"
  bottom: "pool5/7x7_s1"
  top: "dir2_TL"
  param {
    lr_mult: 1
    decay_mult: 1
  }
  param {
    lr_mult: 2
    decay_mult: 0
  }
  convolution_param {
    num_output: 4
    kernel_size: 1
    weight_filler {
      type: "gaussian"
      std: 0.01
    }
    bias_filler {
      type: "constant"
      value: 0
    }
  }
}

layer {
  name: "dir2_BR"
  type: "Convolution"
  bottom: "pool5/7x7_s1"
  top: "dir2_BR"
  param {
    lr_mult: 1
    decay_mult: 1
  }
  param {
    lr_mult: 2
    decay_mult: 0
  }
  convolution_param {
    num_output: 4
    kernel_size: 1
    weight_filler {
      type: "gaussian"
      std: 0.01
    }
    bias_filler {
      type: "constant"
      value: 0
    }
  }
}

layer {
  name: "dir3_TL"
  type: "Convolution"
  bottom: "pool5/7x7_s1"
  top: "dir3_TL"
  param {
    lr_mult: 1
    decay_mult: 1
  }
  param {
    lr_mult: 2
    decay_mult: 0
  }
  convolution_param {
    num_output: 4
    kernel_size: 1
    weight_filler {
      type: "gaussian"
      std: 0.01
    }
    bias_filler {
      type: "constant"
      value: 0
    }
  }
}

layer {
  name: "dir3_BR"
  type: "Convolution"
  bottom: "pool5/7x7_s1"
  top: "dir3_BR"
  param {
    lr_mult: 1
    decay_mult: 1
  }
  param {
    lr_mult: 2
    decay_mult: 0
  }
  convolution_param {
    num_output: 4
    kernel_size: 1
    weight_filler {
      type: "gaussian"
      std: 0.01
    }
    bias_filler {
      type: "constant"
      value: 0
    }
  }
}

layer {
  name: "dir4_TL"
  type: "Convolution"
  bottom: "pool5/7x7_s1"
  top: "dir4_TL"
  param {
    lr_mult: 1
    decay_mult: 1
  }
  param {
    lr_mult: 2
    decay_mult: 0
  }
  convolution_param {
    num_output: 4
    kernel_size: 1
    weight_filler {
      type: "gaussian"
      std: 0.01
    }
    bias_filler {
      type: "constant"
      value: 0
    }
  }
}

layer {
  name: "dir4_BR"
  type: "Convolution"
  bottom: "pool5/7x7_s1"
  top: "dir4_BR"
  param {
    lr_mult: 1
    decay_mult: 1
  }
  param {
    lr_mult: 2
    decay_mult: 0
  }
  convolution_param {
    num_output: 4
    kernel_size: 1
    weight_filler {
      type: "gaussian"
      std: 0.01
    }
    bias_filler {
      type: "constant"
      value: 0
    }
  }
}

layer {
  name: "dir5_TL"
  type: "Convolution"
  bottom: "pool5/7x7_s1"
  top: "dir5_TL"
  param {
    lr_mult: 1
    decay_mult: 1
  }
  param {
    lr_mult: 2
    decay_mult: 0
  }
  convolution_param {
    num_output: 4
    kernel_size: 1
    weight_filler {
      type: "gaussian"
      std: 0.01
    }
    bias_filler {
      type: "constant"
      value: 0
    }
  }
}

layer {
  name: "dir5_BR"
  type: "Convolution"
  bottom: "pool5/7x7_s1"
  top: "dir5_BR"
  param {
    lr_mult: 1
    decay_mult: 1
  }
  param {
    lr_mult: 2
    decay_mult: 0
  }
  convolution_param {
    num_output: 4
    kernel_size: 1
    weight_filler {
      type: "gaussian"
      std: 0.01
    }
    bias_filler {
      type: "constant"
      value: 0
    }
  }
}

layer {
  name: "dir6_TL"
  type: "Convolution"
  bottom: "pool5/7x7_s1"
  top: "dir6_TL"
  param {
    lr_mult: 1
    decay_mult: 1
  }
  param {
    lr_mult: 2
    decay_mult: 0
  }
  convolution_param {
    num_output: 4
    kernel_size: 1
    weight_filler {
      type: "gaussian"
      std: 0.01
    }
    bias_filler {
      type: "constant"
      value: 0
    }
  }
}

layer {
  name: "dir6_BR"
  type: "Convolution"
  bottom: "pool5/7x7_s1"
  top: "dir6_BR"
  param {
    lr_mult: 1
    decay_mult: 1
  }
  param {
    lr_mult: 2
    decay_mult: 0
  }
  convolution_param {
    num_output: 4
    kernel_size: 1
    weight_filler {
      type: "gaussian"
      std: 0.01
    }
    bias_filler {
      type: "constant"
      value: 0
    }
  }
}

layer {
  name: "dir7_TL"
  type: "Convolution"
  bottom: "pool5/7x7_s1"
  top: "dir7_TL"
  param {
    lr_mult: 1
    decay_mult: 1
  }
  param {
    lr_mult: 2
    decay_mult: 0
  }
  convolution_param {
    num_output: 4
    kernel_size: 1
    weight_filler {
      type: "gaussian"
      std: 0.01
    }
    bias_filler {
      type: "constant"
      value: 0
    }
  }
}

layer {
  name: "dir7_BR"
  type: "Convolution"
  bottom: "pool5/7x7_s1"
  top: "dir7_BR"
  param {
    lr_mult: 1
    decay_mult: 1
  }
  param {
    lr_mult: 2
    decay_mult: 0
  }
  convolution_param {
    num_output: 4
    kernel_size: 1
    weight_filler {
      type: "gaussian"
      std: 0.01
    }
    bias_filler {
      type: "constant"
      value: 0
    }
  }
}

layer {
  name: "dir8_TL"
  type: "Convolution"
  bottom: "pool5/7x7_s1"
  top: "dir8_TL"
  param {
    lr_mult: 1
    decay_mult: 1
  }
  param {
    lr_mult: 2
    decay_mult: 0
  }
  convolution_param {
    num_output: 4
    kernel_size: 1
    weight_filler {
      type: "gaussian"
      std: 0.01
    }
    bias_filler {
      type: "constant"
      value: 0
    }
  }
}

layer {
  name: "dir8_BR"
  type: "Convolution"
  bottom: "pool5/7x7_s1"
  top: "dir8_BR"
  param {
    lr_mult: 1
    decay_mult: 1
  }
  param {
    lr_mult: 2
    decay_mult: 0
  }
  convolution_param {
    num_output: 4
    kernel_size: 1
    weight_filler {
      type: "gaussian"
      std: 0.01
    }
    bias_filler {
      type: "constant"
      value: 0
    }
  }
}

layer {
  name: "dir9_TL"
  type: "Convolution"
  bottom: "pool5/7x7_s1"
  top: "dir9_TL"
  param {
    lr_mult: 1
    decay_mult: 1
  }
  param {
    lr_mult: 2
    decay_mult: 0
  }
  convolution_param {
    num_output: 4
    kernel_size: 1
    weight_filler {
      type: "gaussian"
      std: 0.01
    }
    bias_filler {
      type: "constant"
      value: 0
    }
  }
}

layer {
  name: "dir9_BR"
  type: "Convolution"
  bottom: "pool5/7x7_s1"
  top: "dir9_BR"
  param {
    lr_mult: 1
    decay_mult: 1
  }
  param {
    lr_mult: 2
    decay_mult: 0
  }
  convolution_param {
    num_output: 4
    kernel_size: 1
    weight_filler {
      type: "gaussian"
      std: 0.01
    }
    bias_filler {
      type: "constant"
      value: 0
    }
  }
}

layer {
  name: "dir10_TL"
  type: "Convolution"
  bottom: "pool5/7x7_s1"
  top: "dir10_TL"
  param {
    lr_mult: 1
    decay_mult: 1
  }
  param {
    lr_mult: 2
    decay_mult: 0
  }
  convolution_param {
    num_output: 4
    kernel_size: 1
    weight_filler {
      type: "gaussian"
      std: 0.01
    }
    bias_filler {
      type: "constant"
      value: 0
    }
  }
}

layer {
  name: "dir10_BR"
  type: "Convolution"
  bottom: "pool5/7x7_s1"
  top: "dir10_BR"
  param {
    lr_mult: 1
    decay_mult: 1
  }
  param {
    lr_mult: 2
    decay_mult: 0
  }
  convolution_param {
    num_output: 4
    kernel_size: 1
    weight_filler {
      type: "gaussian"
      std: 0.01
    }
    bias_filler {
      type: "constant"
      value: 0
    }
  }
}

layer {
  name: "dir11_TL"
  type: "Convolution"
  bottom: "pool5/7x7_s1"
  top: "dir11_TL"
  param {
    lr_mult: 1
    decay_mult: 1
  }
  param {
    lr_mult: 2
    decay_mult: 0
  }
  convolution_param {
    num_output: 4
    kernel_size: 1
    weight_filler {
      type: "gaussian"
      std: 0.01
    }
    bias_filler {
      type: "constant"
      value: 0
    }
  }
}

layer {
  name: "dir11_BR"
  type: "Convolution"
  bottom: "pool5/7x7_s1"
  top: "dir11_BR"
  param {
    lr_mult: 1
    decay_mult: 1
  }
  param {
    lr_mult: 2
    decay_mult: 0
  }
  convolution_param {
    num_output: 4
    kernel_size: 1
    weight_filler {
      type: "gaussian"
      std: 0.01
    }
    bias_filler {
      type: "constant"
      value: 0
    }
  }
}

layer {
  name: "dir12_TL"
  type: "Convolution"
  bottom: "pool5/7x7_s1"
  top: "dir12_TL"
  param {
    lr_mult: 1
    decay_mult: 1
  }
  param {
    lr_mult: 2
    decay_mult: 0
  }
  convolution_param {
    num_output: 4
    kernel_size: 1
    weight_filler {
      type: "gaussian"
      std: 0.01
    }
    bias_filler {
      type: "constant"
      value: 0
    }
  }
}

layer {
  name: "dir12_BR"
  type: "Convolution"
  bottom: "pool5/7x7_s1"
  top: "dir12_BR"
  param {
    lr_mult: 1
    decay_mult: 1
  }
  param {
    lr_mult: 2
    decay_mult: 0
  }
  convolution_param {
    num_output: 4
    kernel_size: 1
    weight_filler {
      type: "gaussian"
      std: 0.01
    }
    bias_filler {
      type: "constant"
      value: 0
    }
  }
}

layer {
  name: "dir13_TL"
  type: "Convolution"
  bottom: "pool5/7x7_s1"
  top: "dir13_TL"
  param {
    lr_mult: 1
    decay_mult: 1
  }
  param {
    lr_mult: 2
    decay_mult: 0
  }
  convolution_param {
    num_output: 4
    kernel_size: 1
    weight_filler {
      type: "gaussian"
      std: 0.01
    }
    bias_filler {
      type: "constant"
      value: 0
    }
  }
}

layer {
  name: "dir13_BR"
  type: "Convolution"
  bottom: "pool5/7x7_s1"
  top: "dir13_BR"
  param {
    lr_mult: 1
    decay_mult: 1
  }
  param {
    lr_mult: 2
    decay_mult: 0
  }
  convolution_param {
    num_output: 4
    kernel_size: 1
    weight_filler {
      type: "gaussian"
      std: 0.01
    }
    bias_filler {
      type: "constant"
      value: 0
    }
  }
}

layer {
  name: "dir14_TL"
  type: "Convolution"
  bottom: "pool5/7x7_s1"
  top: "dir14_TL"
  param {
    lr_mult: 1
    decay_mult: 1
  }
  param {
    lr_mult: 2
    decay_mult: 0
  }
  convolution_param {
    num_output: 4
    kernel_size: 1
    weight_filler {
      type: "gaussian"
      std: 0.01
    }
    bias_filler {
      type: "constant"
      value: 0
    }
  }
}

layer {
  name: "dir14_BR"
  type: "Convolution"
  bottom: "pool5/7x7_s1"
  top: "dir14_BR"
  param {
    lr_mult: 1
    decay_mult: 1
  }
  param {
    lr_mult: 2
    decay_mult: 0
  }
  convolution_param {
    num_output: 4
    kernel_size: 1
    weight_filler {
      type: "gaussian"
      std: 0.01
    }
    bias_filler {
      type: "constant"
      value: 0
    }
  }
}

layer {
  name: "dir15_TL"
  type: "Convolution"
  bottom: "pool5/7x7_s1"
  top: "dir15_TL"
  param {
    lr_mult: 1
    decay_mult: 1
  }
  param {
    lr_mult: 2
    decay_mult: 0
  }
  convolution_param {
    num_output: 4
    kernel_size: 1
    weight_filler {
      type: "gaussian"
      std: 0.01
    }
    bias_filler {
      type: "constant"
      value: 0
    }
  }
}

layer {
  name: "dir15_BR"
  type: "Convolution"
  bottom: "pool5/7x7_s1"
  top: "dir15_BR"
  param {
    lr_mult: 1
    decay_mult: 1
  }
  param {
    lr_mult: 2
    decay_mult: 0
  }
  convolution_param {
    num_output: 4
    kernel_size: 1
    weight_filler {
      type: "gaussian"
      std: 0.01
    }
    bias_filler {
      type: "constant"
      value: 0
    }
  }
}

layer {
  name: "dir16_TL"
  type: "Convolution"
  bottom: "pool5/7x7_s1"
  top: "dir16_TL"
  param {
    lr_mult: 1
    decay_mult: 1
  }
  param {
    lr_mult: 2
    decay_mult: 0
  }
  convolution_param {
    num_output: 4
    kernel_size: 1
    weight_filler {
      type: "gaussian"
      std: 0.01
    }
    bias_filler {
      type: "constant"
      value: 0
    }
  }
}

layer {
  name: "dir16_BR"
  type: "Convolution"
  bottom: "pool5/7x7_s1"
  top: "dir16_BR"
  param {
    lr_mult: 1
    decay_mult: 1
  }
  param {
    lr_mult: 2
    decay_mult: 0
  }
  convolution_param {
    num_output: 4
    kernel_size: 1
    weight_filler {
      type: "gaussian"
      std: 0.01
    }
    bias_filler {
      type: "constant"
      value: 0
    }
  }
}

layer {
  name: "dir17_TL"
  type: "Convolution"
  bottom: "pool5/7x7_s1"
  top: "dir17_TL"
  param {
    lr_mult: 1
    decay_mult: 1
  }
  param {
    lr_mult: 2
    decay_mult: 0
  }
  convolution_param {
    num_output: 4
    kernel_size: 1
    weight_filler {
      type: "gaussian"
      std: 0.01
    }
    bias_filler {
      type: "constant"
      value: 0
    }
  }
}

layer {
  name: "dir17_BR"
  type: "Convolution"
  bottom: "pool5/7x7_s1"
  top: "dir17_BR"
  param {
    lr_mult: 1
    decay_mult: 1
  }
  param {
    lr_mult: 2
    decay_mult: 0
  }
  convolution_param {
    num_output: 4
    kernel_size: 1
    weight_filler {
      type: "gaussian"
      std: 0.01
    }
    bias_filler {
      type: "constant"
      value: 0
    }
  }
}

layer {
  name: "dir18_TL"
  type: "Convolution"
  bottom: "pool5/7x7_s1"
  top: "dir18_TL"
  param {
    lr_mult: 1
    decay_mult: 1
  }
  param {
    lr_mult: 2
    decay_mult: 0
  }
  convolution_param {
    num_output: 4
    kernel_size: 1
    weight_filler {
      type: "gaussian"
      std: 0.01
    }
    bias_filler {
      type: "constant"
      value: 0
    }
  }
}

layer {
  name: "dir18_BR"
  type: "Convolution"
  bottom: "pool5/7x7_s1"
  top: "dir18_BR"
  param {
    lr_mult: 1
    decay_mult: 1
  }
  param {
    lr_mult: 2
    decay_mult: 0
  }
  convolution_param {
    num_output: 4
    kernel_size: 1
    weight_filler {
      type: "gaussian"
      std: 0.01
    }
    bias_filler {
      type: "constant"
      value: 0
    }
  }
}

layer {
  name: "dir19_TL"
  type: "Convolution"
  bottom: "pool5/7x7_s1"
  top: "dir19_TL"
  param {
    lr_mult: 1
    decay_mult: 1
  }
  param {
    lr_mult: 2
    decay_mult: 0
  }
  convolution_param {
    num_output: 4
    kernel_size: 1
    weight_filler {
      type: "gaussian"
      std: 0.01
    }
    bias_filler {
      type: "constant"
      value: 0
    }
  }
}

layer {
  name: "dir19_BR"
  type: "Convolution"
  bottom: "pool5/7x7_s1"
  top: "dir19_BR"
  param {
    lr_mult: 1
    decay_mult: 1
  }
  param {
    lr_mult: 2
    decay_mult: 0
  }
  convolution_param {
    num_output: 4
    kernel_size: 1
    weight_filler {
      type: "gaussian"
      std: 0.01
    }
    bias_filler {
      type: "constant"
      value: 0
    }
  }
}

layer {
  name: "dir20_TL"
  type: "Convolution"
  bottom: "pool5/7x7_s1"
  top: "dir20_TL"
  param {
    lr_mult: 1
    decay_mult: 1
  }
  param {
    lr_mult: 2
    decay_mult: 0
  }
  convolution_param {
    num_output: 4
    kernel_size: 1
    weight_filler {
      type: "gaussian"
      std: 0.01
    }
    bias_filler {
      type: "constant"
      value: 0
    }
  }
}

layer {
  name: "dir20_BR"
  type: "Convolution"
  bottom: "pool5/7x7_s1"
  top: "dir20_BR"
  param {
    lr_mult: 1
    decay_mult: 1
  }
  param {
    lr_mult: 2
    decay_mult: 0
  }
  convolution_param {
    num_output: 4
    kernel_size: 1
    weight_filler {
      type: "gaussian"
      std: 0.01
    }
    bias_filler {
      type: "constant"
      value: 0
    }
  }
}

layer {
  name: "dir21_TL"
  type: "Convolution"
  bottom: "pool5/7x7_s1"
  top: "dir21_TL"
  param {
    lr_mult: 1
    decay_mult: 1
  }
  param {
    lr_mult: 2
    decay_mult: 0
  }
  convolution_param {
    num_output: 4
    kernel_size: 1
    weight_filler {
      type: "gaussian"
      std: 0.01
    }
    bias_filler {
      type: "constant"
      value: 0
    }
  }
}

layer {
  name: "dir21_BR"
  type: "Convolution"
  bottom: "pool5/7x7_s1"
  top: "dir21_BR"
  param {
    lr_mult: 1
    decay_mult: 1
  }
  param {
    lr_mult: 2
    decay_mult: 0
  }
  convolution_param {
    num_output: 4
    kernel_size: 1
    weight_filler {
      type: "gaussian"
      std: 0.01
    }
    bias_filler {
      type: "constant"
      value: 0
    }
  }
}

layer {
  name: "dir22_TL"
  type: "Convolution"
  bottom: "pool5/7x7_s1"
  top: "dir22_TL"
  param {
    lr_mult: 1
    decay_mult: 1
  }
  param {
    lr_mult: 2
    decay_mult: 0
  }
  convolution_param {
    num_output: 4
    kernel_size: 1
    weight_filler {
      type: "gaussian"
      std: 0.01
    }
    bias_filler {
      type: "constant"
      value: 0
    }
  }
}

layer {
  name: "dir22_BR"
  type: "Convolution"
  bottom: "pool5/7x7_s1"
  top: "dir22_BR"
  param {
    lr_mult: 1
    decay_mult: 1
  }
  param {
    lr_mult: 2
    decay_mult: 0
  }
  convolution_param {
    num_output: 4
    kernel_size: 1
    weight_filler {
      type: "gaussian"
      std: 0.01
    }
    bias_filler {
      type: "constant"
      value: 0
    }
  }
}

layer {
  name: "dir23_TL"
  type: "Convolution"
  bottom: "pool5/7x7_s1"
  top: "dir23_TL"
  param {
    lr_mult: 1
    decay_mult: 1
  }
  param {
    lr_mult: 2
    decay_mult: 0
  }
  convolution_param {
    num_output: 4
    kernel_size: 1
    weight_filler {
      type: "gaussian"
      std: 0.01
    }
    bias_filler {
      type: "constant"
      value: 0
    }
  }
}

layer {
  name: "dir23_BR"
  type: "Convolution"
  bottom: "pool5/7x7_s1"
  top: "dir23_BR"
  param {
    lr_mult: 1
    decay_mult: 1
  }
  param {
    lr_mult: 2
    decay_mult: 0
  }
  convolution_param {
    num_output: 4
    kernel_size: 1
    weight_filler {
      type: "gaussian"
      std: 0.01
    }
    bias_filler {
      type: "constant"
      value: 0
    }
  }
}

layer {
  name: "dir24_TL"
  type: "Convolution"
  bottom: "pool5/7x7_s1"
  top: "dir24_TL"
  param {
    lr_mult: 1
    decay_mult: 1
  }
  param {
    lr_mult: 2
    decay_mult: 0
  }
  convolution_param {
    num_output: 4
    kernel_size: 1
    weight_filler {
      type: "gaussian"
      std: 0.01
    }
    bias_filler {
      type: "constant"
      value: 0
    }
  }
}

layer {
  name: "dir24_BR"
  type: "Convolution"
  bottom: "pool5/7x7_s1"
  top: "dir24_BR"
  param {
    lr_mult: 1
    decay_mult: 1
  }
  param {
    lr_mult: 2
    decay_mult: 0
  }
  convolution_param {
    num_output: 4
    kernel_size: 1
    weight_filler {
      type: "gaussian"
      std: 0.01
    }
    bias_filler {
      type: "constant"
      value: 0
    }
  }
}

layer {
  name: "dir25_TL"
  type: "Convolution"
  bottom: "pool5/7x7_s1"
  top: "dir25_TL"
  param {
    lr_mult: 1
    decay_mult: 1
  }
  param {
    lr_mult: 2
    decay_mult: 0
  }
  convolution_param {
    num_output: 4
    kernel_size: 1
    weight_filler {
      type: "gaussian"
      std: 0.01
    }
    bias_filler {
      type: "constant"
      value: 0
    }
  }
}

layer {
  name: "dir25_BR"
  type: "Convolution"
  bottom: "pool5/7x7_s1"
  top: "dir25_BR"
  param {
    lr_mult: 1
    decay_mult: 1
  }
  param {
    lr_mult: 2
    decay_mult: 0
  }
  convolution_param {
    num_output: 4
    kernel_size: 1
    weight_filler {
      type: "gaussian"
      std: 0.01
    }
    bias_filler {
      type: "constant"
      value: 0
    }
  }
}

layer {
  name: "dir26_TL"
  type: "Convolution"
  bottom: "pool5/7x7_s1"
  top: "dir26_TL"
  param {
    lr_mult: 1
    decay_mult: 1
  }
  param {
    lr_mult: 2
    decay_mult: 0
  }
  convolution_param {
    num_output: 4
    kernel_size: 1
    weight_filler {
      type: "gaussian"
      std: 0.01
    }
    bias_filler {
      type: "constant"
      value: 0
    }
  }
}

layer {
  name: "dir26_BR"
  type: "Convolution"
  bottom: "pool5/7x7_s1"
  top: "dir26_BR"
  param {
    lr_mult: 1
    decay_mult: 1
  }
  param {
    lr_mult: 2
    decay_mult: 0
  }
  convolution_param {
    num_output: 4
    kernel_size: 1
    weight_filler {
      type: "gaussian"
      std: 0.01
    }
    bias_filler {
      type: "constant"
      value: 0
    }
  }
}

layer {
  name: "dir27_TL"
  type: "Convolution"
  bottom: "pool5/7x7_s1"
  top: "dir27_TL"
  param {
    lr_mult: 1
    decay_mult: 1
  }
  param {
    lr_mult: 2
    decay_mult: 0
  }
  convolution_param {
    num_output: 4
    kernel_size: 1
    weight_filler {
      type: "gaussian"
      std: 0.01
    }
    bias_filler {
      type: "constant"
      value: 0
    }
  }
}

layer {
  name: "dir27_BR"
  type: "Convolution"
  bottom: "pool5/7x7_s1"
  top: "dir27_BR"
  param {
    lr_mult: 1
    decay_mult: 1
  }
  param {
    lr_mult: 2
    decay_mult: 0
  }
  convolution_param {
    num_output: 4
    kernel_size: 1
    weight_filler {
      type: "gaussian"
      std: 0.01
    }
    bias_filler {
      type: "constant"
      value: 0
    }
  }
}

layer {
  name: "dir28_TL"
  type: "Convolution"
  bottom: "pool5/7x7_s1"
  top: "dir28_TL"
  param {
    lr_mult: 1
    decay_mult: 1
  }
  param {
    lr_mult: 2
    decay_mult: 0
  }
  convolution_param {
    num_output: 4
    kernel_size: 1
    weight_filler {
      type: "gaussian"
      std: 0.01
    }
    bias_filler {
      type: "constant"
      value: 0
    }
  }
}

layer {
  name: "dir28_BR"
  type: "Convolution"
  bottom: "pool5/7x7_s1"
  top: "dir28_BR"
  param {
    lr_mult: 1
    decay_mult: 1
  }
  param {
    lr_mult: 2
    decay_mult: 0
  }
  convolution_param {
    num_output: 4
    kernel_size: 1
    weight_filler {
      type: "gaussian"
      std: 0.01
    }
    bias_filler {
      type: "constant"
      value: 0
    }
  }
}

layer {
  name: "dir29_TL"
  type: "Convolution"
  bottom: "pool5/7x7_s1"
  top: "dir29_TL"
  param {
    lr_mult: 1
    decay_mult: 1
  }
  param {
    lr_mult: 2
    decay_mult: 0
  }
  convolution_param {
    num_output: 4
    kernel_size: 1
    weight_filler {
      type: "gaussian"
      std: 0.01
    }
    bias_filler {
      type: "constant"
      value: 0
    }
  }
}

layer {
  name: "dir29_BR"
  type: "Convolution"
  bottom: "pool5/7x7_s1"
  top: "dir29_BR"
  param {
    lr_mult: 1
    decay_mult: 1
  }
  param {
    lr_mult: 2
    decay_mult: 0
  }
  convolution_param {
    num_output: 4
    kernel_size: 1
    weight_filler {
      type: "gaussian"
      std: 0.01
    }
    bias_filler {
      type: "constant"
      value: 0
    }
  }
}

layer {
  name: "dir30_TL"
  type: "Convolution"
  bottom: "pool5/7x7_s1"
  top: "dir30_TL"
  param {
    lr_mult: 1
    decay_mult: 1
  }
  param {
    lr_mult: 2
    decay_mult: 0
  }
  convolution_param {
    num_output: 4
    kernel_size: 1
    weight_filler {
      type: "gaussian"
      std: 0.01
    }
    bias_filler {
      type: "constant"
      value: 0
    }
  }
}

layer {
  name: "dir30_BR"
  type: "Convolution"
  bottom: "pool5/7x7_s1"
  top: "dir30_BR"
  param {
    lr_mult: 1
    decay_mult: 1
  }
  param {
    lr_mult: 2
    decay_mult: 0
  }
  convolution_param {
    num_output: 4
    kernel_size: 1
    weight_filler {
      type: "gaussian"
      std: 0.01
    }
    bias_filler {
      type: "constant"
      value: 0
    }
  }
}

layer {
  name: "dir31_TL"
  type: "Convolution"
  bottom: "pool5/7x7_s1"
  top: "dir31_TL"
  param {
    lr_mult: 1
    decay_mult: 1
  }
  param {
    lr_mult: 2
    decay_mult: 0
  }
  convolution_param {
    num_output: 4
    kernel_size: 1
    weight_filler {
      type: "gaussian"
      std: 0.01
    }
    bias_filler {
      type: "constant"
      value: 0
    }
  }
}

layer {
  name: "dir31_BR"
  type: "Convolution"
  bottom: "pool5/7x7_s1"
  top: "dir31_BR"
  param {
    lr_mult: 1
    decay_mult: 1
  }
  param {
    lr_mult: 2
    decay_mult: 0
  }
  convolution_param {
    num_output: 4
    kernel_size: 1
    weight_filler {
      type: "gaussian"
      std: 0.01
    }
    bias_filler {
      type: "constant"
      value: 0
    }
  }
}

layer {
  name: "dir32_TL"
  type: "Convolution"
  bottom: "pool5/7x7_s1"
  top: "dir32_TL"
  param {
    lr_mult: 1
    decay_mult: 1
  }
  param {
    lr_mult: 2
    decay_mult: 0
  }
  convolution_param {
    num_output: 4
    kernel_size: 1
    weight_filler {
      type: "gaussian"
      std: 0.01
    }
    bias_filler {
      type: "constant"
      value: 0
    }
  }
}

layer {
  name: "dir32_BR"
  type: "Convolution"
  bottom: "pool5/7x7_s1"
  top: "dir32_BR"
  param {
    lr_mult: 1
    decay_mult: 1
  }
  param {
    lr_mult: 2
    decay_mult: 0
  }
  convolution_param {
    num_output: 4
    kernel_size: 1
    weight_filler {
      type: "gaussian"
      std: 0.01
    }
    bias_filler {
      type: "constant"
      value: 0
    }
  }
}

layer {
  name: "dir33_TL"
  type: "Convolution"
  bottom: "pool5/7x7_s1"
  top: "dir33_TL"
  param {
    lr_mult: 1
    decay_mult: 1
  }
  param {
    lr_mult: 2
    decay_mult: 0
  }
  convolution_param {
    num_output: 4
    kernel_size: 1
    weight_filler {
      type: "gaussian"
      std: 0.01
    }
    bias_filler {
      type: "constant"
      value: 0
    }
  }
}

layer {
  name: "dir33_BR"
  type: "Convolution"
  bottom: "pool5/7x7_s1"
  top: "dir33_BR"
  param {
    lr_mult: 1
    decay_mult: 1
  }
  param {
    lr_mult: 2
    decay_mult: 0
  }
  convolution_param {
    num_output: 4
    kernel_size: 1
    weight_filler {
      type: "gaussian"
      std: 0.01
    }
    bias_filler {
      type: "constant"
      value: 0
    }
  }
}

layer {
  name: "dir34_TL"
  type: "Convolution"
  bottom: "pool5/7x7_s1"
  top: "dir34_TL"
  param {
    lr_mult: 1
    decay_mult: 1
  }
  param {
    lr_mult: 2
    decay_mult: 0
  }
  convolution_param {
    num_output: 4
    kernel_size: 1
    weight_filler {
      type: "gaussian"
      std: 0.01
    }
    bias_filler {
      type: "constant"
      value: 0
    }
  }
}

layer {
  name: "dir34_BR"
  type: "Convolution"
  bottom: "pool5/7x7_s1"
  top: "dir34_BR"
  param {
    lr_mult: 1
    decay_mult: 1
  }
  param {
    lr_mult: 2
    decay_mult: 0
  }
  convolution_param {
    num_output: 4
    kernel_size: 1
    weight_filler {
      type: "gaussian"
      std: 0.01
    }
    bias_filler {
      type: "constant"
      value: 0
    }
  }
}

layer {
  name: "dir35_TL"
  type: "Convolution"
  bottom: "pool5/7x7_s1"
  top: "dir35_TL"
  param {
    lr_mult: 1
    decay_mult: 1
  }
  param {
    lr_mult: 2
    decay_mult: 0
  }
  convolution_param {
    num_output: 4
    kernel_size: 1
    weight_filler {
      type: "gaussian"
      std: 0.01
    }
    bias_filler {
      type: "constant"
      value: 0
    }
  }
}

layer {
  name: "dir35_BR"
  type: "Convolution"
  bottom: "pool5/7x7_s1"
  top: "dir35_BR"
  param {
    lr_mult: 1
    decay_mult: 1
  }
  param {
    lr_mult: 2
    decay_mult: 0
  }
  convolution_param {
    num_output: 4
    kernel_size: 1
    weight_filler {
      type: "gaussian"
      std: 0.01
    }
    bias_filler {
      type: "constant"
      value: 0
    }
  }
}

layer {
  name: "dir36_TL"
  type: "Convolution"
  bottom: "pool5/7x7_s1"
  top: "dir36_TL"
  param {
    lr_mult: 1
    decay_mult: 1
  }
  param {
    lr_mult: 2
    decay_mult: 0
  }
  convolution_param {
    num_output: 4
    kernel_size: 1
    weight_filler {
      type: "gaussian"
      std: 0.01
    }
    bias_filler {
      type: "constant"
      value: 0
    }
  }
}

layer {
  name: "dir36_BR"
  type: "Convolution"
  bottom: "pool5/7x7_s1"
  top: "dir36_BR"
  param {
    lr_mult: 1
    decay_mult: 1
  }
  param {
    lr_mult: 2
    decay_mult: 0
  }
  convolution_param {
    num_output: 4
    kernel_size: 1
    weight_filler {
      type: "gaussian"
      std: 0.01
    }
    bias_filler {
      type: "constant"
      value: 0
    }
  }
}

layer {
  name: "dir37_TL"
  type: "Convolution"
  bottom: "pool5/7x7_s1"
  top: "dir37_TL"
  param {
    lr_mult: 1
    decay_mult: 1
  }
  param {
    lr_mult: 2
    decay_mult: 0
  }
  convolution_param {
    num_output: 4
    kernel_size: 1
    weight_filler {
      type: "gaussian"
      std: 0.01
    }
    bias_filler {
      type: "constant"
      value: 0
    }
  }
}

layer {
  name: "dir37_BR"
  type: "Convolution"
  bottom: "pool5/7x7_s1"
  top: "dir37_BR"
  param {
    lr_mult: 1
    decay_mult: 1
  }
  param {
    lr_mult: 2
    decay_mult: 0
  }
  convolution_param {
    num_output: 4
    kernel_size: 1
    weight_filler {
      type: "gaussian"
      std: 0.01
    }
    bias_filler {
      type: "constant"
      value: 0
    }
  }
}

layer {
  name: "dir38_TL"
  type: "Convolution"
  bottom: "pool5/7x7_s1"
  top: "dir38_TL"
  param {
    lr_mult: 1
    decay_mult: 1
  }
  param {
    lr_mult: 2
    decay_mult: 0
  }
  convolution_param {
    num_output: 4
    kernel_size: 1
    weight_filler {
      type: "gaussian"
      std: 0.01
    }
    bias_filler {
      type: "constant"
      value: 0
    }
  }
}

layer {
  name: "dir38_BR"
  type: "Convolution"
  bottom: "pool5/7x7_s1"
  top: "dir38_BR"
  param {
    lr_mult: 1
    decay_mult: 1
  }
  param {
    lr_mult: 2
    decay_mult: 0
  }
  convolution_param {
    num_output: 4
    kernel_size: 1
    weight_filler {
      type: "gaussian"
      std: 0.01
    }
    bias_filler {
      type: "constant"
      value: 0
    }
  }
}

layer {
  name: "dir39_TL"
  type: "Convolution"
  bottom: "pool5/7x7_s1"
  top: "dir39_TL"
  param {
    lr_mult: 1
    decay_mult: 1
  }
  param {
    lr_mult: 2
    decay_mult: 0
  }
  convolution_param {
    num_output: 4
    kernel_size: 1
    weight_filler {
      type: "gaussian"
      std: 0.01
    }
    bias_filler {
      type: "constant"
      value: 0
    }
  }
}

layer {
  name: "dir39_BR"
  type: "Convolution"
  bottom: "pool5/7x7_s1"
  top: "dir39_BR"
  param {
    lr_mult: 1
    decay_mult: 1
  }
  param {
    lr_mult: 2
    decay_mult: 0
  }
  convolution_param {
    num_output: 4
    kernel_size: 1
    weight_filler {
      type: "gaussian"
      std: 0.01
    }
    bias_filler {
      type: "constant"
      value: 0
    }
  }
}

layer {
  name: "dir40_TL"
  type: "Convolution"
  bottom: "pool5/7x7_s1"
  top: "dir40_TL"
  param {
    lr_mult: 1
    decay_mult: 1
  }
  param {
    lr_mult: 2
    decay_mult: 0
  }
  convolution_param {
    num_output: 4
    kernel_size: 1
    weight_filler {
      type: "gaussian"
      std: 0.01
    }
    bias_filler {
      type: "constant"
      value: 0
    }
  }
}

layer {
  name: "dir40_BR"
  type: "Convolution"
  bottom: "pool5/7x7_s1"
  top: "dir40_BR"
  param {
    lr_mult: 1
    decay_mult: 1
  }
  param {
    lr_mult: 2
    decay_mult: 0
  }
  convolution_param {
    num_output: 4
    kernel_size: 1
    weight_filler {
      type: "gaussian"
      std: 0.01
    }
    bias_filler {
      type: "constant"
      value: 0
    }
  }
}

layer {
  name: "dir41_TL"
  type: "Convolution"
  bottom: "pool5/7x7_s1"
  top: "dir41_TL"
  param {
    lr_mult: 1
    decay_mult: 1
  }
  param {
    lr_mult: 2
    decay_mult: 0
  }
  convolution_param {
    num_output: 4
    kernel_size: 1
    weight_filler {
      type: "gaussian"
      std: 0.01
    }
    bias_filler {
      type: "constant"
      value: 0
    }
  }
}

layer {
  name: "dir41_BR"
  type: "Convolution"
  bottom: "pool5/7x7_s1"
  top: "dir41_BR"
  param {
    lr_mult: 1
    decay_mult: 1
  }
  param {
    lr_mult: 2
    decay_mult: 0
  }
  convolution_param {
    num_output: 4
    kernel_size: 1
    weight_filler {
      type: "gaussian"
      std: 0.01
    }
    bias_filler {
      type: "constant"
      value: 0
    }
  }
}

layer {
  name: "dir42_TL"
  type: "Convolution"
  bottom: "pool5/7x7_s1"
  top: "dir42_TL"
  param {
    lr_mult: 1
    decay_mult: 1
  }
  param {
    lr_mult: 2
    decay_mult: 0
  }
  convolution_param {
    num_output: 4
    kernel_size: 1
    weight_filler {
      type: "gaussian"
      std: 0.01
    }
    bias_filler {
      type: "constant"
      value: 0
    }
  }
}

layer {
  name: "dir42_BR"
  type: "Convolution"
  bottom: "pool5/7x7_s1"
  top: "dir42_BR"
  param {
    lr_mult: 1
    decay_mult: 1
  }
  param {
    lr_mult: 2
    decay_mult: 0
  }
  convolution_param {
    num_output: 4
    kernel_size: 1
    weight_filler {
      type: "gaussian"
      std: 0.01
    }
    bias_filler {
      type: "constant"
      value: 0
    }
  }
}

layer {
  name: "dir43_TL"
  type: "Convolution"
  bottom: "pool5/7x7_s1"
  top: "dir43_TL"
  param {
    lr_mult: 1
    decay_mult: 1
  }
  param {
    lr_mult: 2
    decay_mult: 0
  }
  convolution_param {
    num_output: 4
    kernel_size: 1
    weight_filler {
      type: "gaussian"
      std: 0.01
    }
    bias_filler {
      type: "constant"
      value: 0
    }
  }
}

layer {
  name: "dir43_BR"
  type: "Convolution"
  bottom: "pool5/7x7_s1"
  top: "dir43_BR"
  param {
    lr_mult: 1
    decay_mult: 1
  }
  param {
    lr_mult: 2
    decay_mult: 0
  }
  convolution_param {
    num_output: 4
    kernel_size: 1
    weight_filler {
      type: "gaussian"
      std: 0.01
    }
    bias_filler {
      type: "constant"
      value: 0
    }
  }
}

layer {
  name: "dir44_TL"
  type: "Convolution"
  bottom: "pool5/7x7_s1"
  top: "dir44_TL"
  param {
    lr_mult: 1
    decay_mult: 1
  }
  param {
    lr_mult: 2
    decay_mult: 0
  }
  convolution_param {
    num_output: 4
    kernel_size: 1
    weight_filler {
      type: "gaussian"
      std: 0.01
    }
    bias_filler {
      type: "constant"
      value: 0
    }
  }
}

layer {
  name: "dir44_BR"
  type: "Convolution"
  bottom: "pool5/7x7_s1"
  top: "dir44_BR"
  param {
    lr_mult: 1
    decay_mult: 1
  }
  param {
    lr_mult: 2
    decay_mult: 0
  }
  convolution_param {
    num_output: 4
    kernel_size: 1
    weight_filler {
      type: "gaussian"
      std: 0.01
    }
    bias_filler {
      type: "constant"
      value: 0
    }
  }
}

layer {
  name: "dir45_TL"
  type: "Convolution"
  bottom: "pool5/7x7_s1"
  top: "dir45_TL"
  param {
    lr_mult: 1
    decay_mult: 1
  }
  param {
    lr_mult: 2
    decay_mult: 0
  }
  convolution_param {
    num_output: 4
    kernel_size: 1
    weight_filler {
      type: "gaussian"
      std: 0.01
    }
    bias_filler {
      type: "constant"
      value: 0
    }
  }
}

layer {
  name: "dir45_BR"
  type: "Convolution"
  bottom: "pool5/7x7_s1"
  top: "dir45_BR"
  param {
    lr_mult: 1
    decay_mult: 1
  }
  param {
    lr_mult: 2
    decay_mult: 0
  }
  convolution_param {
    num_output: 4
    kernel_size: 1
    weight_filler {
      type: "gaussian"
      std: 0.01
    }
    bias_filler {
      type: "constant"
      value: 0
    }
  }
}

layer {
  name: "dir46_TL"
  type: "Convolution"
  bottom: "pool5/7x7_s1"
  top: "dir46_TL"
  param {
    lr_mult: 1
    decay_mult: 1
  }
  param {
    lr_mult: 2
    decay_mult: 0
  }
  convolution_param {
    num_output: 4
    kernel_size: 1
    weight_filler {
      type: "gaussian"
      std: 0.01
    }
    bias_filler {
      type: "constant"
      value: 0
    }
  }
}

layer {
  name: "dir46_BR"
  type: "Convolution"
  bottom: "pool5/7x7_s1"
  top: "dir46_BR"
  param {
    lr_mult: 1
    decay_mult: 1
  }
  param {
    lr_mult: 2
    decay_mult: 0
  }
  convolution_param {
    num_output: 4
    kernel_size: 1
    weight_filler {
      type: "gaussian"
      std: 0.01
    }
    bias_filler {
      type: "constant"
      value: 0
    }
  }
}

layer {
  name: "dir47_TL"
  type: "Convolution"
  bottom: "pool5/7x7_s1"
  top: "dir47_TL"
  param {
    lr_mult: 1
    decay_mult: 1
  }
  param {
    lr_mult: 2
    decay_mult: 0
  }
  convolution_param {
    num_output: 4
    kernel_size: 1
    weight_filler {
      type: "gaussian"
      std: 0.01
    }
    bias_filler {
      type: "constant"
      value: 0
    }
  }
}

layer {
  name: "dir47_BR"
  type: "Convolution"
  bottom: "pool5/7x7_s1"
  top: "dir47_BR"
  param {
    lr_mult: 1
    decay_mult: 1
  }
  param {
    lr_mult: 2
    decay_mult: 0
  }
  convolution_param {
    num_output: 4
    kernel_size: 1
    weight_filler {
      type: "gaussian"
      std: 0.01
    }
    bias_filler {
      type: "constant"
      value: 0
    }
  }
}

layer {
  name: "dir48_TL"
  type: "Convolution"
  bottom: "pool5/7x7_s1"
  top: "dir48_TL"
  param {
    lr_mult: 1
    decay_mult: 1
  }
  param {
    lr_mult: 2
    decay_mult: 0
  }
  convolution_param {
    num_output: 4
    kernel_size: 1
    weight_filler {
      type: "gaussian"
      std: 0.01
    }
    bias_filler {
      type: "constant"
      value: 0
    }
  }
}

layer {
  name: "dir48_BR"
  type: "Convolution"
  bottom: "pool5/7x7_s1"
  top: "dir48_BR"
  param {
    lr_mult: 1
    decay_mult: 1
  }
  param {
    lr_mult: 2
    decay_mult: 0
  }
  convolution_param {
    num_output: 4
    kernel_size: 1
    weight_filler {
      type: "gaussian"
      std: 0.01
    }
    bias_filler {
      type: "constant"
      value: 0
    }
  }
}

layer {
  name: "dir49_TL"
  type: "Convolution"
  bottom: "pool5/7x7_s1"
  top: "dir49_TL"
  param {
    lr_mult: 1
    decay_mult: 1
  }
  param {
    lr_mult: 2
    decay_mult: 0
  }
  convolution_param {
    num_output: 4
    kernel_size: 1
    weight_filler {
      type: "gaussian"
      std: 0.01
    }
    bias_filler {
      type: "constant"
      value: 0
    }
  }
}

layer {
  name: "dir49_BR"
  type: "Convolution"
  bottom: "pool5/7x7_s1"
  top: "dir49_BR"
  param {
    lr_mult: 1
    decay_mult: 1
  }
  param {
    lr_mult: 2
    decay_mult: 0
  }
  convolution_param {
    num_output: 4
    kernel_size: 1
    weight_filler {
      type: "gaussian"
      std: 0.01
    }
    bias_filler {
      type: "constant"
      value: 0
    }
  }
}

layer {
  name: "dir50_TL"
  type: "Convolution"
  bottom: "pool5/7x7_s1"
  top: "dir50_TL"
  param {
    lr_mult: 1
    decay_mult: 1
  }
  param {
    lr_mult: 2
    decay_mult: 0
  }
  convolution_param {
    num_output: 4
    kernel_size: 1
    weight_filler {
      type: "gaussian"
      std: 0.01
    }
    bias_filler {
      type: "constant"
      value: 0
    }
  }
}

layer {
  name: "dir50_BR"
  type: "Convolution"
  bottom: "pool5/7x7_s1"
  top: "dir50_BR"
  param {
    lr_mult: 1
    decay_mult: 1
  }
  param {
    lr_mult: 2
    decay_mult: 0
  }
  convolution_param {
    num_output: 4
    kernel_size: 1
    weight_filler {
      type: "gaussian"
      std: 0.01
    }
    bias_filler {
      type: "constant"
      value: 0
    }
  }
}

layer {
  name: "dir51_TL"
  type: "Convolution"
  bottom: "pool5/7x7_s1"
  top: "dir51_TL"
  param {
    lr_mult: 1
    decay_mult: 1
  }
  param {
    lr_mult: 2
    decay_mult: 0
  }
  convolution_param {
    num_output: 4
    kernel_size: 1
    weight_filler {
      type: "gaussian"
      std: 0.01
    }
    bias_filler {
      type: "constant"
      value: 0
    }
  }
}

layer {
  name: "dir51_BR"
  type: "Convolution"
  bottom: "pool5/7x7_s1"
  top: "dir51_BR"
  param {
    lr_mult: 1
    decay_mult: 1
  }
  param {
    lr_mult: 2
    decay_mult: 0
  }
  convolution_param {
    num_output: 4
    kernel_size: 1
    weight_filler {
      type: "gaussian"
      std: 0.01
    }
    bias_filler {
      type: "constant"
      value: 0
    }
  }
}

layer {
  name: "dir52_TL"
  type: "Convolution"
  bottom: "pool5/7x7_s1"
  top: "dir52_TL"
  param {
    lr_mult: 1
    decay_mult: 1
  }
  param {
    lr_mult: 2
    decay_mult: 0
  }
  convolution_param {
    num_output: 4
    kernel_size: 1
    weight_filler {
      type: "gaussian"
      std: 0.01
    }
    bias_filler {
      type: "constant"
      value: 0
    }
  }
}

layer {
  name: "dir52_BR"
  type: "Convolution"
  bottom: "pool5/7x7_s1"
  top: "dir52_BR"
  param {
    lr_mult: 1
    decay_mult: 1
  }
  param {
    lr_mult: 2
    decay_mult: 0
  }
  convolution_param {
    num_output: 4
    kernel_size: 1
    weight_filler {
      type: "gaussian"
      std: 0.01
    }
    bias_filler {
      type: "constant"
      value: 0
    }
  }
}

layer {
  name: "dir53_TL"
  type: "Convolution"
  bottom: "pool5/7x7_s1"
  top: "dir53_TL"
  param {
    lr_mult: 1
    decay_mult: 1
  }
  param {
    lr_mult: 2
    decay_mult: 0
  }
  convolution_param {
    num_output: 4
    kernel_size: 1
    weight_filler {
      type: "gaussian"
      std: 0.01
    }
    bias_filler {
      type: "constant"
      value: 0
    }
  }
}

layer {
  name: "dir53_BR"
  type: "Convolution"
  bottom: "pool5/7x7_s1"
  top: "dir53_BR"
  param {
    lr_mult: 1
    decay_mult: 1
  }
  param {
    lr_mult: 2
    decay_mult: 0
  }
  convolution_param {
    num_output: 4
    kernel_size: 1
    weight_filler {
      type: "gaussian"
      std: 0.01
    }
    bias_filler {
      type: "constant"
      value: 0
    }
  }
}

layer {
  name: "dir54_TL"
  type: "Convolution"
  bottom: "pool5/7x7_s1"
  top: "dir54_TL"
  param {
    lr_mult: 1
    decay_mult: 1
  }
  param {
    lr_mult: 2
    decay_mult: 0
  }
  convolution_param {
    num_output: 4
    kernel_size: 1
    weight_filler {
      type: "gaussian"
      std: 0.01
    }
    bias_filler {
      type: "constant"
      value: 0
    }
  }
}

layer {
  name: "dir54_BR"
  type: "Convolution"
  bottom: "pool5/7x7_s1"
  top: "dir54_BR"
  param {
    lr_mult: 1
    decay_mult: 1
  }
  param {
    lr_mult: 2
    decay_mult: 0
  }
  convolution_param {
    num_output: 4
    kernel_size: 1
    weight_filler {
      type: "gaussian"
      std: 0.01
    }
    bias_filler {
      type: "constant"
      value: 0
    }
  }
}

layer {
  name: "dir55_TL"
  type: "Convolution"
  bottom: "pool5/7x7_s1"
  top: "dir55_TL"
  param {
    lr_mult: 1
    decay_mult: 1
  }
  param {
    lr_mult: 2
    decay_mult: 0
  }
  convolution_param {
    num_output: 4
    kernel_size: 1
    weight_filler {
      type: "gaussian"
      std: 0.01
    }
    bias_filler {
      type: "constant"
      value: 0
    }
  }
}

layer {
  name: "dir55_BR"
  type: "Convolution"
  bottom: "pool5/7x7_s1"
  top: "dir55_BR"
  param {
    lr_mult: 1
    decay_mult: 1
  }
  param {
    lr_mult: 2
    decay_mult: 0
  }
  convolution_param {
    num_output: 4
    kernel_size: 1
    weight_filler {
      type: "gaussian"
      std: 0.01
    }
    bias_filler {
      type: "constant"
      value: 0
    }
  }
}

layer {
  name: "dir56_TL"
  type: "Convolution"
  bottom: "pool5/7x7_s1"
  top: "dir56_TL"
  param {
    lr_mult: 1
    decay_mult: 1
  }
  param {
    lr_mult: 2
    decay_mult: 0
  }
  convolution_param {
    num_output: 4
    kernel_size: 1
    weight_filler {
      type: "gaussian"
      std: 0.01
    }
    bias_filler {
      type: "constant"
      value: 0
    }
  }
}

layer {
  name: "dir56_BR"
  type: "Convolution"
  bottom: "pool5/7x7_s1"
  top: "dir56_BR"
  param {
    lr_mult: 1
    decay_mult: 1
  }
  param {
    lr_mult: 2
    decay_mult: 0
  }
  convolution_param {
    num_output: 4
    kernel_size: 1
    weight_filler {
      type: "gaussian"
      std: 0.01
    }
    bias_filler {
      type: "constant"
      value: 0
    }
  }
}

layer {
  name: "dir57_TL"
  type: "Convolution"
  bottom: "pool5/7x7_s1"
  top: "dir57_TL"
  param {
    lr_mult: 1
    decay_mult: 1
  }
  param {
    lr_mult: 2
    decay_mult: 0
  }
  convolution_param {
    num_output: 4
    kernel_size: 1
    weight_filler {
      type: "gaussian"
      std: 0.01
    }
    bias_filler {
      type: "constant"
      value: 0
    }
  }
}

layer {
  name: "dir57_BR"
  type: "Convolution"
  bottom: "pool5/7x7_s1"
  top: "dir57_BR"
  param {
    lr_mult: 1
    decay_mult: 1
  }
  param {
    lr_mult: 2
    decay_mult: 0
  }
  convolution_param {
    num_output: 4
    kernel_size: 1
    weight_filler {
      type: "gaussian"
      std: 0.01
    }
    bias_filler {
      type: "constant"
      value: 0
    }
  }
}

layer {
  name: "dir58_TL"
  type: "Convolution"
  bottom: "pool5/7x7_s1"
  top: "dir58_TL"
  param {
    lr_mult: 1
    decay_mult: 1
  }
  param {
    lr_mult: 2
    decay_mult: 0
  }
  convolution_param {
    num_output: 4
    kernel_size: 1
    weight_filler {
      type: "gaussian"
      std: 0.01
    }
    bias_filler {
      type: "constant"
      value: 0
    }
  }
}

layer {
  name: "dir58_BR"
  type: "Convolution"
  bottom: "pool5/7x7_s1"
  top: "dir58_BR"
  param {
    lr_mult: 1
    decay_mult: 1
  }
  param {
    lr_mult: 2
    decay_mult: 0
  }
  convolution_param {
    num_output: 4
    kernel_size: 1
    weight_filler {
      type: "gaussian"
      std: 0.01
    }
    bias_filler {
      type: "constant"
      value: 0
    }
  }
}

layer {
  name: "dir59_TL"
  type: "Convolution"
  bottom: "pool5/7x7_s1"
  top: "dir59_TL"
  param {
    lr_mult: 1
    decay_mult: 1
  }
  param {
    lr_mult: 2
    decay_mult: 0
  }
  convolution_param {
    num_output: 4
    kernel_size: 1
    weight_filler {
      type: "gaussian"
      std: 0.01
    }
    bias_filler {
      type: "constant"
      value: 0
    }
  }
}

layer {
  name: "dir59_BR"
  type: "Convolution"
  bottom: "pool5/7x7_s1"
  top: "dir59_BR"
  param {
    lr_mult: 1
    decay_mult: 1
  }
  param {
    lr_mult: 2
    decay_mult: 0
  }
  convolution_param {
    num_output: 4
    kernel_size: 1
    weight_filler {
      type: "gaussian"
      std: 0.01
    }
    bias_filler {
      type: "constant"
      value: 0
    }
  }
}

layer {
  name: "dir60_TL"
  type: "Convolution"
  bottom: "pool5/7x7_s1"
  top: "dir60_TL"
  param {
    lr_mult: 1
    decay_mult: 1
  }
  param {
    lr_mult: 2
    decay_mult: 0
  }
  convolution_param {
    num_output: 4
    kernel_size: 1
    weight_filler {
      type: "gaussian"
      std: 0.01
    }
    bias_filler {
      type: "constant"
      value: 0
    }
  }
}

layer {
  name: "dir60_BR"
  type: "Convolution"
  bottom: "pool5/7x7_s1"
  top: "dir60_BR"
  param {
    lr_mult: 1
    decay_mult: 1
  }
  param {
    lr_mult: 2
    decay_mult: 0
  }
  convolution_param {
    num_output: 4
    kernel_size: 1
    weight_filler {
      type: "gaussian"
      std: 0.01
    }
    bias_filler {
      type: "constant"
      value: 0
    }
  }
}

layer {
  name: "dir61_TL"
  type: "Convolution"
  bottom: "pool5/7x7_s1"
  top: "dir61_TL"
  param {
    lr_mult: 1
    decay_mult: 1
  }
  param {
    lr_mult: 2
    decay_mult: 0
  }
  convolution_param {
    num_output: 4
    kernel_size: 1
    weight_filler {
      type: "gaussian"
      std: 0.01
    }
    bias_filler {
      type: "constant"
      value: 0
    }
  }
}

layer {
  name: "dir61_BR"
  type: "Convolution"
  bottom: "pool5/7x7_s1"
  top: "dir61_BR"
  param {
    lr_mult: 1
    decay_mult: 1
  }
  param {
    lr_mult: 2
    decay_mult: 0
  }
  convolution_param {
    num_output: 4
    kernel_size: 1
    weight_filler {
      type: "gaussian"
      std: 0.01
    }
    bias_filler {
      type: "constant"
      value: 0
    }
  }
}

layer {
  name: "dir62_TL"
  type: "Convolution"
  bottom: "pool5/7x7_s1"
  top: "dir62_TL"
  param {
    lr_mult: 1
    decay_mult: 1
  }
  param {
    lr_mult: 2
    decay_mult: 0
  }
  convolution_param {
    num_output: 4
    kernel_size: 1
    weight_filler {
      type: "gaussian"
      std: 0.01
    }
    bias_filler {
      type: "constant"
      value: 0
    }
  }
}

layer {
  name: "dir62_BR"
  type: "Convolution"
  bottom: "pool5/7x7_s1"
  top: "dir62_BR"
  param {
    lr_mult: 1
    decay_mult: 1
  }
  param {
    lr_mult: 2
    decay_mult: 0
  }
  convolution_param {
    num_output: 4
    kernel_size: 1
    weight_filler {
      type: "gaussian"
      std: 0.01
    }
    bias_filler {
      type: "constant"
      value: 0
    }
  }
}

layer {
  name: "dir63_TL"
  type: "Convolution"
  bottom: "pool5/7x7_s1"
  top: "dir63_TL"
  param {
    lr_mult: 1
    decay_mult: 1
  }
  param {
    lr_mult: 2
    decay_mult: 0
  }
  convolution_param {
    num_output: 4
    kernel_size: 1
    weight_filler {
      type: "gaussian"
      std: 0.01
    }
    bias_filler {
      type: "constant"
      value: 0
    }
  }
}

layer {
  name: "dir63_BR"
  type: "Convolution"
  bottom: "pool5/7x7_s1"
  top: "dir63_BR"
  param {
    lr_mult: 1
    decay_mult: 1
  }
  param {
    lr_mult: 2
    decay_mult: 0
  }
  convolution_param {
    num_output: 4
    kernel_size: 1
    weight_filler {
      type: "gaussian"
      std: 0.01
    }
    bias_filler {
      type: "constant"
      value: 0
    }
  }
}

layer {
  name: "dir64_TL"
  type: "Convolution"
  bottom: "pool5/7x7_s1"
  top: "dir64_TL"
  param {
    lr_mult: 1
    decay_mult: 1
  }
  param {
    lr_mult: 2
    decay_mult: 0
  }
  convolution_param {
    num_output: 4
    kernel_size: 1
    weight_filler {
      type: "gaussian"
      std: 0.01
    }
    bias_filler {
      type: "constant"
      value: 0
    }
  }
}

layer {
  name: "dir64_BR"
  type: "Convolution"
  bottom: "pool5/7x7_s1"
  top: "dir64_BR"
  param {
    lr_mult: 1
    decay_mult: 1
  }
  param {
    lr_mult: 2
    decay_mult: 0
  }
  convolution_param {
    num_output: 4
    kernel_size: 1
    weight_filler {
      type: "gaussian"
      std: 0.01
    }
    bias_filler {
      type: "constant"
      value: 0
    }
  }
}

layer {
  name: "dir65_TL"
  type: "Convolution"
  bottom: "pool5/7x7_s1"
  top: "dir65_TL"
  param {
    lr_mult: 1
    decay_mult: 1
  }
  param {
    lr_mult: 2
    decay_mult: 0
  }
  convolution_param {
    num_output: 4
    kernel_size: 1
    weight_filler {
      type: "gaussian"
      std: 0.01
    }
    bias_filler {
      type: "constant"
      value: 0
    }
  }
}

layer {
  name: "dir65_BR"
  type: "Convolution"
  bottom: "pool5/7x7_s1"
  top: "dir65_BR"
  param {
    lr_mult: 1
    decay_mult: 1
  }
  param {
    lr_mult: 2
    decay_mult: 0
  }
  convolution_param {
    num_output: 4
    kernel_size: 1
    weight_filler {
      type: "gaussian"
      std: 0.01
    }
    bias_filler {
      type: "constant"
      value: 0
    }
  }
}

layer {
  name: "dir66_TL"
  type: "Convolution"
  bottom: "pool5/7x7_s1"
  top: "dir66_TL"
  param {
    lr_mult: 1
    decay_mult: 1
  }
  param {
    lr_mult: 2
    decay_mult: 0
  }
  convolution_param {
    num_output: 4
    kernel_size: 1
    weight_filler {
      type: "gaussian"
      std: 0.01
    }
    bias_filler {
      type: "constant"
      value: 0
    }
  }
}

layer {
  name: "dir66_BR"
  type: "Convolution"
  bottom: "pool5/7x7_s1"
  top: "dir66_BR"
  param {
    lr_mult: 1
    decay_mult: 1
  }
  param {
    lr_mult: 2
    decay_mult: 0
  }
  convolution_param {
    num_output: 4
    kernel_size: 1
    weight_filler {
      type: "gaussian"
      std: 0.01
    }
    bias_filler {
      type: "constant"
      value: 0
    }
  }
}

layer {
  name: "dir67_TL"
  type: "Convolution"
  bottom: "pool5/7x7_s1"
  top: "dir67_TL"
  param {
    lr_mult: 1
    decay_mult: 1
  }
  param {
    lr_mult: 2
    decay_mult: 0
  }
  convolution_param {
    num_output: 4
    kernel_size: 1
    weight_filler {
      type: "gaussian"
      std: 0.01
    }
    bias_filler {
      type: "constant"
      value: 0
    }
  }
}

layer {
  name: "dir67_BR"
  type: "Convolution"
  bottom: "pool5/7x7_s1"
  top: "dir67_BR"
  param {
    lr_mult: 1
    decay_mult: 1
  }
  param {
    lr_mult: 2
    decay_mult: 0
  }
  convolution_param {
    num_output: 4
    kernel_size: 1
    weight_filler {
      type: "gaussian"
      std: 0.01
    }
    bias_filler {
      type: "constant"
      value: 0
    }
  }
}

layer {
  name: "dir68_TL"
  type: "Convolution"
  bottom: "pool5/7x7_s1"
  top: "dir68_TL"
  param {
    lr_mult: 1
    decay_mult: 1
  }
  param {
    lr_mult: 2
    decay_mult: 0
  }
  convolution_param {
    num_output: 4
    kernel_size: 1
    weight_filler {
      type: "gaussian"
      std: 0.01
    }
    bias_filler {
      type: "constant"
      value: 0
    }
  }
}

layer {
  name: "dir68_BR"
  type: "Convolution"
  bottom: "pool5/7x7_s1"
  top: "dir68_BR"
  param {
    lr_mult: 1
    decay_mult: 1
  }
  param {
    lr_mult: 2
    decay_mult: 0
  }
  convolution_param {
    num_output: 4
    kernel_size: 1
    weight_filler {
      type: "gaussian"
      std: 0.01
    }
    bias_filler {
      type: "constant"
      value: 0
    }
  }
}

layer {
  name: "dir69_TL"
  type: "Convolution"
  bottom: "pool5/7x7_s1"
  top: "dir69_TL"
  param {
    lr_mult: 1
    decay_mult: 1
  }
  param {
    lr_mult: 2
    decay_mult: 0
  }
  convolution_param {
    num_output: 4
    kernel_size: 1
    weight_filler {
      type: "gaussian"
      std: 0.01
    }
    bias_filler {
      type: "constant"
      value: 0
    }
  }
}

layer {
  name: "dir69_BR"
  type: "Convolution"
  bottom: "pool5/7x7_s1"
  top: "dir69_BR"
  param {
    lr_mult: 1
    decay_mult: 1
  }
  param {
    lr_mult: 2
    decay_mult: 0
  }
  convolution_param {
    num_output: 4
    kernel_size: 1
    weight_filler {
      type: "gaussian"
      std: 0.01
    }
    bias_filler {
      type: "constant"
      value: 0
    }
  }
}

layer {
  name: "dir70_TL"
  type: "Convolution"
  bottom: "pool5/7x7_s1"
  top: "dir70_TL"
  param {
    lr_mult: 1
    decay_mult: 1
  }
  param {
    lr_mult: 2
    decay_mult: 0
  }
  convolution_param {
    num_output: 4
    kernel_size: 1
    weight_filler {
      type: "gaussian"
      std: 0.01
    }
    bias_filler {
      type: "constant"
      value: 0
    }
  }
}

layer {
  name: "dir70_BR"
  type: "Convolution"
  bottom: "pool5/7x7_s1"
  top: "dir70_BR"
  param {
    lr_mult: 1
    decay_mult: 1
  }
  param {
    lr_mult: 2
    decay_mult: 0
  }
  convolution_param {
    num_output: 4
    kernel_size: 1
    weight_filler {
      type: "gaussian"
      std: 0.01
    }
    bias_filler {
      type: "constant"
      value: 0
    }
  }
}

layer {
  name: "dir71_TL"
  type: "Convolution"
  bottom: "pool5/7x7_s1"
  top: "dir71_TL"
  param {
    lr_mult: 1
    decay_mult: 1
  }
  param {
    lr_mult: 2
    decay_mult: 0
  }
  convolution_param {
    num_output: 4
    kernel_size: 1
    weight_filler {
      type: "gaussian"
      std: 0.01
    }
    bias_filler {
      type: "constant"
      value: 0
    }
  }
}

layer {
  name: "dir71_BR"
  type: "Convolution"
  bottom: "pool5/7x7_s1"
  top: "dir71_BR"
  param {
    lr_mult: 1
    decay_mult: 1
  }
  param {
    lr_mult: 2
    decay_mult: 0
  }
  convolution_param {
    num_output: 4
    kernel_size: 1
    weight_filler {
      type: "gaussian"
      std: 0.01
    }
    bias_filler {
      type: "constant"
      value: 0
    }
  }
}

layer {
  name: "dir72_TL"
  type: "Convolution"
  bottom: "pool5/7x7_s1"
  top: "dir72_TL"
  param {
    lr_mult: 1
    decay_mult: 1
  }
  param {
    lr_mult: 2
    decay_mult: 0
  }
  convolution_param {
    num_output: 4
    kernel_size: 1
    weight_filler {
      type: "gaussian"
      std: 0.01
    }
    bias_filler {
      type: "constant"
      value: 0
    }
  }
}

layer {
  name: "dir72_BR"
  type: "Convolution"
  bottom: "pool5/7x7_s1"
  top: "dir72_BR"
  param {
    lr_mult: 1
    decay_mult: 1
  }
  param {
    lr_mult: 2
    decay_mult: 0
  }
  convolution_param {
    num_output: 4
    kernel_size: 1
    weight_filler {
      type: "gaussian"
      std: 0.01
    }
    bias_filler {
      type: "constant"
      value: 0
    }
  }
}

layer {
  name: "dir73_TL"
  type: "Convolution"
  bottom: "pool5/7x7_s1"
  top: "dir73_TL"
  param {
    lr_mult: 1
    decay_mult: 1
  }
  param {
    lr_mult: 2
    decay_mult: 0
  }
  convolution_param {
    num_output: 4
    kernel_size: 1
    weight_filler {
      type: "gaussian"
      std: 0.01
    }
    bias_filler {
      type: "constant"
      value: 0
    }
  }
}

layer {
  name: "dir73_BR"
  type: "Convolution"
  bottom: "pool5/7x7_s1"
  top: "dir73_BR"
  param {
    lr_mult: 1
    decay_mult: 1
  }
  param {
    lr_mult: 2
    decay_mult: 0
  }
  convolution_param {
    num_output: 4
    kernel_size: 1
    weight_filler {
      type: "gaussian"
      std: 0.01
    }
    bias_filler {
      type: "constant"
      value: 0
    }
  }
}

layer {
  name: "dir74_TL"
  type: "Convolution"
  bottom: "pool5/7x7_s1"
  top: "dir74_TL"
  param {
    lr_mult: 1
    decay_mult: 1
  }
  param {
    lr_mult: 2
    decay_mult: 0
  }
  convolution_param {
    num_output: 4
    kernel_size: 1
    weight_filler {
      type: "gaussian"
      std: 0.01
    }
    bias_filler {
      type: "constant"
      value: 0
    }
  }
}

layer {
  name: "dir74_BR"
  type: "Convolution"
  bottom: "pool5/7x7_s1"
  top: "dir74_BR"
  param {
    lr_mult: 1
    decay_mult: 1
  }
  param {
    lr_mult: 2
    decay_mult: 0
  }
  convolution_param {
    num_output: 4
    kernel_size: 1
    weight_filler {
      type: "gaussian"
      std: 0.01
    }
    bias_filler {
      type: "constant"
      value: 0
    }
  }
}

layer {
  name: "dir75_TL"
  type: "Convolution"
  bottom: "pool5/7x7_s1"
  top: "dir75_TL"
  param {
    lr_mult: 1
    decay_mult: 1
  }
  param {
    lr_mult: 2
    decay_mult: 0
  }
  convolution_param {
    num_output: 4
    kernel_size: 1
    weight_filler {
      type: "gaussian"
      std: 0.01
    }
    bias_filler {
      type: "constant"
      value: 0
    }
  }
}

layer {
  name: "dir75_BR"
  type: "Convolution"
  bottom: "pool5/7x7_s1"
  top: "dir75_BR"
  param {
    lr_mult: 1
    decay_mult: 1
  }
  param {
    lr_mult: 2
    decay_mult: 0
  }
  convolution_param {
    num_output: 4
    kernel_size: 1
    weight_filler {
      type: "gaussian"
      std: 0.01
    }
    bias_filler {
      type: "constant"
      value: 0
    }
  }
}

layer {
  name: "dir76_TL"
  type: "Convolution"
  bottom: "pool5/7x7_s1"
  top: "dir76_TL"
  param {
    lr_mult: 1
    decay_mult: 1
  }
  param {
    lr_mult: 2
    decay_mult: 0
  }
  convolution_param {
    num_output: 4
    kernel_size: 1
    weight_filler {
      type: "gaussian"
      std: 0.01
    }
    bias_filler {
      type: "constant"
      value: 0
    }
  }
}

layer {
  name: "dir76_BR"
  type: "Convolution"
  bottom: "pool5/7x7_s1"
  top: "dir76_BR"
  param {
    lr_mult: 1
    decay_mult: 1
  }
  param {
    lr_mult: 2
    decay_mult: 0
  }
  convolution_param {
    num_output: 4
    kernel_size: 1
    weight_filler {
      type: "gaussian"
      std: 0.01
    }
    bias_filler {
      type: "constant"
      value: 0
    }
  }
}

layer {
  name: "dir77_TL"
  type: "Convolution"
  bottom: "pool5/7x7_s1"
  top: "dir77_TL"
  param {
    lr_mult: 1
    decay_mult: 1
  }
  param {
    lr_mult: 2
    decay_mult: 0
  }
  convolution_param {
    num_output: 4
    kernel_size: 1
    weight_filler {
      type: "gaussian"
      std: 0.01
    }
    bias_filler {
      type: "constant"
      value: 0
    }
  }
}

layer {
  name: "dir77_BR"
  type: "Convolution"
  bottom: "pool5/7x7_s1"
  top: "dir77_BR"
  param {
    lr_mult: 1
    decay_mult: 1
  }
  param {
    lr_mult: 2
    decay_mult: 0
  }
  convolution_param {
    num_output: 4
    kernel_size: 1
    weight_filler {
      type: "gaussian"
      std: 0.01
    }
    bias_filler {
      type: "constant"
      value: 0
    }
  }
}

layer {
  name: "dir78_TL"
  type: "Convolution"
  bottom: "pool5/7x7_s1"
  top: "dir78_TL"
  param {
    lr_mult: 1
    decay_mult: 1
  }
  param {
    lr_mult: 2
    decay_mult: 0
  }
  convolution_param {
    num_output: 4
    kernel_size: 1
    weight_filler {
      type: "gaussian"
      std: 0.01
    }
    bias_filler {
      type: "constant"
      value: 0
    }
  }
}

layer {
  name: "dir78_BR"
  type: "Convolution"
  bottom: "pool5/7x7_s1"
  top: "dir78_BR"
  param {
    lr_mult: 1
    decay_mult: 1
  }
  param {
    lr_mult: 2
    decay_mult: 0
  }
  convolution_param {
    num_output: 4
    kernel_size: 1
    weight_filler {
      type: "gaussian"
      std: 0.01
    }
    bias_filler {
      type: "constant"
      value: 0
    }
  }
}

layer {
  name: "dir79_TL"
  type: "Convolution"
  bottom: "pool5/7x7_s1"
  top: "dir79_TL"
  param {
    lr_mult: 1
    decay_mult: 1
  }
  param {
    lr_mult: 2
    decay_mult: 0
  }
  convolution_param {
    num_output: 4
    kernel_size: 1
    weight_filler {
      type: "gaussian"
      std: 0.01
    }
    bias_filler {
      type: "constant"
      value: 0
    }
  }
}

layer {
  name: "dir79_BR"
  type: "Convolution"
  bottom: "pool5/7x7_s1"
  top: "dir79_BR"
  param {
    lr_mult: 1
    decay_mult: 1
  }
  param {
    lr_mult: 2
    decay_mult: 0
  }
  convolution_param {
    num_output: 4
    kernel_size: 1
    weight_filler {
      type: "gaussian"
      std: 0.01
    }
    bias_filler {
      type: "constant"
      value: 0
    }
  }
}

layer {
  name: "dir80_TL"
  type: "Convolution"
  bottom: "pool5/7x7_s1"
  top: "dir80_TL"
  param {
    lr_mult: 1
    decay_mult: 1
  }
  param {
    lr_mult: 2
    decay_mult: 0
  }
  convolution_param {
    num_output: 4
    kernel_size: 1
    weight_filler {
      type: "gaussian"
      std: 0.01
    }
    bias_filler {
      type: "constant"
      value: 0
    }
  }
}

layer {
  name: "dir80_BR"
  type: "Convolution"
  bottom: "pool5/7x7_s1"
  top: "dir80_BR"
  param {
    lr_mult: 1
    decay_mult: 1
  }
  param {
    lr_mult: 2
    decay_mult: 0
  }
  convolution_param {
    num_output: 4
    kernel_size: 1
    weight_filler {
      type: "gaussian"
      std: 0.01
    }
    bias_filler {
      type: "constant"
      value: 0
    }
  }
}

layer {
  name: "dir81_TL"
  type: "Convolution"
  bottom: "pool5/7x7_s1"
  top: "dir81_TL"
  param {
    lr_mult: 1
    decay_mult: 1
  }
  param {
    lr_mult: 2
    decay_mult: 0
  }
  convolution_param {
    num_output: 4
    kernel_size: 1
    weight_filler {
      type: "gaussian"
      std: 0.01
    }
    bias_filler {
      type: "constant"
      value: 0
    }
  }
}

layer {
  name: "dir81_BR"
  type: "Convolution"
  bottom: "pool5/7x7_s1"
  top: "dir81_BR"
  param {
    lr_mult: 1
    decay_mult: 1
  }
  param {
    lr_mult: 2
    decay_mult: 0
  }
  convolution_param {
    num_output: 4
    kernel_size: 1
    weight_filler {
      type: "gaussian"
      std: 0.01
    }
    bias_filler {
      type: "constant"
      value: 0
    }
  }
}

layer {
  name: "dir82_TL"
  type: "Convolution"
  bottom: "pool5/7x7_s1"
  top: "dir82_TL"
  param {
    lr_mult: 1
    decay_mult: 1
  }
  param {
    lr_mult: 2
    decay_mult: 0
  }
  convolution_param {
    num_output: 4
    kernel_size: 1
    weight_filler {
      type: "gaussian"
      std: 0.01
    }
    bias_filler {
      type: "constant"
      value: 0
    }
  }
}

layer {
  name: "dir82_BR"
  type: "Convolution"
  bottom: "pool5/7x7_s1"
  top: "dir82_BR"
  param {
    lr_mult: 1
    decay_mult: 1
  }
  param {
    lr_mult: 2
    decay_mult: 0
  }
  convolution_param {
    num_output: 4
    kernel_size: 1
    weight_filler {
      type: "gaussian"
      std: 0.01
    }
    bias_filler {
      type: "constant"
      value: 0
    }
  }
}

layer {
  name: "dir83_TL"
  type: "Convolution"
  bottom: "pool5/7x7_s1"
  top: "dir83_TL"
  param {
    lr_mult: 1
    decay_mult: 1
  }
  param {
    lr_mult: 2
    decay_mult: 0
  }
  convolution_param {
    num_output: 4
    kernel_size: 1
    weight_filler {
      type: "gaussian"
      std: 0.01
    }
    bias_filler {
      type: "constant"
      value: 0
    }
  }
}

layer {
  name: "dir83_BR"
  type: "Convolution"
  bottom: "pool5/7x7_s1"
  top: "dir83_BR"
  param {
    lr_mult: 1
    decay_mult: 1
  }
  param {
    lr_mult: 2
    decay_mult: 0
  }
  convolution_param {
    num_output: 4
    kernel_size: 1
    weight_filler {
      type: "gaussian"
      std: 0.01
    }
    bias_filler {
      type: "constant"
      value: 0
    }
  }
}

layer {
  name: "dir84_TL"
  type: "Convolution"
  bottom: "pool5/7x7_s1"
  top: "dir84_TL"
  param {
    lr_mult: 1
    decay_mult: 1
  }
  param {
    lr_mult: 2
    decay_mult: 0
  }
  convolution_param {
    num_output: 4
    kernel_size: 1
    weight_filler {
      type: "gaussian"
      std: 0.01
    }
    bias_filler {
      type: "constant"
      value: 0
    }
  }
}

layer {
  name: "dir84_BR"
  type: "Convolution"
  bottom: "pool5/7x7_s1"
  top: "dir84_BR"
  param {
    lr_mult: 1
    decay_mult: 1
  }
  param {
    lr_mult: 2
    decay_mult: 0
  }
  convolution_param {
    num_output: 4
    kernel_size: 1
    weight_filler {
      type: "gaussian"
      std: 0.01
    }
    bias_filler {
      type: "constant"
      value: 0
    }
  }
}

layer {
  name: "dir85_TL"
  type: "Convolution"
  bottom: "pool5/7x7_s1"
  top: "dir85_TL"
  param {
    lr_mult: 1
    decay_mult: 1
  }
  param {
    lr_mult: 2
    decay_mult: 0
  }
  convolution_param {
    num_output: 4
    kernel_size: 1
    weight_filler {
      type: "gaussian"
      std: 0.01
    }
    bias_filler {
      type: "constant"
      value: 0
    }
  }
}

layer {
  name: "dir85_BR"
  type: "Convolution"
  bottom: "pool5/7x7_s1"
  top: "dir85_BR"
  param {
    lr_mult: 1
    decay_mult: 1
  }
  param {
    lr_mult: 2
    decay_mult: 0
  }
  convolution_param {
    num_output: 4
    kernel_size: 1
    weight_filler {
      type: "gaussian"
      std: 0.01
    }
    bias_filler {
      type: "constant"
      value: 0
    }
  }
}

layer {
  name: "dir86_TL"
  type: "Convolution"
  bottom: "pool5/7x7_s1"
  top: "dir86_TL"
  param {
    lr_mult: 1
    decay_mult: 1
  }
  param {
    lr_mult: 2
    decay_mult: 0
  }
  convolution_param {
    num_output: 4
    kernel_size: 1
    weight_filler {
      type: "gaussian"
      std: 0.01
    }
    bias_filler {
      type: "constant"
      value: 0
    }
  }
}

layer {
  name: "dir86_BR"
  type: "Convolution"
  bottom: "pool5/7x7_s1"
  top: "dir86_BR"
  param {
    lr_mult: 1
    decay_mult: 1
  }
  param {
    lr_mult: 2
    decay_mult: 0
  }
  convolution_param {
    num_output: 4
    kernel_size: 1
    weight_filler {
      type: "gaussian"
      std: 0.01
    }
    bias_filler {
      type: "constant"
      value: 0
    }
  }
}

layer {
  name: "dir87_TL"
  type: "Convolution"
  bottom: "pool5/7x7_s1"
  top: "dir87_TL"
  param {
    lr_mult: 1
    decay_mult: 1
  }
  param {
    lr_mult: 2
    decay_mult: 0
  }
  convolution_param {
    num_output: 4
    kernel_size: 1
    weight_filler {
      type: "gaussian"
      std: 0.01
    }
    bias_filler {
      type: "constant"
      value: 0
    }
  }
}

layer {
  name: "dir87_BR"
  type: "Convolution"
  bottom: "pool5/7x7_s1"
  top: "dir87_BR"
  param {
    lr_mult: 1
    decay_mult: 1
  }
  param {
    lr_mult: 2
    decay_mult: 0
  }
  convolution_param {
    num_output: 4
    kernel_size: 1
    weight_filler {
      type: "gaussian"
      std: 0.01
    }
    bias_filler {
      type: "constant"
      value: 0
    }
  }
}

layer {
  name: "dir88_TL"
  type: "Convolution"
  bottom: "pool5/7x7_s1"
  top: "dir88_TL"
  param {
    lr_mult: 1
    decay_mult: 1
  }
  param {
    lr_mult: 2
    decay_mult: 0
  }
  convolution_param {
    num_output: 4
    kernel_size: 1
    weight_filler {
      type: "gaussian"
      std: 0.01
    }
    bias_filler {
      type: "constant"
      value: 0
    }
  }
}

layer {
  name: "dir88_BR"
  type: "Convolution"
  bottom: "pool5/7x7_s1"
  top: "dir88_BR"
  param {
    lr_mult: 1
    decay_mult: 1
  }
  param {
    lr_mult: 2
    decay_mult: 0
  }
  convolution_param {
    num_output: 4
    kernel_size: 1
    weight_filler {
      type: "gaussian"
      std: 0.01
    }
    bias_filler {
      type: "constant"
      value: 0
    }
  }
}

layer {
  name: "dir89_TL"
  type: "Convolution"
  bottom: "pool5/7x7_s1"
  top: "dir89_TL"
  param {
    lr_mult: 1
    decay_mult: 1
  }
  param {
    lr_mult: 2
    decay_mult: 0
  }
  convolution_param {
    num_output: 4
    kernel_size: 1
    weight_filler {
      type: "gaussian"
      std: 0.01
    }
    bias_filler {
      type: "constant"
      value: 0
    }
  }
}

layer {
  name: "dir89_BR"
  type: "Convolution"
  bottom: "pool5/7x7_s1"
  top: "dir89_BR"
  param {
    lr_mult: 1
    decay_mult: 1
  }
  param {
    lr_mult: 2
    decay_mult: 0
  }
  convolution_param {
    num_output: 4
    kernel_size: 1
    weight_filler {
      type: "gaussian"
      std: 0.01
    }
    bias_filler {
      type: "constant"
      value: 0
    }
  }
}

layer {
  name: "dir90_TL"
  type: "Convolution"
  bottom: "pool5/7x7_s1"
  top: "dir90_TL"
  param {
    lr_mult: 1
    decay_mult: 1
  }
  param {
    lr_mult: 2
    decay_mult: 0
  }
  convolution_param {
    num_output: 4
    kernel_size: 1
    weight_filler {
      type: "gaussian"
      std: 0.01
    }
    bias_filler {
      type: "constant"
      value: 0
    }
  }
}

layer {
  name: "dir90_BR"
  type: "Convolution"
  bottom: "pool5/7x7_s1"
  top: "dir90_BR"
  param {
    lr_mult: 1
    decay_mult: 1
  }
  param {
    lr_mult: 2
    decay_mult: 0
  }
  convolution_param {
    num_output: 4
    kernel_size: 1
    weight_filler {
      type: "gaussian"
      std: 0.01
    }
    bias_filler {
      type: "constant"
      value: 0
    }
  }
}

layer {
  name: "dir91_TL"
  type: "Convolution"
  bottom: "pool5/7x7_s1"
  top: "dir91_TL"
  param {
    lr_mult: 1
    decay_mult: 1
  }
  param {
    lr_mult: 2
    decay_mult: 0
  }
  convolution_param {
    num_output: 4
    kernel_size: 1
    weight_filler {
      type: "gaussian"
      std: 0.01
    }
    bias_filler {
      type: "constant"
      value: 0
    }
  }
}

layer {
  name: "dir91_BR"
  type: "Convolution"
  bottom: "pool5/7x7_s1"
  top: "dir91_BR"
  param {
    lr_mult: 1
    decay_mult: 1
  }
  param {
    lr_mult: 2
    decay_mult: 0
  }
  convolution_param {
    num_output: 4
    kernel_size: 1
    weight_filler {
      type: "gaussian"
      std: 0.01
    }
    bias_filler {
      type: "constant"
      value: 0
    }
  }
}

layer {
  name: "dir92_TL"
  type: "Convolution"
  bottom: "pool5/7x7_s1"
  top: "dir92_TL"
  param {
    lr_mult: 1
    decay_mult: 1
  }
  param {
    lr_mult: 2
    decay_mult: 0
  }
  convolution_param {
    num_output: 4
    kernel_size: 1
    weight_filler {
      type: "gaussian"
      std: 0.01
    }
    bias_filler {
      type: "constant"
      value: 0
    }
  }
}

layer {
  name: "dir92_BR"
  type: "Convolution"
  bottom: "pool5/7x7_s1"
  top: "dir92_BR"
  param {
    lr_mult: 1
    decay_mult: 1
  }
  param {
    lr_mult: 2
    decay_mult: 0
  }
  convolution_param {
    num_output: 4
    kernel_size: 1
    weight_filler {
      type: "gaussian"
      std: 0.01
    }
    bias_filler {
      type: "constant"
      value: 0
    }
  }
}

layer {
  name: "dir93_TL"
  type: "Convolution"
  bottom: "pool5/7x7_s1"
  top: "dir93_TL"
  param {
    lr_mult: 1
    decay_mult: 1
  }
  param {
    lr_mult: 2
    decay_mult: 0
  }
  convolution_param {
    num_output: 4
    kernel_size: 1
    weight_filler {
      type: "gaussian"
      std: 0.01
    }
    bias_filler {
      type: "constant"
      value: 0
    }
  }
}

layer {
  name: "dir93_BR"
  type: "Convolution"
  bottom: "pool5/7x7_s1"
  top: "dir93_BR"
  param {
    lr_mult: 1
    decay_mult: 1
  }
  param {
    lr_mult: 2
    decay_mult: 0
  }
  convolution_param {
    num_output: 4
    kernel_size: 1
    weight_filler {
      type: "gaussian"
      std: 0.01
    }
    bias_filler {
      type: "constant"
      value: 0
    }
  }
}

layer {
  name: "dir94_TL"
  type: "Convolution"
  bottom: "pool5/7x7_s1"
  top: "dir94_TL"
  param {
    lr_mult: 1
    decay_mult: 1
  }
  param {
    lr_mult: 2
    decay_mult: 0
  }
  convolution_param {
    num_output: 4
    kernel_size: 1
    weight_filler {
      type: "gaussian"
      std: 0.01
    }
    bias_filler {
      type: "constant"
      value: 0
    }
  }
}

layer {
  name: "dir94_BR"
  type: "Convolution"
  bottom: "pool5/7x7_s1"
  top: "dir94_BR"
  param {
    lr_mult: 1
    decay_mult: 1
  }
  param {
    lr_mult: 2
    decay_mult: 0
  }
  convolution_param {
    num_output: 4
    kernel_size: 1
    weight_filler {
      type: "gaussian"
      std: 0.01
    }
    bias_filler {
      type: "constant"
      value: 0
    }
  }
}

layer {
  name: "dir95_TL"
  type: "Convolution"
  bottom: "pool5/7x7_s1"
  top: "dir95_TL"
  param {
    lr_mult: 1
    decay_mult: 1
  }
  param {
    lr_mult: 2
    decay_mult: 0
  }
  convolution_param {
    num_output: 4
    kernel_size: 1
    weight_filler {
      type: "gaussian"
      std: 0.01
    }
    bias_filler {
      type: "constant"
      value: 0
    }
  }
}

layer {
  name: "dir95_BR"
  type: "Convolution"
  bottom: "pool5/7x7_s1"
  top: "dir95_BR"
  param {
    lr_mult: 1
    decay_mult: 1
  }
  param {
    lr_mult: 2
    decay_mult: 0
  }
  convolution_param {
    num_output: 4
    kernel_size: 1
    weight_filler {
      type: "gaussian"
      std: 0.01
    }
    bias_filler {
      type: "constant"
      value: 0
    }
  }
}

layer {
  name: "dir96_TL"
  type: "Convolution"
  bottom: "pool5/7x7_s1"
  top: "dir96_TL"
  param {
    lr_mult: 1
    decay_mult: 1
  }
  param {
    lr_mult: 2
    decay_mult: 0
  }
  convolution_param {
    num_output: 4
    kernel_size: 1
    weight_filler {
      type: "gaussian"
      std: 0.01
    }
    bias_filler {
      type: "constant"
      value: 0
    }
  }
}

layer {
  name: "dir96_BR"
  type: "Convolution"
  bottom: "pool5/7x7_s1"
  top: "dir96_BR"
  param {
    lr_mult: 1
    decay_mult: 1
  }
  param {
    lr_mult: 2
    decay_mult: 0
  }
  convolution_param {
    num_output: 4
    kernel_size: 1
    weight_filler {
      type: "gaussian"
      std: 0.01
    }
    bias_filler {
      type: "constant"
      value: 0
    }
  }
}

layer {
  name: "dir97_TL"
  type: "Convolution"
  bottom: "pool5/7x7_s1"
  top: "dir97_TL"
  param {
    lr_mult: 1
    decay_mult: 1
  }
  param {
    lr_mult: 2
    decay_mult: 0
  }
  convolution_param {
    num_output: 4
    kernel_size: 1
    weight_filler {
      type: "gaussian"
      std: 0.01
    }
    bias_filler {
      type: "constant"
      value: 0
    }
  }
}

layer {
  name: "dir97_BR"
  type: "Convolution"
  bottom: "pool5/7x7_s1"
  top: "dir97_BR"
  param {
    lr_mult: 1
    decay_mult: 1
  }
  param {
    lr_mult: 2
    decay_mult: 0
  }
  convolution_param {
    num_output: 4
    kernel_size: 1
    weight_filler {
      type: "gaussian"
      std: 0.01
    }
    bias_filler {
      type: "constant"
      value: 0
    }
  }
}

layer {
  name: "dir98_TL"
  type: "Convolution"
  bottom: "pool5/7x7_s1"
  top: "dir98_TL"
  param {
    lr_mult: 1
    decay_mult: 1
  }
  param {
    lr_mult: 2
    decay_mult: 0
  }
  convolution_param {
    num_output: 4
    kernel_size: 1
    weight_filler {
      type: "gaussian"
      std: 0.01
    }
    bias_filler {
      type: "constant"
      value: 0
    }
  }
}

layer {
  name: "dir98_BR"
  type: "Convolution"
  bottom: "pool5/7x7_s1"
  top: "dir98_BR"
  param {
    lr_mult: 1
    decay_mult: 1
  }
  param {
    lr_mult: 2
    decay_mult: 0
  }
  convolution_param {
    num_output: 4
    kernel_size: 1
    weight_filler {
      type: "gaussian"
      std: 0.01
    }
    bias_filler {
      type: "constant"
      value: 0
    }
  }
}

layer {
  name: "dir99_TL"
  type: "Convolution"
  bottom: "pool5/7x7_s1"
  top: "dir99_TL"
  param {
    lr_mult: 1
    decay_mult: 1
  }
  param {
    lr_mult: 2
    decay_mult: 0
  }
  convolution_param {
    num_output: 4
    kernel_size: 1
    weight_filler {
      type: "gaussian"
      std: 0.01
    }
    bias_filler {
      type: "constant"
      value: 0
    }
  }
}

layer {
  name: "dir99_BR"
  type: "Convolution"
  bottom: "pool5/7x7_s1"
  top: "dir99_BR"
  param {
    lr_mult: 1
    decay_mult: 1
  }
  param {
    lr_mult: 2
    decay_mult: 0
  }
  convolution_param {
    num_output: 4
    kernel_size: 1
    weight_filler {
      type: "gaussian"
      std: 0.01
    }
    bias_filler {
      type: "constant"
      value: 0
    }
  }
}

layer {
  name: "dir100_TL"
  type: "Convolution"
  bottom: "pool5/7x7_s1"
  top: "dir100_TL"
  param {
    lr_mult: 1
    decay_mult: 1
  }
  param {
    lr_mult: 2
    decay_mult: 0
  }
  convolution_param {
    num_output: 4
    kernel_size: 1
    weight_filler {
      type: "gaussian"
      std: 0.01
    }
    bias_filler {
      type: "constant"
      value: 0
    }
  }
}

layer {
  name: "dir100_BR"
  type: "Convolution"
  bottom: "pool5/7x7_s1"
  top: "dir100_BR"
  param {
    lr_mult: 1
    decay_mult: 1
  }
  param {
    lr_mult: 2
    decay_mult: 0
  }
  convolution_param {
    num_output: 4
    kernel_size: 1
    weight_filler {
      type: "gaussian"
      std: 0.01
    }
    bias_filler {
      type: "constant"
      value: 0
    }
  }
}

layer {
  name: "dir101_TL"
  type: "Convolution"
  bottom: "pool5/7x7_s1"
  top: "dir101_TL"
  param {
    lr_mult: 1
    decay_mult: 1
  }
  param {
    lr_mult: 2
    decay_mult: 0
  }
  convolution_param {
    num_output: 4
    kernel_size: 1
    weight_filler {
      type: "gaussian"
      std: 0.01
    }
    bias_filler {
      type: "constant"
      value: 0
    }
  }
}

layer {
  name: "dir101_BR"
  type: "Convolution"
  bottom: "pool5/7x7_s1"
  top: "dir101_BR"
  param {
    lr_mult: 1
    decay_mult: 1
  }
  param {
    lr_mult: 2
    decay_mult: 0
  }
  convolution_param {
    num_output: 4
    kernel_size: 1
    weight_filler {
      type: "gaussian"
      std: 0.01
    }
    bias_filler {
      type: "constant"
      value: 0
    }
  }
}

layer {
  name: "dir102_TL"
  type: "Convolution"
  bottom: "pool5/7x7_s1"
  top: "dir102_TL"
  param {
    lr_mult: 1
    decay_mult: 1
  }
  param {
    lr_mult: 2
    decay_mult: 0
  }
  convolution_param {
    num_output: 4
    kernel_size: 1
    weight_filler {
      type: "gaussian"
      std: 0.01
    }
    bias_filler {
      type: "constant"
      value: 0
    }
  }
}

layer {
  name: "dir102_BR"
  type: "Convolution"
  bottom: "pool5/7x7_s1"
  top: "dir102_BR"
  param {
    lr_mult: 1
    decay_mult: 1
  }
  param {
    lr_mult: 2
    decay_mult: 0
  }
  convolution_param {
    num_output: 4
    kernel_size: 1
    weight_filler {
      type: "gaussian"
      std: 0.01
    }
    bias_filler {
      type: "constant"
      value: 0
    }
  }
}

layer {
  name: "dir103_TL"
  type: "Convolution"
  bottom: "pool5/7x7_s1"
  top: "dir103_TL"
  param {
    lr_mult: 1
    decay_mult: 1
  }
  param {
    lr_mult: 2
    decay_mult: 0
  }
  convolution_param {
    num_output: 4
    kernel_size: 1
    weight_filler {
      type: "gaussian"
      std: 0.01
    }
    bias_filler {
      type: "constant"
      value: 0
    }
  }
}

layer {
  name: "dir103_BR"
  type: "Convolution"
  bottom: "pool5/7x7_s1"
  top: "dir103_BR"
  param {
    lr_mult: 1
    decay_mult: 1
  }
  param {
    lr_mult: 2
    decay_mult: 0
  }
  convolution_param {
    num_output: 4
    kernel_size: 1
    weight_filler {
      type: "gaussian"
      std: 0.01
    }
    bias_filler {
      type: "constant"
      value: 0
    }
  }
}

layer {
  name: "dir104_TL"
  type: "Convolution"
  bottom: "pool5/7x7_s1"
  top: "dir104_TL"
  param {
    lr_mult: 1
    decay_mult: 1
  }
  param {
    lr_mult: 2
    decay_mult: 0
  }
  convolution_param {
    num_output: 4
    kernel_size: 1
    weight_filler {
      type: "gaussian"
      std: 0.01
    }
    bias_filler {
      type: "constant"
      value: 0
    }
  }
}

layer {
  name: "dir104_BR"
  type: "Convolution"
  bottom: "pool5/7x7_s1"
  top: "dir104_BR"
  param {
    lr_mult: 1
    decay_mult: 1
  }
  param {
    lr_mult: 2
    decay_mult: 0
  }
  convolution_param {
    num_output: 4
    kernel_size: 1
    weight_filler {
      type: "gaussian"
      std: 0.01
    }
    bias_filler {
      type: "constant"
      value: 0
    }
  }
}

layer {
  name: "dir105_TL"
  type: "Convolution"
  bottom: "pool5/7x7_s1"
  top: "dir105_TL"
  param {
    lr_mult: 1
    decay_mult: 1
  }
  param {
    lr_mult: 2
    decay_mult: 0
  }
  convolution_param {
    num_output: 4
    kernel_size: 1
    weight_filler {
      type: "gaussian"
      std: 0.01
    }
    bias_filler {
      type: "constant"
      value: 0
    }
  }
}

layer {
  name: "dir105_BR"
  type: "Convolution"
  bottom: "pool5/7x7_s1"
  top: "dir105_BR"
  param {
    lr_mult: 1
    decay_mult: 1
  }
  param {
    lr_mult: 2
    decay_mult: 0
  }
  convolution_param {
    num_output: 4
    kernel_size: 1
    weight_filler {
      type: "gaussian"
      std: 0.01
    }
    bias_filler {
      type: "constant"
      value: 0
    }
  }
}

layer {
  name: "dir106_TL"
  type: "Convolution"
  bottom: "pool5/7x7_s1"
  top: "dir106_TL"
  param {
    lr_mult: 1
    decay_mult: 1
  }
  param {
    lr_mult: 2
    decay_mult: 0
  }
  convolution_param {
    num_output: 4
    kernel_size: 1
    weight_filler {
      type: "gaussian"
      std: 0.01
    }
    bias_filler {
      type: "constant"
      value: 0
    }
  }
}

layer {
  name: "dir106_BR"
  type: "Convolution"
  bottom: "pool5/7x7_s1"
  top: "dir106_BR"
  param {
    lr_mult: 1
    decay_mult: 1
  }
  param {
    lr_mult: 2
    decay_mult: 0
  }
  convolution_param {
    num_output: 4
    kernel_size: 1
    weight_filler {
      type: "gaussian"
      std: 0.01
    }
    bias_filler {
      type: "constant"
      value: 0
    }
  }
}

layer {
  name: "dir107_TL"
  type: "Convolution"
  bottom: "pool5/7x7_s1"
  top: "dir107_TL"
  param {
    lr_mult: 1
    decay_mult: 1
  }
  param {
    lr_mult: 2
    decay_mult: 0
  }
  convolution_param {
    num_output: 4
    kernel_size: 1
    weight_filler {
      type: "gaussian"
      std: 0.01
    }
    bias_filler {
      type: "constant"
      value: 0
    }
  }
}

layer {
  name: "dir107_BR"
  type: "Convolution"
  bottom: "pool5/7x7_s1"
  top: "dir107_BR"
  param {
    lr_mult: 1
    decay_mult: 1
  }
  param {
    lr_mult: 2
    decay_mult: 0
  }
  convolution_param {
    num_output: 4
    kernel_size: 1
    weight_filler {
      type: "gaussian"
      std: 0.01
    }
    bias_filler {
      type: "constant"
      value: 0
    }
  }
}

layer {
  name: "dir108_TL"
  type: "Convolution"
  bottom: "pool5/7x7_s1"
  top: "dir108_TL"
  param {
    lr_mult: 1
    decay_mult: 1
  }
  param {
    lr_mult: 2
    decay_mult: 0
  }
  convolution_param {
    num_output: 4
    kernel_size: 1
    weight_filler {
      type: "gaussian"
      std: 0.01
    }
    bias_filler {
      type: "constant"
      value: 0
    }
  }
}

layer {
  name: "dir108_BR"
  type: "Convolution"
  bottom: "pool5/7x7_s1"
  top: "dir108_BR"
  param {
    lr_mult: 1
    decay_mult: 1
  }
  param {
    lr_mult: 2
    decay_mult: 0
  }
  convolution_param {
    num_output: 4
    kernel_size: 1
    weight_filler {
      type: "gaussian"
      std: 0.01
    }
    bias_filler {
      type: "constant"
      value: 0
    }
  }
}

layer {
  name: "dir109_TL"
  type: "Convolution"
  bottom: "pool5/7x7_s1"
  top: "dir109_TL"
  param {
    lr_mult: 1
    decay_mult: 1
  }
  param {
    lr_mult: 2
    decay_mult: 0
  }
  convolution_param {
    num_output: 4
    kernel_size: 1
    weight_filler {
      type: "gaussian"
      std: 0.01
    }
    bias_filler {
      type: "constant"
      value: 0
    }
  }
}

layer {
  name: "dir109_BR"
  type: "Convolution"
  bottom: "pool5/7x7_s1"
  top: "dir109_BR"
  param {
    lr_mult: 1
    decay_mult: 1
  }
  param {
    lr_mult: 2
    decay_mult: 0
  }
  convolution_param {
    num_output: 4
    kernel_size: 1
    weight_filler {
      type: "gaussian"
      std: 0.01
    }
    bias_filler {
      type: "constant"
      value: 0
    }
  }
}

layer {
  name: "dir110_TL"
  type: "Convolution"
  bottom: "pool5/7x7_s1"
  top: "dir110_TL"
  param {
    lr_mult: 1
    decay_mult: 1
  }
  param {
    lr_mult: 2
    decay_mult: 0
  }
  convolution_param {
    num_output: 4
    kernel_size: 1
    weight_filler {
      type: "gaussian"
      std: 0.01
    }
    bias_filler {
      type: "constant"
      value: 0
    }
  }
}

layer {
  name: "dir110_BR"
  type: "Convolution"
  bottom: "pool5/7x7_s1"
  top: "dir110_BR"
  param {
    lr_mult: 1
    decay_mult: 1
  }
  param {
    lr_mult: 2
    decay_mult: 0
  }
  convolution_param {
    num_output: 4
    kernel_size: 1
    weight_filler {
      type: "gaussian"
      std: 0.01
    }
    bias_filler {
      type: "constant"
      value: 0
    }
  }
}

layer {
  name: "dir111_TL"
  type: "Convolution"
  bottom: "pool5/7x7_s1"
  top: "dir111_TL"
  param {
    lr_mult: 1
    decay_mult: 1
  }
  param {
    lr_mult: 2
    decay_mult: 0
  }
  convolution_param {
    num_output: 4
    kernel_size: 1
    weight_filler {
      type: "gaussian"
      std: 0.01
    }
    bias_filler {
      type: "constant"
      value: 0
    }
  }
}

layer {
  name: "dir111_BR"
  type: "Convolution"
  bottom: "pool5/7x7_s1"
  top: "dir111_BR"
  param {
    lr_mult: 1
    decay_mult: 1
  }
  param {
    lr_mult: 2
    decay_mult: 0
  }
  convolution_param {
    num_output: 4
    kernel_size: 1
    weight_filler {
      type: "gaussian"
      std: 0.01
    }
    bias_filler {
      type: "constant"
      value: 0
    }
  }
}

layer {
  name: "dir112_TL"
  type: "Convolution"
  bottom: "pool5/7x7_s1"
  top: "dir112_TL"
  param {
    lr_mult: 1
    decay_mult: 1
  }
  param {
    lr_mult: 2
    decay_mult: 0
  }
  convolution_param {
    num_output: 4
    kernel_size: 1
    weight_filler {
      type: "gaussian"
      std: 0.01
    }
    bias_filler {
      type: "constant"
      value: 0
    }
  }
}

layer {
  name: "dir112_BR"
  type: "Convolution"
  bottom: "pool5/7x7_s1"
  top: "dir112_BR"
  param {
    lr_mult: 1
    decay_mult: 1
  }
  param {
    lr_mult: 2
    decay_mult: 0
  }
  convolution_param {
    num_output: 4
    kernel_size: 1
    weight_filler {
      type: "gaussian"
      std: 0.01
    }
    bias_filler {
      type: "constant"
      value: 0
    }
  }
}

layer {
  name: "dir113_TL"
  type: "Convolution"
  bottom: "pool5/7x7_s1"
  top: "dir113_TL"
  param {
    lr_mult: 1
    decay_mult: 1
  }
  param {
    lr_mult: 2
    decay_mult: 0
  }
  convolution_param {
    num_output: 4
    kernel_size: 1
    weight_filler {
      type: "gaussian"
      std: 0.01
    }
    bias_filler {
      type: "constant"
      value: 0
    }
  }
}

layer {
  name: "dir113_BR"
  type: "Convolution"
  bottom: "pool5/7x7_s1"
  top: "dir113_BR"
  param {
    lr_mult: 1
    decay_mult: 1
  }
  param {
    lr_mult: 2
    decay_mult: 0
  }
  convolution_param {
    num_output: 4
    kernel_size: 1
    weight_filler {
      type: "gaussian"
      std: 0.01
    }
    bias_filler {
      type: "constant"
      value: 0
    }
  }
}

layer {
  name: "dir114_TL"
  type: "Convolution"
  bottom: "pool5/7x7_s1"
  top: "dir114_TL"
  param {
    lr_mult: 1
    decay_mult: 1
  }
  param {
    lr_mult: 2
    decay_mult: 0
  }
  convolution_param {
    num_output: 4
    kernel_size: 1
    weight_filler {
      type: "gaussian"
      std: 0.01
    }
    bias_filler {
      type: "constant"
      value: 0
    }
  }
}

layer {
  name: "dir114_BR"
  type: "Convolution"
  bottom: "pool5/7x7_s1"
  top: "dir114_BR"
  param {
    lr_mult: 1
    decay_mult: 1
  }
  param {
    lr_mult: 2
    decay_mult: 0
  }
  convolution_param {
    num_output: 4
    kernel_size: 1
    weight_filler {
      type: "gaussian"
      std: 0.01
    }
    bias_filler {
      type: "constant"
      value: 0
    }
  }
}

layer {
  name: "dir115_TL"
  type: "Convolution"
  bottom: "pool5/7x7_s1"
  top: "dir115_TL"
  param {
    lr_mult: 1
    decay_mult: 1
  }
  param {
    lr_mult: 2
    decay_mult: 0
  }
  convolution_param {
    num_output: 4
    kernel_size: 1
    weight_filler {
      type: "gaussian"
      std: 0.01
    }
    bias_filler {
      type: "constant"
      value: 0
    }
  }
}

layer {
  name: "dir115_BR"
  type: "Convolution"
  bottom: "pool5/7x7_s1"
  top: "dir115_BR"
  param {
    lr_mult: 1
    decay_mult: 1
  }
  param {
    lr_mult: 2
    decay_mult: 0
  }
  convolution_param {
    num_output: 4
    kernel_size: 1
    weight_filler {
      type: "gaussian"
      std: 0.01
    }
    bias_filler {
      type: "constant"
      value: 0
    }
  }
}

layer {
  name: "dir116_TL"
  type: "Convolution"
  bottom: "pool5/7x7_s1"
  top: "dir116_TL"
  param {
    lr_mult: 1
    decay_mult: 1
  }
  param {
    lr_mult: 2
    decay_mult: 0
  }
  convolution_param {
    num_output: 4
    kernel_size: 1
    weight_filler {
      type: "gaussian"
      std: 0.01
    }
    bias_filler {
      type: "constant"
      value: 0
    }
  }
}

layer {
  name: "dir116_BR"
  type: "Convolution"
  bottom: "pool5/7x7_s1"
  top: "dir116_BR"
  param {
    lr_mult: 1
    decay_mult: 1
  }
  param {
    lr_mult: 2
    decay_mult: 0
  }
  convolution_param {
    num_output: 4
    kernel_size: 1
    weight_filler {
      type: "gaussian"
      std: 0.01
    }
    bias_filler {
      type: "constant"
      value: 0
    }
  }
}

layer {
  name: "dir117_TL"
  type: "Convolution"
  bottom: "pool5/7x7_s1"
  top: "dir117_TL"
  param {
    lr_mult: 1
    decay_mult: 1
  }
  param {
    lr_mult: 2
    decay_mult: 0
  }
  convolution_param {
    num_output: 4
    kernel_size: 1
    weight_filler {
      type: "gaussian"
      std: 0.01
    }
    bias_filler {
      type: "constant"
      value: 0
    }
  }
}

layer {
  name: "dir117_BR"
  type: "Convolution"
  bottom: "pool5/7x7_s1"
  top: "dir117_BR"
  param {
    lr_mult: 1
    decay_mult: 1
  }
  param {
    lr_mult: 2
    decay_mult: 0
  }
  convolution_param {
    num_output: 4
    kernel_size: 1
    weight_filler {
      type: "gaussian"
      std: 0.01
    }
    bias_filler {
      type: "constant"
      value: 0
    }
  }
}

layer {
  name: "dir118_TL"
  type: "Convolution"
  bottom: "pool5/7x7_s1"
  top: "dir118_TL"
  param {
    lr_mult: 1
    decay_mult: 1
  }
  param {
    lr_mult: 2
    decay_mult: 0
  }
  convolution_param {
    num_output: 4
    kernel_size: 1
    weight_filler {
      type: "gaussian"
      std: 0.01
    }
    bias_filler {
      type: "constant"
      value: 0
    }
  }
}

layer {
  name: "dir118_BR"
  type: "Convolution"
  bottom: "pool5/7x7_s1"
  top: "dir118_BR"
  param {
    lr_mult: 1
    decay_mult: 1
  }
  param {
    lr_mult: 2
    decay_mult: 0
  }
  convolution_param {
    num_output: 4
    kernel_size: 1
    weight_filler {
      type: "gaussian"
      std: 0.01
    }
    bias_filler {
      type: "constant"
      value: 0
    }
  }
}

layer {
  name: "dir119_TL"
  type: "Convolution"
  bottom: "pool5/7x7_s1"
  top: "dir119_TL"
  param {
    lr_mult: 1
    decay_mult: 1
  }
  param {
    lr_mult: 2
    decay_mult: 0
  }
  convolution_param {
    num_output: 4
    kernel_size: 1
    weight_filler {
      type: "gaussian"
      std: 0.01
    }
    bias_filler {
      type: "constant"
      value: 0
    }
  }
}

layer {
  name: "dir119_BR"
  type: "Convolution"
  bottom: "pool5/7x7_s1"
  top: "dir119_BR"
  param {
    lr_mult: 1
    decay_mult: 1
  }
  param {
    lr_mult: 2
    decay_mult: 0
  }
  convolution_param {
    num_output: 4
    kernel_size: 1
    weight_filler {
      type: "gaussian"
      std: 0.01
    }
    bias_filler {
      type: "constant"
      value: 0
    }
  }
}

layer {
  name: "dir120_TL"
  type: "Convolution"
  bottom: "pool5/7x7_s1"
  top: "dir120_TL"
  param {
    lr_mult: 1
    decay_mult: 1
  }
  param {
    lr_mult: 2
    decay_mult: 0
  }
  convolution_param {
    num_output: 4
    kernel_size: 1
    weight_filler {
      type: "gaussian"
      std: 0.01
    }
    bias_filler {
      type: "constant"
      value: 0
    }
  }
}

layer {
  name: "dir120_BR"
  type: "Convolution"
  bottom: "pool5/7x7_s1"
  top: "dir120_BR"
  param {
    lr_mult: 1
    decay_mult: 1
  }
  param {
    lr_mult: 2
    decay_mult: 0
  }
  convolution_param {
    num_output: 4
    kernel_size: 1
    weight_filler {
      type: "gaussian"
      std: 0.01
    }
    bias_filler {
      type: "constant"
      value: 0
    }
  }
}

layer {
  name: "dir121_TL"
  type: "Convolution"
  bottom: "pool5/7x7_s1"
  top: "dir121_TL"
  param {
    lr_mult: 1
    decay_mult: 1
  }
  param {
    lr_mult: 2
    decay_mult: 0
  }
  convolution_param {
    num_output: 4
    kernel_size: 1
    weight_filler {
      type: "gaussian"
      std: 0.01
    }
    bias_filler {
      type: "constant"
      value: 0
    }
  }
}

layer {
  name: "dir121_BR"
  type: "Convolution"
  bottom: "pool5/7x7_s1"
  top: "dir121_BR"
  param {
    lr_mult: 1
    decay_mult: 1
  }
  param {
    lr_mult: 2
    decay_mult: 0
  }
  convolution_param {
    num_output: 4
    kernel_size: 1
    weight_filler {
      type: "gaussian"
      std: 0.01
    }
    bias_filler {
      type: "constant"
      value: 0
    }
  }
}

layer {
  name: "dir122_TL"
  type: "Convolution"
  bottom: "pool5/7x7_s1"
  top: "dir122_TL"
  param {
    lr_mult: 1
    decay_mult: 1
  }
  param {
    lr_mult: 2
    decay_mult: 0
  }
  convolution_param {
    num_output: 4
    kernel_size: 1
    weight_filler {
      type: "gaussian"
      std: 0.01
    }
    bias_filler {
      type: "constant"
      value: 0
    }
  }
}

layer {
  name: "dir122_BR"
  type: "Convolution"
  bottom: "pool5/7x7_s1"
  top: "dir122_BR"
  param {
    lr_mult: 1
    decay_mult: 1
  }
  param {
    lr_mult: 2
    decay_mult: 0
  }
  convolution_param {
    num_output: 4
    kernel_size: 1
    weight_filler {
      type: "gaussian"
      std: 0.01
    }
    bias_filler {
      type: "constant"
      value: 0
    }
  }
}

layer {
  name: "dir123_TL"
  type: "Convolution"
  bottom: "pool5/7x7_s1"
  top: "dir123_TL"
  param {
    lr_mult: 1
    decay_mult: 1
  }
  param {
    lr_mult: 2
    decay_mult: 0
  }
  convolution_param {
    num_output: 4
    kernel_size: 1
    weight_filler {
      type: "gaussian"
      std: 0.01
    }
    bias_filler {
      type: "constant"
      value: 0
    }
  }
}

layer {
  name: "dir123_BR"
  type: "Convolution"
  bottom: "pool5/7x7_s1"
  top: "dir123_BR"
  param {
    lr_mult: 1
    decay_mult: 1
  }
  param {
    lr_mult: 2
    decay_mult: 0
  }
  convolution_param {
    num_output: 4
    kernel_size: 1
    weight_filler {
      type: "gaussian"
      std: 0.01
    }
    bias_filler {
      type: "constant"
      value: 0
    }
  }
}

layer {
  name: "dir124_TL"
  type: "Convolution"
  bottom: "pool5/7x7_s1"
  top: "dir124_TL"
  param {
    lr_mult: 1
    decay_mult: 1
  }
  param {
    lr_mult: 2
    decay_mult: 0
  }
  convolution_param {
    num_output: 4
    kernel_size: 1
    weight_filler {
      type: "gaussian"
      std: 0.01
    }
    bias_filler {
      type: "constant"
      value: 0
    }
  }
}

layer {
  name: "dir124_BR"
  type: "Convolution"
  bottom: "pool5/7x7_s1"
  top: "dir124_BR"
  param {
    lr_mult: 1
    decay_mult: 1
  }
  param {
    lr_mult: 2
    decay_mult: 0
  }
  convolution_param {
    num_output: 4
    kernel_size: 1
    weight_filler {
      type: "gaussian"
      std: 0.01
    }
    bias_filler {
      type: "constant"
      value: 0
    }
  }
}

layer {
  name: "dir125_TL"
  type: "Convolution"
  bottom: "pool5/7x7_s1"
  top: "dir125_TL"
  param {
    lr_mult: 1
    decay_mult: 1
  }
  param {
    lr_mult: 2
    decay_mult: 0
  }
  convolution_param {
    num_output: 4
    kernel_size: 1
    weight_filler {
      type: "gaussian"
      std: 0.01
    }
    bias_filler {
      type: "constant"
      value: 0
    }
  }
}

layer {
  name: "dir125_BR"
  type: "Convolution"
  bottom: "pool5/7x7_s1"
  top: "dir125_BR"
  param {
    lr_mult: 1
    decay_mult: 1
  }
  param {
    lr_mult: 2
    decay_mult: 0
  }
  convolution_param {
    num_output: 4
    kernel_size: 1
    weight_filler {
      type: "gaussian"
      std: 0.01
    }
    bias_filler {
      type: "constant"
      value: 0
    }
  }
}

layer {
  name: "dir126_TL"
  type: "Convolution"
  bottom: "pool5/7x7_s1"
  top: "dir126_TL"
  param {
    lr_mult: 1
    decay_mult: 1
  }
  param {
    lr_mult: 2
    decay_mult: 0
  }
  convolution_param {
    num_output: 4
    kernel_size: 1
    weight_filler {
      type: "gaussian"
      std: 0.01
    }
    bias_filler {
      type: "constant"
      value: 0
    }
  }
}

layer {
  name: "dir126_BR"
  type: "Convolution"
  bottom: "pool5/7x7_s1"
  top: "dir126_BR"
  param {
    lr_mult: 1
    decay_mult: 1
  }
  param {
    lr_mult: 2
    decay_mult: 0
  }
  convolution_param {
    num_output: 4
    kernel_size: 1
    weight_filler {
      type: "gaussian"
      std: 0.01
    }
    bias_filler {
      type: "constant"
      value: 0
    }
  }
}

layer {
  name: "dir127_TL"
  type: "Convolution"
  bottom: "pool5/7x7_s1"
  top: "dir127_TL"
  param {
    lr_mult: 1
    decay_mult: 1
  }
  param {
    lr_mult: 2
    decay_mult: 0
  }
  convolution_param {
    num_output: 4
    kernel_size: 1
    weight_filler {
      type: "gaussian"
      std: 0.01
    }
    bias_filler {
      type: "constant"
      value: 0
    }
  }
}

layer {
  name: "dir127_BR"
  type: "Convolution"
  bottom: "pool5/7x7_s1"
  top: "dir127_BR"
  param {
    lr_mult: 1
    decay_mult: 1
  }
  param {
    lr_mult: 2
    decay_mult: 0
  }
  convolution_param {
    num_output: 4
    kernel_size: 1
    weight_filler {
      type: "gaussian"
      std: 0.01
    }
    bias_filler {
      type: "constant"
      value: 0
    }
  }
}

layer {
  name: "dir128_TL"
  type: "Convolution"
  bottom: "pool5/7x7_s1"
  top: "dir128_TL"
  param {
    lr_mult: 1
    decay_mult: 1
  }
  param {
    lr_mult: 2
    decay_mult: 0
  }
  convolution_param {
    num_output: 4
    kernel_size: 1
    weight_filler {
      type: "gaussian"
      std: 0.01
    }
    bias_filler {
      type: "constant"
      value: 0
    }
  }
}

layer {
  name: "dir128_BR"
  type: "Convolution"
  bottom: "pool5/7x7_s1"
  top: "dir128_BR"
  param {
    lr_mult: 1
    decay_mult: 1
  }
  param {
    lr_mult: 2
    decay_mult: 0
  }
  convolution_param {
    num_output: 4
    kernel_size: 1
    weight_filler {
      type: "gaussian"
      std: 0.01
    }
    bias_filler {
      type: "constant"
      value: 0
    }
  }
}

layer {
  name: "dir129_TL"
  type: "Convolution"
  bottom: "pool5/7x7_s1"
  top: "dir129_TL"
  param {
    lr_mult: 1
    decay_mult: 1
  }
  param {
    lr_mult: 2
    decay_mult: 0
  }
  convolution_param {
    num_output: 4
    kernel_size: 1
    weight_filler {
      type: "gaussian"
      std: 0.01
    }
    bias_filler {
      type: "constant"
      value: 0
    }
  }
}

layer {
  name: "dir129_BR"
  type: "Convolution"
  bottom: "pool5/7x7_s1"
  top: "dir129_BR"
  param {
    lr_mult: 1
    decay_mult: 1
  }
  param {
    lr_mult: 2
    decay_mult: 0
  }
  convolution_param {
    num_output: 4
    kernel_size: 1
    weight_filler {
      type: "gaussian"
      std: 0.01
    }
    bias_filler {
      type: "constant"
      value: 0
    }
  }
}

layer {
  name: "dir130_TL"
  type: "Convolution"
  bottom: "pool5/7x7_s1"
  top: "dir130_TL"
  param {
    lr_mult: 1
    decay_mult: 1
  }
  param {
    lr_mult: 2
    decay_mult: 0
  }
  convolution_param {
    num_output: 4
    kernel_size: 1
    weight_filler {
      type: "gaussian"
      std: 0.01
    }
    bias_filler {
      type: "constant"
      value: 0
    }
  }
}

layer {
  name: "dir130_BR"
  type: "Convolution"
  bottom: "pool5/7x7_s1"
  top: "dir130_BR"
  param {
    lr_mult: 1
    decay_mult: 1
  }
  param {
    lr_mult: 2
    decay_mult: 0
  }
  convolution_param {
    num_output: 4
    kernel_size: 1
    weight_filler {
      type: "gaussian"
      std: 0.01
    }
    bias_filler {
      type: "constant"
      value: 0
    }
  }
}

layer {
  name: "dir131_TL"
  type: "Convolution"
  bottom: "pool5/7x7_s1"
  top: "dir131_TL"
  param {
    lr_mult: 1
    decay_mult: 1
  }
  param {
    lr_mult: 2
    decay_mult: 0
  }
  convolution_param {
    num_output: 4
    kernel_size: 1
    weight_filler {
      type: "gaussian"
      std: 0.01
    }
    bias_filler {
      type: "constant"
      value: 0
    }
  }
}

layer {
  name: "dir131_BR"
  type: "Convolution"
  bottom: "pool5/7x7_s1"
  top: "dir131_BR"
  param {
    lr_mult: 1
    decay_mult: 1
  }
  param {
    lr_mult: 2
    decay_mult: 0
  }
  convolution_param {
    num_output: 4
    kernel_size: 1
    weight_filler {
      type: "gaussian"
      std: 0.01
    }
    bias_filler {
      type: "constant"
      value: 0
    }
  }
}

layer {
  name: "dir132_TL"
  type: "Convolution"
  bottom: "pool5/7x7_s1"
  top: "dir132_TL"
  param {
    lr_mult: 1
    decay_mult: 1
  }
  param {
    lr_mult: 2
    decay_mult: 0
  }
  convolution_param {
    num_output: 4
    kernel_size: 1
    weight_filler {
      type: "gaussian"
      std: 0.01
    }
    bias_filler {
      type: "constant"
      value: 0
    }
  }
}

layer {
  name: "dir132_BR"
  type: "Convolution"
  bottom: "pool5/7x7_s1"
  top: "dir132_BR"
  param {
    lr_mult: 1
    decay_mult: 1
  }
  param {
    lr_mult: 2
    decay_mult: 0
  }
  convolution_param {
    num_output: 4
    kernel_size: 1
    weight_filler {
      type: "gaussian"
      std: 0.01
    }
    bias_filler {
      type: "constant"
      value: 0
    }
  }
}

layer {
  name: "dir133_TL"
  type: "Convolution"
  bottom: "pool5/7x7_s1"
  top: "dir133_TL"
  param {
    lr_mult: 1
    decay_mult: 1
  }
  param {
    lr_mult: 2
    decay_mult: 0
  }
  convolution_param {
    num_output: 4
    kernel_size: 1
    weight_filler {
      type: "gaussian"
      std: 0.01
    }
    bias_filler {
      type: "constant"
      value: 0
    }
  }
}

layer {
  name: "dir133_BR"
  type: "Convolution"
  bottom: "pool5/7x7_s1"
  top: "dir133_BR"
  param {
    lr_mult: 1
    decay_mult: 1
  }
  param {
    lr_mult: 2
    decay_mult: 0
  }
  convolution_param {
    num_output: 4
    kernel_size: 1
    weight_filler {
      type: "gaussian"
      std: 0.01
    }
    bias_filler {
      type: "constant"
      value: 0
    }
  }
}

layer {
  name: "dir134_TL"
  type: "Convolution"
  bottom: "pool5/7x7_s1"
  top: "dir134_TL"
  param {
    lr_mult: 1
    decay_mult: 1
  }
  param {
    lr_mult: 2
    decay_mult: 0
  }
  convolution_param {
    num_output: 4
    kernel_size: 1
    weight_filler {
      type: "gaussian"
      std: 0.01
    }
    bias_filler {
      type: "constant"
      value: 0
    }
  }
}

layer {
  name: "dir134_BR"
  type: "Convolution"
  bottom: "pool5/7x7_s1"
  top: "dir134_BR"
  param {
    lr_mult: 1
    decay_mult: 1
  }
  param {
    lr_mult: 2
    decay_mult: 0
  }
  convolution_param {
    num_output: 4
    kernel_size: 1
    weight_filler {
      type: "gaussian"
      std: 0.01
    }
    bias_filler {
      type: "constant"
      value: 0
    }
  }
}

layer {
  name: "dir135_TL"
  type: "Convolution"
  bottom: "pool5/7x7_s1"
  top: "dir135_TL"
  param {
    lr_mult: 1
    decay_mult: 1
  }
  param {
    lr_mult: 2
    decay_mult: 0
  }
  convolution_param {
    num_output: 4
    kernel_size: 1
    weight_filler {
      type: "gaussian"
      std: 0.01
    }
    bias_filler {
      type: "constant"
      value: 0
    }
  }
}

layer {
  name: "dir135_BR"
  type: "Convolution"
  bottom: "pool5/7x7_s1"
  top: "dir135_BR"
  param {
    lr_mult: 1
    decay_mult: 1
  }
  param {
    lr_mult: 2
    decay_mult: 0
  }
  convolution_param {
    num_output: 4
    kernel_size: 1
    weight_filler {
      type: "gaussian"
      std: 0.01
    }
    bias_filler {
      type: "constant"
      value: 0
    }
  }
}

layer {
  name: "dir136_TL"
  type: "Convolution"
  bottom: "pool5/7x7_s1"
  top: "dir136_TL"
  param {
    lr_mult: 1
    decay_mult: 1
  }
  param {
    lr_mult: 2
    decay_mult: 0
  }
  convolution_param {
    num_output: 4
    kernel_size: 1
    weight_filler {
      type: "gaussian"
      std: 0.01
    }
    bias_filler {
      type: "constant"
      value: 0
    }
  }
}

layer {
  name: "dir136_BR"
  type: "Convolution"
  bottom: "pool5/7x7_s1"
  top: "dir136_BR"
  param {
    lr_mult: 1
    decay_mult: 1
  }
  param {
    lr_mult: 2
    decay_mult: 0
  }
  convolution_param {
    num_output: 4
    kernel_size: 1
    weight_filler {
      type: "gaussian"
      std: 0.01
    }
    bias_filler {
      type: "constant"
      value: 0
    }
  }
}

layer {
  name: "dir137_TL"
  type: "Convolution"
  bottom: "pool5/7x7_s1"
  top: "dir137_TL"
  param {
    lr_mult: 1
    decay_mult: 1
  }
  param {
    lr_mult: 2
    decay_mult: 0
  }
  convolution_param {
    num_output: 4
    kernel_size: 1
    weight_filler {
      type: "gaussian"
      std: 0.01
    }
    bias_filler {
      type: "constant"
      value: 0
    }
  }
}

layer {
  name: "dir137_BR"
  type: "Convolution"
  bottom: "pool5/7x7_s1"
  top: "dir137_BR"
  param {
    lr_mult: 1
    decay_mult: 1
  }
  param {
    lr_mult: 2
    decay_mult: 0
  }
  convolution_param {
    num_output: 4
    kernel_size: 1
    weight_filler {
      type: "gaussian"
      std: 0.01
    }
    bias_filler {
      type: "constant"
      value: 0
    }
  }
}

layer {
  name: "dir138_TL"
  type: "Convolution"
  bottom: "pool5/7x7_s1"
  top: "dir138_TL"
  param {
    lr_mult: 1
    decay_mult: 1
  }
  param {
    lr_mult: 2
    decay_mult: 0
  }
  convolution_param {
    num_output: 4
    kernel_size: 1
    weight_filler {
      type: "gaussian"
      std: 0.01
    }
    bias_filler {
      type: "constant"
      value: 0
    }
  }
}

layer {
  name: "dir138_BR"
  type: "Convolution"
  bottom: "pool5/7x7_s1"
  top: "dir138_BR"
  param {
    lr_mult: 1
    decay_mult: 1
  }
  param {
    lr_mult: 2
    decay_mult: 0
  }
  convolution_param {
    num_output: 4
    kernel_size: 1
    weight_filler {
      type: "gaussian"
      std: 0.01
    }
    bias_filler {
      type: "constant"
      value: 0
    }
  }
}

layer {
  name: "dir139_TL"
  type: "Convolution"
  bottom: "pool5/7x7_s1"
  top: "dir139_TL"
  param {
    lr_mult: 1
    decay_mult: 1
  }
  param {
    lr_mult: 2
    decay_mult: 0
  }
  convolution_param {
    num_output: 4
    kernel_size: 1
    weight_filler {
      type: "gaussian"
      std: 0.01
    }
    bias_filler {
      type: "constant"
      value: 0
    }
  }
}

layer {
  name: "dir139_BR"
  type: "Convolution"
  bottom: "pool5/7x7_s1"
  top: "dir139_BR"
  param {
    lr_mult: 1
    decay_mult: 1
  }
  param {
    lr_mult: 2
    decay_mult: 0
  }
  convolution_param {
    num_output: 4
    kernel_size: 1
    weight_filler {
      type: "gaussian"
      std: 0.01
    }
    bias_filler {
      type: "constant"
      value: 0
    }
  }
}

layer {
  name: "dir140_TL"
  type: "Convolution"
  bottom: "pool5/7x7_s1"
  top: "dir140_TL"
  param {
    lr_mult: 1
    decay_mult: 1
  }
  param {
    lr_mult: 2
    decay_mult: 0
  }
  convolution_param {
    num_output: 4
    kernel_size: 1
    weight_filler {
      type: "gaussian"
      std: 0.01
    }
    bias_filler {
      type: "constant"
      value: 0
    }
  }
}

layer {
  name: "dir140_BR"
  type: "Convolution"
  bottom: "pool5/7x7_s1"
  top: "dir140_BR"
  param {
    lr_mult: 1
    decay_mult: 1
  }
  param {
    lr_mult: 2
    decay_mult: 0
  }
  convolution_param {
    num_output: 4
    kernel_size: 1
    weight_filler {
      type: "gaussian"
      std: 0.01
    }
    bias_filler {
      type: "constant"
      value: 0
    }
  }
}

layer {
  name: "dir141_TL"
  type: "Convolution"
  bottom: "pool5/7x7_s1"
  top: "dir141_TL"
  param {
    lr_mult: 1
    decay_mult: 1
  }
  param {
    lr_mult: 2
    decay_mult: 0
  }
  convolution_param {
    num_output: 4
    kernel_size: 1
    weight_filler {
      type: "gaussian"
      std: 0.01
    }
    bias_filler {
      type: "constant"
      value: 0
    }
  }
}

layer {
  name: "dir141_BR"
  type: "Convolution"
  bottom: "pool5/7x7_s1"
  top: "dir141_BR"
  param {
    lr_mult: 1
    decay_mult: 1
  }
  param {
    lr_mult: 2
    decay_mult: 0
  }
  convolution_param {
    num_output: 4
    kernel_size: 1
    weight_filler {
      type: "gaussian"
      std: 0.01
    }
    bias_filler {
      type: "constant"
      value: 0
    }
  }
}

layer {
  name: "dir142_TL"
  type: "Convolution"
  bottom: "pool5/7x7_s1"
  top: "dir142_TL"
  param {
    lr_mult: 1
    decay_mult: 1
  }
  param {
    lr_mult: 2
    decay_mult: 0
  }
  convolution_param {
    num_output: 4
    kernel_size: 1
    weight_filler {
      type: "gaussian"
      std: 0.01
    }
    bias_filler {
      type: "constant"
      value: 0
    }
  }
}

layer {
  name: "dir142_BR"
  type: "Convolution"
  bottom: "pool5/7x7_s1"
  top: "dir142_BR"
  param {
    lr_mult: 1
    decay_mult: 1
  }
  param {
    lr_mult: 2
    decay_mult: 0
  }
  convolution_param {
    num_output: 4
    kernel_size: 1
    weight_filler {
      type: "gaussian"
      std: 0.01
    }
    bias_filler {
      type: "constant"
      value: 0
    }
  }
}

layer {
  name: "dir143_TL"
  type: "Convolution"
  bottom: "pool5/7x7_s1"
  top: "dir143_TL"
  param {
    lr_mult: 1
    decay_mult: 1
  }
  param {
    lr_mult: 2
    decay_mult: 0
  }
  convolution_param {
    num_output: 4
    kernel_size: 1
    weight_filler {
      type: "gaussian"
      std: 0.01
    }
    bias_filler {
      type: "constant"
      value: 0
    }
  }
}

layer {
  name: "dir143_BR"
  type: "Convolution"
  bottom: "pool5/7x7_s1"
  top: "dir143_BR"
  param {
    lr_mult: 1
    decay_mult: 1
  }
  param {
    lr_mult: 2
    decay_mult: 0
  }
  convolution_param {
    num_output: 4
    kernel_size: 1
    weight_filler {
      type: "gaussian"
      std: 0.01
    }
    bias_filler {
      type: "constant"
      value: 0
    }
  }
}

layer {
  name: "dir144_TL"
  type: "Convolution"
  bottom: "pool5/7x7_s1"
  top: "dir144_TL"
  param {
    lr_mult: 1
    decay_mult: 1
  }
  param {
    lr_mult: 2
    decay_mult: 0
  }
  convolution_param {
    num_output: 4
    kernel_size: 1
    weight_filler {
      type: "gaussian"
      std: 0.01
    }
    bias_filler {
      type: "constant"
      value: 0
    }
  }
}

layer {
  name: "dir144_BR"
  type: "Convolution"
  bottom: "pool5/7x7_s1"
  top: "dir144_BR"
  param {
    lr_mult: 1
    decay_mult: 1
  }
  param {
    lr_mult: 2
    decay_mult: 0
  }
  convolution_param {
    num_output: 4
    kernel_size: 1
    weight_filler {
      type: "gaussian"
      std: 0.01
    }
    bias_filler {
      type: "constant"
      value: 0
    }
  }
}

layer {
  name: "dir145_TL"
  type: "Convolution"
  bottom: "pool5/7x7_s1"
  top: "dir145_TL"
  param {
    lr_mult: 1
    decay_mult: 1
  }
  param {
    lr_mult: 2
    decay_mult: 0
  }
  convolution_param {
    num_output: 4
    kernel_size: 1
    weight_filler {
      type: "gaussian"
      std: 0.01
    }
    bias_filler {
      type: "constant"
      value: 0
    }
  }
}

layer {
  name: "dir145_BR"
  type: "Convolution"
  bottom: "pool5/7x7_s1"
  top: "dir145_BR"
  param {
    lr_mult: 1
    decay_mult: 1
  }
  param {
    lr_mult: 2
    decay_mult: 0
  }
  convolution_param {
    num_output: 4
    kernel_size: 1
    weight_filler {
      type: "gaussian"
      std: 0.01
    }
    bias_filler {
      type: "constant"
      value: 0
    }
  }
}

layer {
  name: "dir146_TL"
  type: "Convolution"
  bottom: "pool5/7x7_s1"
  top: "dir146_TL"
  param {
    lr_mult: 1
    decay_mult: 1
  }
  param {
    lr_mult: 2
    decay_mult: 0
  }
  convolution_param {
    num_output: 4
    kernel_size: 1
    weight_filler {
      type: "gaussian"
      std: 0.01
    }
    bias_filler {
      type: "constant"
      value: 0
    }
  }
}

layer {
  name: "dir146_BR"
  type: "Convolution"
  bottom: "pool5/7x7_s1"
  top: "dir146_BR"
  param {
    lr_mult: 1
    decay_mult: 1
  }
  param {
    lr_mult: 2
    decay_mult: 0
  }
  convolution_param {
    num_output: 4
    kernel_size: 1
    weight_filler {
      type: "gaussian"
      std: 0.01
    }
    bias_filler {
      type: "constant"
      value: 0
    }
  }
}

layer {
  name: "dir147_TL"
  type: "Convolution"
  bottom: "pool5/7x7_s1"
  top: "dir147_TL"
  param {
    lr_mult: 1
    decay_mult: 1
  }
  param {
    lr_mult: 2
    decay_mult: 0
  }
  convolution_param {
    num_output: 4
    kernel_size: 1
    weight_filler {
      type: "gaussian"
      std: 0.01
    }
    bias_filler {
      type: "constant"
      value: 0
    }
  }
}

layer {
  name: "dir147_BR"
  type: "Convolution"
  bottom: "pool5/7x7_s1"
  top: "dir147_BR"
  param {
    lr_mult: 1
    decay_mult: 1
  }
  param {
    lr_mult: 2
    decay_mult: 0
  }
  convolution_param {
    num_output: 4
    kernel_size: 1
    weight_filler {
      type: "gaussian"
      std: 0.01
    }
    bias_filler {
      type: "constant"
      value: 0
    }
  }
}

layer {
  name: "dir148_TL"
  type: "Convolution"
  bottom: "pool5/7x7_s1"
  top: "dir148_TL"
  param {
    lr_mult: 1
    decay_mult: 1
  }
  param {
    lr_mult: 2
    decay_mult: 0
  }
  convolution_param {
    num_output: 4
    kernel_size: 1
    weight_filler {
      type: "gaussian"
      std: 0.01
    }
    bias_filler {
      type: "constant"
      value: 0
    }
  }
}

layer {
  name: "dir148_BR"
  type: "Convolution"
  bottom: "pool5/7x7_s1"
  top: "dir148_BR"
  param {
    lr_mult: 1
    decay_mult: 1
  }
  param {
    lr_mult: 2
    decay_mult: 0
  }
  convolution_param {
    num_output: 4
    kernel_size: 1
    weight_filler {
      type: "gaussian"
      std: 0.01
    }
    bias_filler {
      type: "constant"
      value: 0
    }
  }
}

layer {
  name: "dir149_TL"
  type: "Convolution"
  bottom: "pool5/7x7_s1"
  top: "dir149_TL"
  param {
    lr_mult: 1
    decay_mult: 1
  }
  param {
    lr_mult: 2
    decay_mult: 0
  }
  convolution_param {
    num_output: 4
    kernel_size: 1
    weight_filler {
      type: "gaussian"
      std: 0.01
    }
    bias_filler {
      type: "constant"
      value: 0
    }
  }
}

layer {
  name: "dir149_BR"
  type: "Convolution"
  bottom: "pool5/7x7_s1"
  top: "dir149_BR"
  param {
    lr_mult: 1
    decay_mult: 1
  }
  param {
    lr_mult: 2
    decay_mult: 0
  }
  convolution_param {
    num_output: 4
    kernel_size: 1
    weight_filler {
      type: "gaussian"
      std: 0.01
    }
    bias_filler {
      type: "constant"
      value: 0
    }
  }
}

layer {
  name: "dir150_TL"
  type: "Convolution"
  bottom: "pool5/7x7_s1"
  top: "dir150_TL"
  param {
    lr_mult: 1
    decay_mult: 1
  }
  param {
    lr_mult: 2
    decay_mult: 0
  }
  convolution_param {
    num_output: 4
    kernel_size: 1
    weight_filler {
      type: "gaussian"
      std: 0.01
    }
    bias_filler {
      type: "constant"
      value: 0
    }
  }
}

layer {
  name: "dir150_BR"
  type: "Convolution"
  bottom: "pool5/7x7_s1"
  top: "dir150_BR"
  param {
    lr_mult: 1
    decay_mult: 1
  }
  param {
    lr_mult: 2
    decay_mult: 0
  }
  convolution_param {
    num_output: 4
    kernel_size: 1
    weight_filler {
      type: "gaussian"
      std: 0.01
    }
    bias_filler {
      type: "constant"
      value: 0
    }
  }
}

layer {
  name: "dir151_TL"
  type: "Convolution"
  bottom: "pool5/7x7_s1"
  top: "dir151_TL"
  param {
    lr_mult: 1
    decay_mult: 1
  }
  param {
    lr_mult: 2
    decay_mult: 0
  }
  convolution_param {
    num_output: 4
    kernel_size: 1
    weight_filler {
      type: "gaussian"
      std: 0.01
    }
    bias_filler {
      type: "constant"
      value: 0
    }
  }
}

layer {
  name: "dir151_BR"
  type: "Convolution"
  bottom: "pool5/7x7_s1"
  top: "dir151_BR"
  param {
    lr_mult: 1
    decay_mult: 1
  }
  param {
    lr_mult: 2
    decay_mult: 0
  }
  convolution_param {
    num_output: 4
    kernel_size: 1
    weight_filler {
      type: "gaussian"
      std: 0.01
    }
    bias_filler {
      type: "constant"
      value: 0
    }
  }
}

layer {
  name: "dir152_TL"
  type: "Convolution"
  bottom: "pool5/7x7_s1"
  top: "dir152_TL"
  param {
    lr_mult: 1
    decay_mult: 1
  }
  param {
    lr_mult: 2
    decay_mult: 0
  }
  convolution_param {
    num_output: 4
    kernel_size: 1
    weight_filler {
      type: "gaussian"
      std: 0.01
    }
    bias_filler {
      type: "constant"
      value: 0
    }
  }
}

layer {
  name: "dir152_BR"
  type: "Convolution"
  bottom: "pool5/7x7_s1"
  top: "dir152_BR"
  param {
    lr_mult: 1
    decay_mult: 1
  }
  param {
    lr_mult: 2
    decay_mult: 0
  }
  convolution_param {
    num_output: 4
    kernel_size: 1
    weight_filler {
      type: "gaussian"
      std: 0.01
    }
    bias_filler {
      type: "constant"
      value: 0
    }
  }
}

layer {
  name: "dir153_TL"
  type: "Convolution"
  bottom: "pool5/7x7_s1"
  top: "dir153_TL"
  param {
    lr_mult: 1
    decay_mult: 1
  }
  param {
    lr_mult: 2
    decay_mult: 0
  }
  convolution_param {
    num_output: 4
    kernel_size: 1
    weight_filler {
      type: "gaussian"
      std: 0.01
    }
    bias_filler {
      type: "constant"
      value: 0
    }
  }
}

layer {
  name: "dir153_BR"
  type: "Convolution"
  bottom: "pool5/7x7_s1"
  top: "dir153_BR"
  param {
    lr_mult: 1
    decay_mult: 1
  }
  param {
    lr_mult: 2
    decay_mult: 0
  }
  convolution_param {
    num_output: 4
    kernel_size: 1
    weight_filler {
      type: "gaussian"
      std: 0.01
    }
    bias_filler {
      type: "constant"
      value: 0
    }
  }
}

layer {
  name: "dir154_TL"
  type: "Convolution"
  bottom: "pool5/7x7_s1"
  top: "dir154_TL"
  param {
    lr_mult: 1
    decay_mult: 1
  }
  param {
    lr_mult: 2
    decay_mult: 0
  }
  convolution_param {
    num_output: 4
    kernel_size: 1
    weight_filler {
      type: "gaussian"
      std: 0.01
    }
    bias_filler {
      type: "constant"
      value: 0
    }
  }
}

layer {
  name: "dir154_BR"
  type: "Convolution"
  bottom: "pool5/7x7_s1"
  top: "dir154_BR"
  param {
    lr_mult: 1
    decay_mult: 1
  }
  param {
    lr_mult: 2
    decay_mult: 0
  }
  convolution_param {
    num_output: 4
    kernel_size: 1
    weight_filler {
      type: "gaussian"
      std: 0.01
    }
    bias_filler {
      type: "constant"
      value: 0
    }
  }
}

layer {
  name: "dir155_TL"
  type: "Convolution"
  bottom: "pool5/7x7_s1"
  top: "dir155_TL"
  param {
    lr_mult: 1
    decay_mult: 1
  }
  param {
    lr_mult: 2
    decay_mult: 0
  }
  convolution_param {
    num_output: 4
    kernel_size: 1
    weight_filler {
      type: "gaussian"
      std: 0.01
    }
    bias_filler {
      type: "constant"
      value: 0
    }
  }
}

layer {
  name: "dir155_BR"
  type: "Convolution"
  bottom: "pool5/7x7_s1"
  top: "dir155_BR"
  param {
    lr_mult: 1
    decay_mult: 1
  }
  param {
    lr_mult: 2
    decay_mult: 0
  }
  convolution_param {
    num_output: 4
    kernel_size: 1
    weight_filler {
      type: "gaussian"
      std: 0.01
    }
    bias_filler {
      type: "constant"
      value: 0
    }
  }
}

layer {
  name: "dir156_TL"
  type: "Convolution"
  bottom: "pool5/7x7_s1"
  top: "dir156_TL"
  param {
    lr_mult: 1
    decay_mult: 1
  }
  param {
    lr_mult: 2
    decay_mult: 0
  }
  convolution_param {
    num_output: 4
    kernel_size: 1
    weight_filler {
      type: "gaussian"
      std: 0.01
    }
    bias_filler {
      type: "constant"
      value: 0
    }
  }
}

layer {
  name: "dir156_BR"
  type: "Convolution"
  bottom: "pool5/7x7_s1"
  top: "dir156_BR"
  param {
    lr_mult: 1
    decay_mult: 1
  }
  param {
    lr_mult: 2
    decay_mult: 0
  }
  convolution_param {
    num_output: 4
    kernel_size: 1
    weight_filler {
      type: "gaussian"
      std: 0.01
    }
    bias_filler {
      type: "constant"
      value: 0
    }
  }
}

layer {
  name: "dir157_TL"
  type: "Convolution"
  bottom: "pool5/7x7_s1"
  top: "dir157_TL"
  param {
    lr_mult: 1
    decay_mult: 1
  }
  param {
    lr_mult: 2
    decay_mult: 0
  }
  convolution_param {
    num_output: 4
    kernel_size: 1
    weight_filler {
      type: "gaussian"
      std: 0.01
    }
    bias_filler {
      type: "constant"
      value: 0
    }
  }
}

layer {
  name: "dir157_BR"
  type: "Convolution"
  bottom: "pool5/7x7_s1"
  top: "dir157_BR"
  param {
    lr_mult: 1
    decay_mult: 1
  }
  param {
    lr_mult: 2
    decay_mult: 0
  }
  convolution_param {
    num_output: 4
    kernel_size: 1
…
  type: "Softmax"
  bottom: "dir728_BR"
  top: "prob728_BR"
}

layer {
  name: "prob729_TL"
  type: "Softmax"
  bottom: "dir729_TL"
  top: "prob729_TL"
}

layer {
  name: "prob729_BR"
  type: "Softmax"
  bottom: "dir729_BR"
  top: "prob729_BR"
}

layer {
  name: "prob730_TL"
  type: "Softmax"
  bottom: "dir730_TL"
  top: "prob730_TL"
}

layer {
  name: "prob730_BR"
  type: "Softmax"
  bottom: "dir730_BR"
  top: "prob730_BR"
}

layer {
  name: "prob731_TL"
  type: "Softmax"
  bottom: "dir731_TL"
  top: "prob731_TL"
}

layer {
  name: "prob731_BR"
  type: "Softmax"
  bottom: "dir731_BR"
  top: "prob731_BR"
}

layer {
  name: "prob732_TL"
  type: "Softmax"
  bottom: "dir732_TL"
  top: "prob732_TL"
}

layer {
  name: "prob732_BR"
  type: "Softmax"
  bottom: "dir732_BR"
  top: "prob732_BR"
}

layer {
  name: "prob733_TL"
  type: "Softmax"
  bottom: "dir733_TL"
  top: "prob733_TL"
}

layer {
  name: "prob733_BR"
  type: "Softmax"
  bottom: "dir733_BR"
  top: "prob733_BR"
}

layer {
  name: "prob734_TL"
  type: "Softmax"
  bottom: "dir734_TL"
  top: "prob734_TL"
}

layer {
  name: "prob734_BR"
  type: "Softmax"
  bottom: "dir734_BR"
  top: "prob734_BR"
}

layer {
  name: "prob735_TL"
  type: "Softmax"
  bottom: "dir735_TL"
  top: "prob735_TL"
}

layer {
  name: "prob735_BR"
  type: "Softmax"
  bottom: "dir735_BR"
  top: "prob735_BR"
}

layer {
  name: "prob736_TL"
  type: "Softmax"
  bottom: "dir736_TL"
  top: "prob736_TL"
}

layer {
  name: "prob736_BR"
  type: "Softmax"
  bottom: "dir736_BR"
  top: "prob736_BR"
}

layer {
  name: "prob737_TL"
  type: "Softmax"
  bottom: "dir737_TL"
  top: "prob737_TL"
}

layer {
  name: "prob737_BR"
  type: "Softmax"
  bottom: "dir737_BR"
  top: "prob737_BR"
}

layer {
  name: "prob738_TL"
  type: "Softmax"
  bottom: "dir738_TL"
  top: "prob738_TL"
}

layer {
  name: "prob738_BR"
  type: "Softmax"
  bottom: "dir738_BR"
  top: "prob738_BR"
}

layer {
  name: "prob739_TL"
  type: "Softmax"
  bottom: "dir739_TL"
  top: "prob739_TL"
}

layer {
  name: "prob739_BR"
  type: "Softmax"
  bottom: "dir739_BR"
  top: "prob739_BR"
}

layer {
  name: "prob740_TL"
  type: "Softmax"
  bottom: "dir740_TL"
  top: "prob740_TL"
}

layer {
  name: "prob740_BR"
  type: "Softmax"
  bottom: "dir740_BR"
  top: "prob740_BR"
}

layer {
  name: "prob741_TL"
  type: "Softmax"
  bottom: "dir741_TL"
  top: "prob741_TL"
}

layer {
  name: "prob741_BR"
  type: "Softmax"
  bottom: "dir741_BR"
  top: "prob741_BR"
}

layer {
  name: "prob742_TL"
  type: "Softmax"
  bottom: "dir742_TL"
  top: "prob742_TL"
}

layer {
  name: "prob742_BR"
  type: "Softmax"
  bottom: "dir742_BR"
  top: "prob742_BR"
}

layer {
  name: "prob743_TL"
  type: "Softmax"
  bottom: "dir743_TL"
  top: "prob743_TL"
}

layer {
  name: "prob743_BR"
  type: "Softmax"
  bottom: "dir743_BR"
  top: "prob743_BR"
}

layer {
  name: "prob744_TL"
  type: "Softmax"
  bottom: "dir744_TL"
  top: "prob744_TL"
}

layer {
  name: "prob744_BR"
  type: "Softmax"
  bottom: "dir744_BR"
  top: "prob744_BR"
}

layer {
  name: "prob745_TL"
  type: "Softmax"
  bottom: "dir745_TL"
  top: "prob745_TL"
}

layer {
  name: "prob745_BR"
  type: "Softmax"
  bottom: "dir745_BR"
  top: "prob745_BR"
}

layer {
  name: "prob746_TL"
  type: "Softmax"
  bottom: "dir746_TL"
  top: "prob746_TL"
}

layer {
  name: "prob746_BR"
  type: "Softmax"
  bottom: "dir746_BR"
  top: "prob746_BR"
}

layer {
  name: "prob747_TL"
  type: "Softmax"
  bottom: "dir747_TL"
  top: "prob747_TL"
}

layer {
  name: "prob747_BR"
  type: "Softmax"
  bottom: "dir747_BR"
  top: "prob747_BR"
}

layer {
  name: "prob748_TL"
  type: "Softmax"
  bottom: "dir748_TL"
  top: "prob748_TL"
}

layer {
  name: "prob748_BR"
  type: "Softmax"
  bottom: "dir748_BR"
  top: "prob748_BR"
}

layer {
  name: "prob749_TL"
  type: "Softmax"
  bottom: "dir749_TL"
  top: "prob749_TL"
}

layer {
  name: "prob749_BR"
  type: "Softmax"
  bottom: "dir749_BR"
  top: "prob749_BR"
}

layer {
  name: "prob750_TL"
  type: "Softmax"
  bottom: "dir750_TL"
  top: "prob750_TL"
}

layer {
  name: "prob750_BR"
  type: "Softmax"
  bottom: "dir750_BR"
  top: "prob750_BR"
}

layer {
  name: "prob751_TL"
  type: "Softmax"
  bottom: "dir751_TL"
  top: "prob751_TL"
}

layer {
  name: "prob751_BR"
  type: "Softmax"
  bottom: "dir751_BR"
  top: "prob751_BR"
}

layer {
  name: "prob752_TL"
  type: "Softmax"
  bottom: "dir752_TL"
  top: "prob752_TL"
}

layer {
  name: "prob752_BR"
  type: "Softmax"
  bottom: "dir752_BR"
  top: "prob752_BR"
}

layer {
  name: "prob753_TL"
  type: "Softmax"
  bottom: "dir753_TL"
  top: "prob753_TL"
}

layer {
  name: "prob753_BR"
  type: "Softmax"
  bottom: "dir753_BR"
  top: "prob753_BR"
}

layer {
  name: "prob754_TL"
  type: "Softmax"
  bottom: "dir754_TL"
  top: "prob754_TL"
}

layer {
  name: "prob754_BR"
  type: "Softmax"
  bottom: "dir754_BR"
  top: "prob754_BR"
}

layer {
  name: "prob755_TL"
  type: "Softmax"
  bottom: "dir755_TL"
  top: "prob755_TL"
}

layer {
  name: "prob755_BR"
  type: "Softmax"
  bottom: "dir755_BR"
  top: "prob755_BR"
}

layer {
  name: "prob756_TL"
  type: "Softmax"
  bottom: "dir756_TL"
  top: "prob756_TL"
}

layer {
  name: "prob756_BR"
  type: "Softmax"
  bottom: "dir756_BR"
  top: "prob756_BR"
}

layer {
  name: "prob757_TL"
  type: "Softmax"
  bottom: "dir757_TL"
  top: "prob757_TL"
}

layer {
  name: "prob757_BR"
  type: "Softmax"
  bottom: "dir757_BR"
  top: "prob757_BR"
}

layer {
  name: "prob758_TL"
  type: "Softmax"
  bottom: "dir758_TL"
  top: "prob758_TL"
}

layer {
  name: "prob758_BR"
  type: "Softmax"
  bottom: "dir758_BR"
  top: "prob758_BR"
}

layer {
  name: "prob759_TL"
  type: "Softmax"
  bottom: "dir759_TL"
  top: "prob759_TL"
}

layer {
  name: "prob759_BR"
  type: "Softmax"
  bottom: "dir759_BR"
  top: "prob759_BR"
}

layer {
  name: "prob760_TL"
  type: "Softmax"
  bottom: "dir760_TL"
  top: "prob760_TL"
}

layer {
  name: "prob760_BR"
  type: "Softmax"
  bottom: "dir760_BR"
  top: "prob760_BR"
}

layer {
  name: "prob761_TL"
  type: "Softmax"
  bottom: "dir761_TL"
  top: "prob761_TL"
}

layer {
  name: "prob761_BR"
  type: "Softmax"
  bottom: "dir761_BR"
  top: "prob761_BR"
}

layer {
  name: "prob762_TL"
  type: "Softmax"
  bottom: "dir762_TL"
  top: "prob762_TL"
}

layer {
  name: "prob762_BR"
  type: "Softmax"
  bottom: "dir762_BR"
  top: "prob762_BR"
}

layer {
  name: "prob763_TL"
  type: "Softmax"
  bottom: "dir763_TL"
  top: "prob763_TL"
}

layer {
  name: "prob763_BR"
  type: "Softmax"
  bottom: "dir763_BR"
  top: "prob763_BR"
}

layer {
  name: "prob764_TL"
  type: "Softmax"
  bottom: "dir764_TL"
  top: "prob764_TL"
}

layer {
  name: "prob764_BR"
  type: "Softmax"
  bottom: "dir764_BR"
  top: "prob764_BR"
}

layer {
  name: "prob765_TL"
  type: "Softmax"
  bottom: "dir765_TL"
  top: "prob765_TL"
}

layer {
  name: "prob765_BR"
  type: "Softmax"
  bottom: "dir765_BR"
  top: "prob765_BR"
}

layer {
  name: "prob766_TL"
  type: "Softmax"
  bottom: "dir766_TL"
  top: "prob766_TL"
}

layer {
  name: "prob766_BR"
  type: "Softmax"
  bottom: "dir766_BR"
  top: "prob766_BR"
}

layer {
  name: "prob767_TL"
  type: "Softmax"
  bottom: "dir767_TL"
  top: "prob767_TL"
}

layer {
  name: "prob767_BR"
  type: "Softmax"
  bottom: "dir767_BR"
  top: "prob767_BR"
}

layer {
  name: "prob768_TL"
  type: "Softmax"
  bottom: "dir768_TL"
  top: "prob768_TL"
}

layer {
  name: "prob768_BR"
  type: "Softmax"
  bottom: "dir768_BR"
  top: "prob768_BR"
}

layer {
  name: "prob769_TL"
  type: "Softmax"
  bottom: "dir769_TL"
  top: "prob769_TL"
}

layer {
  name: "prob769_BR"
  type: "Softmax"
  bottom: "dir769_BR"
  top: "prob769_BR"
}

layer {
  name: "prob770_TL"
  type: "Softmax"
  bottom: "dir770_TL"
  top: "prob770_TL"
}

layer {
  name: "prob770_BR"
  type: "Softmax"
  bottom: "dir770_BR"
  top: "prob770_BR"
}

layer {
  name: "prob771_TL"
  type: "Softmax"
  bottom: "dir771_TL"
  top: "prob771_TL"
}

layer {
  name: "prob771_BR"
  type: "Softmax"
  bottom: "dir771_BR"
  top: "prob771_BR"
}

layer {
  name: "prob772_TL"
  type: "Softmax"
  bottom: "dir772_TL"
  top: "prob772_TL"
}

layer {
  name: "prob772_BR"
  type: "Softmax"
  bottom: "dir772_BR"
  top: "prob772_BR"
}

layer {
  name: "prob773_TL"
  type: "Softmax"
  bottom: "dir773_TL"
  top: "prob773_TL"
}

layer {
  name: "prob773_BR"
  type: "Softmax"
  bottom: "dir773_BR"
  top: "prob773_BR"
}

layer {
  name: "prob774_TL"
  type: "Softmax"
  bottom: "dir774_TL"
  top: "prob774_TL"
}

layer {
  name: "prob774_BR"
  type: "Softmax"
  bottom: "dir774_BR"
  top: "prob774_BR"
}

layer {
  name: "prob775_TL"
  type: "Softmax"
  bottom: "dir775_TL"
  top: "prob775_TL"
}

layer {
  name: "prob775_BR"
  type: "Softmax"
  bottom: "dir775_BR"
  top: "prob775_BR"
}

layer {
  name: "prob776_TL"
  type: "Softmax"
  bottom: "dir776_TL"
  top: "prob776_TL"
}

layer {
  name: "prob776_BR"
  type: "Softmax"
  bottom: "dir776_BR"
  top: "prob776_BR"
}

layer {
  name: "prob777_TL"
  type: "Softmax"
  bottom: "dir777_TL"
  top: "prob777_TL"
}

layer {
  name: "prob777_BR"
  type: "Softmax"
  bottom: "dir777_BR"
  top: "prob777_BR"
}

layer {
  name: "prob778_TL"
  type: "Softmax"
  bottom: "dir778_TL"
  top: "prob778_TL"
}

layer {
  name: "prob778_BR"
  type: "Softmax"
  bottom: "dir778_BR"
  top: "prob778_BR"
}

layer {
  name: "prob779_TL"
  type: "Softmax"
  bottom: "dir779_TL"
  top: "prob779_TL"
}

layer {
  name: "prob779_BR"
  type: "Softmax"
  bottom: "dir779_BR"
  top: "prob779_BR"
}

layer {
  name: "prob780_TL"
  type: "Softmax"
  bottom: "dir780_TL"
  top: "prob780_TL"
}

layer {
  name: "prob780_BR"
  type: "Softmax"
  bottom: "dir780_BR"
  top: "prob780_BR"
}

layer {
  name: "prob781_TL"
  type: "Softmax"
  bottom: "dir781_TL"
  top: "prob781_TL"
}

layer {
  name: "prob781_BR"
  type: "Softmax"
  bottom: "dir781_BR"
  top: "prob781_BR"
}

layer {
  name: "prob782_TL"
  type: "Softmax"
  bottom: "dir782_TL"
  top: "prob782_TL"
}

layer {
  name: "prob782_BR"
  type: "Softmax"
  bottom: "dir782_BR"
  top: "prob782_BR"
}

layer {
  name: "prob783_TL"
  type: "Softmax"
  bottom: "dir783_TL"
  top: "prob783_TL"
}

layer {
  name: "prob783_BR"
  type: "Softmax"
  bottom: "dir783_BR"
  top: "prob783_BR"
}

layer {
  name: "prob784_TL"
  type: "Softmax"
  bottom: "dir784_TL"
  top: "prob784_TL"
}

layer {
  name: "prob784_BR"
  type: "Softmax"
  bottom: "dir784_BR"
  top: "prob784_BR"
}

layer {
  name: "prob785_TL"
  type: "Softmax"
  bottom: "dir785_TL"
  top: "prob785_TL"
}

layer {
  name: "prob785_BR"
  type: "Softmax"
  bottom: "dir785_BR"
  top: "prob785_BR"
}

layer {
  name: "prob786_TL"
  type: "Softmax"
  bottom: "dir786_TL"
  top: "prob786_TL"
}

layer {
  name: "prob786_BR"
  type: "Softmax"
  bottom: "dir786_BR"
  top: "prob786_BR"
}

layer {
  name: "prob787_TL"
  type: "Softmax"
  bottom: "dir787_TL"
  top: "prob787_TL"
}

layer {
  name: "prob787_BR"
  type: "Softmax"
  bottom: "dir787_BR"
  top: "prob787_BR"
}

layer {
  name: "prob788_TL"
  type: "Softmax"
  bottom: "dir788_TL"
  top: "prob788_TL"
}

layer {
  name: "prob788_BR"
  type: "Softmax"
  bottom: "dir788_BR"
  top: "prob788_BR"
}

layer {
  name: "prob789_TL"
  type: "Softmax"
  bottom: "dir789_TL"
  top: "prob789_TL"
}

layer {
  name: "prob789_BR"
  type: "Softmax"
  bottom: "dir789_BR"
  top: "prob789_BR"
}

layer {
  name: "prob790_TL"
  type: "Softmax"
  bottom: "dir790_TL"
  top: "prob790_TL"
}

layer {
  name: "prob790_BR"
  type: "Softmax"
  bottom: "dir790_BR"
  top: "prob790_BR"
}

layer {
  name: "prob791_TL"
  type: "Softmax"
  bottom: "dir791_TL"
  top: "prob791_TL"
}

layer {
  name: "prob791_BR"
  type: "Softmax"
  bottom: "dir791_BR"
  top: "prob791_BR"
}

layer {
  name: "prob792_TL"
  type: "Softmax"
  bottom: "dir792_TL"
  top: "prob792_TL"
}

layer {
  name: "prob792_BR"
  type: "Softmax"
  bottom: "dir792_BR"
  top: "prob792_BR"
}

layer {
  name: "prob793_TL"
  type: "Softmax"
  bottom: "dir793_TL"
  top: "prob793_TL"
}

layer {
  name: "prob793_BR"
  type: "Softmax"
  bottom: "dir793_BR"
  top: "prob793_BR"
}

layer {
  name: "prob794_TL"
  type: "Softmax"
  bottom: "dir794_TL"
  top: "prob794_TL"
}

layer {
  name: "prob794_BR"
  type: "Softmax"
  bottom: "dir794_BR"
  top: "prob794_BR"
}

layer {
  name: "prob795_TL"
  type: "Softmax"
  bottom: "dir795_TL"
  top: "prob795_TL"
}

layer {
  name: "prob795_BR"
  type: "Softmax"
  bottom: "dir795_BR"
  top: "prob795_BR"
}

layer {
  name: "prob796_TL"
  type: "Softmax"
  bottom: "dir796_TL"
  top: "prob796_TL"
}

layer {
  name: "prob796_BR"
  type: "Softmax"
  bottom: "dir796_BR"
  top: "prob796_BR"
}

layer {
  name: "prob797_TL"
  type: "Softmax"
  bottom: "dir797_TL"
  top: "prob797_TL"
}

layer {
  name: "prob797_BR"
  type: "Softmax"
  bottom: "dir797_BR"
  top: "prob797_BR"
}

layer {
  name: "prob798_TL"
  type: "Softmax"
  bottom: "dir798_TL"
  top: "prob798_TL"
}

layer {
  name: "prob798_BR"
  type: "Softmax"
  bottom: "dir798_BR"
  top: "prob798_BR"
}

layer {
  name: "prob799_TL"
  type: "Softmax"
  bottom: "dir799_TL"
  top: "prob799_TL"
}

layer {
  name: "prob799_BR"
  type: "Softmax"
  bottom: "dir799_BR"
  top: "prob799_BR"
}

layer {
  name: "prob800_TL"
  type: "Softmax"
  bottom: "dir800_TL"
  top: "prob800_TL"
}

layer {
  name: "prob800_BR"
  type: "Softmax"
  bottom: "dir800_BR"
  top: "prob800_BR"
}

layer {
  name: "prob801_TL"
  type: "Softmax"
  bottom: "dir801_TL"
  top: "prob801_TL"
}

layer {
  name: "prob801_BR"
  type: "Softmax"
  bottom: "dir801_BR"
  top: "prob801_BR"
}

layer {
  name: "prob802_TL"
  type: "Softmax"
  bottom: "dir802_TL"
  top: "prob802_TL"
}

layer {
  name: "prob802_BR"
  type: "Softmax"
  bottom: "dir802_BR"
  top: "prob802_BR"
}

layer {
  name: "prob803_TL"
  type: "Softmax"
  bottom: "dir803_TL"
  top: "prob803_TL"
}

layer {
  name: "prob803_BR"
  type: "Softmax"
  bottom: "dir803_BR"
  top: "prob803_BR"
}

layer {
  name: "prob804_TL"
  type: "Softmax"
  bottom: "dir804_TL"
  top: "prob804_TL"
}

layer {
  name: "prob804_BR"
  type: "Softmax"
  bottom: "dir804_BR"
  top: "prob804_BR"
}

layer {
  name: "prob805_TL"
  type: "Softmax"
  bottom: "dir805_TL"
  top: "prob805_TL"
}

layer {
  name: "prob805_BR"
  type: "Softmax"
  bottom: "dir805_BR"
  top: "prob805_BR"
}

layer {
  name: "prob806_TL"
  type: "Softmax"
  bottom: "dir806_TL"
  top: "prob806_TL"
}

layer {
  name: "prob806_BR"
  type: "Softmax"
  bottom: "dir806_BR"
  top: "prob806_BR"
}

layer {
  name: "prob807_TL"
  type: "Softmax"
  bottom: "dir807_TL"
  top: "prob807_TL"
}

layer {
  name: "prob807_BR"
  type: "Softmax"
  bottom: "dir807_BR"
  top: "prob807_BR"
}

layer {
  name: "prob808_TL"
  type: "Softmax"
  bottom: "dir808_TL"
  top: "prob808_TL"
}

layer {
  name: "prob808_BR"
  type: "Softmax"
  bottom: "dir808_BR"
  top: "prob808_BR"
}

layer {
  name: "prob809_TL"
  type: "Softmax"
  bottom: "dir809_TL"
  top: "prob809_TL"
}

layer {
  name: "prob809_BR"
  type: "Softmax"
  bottom: "dir809_BR"
  top: "prob809_BR"
}

layer {
  name: "prob810_TL"
  type: "Softmax"
  bottom: "dir810_TL"
  top: "prob810_TL"
}

layer {
  name: "prob810_BR"
  type: "Softmax"
  bottom: "dir810_BR"
  top: "prob810_BR"
}

layer {
  name: "prob811_TL"
  type: "Softmax"
  bottom: "dir811_TL"
  top: "prob811_TL"
}

layer {
  name: "prob811_BR"
  type: "Softmax"
  bottom: "dir811_BR"
  top: "prob811_BR"
}

layer {
  name: "prob812_TL"
  type: "Softmax"
  bottom: "dir812_TL"
  top: "prob812_TL"
}

layer {
  name: "prob812_BR"
  type: "Softmax"
  bottom: "dir812_BR"
  top: "prob812_BR"
}

layer {
  name: "prob813_TL"
  type: "Softmax"
  bottom: "dir813_TL"
  top: "prob813_TL"
}

layer {
  name: "prob813_BR"
  type: "Softmax"
  bottom: "dir813_BR"
  top: "prob813_BR"
}

layer {
  name: "prob814_TL"
  type: "Softmax"
  bottom: "dir814_TL"
  top: "prob814_TL"
}

layer {
  name: "prob814_BR"
  type: "Softmax"
  bottom: "dir814_BR"
  top: "prob814_BR"
}

layer {
  name: "prob815_TL"
  type: "Softmax"
  bottom: "dir815_TL"
  top: "prob815_TL"
}

layer {
  name: "prob815_BR"
  type: "Softmax"
  bottom: "dir815_BR"
  top: "prob815_BR"
}

layer {
  name: "prob816_TL"
  type: "Softmax"
  bottom: "dir816_TL"
  top: "prob816_TL"
}

layer {
  name: "prob816_BR"
  type: "Softmax"
  bottom: "dir816_BR"
  top: "prob816_BR"
}

layer {
  name: "prob817_TL"
  type: "Softmax"
  bottom: "dir817_TL"
  top: "prob817_TL"
}

layer {
  name: "prob817_BR"
  type: "Softmax"
  bottom: "dir817_BR"
  top: "prob817_BR"
}

layer {
  name: "prob818_TL"
  type: "Softmax"
  bottom: "dir818_TL"
  top: "prob818_TL"
}

layer {
  name: "prob818_BR"
  type: "Softmax"
  bottom: "dir818_BR"
  top: "prob818_BR"
}

layer {
  name: "prob819_TL"
  type: "Softmax"
  bottom: "dir819_TL"
  top: "prob819_TL"
}

layer {
  name: "prob819_BR"
  type: "Softmax"
  bottom: "dir819_BR"
  top: "prob819_BR"
}

layer {
  name: "prob820_TL"
  type: "Softmax"
  bottom: "dir820_TL"
  top: "prob820_TL"
}

layer {
  name: "prob820_BR"
  type: "Softmax"
  bottom: "dir820_BR"
  top: "prob820_BR"
}

layer {
  name: "prob821_TL"
  type: "Softmax"
  bottom: "dir821_TL"
  top: "prob821_TL"
}

layer {
  name: "prob821_BR"
  type: "Softmax"
  bottom: "dir821_BR"
  top: "prob821_BR"
}

layer {
  name: "prob822_TL"
  type: "Softmax"
  bottom: "dir822_TL"
  top: "prob822_TL"
}

layer {
  name: "prob822_BR"
  type: "Softmax"
  bottom: "dir822_BR"
  top: "prob822_BR"
}

layer {
  name: "prob823_TL"
  type: "Softmax"
  bottom: "dir823_TL"
  top: "prob823_TL"
}

layer {
  name: "prob823_BR"
  type: "Softmax"
  bottom: "dir823_BR"
  top: "prob823_BR"
}

layer {
  name: "prob824_TL"
  type: "Softmax"
  bottom: "dir824_TL"
  top: "prob824_TL"
}

layer {
  name: "prob824_BR"
  type: "Softmax"
  bottom: "dir824_BR"
  top: "prob824_BR"
}

layer {
  name: "prob825_TL"
  type: "Softmax"
  bottom: "dir825_TL"
  top: "prob825_TL"
}

layer {
  name: "prob825_BR"
  type: "Softmax"
  bottom: "dir825_BR"
  top: "prob825_BR"
}

layer {
  name: "prob826_TL"
  type: "Softmax"
  bottom: "dir826_TL"
  top: "prob826_TL"
}

layer {
  name: "prob826_BR"
  type: "Softmax"
  bottom: "dir826_BR"
  top: "prob826_BR"
}

layer {
  name: "prob827_TL"
  type: "Softmax"
  bottom: "dir827_TL"
  top: "prob827_TL"
}

layer {
  name: "prob827_BR"
  type: "Softmax"
  bottom: "dir827_BR"
  top: "prob827_BR"
}

layer {
  name: "prob828_TL"
  type: "Softmax"
  bottom: "dir828_TL"
  top: "prob828_TL"
}

layer {
  name: "prob828_BR"
  type: "Softmax"
  bottom: "dir828_BR"
  top: "prob828_BR"
}

layer {
  name: "prob829_TL"
  type: "Softmax"
  bottom: "dir829_TL"
  top: "prob829_TL"
}

layer {
  name: "prob829_BR"
  type: "Softmax"
  bottom: "dir829_BR"
  top: "prob829_BR"
}

layer {
  name: "prob830_TL"
  type: "Softmax"
  bottom: "dir830_TL"
  top: "prob830_TL"
}

layer {
  name: "prob830_BR"
  type: "Softmax"
  bottom: "dir830_BR"
  top: "prob830_BR"
}

layer {
  name: "prob831_TL"
  type: "Softmax"
  bottom: "dir831_TL"
  top: "prob831_TL"
}

layer {
  name: "prob831_BR"
  type: "Softmax"
  bottom: "dir831_BR"
  top: "prob831_BR"
}

layer {
  name: "prob832_TL"
  type: "Softmax"
  bottom: "dir832_TL"
  top: "prob832_TL"
}

layer {
  name: "prob832_BR"
  type: "Softmax"
  bottom: "dir832_BR"
  top: "prob832_BR"
}

layer {
  name: "prob833_TL"
  type: "Softmax"
  bottom: "dir833_TL"
  top: "prob833_TL"
}

layer {
  name: "prob833_BR"
  type: "Softmax"
  bottom: "dir833_BR"
  top: "prob833_BR"
}

layer {
  name: "prob834_TL"
  type: "Softmax"
  bottom: "dir834_TL"
  top: "prob834_TL"
}

layer {
  name: "prob834_BR"
  type: "Softmax"
  bottom: "dir834_BR"
  top: "prob834_BR"
}

layer {
  name: "prob835_TL"
  type: "Softmax"
  bottom: "dir835_TL"
  top: "prob835_TL"
}

layer {
  name: "prob835_BR"
  type: "Softmax"
  bottom: "dir835_BR"
  top: "prob835_BR"
}

layer {
  name: "prob836_TL"
  type: "Softmax"
  bottom: "dir836_TL"
  top: "prob836_TL"
}

layer {
  name: "prob836_BR"
  type: "Softmax"
  bottom: "dir836_BR"
  top: "prob836_BR"
}

layer {
  name: "prob837_TL"
  type: "Softmax"
  bottom: "dir837_TL"
  top: "prob837_TL"
}

layer {
  name: "prob837_BR"
  type: "Softmax"
  bottom: "dir837_BR"
  top: "prob837_BR"
}

layer {
  name: "prob838_TL"
  type: "Softmax"
  bottom: "dir838_TL"
  top: "prob838_TL"
}

layer {
  name: "prob838_BR"
  type: "Softmax"
  bottom: "dir838_BR"
  top: "prob838_BR"
}

layer {
  name: "prob839_TL"
  type: "Softmax"
  bottom: "dir839_TL"
  top: "prob839_TL"
}

layer {
  name: "prob839_BR"
  type: "Softmax"
  bottom: "dir839_BR"
  top: "prob839_BR"
}

layer {
  name: "prob840_TL"
  type: "Softmax"
  bottom: "dir840_TL"
  top: "prob840_TL"
}

layer {
  name: "prob840_BR"
  type: "Softmax"
  bottom: "dir840_BR"
  top: "prob840_BR"
}

layer {
  name: "prob841_TL"
  type: "Softmax"
  bottom: "dir841_TL"
  top: "prob841_TL"
}

layer {
  name: "prob841_BR"
  type: "Softmax"
  bottom: "dir841_BR"
  top: "prob841_BR"
}

layer {
  name: "prob842_TL"
  type: "Softmax"
  bottom: "dir842_TL"
  top: "prob842_TL"
}

layer {
  name: "prob842_BR"
  type: "Softmax"
  bottom: "dir842_BR"
  top: "prob842_BR"
}

layer {
  name: "prob843_TL"
  type: "Softmax"
  bottom: "dir843_TL"
  top: "prob843_TL"
}

layer {
  name: "prob843_BR"
  type: "Softmax"
  bottom: "dir843_BR"
  top: "prob843_BR"
}

layer {
  name: "prob844_TL"
  type: "Softmax"
  bottom: "dir844_TL"
  top: "prob844_TL"
}

layer {
  name: "prob844_BR"
  type: "Softmax"
  bottom: "dir844_BR"
  top: "prob844_BR"
}

layer {
  name: "prob845_TL"
  type: "Softmax"
  bottom: "dir845_TL"
  top: "prob845_TL"
}

layer {
  name: "prob845_BR"
  type: "Softmax"
  bottom: "dir845_BR"
  top: "prob845_BR"
}

layer {
  name: "prob846_TL"
  type: "Softmax"
  bottom: "dir846_TL"
  top: "prob846_TL"
}

layer {
  name: "prob846_BR"
  type: "Softmax"
  bottom: "dir846_BR"
  top: "prob846_BR"
}

layer {
  name: "prob847_TL"
  type: "Softmax"
  bottom: "dir847_TL"
  top: "prob847_TL"
}

layer {
  name: "prob847_BR"
  type: "Softmax"
  bottom: "dir847_BR"
  top: "prob847_BR"
}

layer {
  name: "prob848_TL"
  type: "Softmax"
  bottom: "dir848_TL"
  top: "prob848_TL"
}

layer {
  name: "prob848_BR"
  type: "Softmax"
  bottom: "dir848_BR"
  top: "prob848_BR"
}

layer {
  name: "prob849_TL"
  type: "Softmax"
  bottom: "dir849_TL"
  top: "prob849_TL"
}

layer {
  name: "prob849_BR"
  type: "Softmax"
  bottom: "dir849_BR"
  top: "prob849_BR"
}

layer {
  name: "prob850_TL"
  type: "Softmax"
  bottom: "dir850_TL"
  top: "prob850_TL"
}

layer {
  name: "prob850_BR"
  type: "Softmax"
  bottom: "dir850_BR"
  top: "prob850_BR"
}

layer {
  name: "prob851_TL"
  type: "Softmax"
  bottom: "dir851_TL"
  top: "prob851_TL"
}

layer {
  name: "prob851_BR"
  type: "Softmax"
  bottom: "dir851_BR"
  top: "prob851_BR"
}

layer {
  name: "prob852_TL"
  type: "Softmax"
  bottom: "dir852_TL"
  top: "prob852_TL"
}

layer {
  name: "prob852_BR"
  type: "Softmax"
  bottom: "dir852_BR"
  top: "prob852_BR"
}

layer {
  name: "prob853_TL"
  type: "Softmax"
  bottom: "dir853_TL"
  top: "prob853_TL"
}

layer {
  name: "prob853_BR"
  type: "Softmax"
  bottom: "dir853_BR"
  top: "prob853_BR"
}

layer {
  name: "prob854_TL"
  type: "Softmax"
  bottom: "dir854_TL"
  top: "prob854_TL"
}

layer {
  name: "prob854_BR"
  type: "Softmax"
  bottom: "dir854_BR"
  top: "prob854_BR"
}

layer {
  name: "prob855_TL"
  type: "Softmax"
  bottom: "dir855_TL"
  top: "prob855_TL"
}

layer {
  name: "prob855_BR"
  type: "Softmax"
  bottom: "dir855_BR"
  top: "prob855_BR"
}

layer {
  name: "prob856_TL"
  type: "Softmax"
  bottom: "dir856_TL"
  top: "prob856_TL"
}

layer {
  name: "prob856_BR"
  type: "Softmax"
  bottom: "dir856_BR"
  top: "prob856_BR"
}

layer {
  name: "prob857_TL"
  type: "Softmax"
  bottom: "dir857_TL"
  top: "prob857_TL"
}

layer {
  name: "prob857_BR"
  type: "Softmax"
  bottom: "dir857_BR"
  top: "prob857_BR"
}

layer {
  name: "prob858_TL"
  type: "Softmax"
  bottom: "dir858_TL"
  top: "prob858_TL"
}

layer {
  name: "prob858_BR"
  type: "Softmax"
  bottom: "dir858_BR"
  top: "prob858_BR"
}

layer {
  name: "prob859_TL"
  type: "Softmax"
  bottom: "dir859_TL"
  top: "prob859_TL"
}

layer {
  name: "prob859_BR"
  type: "Softmax"
  bottom: "dir859_BR"
  top: "prob859_BR"
}

layer {
  name: "prob860_TL"
  type: "Softmax"
  bottom: "dir860_TL"
  top: "prob860_TL"
}

layer {
  name: "prob860_BR"
  type: "Softmax"
  bottom: "dir860_BR"
  top: "prob860_BR"
}

layer {
  name: "prob861_TL"
  type: "Softmax"
  bottom: "dir861_TL"
  top: "prob861_TL"
}

layer {
  name: "prob861_BR"
  type: "Softmax"
  bottom: "dir861_BR"
  top: "prob861_BR"
}

layer {
  name: "prob862_TL"
  type: "Softmax"
  bottom: "dir862_TL"
  top: "prob862_TL"
}

layer {
  name: "prob862_BR"
  type: "Softmax"
  bottom: "dir862_BR"
  top: "prob862_BR"
}

layer {
  name: "prob863_TL"
  type: "Softmax"
  bottom: "dir863_TL"
  top: "prob863_TL"
}

layer {
  name: "prob863_BR"
  type: "Softmax"
  bottom: "dir863_BR"
  top: "prob863_BR"
}

layer {
  name: "prob864_TL"
  type: "Softmax"
  bottom: "dir864_TL"
  top: "prob864_TL"
}

layer {
  name: "prob864_BR"
  type: "Softmax"
  bottom: "dir864_BR"
  top: "prob864_BR"
}

layer {
  name: "prob865_TL"
  type: "Softmax"
  bottom: "dir865_TL"
  top: "prob865_TL"
}

layer {
  name: "prob865_BR"
  type: "Softmax"
  bottom: "dir865_BR"
  top: "prob865_BR"
}

layer {
  name: "prob866_TL"
  type: "Softmax"
  bottom: "dir866_TL"
  top: "prob866_TL"
}

layer {
  name: "prob866_BR"
  type: "Softmax"
  bottom: "dir866_BR"
  top: "prob866_BR"
}

layer {
  name: "prob867_TL"
  type: "Softmax"
  bottom: "dir867_TL"
  top: "prob867_TL"
}

layer {
  name: "prob867_BR"
  type: "Softmax"
  bottom: "dir867_BR"
  top: "prob867_BR"
}

layer {
  name: "prob868_TL"
  type: "Softmax"
  bottom: "dir868_TL"
  top: "prob868_TL"
}

layer {
  name: "prob868_BR"
  type: "Softmax"
  bottom: "dir868_BR"
  top: "prob868_BR"
}

layer {
  name: "prob869_TL"
  type: "Softmax"
  bottom: "dir869_TL"
  top: "prob869_TL"
}

layer {
  name: "prob869_BR"
  type: "Softmax"
  bottom: "dir869_BR"
  top: "prob869_BR"
}

layer {
  name: "prob870_TL"
  type: "Softmax"
  bottom: "dir870_TL"
  top: "prob870_TL"
}

layer {
  name: "prob870_BR"
  type: "Softmax"
  bottom: "dir870_BR"
  top: "prob870_BR"
}

layer {
  name: "prob871_TL"
  type: "Softmax"
  bottom: "dir871_TL"
  top: "prob871_TL"
}

layer {
  name: "prob871_BR"
  type: "Softmax"
  bottom: "dir871_BR"
  top: "prob871_BR"
}

layer {
  name: "prob872_TL"
  type: "Softmax"
  bottom: "dir872_TL"
  top: "prob872_TL"
}

layer {
  name: "prob872_BR"
  type: "Softmax"
  bottom: "dir872_BR"
  top: "prob872_BR"
}

layer {
  name: "prob873_TL"
  type: "Softmax"
  bottom: "dir873_TL"
  top: "prob873_TL"
}

layer {
  name: "prob873_BR"
  type: "Softmax"
  bottom: "dir873_BR"
  top: "prob873_BR"
}

layer {
  name: "prob874_TL"
  type: "Softmax"
  bottom: "dir874_TL"
  top: "prob874_TL"
}

layer {
  name: "prob874_BR"
  type: "Softmax"
  bottom: "dir874_BR"
  top: "prob874_BR"
}

layer {
  name: "prob875_TL"
  type: "Softmax"
  bottom: "dir875_TL"
  top: "prob875_TL"
}

layer {
  name: "prob875_BR"
  type: "Softmax"
  bottom: "dir875_BR"
  top: "prob875_BR"
}

layer {
  name: "prob876_TL"
  type: "Softmax"
  bottom: "dir876_TL"
  top: "prob876_TL"
}

layer {
  name: "prob876_BR"
  type: "Softmax"
  bottom: "dir876_BR"
  top: "prob876_BR"
}

layer {
  name: "prob877_TL"
  type: "Softmax"
  bottom: "dir877_TL"
  top: "prob877_TL"
}

layer {
  name: "prob877_BR"
  type: "Softmax"
  bottom: "dir877_BR"
  top: "prob877_BR"
}

layer {
  name: "prob878_TL"
  type: "Softmax"
  bottom: "dir878_TL"
  top: "prob878_TL"
}

layer {
  name: "prob878_BR"
  type: "Softmax"
  bottom: "dir878_BR"
  top: "prob878_BR"
}

layer {
  name: "prob879_TL"
  type: "Softmax"
  bottom: "dir879_TL"
  top: "prob879_TL"
}

layer {
  name: "prob879_BR"
  type: "Softmax"
  bottom: "dir879_BR"
  top: "prob879_BR"
}

layer {
  name: "prob880_TL"
  type: "Softmax"
  bottom: "dir880_TL"
  top: "prob880_TL"
}

layer {
  name: "prob880_BR"
  type: "Softmax"
  bottom: "dir880_BR"
  top: "prob880_BR"
}

layer {
  name: "prob881_TL"
  type: "Softmax"
  bottom: "dir881_TL"
  top: "prob881_TL"
}

layer {
  name: "prob881_BR"
  type: "Softmax"
  bottom: "dir881_BR"
  top: "prob881_BR"
}

layer {
  name: "prob882_TL"
  type: "Softmax"
  bottom: "dir882_TL"
  top: "prob882_TL"
}

layer {
  name: "prob882_BR"
  type: "Softmax"
  bottom: "dir882_BR"
  top: "prob882_BR"
}

layer {
  name: "prob883_TL"
  type: "Softmax"
  bottom: "dir883_TL"
  top: "prob883_TL"
}

layer {
  name: "prob883_BR"
  type: "Softmax"
  bottom: "dir883_BR"
  top: "prob883_BR"
}

layer {
  name: "prob884_TL"
  type: "Softmax"
  bottom: "dir884_TL"
  top: "prob884_TL"
}

layer {
  name: "prob884_BR"
  type: "Softmax"
  bottom: "dir884_BR"
  top: "prob884_BR"
}

layer {
  name: "prob885_TL"
  type: "Softmax"
  bottom: "dir885_TL"
  top: "prob885_TL"
}

layer {
  name: "prob885_BR"
  type: "Softmax"
  bottom: "dir885_BR"
  top: "prob885_BR"
}

layer {
  name: "prob886_TL"
  type: "Softmax"
  bottom: "dir886_TL"
  top: "prob886_TL"
}

layer {
  name: "prob886_BR"
  type: "Softmax"
  bottom: "dir886_BR"
  top: "prob886_BR"
}

layer {
  name: "prob887_TL"
  type: "Softmax"
  bottom: "dir887_TL"
  top: "prob887_TL"
}

layer {
  name: "prob887_BR"
  type: "Softmax"
  bottom: "dir887_BR"
  top: "prob887_BR"
}

layer {
  name: "prob888_TL"
  type: "Softmax"
  bottom: "dir888_TL"
  top: "prob888_TL"
}

layer {
  name: "prob888_BR"
  type: "Softmax"
  bottom: "dir888_BR"
  top: "prob888_BR"
}

layer {
  name: "prob889_TL"
  type: "Softmax"
  bottom: "dir889_TL"
  top: "prob889_TL"
}

layer {
  name: "prob889_BR"
  type: "Softmax"
  bottom: "dir889_BR"
  top: "prob889_BR"
}

layer {
  name: "prob890_TL"
  type: "Softmax"
  bottom: "dir890_TL"
  top: "prob890_TL"
}

layer {
  name: "prob890_BR"
  type: "Softmax"
  bottom: "dir890_BR"
  top: "prob890_BR"
}

layer {
  name: "prob891_TL"
  type: "Softmax"
  bottom: "dir891_TL"
  top: "prob891_TL"
}

layer {
  name: "prob891_BR"
  type: "Softmax"
  bottom: "dir891_BR"
  top: "prob891_BR"
}

layer {
  name: "prob892_TL"
  type: "Softmax"
  bottom: "dir892_TL"
  top: "prob892_TL"
}

layer {
  name: "prob892_BR"
  type: "Softmax"
  bottom: "dir892_BR"
  top: "prob892_BR"
}

layer {
  name: "prob893_TL"
  type: "Softmax"
  bottom: "dir893_TL"
  top: "prob893_TL"
}

layer {
  name: "prob893_BR"
  type: "Softmax"
  bottom: "dir893_BR"
  top: "prob893_BR"
}

layer {
  name: "prob894_TL"
  type: "Softmax"
  bottom: "dir894_TL"
  top: "prob894_TL"
}

layer {
  name: "prob894_BR"
  type: "Softmax"
  bottom: "dir894_BR"
  top: "prob894_BR"
}

layer {
  name: "prob895_TL"
  type: "Softmax"
  bottom: "dir895_TL"
  top: "prob895_TL"
}

layer {
  name: "prob895_BR"
  type: "Softmax"
  bottom: "dir895_BR"
  top: "prob895_BR"
}

layer {
  name: "prob896_TL"
  type: "Softmax"
  bottom: "dir896_TL"
  top: "prob896_TL"
}

layer {
  name: "prob896_BR"
  type: "Softmax"
  bottom: "dir896_BR"
  top: "prob896_BR"
}

layer {
  name: "prob897_TL"
  type: "Softmax"
  bottom: "dir897_TL"
  top: "prob897_TL"
}

layer {
  name: "prob897_BR"
  type: "Softmax"
  bottom: "dir897_BR"
  top: "prob897_BR"
}

layer {
  name: "prob898_TL"
  type: "Softmax"
  bottom: "dir898_TL"
  top: "prob898_TL"
}

layer {
  name: "prob898_BR"
  type: "Softmax"
  bottom: "dir898_BR"
  top: "prob898_BR"
}

layer {
  name: "prob899_TL"
  type: "Softmax"
  bottom: "dir899_TL"
  top: "prob899_TL"
}

layer {
  name: "prob899_BR"
  type: "Softmax"
  bottom: "dir899_BR"
  top: "prob899_BR"
}

layer {
  name: "prob900_TL"
  type: "Softmax"
  bottom: "dir900_TL"
  top: "prob900_TL"
}

layer {
  name: "prob900_BR"
  type: "Softmax"
  bottom: "dir900_BR"
  top: "prob900_BR"
}

layer {
  name: "prob901_TL"
  type: "Softmax"
  bottom: "dir901_TL"
  top: "prob901_TL"
}

layer {
  name: "prob901_BR"
  type: "Softmax"
  bottom: "dir901_BR"
  top: "prob901_BR"
}

layer {
  name: "prob902_TL"
  type: "Softmax"
  bottom: "dir902_TL"
  top: "prob902_TL"
}

layer {
  name: "prob902_BR"
  type: "Softmax"
  bottom: "dir902_BR"
  top: "prob902_BR"
}

layer {
  name: "prob903_TL"
  type: "Softmax"
  bottom: "dir903_TL"
  top: "prob903_TL"
}

layer {
  name: "prob903_BR"
  type: "Softmax"
  bottom: "dir903_BR"
  top: "prob903_BR"
}

layer {
  name: "prob904_TL"
  type: "Softmax"
  bottom: "dir904_TL"
  top: "prob904_TL"
}

layer {
  name: "prob904_BR"
  type: "Softmax"
  bottom: "dir904_BR"
  top: "prob904_BR"
}

layer {
  name: "prob905_TL"
  type: "Softmax"
  bottom: "dir905_TL"
  top: "prob905_TL"
}

layer {
  name: "prob905_BR"
  type: "Softmax"
  bottom: "dir905_BR"
  top: "prob905_BR"
}

layer {
  name: "prob906_TL"
  type: "Softmax"
  bottom: "dir906_TL"
  top: "prob906_TL"
}

layer {
  name: "prob906_BR"
  type: "Softmax"
  bottom: "dir906_BR"
  top: "prob906_BR"
}

layer {
  name: "prob907_TL"
  type: "Softmax"
  bottom: "dir907_TL"
  top: "prob907_TL"
}

layer {
  name: "prob907_BR"
  type: "Softmax"
  bottom: "dir907_BR"
  top: "prob907_BR"
}

layer {
  name: "prob908_TL"
  type: "Softmax"
  bottom: "dir908_TL"
  top: "prob908_TL"
}

layer {
  name: "prob908_BR"
  type: "Softmax"
  bottom: "dir908_BR"
  top: "prob908_BR"
}

layer {
  name: "prob909_TL"
  type: "Softmax"
  bottom: "dir909_TL"
  top: "prob909_TL"
}

layer {
  name: "prob909_BR"
  type: "Softmax"
  bottom: "dir909_BR"
  top: "prob909_BR"
}

layer {
  name: "prob910_TL"
  type: "Softmax"
  bottom: "dir910_TL"
  top: "prob910_TL"
}

layer {
  name: "prob910_BR"
  type: "Softmax"
  bottom: "dir910_BR"
  top: "prob910_BR"
}

layer {
  name: "prob911_TL"
  type: "Softmax"
  bottom: "dir911_TL"
  top: "prob911_TL"
}

layer {
  name: "prob911_BR"
  type: "Softmax"
  bottom: "dir911_BR"
  top: "prob911_BR"
}

layer {
  name: "prob912_TL"
  type: "Softmax"
  bottom: "dir912_TL"
  top: "prob912_TL"
}

layer {
  name: "prob912_BR"
  type: "Softmax"
  bottom: "dir912_BR"
  top: "prob912_BR"
}

layer {
  name: "prob913_TL"
  type: "Softmax"
  bottom: "dir913_TL"
  top: "prob913_TL"
}

layer {
  name: "prob913_BR"
  type: "Softmax"
  bottom: "dir913_BR"
  top: "prob913_BR"
}

layer {
  name: "prob914_TL"
  type: "Softmax"
  bottom: "dir914_TL"
  top: "prob914_TL"
}

layer {
  name: "prob914_BR"
  type: "Softmax"
  bottom: "dir914_BR"
  top: "prob914_BR"
}

layer {
  name: "prob915_TL"
  type: "Softmax"
  bottom: "dir915_TL"
  top: "prob915_TL"
}

layer {
  name: "prob915_BR"
  type: "Softmax"
  bottom: "dir915_BR"
  top: "prob915_BR"
}

layer {
  name: "prob916_TL"
  type: "Softmax"
  bottom: "dir916_TL"
  top: "prob916_TL"
}

layer {
  name: "prob916_BR"
  type: "Softmax"
  bottom: "dir916_BR"
  top: "prob916_BR"
}

layer {
  name: "prob917_TL"
  type: "Softmax"
  bottom: "dir917_TL"
  top: "prob917_TL"
}

layer {
  name: "prob917_BR"
  type: "Softmax"
  bottom: "dir917_BR"
  top: "prob917_BR"
}

layer {
  name: "prob918_TL"
  type: "Softmax"
  bottom: "dir918_TL"
  top: "prob918_TL"
}

layer {
  name: "prob918_BR"
  type: "Softmax"
  bottom: "dir918_BR"
  top: "prob918_BR"
}

layer {
  name: "prob919_TL"
  type: "Softmax"
  bottom: "dir919_TL"
  top: "prob919_TL"
}

layer {
  name: "prob919_BR"
  type: "Softmax"
  bottom: "dir919_BR"
  top: "prob919_BR"
}

layer {
  name: "prob920_TL"
  type: "Softmax"
  bottom: "dir920_TL"
  top: "prob920_TL"
}

layer {
  name: "prob920_BR"
  type: "Softmax"
  bottom: "dir920_BR"
  top: "prob920_BR"
}

layer {
  name: "prob921_TL"
  type: "Softmax"
  bottom: "dir921_TL"
  top: "prob921_TL"
}

layer {
  name: "prob921_BR"
  type: "Softmax"
  bottom: "dir921_BR"
  top: "prob921_BR"
}

layer {
  name: "prob922_TL"
  type: "Softmax"
  bottom: "dir922_TL"
  top: "prob922_TL"
}

layer {
  name: "prob922_BR"
  type: "Softmax"
  bottom: "dir922_BR"
  top: "prob922_BR"
}

layer {
  name: "prob923_TL"
  type: "Softmax"
  bottom: "dir923_TL"
  top: "prob923_TL"
}

layer {
  name: "prob923_BR"
  type: "Softmax"
  bottom: "dir923_BR"
  top: "prob923_BR"
}

layer {
  name: "prob924_TL"
  type: "Softmax"
  bottom: "dir924_TL"
  top: "prob924_TL"
}

layer {
  name: "prob924_BR"
  type: "Softmax"
  bottom: "dir924_BR"
  top: "prob924_BR"
}

layer {
  name: "prob925_TL"
  type: "Softmax"
  bottom: "dir925_TL"
  top: "prob925_TL"
}

layer {
  name: "prob925_BR"
  type: "Softmax"
  bottom: "dir925_BR"
  top: "prob925_BR"
}

layer {
  name: "prob926_TL"
  type: "Softmax"
  bottom: "dir926_TL"
  top: "prob926_TL"
}

layer {
  name: "prob926_BR"
  type: "Softmax"
  bottom: "dir926_BR"
  top: "prob926_BR"
}

layer {
  name: "prob927_TL"
  type: "Softmax"
  bottom: "dir927_TL"
  top: "prob927_TL"
}

layer {
  name: "prob927_BR"
  type: "Softmax"
  bottom: "dir927_BR"
  top: "prob927_BR"
}

layer {
  name: "prob928_TL"
  type: "Softmax"
  bottom: "dir928_TL"
  top: "prob928_TL"
}

layer {
  name: "prob928_BR"
  type: "Softmax"
  bottom: "dir928_BR"
  top: "prob928_BR"
}

layer {
  name: "prob929_TL"
  type: "Softmax"
  bottom: "dir929_TL"
  top: "prob929_TL"
}

layer {
  name: "prob929_BR"
  type: "Softmax"
  bottom: "dir929_BR"
  top: "prob929_BR"
}

layer {
  name: "prob930_TL"
  type: "Softmax"
  bottom: "dir930_TL"
  top: "prob930_TL"
}

layer {
  name: "prob930_BR"
  type: "Softmax"
  bottom: "dir930_BR"
  top: "prob930_BR"
}

layer {
  name: "prob931_TL"
  type: "Softmax"
  bottom: "dir931_TL"
  top: "prob931_TL"
}

layer {
  name: "prob931_BR"
  type: "Softmax"
  bottom: "dir931_BR"
  top: "prob931_BR"
}

layer {
  name: "prob932_TL"
  type: "Softmax"
  bottom: "dir932_TL"
  top: "prob932_TL"
}

layer {
  name: "prob932_BR"
  type: "Softmax"
  bottom: "dir932_BR"
  top: "prob932_BR"
}

layer {
  name: "prob933_TL"
  type: "Softmax"
  bottom: "dir933_TL"
  top: "prob933_TL"
}

layer {
  name: "prob933_BR"
  type: "Softmax"
  bottom: "dir933_BR"
  top: "prob933_BR"
}

layer {
  name: "prob934_TL"
  type: "Softmax"
  bottom: "dir934_TL"
  top: "prob934_TL"
}

layer {
  name: "prob934_BR"
  type: "Softmax"
  bottom: "dir934_BR"
  top: "prob934_BR"
}

layer {
  name: "prob935_TL"
  type: "Softmax"
  bottom: "dir935_TL"
  top: "prob935_TL"
}

layer {
  name: "prob935_BR"
  type: "Softmax"
  bottom: "dir935_BR"
  top: "prob935_BR"
}

layer {
  name: "prob936_TL"
  type: "Softmax"
  bottom: "dir936_TL"
  top: "prob936_TL"
}

layer {
  name: "prob936_BR"
  type: "Softmax"
  bottom: "dir936_BR"
  top: "prob936_BR"
}

layer {
  name: "prob937_TL"
  type: "Softmax"
  bottom: "dir937_TL"
  top: "prob937_TL"
}

layer {
  name: "prob937_BR"
  type: "Softmax"
  bottom: "dir937_BR"
  top: "prob937_BR"
}

layer {
  name: "prob938_TL"
  type: "Softmax"
  bottom: "dir938_TL"
  top: "prob938_TL"
}

layer {
  name: "prob938_BR"
  type: "Softmax"
  bottom: "dir938_BR"
  top: "prob938_BR"
}

layer {
  name: "prob939_TL"
  type: "Softmax"
  bottom: "dir939_TL"
  top: "prob939_TL"
}

layer {
  name: "prob939_BR"
  type: "Softmax"
  bottom: "dir939_BR"
  top: "prob939_BR"
}

layer {
  name: "prob940_TL"
  type: "Softmax"
  bottom: "dir940_TL"
  top: "prob940_TL"
}

layer {
  name: "prob940_BR"
  type: "Softmax"
  bottom: "dir940_BR"
  top: "prob940_BR"
}

layer {
  name: "prob941_TL"
  type: "Softmax"
  bottom: "dir941_TL"
  top: "prob941_TL"
}

layer {
  name: "prob941_BR"
  type: "Softmax"
  bottom: "dir941_BR"
  top: "prob941_BR"
}

layer {
  name: "prob942_TL"
  type: "Softmax"
  bottom: "dir942_TL"
  top: "prob942_TL"
}

layer {
  name: "prob942_BR"
  type: "Softmax"
  bottom: "dir942_BR"
  top: "prob942_BR"
}

layer {
  name: "prob943_TL"
  type: "Softmax"
  bottom: "dir943_TL"
  top: "prob943_TL"
}

layer {
  name: "prob943_BR"
  type: "Softmax"
  bottom: "dir943_BR"
  top: "prob943_BR"
}

layer {
  name: "prob944_TL"
  type: "Softmax"
  bottom: "dir944_TL"
  top: "prob944_TL"
}

layer {
  name: "prob944_BR"
  type: "Softmax"
  bottom: "dir944_BR"
  top: "prob944_BR"
}

layer {
  name: "prob945_TL"
  type: "Softmax"
  bottom: "dir945_TL"
  top: "prob945_TL"
}

layer {
  name: "prob945_BR"
  type: "Softmax"
  bottom: "dir945_BR"
  top: "prob945_BR"
}

layer {
  name: "prob946_TL"
  type: "Softmax"
  bottom: "dir946_TL"
  top: "prob946_TL"
}

layer {
  name: "prob946_BR"
  type: "Softmax"
  bottom: "dir946_BR"
  top: "prob946_BR"
}

layer {
  name: "prob947_TL"
  type: "Softmax"
  bottom: "dir947_TL"
  top: "prob947_TL"
}

layer {
  name: "prob947_BR"
  type: "Softmax"
  bottom: "dir947_BR"
  top: "prob947_BR"
}

layer {
  name: "prob948_TL"
  type: "Softmax"
  bottom: "dir948_TL"
  top: "prob948_TL"
}

layer {
  name: "prob948_BR"
  type: "Softmax"
  bottom: "dir948_BR"
  top: "prob948_BR"
}

layer {
  name: "prob949_TL"
  type: "Softmax"
  bottom: "dir949_TL"
  top: "prob949_TL"
}

layer {
  name: "prob949_BR"
  type: "Softmax"
  bottom: "dir949_BR"
  top: "prob949_BR"
}

layer {
  name: "prob950_TL"
  type: "Softmax"
  bottom: "dir950_TL"
  top: "prob950_TL"
}

layer {
  name: "prob950_BR"
  type: "Softmax"
  bottom: "dir950_BR"
  top: "prob950_BR"
}

layer {
  name: "prob951_TL"
  type: "Softmax"
  bottom: "dir951_TL"
  top: "prob951_TL"
}

layer {
  name: "prob951_BR"
  type: "Softmax"
  bottom: "dir951_BR"
  top: "prob951_BR"
}

layer {
  name: "prob952_TL"
  type: "Softmax"
  bottom: "dir952_TL"
  top: "prob952_TL"
}

layer {
  name: "prob952_BR"
  type: "Softmax"
  bottom: "dir952_BR"
  top: "prob952_BR"
}

layer {
  name: "prob953_TL"
  type: "Softmax"
  bottom: "dir953_TL"
  top: "prob953_TL"
}

layer {
  name: "prob953_BR"
  type: "Softmax"
  bottom: "dir953_BR"
  top: "prob953_BR"
}

layer {
  name: "prob954_TL"
  type: "Softmax"
  bottom: "dir954_TL"
  top: "prob954_TL"
}

layer {
  name: "prob954_BR"
  type: "Softmax"
  bottom: "dir954_BR"
  top: "prob954_BR"
}

layer {
  name: "prob955_TL"
  type: "Softmax"
  bottom: "dir955_TL"
  top: "prob955_TL"
}

layer {
  name: "prob955_BR"
  type: "Softmax"
  bottom: "dir955_BR"
  top: "prob955_BR"
}

layer {
  name: "prob956_TL"
  type: "Softmax"
  bottom: "dir956_TL"
  top: "prob956_TL"
}

layer {
  name: "prob956_BR"
  type: "Softmax"
  bottom: "dir956_BR"
  top: "prob956_BR"
}

layer {
  name: "prob957_TL"
  type: "Softmax"
  bottom: "dir957_TL"
  top: "prob957_TL"
}

layer {
  name: "prob957_BR"
  type: "Softmax"
  bottom: "dir957_BR"
  top: "prob957_BR"
}

layer {
  name: "prob958_TL"
  type: "Softmax"
  bottom: "dir958_TL"
  top: "prob958_TL"
}

layer {
  name: "prob958_BR"
  type: "Softmax"
  bottom: "dir958_BR"
  top: "prob958_BR"
}

layer {
  name: "prob959_TL"
  type: "Softmax"
  bottom: "dir959_TL"
  top: "prob959_TL"
}

layer {
  name: "prob959_BR"
  type: "Softmax"
  bottom: "dir959_BR"
  top: "prob959_BR"
}

layer {
  name: "prob960_TL"
  type: "Softmax"
  bottom: "dir960_TL"
  top: "prob960_TL"
}

layer {
  name: "prob960_BR"
  type: "Softmax"
  bottom: "dir960_BR"
  top: "prob960_BR"
}

layer {
  name: "prob961_TL"
  type: "Softmax"
  bottom: "dir961_TL"
  top: "prob961_TL"
}

layer {
  name: "prob961_BR"
  type: "Softmax"
  bottom: "dir961_BR"
  top: "prob961_BR"
}

layer {
  name: "prob962_TL"
  type: "Softmax"
  bottom: "dir962_TL"
  top: "prob962_TL"
}

layer {
  name: "prob962_BR"
  type: "Softmax"
  bottom: "dir962_BR"
  top: "prob962_BR"
}

layer {
  name: "prob963_TL"
  type: "Softmax"
  bottom: "dir963_TL"
  top: "prob963_TL"
}

layer {
  name: "prob963_BR"
  type: "Softmax"
  bottom: "dir963_BR"
  top: "prob963_BR"
}

layer {
  name: "prob964_TL"
  type: "Softmax"
  bottom: "dir964_TL"
  top: "prob964_TL"
}

layer {
  name: "prob964_BR"
  type: "Softmax"
  bottom: "dir964_BR"
  top: "prob964_BR"
}

layer {
  name: "prob965_TL"
  type: "Softmax"
  bottom: "dir965_TL"
  top: "prob965_TL"
}

layer {
  name: "prob965_BR"
  type: "Softmax"
  bottom: "dir965_BR"
  top: "prob965_BR"
}

layer {
  name: "prob966_TL"
  type: "Softmax"
  bottom: "dir966_TL"
  top: "prob966_TL"
}

layer {
  name: "prob966_BR"
  type: "Softmax"
  bottom: "dir966_BR"
  top: "prob966_BR"
}

layer {
  name: "prob967_TL"
  type: "Softmax"
  bottom: "dir967_TL"
  top: "prob967_TL"
}

layer {
  name: "prob967_BR"
  type: "Softmax"
  bottom: "dir967_BR"
  top: "prob967_BR"
}

layer {
  name: "prob968_TL"
  type: "Softmax"
  bottom: "dir968_TL"
  top: "prob968_TL"
}

layer {
  name: "prob968_BR"
  type: "Softmax"
  bottom: "dir968_BR"
  top: "prob968_BR"
}

layer {
  name: "prob969_TL"
  type: "Softmax"
  bottom: "dir969_TL"
  top: "prob969_TL"
}

layer {
  name: "prob969_BR"
  type: "Softmax"
  bottom: "dir969_BR"
  top: "prob969_BR"
}

layer {
  name: "prob970_TL"
  type: "Softmax"
  bottom: "dir970_TL"
  top: "prob970_TL"
}

layer {
  name: "prob970_BR"
  type: "Softmax"
  bottom: "dir970_BR"
  top: "prob970_BR"
}

layer {
  name: "prob971_TL"
  type: "Softmax"
  bottom: "dir971_TL"
  top: "prob971_TL"
}

layer {
  name: "prob971_BR"
  type: "Softmax"
  bottom: "dir971_BR"
  top: "prob971_BR"
}

layer {
  name: "prob972_TL"
  type: "Softmax"
  bottom: "dir972_TL"
  top: "prob972_TL"
}

layer {
  name: "prob972_BR"
  type: "Softmax"
  bottom: "dir972_BR"
  top: "prob972_BR"
}

layer {
  name: "prob973_TL"
  type: "Softmax"
  bottom: "dir973_TL"
  top: "prob973_TL"
}

layer {
  name: "prob973_BR"
  type: "Softmax"
  bottom: "dir973_BR"
  top: "prob973_BR"
}

layer {
  name: "prob974_TL"
  type: "Softmax"
  bottom: "dir974_TL"
  top: "prob974_TL"
}

layer {
  name: "prob974_BR"
  type: "Softmax"
  bottom: "dir974_BR"
  top: "prob974_BR"
}

layer {
  name: "prob975_TL"
  type: "Softmax"
  bottom: "dir975_TL"
  top: "prob975_TL"
}

layer {
  name: "prob975_BR"
  type: "Softmax"
  bottom: "dir975_BR"
  top: "prob975_BR"
}

layer {
  name: "prob976_TL"
  type: "Softmax"
  bottom: "dir976_TL"
  top: "prob976_TL"
}

layer {
  name: "prob976_BR"
  type: "Softmax"
  bottom: "dir976_BR"
  top: "prob976_BR"
}

layer {
  name: "prob977_TL"
  type: "Softmax"
  bottom: "dir977_TL"
  top: "prob977_TL"
}

layer {
  name: "prob977_BR"
  type: "Softmax"
  bottom: "dir977_BR"
  top: "prob977_BR"
}

layer {
  name: "prob978_TL"
  type: "Softmax"
  bottom: "dir978_TL"
  top: "prob978_TL"
}

layer {
  name: "prob978_BR"
  type: "Softmax"
  bottom: "dir978_BR"
  top: "prob978_BR"
}

layer {
  name: "prob979_TL"
  type: "Softmax"
  bottom: "dir979_TL"
  top: "prob979_TL"
}

layer {
  name: "prob979_BR"
  type: "Softmax"
  bottom: "dir979_BR"
  top: "prob979_BR"
}

layer {
  name: "prob980_TL"
  type: "Softmax"
  bottom: "dir980_TL"
  top: "prob980_TL"
}

layer {
  name: "prob980_BR"
  type: "Softmax"
  bottom: "dir980_BR"
  top: "prob980_BR"
}

layer {
  name: "prob981_TL"
  type: "Softmax"
  bottom: "dir981_TL"
  top: "prob981_TL"
}

layer {
  name: "prob981_BR"
  type: "Softmax"
  bottom: "dir981_BR"
  top: "prob981_BR"
}

layer {
  name: "prob982_TL"
  type: "Softmax"
  bottom: "dir982_TL"
  top: "prob982_TL"
}

layer {
  name: "prob982_BR"
  type: "Softmax"
  bottom: "dir982_BR"
  top: "prob982_BR"
}

layer {
  name: "prob983_TL"
  type: "Softmax"
  bottom: "dir983_TL"
  top: "prob983_TL"
}

layer {
  name: "prob983_BR"
  type: "Softmax"
  bottom: "dir983_BR"
  top: "prob983_BR"
}

layer {
  name: "prob984_TL"
  type: "Softmax"
  bottom: "dir984_TL"
  top: "prob984_TL"
}

layer {
  name: "prob984_BR"
  type: "Softmax"
  bottom: "dir984_BR"
  top: "prob984_BR"
}

layer {
  name: "prob985_TL"
  type: "Softmax"
  bottom: "dir985_TL"
  top: "prob985_TL"
}

layer {
  name: "prob985_BR"
  type: "Softmax"
  bottom: "dir985_BR"
  top: "prob985_BR"
}

layer {
  name: "prob986_TL"
  type: "Softmax"
  bottom: "dir986_TL"
  top: "prob986_TL"
}

layer {
  name: "prob986_BR"
  type: "Softmax"
  bottom: "dir986_BR"
  top: "prob986_BR"
}

layer {
  name: "prob987_TL"
  type: "Softmax"
  bottom: "dir987_TL"
  top: "prob987_TL"
}

layer {
  name: "prob987_BR"
  type: "Softmax"
  bottom: "dir987_BR"
  top: "prob987_BR"
}

layer {
  name: "prob988_TL"
  type: "Softmax"
  bottom: "dir988_TL"
  top: "prob988_TL"
}

layer {
  name: "prob988_BR"
  type: "Softmax"
  bottom: "dir988_BR"
  top: "prob988_BR"
}

layer {
  name: "prob989_TL"
  type: "Softmax"
  bottom: "dir989_TL"
  top: "prob989_TL"
}

layer {
  name: "prob989_BR"
  type: "Softmax"
  bottom: "dir989_BR"
  top: "prob989_BR"
}

layer {
  name: "prob990_TL"
  type: "Softmax"
  bottom: "dir990_TL"
  top: "prob990_TL"
}

layer {
  name: "prob990_BR"
  type: "Softmax"
  bottom: "dir990_BR"
  top: "prob990_BR"
}

layer {
  name: "prob991_TL"
  type: "Softmax"
  bottom: "dir991_TL"
  top: "prob991_TL"
}

layer {
  name: "prob991_BR"
  type: "Softmax"
  bottom: "dir991_BR"
  top: "prob991_BR"
}

layer {
  name: "prob992_TL"
  type: "Softmax"
  bottom: "dir992_TL"
  top: "prob992_TL"
}

layer {
  name: "prob992_BR"
  type: "Softmax"
  bottom: "dir992_BR"
  top: "prob992_BR"
}

layer {
  name: "prob993_TL"
  type: "Softmax"
  bottom: "dir993_TL"
  top: "prob993_TL"
}

layer {
  name: "prob993_BR"
  type: "Softmax"
  bottom: "dir993_BR"
  top: "prob993_BR"
}

layer {
  name: "prob994_TL"
  type: "Softmax"
  bottom: "dir994_TL"
  top: "prob994_TL"
}

layer {
  name: "prob994_BR"
  type: "Softmax"
  bottom: "dir994_BR"
  top: "prob994_BR"
}

layer {
  name: "prob995_TL"
  type: "Softmax"
  bottom: "dir995_TL"
  top: "prob995_TL"
}

layer {
  name: "prob995_BR"
  type: "Softmax"
  bottom: "dir995_BR"
  top: "prob995_BR"
}

layer {
  name: "prob996_TL"
  type: "Softmax"
  bottom: "dir996_TL"
  top: "prob996_TL"
}

layer {
  name: "prob996_BR"
  type: "Softmax"
  bottom: "dir996_BR"
  top: "prob996_BR"
}

layer {
  name: "prob997_TL"
  type: "Softmax"
  bottom: "dir997_TL"
  top: "prob997_TL"
}

layer {
  name: "prob997_BR"
  type: "Softmax"
  bottom: "dir997_BR"
  top: "prob997_BR"
}

layer {
  name: "prob998_TL"
  type: "Softmax"
  bottom: "dir998_TL"
  top: "prob998_TL"
}

layer {
  name: "prob998_BR"
  type: "Softmax"
  bottom: "dir998_BR"
  top: "prob998_BR"
}

layer {
  name: "prob999_TL"
  type: "Softmax"
  bottom: "dir999_TL"
  top: "prob999_TL"
}

layer {
  name: "prob999_BR"
  type: "Softmax"
  bottom: "dir999_BR"
  top: "prob999_BR"
}

layer {
  name: "prob_cls"
  type: "Softmax"
  bottom: "cls"
  top: "prob_cls"
}

