I1029 15:15:36.988632 14742 caffe.cpp:284] Use GPU with device ID 1
I1029 15:15:37.316866 14742 net.cpp:50] Initializing net from parameters: 
state {
  phase: TEST
}
layer {
  name: "data"
  type: "Data"
  top: "data"
  top: "label"
  include {
    phase: TEST
  }
  transform_param {
    mirror: false
    crop_size: 224
    mean_value: 104
    mean_value: 117
    mean_value: 123
  }
  data_param {
    source: "/data/1__CAFFE_DATA/ilsvrc12_val_lmdb_warping"
    batch_size: 50
    backend: LMDB
  }
}
layer {
  name: "conv1/7x7_s2"
  type: "Convolution"
  bottom: "data"
  top: "conv1/7x7_s2"
  param {
    lr_mult: 0.25
    decay_mult: 1
  }
  convolution_param {
    num_output: 64
    bias_term: false
    pad: 3
    kernel_size: 7
    group: 1
    stride: 2
  }
}
layer {
  name: "conv1/7x7_s2/bn"
  type: "BN"
  bottom: "conv1/7x7_s2"
  top: "conv1/7x7_s2/bn"
  param {
    lr_mult: 0.25
    decay_mult: 1
  }
  param {
    lr_mult: 0.5
    decay_mult: 0
  }
  bn_param {
    scale_filler {
      type: "constant"
      value: 1
    }
    shift_filler {
      type: "constant"
      value: 0
    }
  }
}
layer {
  name: "conv1/relu_7x7"
  type: "ReLU"
  bottom: "conv1/7x7_s2/bn"
  top: "conv1/7x7_s2/bn"
}
layer {
  name: "pool1/3x3_s2"
  type: "Pooling"
  bottom: "conv1/7x7_s2/bn"
  top: "pool1/3x3_s2"
  pooling_param {
    pool: MAX
    kernel_size: 3
    stride: 2
    pad: 0
  }
}
layer {
  name: "conv2/3x3_reduce"
  type: "Convolution"
  bottom: "pool1/3x3_s2"
  top: "conv2/3x3_reduce"
  param {
    lr_mult: 0.25
    decay_mult: 1
  }
  convolution_param {
    num_output: 64
    bias_term: false
    pad: 0
    kernel_size: 1
    group: 1
    stride: 1
  }
}
layer {
  name: "conv2/3x3_reduce/bn"
  type: "BN"
  bottom: "conv2/3x3_reduce"
  top: "conv2/3x3_reduce/bn"
  param {
    lr_mult: 0.25
    decay_mult: 1
  }
  param {
    lr_mult: 0.5
    decay_mult: 0
  }
  bn_param {
    scale_filler {
      type: "constant"
      value: 1
    }
    shift_filler {
      type: "constant"
      value: 0
    }
  }
}
layer {
  name: "conv2/relu_3x3_reduce"
  type: "ReLU"
  bottom: "conv2/3x3_reduce/bn"
  top: "conv2/3x3_reduce/bn"
}
layer {
  name: "conv2/3x3"
  type: "Convolution"
  bottom: "conv2/3x3_reduce/bn"
  top: "conv2/3x3"
  param {
    lr_mult: 0.25
    decay_mult: 1
  }
  convolution_param {
    num_output: 192
    bias_term: false
    pad: 1
    kernel_size: 3
    group: 1
    stride: 1
  }
}
layer {
  name: "conv2/3x3/bn"
  type: "BN"
  bottom: "conv2/3x3"
  top: "conv2/3x3/bn"
  param {
    lr_mult: 0.25
    decay_mult: 1
  }
  param {
    lr_mult: 0.5
    decay_mult: 0
  }
  bn_param {
    scale_filler {
      type: "constant"
      value: 1
    }
    shift_filler {
      type: "constant"
      value: 0
    }
  }
}
layer {
  name: "conv2/relu_3x3"
  type: "ReLU"
  bottom: "conv2/3x3/bn"
  top: "conv2/3x3/bn"
}
layer {
  name: "pool2/3x3_s2"
  type: "Pooling"
  bottom: "conv2/3x3/bn"
  top: "pool2/3x3_s2"
  pooling_param {
    pool: MAX
    kernel_size: 3
    stride: 2
    pad: 0
  }
}
layer {
  name: "inception_3a/1x1"
  type: "Convolution"
  bottom: "pool2/3x3_s2"
  top: "inception_3a/1x1"
  param {
    lr_mult: 0.25
    decay_mult: 1
  }
  convolution_param {
    num_output: 64
    bias_term: false
    pad: 0
    kernel_size: 1
    group: 1
    stride: 1
  }
}
layer {
  name: "inception_3a/1x1/bn"
  type: "BN"
  bottom: "inception_3a/1x1"
  top: "inception_3a/1x1/bn"
  param {
    lr_mult: 0.25
    decay_mult: 1
  }
  param {
    lr_mult: 0.5
    decay_mult: 0
  }
  bn_param {
    scale_filler {
      type: "constant"
      value: 1
    }
    shift_filler {
      type: "constant"
      value: 0
    }
  }
}
layer {
  name: "inception_3a/relu_1x1"
  type: "ReLU"
  bottom: "inception_3a/1x1/bn"
  top: "inception_3a/1x1/bn"
}
layer {
  name: "inception_3a/3x3_reduce"
  type: "Convolution"
  bottom: "pool2/3x3_s2"
  top: "inception_3a/3x3_reduce"
  param {
    lr_mult: 0.25
    decay_mult: 1
  }
  convolution_param {
    num_output: 64
    bias_term: false
    pad: 0
    kernel_size: 1
    group: 1
    stride: 1
  }
}
layer {
  name: "inception_3a/3x3_reduce/bn"
  type: "BN"
  bottom: "inception_3a/3x3_reduce"
  top: "inception_3a/3x3_reduce/bn"
  param {
    lr_mult: 0.25
    decay_mult: 1
  }
  param {
    lr_mult: 0.5
    decay_mult: 0
  }
  bn_param {
    scale_filler {
      type: "constant"
      value: 1
    }
    shift_filler {
      type: "constant"
      value: 0
    }
  }
}
layer {
  name: "inception_3a/relu_3x3_reduce"
  type: "ReLU"
  bottom: "inception_3a/3x3_reduce/bn"
  top: "inception_3a/3x3_reduce/bn"
}
layer {
  name: "inception_3a/3x3"
  type: "Convolution"
  bottom: "inception_3a/3x3_reduce/bn"
  top: "inception_3a/3x3"
  param {
    lr_mult: 0.25
    decay_mult: 1
  }
  convolution_param {
    num_output: 64
    bias_term: false
    pad: 1
    kernel_size: 3
    group: 1
    stride: 1
  }
}
layer {
  name: "inception_3a/3x3/bn"
  type: "BN"
  bottom: "inception_3a/3x3"
  top: "inception_3a/3x3/bn"
  param {
    lr_mult: 0.25
    decay_mult: 1
  }
  param {
    lr_mult: 0.5
    decay_mult: 0
  }
  bn_param {
    scale_filler {
      type: "constant"
      value: 1
    }
    shift_filler {
      type: "constant"
      value: 0
    }
  }
}
layer {
  name: "inception_3a/relu_3x3"
  type: "ReLU"
  bottom: "inception_3a/3x3/bn"
  top: "inception_3a/3x3/bn"
}
layer {
  name: "inception_3a/double3x3_reduce"
  type: "Convolution"
  bottom: "pool2/3x3_s2"
  top: "inception_3a/double3x3_reduce"
  param {
    lr_mult: 0.25
    decay_mult: 1
  }
  convolution_param {
    num_output: 64
    bias_term: false
    pad: 0
    kernel_size: 1
    group: 1
    stride: 1
  }
}
layer {
  name: "inception_3a/double3x3_reduce/bn"
  type: "BN"
  bottom: "inception_3a/double3x3_reduce"
  top: "inception_3a/double3x3_reduce/bn"
  param {
    lr_mult: 0.25
    decay_mult: 1
  }
  param {
    lr_mult: 0.5
    decay_mult: 0
  }
  bn_param {
    scale_filler {
      type: "constant"
      value: 1
    }
    shift_filler {
      type: "constant"
      value: 0
    }
  }
}
layer {
  name: "inception_3a/relu_double3x3_reduce"
  type: "ReLU"
  bottom: "inception_3a/double3x3_reduce/bn"
  top: "inception_3a/double3x3_reduce/bn"
}
layer {
  name: "inception_3a/double3x3a"
  type: "Convolution"
  bottom: "inception_3a/double3x3_reduce/bn"
  top: "inception_3a/double3x3a"
  param {
    lr_mult: 0.25
    decay_mult: 1
  }
  convolution_param {
    num_output: 96
    bias_term: false
    pad: 1
    kernel_size: 3
    group: 1
    stride: 1
  }
}
layer {
  name: "inception_3a/double3x3a/bn"
  type: "BN"
  bottom: "inception_3a/double3x3a"
  top: "inception_3a/double3x3a/bn"
  param {
    lr_mult: 0.25
    decay_mult: 1
  }
  param {
    lr_mult: 0.5
    decay_mult: 0
  }
  bn_param {
    scale_filler {
      type: "constant"
      value: 1
    }
    shift_filler {
      type: "constant"
      value: 0
    }
  }
}
layer {
  name: "inception_3a/relu_double3x3a"
  type: "ReLU"
  bottom: "inception_3a/double3x3a/bn"
  top: "inception_3a/double3x3a/bn"
}
layer {
  name: "inception_3a/double3x3b"
  type: "Convolution"
  bottom: "inception_3a/double3x3a/bn"
  top: "inception_3a/double3x3b"
  param {
    lr_mult: 0.25
    decay_mult: 1
  }
  convolution_param {
    num_output: 96
    bias_term: false
    pad: 1
    kernel_size: 3
    group: 1
    stride: 1
  }
}
layer {
  name: "inception_3a/double3x3b/bn"
  type: "BN"
  bottom: "inception_3a/double3x3b"
  top: "inception_3a/double3x3b/bn"
  param {
    lr_mult: 0.25
    decay_mult: 1
  }
  param {
    lr_mult: 0.5
    decay_mult: 0
  }
  bn_param {
    scale_filler {
      type: "constant"
      value: 1
    }
    shift_filler {
      type: "constant"
      value: 0
    }
  }
}
layer {
  name: "inception_3a/relu_double3x3b"
  type: "ReLU"
  bottom: "inception_3a/double3x3b/bn"
  top: "inception_3a/double3x3b/bn"
}
layer {
  name: "inception_3a/pool"
  type: "Pooling"
  bottom: "pool2/3x3_s2"
  top: "inception_3a/pool"
  pooling_param {
    pool: AVE
    kernel_size: 3
    stride: 1
    pad: 1
  }
}
layer {
  name: "inception_3a/pool_proj"
  type: "Convolution"
  bottom: "inception_3a/pool"
  top: "inception_3a/pool_proj"
  param {
    lr_mult: 0.25
    decay_mult: 1
  }
  convolution_param {
    num_output: 32
    bias_term: false
    pad: 0
    kernel_size: 1
    group: 1
    stride: 1
  }
}
layer {
  name: "inception_3a/pool_proj/bn"
  type: "BN"
  bottom: "inception_3a/pool_proj"
  top: "inception_3a/pool_proj/bn"
  param {
    lr_mult: 0.25
    decay_mult: 1
  }
  param {
    lr_mult: 0.5
    decay_mult: 0
  }
  bn_param {
    scale_filler {
      type: "constant"
      value: 1
    }
    shift_filler {
      type: "constant"
      value: 0
    }
  }
}
layer {
  name: "inception_3a/relu_pool_proj"
  type: "ReLU"
  bottom: "inception_3a/pool_proj/bn"
  top: "inception_3a/pool_proj/bn"
}
layer {
  name: "inception_3a/output"
  type: "Concat"
  bottom: "inception_3a/1x1/bn"
  bottom: "inception_3a/3x3/bn"
  bottom: "inception_3a/double3x3b/bn"
  bottom: "inception_3a/pool_proj/bn"
  top: "inception_3a/output"
}
layer {
  name: "inception_3b/1x1"
  type: "Convolution"
  bottom: "inception_3a/output"
  top: "inception_3b/1x1"
  param {
    lr_mult: 0.25
    decay_mult: 1
  }
  convolution_param {
    num_output: 64
    bias_term: false
    pad: 0
    kernel_size: 1
    group: 1
    stride: 1
  }
}
layer {
  name: "inception_3b/1x1/bn"
  type: "BN"
  bottom: "inception_3b/1x1"
  top: "inception_3b/1x1/bn"
  param {
    lr_mult: 0.25
    decay_mult: 1
  }
  param {
    lr_mult: 0.5
    decay_mult: 0
  }
  bn_param {
    scale_filler {
      type: "constant"
      value: 1
    }
    shift_filler {
      type: "constant"
      value: 0
    }
  }
}
layer {
  name: "inception_3b/relu_1x1"
  type: "ReLU"
  bottom: "inception_3b/1x1/bn"
  top: "inception_3b/1x1/bn"
}
layer {
  name: "inception_3b/3x3_reduce"
  type: "Convolution"
  bottom: "inception_3a/output"
  top: "inception_3b/3x3_reduce"
  param {
    lr_mult: 0.25
    decay_mult: 1
  }
  convolution_param {
    num_output: 64
    bias_term: false
    pad: 0
    kernel_size: 1
    group: 1
    stride: 1
  }
}
layer {
  name: "inception_3b/3x3_reduce/bn"
  type: "BN"
  bottom: "inception_3b/3x3_reduce"
  top: "inception_3b/3x3_reduce/bn"
  param {
    lr_mult: 0.25
    decay_mult: 1
  }
  param {
    lr_mult: 0.5
    decay_mult: 0
  }
  bn_param {
    scale_filler {
      type: "constant"
      value: 1
    }
    shift_filler {
      type: "constant"
      value: 0
    }
  }
}
layer {
  name: "inception_3b/relu_3x3_reduce"
  type: "ReLU"
  bottom: "inception_3b/3x3_reduce/bn"
  top: "inception_3b/3x3_reduce/bn"
}
layer {
  name: "inception_3b/3x3"
  type: "Convolution"
  bottom: "inception_3b/3x3_reduce/bn"
  top: "inception_3b/3x3"
  param {
    lr_mult: 0.25
    decay_mult: 1
  }
  convolution_param {
    num_output: 96
    bias_term: false
    pad: 1
    kernel_size: 3
    group: 1
    stride: 1
  }
}
layer {
  name: "inception_3b/3x3/bn"
  type: "BN"
  bottom: "inception_3b/3x3"
  top: "inception_3b/3x3/bn"
  param {
    lr_mult: 0.25
    decay_mult: 1
  }
  param {
    lr_mult: 0.5
    decay_mult: 0
  }
  bn_param {
    scale_filler {
      type: "constant"
      value: 1
    }
    shift_filler {
      type: "constant"
      value: 0
    }
  }
}
layer {
  name: "inception_3b/relu_3x3"
  type: "ReLU"
  bottom: "inception_3b/3x3/bn"
  top: "inception_3b/3x3/bn"
}
layer {
  name: "inception_3b/double3x3_reduce"
  type: "Convolution"
  bottom: "inception_3a/output"
  top: "inception_3b/double3x3_reduce"
  param {
    lr_mult: 0.25
    decay_mult: 1
  }
  convolution_param {
    num_output: 64
    bias_term: false
    pad: 0
    kernel_size: 1
    group: 1
    stride: 1
  }
}
layer {
  name: "inception_3b/double3x3_reduce/bn"
  type: "BN"
  bottom: "inception_3b/double3x3_reduce"
  top: "inception_3b/double3x3_reduce/bn"
  param {
    lr_mult: 0.25
    decay_mult: 1
  }
  param {
    lr_mult: 0.5
    decay_mult: 0
  }
  bn_param {
    scale_filler {
      type: "constant"
      value: 1
    }
    shift_filler {
      type: "constant"
      value: 0
    }
  }
}
layer {
  name: "inception_3b/relu_double3x3_reduce"
  type: "ReLU"
  bottom: "inception_3b/double3x3_reduce/bn"
  top: "inception_3b/double3x3_reduce/bn"
}
layer {
  name: "inception_3b/double3x3a"
  type: "Convolution"
  bottom: "inception_3b/double3x3_reduce/bn"
  top: "inception_3b/double3x3a"
  param {
    lr_mult: 0.25
    decay_mult: 1
  }
  convolution_param {
    num_output: 96
    bias_term: false
    pad: 1
    kernel_size: 3
    group: 1
    stride: 1
  }
}
layer {
  name: "inception_3b/double3x3a/bn"
  type: "BN"
  bottom: "inception_3b/double3x3a"
  top: "inception_3b/double3x3a/bn"
  param {
    lr_mult: 0.25
    decay_mult: 1
  }
  param {
    lr_mult: 0.5
    decay_mult: 0
  }
  bn_param {
    scale_filler {
      type: "constant"
      value: 1
    }
    shift_filler {
      type: "constant"
      value: 0
    }
  }
}
layer {
  name: "inception_3b/relu_double3x3a"
  type: "ReLU"
  bottom: "inception_3b/double3x3a/bn"
  top: "inception_3b/double3x3a/bn"
}
layer {
  name: "inception_3b/double3x3b"
  type: "Convolution"
  bottom: "inception_3b/double3x3a/bn"
  top: "inception_3b/double3x3b"
  param {
    lr_mult: 0.25
    decay_mult: 1
  }
  convolution_param {
    num_output: 96
    bias_term: false
    pad: 1
    kernel_size: 3
    group: 1
    stride: 1
  }
}
layer {
  name: "inception_3b/double3x3b/bn"
  type: "BN"
  bottom: "inception_3b/double3x3b"
  top: "inception_3b/double3x3b/bn"
  param {
    lr_mult: 0.25
    decay_mult: 1
  }
  param {
    lr_mult: 0.5
    decay_mult: 0
  }
  bn_param {
    scale_filler {
      type: "constant"
      value: 1
    }
    shift_filler {
      type: "constant"
      value: 0
    }
  }
}
layer {
  name: "inception_3b/relu_double3x3b"
  type: "ReLU"
  bottom: "inception_3b/double3x3b/bn"
  top: "inception_3b/double3x3b/bn"
}
layer {
  name: "inception_3b/pool"
  type: "Pooling"
  bottom: "inception_3a/output"
  top: "inception_3b/pool"
  pooling_param {
    pool: AVE
    kernel_size: 3
    stride: 1
    pad: 1
  }
}
layer {
  name: "inception_3b/pool_proj"
  type: "Convolution"
  bottom: "inception_3b/pool"
  top: "inception_3b/pool_proj"
  param {
    lr_mult: 0.25
    decay_mult: 1
  }
  convolution_param {
    num_output: 64
    bias_term: false
    pad: 0
    kernel_size: 1
    group: 1
    stride: 1
  }
}
layer {
  name: "inception_3b/pool_proj/bn"
  type: "BN"
  bottom: "inception_3b/pool_proj"
  top: "inception_3b/pool_proj/bn"
  param {
    lr_mult: 0.25
    decay_mult: 1
  }
  param {
    lr_mult: 0.5
    decay_mult: 0
  }
  bn_param {
    scale_filler {
      type: "constant"
      value: 1
    }
    shift_filler {
      type: "constant"
      value: 0
    }
  }
}
layer {
  name: "inception_3b/relu_pool_proj"
  type: "ReLU"
  bottom: "inception_3b/pool_proj/bn"
  top: "inception_3b/pool_proj/bn"
}
layer {
  name: "inception_3b/output"
  type: "Concat"
  bottom: "inception_3b/1x1/bn"
  bottom: "inception_3b/3x3/bn"
  bottom: "inception_3b/double3x3b/bn"
  bottom: "inception_3b/pool_proj/bn"
  top: "inception_3b/output"
}
layer {
  name: "inception_3c/3x3_reduce"
  type: "Convolution"
  bottom: "inception_3b/output"
  top: "inception_3c/3x3_reduce"
  param {
    lr_mult: 0.25
    decay_mult: 1
  }
  convolution_param {
    num_output: 128
    bias_term: false
    pad: 0
    kernel_size: 1
    group: 1
    stride: 1
  }
}
layer {
  name: "inception_3c/3x3_reduce/bn"
  type: "BN"
  bottom: "inception_3c/3x3_reduce"
  top: "inception_3c/3x3_reduce/bn"
  param {
    lr_mult: 0.25
    decay_mult: 1
  }
  param {
    lr_mult: 0.5
    decay_mult: 0
  }
  bn_param {
    scale_filler {
      type: "constant"
      value: 1
    }
    shift_filler {
      type: "constant"
      value: 0
    }
  }
}
layer {
  name: "inception_3c/relu_3x3_reduce"
  type: "ReLU"
  bottom: "inception_3c/3x3_reduce/bn"
  top: "inception_3c/3x3_reduce/bn"
}
layer {
  name: "inception_3c/3x3"
  type: "Convolution"
  bottom: "inception_3c/3x3_reduce/bn"
  top: "inception_3c/3x3"
  param {
    lr_mult: 0.25
    decay_mult: 1
  }
  convolution_param {
    num_output: 160
    bias_term: false
    pad: 1
    kernel_size: 3
    group: 1
    stride: 2
  }
}
layer {
  name: "inception_3c/3x3/bn"
  type: "BN"
  bottom: "inception_3c/3x3"
  top: "inception_3c/3x3/bn"
  param {
    lr_mult: 0.25
    decay_mult: 1
  }
  param {
    lr_mult: 0.5
    decay_mult: 0
  }
  bn_param {
    scale_filler {
      type: "constant"
      value: 1
    }
    shift_filler {
      type: "constant"
      value: 0
    }
  }
}
layer {
  name: "inception_3c/relu_3x3"
  type: "ReLU"
  bottom: "inception_3c/3x3/bn"
  top: "inception_3c/3x3/bn"
}
layer {
  name: "inception_3c/double3x3_reduce"
  type: "Convolution"
  bottom: "inception_3b/output"
  top: "inception_3c/double3x3_reduce"
  param {
    lr_mult: 0.25
    decay_mult: 1
  }
  convolution_param {
    num_output: 64
    bias_term: false
    pad: 0
    kernel_size: 1
    group: 1
    stride: 1
  }
}
layer {
  name: "inception_3c/double3x3_reduce/bn"
  type: "BN"
  bottom: "inception_3c/double3x3_reduce"
  top: "inception_3c/double3x3_reduce/bn"
  param {
    lr_mult: 0.25
    decay_mult: 1
  }
  param {
    lr_mult: 0.5
    decay_mult: 0
  }
  bn_param {
    scale_filler {
      type: "constant"
      value: 1
    }
    shift_filler {
      type: "constant"
      value: 0
    }
  }
}
layer {
  name: "inception_3c/relu_double3x3_reduce"
  type: "ReLU"
  bottom: "inception_3c/double3x3_reduce/bn"
  top: "inception_3c/double3x3_reduce/bn"
}
layer {
  name: "inception_3c/double3x3a"
  type: "Convolution"
  bottom: "inception_3c/double3x3_reduce/bn"
  top: "inception_3c/double3x3a"
  param {
    lr_mult: 0.25
    decay_mult: 1
  }
  convolution_param {
    num_output: 96
    bias_term: false
    pad: 1
    kernel_size: 3
    group: 1
    stride: 1
  }
}
layer {
  name: "inception_3c/double3x3a/bn"
  type: "BN"
  bottom: "inception_3c/double3x3a"
  top: "inception_3c/double3x3a/bn"
  param {
    lr_mult: 0.25
    decay_mult: 1
  }
  param {
    lr_mult: 0.5
    decay_mult: 0
  }
  bn_param {
    scale_filler {
      type: "constant"
      value: 1
    }
    shift_filler {
      type: "constant"
      value: 0
    }
  }
}
layer {
  name: "inception_3c/relu_double3x3a"
  type: "ReLU"
  bottom: "inception_3c/double3x3a/bn"
  top: "inception_3c/double3x3a/bn"
}
layer {
  name: "inception_3c/double3x3b"
  type: "Convolution"
  bottom: "inception_3c/double3x3a/bn"
  top: "inception_3c/double3x3b"
  param {
    lr_mult: 0.25
    decay_mult: 1
  }
  convolution_param {
    num_output: 96
    bias_term: false
    pad: 1
    kernel_size: 3
    group: 1
    stride: 2
  }
}
layer {
  name: "inception_3c/double3x3b/bn"
  type: "BN"
  bottom: "inception_3c/double3x3b"
  top: "inception_3c/double3x3b/bn"
  param {
    lr_mult: 0.25
    decay_mult: 1
  }
  param {
    lr_mult: 0.5
    decay_mult: 0
  }
  bn_param {
    scale_filler {
      type: "constant"
      value: 1
    }
    shift_filler {
      type: "constant"
      value: 0
    }
  }
}
layer {
  name: "inception_3c/relu_double3x3b"
  type: "ReLU"
  bottom: "inception_3c/double3x3b/bn"
  top: "inception_3c/double3x3b/bn"
}
layer {
  name: "inception_3c/pool/3x3_s2"
  type: "Pooling"
  bottom: "inception_3b/output"
  top: "inception_3c/pool/3x3_s2"
  pooling_param {
    pool: MAX
    kernel_size: 3
    stride: 2
    pad: 0
  }
}
layer {
  name: "inception_3c/output"
  type: "Concat"
  bottom: "inception_3c/3x3/bn"
  bottom: "inception_3c/double3x3b/bn"
  bottom: "inception_3c/pool/3x3_s2"
  top: "inception_3c/output"
}
layer {
  name: "inception_4a/1x1"
  type: "Convolution"
  bottom: "inception_3c/output"
  top: "inception_4a/1x1"
  param {
    lr_mult: 0.25
    decay_mult: 1
  }
  convolution_param {
    num_output: 224
    bias_term: false
    pad: 0
    kernel_size: 1
    group: 1
    stride: 1
  }
}
layer {
  name: "inception_4a/1x1/bn"
  type: "BN"
  bottom: "inception_4a/1x1"
  top: "inception_4a/1x1/bn"
  param {
    lr_mult: 0.25
    decay_mult: 1
  }
  param {
    lr_mult: 0.5
    decay_mult: 0
  }
  bn_param {
    scale_filler {
      type: "constant"
      value: 1
    }
    shift_filler {
      type: "constant"
      value: 0
    }
  }
}
layer {
  name: "inception_4a/relu_1x1"
  type: "ReLU"
  bottom: "inception_4a/1x1/bn"
  top: "inception_4a/1x1/bn"
}
layer {
  name: "inception_4a/3x3_reduce"
  type: "Convolution"
  bottom: "inception_3c/output"
  top: "inception_4a/3x3_reduce"
  param {
    lr_mult: 0.25
    decay_mult: 1
  }
  convolution_param {
    num_output: 64
    bias_term: false
    pad: 0
    kernel_size: 1
    group: 1
    stride: 1
  }
}
layer {
  name: "inception_4a/3x3_reduce/bn"
  type: "BN"
  bottom: "inception_4a/3x3_reduce"
  top: "inception_4a/3x3_reduce/bn"
  param {
    lr_mult: 0.25
    decay_mult: 1
  }
  param {
    lr_mult: 0.5
    decay_mult: 0
  }
  bn_param {
    scale_filler {
      type: "constant"
      value: 1
    }
    shift_filler {
      type: "constant"
      value: 0
    }
  }
}
layer {
  name: "inception_4a/relu_3x3_reduce"
  type: "ReLU"
  bottom: "inception_4a/3x3_reduce/bn"
  top: "inception_4a/3x3_reduce/bn"
}
layer {
  name: "inception_4a/3x3"
  type: "Convolution"
  bottom: "inception_4a/3x3_reduce/bn"
  top: "inception_4a/3x3"
  param {
    lr_mult: 0.25
    decay_mult: 1
  }
  convolution_param {
    num_output: 96
    bias_term: false
    pad: 1
    kernel_size: 3
    group: 1
    stride: 1
  }
}
layer {
  name: "inception_4a/3x3/bn"
  type: "BN"
  bottom: "inception_4a/3x3"
  top: "inception_4a/3x3/bn"
  param {
    lr_mult: 0.25
    decay_mult: 1
  }
  param {
    lr_mult: 0.5
    decay_mult: 0
  }
  bn_param {
    scale_filler {
      type: "constant"
      value: 1
    }
    shift_filler {
      type: "constant"
      value: 0
    }
  }
}
layer {
  name: "inception_4a/relu_3x3"
  type: "ReLU"
  bottom: "inception_4a/3x3/bn"
  top: "inception_4a/3x3/bn"
}
layer {
  name: "inception_4a/double3x3_reduce"
  type: "Convolution"
  bottom: "inception_3c/output"
  top: "inception_4a/double3x3_reduce"
  param {
    lr_mult: 0.25
    decay_mult: 1
  }
  convolution_param {
    num_output: 96
    bias_term: false
    pad: 0
    kernel_size: 1
    group: 1
    stride: 1
  }
}
layer {
  name: "inception_4a/double3x3_reduce/bn"
  type: "BN"
  bottom: "inception_4a/double3x3_reduce"
  top: "inception_4a/double3x3_reduce/bn"
  param {
    lr_mult: 0.25
    decay_mult: 1
  }
  param {
    lr_mult: 0.5
    decay_mult: 0
  }
  bn_param {
    scale_filler {
      type: "constant"
      value: 1
    }
    shift_filler {
      type: "constant"
      value: 0
    }
  }
}
layer {
  name: "inception_4a/relu_double3x3_reduce"
  type: "ReLU"
  bottom: "inception_4a/double3x3_reduce/bn"
  top: "inception_4a/double3x3_reduce/bn"
}
layer {
  name: "inception_4a/double3x3a"
  type: "Convolution"
  bottom: "inception_4a/double3x3_reduce/bn"
  top: "inception_4a/double3x3a"
  param {
    lr_mult: 0.25
    decay_mult: 1
  }
  convolution_param {
    num_output: 128
    bias_term: false
    pad: 1
    kernel_size: 3
    group: 1
    stride: 1
  }
}
layer {
  name: "inception_4a/double3x3a/bn"
  type: "BN"
  bottom: "inception_4a/double3x3a"
  top: "inception_4a/double3x3a/bn"
  param {
    lr_mult: 0.25
    decay_mult: 1
  }
  param {
    lr_mult: 0.5
    decay_mult: 0
  }
  bn_param {
    scale_filler {
      type: "constant"
      value: 1
    }
    shift_filler {
      type: "constant"
      value: 0
    }
  }
}
layer {
  name: "inception_4a/relu_double3x3a"
  type: "ReLU"
  bottom: "inception_4a/double3x3a/bn"
  top: "inception_4a/double3x3a/bn"
}
layer {
  name: "inception_4a/double3x3b"
  type: "Convolution"
  bottom: "inception_4a/double3x3a/bn"
  top: "inception_4a/double3x3b"
  param {
    lr_mult: 0.25
    decay_mult: 1
  }
  convolution_param {
    num_output: 128
    bias_term: false
    pad: 1
    kernel_size: 3
    group: 1
    stride: 1
  }
}
layer {
  name: "inception_4a/double3x3b/bn"
  type: "BN"
  bottom: "inception_4a/double3x3b"
  top: "inception_4a/double3x3b/bn"
  param {
    lr_mult: 0.25
    decay_mult: 1
  }
  param {
    lr_mult: 0.5
    decay_mult: 0
  }
  bn_param {
    scale_filler {
      type: "constant"
      value: 1
    }
    shift_filler {
      type: "constant"
      value: 0
    }
  }
}
layer {
  name: "inception_4a/relu_double3x3b"
  type: "ReLU"
  bottom: "inception_4a/double3x3b/bn"
  top: "inception_4a/double3x3b/bn"
}
layer {
  name: "inception_4a/pool"
  type: "Pooling"
  bottom: "inception_3c/output"
  top: "inception_4a/pool"
  pooling_param {
    pool: AVE
    kernel_size: 3
    stride: 1
    pad: 1
  }
}
layer {
  name: "inception_4a/pool_proj"
  type: "Convolution"
  bottom: "inception_4a/pool"
  top: "inception_4a/pool_proj"
  param {
    lr_mult: 0.25
    decay_mult: 1
  }
  convolution_param {
    num_output: 128
    bias_term: false
    pad: 0
    kernel_size: 1
    group: 1
    stride: 1
  }
}
layer {
  name: "inception_4a/pool_proj/bn"
  type: "BN"
  bottom: "inception_4a/pool_proj"
  top: "inception_4a/pool_proj/bn"
  param {
    lr_mult: 0.25
    decay_mult: 1
  }
  param {
    lr_mult: 0.5
    decay_mult: 0
  }
  bn_param {
    scale_filler {
      type: "constant"
      value: 1
    }
    shift_filler {
      type: "constant"
      value: 0
    }
  }
}
layer {
  name: "inception_4a/relu_pool_proj"
  type: "ReLU"
  bottom: "inception_4a/pool_proj/bn"
  top: "inception_4a/pool_proj/bn"
}
layer {
  name: "inception_4a/output"
  type: "Concat"
  bottom: "inception_4a/1x1/bn"
  bottom: "inception_4a/3x3/bn"
  bottom: "inception_4a/double3x3b/bn"
  bottom: "inception_4a/pool_proj/bn"
  top: "inception_4a/output"
}
layer {
  name: "inception_4b/1x1"
  type: "Convolution"
  bottom: "inception_4a/output"
  top: "inception_4b/1x1"
  param {
    lr_mult: 0.25
    decay_mult: 1
  }
  convolution_param {
    num_output: 192
    bias_term: false
    pad: 0
    kernel_size: 1
    group: 1
    stride: 1
  }
}
layer {
  name: "inception_4b/1x1/bn"
  type: "BN"
  bottom: "inception_4b/1x1"
  top: "inception_4b/1x1/bn"
  param {
    lr_mult: 0.25
    decay_mult: 1
  }
  param {
    lr_mult: 0.5
    decay_mult: 0
  }
  bn_param {
    scale_filler {
      type: "constant"
      value: 1
    }
    shift_filler {
      type: "constant"
      value: 0
    }
  }
}
layer {
  name: "inception_4b/relu_1x1"
  type: "ReLU"
  bottom: "inception_4b/1x1/bn"
  top: "inception_4b/1x1/bn"
}
layer {
  name: "inception_4b/3x3_reduce"
  type: "Convolution"
  bottom: "inception_4a/output"
  top: "inception_4b/3x3_reduce"
  param {
    lr_mult: 0.25
    decay_mult: 1
  }
  convolution_param {
    num_output: 96
    bias_term: false
    pad: 0
    kernel_size: 1
    group: 1
    stride: 1
  }
}
layer {
  name: "inception_4b/3x3_reduce/bn"
  type: "BN"
  bottom: "inception_4b/3x3_reduce"
  top: "inception_4b/3x3_reduce/bn"
  param {
    lr_mult: 0.25
    decay_mult: 1
  }
  param {
    lr_mult: 0.5
    decay_mult: 0
  }
  bn_param {
    scale_filler {
      type: "constant"
      value: 1
    }
    shift_filler {
      type: "constant"
      value: 0
    }
  }
}
layer {
  name: "inception_4b/relu_3x3_reduce"
  type: "ReLU"
  bottom: "inception_4b/3x3_reduce/bn"
  top: "inception_4b/3x3_reduce/bn"
}
layer {
  name: "inception_4b/3x3"
  type: "Convolution"
  bottom: "inception_4b/3x3_reduce/bn"
  top: "inception_4b/3x3"
  param {
    lr_mult: 0.25
    decay_mult: 1
  }
  convolution_param {
    num_output: 128
    bias_term: false
    pad: 1
    kernel_size: 3
    group: 1
    stride: 1
  }
}
layer {
  name: "inception_4b/3x3/bn"
  type: "BN"
  bottom: "inception_4b/3x3"
  top: "inception_4b/3x3/bn"
  param {
    lr_mult: 0.25
    decay_mult: 1
  }
  param {
    lr_mult: 0.5
    decay_mult: 0
  }
  bn_param {
    scale_filler {
      type: "constant"
      value: 1
    }
    shift_filler {
      type: "constant"
      value: 0
    }
  }
}
layer {
  name: "inception_4b/relu_3x3"
  type: "ReLU"
  bottom: "inception_4b/3x3/bn"
  top: "inception_4b/3x3/bn"
}
layer {
  name: "inception_4b/double3x3_reduce"
  type: "Convolution"
  bottom: "inception_4a/output"
  top: "inception_4b/double3x3_reduce"
  param {
    lr_mult: 0.25
    decay_mult: 1
  }
  convolution_param {
    num_output: 96
    bias_term: false
    pad: 0
    kernel_size: 1
    group: 1
    stride: 1
  }
}
layer {
  name: "inception_4b/double3x3_reduce/bn"
  type: "BN"
  bottom: "inception_4b/double3x3_reduce"
  top: "inception_4b/double3x3_reduce/bn"
  param {
    lr_mult: 0.25
    decay_mult: 1
  }
  param {
    lr_mult: 0.5
    decay_mult: 0
  }
  bn_param {
    scale_filler {
      type: "constant"
      value: 1
    }
    shift_filler {
      type: "constant"
      value: 0
    }
  }
}
layer {
  name: "inception_4b/relu_double3x3_reduce"
  type: "ReLU"
  bottom: "inception_4b/double3x3_reduce/bn"
  top: "inception_4b/double3x3_reduce/bn"
}
layer {
  name: "inception_4b/double3x3a"
  type: "Convolution"
  bottom: "inception_4b/double3x3_reduce/bn"
  top: "inception_4b/double3x3a"
  param {
    lr_mult: 0.25
    decay_mult: 1
  }
  convolution_param {
    num_output: 128
    bias_term: false
    pad: 1
    kernel_size: 3
    group: 1
    stride: 1
  }
}
layer {
  name: "inception_4b/double3x3a/bn"
  type: "BN"
  bottom: "inception_4b/double3x3a"
  top: "inception_4b/double3x3a/bn"
  param {
    lr_mult: 0.25
    decay_mult: 1
  }
  param {
    lr_mult: 0.5
    decay_mult: 0
  }
  bn_param {
    scale_filler {
      type: "constant"
      value: 1
    }
    shift_filler {
      type: "constant"
      value: 0
    }
  }
}
layer {
  name: "inception_4b/relu_double3x3a"
  type: "ReLU"
  bottom: "inception_4b/double3x3a/bn"
  top: "inception_4b/double3x3a/bn"
}
layer {
  name: "inception_4b/double3x3b"
  type: "Convolution"
  bottom: "inception_4b/double3x3a/bn"
  top: "inception_4b/double3x3b"
  param {
    lr_mult: 0.25
    decay_mult: 1
  }
  convolution_param {
    num_outp
I1029 15:15:37.317845 14742 layer_factory.hpp:76] Creating layer data
I1029 15:15:37.318351 14742 net.cpp:110] Creating Layer data
I1029 15:15:37.318385 14742 net.cpp:433] data -> data
I1029 15:15:37.318428 14742 net.cpp:433] data -> label
I1029 15:15:37.382838 14744 db_lmdb.cpp:22] Opened lmdb /data/1__CAFFE_DATA/ilsvrc12_val_lmdb_warping
I1029 15:15:37.405745 14742 data_layer.cpp:44] output data size: 50,3,224,224
I1029 15:15:37.474413 14742 net.cpp:155] Setting up data
I1029 15:15:37.474525 14742 net.cpp:163] Top shape: 50 3 224 224 (7526400)
I1029 15:15:37.474539 14742 net.cpp:163] Top shape: 50 (50)
I1029 15:15:37.474552 14742 layer_factory.hpp:76] Creating layer conv1/7x7_s2
I1029 15:15:37.474580 14742 net.cpp:110] Creating Layer conv1/7x7_s2
I1029 15:15:37.474589 14742 net.cpp:477] conv1/7x7_s2 <- data
I1029 15:15:37.474613 14742 net.cpp:433] conv1/7x7_s2 -> conv1/7x7_s2
I1029 15:15:37.502094 14745 blocking_queue.cpp:50] Waiting for data
I1029 15:15:37.683291 14742 net.cpp:155] Setting up conv1/7x7_s2
I1029 15:15:37.683346 14742 net.cpp:163] Top shape: 50 64 112 112 (40140800)
I1029 15:15:37.683373 14742 layer_factory.hpp:76] Creating layer conv1/7x7_s2/bn
I1029 15:15:37.683400 14742 net.cpp:110] Creating Layer conv1/7x7_s2/bn
I1029 15:15:37.683410 14742 net.cpp:477] conv1/7x7_s2/bn <- conv1/7x7_s2
I1029 15:15:37.683421 14742 net.cpp:433] conv1/7x7_s2/bn -> conv1/7x7_s2/bn
I1029 15:15:37.683555 14742 net.cpp:155] Setting up conv1/7x7_s2/bn
I1029 15:15:37.683568 14742 net.cpp:163] Top shape: 50 64 112 112 (40140800)
I1029 15:15:37.683583 14742 layer_factory.hpp:76] Creating layer conv1/relu_7x7
I1029 15:15:37.683593 14742 net.cpp:110] Creating Layer conv1/relu_7x7
I1029 15:15:37.683599 14742 net.cpp:477] conv1/relu_7x7 <- conv1/7x7_s2/bn
I1029 15:15:37.683607 14742 net.cpp:419] conv1/relu_7x7 -> conv1/7x7_s2/bn (in-place)
I1029 15:15:37.683671 14742 net.cpp:155] Setting up conv1/relu_7x7
I1029 15:15:37.683682 14742 net.cpp:163] Top shape: 50 64 112 112 (40140800)
I1029 15:15:37.683688 14742 layer_factory.hpp:76] Creating layer pool1/3x3_s2
I1029 15:15:37.683702 14742 net.cpp:110] Creating Layer pool1/3x3_s2
I1029 15:15:37.683708 14742 net.cpp:477] pool1/3x3_s2 <- conv1/7x7_s2/bn
I1029 15:15:37.683717 14742 net.cpp:433] pool1/3x3_s2 -> pool1/3x3_s2
I1029 15:15:37.683794 14742 net.cpp:155] Setting up pool1/3x3_s2
I1029 15:15:37.683805 14742 net.cpp:163] Top shape: 50 64 56 56 (10035200)
I1029 15:15:37.683811 14742 layer_factory.hpp:76] Creating layer conv2/3x3_reduce
I1029 15:15:37.683823 14742 net.cpp:110] Creating Layer conv2/3x3_reduce
I1029 15:15:37.683830 14742 net.cpp:477] conv2/3x3_reduce <- pool1/3x3_s2
I1029 15:15:37.683837 14742 net.cpp:433] conv2/3x3_reduce -> conv2/3x3_reduce
I1029 15:15:37.684691 14742 net.cpp:155] Setting up conv2/3x3_reduce
I1029 15:15:37.684720 14742 net.cpp:163] Top shape: 50 64 56 56 (10035200)
I1029 15:15:37.684730 14742 layer_factory.hpp:76] Creating layer conv2/3x3_reduce/bn
I1029 15:15:37.684739 14742 net.cpp:110] Creating Layer conv2/3x3_reduce/bn
I1029 15:15:37.684746 14742 net.cpp:477] conv2/3x3_reduce/bn <- conv2/3x3_reduce
I1029 15:15:37.684753 14742 net.cpp:433] conv2/3x3_reduce/bn -> conv2/3x3_reduce/bn
I1029 15:15:37.684823 14742 net.cpp:155] Setting up conv2/3x3_reduce/bn
I1029 15:15:37.684834 14742 net.cpp:163] Top shape: 50 64 56 56 (10035200)
I1029 15:15:37.684846 14742 layer_factory.hpp:76] Creating layer conv2/relu_3x3_reduce
I1029 15:15:37.684854 14742 net.cpp:110] Creating Layer conv2/relu_3x3_reduce
I1029 15:15:37.684860 14742 net.cpp:477] conv2/relu_3x3_reduce <- conv2/3x3_reduce/bn
I1029 15:15:37.684867 14742 net.cpp:419] conv2/relu_3x3_reduce -> conv2/3x3_reduce/bn (in-place)
I1029 15:15:37.684921 14742 net.cpp:155] Setting up conv2/relu_3x3_reduce
I1029 15:15:37.684931 14742 net.cpp:163] Top shape: 50 64 56 56 (10035200)
I1029 15:15:37.684937 14742 layer_factory.hpp:76] Creating layer conv2/3x3
I1029 15:15:37.684945 14742 net.cpp:110] Creating Layer conv2/3x3
I1029 15:15:37.684952 14742 net.cpp:477] conv2/3x3 <- conv2/3x3_reduce/bn
I1029 15:15:37.684959 14742 net.cpp:433] conv2/3x3 -> conv2/3x3
I1029 15:15:37.685801 14742 net.cpp:155] Setting up conv2/3x3
I1029 15:15:37.685816 14742 net.cpp:163] Top shape: 50 192 56 56 (30105600)
I1029 15:15:37.685823 14742 layer_factory.hpp:76] Creating layer conv2/3x3/bn
I1029 15:15:37.685833 14742 net.cpp:110] Creating Layer conv2/3x3/bn
I1029 15:15:37.685839 14742 net.cpp:477] conv2/3x3/bn <- conv2/3x3
I1029 15:15:37.685847 14742 net.cpp:433] conv2/3x3/bn -> conv2/3x3/bn
I1029 15:15:37.685921 14742 net.cpp:155] Setting up conv2/3x3/bn
I1029 15:15:37.685932 14742 net.cpp:163] Top shape: 50 192 56 56 (30105600)
I1029 15:15:37.685942 14742 layer_factory.hpp:76] Creating layer conv2/relu_3x3
I1029 15:15:37.685950 14742 net.cpp:110] Creating Layer conv2/relu_3x3
I1029 15:15:37.685956 14742 net.cpp:477] conv2/relu_3x3 <- conv2/3x3/bn
I1029 15:15:37.685963 14742 net.cpp:419] conv2/relu_3x3 -> conv2/3x3/bn (in-place)
I1029 15:15:37.686138 14742 net.cpp:155] Setting up conv2/relu_3x3
I1029 15:15:37.686151 14742 net.cpp:163] Top shape: 50 192 56 56 (30105600)
I1029 15:15:37.686157 14742 layer_factory.hpp:76] Creating layer pool2/3x3_s2
I1029 15:15:37.686167 14742 net.cpp:110] Creating Layer pool2/3x3_s2
I1029 15:15:37.686172 14742 net.cpp:477] pool2/3x3_s2 <- conv2/3x3/bn
I1029 15:15:37.686179 14742 net.cpp:433] pool2/3x3_s2 -> pool2/3x3_s2
I1029 15:15:37.686231 14742 net.cpp:155] Setting up pool2/3x3_s2
I1029 15:15:37.686241 14742 net.cpp:163] Top shape: 50 192 28 28 (7526400)
I1029 15:15:37.686247 14742 layer_factory.hpp:76] Creating layer pool2/3x3_s2_pool2/3x3_s2_0_split
I1029 15:15:37.686259 14742 net.cpp:110] Creating Layer pool2/3x3_s2_pool2/3x3_s2_0_split
I1029 15:15:37.686265 14742 net.cpp:477] pool2/3x3_s2_pool2/3x3_s2_0_split <- pool2/3x3_s2
I1029 15:15:37.686274 14742 net.cpp:433] pool2/3x3_s2_pool2/3x3_s2_0_split -> pool2/3x3_s2_pool2/3x3_s2_0_split_0
I1029 15:15:37.686281 14742 net.cpp:433] pool2/3x3_s2_pool2/3x3_s2_0_split -> pool2/3x3_s2_pool2/3x3_s2_0_split_1
I1029 15:15:37.686290 14742 net.cpp:433] pool2/3x3_s2_pool2/3x3_s2_0_split -> pool2/3x3_s2_pool2/3x3_s2_0_split_2
I1029 15:15:37.686298 14742 net.cpp:433] pool2/3x3_s2_pool2/3x3_s2_0_split -> pool2/3x3_s2_pool2/3x3_s2_0_split_3
I1029 15:15:37.686311 14742 net.cpp:155] Setting up pool2/3x3_s2_pool2/3x3_s2_0_split
I1029 15:15:37.686317 14742 net.cpp:163] Top shape: 50 192 28 28 (7526400)
I1029 15:15:37.686323 14742 net.cpp:163] Top shape: 50 192 28 28 (7526400)
I1029 15:15:37.686329 14742 net.cpp:163] Top shape: 50 192 28 28 (7526400)
I1029 15:15:37.686336 14742 net.cpp:163] Top shape: 50 192 28 28 (7526400)
I1029 15:15:37.686342 14742 layer_factory.hpp:76] Creating layer inception_3a/1x1
I1029 15:15:37.686349 14742 net.cpp:110] Creating Layer inception_3a/1x1
I1029 15:15:37.686362 14742 net.cpp:477] inception_3a/1x1 <- pool2/3x3_s2_pool2/3x3_s2_0_split_0
I1029 15:15:37.686374 14742 net.cpp:433] inception_3a/1x1 -> inception_3a/1x1
I1029 15:15:37.686678 14742 net.cpp:155] Setting up inception_3a/1x1
I1029 15:15:37.686696 14742 net.cpp:163] Top shape: 50 64 28 28 (2508800)
I1029 15:15:37.686703 14742 layer_factory.hpp:76] Creating layer inception_3a/1x1/bn
I1029 15:15:37.686713 14742 net.cpp:110] Creating Layer inception_3a/1x1/bn
I1029 15:15:37.686719 14742 net.cpp:477] inception_3a/1x1/bn <- inception_3a/1x1
I1029 15:15:37.686728 14742 net.cpp:433] inception_3a/1x1/bn -> inception_3a/1x1/bn
I1029 15:15:37.687302 14742 net.cpp:155] Setting up inception_3a/1x1/bn
I1029 15:15:37.687315 14742 net.cpp:163] Top shape: 50 64 28 28 (2508800)
I1029 15:15:37.687328 14742 layer_factory.hpp:76] Creating layer inception_3a/relu_1x1
I1029 15:15:37.687337 14742 net.cpp:110] Creating Layer inception_3a/relu_1x1
I1029 15:15:37.687343 14742 net.cpp:477] inception_3a/relu_1x1 <- inception_3a/1x1/bn
I1029 15:15:37.687350 14742 net.cpp:419] inception_3a/relu_1x1 -> inception_3a/1x1/bn (in-place)
I1029 15:15:37.687405 14742 net.cpp:155] Setting up inception_3a/relu_1x1
I1029 15:15:37.687415 14742 net.cpp:163] Top shape: 50 64 28 28 (2508800)
I1029 15:15:37.687422 14742 layer_factory.hpp:76] Creating layer inception_3a/3x3_reduce
I1029 15:15:37.687432 14742 net.cpp:110] Creating Layer inception_3a/3x3_reduce
I1029 15:15:37.687438 14742 net.cpp:477] inception_3a/3x3_reduce <- pool2/3x3_s2_pool2/3x3_s2_0_split_1
I1029 15:15:37.687444 14742 net.cpp:433] inception_3a/3x3_reduce -> inception_3a/3x3_reduce
I1029 15:15:37.687739 14742 net.cpp:155] Setting up inception_3a/3x3_reduce
I1029 15:15:37.687753 14742 net.cpp:163] Top shape: 50 64 28 28 (2508800)
I1029 15:15:37.687760 14742 layer_factory.hpp:76] Creating layer inception_3a/3x3_reduce/bn
I1029 15:15:37.687770 14742 net.cpp:110] Creating Layer inception_3a/3x3_reduce/bn
I1029 15:15:37.687777 14742 net.cpp:477] inception_3a/3x3_reduce/bn <- inception_3a/3x3_reduce
I1029 15:15:37.687784 14742 net.cpp:433] inception_3a/3x3_reduce/bn -> inception_3a/3x3_reduce/bn
I1029 15:15:37.687856 14742 net.cpp:155] Setting up inception_3a/3x3_reduce/bn
I1029 15:15:37.687867 14742 net.cpp:163] Top shape: 50 64 28 28 (2508800)
I1029 15:15:37.687877 14742 layer_factory.hpp:76] Creating layer inception_3a/relu_3x3_reduce
I1029 15:15:37.687885 14742 net.cpp:110] Creating Layer inception_3a/relu_3x3_reduce
I1029 15:15:37.687891 14742 net.cpp:477] inception_3a/relu_3x3_reduce <- inception_3a/3x3_reduce/bn
I1029 15:15:37.687898 14742 net.cpp:419] inception_3a/relu_3x3_reduce -> inception_3a/3x3_reduce/bn (in-place)
I1029 15:15:37.687952 14742 net.cpp:155] Setting up inception_3a/relu_3x3_reduce
I1029 15:15:37.687961 14742 net.cpp:163] Top shape: 50 64 28 28 (2508800)
I1029 15:15:37.687968 14742 layer_factory.hpp:76] Creating layer inception_3a/3x3
I1029 15:15:37.687975 14742 net.cpp:110] Creating Layer inception_3a/3x3
I1029 15:15:37.687981 14742 net.cpp:477] inception_3a/3x3 <- inception_3a/3x3_reduce/bn
I1029 15:15:37.687988 14742 net.cpp:433] inception_3a/3x3 -> inception_3a/3x3
I1029 15:15:37.688779 14742 net.cpp:155] Setting up inception_3a/3x3
I1029 15:15:37.688793 14742 net.cpp:163] Top shape: 50 64 28 28 (2508800)
I1029 15:15:37.688802 14742 layer_factory.hpp:76] Creating layer inception_3a/3x3/bn
I1029 15:15:37.688810 14742 net.cpp:110] Creating Layer inception_3a/3x3/bn
I1029 15:15:37.688817 14742 net.cpp:477] inception_3a/3x3/bn <- inception_3a/3x3
I1029 15:15:37.688824 14742 net.cpp:433] inception_3a/3x3/bn -> inception_3a/3x3/bn
I1029 15:15:37.688896 14742 net.cpp:155] Setting up inception_3a/3x3/bn
I1029 15:15:37.688907 14742 net.cpp:163] Top shape: 50 64 28 28 (2508800)
I1029 15:15:37.688917 14742 layer_factory.hpp:76] Creating layer inception_3a/relu_3x3
I1029 15:15:37.688925 14742 net.cpp:110] Creating Layer inception_3a/relu_3x3
I1029 15:15:37.688930 14742 net.cpp:477] inception_3a/relu_3x3 <- inception_3a/3x3/bn
I1029 15:15:37.688943 14742 net.cpp:419] inception_3a/relu_3x3 -> inception_3a/3x3/bn (in-place)
I1029 15:15:37.689129 14742 net.cpp:155] Setting up inception_3a/relu_3x3
I1029 15:15:37.689142 14742 net.cpp:163] Top shape: 50 64 28 28 (2508800)
I1029 15:15:37.689148 14742 layer_factory.hpp:76] Creating layer inception_3a/double3x3_reduce
I1029 15:15:37.689157 14742 net.cpp:110] Creating Layer inception_3a/double3x3_reduce
I1029 15:15:37.689164 14742 net.cpp:477] inception_3a/double3x3_reduce <- pool2/3x3_s2_pool2/3x3_s2_0_split_2
I1029 15:15:37.689172 14742 net.cpp:433] inception_3a/double3x3_reduce -> inception_3a/double3x3_reduce
I1029 15:15:37.689467 14742 net.cpp:155] Setting up inception_3a/double3x3_reduce
I1029 15:15:37.689481 14742 net.cpp:163] Top shape: 50 64 28 28 (2508800)
I1029 15:15:37.689488 14742 layer_factory.hpp:76] Creating layer inception_3a/double3x3_reduce/bn
I1029 15:15:37.689497 14742 net.cpp:110] Creating Layer inception_3a/double3x3_reduce/bn
I1029 15:15:37.689503 14742 net.cpp:477] inception_3a/double3x3_reduce/bn <- inception_3a/double3x3_reduce
I1029 15:15:37.689512 14742 net.cpp:433] inception_3a/double3x3_reduce/bn -> inception_3a/double3x3_reduce/bn
I1029 15:15:37.689584 14742 net.cpp:155] Setting up inception_3a/double3x3_reduce/bn
I1029 15:15:37.689594 14742 net.cpp:163] Top shape: 50 64 28 28 (2508800)
I1029 15:15:37.689609 14742 layer_factory.hpp:76] Creating layer inception_3a/relu_double3x3_reduce
I1029 15:15:37.689616 14742 net.cpp:110] Creating Layer inception_3a/relu_double3x3_reduce
I1029 15:15:37.689622 14742 net.cpp:477] inception_3a/relu_double3x3_reduce <- inception_3a/double3x3_reduce/bn
I1029 15:15:37.689630 14742 net.cpp:419] inception_3a/relu_double3x3_reduce -> inception_3a/double3x3_reduce/bn (in-place)
I1029 15:15:37.689684 14742 net.cpp:155] Setting up inception_3a/relu_double3x3_reduce
I1029 15:15:37.689694 14742 net.cpp:163] Top shape: 50 64 28 28 (2508800)
I1029 15:15:37.689700 14742 layer_factory.hpp:76] Creating layer inception_3a/double3x3a
I1029 15:15:37.689708 14742 net.cpp:110] Creating Layer inception_3a/double3x3a
I1029 15:15:37.689714 14742 net.cpp:477] inception_3a/double3x3a <- inception_3a/double3x3_reduce/bn
I1029 15:15:37.689723 14742 net.cpp:433] inception_3a/double3x3a -> inception_3a/double3x3a
I1029 15:15:37.690029 14742 net.cpp:155] Setting up inception_3a/double3x3a
I1029 15:15:37.690042 14742 net.cpp:163] Top shape: 50 96 28 28 (3763200)
I1029 15:15:37.690050 14742 layer_factory.hpp:76] Creating layer inception_3a/double3x3a/bn
I1029 15:15:37.690059 14742 net.cpp:110] Creating Layer inception_3a/double3x3a/bn
I1029 15:15:37.690067 14742 net.cpp:477] inception_3a/double3x3a/bn <- inception_3a/double3x3a
I1029 15:15:37.690074 14742 net.cpp:433] inception_3a/double3x3a/bn -> inception_3a/double3x3a/bn
I1029 15:15:37.690150 14742 net.cpp:155] Setting up inception_3a/double3x3a/bn
I1029 15:15:37.690161 14742 net.cpp:163] Top shape: 50 96 28 28 (3763200)
I1029 15:15:37.690171 14742 layer_factory.hpp:76] Creating layer inception_3a/relu_double3x3a
I1029 15:15:37.690179 14742 net.cpp:110] Creating Layer inception_3a/relu_double3x3a
I1029 15:15:37.690186 14742 net.cpp:477] inception_3a/relu_double3x3a <- inception_3a/double3x3a/bn
I1029 15:15:37.690191 14742 net.cpp:419] inception_3a/relu_double3x3a -> inception_3a/double3x3a/bn (in-place)
I1029 15:15:37.690244 14742 net.cpp:155] Setting up inception_3a/relu_double3x3a
I1029 15:15:37.690254 14742 net.cpp:163] Top shape: 50 96 28 28 (3763200)
I1029 15:15:37.690260 14742 layer_factory.hpp:76] Creating layer inception_3a/double3x3b
I1029 15:15:37.690268 14742 net.cpp:110] Creating Layer inception_3a/double3x3b
I1029 15:15:37.690274 14742 net.cpp:477] inception_3a/double3x3b <- inception_3a/double3x3a/bn
I1029 15:15:37.690281 14742 net.cpp:433] inception_3a/double3x3b -> inception_3a/double3x3b
I1029 15:15:37.690611 14742 net.cpp:155] Setting up inception_3a/double3x3b
I1029 15:15:37.690629 14742 net.cpp:163] Top shape: 50 96 28 28 (3763200)
I1029 15:15:37.690636 14742 layer_factory.hpp:76] Creating layer inception_3a/double3x3b/bn
I1029 15:15:37.690651 14742 net.cpp:110] Creating Layer inception_3a/double3x3b/bn
I1029 15:15:37.690665 14742 net.cpp:477] inception_3a/double3x3b/bn <- inception_3a/double3x3b
I1029 15:15:37.690675 14742 net.cpp:433] inception_3a/double3x3b/bn -> inception_3a/double3x3b/bn
I1029 15:15:37.690750 14742 net.cpp:155] Setting up inception_3a/double3x3b/bn
I1029 15:15:37.690762 14742 net.cpp:163] Top shape: 50 96 28 28 (3763200)
I1029 15:15:37.690771 14742 layer_factory.hpp:76] Creating layer inception_3a/relu_double3x3b
I1029 15:15:37.690779 14742 net.cpp:110] Creating Layer inception_3a/relu_double3x3b
I1029 15:15:37.690785 14742 net.cpp:477] inception_3a/relu_double3x3b <- inception_3a/double3x3b/bn
I1029 15:15:37.690793 14742 net.cpp:419] inception_3a/relu_double3x3b -> inception_3a/double3x3b/bn (in-place)
I1029 15:15:37.690845 14742 net.cpp:155] Setting up inception_3a/relu_double3x3b
I1029 15:15:37.690855 14742 net.cpp:163] Top shape: 50 96 28 28 (3763200)
I1029 15:15:37.690861 14742 layer_factory.hpp:76] Creating layer inception_3a/pool
I1029 15:15:37.690867 14742 layer_factory.cpp:60] CUDNN does not support padding or multiple tops. Using Caffe's own pooling layer.
I1029 15:15:37.690876 14742 net.cpp:110] Creating Layer inception_3a/pool
I1029 15:15:37.690881 14742 net.cpp:477] inception_3a/pool <- pool2/3x3_s2_pool2/3x3_s2_0_split_3
I1029 15:15:37.690888 14742 net.cpp:433] inception_3a/pool -> inception_3a/pool
I1029 15:15:37.690898 14742 net.cpp:155] Setting up inception_3a/pool
I1029 15:15:37.690907 14742 net.cpp:163] Top shape: 50 192 28 28 (7526400)
I1029 15:15:37.690912 14742 layer_factory.hpp:76] Creating layer inception_3a/pool_proj
I1029 15:15:37.690922 14742 net.cpp:110] Creating Layer inception_3a/pool_proj
I1029 15:15:37.690928 14742 net.cpp:477] inception_3a/pool_proj <- inception_3a/pool
I1029 15:15:37.690937 14742 net.cpp:433] inception_3a/pool_proj -> inception_3a/pool_proj
I1029 15:15:37.691221 14742 net.cpp:155] Setting up inception_3a/pool_proj
I1029 15:15:37.691234 14742 net.cpp:163] Top shape: 50 32 28 28 (1254400)
I1029 15:15:37.691241 14742 layer_factory.hpp:76] Creating layer inception_3a/pool_proj/bn
I1029 15:15:37.691251 14742 net.cpp:110] Creating Layer inception_3a/pool_proj/bn
I1029 15:15:37.691257 14742 net.cpp:477] inception_3a/pool_proj/bn <- inception_3a/pool_proj
I1029 15:15:37.691264 14742 net.cpp:433] inception_3a/pool_proj/bn -> inception_3a/pool_proj/bn
I1029 15:15:37.691339 14742 net.cpp:155] Setting up inception_3a/pool_proj/bn
I1029 15:15:37.691350 14742 net.cpp:163] Top shape: 50 32 28 28 (1254400)
I1029 15:15:37.691360 14742 layer_factory.hpp:76] Creating layer inception_3a/relu_pool_proj
I1029 15:15:37.691368 14742 net.cpp:110] Creating Layer inception_3a/relu_pool_proj
I1029 15:15:37.691375 14742 net.cpp:477] inception_3a/relu_pool_proj <- inception_3a/pool_proj/bn
I1029 15:15:37.691381 14742 net.cpp:419] inception_3a/relu_pool_proj -> inception_3a/pool_proj/bn (in-place)
I1029 15:15:37.691551 14742 net.cpp:155] Setting up inception_3a/relu_pool_proj
I1029 15:15:37.691565 14742 net.cpp:163] Top shape: 50 32 28 28 (1254400)
I1029 15:15:37.691570 14742 layer_factory.hpp:76] Creating layer inception_3a/output
I1029 15:15:37.691583 14742 net.cpp:110] Creating Layer inception_3a/output
I1029 15:15:37.691589 14742 net.cpp:477] inception_3a/output <- inception_3a/1x1/bn
I1029 15:15:37.691596 14742 net.cpp:477] inception_3a/output <- inception_3a/3x3/bn
I1029 15:15:37.691603 14742 net.cpp:477] inception_3a/output <- inception_3a/double3x3b/bn
I1029 15:15:37.691609 14742 net.cpp:477] inception_3a/output <- inception_3a/pool_proj/bn
I1029 15:15:37.691617 14742 net.cpp:433] inception_3a/output -> inception_3a/output
I1029 15:15:37.691632 14742 net.cpp:155] Setting up inception_3a/output
I1029 15:15:37.691638 14742 net.cpp:163] Top shape: 50 256 28 28 (10035200)
I1029 15:15:37.691644 14742 layer_factory.hpp:76] Creating layer inception_3a/output_inception_3a/output_0_split
I1029 15:15:37.691653 14742 net.cpp:110] Creating Layer inception_3a/output_inception_3a/output_0_split
I1029 15:15:37.691663 14742 net.cpp:477] inception_3a/output_inception_3a/output_0_split <- inception_3a/output
I1029 15:15:37.691678 14742 net.cpp:433] inception_3a/output_inception_3a/output_0_split -> inception_3a/output_inception_3a/output_0_split_0
I1029 15:15:37.691686 14742 net.cpp:433] inception_3a/output_inception_3a/output_0_split -> inception_3a/output_inception_3a/output_0_split_1
I1029 15:15:37.691694 14742 net.cpp:433] inception_3a/output_inception_3a/output_0_split -> inception_3a/output_inception_3a/output_0_split_2
I1029 15:15:37.691705 14742 net.cpp:433] inception_3a/output_inception_3a/output_0_split -> inception_3a/output_inception_3a/output_0_split_3
I1029 15:15:37.691715 14742 net.cpp:155] Setting up inception_3a/output_inception_3a/output_0_split
I1029 15:15:37.691721 14742 net.cpp:163] Top shape: 50 256 28 28 (10035200)
I1029 15:15:37.691727 14742 net.cpp:163] Top shape: 50 256 28 28 (10035200)
I1029 15:15:37.691733 14742 net.cpp:163] Top shape: 50 256 28 28 (10035200)
I1029 15:15:37.691740 14742 net.cpp:163] Top shape: 50 256 28 28 (10035200)
I1029 15:15:37.691745 14742 layer_factory.hpp:76] Creating layer inception_3b/1x1
I1029 15:15:37.691754 14742 net.cpp:110] Creating Layer inception_3b/1x1
I1029 15:15:37.691761 14742 net.cpp:477] inception_3b/1x1 <- inception_3a/output_inception_3a/output_0_split_0
I1029 15:15:37.691767 14742 net.cpp:433] inception_3b/1x1 -> inception_3b/1x1
I1029 15:15:37.692070 14742 net.cpp:155] Setting up inception_3b/1x1
I1029 15:15:37.692082 14742 net.cpp:163] Top shape: 50 64 28 28 (2508800)
I1029 15:15:37.692090 14742 layer_factory.hpp:76] Creating layer inception_3b/1x1/bn
I1029 15:15:37.692100 14742 net.cpp:110] Creating Layer inception_3b/1x1/bn
I1029 15:15:37.692106 14742 net.cpp:477] inception_3b/1x1/bn <- inception_3b/1x1
I1029 15:15:37.692113 14742 net.cpp:433] inception_3b/1x1/bn -> inception_3b/1x1/bn
I1029 15:15:37.692188 14742 net.cpp:155] Setting up inception_3b/1x1/bn
I1029 15:15:37.692198 14742 net.cpp:163] Top shape: 50 64 28 28 (2508800)
I1029 15:15:37.692209 14742 layer_factory.hpp:76] Creating layer inception_3b/relu_1x1
I1029 15:15:37.692217 14742 net.cpp:110] Creating Layer inception_3b/relu_1x1
I1029 15:15:37.692224 14742 net.cpp:477] inception_3b/relu_1x1 <- inception_3b/1x1/bn
I1029 15:15:37.692229 14742 net.cpp:419] inception_3b/relu_1x1 -> inception_3b/1x1/bn (in-place)
I1029 15:15:37.692282 14742 net.cpp:155] Setting up inception_3b/relu_1x1
I1029 15:15:37.692292 14742 net.cpp:163] Top shape: 50 64 28 28 (2508800)
I1029 15:15:37.692299 14742 layer_factory.hpp:76] Creating layer inception_3b/3x3_reduce
I1029 15:15:37.692307 14742 net.cpp:110] Creating Layer inception_3b/3x3_reduce
I1029 15:15:37.692313 14742 net.cpp:477] inception_3b/3x3_reduce <- inception_3a/output_inception_3a/output_0_split_1
I1029 15:15:37.692320 14742 net.cpp:433] inception_3b/3x3_reduce -> inception_3b/3x3_reduce
I1029 15:15:37.692620 14742 net.cpp:155] Setting up inception_3b/3x3_reduce
I1029 15:15:37.692632 14742 net.cpp:163] Top shape: 50 64 28 28 (2508800)
I1029 15:15:37.692641 14742 layer_factory.hpp:76] Creating layer inception_3b/3x3_reduce/bn
I1029 15:15:37.692651 14742 net.cpp:110] Creating Layer inception_3b/3x3_reduce/bn
I1029 15:15:37.692656 14742 net.cpp:477] inception_3b/3x3_reduce/bn <- inception_3b/3x3_reduce
I1029 15:15:37.692664 14742 net.cpp:433] inception_3b/3x3_reduce/bn -> inception_3b/3x3_reduce/bn
I1029 15:15:37.692737 14742 net.cpp:155] Setting up inception_3b/3x3_reduce/bn
I1029 15:15:37.692749 14742 net.cpp:163] Top shape: 50 64 28 28 (2508800)
I1029 15:15:37.692759 14742 layer_factory.hpp:76] Creating layer inception_3b/relu_3x3_reduce
I1029 15:15:37.692766 14742 net.cpp:110] Creating Layer inception_3b/relu_3x3_reduce
I1029 15:15:37.692772 14742 net.cpp:477] inception_3b/relu_3x3_reduce <- inception_3b/3x3_reduce/bn
I1029 15:15:37.692780 14742 net.cpp:419] inception_3b/relu_3x3_reduce -> inception_3b/3x3_reduce/bn (in-place)
I1029 15:15:37.692833 14742 net.cpp:155] Setting up inception_3b/relu_3x3_reduce
I1029 15:15:37.692842 14742 net.cpp:163] Top shape: 50 64 28 28 (2508800)
I1029 15:15:37.692854 14742 layer_factory.hpp:76] Creating layer inception_3b/3x3
I1029 15:15:37.692868 14742 net.cpp:110] Creating Layer inception_3b/3x3
I1029 15:15:37.692875 14742 net.cpp:477] inception_3b/3x3 <- inception_3b/3x3_reduce/bn
I1029 15:15:37.692883 14742 net.cpp:433] inception_3b/3x3 -> inception_3b/3x3
I1029 15:15:37.693199 14742 net.cpp:155] Setting up inception_3b/3x3
I1029 15:15:37.693212 14742 net.cpp:163] Top shape: 50 96 28 28 (3763200)
I1029 15:15:37.693220 14742 layer_factory.hpp:76] Creating layer inception_3b/3x3/bn
I1029 15:15:37.693229 14742 net.cpp:110] Creating Layer inception_3b/3x3/bn
I1029 15:15:37.693236 14742 net.cpp:477] inception_3b/3x3/bn <- inception_3b/3x3
I1029 15:15:37.693244 14742 net.cpp:433] inception_3b/3x3/bn -> inception_3b/3x3/bn
I1029 15:15:37.693320 14742 net.cpp:155] Setting up inception_3b/3x3/bn
I1029 15:15:37.693331 14742 net.cpp:163] Top shape: 50 96 28 28 (3763200)
I1029 15:15:37.693346 14742 layer_factory.hpp:76] Creating layer inception_3b/relu_3x3
I1029 15:15:37.693356 14742 net.cpp:110] Creating Layer inception_3b/relu_3x3
I1029 15:15:37.693362 14742 net.cpp:477] inception_3b/relu_3x3 <- inception_3b/3x3/bn
I1029 15:15:37.693369 14742 net.cpp:419] inception_3b/relu_3x3 -> inception_3b/3x3/bn (in-place)
I1029 15:15:37.693543 14742 net.cpp:155] Setting up inception_3b/relu_3x3
I1029 15:15:37.693555 14742 net.cpp:163] Top shape: 50 96 28 28 (3763200)
I1029 15:15:37.693562 14742 layer_factory.hpp:76] Creating layer inception_3b/double3x3_reduce
I1029 15:15:37.693572 14742 net.cpp:110] Creating Layer inception_3b/double3x3_reduce
I1029 15:15:37.693578 14742 net.cpp:477] inception_3b/double3x3_reduce <- inception_3a/output_inception_3a/output_0_split_2
I1029 15:15:37.693585 14742 net.cpp:433] inception_3b/double3x3_reduce -> inception_3b/double3x3_reduce
I1029 15:15:37.693886 14742 net.cpp:155] Setting up inception_3b/double3x3_reduce
I1029 15:15:37.693898 14742 net.cpp:163] Top shape: 50 64 28 28 (2508800)
I1029 15:15:37.693907 14742 layer_factory.hpp:76] Creating layer inception_3b/double3x3_reduce/bn
I1029 15:15:37.693917 14742 net.cpp:110] Creating Layer inception_3b/double3x3_reduce/bn
I1029 15:15:37.693922 14742 net.cpp:477] inception_3b/double3x3_reduce/bn <- inception_3b/double3x3_reduce
I1029 15:15:37.693930 14742 net.cpp:433] inception_3b/double3x3_reduce/bn -> inception_3b/double3x3_reduce/bn
I1029 15:15:37.694005 14742 net.cpp:155] Setting up inception_3b/double3x3_reduce/bn
I1029 15:15:37.694016 14742 net.cpp:163] Top shape: 50 64 28 28 (2508800)
I1029 15:15:37.694026 14742 layer_factory.hpp:76] Creating layer inception_3b/relu_double3x3_reduce
I1029 15:15:37.694035 14742 net.cpp:110] Creating Layer inception_3b/relu_double3x3_reduce
I1029 15:15:37.694041 14742 net.cpp:477] inception_3b/relu_double3x3_reduce <- inception_3b/double3x3_reduce/bn
I1029 15:15:37.694047 14742 net.cpp:419] inception_3b/relu_double3x3_reduce -> inception_3b/double3x3_reduce/bn (in-place)
I1029 15:15:37.694103 14742 net.cpp:155] Setting up inception_3b/relu_double3x3_reduce
I1029 15:15:37.694111 14742 net.cpp:163] Top shape: 50 64 28 28 (2508800)
I1029 15:15:37.694118 14742 layer_factory.hpp:76] Creating layer inception_3b/double3x3a
I1029 15:15:37.694126 14742 net.cpp:110] Creating Layer inception_3b/double3x3a
I1029 15:15:37.694133 14742 net.cpp:477] inception_3b/double3x3a <- inception_3b/double3x3_reduce/bn
I1029 15:15:37.694139 14742 net.cpp:433] inception_3b/double3x3a -> inception_3b/double3x3a
I1029 15:15:37.694453 14742 net.cpp:155] Setting up inception_3b/double3x3a
I1029 15:15:37.694465 14742 net.cpp:163] Top shape: 50 96 28 28 (3763200)
I1029 15:15:37.694473 14742 layer_factory.hpp:76] Creating layer inception_3b/double3x3a/bn
I1029 15:15:37.694483 14742 net.cpp:110] Creating Layer inception_3b/double3x3a/bn
I1029 15:15:37.694489 14742 net.cpp:477] inception_3b/double3x3a/bn <- inception_3b/double3x3a
I1029 15:15:37.694497 14742 net.cpp:433] inception_3b/double3x3a/bn -> inception_3b/double3x3a/bn
I1029 15:15:37.694581 14742 net.cpp:155] Setting up inception_3b/double3x3a/bn
I1029 15:15:37.694605 14742 net.cpp:163] Top shape: 50 96 28 28 (3763200)
I1029 15:15:37.694617 14742 layer_factory.hpp:76] Creating layer inception_3b/relu_double3x3a
I1029 15:15:37.694625 14742 net.cpp:110] Creating Layer inception_3b/relu_double3x3a
I1029 15:15:37.694632 14742 net.cpp:477] inception_3b/relu_double3x3a <- inception_3b/double3x3a/bn
I1029 15:15:37.694638 14742 net.cpp:419] inception_3b/relu_double3x3a -> inception_3b/double3x3a/bn (in-place)
I1029 15:15:37.694695 14742 net.cpp:155] Setting up inception_3b/relu_double3x3a
I1029 15:15:37.694705 14742 net.cpp:163] Top shape: 50 96 28 28 (3763200)
I1029 15:15:37.694711 14742 layer_factory.hpp:76] Creating layer inception_3b/double3x3b
I1029 15:15:37.694720 14742 net.cpp:110] Creating Layer inception_3b/double3x3b
I1029 15:15:37.694725 14742 net.cpp:477] inception_3b/double3x3b <- inception_3b/double3x3a/bn
I1029 15:15:37.694733 14742 net.cpp:433] inception_3b/double3x3b -> inception_3b/double3x3b
I1029 15:15:37.695626 14742 net.cpp:155] Setting up inception_3b/double3x3b
I1029 15:15:37.695639 14742 net.cpp:163] Top shape: 50 96 28 28 (3763200)
I1029 15:15:37.695647 14742 layer_factory.hpp:76] Creating layer inception_3b/double3x3b/bn
I1029 15:15:37.695657 14742 net.cpp:110] Creating Layer inception_3b/double3x3b/bn
I1029 15:15:37.695663 14742 net.cpp:477] inception_3b/double3x3b/bn <- inception_3b/double3x3b
I1029 15:15:37.695672 14742 net.cpp:433] inception_3b/double3x3b/bn -> inception_3b/double3x3b/bn
I1029 15:15:37.695754 14742 net.cpp:155] Setting up inception_3b/double3x3b/bn
I1029 15:15:37.695763 14742 net.cpp:163] Top shape: 50 96 28 28 (3763200)
I1029 15:15:37.695775 14742 layer_factory.hpp:76] Creating layer inception_3b/relu_double3x3b
I1029 15:15:37.695782 14742 net.cpp:110] Creating Layer inception_3b/relu_double3x3b
I1029 15:15:37.695788 14742 net.cpp:477] inception_3b/relu_double3x3b <- inception_3b/double3x3b/bn
I1029 15:15:37.695796 14742 net.cpp:419] inception_3b/relu_double3x3b -> inception_3b/double3x3b/bn (in-place)
I1029 15:15:37.695849 14742 net.cpp:155] Setting up inception_3b/relu_double3x3b
I1029 15:15:37.695859 14742 net.cpp:163] Top shape: 50 96 28 28 (3763200)
I1029 15:15:37.695865 14742 layer_factory.hpp:76] Creating layer inception_3b/pool
I1029 15:15:37.695871 14742 layer_factory.cpp:60] CUDNN does not support padding or multiple tops. Using Caffe's own pooling layer.
I1029 15:15:37.695879 14742 net.cpp:110] Creating Layer inception_3b/pool
I1029 15:15:37.695885 14742 net.cpp:477] inception_3b/pool <- inception_3a/output_inception_3a/output_0_split_3
I1029 15:15:37.695894 14742 net.cpp:433] inception_3b/pool -> inception_3b/pool
I1029 15:15:37.695902 14742 net.cpp:155] Setting up inception_3b/pool
I1029 15:15:37.695910 14742 net.cpp:163] Top shape: 50 256 28 28 (10035200)
I1029 15:15:37.695916 14742 layer_factory.hpp:76] Creating layer inception_3b/pool_proj
I1029 15:15:37.695924 14742 net.cpp:110] Creating Layer inception_3b/pool_proj
I1029 15:15:37.695930 14742 net.cpp:477] inception_3b/pool_proj <- inception_3b/pool
I1029 15:15:37.695937 14742 net.cpp:433] inception_3b/pool_proj -> inception_3b/pool_proj
I1029 15:15:37.696243 14742 net.cpp:155] Setting up inception_3b/pool_proj
I1029 15:15:37.696255 14742 net.cpp:163] Top shape: 50 64 28 28 (2508800)
I1029 15:15:37.696264 14742 layer_factory.hpp:76] Creating layer inception_3b/pool_proj/bn
I1029 15:15:37.696272 14742 net.cpp:110] Creating Layer inception_3b/pool_proj/bn
I1029 15:15:37.696279 14742 net.cpp:477] inception_3b/pool_proj/bn <- inception_3b/pool_proj
I1029 15:15:37.696287 14742 net.cpp:433] inception_3b/pool_proj/bn -> inception_3b/pool_proj/bn
I1029 15:15:37.696364 14742 net.cpp:155] Setting up inception_3b/pool_proj/bn
I1029 15:15:37.696375 14742 net.cpp:163] Top shape: 50 64 28 28 (2508800)
I1029 15:15:37.696385 14742 layer_factory.hpp:76] Creating layer inception_3b/relu_pool_proj
I1029 15:15:37.696393 14742 net.cpp:110] Creating Layer inception_3b/relu_pool_proj
I1029 15:15:37.696399 14742 net.cpp:477] inception_3b/relu_pool_proj <- inception_3b/pool_proj/bn
I1029 15:15:37.696418 14742 net.cpp:419] inception_3b/relu_pool_proj -> inception_3b/pool_proj/bn (in-place)
I1029 15:15:37.696598 14742 net.cpp:155] Setting up inception_3b/relu_pool_proj
I1029 15:15:37.696609 14742 net.cpp:163] Top shape: 50 64 28 28 (2508800)
I1029 15:15:37.696616 14742 layer_factory.hpp:76] Creating layer inception_3b/output
I1029 15:15:37.696624 14742 net.cpp:110] Creating Layer inception_3b/output
I1029 15:15:37.696630 14742 net.cpp:477] inception_3b/output <- inception_3b/1x1/bn
I1029 15:15:37.696637 14742 net.cpp:477] inception_3b/output <- inception_3b/3x3/bn
I1029 15:15:37.696643 14742 net.cpp:477] inception_3b/output <- inception_3b/double3x3b/bn
I1029 15:15:37.696650 14742 net.cpp:477] inception_3b/output <- inception_3b/pool_proj/bn
I1029 15:15:37.696657 14742 net.cpp:433] inception_3b/output -> inception_3b/output
I1029 15:15:37.696667 14742 net.cpp:155] Setting up inception_3b/output
I1029 15:15:37.696674 14742 net.cpp:163] Top shape: 50 320 28 28 (12544000)
I1029 15:15:37.696681 14742 layer_factory.hpp:76] Creating layer inception_3b/output_inception_3b/output_0_split
I1029 15:15:37.696687 14742 net.cpp:110] Creating Layer inception_3b/output_inception_3b/output_0_split
I1029 15:15:37.696693 14742 net.cpp:477] inception_3b/output_inception_3b/output_0_split <- inception_3b/output
I1029 15:15:37.696701 14742 net.cpp:433] inception_3b/output_inception_3b/output_0_split -> inception_3b/output_inception_3b/output_0_split_0
I1029 15:15:37.696709 14742 net.cpp:433] inception_3b/output_inception_3b/output_0_split -> inception_3b/output_inception_3b/output_0_split_1
I1029 15:15:37.696717 14742 net.cpp:433] inception_3b/output_inception_3b/output_0_split -> inception_3b/output_inception_3b/output_0_split_2
I1029 15:15:37.696727 14742 net.cpp:155] Setting up inception_3b/output_inception_3b/output_0_split
I1029 15:15:37.696733 14742 net.cpp:163] Top shape: 50 320 28 28 (12544000)
I1029 15:15:37.696739 14742 net.cpp:163] Top shape: 50 320 28 28 (12544000)
I1029 15:15:37.696745 14742 net.cpp:163] Top shape: 50 320 28 28 (12544000)
I1029 15:15:37.696751 14742 layer_factory.hpp:76] Creating layer inception_3c/3x3_reduce
I1029 15:15:37.696759 14742 net.cpp:110] Creating Layer inception_3c/3x3_reduce
I1029 15:15:37.696765 14742 net.cpp:477] inception_3c/3x3_reduce <- inception_3b/output_inception_3b/output_0_split_0
I1029 15:15:37.696773 14742 net.cpp:433] inception_3c/3x3_reduce -> inception_3c/3x3_reduce
I1029 15:15:37.697085 14742 net.cpp:155] Setting up inception_3c/3x3_reduce
I1029 15:15:37.697098 14742 net.cpp:163] Top shape: 50 128 28 28 (5017600)
I1029 15:15:37.697105 14742 layer_factory.hpp:76] Creating layer inception_3c/3x3_reduce/bn
I1029 15:15:37.697115 14742 net.cpp:110] Creating Layer inception_3c/3x3_reduce/bn
I1029 15:15:37.697123 14742 net.cpp:477] inception_3c/3x3_reduce/bn <- inception_3c/3x3_reduce
I1029 15:15:37.697130 14742 net.cpp:433] inception_3c/3x3_reduce/bn -> inception_3c/3x3_reduce/bn
I1029 15:15:37.697199 14742 net.cpp:155] Setting up inception_3c/3x3_reduce/bn
I1029 15:15:37.697211 14742 net.cpp:163] Top shape: 50 128 28 28 (5017600)
I1029 15:15:37.697221 14742 layer_factory.hpp:76] Creating layer inception_3c/relu_3x3_reduce
I1029 15:15:37.697228 14742 net.cpp:110] Creating Layer inception_3c/relu_3x3_reduce
I1029 15:15:37.697234 14742 net.cpp:477] inception_3c/relu_3x3_reduce <- inception_3c/3x3_reduce/bn
I1029 15:15:37.697242 14742 net.cpp:419] inception_3c/relu_3x3_reduce -> inception_3c/3x3_reduce/bn (in-place)
I1029 15:15:37.697298 14742 net.cpp:155] Setting up inception_3c/relu_3x3_reduce
I1029 15:15:37.697307 14742 net.cpp:163] Top shape: 50 128 28 28 (5017600)
I1029 15:15:37.697314 14742 layer_factory.hpp:76] Creating layer inception_3c/3x3
I1029 15:15:37.697326 14742 net.cpp:110] Creating Layer inception_3c/3x3
I1029 15:15:37.697334 14742 net.cpp:477] inception_3c/3x3 <- inception_3c/3x3_reduce/bn
I1029 15:15:37.697341 14742 net.cpp:433] inception_3c/3x3 -> inception_3c/3x3
I1029 15:15:37.698220 14742 net.cpp:155] Setting up inception_3c/3x3
I1029 15:15:37.698243 14742 net.cpp:163] Top shape: 50 160 14 14 (1568000)
I1029 15:15:37.698259 14742 layer_factory.hpp:76] Creating layer inception_3c/3x3/bn
I1029 15:15:37.698271 14742 net.cpp:110] Creating Layer inception_3c/3x3/bn
I1029 15:15:37.698276 14742 net.cpp:477] inception_3c/3x3/bn <- inception_3c/3x3
I1029 15:15:37.698284 14742 net.cpp:433] inception_3c/3x3/bn -> inception_3c/3x3/bn
I1029 15:15:37.698369 14742 net.cpp:155] Setting up inception_3c/3x3/bn
I1029 15:15:37.698379 14742 net.cpp:163] Top shape: 50 160 14 14 (1568000)
I1029 15:15:37.698390 14742 layer_factory.hpp:76] Creating layer inception_3c/relu_3x3
I1029 15:15:37.698397 14742 net.cpp:110] Creating Layer inception_3c/relu_3x3
I1029 15:15:37.698405 14742 net.cpp:477] inception_3c/relu_3x3 <- inception_3c/3x3/bn
I1029 15:15:37.698411 14742 net.cpp:419] inception_3c/relu_3x3 -> inception_3c/3x3/bn (in-place)
I1029 15:15:37.698467 14742 net.cpp:155] Setting up inception_3c/relu_3x3
I1029 15:15:37.698477 14742 net.cpp:163] Top shape: 50 160 14 14 (1568000)
I1029 15:15:37.698483 14742 layer_factory.hpp:76] Creating layer inception_3c/double3x3_reduce
I1029 15:15:37.698493 14742 net.cpp:110] Creating Layer inception_3c/double3x3_reduce
I1029 15:15:37.698498 14742 net.cpp:477] inception_3c/double3x3_reduce <- inception_3b/output_inception_3b/output_0_split_1
I1029 15:15:37.698513 14742 net.cpp:433] inception_3c/double3x3_reduce -> inception_3c/double3x3_reduce
I1029 15:15:37.699317 14742 net.cpp:155] Setting up inception_3c/double3x3_reduce
I1029 15:15:37.699331 14742 net.cpp:163] Top shape: 50 64 28 28 (2508800)
I1029 15:15:37.699339 14742 layer_factory.hpp:76] Creating layer inception_3c/double3x3_reduce/bn
I1029 15:15:37.699349 14742 net.cpp:110] Creating Layer inception_3c/double3x3_reduce/bn
I1029 15:15:37.699355 14742 net.cpp:477] inception_3c/double3x3_reduce/bn <- inception_3c/double3x3_reduce
I1029 15:15:37.699364 14742 net.cpp:433] inception_3c/double3x3_reduce/bn -> inception_3c/double3x3_reduce/bn
I1029 15:15:37.699446 14742 net.cpp:155] Setting up inception_3c/double3x3_reduce/bn
I1029 15:15:37.699456 14742 net.cpp:163] Top shape: 50 64 28 28 (2508800)
I1029 15:15:37.699466 14742 layer_factory.hpp:76] Creating layer inception_3c/relu_double3x3_reduce
I1029 15:15:37.699476 14742 net.cpp:110] Creating Layer inception_3c/relu_double3x3_reduce
I1029 15:15:37.699481 14742 net.cpp:477] inception_3c/relu_double3x3_reduce <- inception_3c/double3x3_reduce/bn
I1029 15:15:37.699488 14742 net.cpp:419] inception_3c/relu_double3x3_reduce -> inception_3c/double3x3_reduce/bn (in-place)
I1029 15:15:37.699545 14742 net.cpp:155] Setting up inception_3c/relu_double3x3_reduce
I1029 15:15:37.699555 14742 net.cpp:163] Top shape: 50 64 28 28 (2508800)
I1029 15:15:37.699561 14742 layer_factory.hpp:76] Creating layer inception_3c/double3x3a
I1029 15:15:37.699569 14742 net.cpp:110] Creating Layer inception_3c/double3x3a
I1029 15:15:37.699576 14742 net.cpp:477] inception_3c/double3x3a <- inception_3c/double3x3_reduce/bn
I1029 15:15:37.699584 14742 net.cpp:433] inception_3c/double3x3a -> inception_3c/double3x3a
I1029 15:15:37.699913 14742 net.cpp:155] Setting up inception_3c/double3x3a
I1029 15:15:37.699926 14742 net.cpp:163] Top shape: 50 96 28 28 (3763200)
I1029 15:15:37.699934 14742 layer_factory.hpp:76] Creating layer inception_3c/double3x3a/bn
I1029 15:15:37.699944 14742 net.cpp:110] Creating Layer inception_3c/double3x3a/bn
I1029 15:15:37.699950 14742 net.cpp:477] inception_3c/double3x3a/bn <- inception_3c/double3x3a
I1029 15:15:37.699959 14742 net.cpp:433] inception_3c/double3x3a/bn -> inception_3c/double3x3a/bn
I1029 15:15:37.700045 14742 net.cpp:155] Setting up inception_3c/double3x3a/bn
I1029 15:15:37.700057 14742 net.cpp:163] Top shape: 50 96 28 28 (3763200)
I1029 15:15:37.700067 14742 layer_factory.hpp:76] Creating layer inception_3c/relu_double3x3a
I1029 15:15:37.700074 14742 net.cpp:110] Creating Layer inception_3c/relu_double3x3a
I1029 15:15:37.700081 14742 net.cpp:477] inception_3c/relu_double3x3a <- inception_3c/double3x3a/bn
I1029 15:15:37.700093 14742 net.cpp:419] inception_3c/relu_double3x3a -> inception_3c/double3x3a/bn (in-place)
I1029 15:15:37.700283 14742 net.cpp:155] Setting up inception_3c/relu_double3x3a
I1029 15:15:37.700295 14742 net.cpp:163] Top shape: 50 96 28 28 (3763200)
I1029 15:15:37.700301 14742 layer_factory.hpp:76] Creating layer inception_3c/double3x3b
I1029 15:15:37.700310 14742 net.cpp:110] Creating Layer inception_3c/double3x3b
I1029 15:15:37.700317 14742 net.cpp:477] inception_3c/double3x3b <- inception_3c/double3x3a/bn
I1029 15:15:37.700325 14742 net.cpp:433] inception_3c/double3x3b -> inception_3c/double3x3b
I1029 15:15:37.700665 14742 net.cpp:155] Setting up inception_3c/double3x3b
I1029 15:15:37.700678 14742 net.cpp:163] Top shape: 50 96 14 14 (940800)
I1029 15:15:37.700686 14742 layer_factory.hpp:76] Creating layer inception_3c/double3x3b/bn
I1029 15:15:37.700695 14742 net.cpp:110] Creating Layer inception_3c/double3x3b/bn
I1029 15:15:37.700702 14742 net.cpp:477] inception_3c/double3x3b/bn <- inception_3c/double3x3b
I1029 15:15:37.700711 14742 net.cpp:433] inception_3c/double3x3b/bn -> inception_3c/double3x3b/bn
I1029 15:15:37.700793 14742 net.cpp:155] Setting up inception_3c/double3x3b/bn
I1029 15:15:37.700804 14742 net.cpp:163] Top shape: 50 96 14 14 (940800)
I1029 15:15:37.700814 14742 layer_factory.hpp:76] Creating layer inception_3c/relu_double3x3b
I1029 15:15:37.700822 14742 net.cpp:110] Creating Layer inception_3c/relu_double3x3b
I1029 15:15:37.700829 14742 net.cpp:477] inception_3c/relu_double3x3b <- inception_3c/double3x3b/bn
I1029 15:15:37.700835 14742 net.cpp:419] inception_3c/relu_double3x3b -> inception_3c/double3x3b/bn (in-place)
I1029 15:15:37.700899 14742 net.cpp:155] Setting up inception_3c/relu_double3x3b
I1029 15:15:37.700909 14742 net.cpp:163] Top shape: 50 96 14 14 (940800)
I1029 15:15:37.700917 14742 layer_factory.hpp:76] Creating layer inception_3c/pool/3x3_s2
I1029 15:15:37.700924 14742 net.cpp:110] Creating Layer inception_3c/pool/3x3_s2
I1029 15:15:37.700932 14742 net.cpp:477] inception_3c/pool/3x3_s2 <- inception_3b/output_inception_3b/output_0_split_2
I1029 15:15:37.700938 14742 net.cpp:433] inception_3c/pool/3x3_s2 -> inception_3c/pool/3x3_s2
I1029 15:15:37.700999 14742 net.cpp:155] Setting up inception_3c/pool/3x3_s2
I1029 15:15:37.701009 14742 net.cpp:163] Top shape: 50 320 14 14 (3136000)
I1029 15:15:37.701015 14742 layer_factory.hpp:76] Creating layer inception_3c/output
I1029 15:15:37.701023 14742 net.cpp:110] Creating Layer inception_3c/output
I1029 15:15:37.701030 14742 net.cpp:477] inception_3c/output <- inception_3c/3x3/bn
I1029 15:15:37.701035 14742 net.cpp:477] inception_3c/output <- inception_3c/double3x3b/bn
I1029 15:15:37.701042 14742 net.cpp:477] inception_3c/output <- inception_3c/pool/3x3_s2
I1029 15:15:37.701050 14742 net.cpp:433] inception_3c/output -> inception_3c/output
I1029 15:15:37.701064 14742 net.cpp:155] Setting up inception_3c/output
I1029 15:15:37.701072 14742 net.cpp:163] Top shape: 50 576 14 14 (5644800)
I1029 15:15:37.701078 14742 layer_factory.hpp:76] Creating layer inception_3c/output_inception_3c/output_0_split
I1029 15:15:37.701086 14742 net.cpp:110] Creating Layer inception_3c/output_inception_3c/output_0_split
I1029 15:15:37.701092 14742 net.cpp:477] inception_3c/output_inception_3c/output_0_split <- inception_3c/output
I1029 15:15:37.701099 14742 net.cpp:433] inception_3c/output_inception_3c/output_0_split -> inception_3c/output_inception_3c/output_0_split_0
I1029 15:15:37.701107 14742 net.cpp:433] inception_3c/output_inception_3c/output_0_split -> inception_3c/output_inception_3c/output_0_split_1
I1029 15:15:37.701115 14742 net.cpp:433] inception_3c/output_inception_3c/output_0_split -> inception_3c/output_inception_3c/output_0_split_2
I1029 15:15:37.701124 14742 net.cpp:433] inception_3c/output_inception_3c/output_0_split -> inception_3c/output_inception_3c/output_0_split_3
I1029 15:15:37.701133 14742 net.cpp:155] Setting up inception_3c/output_inception_3c/output_0_split
I1029 15:15:37.701139 14742 net.cpp:163] Top shape: 50 576 14 14 (5644800)
I1029 15:15:37.701150 14742 net.cpp:163] Top shape: 50 576 14 14 (5644800)
I1029 15:15:37.701161 14742 net.cpp:163] Top shape: 50 576 14 14 (5644800)
I1029 15:15:37.701169 14742 net.cpp:163] Top shape: 50 576 14 14 (5644800)
I1029 15:15:37.701174 14742 layer_factory.hpp:76] Creating layer inception_4a/1x1
I1029 15:15:37.701184 14742 net.cpp:110] Creating Layer inception_4a/1x1
I1029 15:15:37.701190 14742 net.cpp:477] inception_4a/1x1 <- inception_3c/output_inception_3c/output_0_split_0
I1029 15:15:37.701197 14742 net.cpp:433] inception_4a/1x1 -> inception_4a/1x1
I1029 15:15:37.702071 14742 net.cpp:155] Setting up inception_4a/1x1
I1029 15:15:37.702085 14742 net.cpp:163] Top shape: 50 224 14 14 (2195200)
I1029 15:15:37.702092 14742 layer_factory.hpp:76] Creating layer inception_4a/1x1/bn
I1029 15:15:37.702105 14742 net.cpp:110] Creating Layer inception_4a/1x1/bn
I1029 15:15:37.702111 14742 net.cpp:477] inception_4a/1x1/bn <- inception_4a/1x1
I1029 15:15:37.702119 14742 net.cpp:433] inception_4a/1x1/bn -> inception_4a/1x1/bn
I1029 15:15:37.702210 14742 net.cpp:155] Setting up inception_4a/1x1/bn
I1029 15:15:37.702221 14742 net.cpp:163] Top shape: 50 224 14 14 (2195200)
I1029 15:15:37.702231 14742 layer_factory.hpp:76] Creating layer inception_4a/relu_1x1
I1029 15:15:37.702239 14742 net.cpp:110] Creating Layer inception_4a/relu_1x1
I1029 15:15:37.702245 14742 net.cpp:477] inception_4a/relu_1x1 <- inception_4a/1x1/bn
I1029 15:15:37.702255 14742 net.cpp:419] inception_4a/relu_1x1 -> inception_4a/1x1/bn (in-place)
I1029 15:15:37.702319 14742 net.cpp:155] Setting up inception_4a/relu_1x1
I1029 15:15:37.702329 14742 net.cpp:163] Top shape: 50 224 14 14 (2195200)
I1029 15:15:37.702335 14742 layer_factory.hpp:76] Creating layer inception_4a/3x3_reduce
I1029 15:15:37.702345 14742 net.cpp:110] Creating Layer inception_4a/3x3_reduce
I1029 15:15:37.702353 14742 net.cpp:477] inception_4a/3x3_reduce <- inception_3c/output_inception_3c/output_0_split_1
I1029 15:15:37.702359 14742 net.cpp:433] inception_4a/3x3_reduce -> inception_4a/3x3_reduce
I1029 15:15:37.702697 14742 net.cpp:155] Setting up inception_4a/3x3_reduce
I1029 15:15:37.702713 14742 net.cpp:163] Top shape: 50 64 14 14 (627200)
I1029 15:15:37.702721 14742 layer_factory.hpp:76] Creating layer inception_4a/3x3_reduce/bn
I1029 15:15:37.702733 14742 net.cpp:110] Creating Layer inception_4a/3x3_reduce/bn
I1029 15:15:37.702740 14742 net.cpp:477] inception_4a/3x3_reduce/bn <- inception_4a/3x3_reduce
I1029 15:15:37.702749 14742 net.cpp:433] inception_4a/3x3_reduce/bn -> inception_4a/3x3_reduce/bn
I1029 15:15:37.702836 14742 net.cpp:155] Setting up inception_4a/3x3_reduce/bn
I1029 15:15:37.702847 14742 net.cpp:163] Top shape: 50 64 14 14 (627200)
I1029 15:15:37.702857 14742 layer_factory.hpp:76] Creating layer inception_4a/relu_3x3_reduce
I1029 15:15:37.702867 14742 net.cpp:110] Creating Layer inception_4a/relu_3x3_reduce
I1029 15:15:37.702873 14742 net.cpp:477] inception_4a/relu_3x3_reduce <- inception_4a/3x3_reduce/bn
I1029 15:15:37.702880 14742 net.cpp:419] inception_4a/relu_3x3_reduce -> inception_4a/3x3_reduce/bn (in-place)
I1029 15:15:37.703061 14742 net.cpp:155] Setting up inception_4a/relu_3x3_reduce
I1029 15:15:37.703073 14742 net.cpp:163] Top shape: 50 64 14 14 (627200)
I1029 15:15:37.703080 14742 layer_factory.hpp:76] Creating layer inception_4a/3x3
I1029 15:15:37.703089 14742 net.cpp:110] Creating Layer inception_4a/3x3
I1029 15:15:37.703095 14742 net.cpp:477] inception_4a/3x3 <- inception_4a/3x3_reduce/bn
I1029 15:15:37.703104 14742 net.cpp:433] inception_4a/3x3 -> inception_4a/3x3
I1029 15:15:37.703452 14742 net.cpp:155] Setting up inception_4a/3x3
I1029 15:15:37.703464 14742 net.cpp:163] Top shape: 50 96 14 14 (940800)
I1029 15:15:37.703472 14742 layer_factory.hpp:76] Creating layer inception_4a/3x3/bn
I1029 15:15:37.703485 14742 net.cpp:110] Creating Layer inception_4a/3x3/bn
I1029 15:15:37.703490 14742 net.cpp:477] inception_4a/3x3/bn <- inception_4a/3x3
I1029 15:15:37.703498 14742 net.cpp:433] inception_4a/3x3/bn -> inception_4a/3x3/bn
I1029 15:15:37.703595 14742 net.cpp:155] Setting up inception_4a/3x3/bn
I1029 15:15:37.703614 14742 net.cpp:163] Top shape: 50 96 14 14 (940800)
I1029 15:15:37.703625 14742 layer_factory.hpp:76] Creating layer inception_4a/relu_3x3
I1029 15:15:37.703634 14742 net.cpp:110] Creating Layer inception_4a/relu_3x3
I1029 15:15:37.703639 14742 net.cpp:477] inception_4a/relu_3x3 <- inception_4a/3x3/bn
I1029 15:15:37.703649 14742 net.cpp:419] inception_4a/relu_3x3 -> inception_4a/3x3/bn (in-place)
I1029 15:15:37.703712 14742 net.cpp:155] Setting up inception_4a/relu_3x3
I1029 15:15:37.703722 14742 net.cpp:163] Top shape: 50 96 14 14 (940800)
I1029 15:15:37.703728 14742 layer_factory.hpp:76] Creating layer inception_4a/double3x3_reduce
I1029 15:15:37.703739 14742 net.cpp:110] Creating Layer inception_4a/double3x3_reduce
I1029 15:15:37.703747 14742 net.cpp:477] inception_4a/double3x3_reduce <- inception_3c/output_inception_3c/output_0_split_2
I1029 15:15:37.703753 14742 net.cpp:433] inception_4a/double3x3_reduce -> inception_4a/double3x3_reduce
I1029 15:15:37.704102 14742 net.cpp:155] Setting up inception_4a/double3x3_reduce
I1029 15:15:37.704113 14742 net.cpp:163] Top shape: 50 96 14 14 (940800)
I1029 15:15:37.704121 14742 layer_factory.hpp:76] Creating layer inception_4a/double3x3_reduce/bn
I1029 15:15:37.704131 14742 net.cpp:110] Creating Layer inception_4a/double3x3_reduce/bn
I1029 15:15:37.704138 14742 net.cpp:477] inception_4a/double3x3_reduce/bn <- inception_4a/double3x3_reduce
I1029 15:15:37.704149 14742 net.cpp:433] inception_4a/double3x3_reduce/bn -> inception_4a/double3x3_reduce/bn
I1029 15:15:37.704239 14742 net.cpp:155] Setting up inception_4a/double3x3_reduce/bn
I1029 15:15:37.704249 14742 net.cpp:163] Top shape: 50 96 14 14 (940800)
I1029 15:15:37.704277 14742 layer_factory.hpp:76] Creating layer inception_4a/relu_double3x3_reduce
I1029 15:15:37.704285 14742 net.cpp:110] Creating Layer inception_4a/relu_double3x3_reduce
I1029 15:15:37.704291 14742 net.cpp:477] inception_4a/relu_double3x3_reduce <- inception_4a/double3x3_reduce/bn
I1029 15:15:37.704298 14742 net.cpp:419] inception_4a/relu_double3x3_reduce -> inception_4a/double3x3_reduce/bn (in-place)
I1029 15:15:37.704375 14742 net.cpp:155] Setting up inception_4a/relu_double3x3_reduce
I1029 15:15:37.704385 14742 net.cpp:163] Top shape: 50 96 14 14 (940800)
I1029 15:15:37.704392 14742 layer_factory.hpp:76] Creating layer inception_4a/double3x3a
I1029 15:15:37.704401 14742 net.cpp:110] Creating Layer inception_4a/double3x3a
I1029 15:15:37.704407 14742 net.cpp:477] inception_4a/double3x3a <- inception_4a/double3x3_reduce/bn
I1029 15:15:37.704416 14742 net.cpp:433] inception_4a/double3x3a -> inception_4a/double3x3a
I1029 15:15:37.704785 14742 net.cpp:155] Setting up inception_4a/double3x3a
I1029 15:15:37.704797 14742 net.cpp:163] Top shape: 50 128 14 14 (1254400)
I1029 15:15:37.704805 14742 layer_factory.hpp:76] Creating layer inception_4a/double3x3a/bn
I1029 15:15:37.704819 14742 net.cpp:110] Creating Layer inception_4a/double3x3a/bn
I1029 15:15:37.704828 14742 net.cpp:477] inception_4a/double3x3a/bn <- inception_4a/double3x3a
I1029 15:15:37.704838 14742 net.cpp:433] inception_4a/double3x3a/bn -> inception_4a/double3x3a/bn
I1029 15:15:37.704912 14742 net.cpp:155] Setting up inception_4a/double3x3a/bn
I1029 15:15:37.704923 14742 net.cpp:163] Top shape: 50 128 14 14 (1254400)
I1029 15:15:37.704933 14742 layer_factory.hpp:76] Creating layer inception_4a/relu_double3x3a
I1029 15:15:37.704943 14742 net.cpp:110] Creating Layer inception_4a/relu_double3x3a
I1029 15:15:37.704949 14742 net.cpp:477] inception_4a/relu_double3x3a <- inception_4a/double3x3a/bn
I1029 15:15:37.704957 14742 net.cpp:419] inception_4a/relu_double3x3a -> inception_4a/double3x3a/bn (in-place)
I1029 15:15:37.705142 14742 net.cpp:155] Setting up inception_4a/relu_double3x3a
I1029 15:15:37.705154 14742 net.cpp:163] Top shape: 50 128 14 14 (1254400)
I1029 15:15:37.705160 14742 layer_factory.hpp:76] Creating layer inception_4a/double3x3b
I1029 15:15:37.705171 14742 net.cpp:110] Creating Layer inception_4a/double3x3b
I1029 15:15:37.705183 14742 net.cpp:477] inception_4a/double3x3b <- inception_4a/double3x3a/bn
I1029 15:15:37.705196 14742 net.cpp:433] inception_4a/double3x3b -> inception_4a/double3x3b
I1029 15:15:37.706084 14742 net.cpp:155] Setting up inception_4a/double3x3b
I1029 15:15:37.706097 14742 net.cpp:163] Top shape: 50 128 14 14 (1254400)
I1029 15:15:37.706105 14742 layer_factory.hpp:76] Creating layer inception_4a/double3x3b/bn
I1029 15:15:37.706116 14742 net.cpp:110] Creating Layer inception_4a/double3x3b/bn
I1029 15:15:37.706123 14742 net.cpp:477] inception_4a/double3x3b/bn <- inception_4a/double3x3b
I1029 15:15:37.706131 14742 net.cpp:433] inception_4a/double3x3b/bn -> inception_4a/double3x3b/bn
I1029 15:15:37.706207 14742 net.cpp:155] Setting up inception_4a/double3x3b/bn
I1029 15:15:37.706218 14742 net.cpp:163] Top shape: 50 128 14 14 (1254400)
I1029 15:15:37.706228 14742 layer_factory.hpp:76] Creating layer inception_4a/relu_double3x3b
I1029 15:15:37.706238 14742 net.cpp:110] Creating Layer inception_4a/relu_double3x3b
I1029 15:15:37.706245 14742 net.cpp:477] inception_4a/relu_double3x3b <- inception_4a/double3x3b/bn
I1029 15:15:37.706253 14742 net.cpp:419] inception_4a/relu_double3x3b -> inception_4a/double3x3b/bn (in-place)
I1029 15:15:37.706315 14742 net.cpp:155] Setting up inception_4a/relu_double3x3b
I1029 15:15:37.706324 14742 net.cpp:163] Top shape: 50 128 14 14 (1254400)
I1029 15:15:37.706331 14742 layer_factory.hpp:76] Creating layer inception_4a/pool
I1029 15:15:37.706336 14742 layer_factory.cpp:60] CUDNN does not support padding or multiple tops. Using Caffe's own pooling layer.
I1029 15:15:37.706346 14742 net.cpp:110] Creating Layer inception_4a/pool
I1029 15:15:37.706352 14742 net.cpp:477] inception_4a/pool <- inception_3c/output_inception_3c/output_0_split_3
I1029 15:15:37.706359 14742 net.cpp:433] inception_4a/pool -> inception_4a/pool
I1029 15:15:37.706369 14742 net.cpp:155] Setting up inception_4a/pool
I1029 15:15:37.706377 14742 net.cpp:163] Top shape: 50 576 14 14 (5644800)
I1029 15:15:37.706382 14742 layer_factory.hpp:76] Creating layer inception_4a/pool_proj
I1029 15:15:37.706393 14742 net.cpp:110] Creating Layer inception_4a/pool_proj
I1029 15:15:37.706399 14742 net.cpp:477] inception_4a/pool_proj <- inception_4a/pool
I1029 15:15:37.706406 14742 net.cpp:433] inception_4a/pool_proj -> inception_4a/pool_proj
I1029 15:15:37.706768 14742 net.cpp:155] Setting up inception_4a/pool_proj
I1029 15:15:37.706782 14742 net.cpp:163] Top shape: 50 128 14 14 (1254400)
I1029 15:15:37.706791 14742 layer_factory.hpp:76] Creating layer inception_4a/pool_proj/bn
I1029 15:15:37.706801 14742 net.cpp:110] Creating Layer inception_4a/pool_proj/bn
I1029 15:15:37.706807 14742 net.cpp:477] inception_4a/pool_proj/bn <- inception_4a/pool_proj
I1029 15:15:37.706817 14742 net.cpp:433] inception_4a/pool_proj/bn -> inception_4a/pool_proj/bn
I1029 15:15:37.706895 14742 net.cpp:155] Setting up inception_4a/pool_proj/bn
I1029 15:15:37.706907 14742 net.cpp:163] Top shape: 50 128 14 14 (1254400)
I1029 15:15:37.706917 14742 layer_factory.hpp:76] Creating layer inception_4a/relu_pool_proj
I1029 15:15:37.706924 14742 net.cpp:110] Creating Layer inception_4a/relu_pool_proj
I1029 15:15:37.706931 14742 net.cpp:477] inception_4a/relu_pool_proj <- inception_4a/pool_proj/bn
I1029 15:15:37.706938 14742 net.cpp:419] inception_4a/relu_pool_proj -> inception_4a/pool_proj/bn (in-place)
I1029 15:15:37.707002 14742 net.cpp:155] Setting up inception_4a/relu_pool_proj
I1029 15:15:37.707012 14742 net.cpp:163] Top shape: 50 128 14 14 (1254400)
I1029 15:15:37.707018 14742 layer_factory.hpp:76] Creating layer inception_4a/output
I1029 15:15:37.707026 14742 net.cpp:110] Creating Layer inception_4a/output
I1029 15:15:37.707032 14742 net.cpp:477] inception_4a/output <- inception_4a/1x1/bn
I1029 15:15:37.707039 14742 net.cpp:477] inception_4a/output <- inception_4a/3x3/bn
I1029 15:15:37.707046 14742 net.cpp:477] inception_4a/output <- inception_4a/double3x3b/bn
I1029 15:15:37.707052 14742 net.cpp:477] inception_4a/output <- inception_4a/pool_proj/bn
I1029 15:15:37.707064 14742 net.cpp:433] inception_4a/output -> inception_4a/output
I1029 15:15:37.707082 14742 net.cpp:155] Setting up inception_4a/output
I1029 15:15:37.707092 14742 net.cpp:163] Top shape: 50 576 14 14 (5644800)
I1029 15:15:37.707098 14742 layer_factory.hpp:76] Creating layer inception_4a/output_inception_4a/output_0_split
I1029 15:15:37.707104 14742 net.cpp:110] Creating Layer inception_4a/output_inception_4a/output_0_split
I1029 15:15:37.707110 14742 net.cpp:477] inception_4a/output_inception_4a/output_0_split <- inception_4a/output
I1029 15:15:37.707120 14742 net.cpp:433] inception_4a/output_inception_4a/output_0_split -> inception_4a/output_inception_4a/output_0_split_0
I1029 15:15:37.707129 14742 net.cpp:433] inception_4a/output_inception_4a/output_0_split -> inception_4a/output_inception_4a/output_0_split_1
I1029 15:15:37.707139 14742 net.cpp:433] inception_4a/output_inception_4a/output_0_split -> inception_4a/output_inception_4a/output_0_split_2
I1029 15:15:37.707146 14742 net.cpp:433] inception_4a/output_inception_4a/output_0_split -> inception_4a/output_inception_4a/output_0_split_3
I1029 15:15:37.707155 14742 net.cpp:155] Setting up inception_4a/output_inception_4a/output_0_split
I1029 15:15:37.707162 14742 net.cpp:163] Top shape: 50 576 14 14 (5644800)
I1029 15:15:37.707168 14742 net.cpp:163] Top shape: 50 576 14 14 (5644800)
I1029 15:15:37.707175 14742 net.cpp:163] Top shape: 50 576 14 14 (5644800)
I1029 15:15:37.707181 14742 net.cpp:163] Top shape: 50 576 14 14 (5644800)
I1029 15:15:37.707186 14742 layer_factory.hpp:76] Creating layer inception_4b/1x1
I1029 15:15:37.707195 14742 net.cpp:110] Creating Layer inception_4b/1x1
I1029 15:15:37.707201 14742 net.cpp:477] inception_4b/1x1 <- inception_4a/output_inception_4a/output_0_split_0
I1029 15:15:37.707209 14742 net.cpp:433] inception_4b/1x1 -> inception_4b/1x1
I1029 15:15:37.708114 14742 net.cpp:155] Setting up inception_4b/1x1
I1029 15:15:37.708127 14742 net.cpp:163] Top shape: 50 192 14 14 (1881600)
I1029 15:15:37.708137 14742 layer_factory.hpp:76] Creating layer inception_4b/1x1/bn
I1029 15:15:37.708148 14742 net.cpp:110] Creating Layer inception_4b/1x1/bn
I1029 15:15:37.708155 14742 net.cpp:477] inception_4b/1x1/bn <- inception_4b/1x1
I1029 15:15:37.708164 14742 net.cpp:433] inception_4b/1x1/bn -> inception_4b/1x1/bn
I1029 15:15:37.708255 14742 net.cpp:155] Setting up inception_4b/1x1/bn
I1029 15:15:37.708266 14742 net.cpp:163] Top shape: 50 192 14 14 (1881600)
I1029 15:15:37.708276 14742 layer_factory.hpp:76] Creating layer inception_4b/relu_1x1
I1029 15:15:37.708286 14742 net.cpp:110] Creating Layer inception_4b/relu_1x1
I1029 15:15:37.708292 14742 net.cpp:477] inception_4b/relu_1x1 <- inception_4b/1x1/bn
I1029 15:15:37.708299 14742 net.cpp:419] inception_4b/relu_1x1 -> inception_4b/1x1/bn (in-place)
I1029 15:15:37.708362 14742 net.cpp:155] Setting up inception_4b/relu_1x1
I1029 15:15:37.708371 14742 net.cpp:163] Top shape: 50 192 14 14 (1881600)
I1029 15:15:37.708379 14742 layer_factory.hpp:76] Creating layer inception_4b/3x3_reduce
I1029 15:15:37.708386 14742 net.cpp:110] Creating Layer inception_4b/3x3_reduce
I1029 15:15:37.708392 14742 net.cpp:477] inception_4b/3x3_reduce <- inception_4a/output_inception_4a/output_0_split_1
I1029 15:15:37.708400 14742 net.cpp:433] inception_4b/3x3_reduce -> inception_4b/3x3_reduce
I1029 15:15:37.709333 14742 net.cpp:155] Setting up inception_4b/3x3_reduce
I1029 15:15:37.709347 14742 net.cpp:163] Top shape: 50 96 14 14 (940800)
I1029 15:15:37.709354 14742 layer_factory.hpp:76] Creating layer inception_4b/3x3_reduce/bn
I1029 15:15:37.709367 14742 net.cpp:110] Creating Layer inception_4b/3x3_reduce/bn
I1029 15:15:37.709374 14742 net.cpp:477] inception_4b/3x3_reduce/bn <- inception_4b/3x3_reduce
I1029 15:15:37.709383 14742 net.cpp:433] inception_4b/3x3_reduce/bn -> inception_4b/3x3_reduce/bn
I1029 15:15:37.709478 14742 net.cpp:155] Setting up inception_4b/3x3_reduce/bn
I1029 15:15:37.709489 14742 net.cpp:163] Top shape: 50 96 14 14 (940800)
I1029 15:15:37.709499 14742 layer_factory.hpp:76] Creating layer inception_4b/relu_3x3_reduce
I1029 15:15:37.709512 14742 net.cpp:110] Creating Layer inception_4b/relu_3x3_reduce
I1029 15:15:37.709527 14742 net.cpp:477] inception_4b/relu_3x3_reduce <- inception_4b/3x3_reduce/bn
I1029 15:15:37.709535 14742 net.cpp:419] inception_4b/relu_3x3_reduce -> inception_4b/3x3_reduce/bn (in-place)
I1029 15:15:37.709722 14742 net.cpp:155] Setting up inception_4b/relu_3x3_reduce
I1029 15:15:37.709735 14742 net.cpp:163] Top shape: 50 96 14 14 (940800)
I1029 15:15:37.709741 14742 layer_factory.hpp:76] Creating layer inception_4b/3x3
I1029 15:15:37.709750 14742 net.cpp:110] Creating Layer inception_4b/3x3
I1029 15:15:37.709756 14742 net.cpp:477] inception_4b/3x3 <- inception_4b/3x3_reduce/bn
I1029 15:15:37.709767 14742 net.cpp:433] inception_4b/3x3 -> inception_4b/3x3
I1029 15:15:37.710155 14742 net.cpp:155] Setting up inception_4b/3x3
I1029 15:15:37.710167 14742 net.cpp:163] Top shape: 50 128 14 14 (1254400)
I1029 15:15:37.710175 14742 layer_factory.hpp:76] Creating layer inception_4b/3x3/bn
I1029 15:15:37.710187 14742 net.cpp:110] Creating Layer inception_4b/3x3/bn
I1029 15:15:37.710194 14742 net.cpp:477] inception_4b/3x3/bn <- inception_4b/3x3
I1029 15:15:37.710203 14742 net.cpp:433] inception_4b/3x3/bn -> inception_4b/3x3/bn
I1029 15:15:37.710283 14742 net.cpp:155] Setting up inception_4b/3x3/bn
I1029 15:15:37.710294 14742 net.cpp:163] Top shape: 50 128 14 14 (1254400)
I1029 15:15:37.710304 14742 layer_factory.hpp:76] Creating layer inception_4b/relu_3x3
I1029 15:15:37.710312 14742 net.cpp:110] Creating Layer inception_4b/relu_3x3
I1029 15:15:37.710319 14742 net.cpp:477] inception_4b/relu_3x3 <- inception_4b/3x3/bn
I1029 15:15:37.710325 14742 net.cpp:419] inception_4b/relu_3x3 -> inception_4b/3x3/bn (in-place)
I1029 15:15:37.710399 14742 net.cpp:155] Setting up inception_4b/relu_3x3
I1029 15:15:37.710410 14742 net.cpp:163] Top shape: 50 128 14 14 (1254400)
I1029 15:15:37.710417 14742 layer_factory.hpp:76] Creating layer inception_4b/double3x3_reduce
I1029 15:15:37.710425 14742 net.cpp:110] Creating Layer inception_4b/double3x3_reduce
I1029 15:15:37.710433 14742 net.cpp:477] inception_4b/double3x3_reduce <- inception_4a/output_inception_4a/output_0_split_2
I1029 15:15:37.710440 14742 net.cpp:433] inception_4b/double3x3_reduce -> inception_4b/double3x3_reduce
I1029 15:15:37.710793 14742 net.cpp:155] Setting up inception_4b/double3x3_reduce
I1029 15:15:37.710809 14742 net.cpp:163] Top shape: 50 96 14 14 (940800)
I1029 15:15:37.710819 14742 layer_factory.hpp:76] Creating layer inception_4b/double3x3_reduce/bn
I1029 15:15:37.710830 14742 net.cpp:110] Creating Layer inception_4b/double3x3_reduce/bn
I1029 15:15:37.710837 14742 net.cpp:477] inception_4b/double3x3_reduce/bn <- inception_4b/double3x3_reduce
I1029 15:15:37.710847 14742 net.cpp:433] inception_4b/double3x3_reduce/bn -> inception_4b/double3x3_reduce/bn
I1029 15:15:37.710940 14742 net.cpp:155] Setting up inception_4b/double3x3_reduce/bn
I1029 15:15:37.710952 14742 net.cpp:163] Top shape: 50 96 14 14 (940800)
I1029 15:15:37.710961 14742 layer_factory.hpp:76] Creating layer inception_4b/relu_double3x3_reduce
I1029 15:15:37.710969 14742 net.cpp:110] Creating Layer inception_4b/relu_double3x3_reduce
I1029 15:15:37.710975 14742 net.cpp:477] inception_4b/relu_double3x3_reduce <- inception_4b/double3x3_reduce/bn
I1029 15:15:37.710983 14742 net.cpp:419] inception_4b/relu_double3x3_reduce -> inception_4b/double3x3_reduce/bn (in-place)
I1029 15:15:37.711043 14742 net.cpp:155] Setting up inception_4b/relu_double3x3_reduce
I1029 15:15:37.711053 14742 net.cpp:163] Top shape: 50 96 14 14 (940800)
I1029 15:15:37.711060 14742 layer_factory.hpp:76] Creating layer inception_4b/double3x3a
I1029 15:15:37.711067 14742 net.cpp:110] Creating Layer inception_4b/double3x3a
I1029 15:15:37.711074 14742 net.cpp:477] inception_4b/double3x3a <- inception_4b/double3x3_reduce/bn
I1029 15:15:37.711086 14742 net.cpp:433] inception_4b/double3x3a -> inception_4b/double3x3a
I1029 15:15:37.711984 14742 net.cpp:155] Setting up inception_4b/double3x3a
I1029 15:15:37.711997 14742 net.cpp:163] Top shape: 50 128 14 14 (1254400)
I1029 15:15:37.712010 14742 layer_factory.hpp:76] Creating layer inception_4b/double3x3a/bn
I1029 15:15:37.712044 14742 net.cpp:110] Creating Layer inception_4b/double3x3a/bn
I1029 15:15:37.712054 14742 net.cpp:477] inception_4b/double3x3a/bn <- inception_4b/double3x3a
I1029 15:15:37.712065 14742 net.cpp:433] inception_4b/double3x3a/bn -> inception_4b/double3x3a/bn
I1029 15:15:37.712143 14742 net.cpp:155] Setting up inception_4b/double3x3a/bn
I1029 15:15:37.712154 14742 net.cpp:163] Top shape: 50 128 14 14 (1254400)
I1029 15:15:37.712164 14742 layer_factory.hpp:76] Creating layer inception_4b/relu_double3x3a
I1029 15:15:37.712175 14742 net.cpp:110] Creating Layer inception_4b/relu_double3x3a
I1029 15:15:37.712182 14742 net.cpp:477] inception_4b/relu_double3x3a <- inception_4b/double3x3a/bn
I1029 15:15:37.712188 14742 net.cpp:419] inception_4b/relu_double3x3a -> inception_4b/double3x3a/bn (in-place)
I1029 15:15:37.712254 14742 net.cpp:155] Setting up inception_4b/relu_double3x3a
I1029 15:15:37.712263 14742 net.cpp:163] Top shape: 50 128 14 14 (1254400)
I1029 15:15:37.712270 14742 layer_factory.hpp:76] Creating layer inception_4b/double3x3b
I1029 15:15:37.712281 14742 net.cpp:110] Creating Layer inception_4b/double3x3b
I1029 15:15:37.712288 14742 net.cpp:477] inception_4b/double3x3b <- inception_4b/double3x3a/bn
I1029 15:15:37.712296 14742 net.cpp:433] inception_4b/double3x3b -> inception_4b/double3x3b
I1029 15:15:37.712684 14742 net.cpp:155] Setting up inception_4b/double3x3b
I1029 15:15:37.712697 14742 net.cpp:163] Top shape: 50 128 14 14 (1254400)
I1029 15:15:37.712705 14742 layer_factory.hpp:76] Creating layer inception_4b/double3x3b/bn
I1029 15:15:37.712716 14742 net.cpp:110] Creating Layer inception_4b/double3x3b/bn
I1029 15:15:37.712723 14742 net.cpp:477] inception_4b/double3x3b/bn <- inception_4b/double3x3b
I1029 15:15:37.712733 14742 net.cpp:433] inception_4b/double3x3b/bn -> inception_4b/double3x3b/bn
I1029 15:15:37.712810 14742 net.cpp:155] Setting up inception_4b/double3x3b/bn
I1029 15:15:37.712820 14742 net.cpp:163] Top shape: 50 128 14 14 (1254400)
I1029 15:15:37.712829 14742 layer_factory.hpp:76] Creating layer inception_4b/relu_double3x3b
I1029 15:15:37.712839 14742 net.cpp:110] Creating Layer inception_4b/relu_double3x3b
I1029 15:15:37.712846 14742 net.cpp:477] inception_4b/relu_double3x3b <- inception_4b/double3x3b/bn
I1029 15:15:37.712852 14742 net.cpp:419] inception_4b/relu_double3x3b -> inception_4b/double3x3b/bn (in-place)
I1029 15:15:37.713044 14742 net.cpp:155] Setting up inception_4b/relu_double3x3b
I1029 15:15:37.713057 14742 net.cpp:163] Top shape: 50 128 14 14 (1254400)
I1029 15:15:37.713063 14742 layer_factory.hpp:76] Creating layer inception_4b/pool
I1029 15:15:37.713070 14742 layer_factory.cpp:60] CUDNN does not support padding or multiple tops. Using Caffe's own pooling layer.
I1029 15:15:37.713079 14742 net.cpp:110] Creating Layer inception_4b/pool
I1029 15:15:37.713086 14742 net.cpp:477] inception_4b/pool <- inception_4a/output_inception_4a/output_0_split_3
I1029 15:15:37.713094 14742 net.cpp:433] inception_4b/pool -> inception_4b/pool
I1029 15:15:37.713105 14742 net.cpp:155] Setting up inception_4b/pool
I1029 15:15:37.713112 14742 net.cpp:163] Top shape: 50 576 14 14 (5644800)
I1029 15:15:37.713119 14742 layer_factory.hpp:76] Creating layer inception_4b/pool_proj
I1029 15:15:37.713126 14742 net.cpp:110] Creating Layer inception_4b/pool_proj
I1029 15:15:37.713132 14742 net.cpp:477] inception_4b/pool_proj <- inception_4b/pool
I1029 15:15:37.713140 14742 net.cpp:433] inception_4b/pool_proj -> inception_4b/pool_proj
I1029 15:15:37.713503 14742 net.cpp:155] Setting up inception_4b/pool_proj
I1029 15:15:37.713516 14742 net.cpp:163] Top shape: 50 128 14 14 (1254400)
I1029 15:15:37.713523 14742 layer_factory.hpp:76] Creating layer inception_4b/pool_proj/bn
I1029 15:15:37.713536 14742 net.cpp:110] Creating Layer inception_4b/pool_proj/bn
I1029 15:15:37.713541 14742 net.cpp:477] inception_4b/pool_proj/bn <- inception_4b/pool_proj
I1029 15:15:37.713549 14742 net.cpp:433] inception_4b/pool_proj/bn -> inception_4b/pool_proj/bn
I1029 15:15:37.713639 14742 net.cpp:155] Setting up inception_4b/pool_proj/bn
I1029 15:15:37.713649 14742 net.cpp:163] Top shape: 50 128 14 14 (1254400)
I1029 15:15:37.713660 14742 layer_factory.hpp:76] Creating layer inception_4b/relu_pool_proj
I1029 15:15:37.713667 14742 net.cpp:110] Creating Layer inception_4b/relu_pool_proj
I1029 15:15:37.713675 14742 net.cpp:477] inception_4b/relu_pool_proj <- inception_4b/pool_proj/bn
I1029 15:15:37.713682 14742 net.cpp:419] inception_4b/relu_pool_proj -> inception_4b/pool_proj/bn (in-place)
I1029 15:15:37.713743 14742 net.cpp:155] Setting up inception_4b/relu_pool_proj
I1029 15:15:37.713753 14742 net.cpp:163] Top shape: 50 128 14 14 (1254400)
I1029 15:15:37.713759 14742 layer_factory.hpp:76] Creating layer inception_4b/output
I1029 15:15:37.713769 14742 net.cpp:110] Creating Layer inception_4b/output
I1029 15:15:37.713775 14742 net.cpp:477] inception_4b/output <- inception_4b/1x1/bn
I1029 15:15:37.713783 14742 net.cpp:477] inception_4b/output <- inception_4b/3x3/bn
I1029 15:15:37.713788 14742 net.cpp:477] inception_4b/output <- inception_4b/double3x3b/bn
I1029 15:15:37.713795 14742 net.cpp:477] inception_4b/output <- inception_4b/pool_proj/bn
I1029 15:15:37.713803 14742 net.cpp:433] inception_4b/output -> inception_4b/output
I1029 15:15:37.713811 14742 net.cpp:155] Setting up inception_4b/output
I1029 15:15:37.713819 14742 net.cpp:163] Top shape: 50 576 14 14 (5644800)
I1029 15:15:37.713824 14742 layer_factory.hpp:76] Creating layer inception_4b/output_inception_4b/output_0_split
I1029 15:15:37.713832 14742 net.cpp:110] Creating Layer inception_4b/output_inception_4b/output_0_split
I1029 15:15:37.713838 14742 net.cpp:477] inception_4b/output_inception_4b/output_0_split <- inception_4b/output
I1029 15:15:37.713847 14742 net.cpp:433] inception_4b/output_inception_4b/output_0_split -> inception_4b/output_inception_4b/output_0_split_0
I1029 15:15:37.713856 14742 net.cpp:433] inception_4b/output_inception_4b/output_0_split -> inception_4b/output_inception_4b/output_0_split_1
I1029 15:15:37.713865 14742 net.cpp:433] inception_4b/output_inception_4b/output_0_split -> inception_4b/output_inception_4b/output_0_split_2
I1029 15:15:37.713873 14742 net.cpp:433] inception_4b/output_inception_4b/output_0_split -> inception_4b/output_inception_4b/output_0_split_3
I1029 15:15:37.713882 14742 net.cpp:155] Setting up inception_4b/output_inception_4b/output_0_split
I1029 15:15:37.713889 14742 net.cpp:163] Top shape: 50 576 14 14 (5644800)
I1029 15:15:37.713896 14742 net.cpp:163] Top shape: 50 576 14 14 (5644800)
I1029 15:15:37.713901 14742 net.cpp:163] Top shape: 50 576 14 14 (5644800)
I1029 15:15:37.713908 14742 net.cpp:163] Top shape: 50 576 14 14 (5644800)
I1029 15:15:37.713913 14742 layer_factory.hpp:76] Creating layer inception_4c/1x1
I1029 15:15:37.713922 14742 net.cpp:110] Creating Layer inception_4c/1x1
I1029 15:15:37.713927 14742 net.cpp:477] inception_4c/1x1 <- inception_4b/output_inception_4b/output_0_split_0
I1029 15:15:37.713934 14742 net.cpp:433] inception_4c/1x1 -> inception_4c/1x1
I1029 15:15:37.714320 14742 net.cpp:155] Setting up inception_4c/1x1
I1029 15:15:37.714334 14742 net.cpp:163] Top shape: 50 160 14 14 (1568000)
I1029 15:15:37.714341 14742 layer_factory.hpp:76] Creating layer inception_4c/1x1/bn
I1029 15:15:37.714365 14742 net.cpp:110] Creating Layer inception_4c/1x1/bn
I1029 15:15:37.714373 14742 net.cpp:477] inception_4c/1x1/bn <- inception_4c/1x1
I1029 15:15:37.714382 14742 net.cpp:433] inception_4c/1x1/bn -> inception_4c/1x1/bn
I1029 15:15:37.714474 14742 net.cpp:155] Setting up inception_4c/1x1/bn
I1029 15:15:37.714485 14742 net.cpp:163] Top shape: 50 160 14 14 (1568000)
I1029 15:15:37.714495 14742 layer_factory.hpp:76] Creating layer inception_4c/relu_1x1
I1029 15:15:37.714509 14742 net.cpp:110] Creating Layer inception_4c/relu_1x1
I1029 15:15:37.714519 14742 net.cpp:477] inception_4c/relu_1x1 <- inception_4c/1x1/bn
I1029 15:15:37.714527 14742 net.cpp:419] inception_4c/relu_1x1 -> inception_4c/1x1/bn (in-place)
I1029 15:15:37.714596 14742 net.cpp:155] Setting up inception_4c/relu_1x1
I1029 15:15:37.714614 14742 net.cpp:163] Top shape: 50 160 14 14 (1568000)
I1029 15:15:37.714622 14742 layer_factory.hpp:76] Creating layer inception_4c/3x3_reduce
I1029 15:15:37.714629 14742 net.cpp:110] Creating Layer inception_4c/3x3_reduce
I1029 15:15:37.714637 14742 net.cpp:477] inception_4c/3x3_reduce <- inception_4b/output_inception_4b/output_0_split_1
I1029 15:15:37.714643 14742 net.cpp:433] inception_4c/3x3_reduce -> inception_4c/3x3_reduce
I1029 15:15:37.715497 14742 net.cpp:155] Setting up inception_4c/3x3_reduce
I1029 15:15:37.715510 14742 net.cpp:163] Top shape: 50 128 14 14 (1254400)
I1029 15:15:37.715518 14742 layer_factory.hpp:76] Creating layer inception_4c/3x3_reduce/bn
I1029 15:15:37.715528 14742 net.cpp:110] Creating Layer inception_4c/3x3_reduce/bn
I1029 15:15:37.715535 14742 net.cpp:477] inception_4c/3x3_reduce/bn <- inception_4c/3x3_reduce
I1029 15:15:37.715545 14742 net.cpp:433] inception_4c/3x3_reduce/bn -> inception_4c/3x3_reduce/bn
I1029 15:15:37.715626 14742 net.cpp:155] Setting up inception_4c/3x3_reduce/bn
I1029 15:15:37.715636 14742 net.cpp:163] Top shape: 50 128 14 14 (1254400)
I1029 15:15:37.715646 14742 layer_factory.hpp:76] Creating layer inception_4c/relu_3x3_reduce
I1029 15:15:37.715654 14742 net.cpp:110] Creating Layer inception_4c/relu_3x3_reduce
I1029 15:15:37.715661 14742 net.cpp:477] inception_4c/relu_3x3_reduce <- inception_4c/3x3_reduce/bn
I1029 15:15:37.715667 14742 net.cpp:419] inception_4c/relu_3x3_reduce -> inception_4c/3x3_reduce/bn (in-place)
I1029 15:15:37.715730 14742 net.cpp:155] Setting up inception_4c/relu_3x3_reduce
I1029 15:15:37.715740 14742 net.cpp:163] Top shape: 50 128 14 14 (1254400)
I1029 15:15:37.715746 14742 layer_factory.hpp:76] Creating layer inception_4c/3x3
I1029 15:15:37.715755 14742 net.cpp:110] Creating Layer inception_4c/3x3
I1029 15:15:37.715761 14742 net.cpp:477] inception_4c/3x3 <- inception_4c/3x3_reduce/bn
I1029 15:15:37.715770 14742 net.cpp:433] inception_4c/3x3 -> inception_4c/3x3
I1029 15:15:37.716174 14742 net.cpp:155] Setting up inception_4c/3x3
I1029 15:15:37.716188 14742 net.cpp:163] Top shape: 50 160 14 14 (1568000)
I1029 15:15:37.716197 14742 layer_factory.hpp:76] Creating layer inception_4c/3x3/bn
I1029 15:15:37.716207 14742 net.cpp:110] Creating Layer inception_4c/3x3/bn
I1029 15:15:37.716213 14742 net.cpp:477] inception_4c/3x3/bn <- inception_4c/3x3
I1029 15:15:37.716223 14742 net.cpp:433] inception_4c/3x3/bn -> inception_4c/3x3/bn
I1029 15:15:37.716315 14742 net.cpp:155] Setting up inception_4c/3x3/bn
I1029 15:15:37.716325 14742 net.cpp:163] Top shape: 50 160 14 14 (1568000)
I1029 15:15:37.716336 14742 layer_factory.hpp:76] Creating layer inception_4c/relu_3x3
I1029 15:15:37.716343 14742 net.cpp:110] Creating Layer inception_4c/relu_3x3
I1029 15:15:37.716349 14742 net.cpp:477] inception_4c/relu_3x3 <- inception_4c/3x3/bn
I1029 15:15:37.716358 14742 net.cpp:419] inception_4c/relu_3x3 -> inception_4c/3x3/bn (in-place)
I1029 15:15:37.716543 14742 net.cpp:155] Setting up inception_4c/relu_3x3
I1029 15:15:37.716557 14742 net.cpp:163] Top shape: 50 160 14 14 (1568000)
I1029 15:15:37.716562 14742 layer_factory.hpp:76] Creating layer inception_4c/double3x3_reduce
I1029 15:15:37.716572 14742 net.cpp:110] Creating Layer inception_4c/double3x3_reduce
I1029 15:15:37.716578 14742 net.cpp:477] inception_4c/double3x3_reduce <- inception_4b/output_inception_4b/output_0_split_2
I1029 15:15:37.716588 14742 net.cpp:433] inception_4c/double3x3_reduce -> inception_4c/double3x3_reduce
I1029 15:15:37.717425 14742 net.cpp:155] Setting up inception_4c/double3x3_reduce
I1029 15:15:37.717438 14742 net.cpp:163] Top shape: 50 128 14 14 (1254400)
I1029 15:15:37.717447 14742 layer_factory.hpp:76] Creating layer inception_4c/double3x3_reduce/bn
I1029 15:15:37.717458 14742 net.cpp:110] Creating Layer inception_4c/double3x3_reduce/bn
I1029 15:15:37.717465 14742 net.cpp:477] inception_4c/double3x3_reduce/bn <- inception_4c/double3x3_reduce
I1029 15:15:37.717473 14742 net.cpp:433] inception_4c/double3x3_reduce/bn -> inception_4c/double3x3_reduce/bn
I1029 15:15:37.717563 14742 net.cpp:155] Setting up inception_4c/double3x3_reduce/bn
I1029 15:15:37.717576 14742 net.cpp:163] Top shape: 50 128 14 14 (1254400)
I1029 15:15:37.717586 14742 layer_factory.hpp:76] Creating layer inception_4c/relu_double3x3_reduce
I1029 15:15:37.717593 14742 net.cpp:110] Creating Layer inception_4c/relu_double3x3_reduce
I1029 15:15:37.717599 14742 net.cpp:477] inception_4c/relu_double3x3_reduce <- inception_4c/double3x3_reduce/bn
I1029 15:15:37.717608 14742 net.cpp:419] inception_4c/relu_double3x3_reduce -> inception_4c/double3x3_reduce/bn (in-place)
I1029 15:15:37.717672 14742 net.cpp:155] Setting up inception_4c/relu_double3x3_reduce
I1029 15:15:37.717682 14742 net.cpp:163] Top shape: 50 128 14 14 (1254400)
I1029 15:15:37.717689 14742 layer_factory.hpp:76] Creating layer inception_4c/double3x3a
I1029 15:15:37.717697 14742 net.cpp:110] Creating Layer inception_4c/double3x3a
I1029 15:15:37.717703 14742 net.cpp:477] inception_4c/double3x3a <- inception_4c/double3x3_reduce/bn
I1029 15:15:37.717712 14742 net.cpp:433] inception_4c/double3x3a -> inception_4c/double3x3a
I1029 15:15:37.718123 14742 net.cpp:155] Setting up inception_4c/double3x3a
I1029 15:15:37.718137 14742 net.cpp:163] Top shape: 50 160 14 14 (1568000)
I1029 15:15:37.718144 14742 layer_factory.hpp:76] Creating layer inception_4c/double3x3a/bn
I1029 15:15:37.718155 14742 net.cpp:110] Creating Layer inception_4c/double3x3a/bn
I1029 15:15:37.718163 14742 net.cpp:477] inception_4c/double3x3a/bn <- inception_4c/double3x3a
I1029 15:15:37.718170 14742 net.cpp:433] inception_4c/double3x3a/bn -> inception_4c/double3x3a/bn
I1029 15:15:37.718262 14742 net.cpp:155] Setting up inception_4c/double3x3a/bn
I1029 15:15:37.718273 14742 net.cpp:163] Top shape: 50 160 14 14 (1568000)
I1029 15:15:37.718283 14742 layer_factory.hpp:76] Creating layer inception_4c/relu_double3x3a
I1029 15:15:37.718293 14742 net.cpp:110] Creating Layer inception_4c/relu_double3x3a
I1029 15:15:37.718299 14742 net.cpp:477] inception_4c/relu_double3x3a <- inception_4c/double3x3a/bn
I1029 15:15:37.718307 14742 net.cpp:419] inception_4c/relu_double3x3a -> inception_4c/double3x3a/bn (in-place)
I1029 15:15:37.718370 14742 net.cpp:155] Setting up inception_4c/relu_double3x3a
I1029 15:15:37.718379 14742 net.cpp:163] Top shape: 50 160 14 14 (1568000)
I1029 15:15:37.718385 14742 layer_factory.hpp:76] Creating layer inception_4c/double3x3b
I1029 15:15:37.718396 14742 net.cpp:110] Creating Layer inception_4c/double3x3b
I1029 15:15:37.718402 14742 net.cpp:477] inception_4c/double3x3b <- inception_4c/double3x3a/bn
I1029 15:15:37.718410 14742 net.cpp:433] inception_4c/double3x3b -> inception_4c/double3x3b
I1029 15:15:37.719339 14742 net.cpp:155] Setting up inception_4c/double3x3b
I1029 15:15:37.719355 14742 net.cpp:163] Top shape: 50 160 14 14 (1568000)
I1029 15:15:37.719364 14742 layer_factory.hpp:76] Creating layer inception_4c/double3x3b/bn
I1029 15:15:37.719377 14742 net.cpp:110] Creating Layer inception_4c/double3x3b/bn
I1029 15:15:37.719383 14742 net.cpp:477] inception_4c/double3x3b/bn <- inception_4c/double3x3b
I1029 15:15:37.719391 14742 net.cpp:433] inception_4c/double3x3b/bn -> inception_4c/double3x3b/bn
I1029 15:15:37.719485 14742 net.cpp:155] Setting up inception_4c/double3x3b/bn
I1029 15:15:37.719496 14742 net.cpp:163] Top shape: 50 160 14 14 (1568000)
I1029 15:15:37.719506 14742 layer_factory.hpp:76] Creating layer inception_4c/relu_double3x3b
I1029 15:15:37.719513 14742 net.cpp:110] Creating Layer inception_4c/relu_double3x3b
I1029 15:15:37.719521 14742 net.cpp:477] inception_4c/relu_double3x3b <- inception_4c/double3x3b/bn
I1029 15:15:37.719529 14742 net.cpp:419] inception_4c/relu_double3x3b -> inception_4c/double3x3b/bn (in-place)
I1029 15:15:37.719717 14742 net.cpp:155] Setting up inception_4c/relu_double3x3b
I1029 15:15:37.719730 14742 net.cpp:163] Top shape: 50 160 14 14 (1568000)
I1029 15:15:37.719737 14742 layer_factory.hpp:76] Creating layer inception_4c/pool
I1029 15:15:37.719743 14742 layer_factory.cpp:60] CUDNN does not support padding or multiple tops. Using Caffe's own pooling layer.
I1029 15:15:37.719763 14742 net.cpp:110] Creating Layer inception_4c/pool
I1029 15:15:37.719771 14742 net.cpp:477] inception_4c/pool <- inception_4b/output_inception_4b/output_0_split_3
I1029 15:15:37.719779 14742 net.cpp:433] inception_4c/pool -> inception_4c/pool
I1029 15:15:37.719790 14742 net.cpp:155] Setting up inception_4c/pool
I1029 15:15:37.719799 14742 net.cpp:163] Top shape: 50 576 14 14 (5644800)
I1029 15:15:37.719806 14742 layer_factory.hpp:76] Creating layer inception_4c/pool_proj
I1029 15:15:37.719815 14742 net.cpp:110] Creating Layer inception_4c/pool_proj
I1029 15:15:37.719820 14742 net.cpp:477] inception_4c/pool_proj <- inception_4c/pool
I1029 15:15:37.719827 14742 net.cpp:433] inception_4c/pool_proj -> inception_4c/pool_proj
I1029 15:15:37.720669 14742 net.cpp:155] Setting up inception_4c/pool_proj
I1029 15:15:37.720680 14742 net.cpp:163] Top shape: 50 128 14 14 (1254400)
I1029 15:15:37.720690 14742 layer_factory.hpp:76] Creating layer inception_4c/pool_proj/bn
I1029 15:15:37.720701 14742 net.cpp:110] Creating Layer inception_4c/pool_proj/bn
I1029 15:15:37.720708 14742 net.cpp:477] inception_4c/pool_proj/bn <- inception_4c/pool_proj
I1029 15:15:37.720720 14742 net.cpp:433] inception_4c/pool_proj/bn -> inception_4c/pool_proj/bn
I1029 15:15:37.720800 14742 net.cpp:155] Setting up inception_4c/pool_proj/bn
I1029 15:15:37.720811 14742 net.cpp:163] Top shape: 50 128 14 14 (1254400)
I1029 15:15:37.720821 14742 layer_factory.hpp:76] Creating layer inception_4c/relu_pool_proj
I1029 15:15:37.720831 14742 net.cpp:110] Creating Layer inception_4c/relu_pool_proj
I1029 15:15:37.720839 14742 net.cpp:477] inception_4c/relu_pool_proj <- inception_4c/pool_proj/bn
I1029 15:15:37.720845 14742 net.cpp:419] inception_4c/relu_pool_proj -> inception_4c/pool_proj/bn (in-place)
I1029 15:15:37.720911 14742 net.cpp:155] Setting up inception_4c/relu_pool_proj
I1029 15:15:37.720921 14742 net.cpp:163] Top shape: 50 128 14 14 (1254400)
I1029 15:15:37.720927 14742 layer_factory.hpp:76] Creating layer inception_4c/output
I1029 15:15:37.720934 14742 net.cpp:110] Creating Layer inception_4c/output
I1029 15:15:37.720940 14742 net.cpp:477] inception_4c/output <- inception_4c/1x1/bn
I1029 15:15:37.720947 14742 net.cpp:477] inception_4c/output <- inception_4c/3x3/bn
I1029 15:15:37.720953 14742 net.cpp:477] inception_4c/output <- inception_4c/double3x3b/bn
I1029 15:15:37.720960 14742 net.cpp:477] inception_4c/output <- inception_4c/pool_proj/bn
I1029 15:15:37.720969 14742 net.cpp:433] inception_4c/output -> inception_4c/output
I1029 15:15:37.720978 14742 net.cpp:155] Setting up inception_4c/output
I1029 15:15:37.720986 14742 net.cpp:163] Top shape: 50 608 14 14 (5958400)
I1029 15:15:37.720993 14742 layer_factory.hpp:76] Creating layer inception_4c/output_inception_4c/output_0_split
I1029 15:15:37.720999 14742 net.cpp:110] Creating Layer inception_4c/output_inception_4c/output_0_split
I1029 15:15:37.721005 14742 net.cpp:477] inception_4c/output_inception_4c/output_0_split <- inception_4c/output
I1029 15:15:37.721012 14742 net.cpp:433] inception_4c/output_inception_4c/output_0_split -> inception_4c/output_inception_4c/output_0_split_0
I1029 15:15:37.721021 14742 net.cpp:433] inception_4c/output_inception_4c/output_0_split -> inception_4c/output_inception_4c/output_0_split_1
I1029 15:15:37.721030 14742 net.cpp:433] inception_4c/output_inception_4c/output_0_split -> inception_4c/output_inception_4c/output_0_split_2
I1029 15:15:37.721038 14742 net.cpp:433] inception_4c/output_inception_4c/output_0_split -> inception_4c/output_inception_4c/output_0_split_3
I1029 15:15:37.721061 14742 net.cpp:155] Setting up inception_4c/output_inception_4c/output_0_split
I1029 15:15:37.721071 14742 net.cpp:163] Top shape: 50 608 14 14 (5958400)
I1029 15:15:37.721076 14742 net.cpp:163] Top shape: 50 608 14 14 (5958400)
I1029 15:15:37.721083 14742 net.cpp:163] Top shape: 50 608 14 14 (5958400)
I1029 15:15:37.721089 14742 net.cpp:163] Top shape: 50 608 14 14 (5958400)
I1029 15:15:37.721096 14742 layer_factory.hpp:76] Creating layer inception_4d/1x1
I1029 15:15:37.721115 14742 net.cpp:110] Creating Layer inception_4d/1x1
I1029 15:15:37.721122 14742 net.cpp:477] inception_4d/1x1 <- inception_4c/output_inception_4c/output_0_split_0
I1029 15:15:37.721130 14742 net.cpp:433] inception_4d/1x1 -> inception_4d/1x1
I1029 15:15:37.721473 14742 net.cpp:155] Setting up inception_4d/1x1
I1029 15:15:37.721487 14742 net.cpp:163] Top shape: 50 96 14 14 (940800)
I1029 15:15:37.721495 14742 layer_factory.hpp:76] Creating layer inception_4d/1x1/bn
I1029 15:15:37.721505 14742 net.cpp:110] Creating Layer inception_4d/1x1/bn
I1029 15:15:37.721511 14742 net.cpp:477] inception_4d/1x1/bn <- inception_4d/1x1
I1029 15:15:37.721521 14742 net.cpp:433] inception_4d/1x1/bn -> inception_4d/1x1/bn
I1029 15:15:37.721622 14742 net.cpp:155] Setting up inception_4d/1x1/bn
I1029 15:15:37.721634 14742 net.cpp:163] Top shape: 50 96 14 14 (940800)
I1029 15:15:37.721644 14742 layer_factory.hpp:76] Creating layer inception_4d/relu_1x1
I1029 15:15:37.721652 14742 net.cpp:110] Creating Layer inception_4d/relu_1x1
I1029 15:15:37.721658 14742 net.cpp:477] inception_4d/relu_1x1 <- inception_4d/1x1/bn
I1029 15:15:37.721668 14742 net.cpp:419] inception_4d/relu_1x1 -> inception_4d/1x1/bn (in-place)
I1029 15:15:37.721730 14742 net.cpp:155] Setting up inception_4d/relu_1x1
I1029 15:15:37.721740 14742 net.cpp:163] Top shape: 50 96 14 14 (940800)
I1029 15:15:37.721746 14742 layer_factory.hpp:76] Creating layer inception_4d/3x3_reduce
I1029 15:15:37.721755 14742 net.cpp:110] Creating Layer inception_4d/3x3_reduce
I1029 15:15:37.721760 14742 net.cpp:477] inception_4d/3x3_reduce <- inception_4c/output_inception_4c/output_0_split_1
I1029 15:15:37.721768 14742 net.cpp:433] inception_4d/3x3_reduce -> inception_4d/3x3_reduce
I1029 15:15:37.722123 14742 net.cpp:155] Setting up inception_4d/3x3_reduce
I1029 15:15:37.722136 14742 net.cpp:163] Top shape: 50 128 14 14 (1254400)
I1029 15:15:37.722143 14742 layer_factory.hpp:76] Creating layer inception_4d/3x3_reduce/bn
I1029 15:15:37.722156 14742 net.cpp:110] Creating Layer inception_4d/3x3_reduce/bn
I1029 15:15:37.722163 14742 net.cpp:477] inception_4d/3x3_reduce/bn <- inception_4d/3x3_reduce
I1029 15:15:37.722172 14742 net.cpp:433] inception_4d/3x3_reduce/bn -> inception_4d/3x3_reduce/bn
I1029 15:15:37.722254 14742 net.cpp:155] Setting up inception_4d/3x3_reduce/bn
I1029 15:15:37.722264 14742 net.cpp:163] Top shape: 50 128 14 14 (1254400)
I1029 15:15:37.722275 14742 layer_factory.hpp:76] Creating layer inception_4d/relu_3x3_reduce
I1029 15:15:37.722285 14742 net.cpp:110] Creating Layer inception_4d/relu_3x3_reduce
I1029 15:15:37.722290 14742 net.cpp:477] inception_4d/relu_3x3_reduce <- inception_4d/3x3_reduce/bn
I1029 15:15:37.722297 14742 net.cpp:419] inception_4d/relu_3x3_reduce -> inception_4d/3x3_reduce/bn (in-place)
I1029 15:15:37.722359 14742 net.cpp:155] Setting up inception_4d/relu_3x3_reduce
I1029 15:15:37.722369 14742 net.cpp:163] Top shape: 50 128 14 14 (1254400)
I1029 15:15:37.722375 14742 layer_factory.hpp:76] Creating layer inception_4d/3x3
I1029 15:15:37.722386 14742 net.cpp:110] Creating Layer inception_4d/3x3
I1029 15:15:37.722393 14742 net.cpp:477] inception_4d/3x3 <- inception_4d/3x3_reduce/bn
I1029 15:15:37.722400 14742 net.cpp:433] inception_4d/3x3 -> inception_4d/3x3
I1029 15:15:37.723335 14742 net.cpp:155] Setting up inception_4d/3x3
I1029 15:15:37.723352 14742 net.cpp:163] Top shape: 50 192 14 14 (1881600)
I1029 15:15:37.723361 14742 layer_factory.hpp:76] Creating layer inception_4d/3x3/bn
I1029 15:15:37.723371 14742 net.cpp:110] Creating Layer inception_4d/3x3/bn
I1029 15:15:37.723378 14742 net.cpp:477] inception_4d/3x3/bn <- inception_4d/3x3
I1029 15:15:37.723389 14742 net.cpp:433] inception_4d/3x3/bn -> inception_4d/3x3/bn
I1029 15:15:37.723486 14742 net.cpp:155] Setting up inception_4d/3x3/bn
I1029 15:15:37.723497 14742 net.cpp:163] Top shape: 50 192 14 14 (1881600)
I1029 15:15:37.723508 14742 layer_factory.hpp:76] Creating layer inception_4d/relu_3x3
I1029 15:15:37.723516 14742 net.cpp:110] Creating Layer inception_4d/relu_3x3
I1029 15:15:37.723526 14742 net.cpp:477] inception_4d/relu_3x3 <- inception_4d/3x3/bn
I1029 15:15:37.723541 14742 net.cpp:419] inception_4d/relu_3x3 -> inception_4d/3x3/bn (in-place)
I1029 15:15:37.723731 14742 net.cpp:155] Setting up inception_4d/relu_3x3
I1029 15:15:37.723743 14742 net.cpp:163] Top shape: 50 192 14 14 (1881600)
I1029 15:15:37.723749 14742 layer_factory.hpp:76] Creating layer inception_4d/double3x3_reduce
I1029 15:15:37.723760 14742 net.cpp:110] Creating Layer inception_4d/double3x3_reduce
I1029 15:15:37.723767 14742 net.cpp:477] inception_4d/double3x3_reduce <- inception_4c/output_inception_4c/output_0_split_2
I1029 15:15:37.723775 14742 net.cpp:433] inception_4d/double3x3_reduce -> inception_4d/double3x3_reduce
I1029 15:15:37.724139 14742 net.cpp:155] Setting up inception_4d/double3x3_reduce
I1029 15:15:37.724153 14742 net.cpp:163] Top shape: 50 160 14 14 (1568000)
I1029 15:15:37.724160 14742 layer_factory.hpp:76] Creating layer inception_4d/double3x3_reduce/bn
I1029 15:15:37.724171 14742 net.cpp:110] Creating Layer inception_4d/double3x3_reduce/bn
I1029 15:15:37.724179 14742 net.cpp:477] inception_4d/double3x3_reduce/bn <- inception_4d/double3x3_reduce
I1029 15:15:37.724189 14742 net.cpp:433] inception_4d/double3x3_reduce/bn -> inception_4d/double3x3_reduce/bn
I1029 15:15:37.724280 14742 net.cpp:155] Setting up inception_4d/double3x3_reduce/bn
I1029 15:15:37.724293 14742 net.cpp:163] Top shape: 50 160 14 14 (1568000)
I1029 15:15:37.724303 14742 layer_factory.hpp:76] Creating layer inception_4d/relu_double3x3_reduce
I1029 15:15:37.724311 14742 net.cpp:110] Creating Layer inception_4d/relu_double3x3_reduce
I1029 15:15:37.724318 14742 net.cpp:477] inception_4d/relu_double3x3_reduce <- inception_4d/double3x3_reduce/bn
I1029 15:15:37.724324 14742 net.cpp:419] inception_4d/relu_double3x3_reduce -> inception_4d/double3x3_reduce/bn (in-place)
I1029 15:15:37.724388 14742 net.cpp:155] Setting up inception_4d/relu_double3x3_reduce
I1029 15:15:37.724398 14742 net.cpp:163] Top shape: 50 160 14 14 (1568000)
I1029 15:15:37.724405 14742 layer_factory.hpp:76] Creating layer inception_4d/double3x3a
I1029 15:15:37.724412 14742 net.cpp:110] Creating Layer inception_4d/double3x3a
I1029 15:15:37.724419 14742 net.cpp:477] inception_4d/double3x3a <- inception_4d/double3x3_reduce/bn
I1029 15:15:37.724428 14742 net.cpp:433] inception_4d/double3x3a -> inception_4d/double3x3a
I1029 15:15:37.725402 14742 net.cpp:155] Setting up inception_4d/double3x3a
I1029 15:15:37.725415 14742 net.cpp:163] Top shape: 50 192 14 14 (1881600)
I1029 15:15:37.725424 14742 layer_factory.hpp:76] Creating layer inception_4d/double3x3a/bn
I1029 15:15:37.725435 14742 net.cpp:110] Creating Layer inception_4d/double3x3a/bn
I1029 15:15:37.725442 14742 net.cpp:477] inception_4d/double3x3a/bn <- inception_4d/double3x3a
I1029 15:15:37.725450 14742 net.cpp:433] inception_4d/double3x3a/bn -> inception_4d/double3x3a/bn
I1029 15:15:37.725548 14742 net.cpp:155] Setting up inception_4d/double3x3a/bn
I1029 15:15:37.725559 14742 net.cpp:163] Top shape: 50 192 14 14 (1881600)
I1029 15:15:37.725569 14742 layer_factory.hpp:76] Creating layer inception_4d/relu_double3x3a
I1029 15:15:37.725579 14742 net.cpp:110] Creating Layer inception_4d/relu_double3x3a
I1029 15:15:37.725586 14742 net.cpp:477] inception_4d/relu_double3x3a <- inception_4d/double3x3a/bn
I1029 15:15:37.725594 14742 net.cpp:419] inception_4d/relu_double3x3a -> inception_4d/double3x3a/bn (in-place)
I1029 15:15:37.725656 14742 net.cpp:155] Setting up inception_4d/relu_double3x3a
I1029 15:15:37.725666 14742 net.cpp:163] Top shape: 50 192 14 14 (1881600)
I1029 15:15:37.725672 14742 layer_factory.hpp:76] Creating layer inception_4d/double3x3b
I1029 15:15:37.725679 14742 net.cpp:110] Creating Layer inception_4d/double3x3b
I1029 15:15:37.725685 14742 net.cpp:477] inception_4d/double3x3b <- inception_4d/double3x3a/bn
I1029 15:15:37.725693 14742 net.cpp:433] inception_4d/double3x3b -> inception_4d/double3x3b
I1029 15:15:37.726788 14742 net.cpp:155] Setting up inception_4d/double3x3b
I1029 15:15:37.726809 14742 net.cpp:163] Top shape: 50 192 14 14 (1881600)
I1029 15:15:37.726824 14742 layer_factory.hpp:76] Creating layer inception_4d/double3x3b/bn
I1029 15:15:37.726837 14742 net.cpp:110] Creating Layer inception_4d/double3x3b/bn
I1029 15:15:37.726845 14742 net.cpp:477] inception_4d/double3x3b/bn <- inception_4d/double3x3b
I1029 15:15:37.726852 14742 net.cpp:433] inception_4d/double3x3b/bn -> inception_4d/double3x3b/bn
I1029 15:15:37.726950 14742 net.cpp:155] Setting up inception_4d/double3x3b/bn
I1029 15:15:37.726961 14742 net.cpp:163] Top shape: 50 192 14 14 (1881600)
I1029 15:15:37.726971 14742 layer_factory.hpp:76] Creating layer inception_4d/relu_double3x3b
I1029 15:15:37.726981 14742 net.cpp:110] Creating Layer inception_4d/relu_double3x3b
I1029 15:15:37.726987 14742 net.cpp:477] inception_4d/relu_double3x3b <- inception_4d/double3x3b/bn
I1029 15:15:37.726994 14742 net.cpp:419] inception_4d/relu_double3x3b -> inception_4d/double3x3b/bn (in-place)
I1029 15:15:37.727061 14742 net.cpp:155] Setting up inception_4d/relu_double3x3b
I1029 15:15:37.727071 14742 net.cpp:163] Top shape: 50 192 14 14 (1881600)
I1029 15:15:37.727077 14742 layer_factory.hpp:76] Creating layer inception_4d/pool
I1029 15:15:37.727083 14742 layer_factory.cpp:60] CUDNN does not support padding or multiple tops. Using Caffe's own pooling layer.
I1029 15:15:37.727092 14742 net.cpp:110] Creating Layer inception_4d/pool
I1029 15:15:37.727098 14742 net.cpp:477] inception_4d/pool <- inception_4c/output_inception_4c/output_0_split_3
I1029 15:15:37.727107 14742 net.cpp:433] inception_4d/pool -> inception_4d/pool
I1029 15:15:37.727115 14742 net.cpp:155] Setting up inception_4d/pool
I1029 15:15:37.727123 14742 net.cpp:163] Top shape: 50 608 14 14 (5958400)
I1029 15:15:37.727129 14742 layer_factory.hpp:76] Creating layer inception_4d/pool_proj
I1029 15:15:37.727138 14742 net.cpp:110] Creating Layer inception_4d/pool_proj
I1029 15:15:37.727144 14742 net.cpp:477] inception_4d/pool_proj <- inception_4d/pool
I1029 15:15:37.727150 14742 net.cpp:433] inception_4d/pool_proj -> inception_4d/pool_proj
I1029 15:15:37.728034 14742 net.cpp:155] Setting up inception_4d/pool_proj
I1029 15:15:37.728049 14742 net.cpp:163] Top shape: 50 128 14 14 (1254400)
I1029 15:15:37.728056 14742 layer_factory.hpp:76] Creating layer inception_4d/pool_proj/bn
I1029 15:15:37.728068 14742 net.cpp:110] Creating Layer inception_4d/pool_proj/bn
I1029 15:15:37.728075 14742 net.cpp:477] inception_4d/pool_proj/bn <- inception_4d/pool_proj
I1029 15:15:37.728085 14742 net.cpp:433] inception_4d/pool_proj/bn -> inception_4d/pool_proj/bn
I1029 15:15:37.728170 14742 net.cpp:155] Setting up inception_4d/pool_proj/bn
I1029 15:15:37.728180 14742 net.cpp:163] Top shape: 50 128 14 14 (1254400)
I1029 15:15:37.728191 14742 layer_factory.hpp:76] Creating layer inception_4d/relu_pool_proj
I1029 15:15:37.728199 14742 net.cpp:110] Creating Layer inception_4d/relu_pool_proj
I1029 15:15:37.728205 14742 net.cpp:477] inception_4d/relu_pool_proj <- inception_4d/pool_proj/bn
I1029 15:15:37.728214 14742 net.cpp:419] inception_4d/relu_pool_proj -> inception_4d/pool_proj/bn (in-place)
I1029 15:15:37.728415 14742 net.cpp:155] Setting up inception_4d/relu_pool_proj
I1029 15:15:37.728427 14742 net.cpp:163] Top shape: 50 128 14 14 (1254400)
I1029 15:15:37.728433 14742 layer_factory.hpp:76] Creating layer inception_4d/output
I1029 15:15:37.728442 14742 net.cpp:110] Creating Layer inception_4d/output
I1029 15:15:37.728448 14742 net.cpp:477] inception_4d/output <- inception_4d/1x1/bn
I1029 15:15:37.728457 14742 net.cpp:477] inception_4d/output <- inception_4d/3x3/bn
I1029 15:15:37.728464 14742 net.cpp:477] inception_4d/output <- inception_4d/double3x3b/bn
I1029 15:15:37.728471 14742 net.cpp:477] inception_4d/output <- inception_4d/pool_proj/bn
I1029 15:15:37.728478 14742 net.cpp:433] inception_4d/output -> inception_4d/output
I1029 15:15:37.728487 14742 net.cpp:155] Setting up inception_4d/output
I1029 15:15:37.728495 14742 net.cpp:163] Top shape: 50 608 14 14 (5958400)
I1029 15:15:37.728502 14742 layer_factory.hpp:76] Creating layer inception_4d/output_inception_4d/output_0_split
I1029 15:15:37.728518 14742 net.cpp:110] Creating Layer inception_4d/output_inception_4d/output_0_split
I1029 15:15:37.728524 14742 net.cpp:477] inception_4d/output_inception_4d/output_0_split <- inception_4d/output
I1029 15:15:37.728533 14742 net.cpp:433] inception_4d/output_inception_4d/output_0_split -> inception_4d/output_inception_4d/output_0_split_0
I1029 15:15:37.728541 14742 net.cpp:433] inception_4d/output_inception_4d/output_0_split -> inception_4d/output_inception_4d/output_0_split_1
I1029 15:15:37.728549 14742 net.cpp:433] inception_4d/output_inception_4d/output_0_split -> inception_4d/output_inception_4d/output_0_split_2
I1029 15:15:37.728559 14742 net.cpp:155] Setting up inception_4d/output_inception_4d/output_0_split
I1029 15:15:37.728565 14742 net.cpp:163] Top shape: 50 608 14 14 (5958400)
I1029 15:15:37.728571 14742 net.cpp:163] Top shape: 50 608 14 14 (5958400)
I1029 15:15:37.728577 14742 net.cpp:163] Top shape: 50 608 14 14 (5958400)
I1029 15:15:37.728584 14742 layer_factory.hpp:76] Creating layer inception_4e/3x3_reduce
I1029 15:15:37.728593 14742 net.cpp:110] Creating Layer inception_4e/3x3_reduce
I1029 15:15:37.728600 14742 net.cpp:477] inception_4e/3x3_reduce <- inception_4d/output_inception_4d/output_0_split_0
I1029 15:15:37.728607 14742 net.cpp:433] inception_4e/3x3_reduce -> inception_4e/3x3_reduce
I1029 15:15:37.728961 14742 net.cpp:155] Setting up inception_4e/3x3_reduce
I1029 15:15:37.728973 14742 net.cpp:163] Top shape: 50 128 14 14 (1254400)
I1029 15:15:37.728981 14742 layer_factory.hpp:76] Creating layer inception_4e/3x3_reduce/bn
I1029 15:15:37.728993 14742 net.cpp:110] Creating Layer inception_4e/3x3_reduce/bn
I1029 15:15:37.729001 14742 net.cpp:477] inception_4e/3x3_reduce/bn <- inception_4e/3x3_reduce
I1029 15:15:37.729010 14742 net.cpp:433] inception_4e/3x3_reduce/bn -> inception_4e/3x3_reduce/bn
I1029 15:15:37.729095 14742 net.cpp:155] Setting up inception_4e/3x3_reduce/bn
I1029 15:15:37.729106 14742 net.cpp:163] Top shape: 50 128 14 14 (1254400)
I1029 15:15:37.729117 14742 layer_factory.hpp:76] Creating layer inception_4e/relu_3x3_reduce
I1029 15:15:37.729127 14742 net.cpp:110] Creating Layer inception_4e/relu_3x3_reduce
I1029 15:15:37.729133 14742 net.cpp:477] inception_4e/relu_3x3_reduce <- inception_4e/3x3_reduce/bn
I1029 15:15:37.729140 14742 net.cpp:419] inception_4e/relu_3x3_reduce -> inception_4e/3x3_reduce/bn (in-place)
I1029 15:15:37.729204 14742 net.cpp:155] Setting up inception_4e/relu_3x3_reduce
I1029 15:15:37.729214 14742 net.cpp:163] Top shape: 50 128 14 14 (1254400)
I1029 15:15:37.729220 14742 layer_factory.hpp:76] Creating layer inception_4e/3x3
I1029 15:15:37.729229 14742 net.cpp:110] Creating Layer inception_4e/3x3
I1029 15:15:37.729235 14742 net.cpp:477] inception_4e/3x3 <- inception_4e/3x3_reduce/bn
I1029 15:15:37.729244 14742 net.cpp:433] inception_4e/3x3 -> inception_4e/3x3
I1029 15:15:37.730166 14742 net.cpp:155] Setting up inception_4e/3x3
I1029 15:15:37.730180 14742 net.cpp:163] Top shape: 50 192 7 7 (470400)
I1029 15:15:37.730187 14742 layer_factory.hpp:76] Creating layer inception_4e/3x3/bn
I1029 15:15:37.730200 14742 net.cpp:110] Creating Layer inception_4e/3x3/bn
I1029 15:15:37.730206 14742 net.cpp:477] inception_4e/3x3/bn <- inception_4e/3x3
I1029 15:15:37.730216 14742 net.cpp:433] inception_4e/3x3/bn -> inception_4e/3x3/bn
I1029 15:15:37.730319 14742 net.cpp:155] Setting up inception_4e/3x3/bn
I1029 15:15:37.730329 14742 net.cpp:163] Top shape: 50 192 7 7 (470400)
I1029 15:15:37.730370 14742 layer_factory.hpp:76] Creating layer inception_4e/relu_3x3
I1029 15:15:37.730381 14742 net.cpp:110] Creating Layer inception_4e/relu_3x3
I1029 15:15:37.730387 14742 net.cpp:477] inception_4e/relu_3x3 <- inception_4e/3x3/bn
I1029 15:15:37.730394 14742 net.cpp:419] inception_4e/relu_3x3 -> inception_4e/3x3/bn (in-place)
I1029 15:15:37.730459 14742 net.cpp:155] Setting up inception_4e/relu_3x3
I1029 15:15:37.730469 14742 net.cpp:163] Top shape: 50 192 7 7 (470400)
I1029 15:15:37.730475 14742 layer_factory.hpp:76] Creating layer inception_4e/double3x3_reduce
I1029 15:15:37.730492 14742 net.cpp:110] Creating Layer inception_4e/double3x3_reduce
I1029 15:15:37.730500 14742 net.cpp:477] inception_4e/double3x3_reduce <- inception_4d/output_inception_4d/output_0_split_1
I1029 15:15:37.730518 14742 net.cpp:433] inception_4e/double3x3_reduce -> inception_4e/double3x3_reduce
I1029 15:15:37.731415 14742 net.cpp:155] Setting up inception_4e/double3x3_reduce
I1029 15:15:37.731427 14742 net.cpp:163] Top shape: 50 192 14 14 (1881600)
I1029 15:15:37.731436 14742 layer_factory.hpp:76] Creating layer inception_4e/double3x3_reduce/bn
I1029 15:15:37.731449 14742 net.cpp:110] Creating Layer inception_4e/double3x3_reduce/bn
I1029 15:15:37.731456 14742 net.cpp:477] inception_4e/double3x3_reduce/bn <- inception_4e/double3x3_reduce
I1029 15:15:37.731467 14742 net.cpp:433] inception_4e/double3x3_reduce/bn -> inception_4e/double3x3_reduce/bn
I1029 15:15:37.731569 14742 net.cpp:155] Setting up inception_4e/double3x3_reduce/bn
I1029 15:15:37.731580 14742 net.cpp:163] Top shape: 50 192 14 14 (1881600)
I1029 15:15:37.731590 14742 layer_factory.hpp:76] Creating layer inception_4e/relu_double3x3_reduce
I1029 15:15:37.731600 14742 net.cpp:110] Creating Layer inception_4e/relu_double3x3_reduce
I1029 15:15:37.731606 14742 net.cpp:477] inception_4e/relu_double3x3_reduce <- inception_4e/double3x3_reduce/bn
I1029 15:15:37.731613 14742 net.cpp:419] inception_4e/relu_double3x3_reduce -> inception_4e/double3x3_reduce/bn (in-place)
I1029 15:15:37.731714 14742 net.cpp:155] Setting up inception_4e/relu_double3x3_reduce
I1029 15:15:37.731724 14742 net.cpp:163] Top shape: 50 192 14 14 (1881600)
I1029 15:15:37.731731 14742 layer_factory.hpp:76] Creating layer inception_4e/double3x3a
I1029 15:15:37.731740 14742 net.cpp:110] Creating Layer inception_4e/double3x3a
I1029 15:15:37.731746 14742 net.cpp:477] inception_4e/double3x3a <- inception_4e/double3x3_reduce/bn
I1029 15:15:37.731755 14742 net.cpp:433] inception_4e/double3x3a -> inception_4e/double3x3a
I1029 15:15:37.733012 14742 net.cpp:155] Setting up inception_4e/double3x3a
I1029 15:15:37.733026 14742 net.cpp:163] Top shape: 50 256 14 14 (2508800)
I1029 15:15:37.733034 14742 layer_factory.hpp:76] Creating layer inception_4e/double3x3a/bn
I1029 15:15:37.733045 14742 net.cpp:110] Creating Layer inception_4e/double3x3a/bn
I1029 15:15:37.733052 14742 net.cpp:477] inception_4e/double3x3a/bn <- inception_4e/double3x3a
I1029 15:15:37.733060 14742 net.cpp:433] inception_4e/double3x3a/bn -> inception_4e/double3x3a/bn
I1029 15:15:37.733149 14742 net.cpp:155] Setting up inception_4e/double3x3a/bn
I1029 15:15:37.733160 14742 net.cpp:163] Top shape: 50 256 14 14 (2508800)
I1029 15:15:37.733170 14742 layer_factory.hpp:76] Creating layer inception_4e/relu_double3x3a
I1029 15:15:37.733180 14742 net.cpp:110] Creating Layer inception_4e/relu_double3x3a
I1029 15:15:37.733186 14742 net.cpp:477] inception_4e/relu_double3x3a <- inception_4e/double3x3a/bn
I1029 15:15:37.733193 14742 net.cpp:419] inception_4e/relu_double3x3a -> inception_4e/double3x3a/bn (in-place)
I1029 15:15:37.733382 14742 net.cpp:155] Setting up inception_4e/relu_double3x3a
I1029 15:15:37.733396 14742 net.cpp:163] Top shape: 50 256 14 14 (2508800)
I1029 15:15:37.733402 14742 layer_factory.hpp:76] Creating layer inception_4e/double3x3b
I1029 15:15:37.733410 14742 net.cpp:110] Creating Layer inception_4e/double3x3b
I1029 15:15:37.733417 14742 net.cpp:477] inception_4e/double3x3b <- inception_4e/double3x3a/bn
I1029 15:15:37.733424 14742 net.cpp:433] inception_4e/double3x3b -> inception_4e/double3x3b
I1029 15:15:37.734969 14742 net.cpp:155] Setting up inception_4e/double3x3b
I1029 15:15:37.734985 14742 net.cpp:163] Top shape: 50 256 7 7 (627200)
I1029 15:15:37.734993 14742 layer_factory.hpp:76] Creating layer inception_4e/double3x3b/bn
I1029 15:15:37.735007 14742 net.cpp:110] Creating Layer inception_4e/double3x3b/bn
I1029 15:15:37.735013 14742 net.cpp:477] inception_4e/double3x3b/bn <- inception_4e/double3x3b
I1029 15:15:37.735021 14742 net.cpp:433] inception_4e/double3x3b/bn -> inception_4e/double3x3b/bn
I1029 15:15:37.735116 14742 net.cpp:155] Setting up inception_4e/double3x3b/bn
I1029 15:15:37.735136 14742 net.cpp:163] Top shape: 50 256 7 7 (627200)
I1029 15:15:37.735146 14742 layer_factory.hpp:76] Creating layer inception_4e/relu_double3x3b
I1029 15:15:37.735155 14742 net.cpp:110] Creating Layer inception_4e/relu_double3x3b
I1029 15:15:37.735162 14742 net.cpp:477] inception_4e/relu_double3x3b <- inception_4e/double3x3b/bn
I1029 15:15:37.735170 14742 net.cpp:419] inception_4e/relu_double3x3b -> inception_4e/double3x3b/bn (in-place)
I1029 15:15:37.735234 14742 net.cpp:155] Setting up inception_4e/relu_double3x3b
I1029 15:15:37.735244 14742 net.cpp:163] Top shape: 50 256 7 7 (627200)
I1029 15:15:37.735251 14742 layer_factory.hpp:76] Creating layer inception_4e/pool/3x3_s2
I1029 15:15:37.735260 14742 net.cpp:110] Creating Layer inception_4e/pool/3x3_s2
I1029 15:15:37.735266 14742 net.cpp:477] inception_4e/pool/3x3_s2 <- inception_4d/output_inception_4d/output_0_split_2
I1029 15:15:37.735278 14742 net.cpp:433] inception_4e/pool/3x3_s2 -> inception_4e/pool/3x3_s2
I1029 15:15:37.735347 14742 net.cpp:155] Setting up inception_4e/pool/3x3_s2
I1029 15:15:37.735357 14742 net.cpp:163] Top shape: 50 608 7 7 (1489600)
I1029 15:15:37.735364 14742 layer_factory.hpp:76] Creating layer inception_4e/output
I1029 15:15:37.735371 14742 net.cpp:110] Creating Layer inception_4e/output
I1029 15:15:37.735378 14742 net.cpp:477] inception_4e/output <- inception_4e/3x3/bn
I1029 15:15:37.735385 14742 net.cpp:477] inception_4e/output <- inception_4e/double3x3b/bn
I1029 15:15:37.735393 14742 net.cpp:477] inception_4e/output <- inception_4e/pool/3x3_s2
I1029 15:15:37.735401 14742 net.cpp:433] inception_4e/output -> inception_4e/output
I1029 15:15:37.735410 14742 net.cpp:155] Setting up inception_4e/output
I1029 15:15:37.735417 14742 net.cpp:163] Top shape: 50 1056 7 7 (2587200)
I1029 15:15:37.735424 14742 layer_factory.hpp:76] Creating layer inception_4e/output_inception_4e/output_0_split
I1029 15:15:37.735431 14742 net.cpp:110] Creating Layer inception_4e/output_inception_4e/output_0_split
I1029 15:15:37.735437 14742 net.cpp:477] inception_4e/output_inception_4e/output_0_split <- inception_4e/output
I1029 15:15:37.735446 14742 net.cpp:433] inception_4e/output_inception_4e/output_0_split -> inception_4e/output_inception_4e/output_0_split_0
I1029 15:15:37.735455 14742 net.cpp:433] inception_4e/output_inception_4e/output_0_split -> inception_4e/output_inception_4e/output_0_split_1
I1029 15:15:37.735463 14742 net.cpp:433] inception_4e/output_inception_4e/output_0_split -> inception_4e/output_inception_4e/output_0_split_2
I1029 15:15:37.735471 14742 net.cpp:433] inception_4e/output_inception_4e/output_0_split -> inception_4e/output_inception_4e/output_0_split_3
I1029 15:15:37.735481 14742 net.cpp:155] Setting up inception_4e/output_inception_4e/output_0_split
I1029 15:15:37.735487 14742 net.cpp:163] Top shape: 50 1056 7 7 (2587200)
I1029 15:15:37.735493 14742 net.cpp:163] Top shape: 50 1056 7 7 (2587200)
I1029 15:15:37.735501 14742 net.cpp:163] Top shape: 50 1056 7 7 (2587200)
I1029 15:15:37.735507 14742 net.cpp:163] Top shape: 50 1056 7 7 (2587200)
I1029 15:15:37.735512 14742 layer_factory.hpp:76] Creating layer inception_5a/1x1
I1029 15:15:37.735522 14742 net.cpp:110] Creating Layer inception_5a/1x1
I1029 15:15:37.735529 14742 net.cpp:477] inception_5a/1x1 <- inception_4e/output_inception_4e/output_0_split_0
I1029 15:15:37.735537 14742 net.cpp:433] inception_5a/1x1 -> inception_5a/1x1
I1029 15:15:37.736672 14742 net.cpp:155] Setting up inception_5a/1x1
I1029 15:15:37.736686 14742 net.cpp:163] Top shape: 50 352 7 7 (862400)
I1029 15:15:37.736695 14742 layer_factory.hpp:76] Creating layer inception_5a/1x1/bn
I1029 15:15:37.736706 14742 net.cpp:110] Creating Layer inception_5a/1x1/bn
I1029 15:15:37.736712 14742 net.cpp:477] inception_5a/1x1/bn <- inception_5a/1x1
I1029 15:15:37.736722 14742 net.cpp:433] inception_5a/1x1/bn -> inception_5a/1x1/bn
I1029 15:15:37.736830 14742 net.cpp:155] Setting up inception_5a/1x1/bn
I1029 15:15:37.736845 14742 net.cpp:163] Top shape: 50 352 7 7 (862400)
I1029 15:15:37.736861 14742 layer_factory.hpp:76] Creating layer inception_5a/relu_1x1
I1029 15:15:37.736871 14742 net.cpp:110] Creating Layer inception_5a/relu_1x1
I1029 15:15:37.736876 14742 net.cpp:477] inception_5a/relu_1x1 <- inception_5a/1x1/bn
I1029 15:15:37.736883 14742 net.cpp:419] inception_5a/relu_1x1 -> inception_5a/1x1/bn (in-place)
I1029 15:15:37.737072 14742 net.cpp:155] Setting up inception_5a/relu_1x1
I1029 15:15:37.737084 14742 net.cpp:163] Top shape: 50 352 7 7 (862400)
I1029 15:15:37.737092 14742 layer_factory.hpp:76] Creating layer inception_5a/3x3_reduce
I1029 15:15:37.737102 14742 net.cpp:110] Creating Layer inception_5a/3x3_reduce
I1029 15:15:37.737108 14742 net.cpp:477] inception_5a/3x3_reduce <- inception_4e/output_inception_4e/output_0_split_1
I1029 15:15:37.737117 14742 net.cpp:433] inception_5a/3x3_reduce -> inception_5a/3x3_reduce
I1029 15:15:37.738049 14742 net.cpp:155] Setting up inception_5a/3x3_reduce
I1029 15:15:37.738062 14742 net.cpp:163] Top shape: 50 192 7 7 (470400)
I1029 15:15:37.738070 14742 layer_factory.hpp:76] Creating layer inception_5a/3x3_reduce/bn
I1029 15:15:37.738082 14742 net.cpp:110] Creating Layer inception_5a/3x3_reduce/bn
I1029 15:15:37.738090 14742 net.cpp:477] inception_5a/3x3_reduce/bn <- inception_5a/3x3_reduce
I1029 15:15:37.738097 14742 net.cpp:433] inception_5a/3x3_reduce/bn -> inception_5a/3x3_reduce/bn
I1029 15:15:37.738200 14742 net.cpp:155] Setting up inception_5a/3x3_reduce/bn
I1029 15:15:37.738211 14742 net.cpp:163] Top shape: 50 192 7 7 (470400)
I1029 15:15:37.738221 14742 layer_factory.hpp:76] Creating layer inception_5a/relu_3x3_reduce
I1029 15:15:37.738229 14742 net.cpp:110] Creating Layer inception_5a/relu_3x3_reduce
I1029 15:15:37.738235 14742 net.cpp:477] inception_5a/relu_3x3_reduce <- inception_5a/3x3_reduce/bn
I1029 15:15:37.738245 14742 net.cpp:419] inception_5a/relu_3x3_reduce -> inception_5a/3x3_reduce/bn (in-place)
I1029 15:15:37.738307 14742 net.cpp:155] Setting up inception_5a/relu_3x3_reduce
I1029 15:15:37.738317 14742 net.cpp:163] Top shape: 50 192 7 7 (470400)
I1029 15:15:37.738323 14742 layer_factory.hpp:76] Creating layer inception_5a/3x3
I1029 15:15:37.738332 14742 net.cpp:110] Creating Layer inception_5a/3x3
I1029 15:15:37.738338 14742 net.cpp:477] inception_5a/3x3 <- inception_5a/3x3_reduce/bn
I1029 15:15:37.738348 14742 net.cpp:433] inception_5a/3x3 -> inception_5a/3x3
I1029 15:15:37.739852 14742 net.cpp:155] Setting up inception_5a/3x3
I1029 15:15:37.739868 14742 net.cpp:163] Top shape: 50 320 7 7 (784000)
I1029 15:15:37.739876 14742 layer_factory.hpp:76] Creating layer inception_5a/3x3/bn
I1029 15:15:37.739888 14742 net.cpp:110] Creating Layer inception_5a/3x3/bn
I1029 15:15:37.739895 14742 net.cpp:477] inception_5a/3x3/bn <- inception_5a/3x3
I1029 15:15:37.739905 14742 net.cpp:433] inception_5a/3x3/bn -> inception_5a/3x3/bn
I1029 15:15:37.740010 14742 net.cpp:155] Setting up inception_5a/3x3/bn
I1029 15:15:37.740023 14742 net.cpp:163] Top shape: 50 320 7 7 (784000)
I1029 15:15:37.740034 14742 layer_factory.hpp:76] Creating layer inception_5a/relu_3x3
I1029 15:15:37.740042 14742 net.cpp:110] Creating Layer inception_5a/relu_3x3
I1029 15:15:37.740048 14742 net.cpp:477] inception_5a/relu_3x3 <- inception_5a/3x3/bn
I1029 15:15:37.740056 14742 net.cpp:419] inception_5a/relu_3x3 -> inception_5a/3x3/bn (in-place)
I1029 15:15:37.740118 14742 net.cpp:155] Setting up inception_5a/relu_3x3
I1029 15:15:37.740128 14742 net.cpp:163] Top shape: 50 320 7 7 (784000)
I1029 15:15:37.740134 14742 layer_factory.hpp:76] Creating layer inception_5a/double3x3_reduce
I1029 15:15:37.740142 14742 net.cpp:110] Creating Layer inception_5a/double3x3_reduce
I1029 15:15:37.740149 14742 net.cpp:477] inception_5a/double3x3_reduce <- inception_4e/output_inception_4e/output_0_split_2
I1029 15:15:37.740159 14742 net.cpp:433] inception_5a/double3x3_reduce -> inception_5a/double3x3_reduce
I1029 15:15:37.741065 14742 net.cpp:155] Setting up inception_5a/double3x3_reduce
I1029 15:15:37.741082 14742 net.cpp:163] Top shape: 50 160 7 7 (392000)
I1029 15:15:37.741098 14742 layer_factory.hpp:76] Creating layer inception_5a/double3x3_reduce/bn
I1029 15:15:37.741111 14742 net.cpp:110] Creating Layer inception_5a/double3x3_reduce/bn
I1029 15:15:37.741117 14742 net.cpp:477] inception_5a/double3x3_reduce/bn <- inception_5a/double3x3_reduce
I1029 15:15:37.741125 14742 net.cpp:433] inception_5a/double3x3_reduce/bn -> inception_5a/double3x3_reduce/bn
I1029 15:15:37.741231 14742 net.cpp:155] Setting up inception_5a/double3x3_reduce/bn
I1029 15:15:37.741241 14742 net.cpp:163] Top shape: 50 160 7 7 (392000)
I1029 15:15:37.741252 14742 layer_factory.hpp:76] Creating layer inception_5a/relu_double3x3_reduce
I1029 15:15:37.741262 14742 net.cpp:110] Creating Layer inception_5a/relu_double3x3_reduce
I1029 15:15:37.741269 14742 net.cpp:477] inception_5a/relu_double3x3_reduce <- inception_5a/double3x3_reduce/bn
I1029 15:15:37.741276 14742 net.cpp:419] inception_5a/relu_double3x3_reduce -> inception_5a/double3x3_reduce/bn (in-place)
I1029 15:15:37.741340 14742 net.cpp:155] Setting up inception_5a/relu_double3x3_reduce
I1029 15:15:37.741349 14742 net.cpp:163] Top shape: 50 160 7 7 (392000)
I1029 15:15:37.741356 14742 layer_factory.hpp:76] Creating layer inception_5a/double3x3a
I1029 15:15:37.741364 14742 net.cpp:110] Creating Layer inception_5a/double3x3a
I1029 15:15:37.741370 14742 net.cpp:477] inception_5a/double3x3a <- inception_5a/double3x3_reduce/bn
I1029 15:15:37.741377 14742 net.cpp:433] inception_5a/double3x3a -> inception_5a/double3x3a
I1029 15:15:37.742451 14742 net.cpp:155] Setting up inception_5a/double3x3a
I1029 15:15:37.742465 14742 net.cpp:163] Top shape: 50 224 7 7 (548800)
I1029 15:15:37.742472 14742 layer_factory.hpp:76] Creating layer inception_5a/double3x3a/bn
I1029 15:15:37.742482 14742 net.cpp:110] Creating Layer inception_5a/double3x3a/bn
I1029 15:15:37.742488 14742 net.cpp:477] inception_5a/double3x3a/bn <- inception_5a/double3x3a
I1029 15:15:37.742499 14742 net.cpp:433] inception_5a/double3x3a/bn -> inception_5a/double3x3a/bn
I1029 15:15:37.742614 14742 net.cpp:155] Setting up inception_5a/double3x3a/bn
I1029 15:15:37.742626 14742 net.cpp:163] Top shape: 50 224 7 7 (548800)
I1029 15:15:37.742636 14742 layer_factory.hpp:76] Creating layer inception_5a/relu_double3x3a
I1029 15:15:37.742645 14742 net.cpp:110] Creating Layer inception_5a/relu_double3x3a
I1029 15:15:37.742650 14742 net.cpp:477] inception_5a/relu_double3x3a <- inception_5a/double3x3a/bn
I1029 15:15:37.742660 14742 net.cpp:419] inception_5a/relu_double3x3a -> inception_5a/double3x3a/bn (in-place)
I1029 15:15:37.742853 14742 net.cpp:155] Setting up inception_5a/relu_double3x3a
I1029 15:15:37.742866 14742 net.cpp:163] Top shape: 50 224 7 7 (548800)
I1029 15:15:37.742872 14742 layer_factory.hpp:76] Creating layer inception_5a/double3x3b
I1029 15:15:37.742882 14742 net.cpp:110] Creating Layer inception_5a/double3x3b
I1029 15:15:37.742887 14742 net.cpp:477] inception_5a/double3x3b <- inception_5a/double3x3a/bn
I1029 15:15:37.742895 14742 net.cpp:433] inception_5a/double3x3b -> inception_5a/double3x3b
I1029 15:15:37.744225 14742 net.cpp:155] Setting up inception_5a/double3x3b
I1029 15:15:37.744237 14742 net.cpp:163] Top shape: 50 224 7 7 (548800)
I1029 15:15:37.744246 14742 layer_factory.hpp:76] Creating layer inception_5a/double3x3b/bn
I1029 15:15:37.744256 14742 net.cpp:110] Creating Layer inception_5a/double3x3b/bn
I1029 15:15:37.744261 14742 net.cpp:477] inception_5a/double3x3b/bn <- inception_5a/double3x3b
I1029 15:15:37.744271 14742 net.cpp:433] inception_5a/double3x3b/bn -> inception_5a/double3x3b/bn
I1029 15:15:37.744379 14742 net.cpp:155] Setting up inception_5a/double3x3b/bn
I1029 15:15:37.744390 14742 net.cpp:163] Top shape: 50 224 7 7 (548800)
I1029 15:15:37.744400 14742 layer_factory.hpp:76] Creating layer inception_5a/relu_double3x3b
I1029 15:15:37.744408 14742 net.cpp:110] Creating Layer inception_5a/relu_double3x3b
I1029 15:15:37.744415 14742 net.cpp:477] inception_5a/relu_double3x3b <- inception_5a/double3x3b/bn
I1029 15:15:37.744423 14742 net.cpp:419] inception_5a/relu_double3x3b -> inception_5a/double3x3b/bn (in-place)
I1029 15:15:37.744499 14742 net.cpp:155] Setting up inception_5a/relu_double3x3b
I1029 15:15:37.744509 14742 net.cpp:163] Top shape: 50 224 7 7 (548800)
I1029 15:15:37.744516 14742 layer_factory.hpp:76] Creating layer inception_5a/pool
I1029 15:15:37.744523 14742 layer_factory.cpp:60] CUDNN does not support padding or multiple tops. Using Caffe's own pooling layer.
I1029 15:15:37.744529 14742 net.cpp:110] Creating Layer inception_5a/pool
I1029 15:15:37.744535 14742 net.cpp:477] inception_5a/pool <- inception_4e/output_inception_4e/output_0_split_3
I1029 15:15:37.744544 14742 net.cpp:433] inception_5a/pool -> inception_5a/pool
I1029 15:15:37.744552 14742 net.cpp:155] Setting up inception_5a/pool
I1029 15:15:37.744560 14742 net.cpp:163] Top shape: 50 1056 7 7 (2587200)
I1029 15:15:37.744566 14742 layer_factory.hpp:76] Creating layer inception_5a/pool_proj
I1029 15:15:37.744575 14742 net.cpp:110] Creating Layer inception_5a/pool_proj
I1029 15:15:37.744580 14742 net.cpp:477] inception_5a/pool_proj <- inception_5a/pool
I1029 15:15:37.744590 14742 net.cpp:433] inception_5a/pool_proj -> inception_5a/pool_proj
I1029 15:15:37.745008 14742 net.cpp:155] Setting up inception_5a/pool_proj
I1029 15:15:37.745021 14742 net.cpp:163] Top shape: 50 128 7 7 (313600)
I1029 15:15:37.745029 14742 layer_factory.hpp:76] Creating layer inception_5a/pool_proj/bn
I1029 15:15:37.745040 14742 net.cpp:110] Creating Layer inception_5a/pool_proj/bn
I1029 15:15:37.745048 14742 net.cpp:477] inception_5a/pool_proj/bn <- inception_5a/pool_proj
I1029 15:15:37.745059 14742 net.cpp:433] inception_5a/pool_proj/bn -> inception_5a/pool_proj/bn
I1029 15:15:37.745151 14742 net.cpp:155] Setting up inception_5a/pool_proj/bn
I1029 15:15:37.745164 14742 net.cpp:163] Top shape: 50 128 7 7 (313600)
I1029 15:15:37.745174 14742 layer_factory.hpp:76] Creating layer inception_5a/relu_pool_proj
I1029 15:15:37.745182 14742 net.cpp:110] Creating Layer inception_5a/relu_pool_proj
I1029 15:15:37.745189 14742 net.cpp:477] inception_5a/relu_pool_proj <- inception_5a/pool_proj/bn
I1029 15:15:37.745196 14742 net.cpp:419] inception_5a/relu_pool_proj -> inception_5a/pool_proj/bn (in-place)
I1029 15:15:37.745267 14742 net.cpp:155] Setting up inception_5a/relu_pool_proj
I1029 15:15:37.745277 14742 net.cpp:163] Top shape: 50 128 7 7 (313600)
I1029 15:15:37.745283 14742 layer_factory.hpp:76] Creating layer inception_5a/output
I1029 15:15:37.745292 14742 net.cpp:110] Creating Layer inception_5a/output
I1029 15:15:37.745298 14742 net.cpp:477] inception_5a/output <- inception_5a/1x1/bn
I1029 15:15:37.745306 14742 net.cpp:477] inception_5a/output <- inception_5a/3x3/bn
I1029 15:15:37.745311 14742 net.cpp:477] inception_5a/output <- inception_5a/double3x3b/bn
I1029 15:15:37.745317 14742 net.cpp:477] inception_5a/output <- inception_5a/pool_proj/bn
I1029 15:15:37.745324 14742 net.cpp:433] inception_5a/output -> inception_5a/output
I1029 15:15:37.745334 14742 net.cpp:155] Setting up inception_5a/output
I1029 15:15:37.745342 14742 net.cpp:163] Top shape: 50 1024 7 7 (2508800)
I1029 15:15:37.745347 14742 layer_factory.hpp:76] Creating layer inception_5a/output_inception_5a/output_0_split
I1029 15:15:37.745354 14742 net.cpp:110] Creating Layer inception_5a/output_inception_5a/output_0_split
I1029 15:15:37.745360 14742 net.cpp:477] inception_5a/output_inception_5a/output_0_split <- inception_5a/output
I1029 15:15:37.745368 14742 net.cpp:433] inception_5a/output_inception_5a/output_0_split -> inception_5a/output_inception_5a/output_0_split_0
I1029 15:15:37.745378 14742 net.cpp:433] inception_5a/output_inception_5a/output_0_split -> inception_5a/output_inception_5a/output_0_split_1
I1029 15:15:37.745388 14742 net.cpp:433] inception_5a/output_inception_5a/output_0_split -> inception_5a/output_inception_5a/output_0_split_2
I1029 15:15:37.745398 14742 net.cpp:433] inception_5a/output_inception_5a/output_0_split -> inception_5a/output_inception_5a/output_0_split_3
I1029 15:15:37.745406 14742 net.cpp:155] Setting up inception_5a/output_inception_5a/output_0_split
I1029 15:15:37.745419 14742 net.cpp:163] Top shape: 50 1024 7 7 (2508800)
I1029 15:15:37.745430 14742 net.cpp:163] Top shape: 50 1024 7 7 (2508800)
I1029 15:15:37.745436 14742 net.cpp:163] Top shape: 50 1024 7 7 (2508800)
I1029 15:15:37.745443 14742 net.cpp:163] Top shape: 50 1024 7 7 (2508800)
I1029 15:15:37.745450 14742 layer_factory.hpp:76] Creating layer inception_5b/1x1
I1029 15:15:37.745457 14742 net.cpp:110] Creating Layer inception_5b/1x1
I1029 15:15:37.745463 14742 net.cpp:477] inception_5b/1x1 <- inception_5a/output_inception_5a/output_0_split_0
I1029 15:15:37.745471 14742 net.cpp:433] inception_5b/1x1 -> inception_5b/1x1
I1029 15:15:37.746604 14742 net.cpp:155] Setting up inception_5b/1x1
I1029 15:15:37.746620 14742 net.cpp:163] Top shape: 50 352 7 7 (862400)
I1029 15:15:37.746629 14742 layer_factory.hpp:76] Creating layer inception_5b/1x1/bn
I1029 15:15:37.746640 14742 net.cpp:110] Creating Layer inception_5b/1x1/bn
I1029 15:15:37.746647 14742 net.cpp:477] inception_5b/1x1/bn <- inception_5b/1x1
I1029 15:15:37.746655 14742 net.cpp:433] inception_5b/1x1/bn -> inception_5b/1x1/bn
I1029 15:15:37.746767 14742 net.cpp:155] Setting up inception_5b/1x1/bn
I1029 15:15:37.746778 14742 net.cpp:163] Top shape: 50 352 7 7 (862400)
I1029 15:15:37.746788 14742 layer_factory.hpp:76] Creating layer inception_5b/relu_1x1
I1029 15:15:37.746798 14742 net.cpp:110] Creating Layer inception_5b/relu_1x1
I1029 15:15:37.746804 14742 net.cpp:477] inception_5b/relu_1x1 <- inception_5b/1x1/bn
I1029 15:15:37.746811 14742 net.cpp:419] inception_5b/relu_1x1 -> inception_5b/1x1/bn (in-place)
I1029 15:15:37.746876 14742 net.cpp:155] Setting up inception_5b/relu_1x1
I1029 15:15:37.746886 14742 net.cpp:163] Top shape: 50 352 7 7 (862400)
I1029 15:15:37.746892 14742 layer_factory.hpp:76] Creating layer inception_5b/3x3_reduce
I1029 15:15:37.746901 14742 net.cpp:110] Creating Layer inception_5b/3x3_reduce
I1029 15:15:37.746907 14742 net.cpp:477] inception_5b/3x3_reduce <- inception_5a/output_inception_5a/output_0_split_1
I1029 15:15:37.746914 14742 net.cpp:433] inception_5b/3x3_reduce -> inception_5b/3x3_reduce
I1029 15:15:37.747841 14742 net.cpp:155] Setting up inception_5b/3x3_reduce
I1029 15:15:37.747854 14742 net.cpp:163] Top shape: 50 192 7 7 (470400)
I1029 15:15:37.747862 14742 layer_factory.hpp:76] Creating layer inception_5b/3x3_reduce/bn
I1029 15:15:37.747875 14742 net.cpp:110] Creating Layer inception_5b/3x3_reduce/bn
I1029 15:15:37.747884 14742 net.cpp:477] inception_5b/3x3_reduce/bn <- inception_5b/3x3_reduce
I1029 15:15:37.747891 14742 net.cpp:433] inception_5b/3x3_reduce/bn -> inception_5b/3x3_reduce/bn
I1029 15:15:37.747999 14742 net.cpp:155] Setting up inception_5b/3x3_reduce/bn
I1029 15:15:37.748010 14742 net.cpp:163] Top shape: 50 192 7 7 (470400)
I1029 15:15:37.748020 14742 layer_factory.hpp:76] Creating layer inception_5b/relu_3x3_reduce
I1029 15:15:37.748028 14742 net.cpp:110] Creating Layer inception_5b/relu_3x3_reduce
I1029 15:15:37.748035 14742 net.cpp:477] inception_5b/relu_3x3_reduce <- inception_5b/3x3_reduce/bn
I1029 15:15:37.748044 14742 net.cpp:419] inception_5b/relu_3x3_reduce -> inception_5b/3x3_reduce/bn (in-place)
I1029 15:15:37.748246 14742 net.cpp:155] Setting up inception_5b/relu_3x3_reduce
I1029 15:15:37.748258 14742 net.cpp:163] Top shape: 50 192 7 7 (470400)
I1029 15:15:37.748265 14742 layer_factory.hpp:76] Creating layer inception_5b/3x3
I1029 15:15:37.748275 14742 net.cpp:110] Creating Layer inception_5b/3x3
I1029 15:15:37.748281 14742 net.cpp:477] inception_5b/3x3 <- inception_5b/3x3_reduce/bn
I1029 15:15:37.748288 14742 net.cpp:433] inception_5b/3x3 -> inception_5b/3x3
I1029 15:15:37.749791 14742 net.cpp:155] Setting up inception_5b/3x3
I1029 15:15:37.749804 14742 net.cpp:163] Top shape: 50 320 7 7 (784000)
I1029 15:15:37.749812 14742 layer_factory.hpp:76] Creating layer inception_5b/3x3/bn
I1029 15:15:37.749824 14742 net.cpp:110] Creating Layer inception_5b/3x3/bn
I1029 15:15:37.749830 14742 net.cpp:477] inception_5b/3x3/bn <- inception_5b/3x3
I1029 15:15:37.749845 14742 net.cpp:433] inception_5b/3x3/bn -> inception_5b/3x3/bn
I1029 15:15:37.749965 14742 net.cpp:155] Setting up inception_5b/3x3/bn
I1029 15:15:37.749976 14742 net.cpp:163] Top shape: 50 320 7 7 (784000)
I1029 15:15:37.749987 14742 layer_factory.hpp:76] Creating layer inception_5b/relu_3x3
I1029 15:15:37.749997 14742 net.cpp:110] Creating Layer inception_5b/relu_3x3
I1029 15:15:37.750004 14742 net.cpp:477] inception_5b/relu_3x3 <- inception_5b/3x3/bn
I1029 15:15:37.750010 14742 net.cpp:419] inception_5b/relu_3x3 -> inception_5b/3x3/bn (in-place)
I1029 15:15:37.750079 14742 net.cpp:155] Setting up inception_5b/relu_3x3
I1029 15:15:37.750089 14742 net.cpp:163] Top shape: 50 320 7 7 (784000)
I1029 15:15:37.750095 14742 layer_factory.hpp:76] Creating layer inception_5b/double3x3_reduce
I1029 15:15:37.750105 14742 net.cpp:110] Creating Layer inception_5b/double3x3_reduce
I1029 15:15:37.750113 14742 net.cpp:477] inception_5b/double3x3_reduce <- inception_5a/output_inception_5a/output_0_split_2
I1029 15:15:37.750120 14742 net.cpp:433] inception_5b/double3x3_reduce -> inception_5b/double3x3_reduce
I1029 15:15:37.751046 14742 net.cpp:155] Setting up inception_5b/double3x3_reduce
I1029 15:15:37.751062 14742 net.cpp:163] Top shape: 50 192 7 7 (470400)
I1029 15:15:37.751070 14742 layer_factory.hpp:76] Creating layer inception_5b/double3x3_reduce/bn
I1029 15:15:37.751085 14742 net.cpp:110] Creating Layer inception_5b/double3x3_reduce/bn
I1029 15:15:37.751092 14742 net.cpp:477] inception_5b/double3x3_reduce/bn <- inception_5b/double3x3_reduce
I1029 15:15:37.751101 14742 net.cpp:433] inception_5b/double3x3_reduce/bn -> inception_5b/double3x3_reduce/bn
I1029 15:15:37.751209 14742 net.cpp:155] Setting up inception_5b/double3x3_reduce/bn
I1029 15:15:37.751219 14742 net.cpp:163] Top shape: 50 192 7 7 (470400)
I1029 15:15:37.751230 14742 layer_factory.hpp:76] Creating layer inception_5b/relu_double3x3_reduce
I1029 15:15:37.751238 14742 net.cpp:110] Creating Layer inception_5b/relu_double3x3_reduce
I1029 15:15:37.751245 14742 net.cpp:477] inception_5b/relu_double3x3_reduce <- inception_5b/double3x3_reduce/bn
I1029 15:15:37.751253 14742 net.cpp:419] inception_5b/relu_double3x3_reduce -> inception_5b/double3x3_reduce/bn (in-place)
I1029 15:15:37.751317 14742 net.cpp:155] Setting up inception_5b/relu_double3x3_reduce
I1029 15:15:37.751327 14742 net.cpp:163] Top shape: 50 192 7 7 (470400)
I1029 15:15:37.751332 14742 layer_factory.hpp:76] Creating layer inception_5b/double3x3a
I1029 15:15:37.751343 14742 net.cpp:110] Creating Layer inception_5b/double3x3a
I1029 15:15:37.751349 14742 net.cpp:477] inception_5b/double3x3a <- inception_5b/double3x3_reduce/bn
I1029 15:15:37.751356 14742 net.cpp:433] inception_5b/double3x3a -> inception_5b/double3x3a
I1029 15:15:37.752542 14742 net.cpp:155] Setting up inception_5b/double3x3a
I1029 15:15:37.752554 14742 net.cpp:163] Top shape: 50 224 7 7 (548800)
I1029 15:15:37.752562 14742 layer_factory.hpp:76] Creating layer inception_5b/double3x3a/bn
I1029 15:15:37.752573 14742 net.cpp:110] Creating Layer inception_5b/double3x3a/bn
I1029 15:15:37.752580 14742 net.cpp:477] inception_5b/double3x3a/bn <- inception_5b/double3x3a
I1029 15:15:37.752590 14742 net.cpp:433] inception_5b/double3x3a/bn -> inception_5b/double3x3a/bn
I1029 15:15:37.752701 14742 net.cpp:155] Setting up inception_5b/double3x3a/bn
I1029 15:15:37.752712 14742 net.cpp:163] Top shape: 50 224 7 7 (548800)
I1029 15:15:37.752722 14742 layer_factory.hpp:76] Creating layer inception_5b/relu_double3x3a
I1029 15:15:37.752730 14742 net.cpp:110] Creating Layer inception_5b/relu_double3x3a
I1029 15:15:37.752737 14742 net.cpp:477] inception_5b/relu_double3x3a <- inception_5b/double3x3a/bn
I1029 15:15:37.752744 14742 net.cpp:419] inception_5b/relu_double3x3a -> inception_5b/double3x3a/bn (in-place)
I1029 15:15:37.752807 14742 net.cpp:155] Setting up inception_5b/relu_double3x3a
I1029 15:15:37.752817 14742 net.cpp:163] Top shape: 50 224 7 7 (548800)
I1029 15:15:37.752823 14742 layer_factory.hpp:76] Creating layer inception_5b/double3x3b
I1029 15:15:37.752836 14742 net.cpp:110] Creating Layer inception_5b/double3x3b
I1029 15:15:37.752851 14742 net.cpp:477] inception_5b/double3x3b <- inception_5b/double3x3a/bn
I1029 15:15:37.752862 14742 net.cpp:433] inception_5b/double3x3b -> inception_5b/double3x3b
I1029 15:15:37.754161 14742 net.cpp:155] Setting up inception_5b/double3x3b
I1029 15:15:37.754174 14742 net.cpp:163] Top shape: 50 224 7 7 (548800)
I1029 15:15:37.754182 14742 layer_factory.hpp:76] Creating layer inception_5b/double3x3b/bn
I1029 15:15:37.754194 14742 net.cpp:110] Creating Layer inception_5b/double3x3b/bn
I1029 15:15:37.754201 14742 net.cpp:477] inception_5b/double3x3b/bn <- inception_5b/double3x3b
I1029 15:15:37.754211 14742 net.cpp:433] inception_5b/double3x3b/bn -> inception_5b/double3x3b/bn
I1029 15:15:37.754319 14742 net.cpp:155] Setting up inception_5b/double3x3b/bn
I1029 15:15:37.754333 14742 net.cpp:163] Top shape: 50 224 7 7 (548800)
I1029 15:15:37.754343 14742 layer_factory.hpp:76] Creating layer inception_5b/relu_double3x3b
I1029 15:15:37.754350 14742 net.cpp:110] Creating Layer inception_5b/relu_double3x3b
I1029 15:15:37.754358 14742 net.cpp:477] inception_5b/relu_double3x3b <- inception_5b/double3x3b/bn
I1029 15:15:37.754364 14742 net.cpp:419] inception_5b/relu_double3x3b -> inception_5b/double3x3b/bn (in-place)
I1029 15:15:37.754561 14742 net.cpp:155] Setting up inception_5b/relu_double3x3b
I1029 15:15:37.754576 14742 net.cpp:163] Top shape: 50 224 7 7 (548800)
I1029 15:15:37.754583 14742 layer_factory.hpp:76] Creating layer inception_5b/pool
I1029 15:15:37.754590 14742 layer_factory.cpp:60] CUDNN does not support padding or multiple tops. Using Caffe's own pooling layer.
I1029 15:15:37.754597 14742 net.cpp:110] Creating Layer inception_5b/pool
I1029 15:15:37.754604 14742 net.cpp:477] inception_5b/pool <- inception_5a/output_inception_5a/output_0_split_3
I1029 15:15:37.754612 14742 net.cpp:433] inception_5b/pool -> inception_5b/pool
I1029 15:15:37.754626 14742 net.cpp:155] Setting up inception_5b/pool
I1029 15:15:37.754633 14742 net.cpp:163] Top shape: 50 1024 7 7 (2508800)
I1029 15:15:37.754639 14742 layer_factory.hpp:76] Creating layer inception_5b/pool_proj
I1029 15:15:37.754647 14742 net.cpp:110] Creating Layer inception_5b/pool_proj
I1029 15:15:37.754654 14742 net.cpp:477] inception_5b/pool_proj <- inception_5b/pool
I1029 15:15:37.754663 14742 net.cpp:433] inception_5b/pool_proj -> inception_5b/pool_proj
I1029 15:15:37.755548 14742 net.cpp:155] Setting up inception_5b/pool_proj
I1029 15:15:37.755560 14742 net.cpp:163] Top shape: 50 128 7 7 (313600)
I1029 15:15:37.755568 14742 layer_factory.hpp:76] Creating layer inception_5b/pool_proj/bn
I1029 15:15:37.755581 14742 net.cpp:110] Creating Layer inception_5b/pool_proj/bn
I1029 15:15:37.755589 14742 net.cpp:477] inception_5b/pool_proj/bn <- inception_5b/pool_proj
I1029 15:15:37.755597 14742 net.cpp:433] inception_5b/pool_proj/bn -> inception_5b/pool_proj/bn
I1029 15:15:37.755692 14742 net.cpp:155] Setting up inception_5b/pool_proj/bn
I1029 15:15:37.755702 14742 net.cpp:163] Top shape: 50 128 7 7 (313600)
I1029 15:15:37.755712 14742 layer_factory.hpp:76] Creating layer inception_5b/relu_pool_proj
I1029 15:15:37.755722 14742 net.cpp:110] Creating Layer inception_5b/relu_pool_proj
I1029 15:15:37.755728 14742 net.cpp:477] inception_5b/relu_pool_proj <- inception_5b/pool_proj/bn
I1029 15:15:37.755735 14742 net.cpp:419] inception_5b/relu_pool_proj -> inception_5b/pool_proj/bn (in-place)
I1029 15:15:37.755800 14742 net.cpp:155] Setting up inception_5b/relu_pool_proj
I1029 15:15:37.755812 14742 net.cpp:163] Top shape: 50 128 7 7 (313600)
I1029 15:15:37.755820 14742 layer_factory.hpp:76] Creating layer inception_5b/output
I1029 15:15:37.755827 14742 net.cpp:110] Creating Layer inception_5b/output
I1029 15:15:37.755833 14742 net.cpp:477] inception_5b/output <- inception_5b/1x1/bn
I1029 15:15:37.755841 14742 net.cpp:477] inception_5b/output <- inception_5b/3x3/bn
I1029 15:15:37.755847 14742 net.cpp:477] inception_5b/output <- inception_5b/double3x3b/bn
I1029 15:15:37.755853 14742 net.cpp:477] inception_5b/output <- inception_5b/pool_proj/bn
I1029 15:15:37.755866 14742 net.cpp:433] inception_5b/output -> inception_5b/output
I1029 15:15:37.755884 14742 net.cpp:155] Setting up inception_5b/output
I1029 15:15:37.755892 14742 net.cpp:163] Top shape: 50 1024 7 7 (2508800)
I1029 15:15:37.755898 14742 layer_factory.hpp:76] Creating layer pool5/7x7_s1
I1029 15:15:37.755909 14742 net.cpp:110] Creating Layer pool5/7x7_s1
I1029 15:15:37.755915 14742 net.cpp:477] pool5/7x7_s1 <- inception_5b/output
I1029 15:15:37.755923 14742 net.cpp:433] pool5/7x7_s1 -> pool5/7x7_s1
I1029 15:15:37.755987 14742 net.cpp:155] Setting up pool5/7x7_s1
I1029 15:15:37.755998 14742 net.cpp:163] Top shape: 50 1024 1 1 (51200)
I1029 15:15:37.756005 14742 layer_factory.hpp:76] Creating layer loss3/classifier
I1029 15:15:37.756019 14742 net.cpp:110] Creating Layer loss3/classifier
I1029 15:15:37.756026 14742 net.cpp:477] loss3/classifier <- pool5/7x7_s1
I1029 15:15:37.756036 14742 net.cpp:433] loss3/classifier -> loss3/classifier
I1029 15:15:37.758129 14742 net.cpp:155] Setting up loss3/classifier
I1029 15:15:37.758142 14742 net.cpp:163] Top shape: 50 1000 (50000)
I1029 15:15:37.758152 14742 layer_factory.hpp:76] Creating layer loss3/top-5
I1029 15:15:37.758167 14742 net.cpp:110] Creating Layer loss3/top-5
I1029 15:15:37.758174 14742 net.cpp:477] loss3/top-5 <- loss3/classifier
I1029 15:15:37.758180 14742 net.cpp:477] loss3/top-5 <- label
I1029 15:15:37.758190 14742 net.cpp:433] loss3/top-5 -> loss3/top-5
I1029 15:15:37.758208 14742 net.cpp:155] Setting up loss3/top-5
…
