…
  top: "dir15_TL_label"
  top: "dir15_BR_label"
  top: "dir16_TL_label"
  top: "dir16_BR_label"
  top: "dir17_TL_label"
  top: "dir17_BR_label"
  top: "dir18_TL_label"
  top: "dir18_BR_label"
  top: "dir19_TL_label"
  top: "dir19_BR_label"
  top: "cls_label"
  include {
    phase: TRAIN
  }
  attention_data_param {
    source: "1__DATA/PASCAL/train.txt"
    batch_size: 128
    num_class: 20
    input_size: 224
    mean_value: 104
    mean_value: 117
    mean_value: 123
    cache_images: false
    root_folder: "/data1/PASCAL/VOCdevkit/VOC2007/"
  }
}
layer {
  name: "conv1/7x7_s2"
  type: "Convolution"
  bottom: "data"
  top: "conv1/7x7_s2"
  param {
    lr_mult: 0.25
    decay_mult: 1
  }
  param {
    lr_mult: 0.5
    decay_mult: 0
  }
  convolution_param {
    num_output: 64
    pad: 3
    kernel_size: 7
    group: 1
    stride: 2
  }
}
layer {
  name: "conv1/relu_7x7"
  type: "ReLU"
  bottom: "conv1/7x7_s2"
  top: "conv1/7x7_s2"
}
layer {
  name: "pool1/3x3_s2"
  type: "Pooling"
  bottom: "conv1/7x7_s2"
  top: "pool1/3x3_s2"
  pooling_param {
    pool: MAX
    kernel_size: 3
    stride: 2
    pad: 0
  }
}
layer {
  name: "conv2/3x3_reduce"
  type: "Convolution"
  bottom: "pool1/3x3_s2"
  top: "conv2/3x3_reduce"
  param {
    lr_mult: 0.25
    decay_mult: 1
  }
  param {
    lr_mult: 0.5
    decay_mult: 0
  }
  convolution_param {
    num_output: 64
    pad: 0
    kernel_size: 1
    group: 1
    stride: 1
  }
}
layer {
  name: "conv2/relu_3x3_reduce"
  type: "ReLU"
  bottom: "conv2/3x3_reduce"
  top: "conv2/3x3_reduce"
}
layer {
  name: "conv2/3x3"
  type: "Convolution"
  bottom: "conv2/3x3_reduce"
  top: "conv2/3x3"
  param {
    lr_mult: 0.25
    decay_mult: 1
  }
  param {
    lr_mult: 0.5
    decay_mult: 0
  }
  convolution_param {
    num_output: 192
    pad: 1
    kernel_size: 3
    group: 1
    stride: 1
  }
}
layer {
  name: "conv2/relu_3x3"
  type: "ReLU"
  bottom: "conv2/3x3"
  top: "conv2/3x3"
}
layer {
  name: "pool2/3x3_s2"
  type: "Pooling"
  bottom: "conv2/3x3"
  top: "pool2/3x3_s2"
  pooling_param {
    pool: MAX
    kernel_size: 3
    stride: 2
    pad: 0
  }
}
layer {
  name: "inception_3a/1x1"
  type: "Convolution"
  bottom: "pool2/3x3_s2"
  top: "inception_3a/1x1"
  param {
    lr_mult: 0.25
    decay_mult: 1
  }
  param {
    lr_mult: 0.5
    decay_mult: 0
  }
  convolution_param {
    num_output: 64
    pad: 0
    kernel_size: 1
    group: 1
    stride: 1
  }
}
layer {
  name: "inception_3a/relu_1x1"
  type: "ReLU"
  bottom: "inception_3a/1x1"
  top: "inception_3a/1x1"
}
layer {
  name: "inception_3a/3x3_reduce"
  type: "Convolution"
  bottom: "pool2/3x3_s2"
  top: "inception_3a/3x3_reduce"
  param {
    lr_mult: 0.25
    decay_mult: 1
  }
  param {
    lr_mult: 0.5
    decay_mult: 0
  }
  convolution_param {
    num_output: 96
    pad: 0
    kernel_size: 1
    group: 1
    stride: 1
  }
}
layer {
  name: "inception_3a/relu_3x3_reduce"
  type: "ReLU"
  bottom: "inception_3a/3x3_reduce"
  top: "inception_3a/3x3_reduce"
}
layer {
  name: "inception_3a/3x3"
  type: "Convolution"
  bottom: "inception_3a/3x3_reduce"
  top: "inception_3a/3x3"
  param {
    lr_mult: 0.25
    decay_mult: 1
  }
  param {
    lr_mult: 0.5
    decay_mult: 0
  }
  convolution_param {
    num_output: 128
    pad: 1
    kernel_size: 3
    group: 1
    stride: 1
  }
}
layer {
  name: "inception_3a/relu_3x3"
  type: "ReLU"
  bottom: "inception_3a/3x3"
  top: "inception_3a/3x3"
}
layer {
  name: "inception_3a/5x5_reduce"
  type: "Convolution"
  bottom: "pool2/3x3_s2"
  top: "inception_3a/5x5_reduce"
  param {
    lr_mult: 0.25
    decay_mult: 1
  }
  param {
    lr_mult: 0.5
    decay_mult: 0
  }
  convolution_param {
    num_output: 16
    pad: 0
    kernel_size: 1
    group: 1
    stride: 1
  }
}
layer {
  name: "inception_3a/relu_5x5_reduce"
  type: "ReLU"
  bottom: "inception_3a/5x5_reduce"
  top: "inception_3a/5x5_reduce"
}
layer {
  name: "inception_3a/5x5"
  type: "Convolution"
  bottom: "inception_3a/5x5_reduce"
  top: "inception_3a/5x5"
  param {
    lr_mult: 0.25
    decay_mult: 1
  }
  param {
    lr_mult: 0.5
    decay_mult: 0
  }
  convolution_param {
    num_output: 32
    pad: 2
    kernel_size: 5
    group: 1
    stride: 1
  }
}
layer {
  name: "inception_3a/relu_5x5"
  type: "ReLU"
  bottom: "inception_3a/5x5"
  top: "inception_3a/5x5"
}
layer {
  name: "inception_3a/pool"
  type: "Pooling"
  bottom: "pool2/3x3_s2"
  top: "inception_3a/pool"
  pooling_param {
    pool: MAX
    kernel_size: 3
    stride: 1
    pad: 1
  }
}
layer {
  name: "inception_3a/pool_proj"
  type: "Convolution"
  bottom: "inception_3a/pool"
  top: "inception_3a/pool_proj"
  param {
    lr_mult: 0.25
    decay_mult: 1
  }
  param {
    lr_mult: 0.5
    decay_mult: 0
  }
  convolution_param {
    num_output: 32
    pad: 0
    kernel_size: 1
    group: 1
    stride: 1
  }
}
layer {
  name: "inception_3a/relu_pool_proj"
  type: "ReLU"
  bottom: "inception_3a/pool_proj"
  top: "inception_3a/pool_proj"
}
layer {
  name: "inception_3a/output"
  type: "Concat"
  bottom: "inception_3a/1x1"
  bottom: "inception_3a/3x3"
  bottom: "inception_3a/5x5"
  bottom: "inception_3a/pool_proj"
  top: "inception_3a/output"
}
layer {
  name: "inception_3b/1x1"
  type: "Convolution"
  bottom: "inception_3a/output"
  top: "inception_3b/1x1"
  param {
    lr_mult: 0.25
    decay_mult: 1
  }
  param {
    lr_mult: 0.5
    decay_mult: 0
  }
  convolution_param {
    num_output: 128
    pad: 0
    kernel_size: 1
    group: 1
    stride: 1
  }
}
layer {
  name: "inception_3b/relu_1x1"
  type: "ReLU"
  bottom: "inception_3b/1x1"
  top: "inception_3b/1x1"
}
layer {
  name: "inception_3b/3x3_reduce"
  type: "Convolution"
  bottom: "inception_3a/output"
  top: "inception_3b/3x3_reduce"
  param {
    lr_mult: 0.25
    decay_mult: 1
  }
  param {
    lr_mult: 0.5
    decay_mult: 0
  }
  convolution_param {
    num_output: 128
    pad: 0
    kernel_size: 1
    group: 1
    stride: 1
  }
}
layer {
  name: "inception_3b/relu_3x3_reduce"
  type: "ReLU"
  bottom: "inception_3b/3x3_reduce"
  top: "inception_3b/3x3_reduce"
}
layer {
  name: "inception_3b/3x3"
  type: "Convolution"
  bottom: "inception_3b/3x3_reduce"
  top: "inception_3b/3x3"
  param {
    lr_mult: 0.25
    decay_mult: 1
  }
  param {
    lr_mult: 0.5
    decay_mult: 0
  }
  convolution_param {
    num_output: 192
    pad: 1
    kernel_size: 3
    group: 1
    stride: 1
  }
}
layer {
  name: "inception_3b/relu_3x3"
  type: "ReLU"
  bottom: "inception_3b/3x3"
  top: "inception_3b/3x3"
}
layer {
  name: "inception_3b/5x5_reduce"
  type: "Convolution"
  bottom: "inception_3a/output"
  top: "inception_3b/5x5_reduce"
  param {
    lr_mult: 0.25
    decay_mult: 1
  }
  param {
    lr_mult: 0.5
    decay_mult: 0
  }
  convolution_param {
    num_output: 32
    pad: 0
    kernel_size: 1
    group: 1
    stride: 1
  }
}
layer {
  name: "inception_3b/relu_5x5_reduce"
  type: "ReLU"
  bottom: "inception_3b/5x5_reduce"
  top: "inception_3b/5x5_reduce"
}
layer {
  name: "inception_3b/5x5"
  type: "Convolution"
  bottom: "inception_3b/5x5_reduce"
  top: "inception_3b/5x5"
  param {
    lr_mult: 0.25
    decay_mult: 1
  }
  param {
    lr_mult: 0.5
    decay_mult: 0
  }
  convolution_param {
    num_output: 96
    pad: 2
    kernel_size: 5
    group: 1
    stride: 1
  }
}
layer {
  name: "inception_3b/relu_5x5"
  type: "ReLU"
  bottom: "inception_3b/5x5"
  top: "inception_3b/5x5"
}
layer {
  name: "inception_3b/pool"
  type: "Pooling"
  bottom: "inception_3a/output"
  top: "inception_3b/pool"
  pooling_param {
    pool: MAX
    kernel_size: 3
    stride: 1
    pad: 1
  }
}
layer {
  name: "inception_3b/pool_proj"
  type: "Convolution"
  bottom: "inception_3b/pool"
  top: "inception_3b/pool_proj"
  param {
    lr_mult: 0.25
    decay_mult: 1
  }
  param {
    lr_mult: 0.5
    decay_mult: 0
  }
  convolution_param {
    num_output: 64
    pad: 0
    kernel_size: 1
    group: 1
    stride: 1
  }
}
layer {
  name: "inception_3b/relu_pool_proj"
  type: "ReLU"
  bottom: "inception_3b/pool_proj"
  top: "inception_3b/pool_proj"
}
layer {
  name: "inception_3b/output"
  type: "Concat"
  bottom: "inception_3b/1x1"
  bottom: "inception_3b/3x3"
  bottom: "inception_3b/5x5"
  bottom: "inception_3b/pool_proj"
  top: "inception_3b/output"
}
layer {
  name: "pool3/3x3_s2"
  type: "Pooling"
  bottom: "inception_3b/output"
  top: "pool3/3x3_s2"
  pooling_param {
    pool: MAX
    kernel_size: 3
    stride: 2
    pad: 0
  }
}
layer {
  name: "inception_4a/1x1"
  type: "Convolution"
  bottom: "pool3/3x3_s2"
  top: "inception_4a/1x1"
  param {
    lr_mult: 0.25
    decay_mult: 1
  }
  param {
    lr_mult: 0.5
    decay_mult: 0
  }
  convolution_param {
    num_output: 192
    pad: 0
    kernel_size: 1
    group: 1
    stride: 1
  }
}
layer {
  name: "inception_4a/relu_1x1"
  type: "ReLU"
  bottom: "inception_4a/1x1"
  top: "inception_4a/1x1"
}
layer {
  name: "inception_4a/3x3_reduce"
  type: "Convolution"
  bottom: "pool3/3x3_s2"
  top: "inception_4a/3x3_reduce"
  param {
    lr_mult: 0.25
    decay_mult: 1
  }
  param {
    lr_mult: 0.5
    decay_mult: 0
  }
  convolution_param {
    num_output: 96
    pad: 0
    kernel_size: 1
    group: 1
    stride: 1
  }
}
layer {
  name: "inception_4a/relu_3x3_reduce"
  type: "ReLU"
  bottom: "inception_4a/3x3_reduce"
  top: "inception_4a/3x3_reduce"
}
layer {
  name: "inception_4a/3x3"
  type: "Convolution"
  bottom: "inception_4a/3x3_reduce"
  top: "inception_4a/3x3"
  param {
    lr_mult: 0.25
    decay_mult: 1
  }
  param {
    lr_mult: 0.5
    decay_mult: 0
  }
  convolution_param {
    num_output: 208
    pad: 1
    kernel_size: 3
    group: 1
    stride: 1
  }
}
layer {
  name: "inception_4a/relu_3x3"
  type: "ReLU"
  bottom: "inception_4a/3x3"
  top: "inception_4a/3x3"
}
layer {
  name: "inception_4a/5x5_reduce"
  type: "Convolution"
  bottom: "pool3/3x3_s2"
  top: "inception_4a/5x5_reduce"
  param {
    lr_mult: 0.25
    decay_mult: 1
  }
  param {
    lr_mult: 0.5
    decay_mult: 0
  }
  convolution_param {
    num_output: 16
    pad: 0
    kernel_size: 1
    group: 1
    stride: 1
  }
}
layer {
  name: "inception_4a/relu_5x5_reduce"
  type: "ReLU"
  bottom: "inception_4a/5x5_reduce"
  top: "inception_4a/5x5_reduce"
}
layer {
  name: "inception_4a/5x5"
  type: "Convolution"
  bottom: "inception_4a/5x5_reduce"
  top: "inception_4a/5x5"
  param {
    lr_mult: 0.25
    decay_mult: 1
  }
  param {
    lr_mult: 0.5
    decay_mult: 0
  }
  convolution_param {
    num_output: 48
    pad: 2
    kernel_size: 5
    group: 1
    stride: 1
  }
}
layer {
  name: "inception_4a/relu_5x5"
  type: "ReLU"
  bottom: "inception_4a/5x5"
  top: "inception_4a/5x5"
}
layer {
  name: "inception_4a/pool"
  type: "Pooling"
  bottom: "pool3/3x3_s2"
  top: "inception_4a/pool"
  pooling_param {
    pool: MAX
    kernel_size: 3
    stride: 1
    pad: 1
  }
}
layer {
  name: "inception_4a/pool_proj"
  type: "Convolution"
  bottom: "inception_4a/pool"
  top: "inception_4a/pool_proj"
  param {
    lr_mult: 0.25
    decay_mult: 1
  }
  param {
    lr_mult: 0.5
    decay_mult: 0
  }
  convolution_param {
    num_output: 64
    pad: 0
    kernel_size: 1
    group: 1
    stride: 1
  }
}
layer {
  name: "inception_4a/relu_pool_proj"
  type: "ReLU"
  bottom: "inception_4a/pool_proj"
  top: "inception_4a/pool_proj"
}
layer {
  name: "inception_4a/output"
  type: "Concat"
  bottom: "inception_4a/1x1"
  bottom: "inception_4a/3x3"
  bottom: "inception_4a/5x5"
  bottom: "inception_4a/pool_proj"
  top: "inception_4a/output"
}
layer {
  name: "inception_4b/1x1"
  type: "Convolution"
  bottom: "inception_4a/output"
  top: "inception_4b/1x1"
  param {
    lr_mult: 0.25
    decay_mult: 1
  }
  param {
    lr_mult: 0.5
    decay_mult: 0
  }
  convolution_param {
    num_output: 160
    pad: 0
    kernel_size: 1
    group: 1
    stride: 1
  }
}
layer {
  name: "inception_4b/relu_1x1"
  type: "ReLU"
  bottom: "inception_4b/1x1"
  top: "inception_4b/1x1"
}
layer {
  name: "inception_4b/3x3_reduce"
  type: "Convolution"
  bottom: "inception_4a/output"
  top: "inception_4b/3x3_reduce"
  param {
    lr_mult: 0.25
    decay_mult: 1
  }
  param {
    lr_mult: 0.5
    decay_mult: 0
  }
  convolution_param {
    num_output: 112
    pad: 0
    kernel_size: 1
    group: 1
    stride: 1
  }
}
layer {
  name: "inception_4b/relu_3x3_reduce"
  type: "ReLU"
  bottom: "inception_4b/3x3_reduce"
  top: "inception_4b/3x3_reduce"
}
layer {
  name: "inception_4b/3x3"
  type: "Convolution"
  bottom: "inception_4b/3x3_reduce"
  top: "inception_4b/3x3"
  param {
    lr_mult: 0.25
    decay_mult: 1
  }
  param {
    lr_mult: 0.5
    decay_mult: 0
  }
  convolution_param {
    num_output: 224
    pad: 1
    kernel_size: 3
    group: 1
    stride: 1
  }
}
layer {
  name: "inception_4b/relu_3x3"
  type: "ReLU"
  bottom: "inception_4b/3x3"
  top: "inception_4b/3x3"
}
layer {
  name: "inception_4b/5x5_reduce"
  type: "Convolution"
  bottom: "inception_4a/output"
  top: "inception_4b/5x5_reduce"
  param {
    lr_mult: 0.25
    decay_mult: 1
  }
  param {
    lr_mult: 0.5
    decay_mult: 0
  }
  convolution_param {
    num_output: 24
    pad: 0
    kernel_size: 1
    group: 1
    stride: 1
  }
}
layer {
  name: "inception_4b/relu_5x5_reduce"
  type: "ReLU"
  bottom: "inception_4b/5x5_reduce"
  top: "inception_4b/5x5_reduce"
}
layer {
  name: "inception_4b/5x5"
  type: "Convolution"
  bottom: "inception_4b/5x5_reduce"
  top: "inception_4b/5x5"
  param {
    lr_mult: 0.25
    decay_mult: 1
  }
  param {
    lr_mult: 0.5
    decay_mult: 0
  }
  convolution_param {
    num_output: 64
    pad: 2
    kernel_size: 5
    group: 1
    stride: 1
  }
}
layer {
  name: "inception_4b/relu_5x5"
  type: "ReLU"
  bottom: "inception_4b/5x5"
  top: "inception_4b/5x5"
}
layer {
  name: "inception_4b/pool"
  type: "Pooling"
  bottom: "inception_4a/output"
  top: "inception_4b/pool"
  pooling_param {
    pool: MAX
    kernel_size: 3
    stride: 1
    pad: 1
  }
}
layer {
  name: "inception_4b/pool_proj"
  type: "Convolution"
  bottom: "inception_4b/pool"
  top: "inception_4b/pool_proj"
  param {
    lr_mult: 0.25
    decay_mult: 1
  }
  param {
    lr_mult: 0.5
    decay_mult: 0
  }
  convolution_param {
    num_output: 64
    pad: 0
    kernel_size: 1
    group: 1
    stride: 1
  }
}
layer {
  name: "inception_4b/relu_pool_proj"
  type: "ReLU"
  bottom: "inception_4b/pool_proj"
  top: "inception_4b/pool_proj"
}
layer {
  name: "inception_4b/output"
  type: "Concat"
  bottom: "inception_4b/1x1"
  bottom: "inception_4b/3x3"
  bottom: "inception_4b/5x5"
  bottom: "inception_4b/pool_proj"
  top: "inception_4b/output"
}
layer {
  name: "inception_4c/1x1"
  type: "Convolution"
  bottom: "inception_4b/output"
  top: "inception_4c/1x1"
  param {
    lr_mult: 0.25
    decay_mult: 1
  }
  param {
    lr_mult: 0.5
    decay_mult: 0
  }
  convolution_param {
    num_output: 128
    pad: 0
    kernel_size: 1
    group: 1
    stride: 1
  }
}
layer {
  name: "inception_4c/relu_1x1"
  type: "ReLU"
  bottom: "inception_4c/1x1"
  top: "inception_4c/1x1"
}
layer {
  name: "inception_4c/3x3_reduce"
  type: "Convolution"
  bottom: "inception_4b/output"
  top: "inception_4c/3x3_reduce"
  param {
    lr_mult: 0.25
    decay_mult: 1
  }
  param {
    lr_mult: 0.5
    decay_mult: 0
  }
  convolution_param {
    num_output: 128
    pad: 0
    kernel_size: 1
    group: 1
    stride: 1
  }
}
layer {
  name: "inception_4c/relu_3x3_reduce"
  type: "ReLU"
  bottom: "inception_4c/3x3_reduce"
  top: "inception_4c/3x3_reduce"
}
layer {
  name: "inception_4c/3x3"
  type: "Convolution"
  bottom: "inception_4c/3x3_reduce"
  top: "inception_4c/3x3"
  param {
    lr_mult: 0.25
    decay_mult: 1
  }
  param {
    lr_mult: 0.5
    decay_mult: 0
  }
  convolution_param {
    num_output: 256
    pad: 1
    kernel_size: 3
    group: 1
    stride: 1
  }
}
layer {
  name: "inception_4c/relu_3x3"
  type: "ReLU"
  bottom: "inception_4c/3x3"
  top: "inception_4c/3x3"
}
layer {
  name: "inception_4c/5x5_reduce"
  type: "Convolution"
  bottom: "inception_4b/output"
  top: "inception_4c/5x5_reduce"
  param {
    lr_mult: 0.25
    decay_mult: 1
  }
  param {
    lr_mult: 0.5
    decay_mult: 0
  }
  convolution_param {
    num_output: 24
    pad: 0
    kernel_size: 1
    group: 1
    stride: 1
  }
}
layer {
  name: "inception_4c/relu_5x5_reduce"
  type: "ReLU"
  bottom: "inception_4c/5x5_reduce"
  top: "inception_4c/5x5_reduce"
}
layer {
  name: "inception_4c/5x5"
  type: "Convolution"
  bottom: "inception_4c/5x5_reduce"
  top: "inception_4c/5x5"
  param {
    lr_mult: 0.25
    decay_mult: 1
  }
  param {
    lr_mult: 0.5
    decay_mult: 0
  }
  convolution_param {
    num_output: 64
    pad: 2
    kernel_size: 5
    group: 1
    stride: 1
  }
}
layer {
  name: "inception_4c/relu_5x5"
  type: "ReLU"
  bottom: "inception_4c/5x5"
  top: "inception_4c/5x5"
}
layer {
  name: "inception_4c/pool"
  type: "Pooling"
  bottom: "inception_4b/output"
  top: "inception_4c/pool"
  pooling_param {
    pool: MAX
    kernel_size: 3
    stride: 1
    pad: 1
  }
}
layer {
  name: "inception_4c/pool_proj"
  type: "Convolution"
  bottom: "inception_4c/pool"
  top: "inception_4c/pool_proj"
  param {
    lr_mult: 0.25
    decay_mult: 1
  }
  param {
    lr_mult: 0.5
    decay_mult: 0
  }
  convolution_param {
    num_output: 64
    pad: 0
    kernel_size: 1
    group: 1
    stride: 1
  }
}
layer {
  name: "inception_4c/relu_pool_proj"
  type: "ReLU"
  bottom: "inception_4c/pool_proj"
  top: "inception_4c/pool_proj"
}
layer {
  name: "inception_4c/output"
  type: "Concat"
  bottom: "inception_4c/1x1"
  bottom: "inception_4c/3x3"
  bottom: "inception_4c/5x5"
  bottom: "inception_4c/pool_proj"
  top: "inception_4c/output"
}
layer {
  name: "inception_4d/1x1"
  type: "Convolution"
  bottom: "inception_4c/output"
  top: "inception_4d/1x1"
  param {
    lr_mult: 0.25
    decay_mult: 1
  }
  param {
    lr_mult: 0.5
    decay_mult: 0
  }
  convolution_param {
    num_output: 112
    pad: 0
    kernel_size: 1
    group: 1
    stride: 1
  }
}
layer {
  name: "inception_4d/relu_1x1"
  type: "ReLU"
  bottom: "inception_4d/1x1"
  top: "inception_4d/1x1"
}
layer {
  name: "inception_4d/3x3_reduce"
  type: "Convolution"
  bottom: "inception_4c/output"
  top: "inception_4d/3x3_reduce"
  param {
    lr_mult: 0.25
    decay_mult: 1
  }
  param {
    lr_mult: 0.5
    decay_mult: 0
  }
  convolution_param {
    num_output: 144
    pad: 0
    kernel_size: 1
    group: 1
    stride: 1
  }
}
layer {
  name: "inception_4d/relu_3x3_reduce"
  type: "ReLU"
  bottom: "inception_4d/3x3_reduce"
  top: "inception_4d/3x3_reduce"
}
layer {
  name: "inception_4d/3x3"
  type: "Convolution"
  bottom: "inception_4d/3x3_reduce"
  top: "inception_4d/3x3"
  param {
    lr_mult: 0.25
    decay_mult: 1
  }
  param {
    lr_mult: 0.5
    decay_mult: 0
  }
  convolution_param {
    num_output: 288
    pad: 1
    kernel_size: 3
    group: 1
    stride: 1
  }
}
layer {
  name: "inception_4d/relu_3x3"
  type: "ReLU"
  bottom: "inception_4d/3x3"
  top: "inception_4d/3x3"
}
layer {
  name: "inception_4d/5x5_reduce"
  type: "Convolution"
  bottom: "inception_4c/output"
  top: "inception_4d/5x5_reduce"
  param {
    lr_mult: 0.25
    decay_mult: 1
  }
  param {
    lr_mult: 0.5
    decay_mult: 0
  }
  convolution_param {
    num_output: 32
    pad: 0
    kernel_size: 1
    group: 1
    stride: 1
  }
}
layer {
  name: "inception_4d/relu_5x5_reduce"
  type: "ReLU"
  bottom: "inception_4d/5x5_reduce"
  top: "inception_4d/5x5_reduce"
}
layer {
  name: "inception_4d/5x5"
  type: "Convolution"
  bottom: "inception_4d/5x5_reduce"
  top: "inception_4d/5x5"
  param {
    lr_mult: 0.25
    decay_mult: 1
  }
  param {
    lr_mult: 0.5
    decay_mult: 0
  }
  convolution_param {
    num_output: 64
    pad: 2
    kernel_size: 5
    group: 1
    stride: 1
  }
}
layer {
  name: "inception_4d/relu_5x5"
  type: "ReLU"
  bottom: "inception_4d/5x5"
  top: "inception_4d/5x5"
}
layer {
  name: "inception_4d/pool"
  type: "Pooling"
  bottom: "inception_4c/output"
  top: "inception_4d/pool"
  pooling_param {
    pool: MAX
    kernel_size: 3
    stride: 1
    pad: 1
  }
}
layer {
  name: "inception_4d/pool_proj"
  type: "Convolution"
  bottom: "inception_4d/pool"
  top: "inception_4d/pool_proj"
  param {
    lr_mult: 0.25
    decay_mult: 1
  }
  param {
    lr_mult: 0.5
    decay_mult: 0
  }
  convolution_param {
    num_output: 64
    pad: 0
    kernel_size: 1
    group: 1
    stride: 1
  }
}
layer {
  name: "inception_4d/relu_pool_proj"
  type: "ReLU"
  bottom: "inception_4d/pool_proj"
  top: "inception_4d/pool_proj"
}
layer {
  name: "inception_4d/output"
  type: "Concat"
  bottom: "inception_4d/1x1"
  bottom: "inception_4d/3x3"
  bottom: "inception_4d/5x5"
  bottom: "inception_4d/pool_proj"
  top: "inception_4d/output"
}
layer {
  name: "inception_4e/1x1"
  type: "Convolution"
  bottom: "inception_4d/output"
  top: "inception_4e/1x1"
  param {
    lr_mult: 0.25
    decay_mult: 1
  }
  param {
    lr_mult: 0.5
    decay_mult: 0
  }
  convolution_param {
    num_output: 256
    pad: 0
    kernel_size: 1
    group: 1
    stride: 1
  }
}
layer {
  name: "inception_4e/relu_1x1"
  type: "ReLU"
  bottom: "inception_4e/1x1"
  top: "inception_4e/1x1"
}
layer {
  name: "inception_4e/3x3_reduce"
  type: "Convolution"
  bottom: "inception_4d/output"
  top: "inception_4e/3x3_reduce"
  param {
    lr_mult: 0.25
    decay_mult: 1
  }
  param {
    lr_mult: 0.5
    decay_mult: 0
  }
  convolution_param {
    num_output: 160
    pad: 0
    kernel_size: 1
    group: 1
    stride: 1
  }
}
layer {
  name: "inception_4e/relu_3x3_reduce"
  type: "ReLU"
  bottom: "inception_4e/3x3_reduce"
  top: "inception_4e/3x3_reduce"
}
layer {
  name: "inception_4e/3x3"
  type: "Convolution"
  bottom: "inception_4e/3x3_reduce"
  top: "inception_4e/3x3"
  param {
    lr_mult: 0.25
    decay_mult: 1
  }
  param {
    lr_mult: 0.5
    decay_mult: 0
  }
  convolution_param {
    num_output: 320
    pad: 1
    kernel_size: 3
    group: 1
    stride: 1
  }
}
layer {
  name: "inception_4e/relu_3x3"
  type: "ReLU"
  bottom: "inception_4e/3x3"
  top: "inception_4e/3x3"
}
layer {
  name: "inception_4e/5x5_reduce"
  type: "Convolution"
  bottom: "inception_4d/output"
  top: "inception_4e/5x5_reduce"
  param {
    lr_mult: 0.25
    decay_mult: 1
  }
  param {
    lr_mult: 0.5
    decay_mult: 0
  }
  convolution_param {
    num_output: 32
    pad: 0
    kernel_size: 1
    group: 1
    stride: 1
  }
}
layer {
  name: "inception_4e/relu_5x5_reduce"
  type: "ReLU"
  bottom: "inception_4e/5x5_reduce"
  top: "inception_4e/5x5_reduce"
}
layer {
  name: "inception_4e/5x5"
  type: "Convolution"
  bottom: "inception_4e/5x5_reduce"
  top: "inception_4e/5x5"
  param {
    lr_mult: 0.25
    decay_mult: 1
  }
  param {
    lr_mult: 0.5
    decay_mult: 0
  }
  convolution_param {
    num_output: 128
    pad: 2
    kernel_size: 5
    group: 1
    stride: 1
  }
}
layer {
  name: "inception_4e/relu_5x5"
  type: "ReLU"
  bottom: "inception_4e/5x5"
  top: "inception_4e/5x5"
}
layer {
  name: "inception_4e/pool"
  type: "Pooling"
  bottom: "inception_4d/output"
  top: "inception_4e/pool"
  pooling_param {
    pool: MAX
    kernel_size: 3
    stride: 1
    pad: 1
  }
}
layer {
  name: "inception_4e/pool_proj"
  type: "Convolution"
  bottom: "inception_4e/pool"
  top: "inception_4e/pool_proj"
  param {
    lr_mult: 0.25
    decay_mult: 1
  }
  param {
    lr_mult: 0.5
    decay_mult: 0
  }
  convolution_param {
    num_output: 128
    pad: 0
    kernel_size: 1
    group: 1
    stride: 1
  }
}
layer {
  name: "inception_4e/relu_pool_proj"
  type: "ReLU"
  bottom: "inception_4e/pool_proj"
  top: "inception_4e/pool_proj"
}
layer {
  name: "inception_4e/output"
  type: "Concat"
  bottom: "inception_4e/1x1"
  bottom: "inception_4e/3x3"
  bottom: "inception_4e/5x5"
  bottom: "inception_4e/pool_proj"
  top: "inception_4e/output"
}
layer {
  name: "pool4/3x3_s2"
  type: "Pooling"
  bottom: "inception_4e/output"
  top: "pool4/3x3_s2"
  pooling_param {
    pool: MAX
    kernel_size: 3
    stride: 2
    pad: 0
  }
}
layer {
  name: "inception_5a/1x1"
  type: "Convolution"
  bottom: "pool4/3x3_s2"
  top: "inception_5a/1x1"
  param {
    lr_mult: 0.25
    decay_mult: 1
  }
  param {
    lr_mult: 0.5
    decay_mult: 0
  }
  convolution_param {
    num_output: 256
    pad: 0
    kernel_size: 1
    group: 1
    stride: 1
  }
}
layer {
  name: "inception_5a/relu_1x1"
  type: "ReLU"
  bottom: "inception_5a/1x1"
  top: "inception_5a/1x1"
}
layer {
  name: "inception_5a/3x3_reduce"
  type: "Convolution"
  bottom: "pool4/3x3_s2"
  top: "inception_5a/3x3_reduce"
  param {
    lr_mult: 0.25
    decay_mult: 1
  }
  param {
    lr_mult: 0.5
    decay_mult: 0
  }
  convolution_param {
    num_output: 160
    pad: 0
    kernel_size: 1
    group: 1
    stride: 1
  }
}
layer {
  name: "inception_5a/relu_3x3_reduce"
  type: "ReLU"
  bottom: "inception_5a/3x3_reduce"
  top: "inception_5a/3x3_reduce"
}
layer {
  name: "inception_5a/3x3"
  type: "Convolution"
  bottom: "inception_5a/3x3_reduce"
  top: "inception_5a/3x3"
  param {
    lr_mult: 0.25
    decay_mult: 1
  }
  param {
    lr_mult: 0.5
    decay_mult: 0
  }
  convolution_param {
    num_output: 320
    pad: 1
    kernel_size: 3
    group: 1
    stride: 1
  }
}
layer {
  name: "inception_5a/relu_3x3"
  type: "ReLU"
  bottom: "inception_5a/3x3"
  top: "inception_5a/3x3"
}
layer {
  name: "inception_5a/5x5_reduce"
  type: "Convolution"
  bottom: "pool4/3x3_s2"
  top: "inception_5a/5x5_reduce"
  param {
    lr_mult: 0.25
    decay_mult: 1
  }
  param {
    lr_mult: 0.5
    decay_mult: 0
  }
  convolution_param {
    num_output: 32
    pad: 0
    kernel_size: 1
    group: 1
    stride: 1
  }
}
layer {
  name: "inception_5a/relu_5x5_reduce"
  type: "ReLU"
  bottom: "inception_5a/5x5_reduce"
  top: "inception_5a/5x5_reduce"
}
layer {
  name: "inception_5a/5x5"
  type: "Convolution"
  bottom: "inception_5a/5x5_reduce"
  top: "inception_5a/5x5"
  param {
    lr_mult: 0.25
    decay_mult: 1
  }
  param {
    lr_mult: 0.5
    decay_mult: 0
  }
  convolution_param {
    num_output: 128
    pad: 2
    kernel_size: 5
    group: 1
    stride: 1
  }
}
layer {
  name: "inception_5a/relu_5x5"
  type: "ReLU"
  bottom: "inception_5a/5x5"
  top: "inception_5a/5x5"
}
layer {
  name: "inception_5a/pool"
  type: "Pooling"
  bottom: "pool4/3x3_s2"
  top: "inception_5a/pool"
  pooling_param {
    pool: MAX
    kernel_size: 3
    stride: 1
    pad: 1
  }
}
layer {
  name: "inception_5a/pool_proj"
  type: "Convolution"
  bottom: "inception_5a/pool"
  top: "inception_5a/pool_proj"
  param {
    lr_mult: 0.25
    decay_mult: 1
  }
  param {
    lr_mult: 0.5
    decay_mult: 0
  }
  convolution_param {
    num_output: 128
    pad: 0
    kernel_size: 1
    group: 1
    stride: 1
  }
}
layer {
  name: "inception_5a/relu_pool_proj"
  type: "ReLU"
  bottom: "inception_5a/pool_proj"
  top: "inception_5a/pool_proj"
}
layer {
  name: "inception_5a/output"
  type: "Concat"
  bottom: "inception_5a/1x1"
  bottom: "inception_5a/3x3"
  bottom: "inception_5a/5x5"
  bottom: "inception_5a/pool_proj"
  top: "inception_5a/output"
}
layer {
  name: "inception_5b/1x1"
  type: "Convolution"
  bottom: "inception_5a/output"
  top: "inception_5b/1x1"
  param {
    lr_mult: 0.25
    decay_mult: 1
  }
  param {
    lr_mult: 0.5
    decay_mult: 0
  }
  convolution_param {
    num_output: 384
    pad: 0
    kernel_size: 1
    group: 1
    stride: 1
  }
}
layer {
  name: "inception_5b/relu_1x1"
  type: "ReLU"
  bottom: "inception_5b/1x1"
  top: "inception_5b/1x1"
}
layer {
  name: "inception_5b/3x3_reduce"
  type: "Convolution"
  bottom: "inception_5a/output"
  top: "inception_5b/3x3_reduce"
  param {
    lr_mult: 0.25
    decay_mult: 1
  }
  param {
    lr_mult: 0.5
    decay_mult: 0
  }
  convolution_param {
    num_output: 192
    pad: 0
    kernel_size: 1
    group: 1
    stride: 1
  }
}
layer {
  name: "inception_5b/relu_3x3_reduce"
  type: "ReLU"
  bottom: "inception_5b/3x3_reduce"
  top: "inception_5b/3x3_reduce"
}
layer {
  name: "inception_5b/3x3"
  type: "Convolution"
  bottom: "inception_5b/3x3_reduce"
  top: "inception_5b/3x3"
  param {
    lr_mult: 0.25
    decay_mult: 1
  }
  param {
    lr_mult: 0.5
    decay_mult: 0
  }
  convolution_param {
    num_output: 384
    pad: 1
    kernel_size: 3
    group: 1
    stride: 1
  }
}
layer {
  name: "inception_5b/relu_3x3"
  type: "ReLU"
  bottom: "inception_5b/3x3"
  top: "inception_5b/3x3"
}
layer {
  name: "inception_5b/5x5_reduce"
  type: "Convolution"
  bottom: "inception_5a/output"
  top: "inception_5b/5x5_reduce"
  param {
    lr_mult: 0.25
    decay_mult: 1
  }
  param {
    lr_mult: 0.5
    decay_mult: 0
  }
  convolution_param {
    num_output: 48
    pad: 0
    kernel_size: 1
    group: 1
    stride: 1
  }
}
layer {
  name: "inception_5b/relu_5x5_reduce"
  type: "ReLU"
  bottom: "inception_5b/5x5_reduce"
  top: "inception_5b/5x5_reduce"
}
layer {
  name: "inception_5b/5x5"
  type: "Convolution"
  bottom: "inception_5b/5x5_reduce"
  top: "inception_5b/5x5"
  param {
    lr_mult: 0.25
    decay_mult: 1
  }
  param {
    lr_mult: 0.5
    
I1022 15:13:39.579233 12764 layer_factory.hpp:76] Creating layer data
I1022 15:13:39.579262 12764 net.cpp:110] Creating Layer data
I1022 15:13:39.579275 12764 net.cpp:433] data -> data
I1022 15:13:39.579305 12764 net.cpp:433] data -> dir0_TL_label
I1022 15:13:39.579324 12764 net.cpp:433] data -> dir0_BR_label
…
I1022 15:13:55.759320 12764 attention_data_layer.cpp:116] num: 4000 /data1/PASCAL/VOCdevkit/VOC2007/JPEGImages/004246.jpg 3 375 500 attention data parsing... 64
I1022 15:13:56.052583 12764 attention_data_layer.cpp:116] num: 5000 /data1/PASCAL/VOCdevkit/VOC2007/JPEGImages/008076.jpg 3 375 500 attention data parsing... 192
I1022 15:13:56.055264 12764 attention_data_layer.cpp:125] Number of images  : 5011
I1022 15:13:56.055272 12764 attention_data_layer.cpp:126] Number of windows : 5011840
I1022 15:13:56.055284 12764 attention_data_layer.cpp:134] output data size: 128,3,224,224
I1022 15:13:56.055356 12764 net.cpp:155] Setting up data
I1022 15:13:56.055369 12764 net.cpp:163] Top shape: 128 3 224 224 (19267584)
I1022 15:13:56.055374 12764 net.cpp:163] Top shape: 128 (128)
I1022 15:13:56.055380 12764 net.cpp:163] Top shape: 128 (128)
I1022 15:13:56.055397 12764 net.cpp:163] Top shape: 128 (128)
I1022 15:13:56.055413 12764 net.cpp:163] Top shape: 128 (128)
I1022 15:13:56.055418 12764 net.cpp:163] Top shape: 128 (128)
I1022 15:13:56.055421 12764 net.cpp:163] Top shape: 128 (128)
I1022 15:13:56.055426 12764 net.cpp:163] Top shape: 128 (128)
I1022 15:13:56.055431 12764 net.cpp:163] Top shape: 128 (128)
I1022 15:13:56.055435 12764 net.cpp:163] Top shape: 128 (128)
I1022 15:13:56.055440 12764 net.cpp:163] Top shape: 128 (128)
I1022 15:13:56.055444 12764 net.cpp:163] Top shape: 128 (128)
I1022 15:13:56.055449 12764 net.cpp:163] Top shape: 128 (128)
I1022 15:13:56.055454 12764 net.cpp:163] Top shape: 128 (128)
I1022 15:13:56.055459 12764 net.cpp:163] Top shape: 128 (128)
I1022 15:13:56.055464 12764 net.cpp:163] Top shape: 128 (128)
I1022 15:13:56.055469 12764 net.cpp:163] Top shape: 128 (128)
I1022 15:13:56.055472 12764 net.cpp:163] Top shape: 128 (128)
I1022 15:13:56.055477 12764 net.cpp:163] Top shape: 128 (128)
I1022 15:13:56.055481 12764 net.cpp:163] Top shape: 128 (128)
I1022 15:13:56.055486 12764 net.cpp:163] Top shape: 128 (128)
I1022 15:13:56.055491 12764 net.cpp:163] Top shape: 128 (128)
I1022 15:13:56.055495 12764 net.cpp:163] Top shape: 128 (128)
I1022 15:13:56.055500 12764 net.cpp:163] Top shape: 128 (128)
I1022 15:13:56.055505 12764 net.cpp:163] Top shape: 128 (128)
I1022 15:13:56.055510 12764 net.cpp:163] Top shape: 128 (128)
I1022 15:13:56.055513 12764 net.cpp:163] Top shape: 128 (128)
I1022 15:13:56.055518 12764 net.cpp:163] Top shape: 128 (128)
I1022 15:13:56.055522 12764 net.cpp:163] Top shape: 128 (128)
I1022 15:13:56.055527 12764 net.cpp:163] Top shape: 128 (128)
I1022 15:13:56.055531 12764 net.cpp:163] Top shape: 128 (128)
I1022 15:13:56.055536 12764 net.cpp:163] Top shape: 128 (128)
I1022 15:13:56.055541 12764 net.cpp:163] Top shape: 128 (128)
I1022 15:13:56.055546 12764 net.cpp:163] Top shape: 128 (128)
I1022 15:13:56.055551 12764 net.cpp:163] Top shape: 128 (128)
I1022 15:13:56.055555 12764 net.cpp:163] Top shape: 128 (128)
I1022 15:13:56.055559 12764 net.cpp:163] Top shape: 128 (128)
I1022 15:13:56.055564 12764 net.cpp:163] Top shape: 128 (128)
I1022 15:13:56.055568 12764 net.cpp:163] Top shape: 128 (128)
I1022 15:13:56.055573 12764 net.cpp:163] Top shape: 128 (128)
I1022 15:13:56.055577 12764 net.cpp:163] Top shape: 128 (128)
I1022 15:13:56.055582 12764 net.cpp:163] Top shape: 128 (128)
I1022 15:13:56.055590 12764 layer_factory.hpp:76] Creating layer conv1/7x7_s2
I1022 15:13:56.055606 12764 net.cpp:110] Creating Layer conv1/7x7_s2
I1022 15:13:56.055613 12764 net.cpp:477] conv1/7x7_s2 <- data
I1022 15:13:56.055626 12764 net.cpp:433] conv1/7x7_s2 -> conv1/7x7_s2
I1022 15:13:56.098994 12764 net.cpp:155] Setting up conv1/7x7_s2
I1022 15:13:56.099030 12764 net.cpp:163] Top shape: 128 64 112 112 (102760448)
I1022 15:13:56.099048 12764 layer_factory.hpp:76] Creating layer conv1/relu_7x7
I1022 15:13:56.099061 12764 net.cpp:110] Creating Layer conv1/relu_7x7
I1022 15:13:56.099068 12764 net.cpp:477] conv1/relu_7x7 <- conv1/7x7_s2
I1022 15:13:56.099076 12764 net.cpp:419] conv1/relu_7x7 -> conv1/7x7_s2 (in-place)
I1022 15:13:56.099145 12764 net.cpp:155] Setting up conv1/relu_7x7
I1022 15:13:56.099154 12764 net.cpp:163] Top shape: 128 64 112 112 (102760448)
I1022 15:13:56.099159 12764 layer_factory.hpp:76] Creating layer pool1/3x3_s2
I1022 15:13:56.099169 12764 net.cpp:110] Creating Layer pool1/3x3_s2
I1022 15:13:56.099174 12764 net.cpp:477] pool1/3x3_s2 <- conv1/7x7_s2
I1022 15:13:56.099181 12764 net.cpp:433] pool1/3x3_s2 -> pool1/3x3_s2
I1022 15:13:56.099364 12764 net.cpp:155] Setting up pool1/3x3_s2
I1022 15:13:56.099377 12764 net.cpp:163] Top shape: 128 64 56 56 (25690112)
I1022 15:13:56.099383 12764 layer_factory.hpp:76] Creating layer conv2/3x3_reduce
I1022 15:13:56.099395 12764 net.cpp:110] Creating Layer conv2/3x3_reduce
I1022 15:13:56.099400 12764 net.cpp:477] conv2/3x3_reduce <- pool1/3x3_s2
I1022 15:13:56.099407 12764 net.cpp:433] conv2/3x3_reduce -> conv2/3x3_reduce
I1022 15:13:56.100157 12764 net.cpp:155] Setting up conv2/3x3_reduce
I1022 15:13:56.100180 12764 net.cpp:163] Top shape: 128 64 56 56 (25690112)
I1022 15:13:56.100198 12764 layer_factory.hpp:76] Creating layer conv2/relu_3x3_reduce
I1022 15:13:56.100206 12764 net.cpp:110] Creating Layer conv2/relu_3x3_reduce
I1022 15:13:56.100211 12764 net.cpp:477] conv2/relu_3x3_reduce <- conv2/3x3_reduce
I1022 15:13:56.100219 12764 net.cpp:419] conv2/relu_3x3_reduce -> conv2/3x3_reduce (in-place)
I1022 15:13:56.100278 12764 net.cpp:155] Setting up conv2/relu_3x3_reduce
I1022 15:13:56.100286 12764 net.cpp:163] Top shape: 128 64 56 56 (25690112)
I1022 15:13:56.100291 12764 layer_factory.hpp:76] Creating layer conv2/3x3
I1022 15:13:56.100299 12764 net.cpp:110] Creating Layer conv2/3x3
I1022 15:13:56.100304 12764 net.cpp:477] conv2/3x3 <- conv2/3x3_reduce
I1022 15:13:56.100311 12764 net.cpp:433] conv2/3x3 -> conv2/3x3
I1022 15:13:56.101100 12764 net.cpp:155] Setting up conv2/3x3
I1022 15:13:56.101116 12764 net.cpp:163] Top shape: 128 192 56 56 (77070336)
I1022 15:13:56.101127 12764 layer_factory.hpp:76] Creating layer conv2/relu_3x3
I1022 15:13:56.101135 12764 net.cpp:110] Creating Layer conv2/relu_3x3
I1022 15:13:56.101140 12764 net.cpp:477] conv2/relu_3x3 <- conv2/3x3
I1022 15:13:56.101147 12764 net.cpp:419] conv2/relu_3x3 -> conv2/3x3 (in-place)
I1022 15:13:56.101208 12764 net.cpp:155] Setting up conv2/relu_3x3
I1022 15:13:56.101217 12764 net.cpp:163] Top shape: 128 192 56 56 (77070336)
I1022 15:13:56.101222 12764 layer_factory.hpp:76] Creating layer pool2/3x3_s2
I1022 15:13:56.101230 12764 net.cpp:110] Creating Layer pool2/3x3_s2
I1022 15:13:56.101235 12764 net.cpp:477] pool2/3x3_s2 <- conv2/3x3
I1022 15:13:56.101243 12764 net.cpp:433] pool2/3x3_s2 -> pool2/3x3_s2
I1022 15:13:56.101297 12764 net.cpp:155] Setting up pool2/3x3_s2
I1022 15:13:56.101306 12764 net.cpp:163] Top shape: 128 192 28 28 (19267584)
I1022 15:13:56.101311 12764 layer_factory.hpp:76] Creating layer pool2/3x3_s2_pool2/3x3_s2_0_split
I1022 15:13:56.101318 12764 net.cpp:110] Creating Layer pool2/3x3_s2_pool2/3x3_s2_0_split
I1022 15:13:56.101322 12764 net.cpp:477] pool2/3x3_s2_pool2/3x3_s2_0_split <- pool2/3x3_s2
I1022 15:13:56.101330 12764 net.cpp:433] pool2/3x3_s2_pool2/3x3_s2_0_split -> pool2/3x3_s2_pool2/3x3_s2_0_split_0
I1022 15:13:56.101337 12764 net.cpp:433] pool2/3x3_s2_pool2/3x3_s2_0_split -> pool2/3x3_s2_pool2/3x3_s2_0_split_1
I1022 15:13:56.101344 12764 net.cpp:433] pool2/3x3_s2_pool2/3x3_s2_0_split -> pool2/3x3_s2_pool2/3x3_s2_0_split_2
I1022 15:13:56.101352 12764 net.cpp:433] pool2/3x3_s2_pool2/3x3_s2_0_split -> pool2/3x3_s2_pool2/3x3_s2_0_split_3
I1022 15:13:56.101362 12764 net.cpp:155] Setting up pool2/3x3_s2_pool2/3x3_s2_0_split
I1022 15:13:56.101368 12764 net.cpp:163] Top shape: 128 192 28 28 (19267584)
I1022 15:13:56.101373 12764 net.cpp:163] Top shape: 128 192 28 28 (19267584)
I1022 15:13:56.101377 12764 net.cpp:163] Top shape: 128 192 28 28 (19267584)
I1022 15:13:56.101382 12764 net.cpp:163] Top shape: 128 192 28 28 (19267584)
I1022 15:13:56.101387 12764 layer_factory.hpp:76] Creating layer inception_3a/1x1
I1022 15:13:56.101394 12764 net.cpp:110] Creating Layer inception_3a/1x1
I1022 15:13:56.101398 12764 net.cpp:477] inception_3a/1x1 <- pool2/3x3_s2_pool2/3x3_s2_0_split_0
I1022 15:13:56.101407 12764 net.cpp:433] inception_3a/1x1 -> inception_3a/1x1
I1022 15:13:56.102150 12764 net.cpp:155] Setting up inception_3a/1x1
I1022 15:13:56.102166 12764 net.cpp:163] Top shape: 128 64 28 28 (6422528)
I1022 15:13:56.102175 12764 layer_factory.hpp:76] Creating layer inception_3a/relu_1x1
I1022 15:13:56.102182 12764 net.cpp:110] Creating Layer inception_3a/relu_1x1
I1022 15:13:56.102187 12764 net.cpp:477] inception_3a/relu_1x1 <- inception_3a/1x1
I1022 15:13:56.102195 12764 net.cpp:419] inception_3a/relu_1x1 -> inception_3a/1x1 (in-place)
I1022 15:13:56.102368 12764 net.cpp:155] Setting up inception_3a/relu_1x1
I1022 15:13:56.102381 12764 net.cpp:163] Top shape: 128 64 28 28 (6422528)
I1022 15:13:56.102387 12764 layer_factory.hpp:76] Creating layer inception_3a/3x3_reduce
I1022 15:13:56.102401 12764 net.cpp:110] Creating Layer inception_3a/3x3_reduce
I1022 15:13:56.102412 12764 net.cpp:477] inception_3a/3x3_reduce <- pool2/3x3_s2_pool2/3x3_s2_0_split_1
I1022 15:13:56.102419 12764 net.cpp:433] inception_3a/3x3_reduce -> inception_3a/3x3_reduce
I1022 15:13:56.103157 12764 net.cpp:155] Setting up inception_3a/3x3_reduce
I1022 15:13:56.103171 12764 net.cpp:163] Top shape: 128 96 28 28 (9633792)
I1022 15:13:56.103183 12764 layer_factory.hpp:76] Creating layer inception_3a/relu_3x3_reduce
I1022 15:13:56.103189 12764 net.cpp:110] Creating Layer inception_3a/relu_3x3_reduce
I1022 15:13:56.103194 12764 net.cpp:477] inception_3a/relu_3x3_reduce <- inception_3a/3x3_reduce
I1022 15:13:56.103201 12764 net.cpp:419] inception_3a/relu_3x3_reduce -> inception_3a/3x3_reduce (in-place)
I1022 15:13:56.103257 12764 net.cpp:155] Setting up inception_3a/relu_3x3_reduce
I1022 15:13:56.103266 12764 net.cpp:163] Top shape: 128 96 28 28 (9633792)
I1022 15:13:56.103271 12764 layer_factory.hpp:76] Creating layer inception_3a/3x3
I1022 15:13:56.103278 12764 net.cpp:110] Creating Layer inception_3a/3x3
I1022 15:13:56.103283 12764 net.cpp:477] inception_3a/3x3 <- inception_3a/3x3_reduce
I1022 15:13:56.103291 12764 net.cpp:433] inception_3a/3x3 -> inception_3a/3x3
I1022 15:13:56.103677 12764 net.cpp:155] Setting up inception_3a/3x3
I1022 15:13:56.103691 12764 net.cpp:163] Top shape: 128 128 28 28 (12845056)
I1022 15:13:56.103700 12764 layer_factory.hpp:76] Creating layer inception_3a/relu_3x3
I1022 15:13:56.103708 12764 net.cpp:110] Creating Layer inception_3a/relu_3x3
I1022 15:13:56.103713 12764 net.cpp:477] inception_3a/relu_3x3 <- inception_3a/3x3
I1022 15:13:56.103719 12764 net.cpp:419] inception_3a/relu_3x3 -> inception_3a/3x3 (in-place)
I1022 15:13:56.103775 12764 net.cpp:155] Setting up inception_3a/relu_3x3
I1022 15:13:56.103782 12764 net.cpp:163] Top shape: 128 128 28 28 (12845056)
I1022 15:13:56.103787 12764 layer_factory.hpp:76] Creating layer inception_3a/5x5_reduce
I1022 15:13:56.103797 12764 net.cpp:110] Creating Layer inception_3a/5x5_reduce
I1022 15:13:56.103802 12764 net.cpp:477] inception_3a/5x5_reduce <- pool2/3x3_s2_pool2/3x3_s2_0_split_2
I1022 15:13:56.103809 12764 net.cpp:433] inception_3a/5x5_reduce -> inception_3a/5x5_reduce
I1022 15:13:56.104138 12764 net.cpp:155] Setting up inception_3a/5x5_reduce
I1022 15:13:56.104152 12764 net.cpp:163] Top shape: 128 16 28 28 (1605632)
I1022 15:13:56.104161 12764 layer_factory.hpp:76] Creating layer inception_3a/relu_5x5_reduce
I1022 15:13:56.104167 12764 net.cpp:110] Creating Layer inception_3a/relu_5x5_reduce
I1022 15:13:56.104172 12764 net.cpp:477] inception_3a/relu_5x5_reduce <- inception_3a/5x5_reduce
I1022 15:13:56.104179 12764 net.cpp:419] inception_3a/relu_5x5_reduce -> inception_3a/5x5_reduce (in-place)
I1022 15:13:56.104236 12764 net.cpp:155] Setting up inception_3a/relu_5x5_reduce
I1022 15:13:56.104244 12764 net.cpp:163] Top shape: 128 16 28 28 (1605632)
I1022 15:13:56.104249 12764 layer_factory.hpp:76] Creating layer inception_3a/5x5
I1022 15:13:56.104256 12764 net.cpp:110] Creating Layer inception_3a/5x5
I1022 15:13:56.104261 12764 net.cpp:477] inception_3a/5x5 <- inception_3a/5x5_reduce
I1022 15:13:56.104269 12764 net.cpp:433] inception_3a/5x5 -> inception_3a/5x5
I1022 15:13:56.104598 12764 net.cpp:155] Setting up inception_3a/5x5
I1022 15:13:56.104612 12764 net.cpp:163] Top shape: 128 32 28 28 (3211264)
I1022 15:13:56.104620 12764 layer_factory.hpp:76] Creating layer inception_3a/relu_5x5
I1022 15:13:56.104629 12764 net.cpp:110] Creating Layer inception_3a/relu_5x5
I1022 15:13:56.104634 12764 net.cpp:477] inception_3a/relu_5x5 <- inception_3a/5x5
I1022 15:13:56.104640 12764 net.cpp:419] inception_3a/relu_5x5 -> inception_3a/5x5 (in-place)
I1022 15:13:56.104809 12764 net.cpp:155] Setting up inception_3a/relu_5x5
I1022 15:13:56.104821 12764 net.cpp:163] Top shape: 128 32 28 28 (3211264)
I1022 15:13:56.104827 12764 layer_factory.hpp:76] Creating layer inception_3a/pool
I1022 15:13:56.104832 12764 layer_factory.cpp:60] CUDNN does not support padding or multiple tops. Using Caffe's own pooling layer.
I1022 15:13:56.104843 12764 net.cpp:110] Creating Layer inception_3a/pool
I1022 15:13:56.104853 12764 net.cpp:477] inception_3a/pool <- pool2/3x3_s2_pool2/3x3_s2_0_split_3
I1022 15:13:56.104861 12764 net.cpp:433] inception_3a/pool -> inception_3a/pool
I1022 15:13:56.104872 12764 net.cpp:155] Setting up inception_3a/pool
I1022 15:13:56.104878 12764 net.cpp:163] Top shape: 128 192 28 28 (19267584)
I1022 15:13:56.104883 12764 layer_factory.hpp:76] Creating layer inception_3a/pool_proj
I1022 15:13:56.104892 12764 net.cpp:110] Creating Layer inception_3a/pool_proj
I1022 15:13:56.104895 12764 net.cpp:477] inception_3a/pool_proj <- inception_3a/pool
I1022 15:13:56.104903 12764 net.cpp:433] inception_3a/pool_proj -> inception_3a/pool_proj
I1022 15:13:56.105234 12764 net.cpp:155] Setting up inception_3a/pool_proj
I1022 15:13:56.105248 12764 net.cpp:163] Top shape: 128 32 28 28 (3211264)
I1022 15:13:56.105259 12764 layer_factory.hpp:76] Creating layer inception_3a/relu_pool_proj
I1022 15:13:56.105267 12764 net.cpp:110] Creating Layer inception_3a/relu_pool_proj
I1022 15:13:56.105271 12764 net.cpp:477] inception_3a/relu_pool_proj <- inception_3a/pool_proj
I1022 15:13:56.105278 12764 net.cpp:419] inception_3a/relu_pool_proj -> inception_3a/pool_proj (in-place)
I1022 15:13:56.105335 12764 net.cpp:155] Setting up inception_3a/relu_pool_proj
I1022 15:13:56.105345 12764 net.cpp:163] Top shape: 128 32 28 28 (3211264)
I1022 15:13:56.105348 12764 layer_factory.hpp:76] Creating layer inception_3a/output
I1022 15:13:56.105362 12764 net.cpp:110] Creating Layer inception_3a/output
I1022 15:13:56.105370 12764 net.cpp:477] inception_3a/output <- inception_3a/1x1
I1022 15:13:56.105376 12764 net.cpp:477] inception_3a/output <- inception_3a/3x3
I1022 15:13:56.105382 12764 net.cpp:477] inception_3a/output <- inception_3a/5x5
I1022 15:13:56.105388 12764 net.cpp:477] inception_3a/output <- inception_3a/pool_proj
I1022 15:13:56.105394 12764 net.cpp:433] inception_3a/output -> inception_3a/output
I1022 15:13:56.105409 12764 net.cpp:155] Setting up inception_3a/output
I1022 15:13:56.105417 12764 net.cpp:163] Top shape: 128 256 28 28 (25690112)
I1022 15:13:56.105422 12764 layer_factory.hpp:76] Creating layer inception_3a/output_inception_3a/output_0_split
I1022 15:13:56.105427 12764 net.cpp:110] Creating Layer inception_3a/output_inception_3a/output_0_split
I1022 15:13:56.105432 12764 net.cpp:477] inception_3a/output_inception_3a/output_0_split <- inception_3a/output
I1022 15:13:56.105438 12764 net.cpp:433] inception_3a/output_inception_3a/output_0_split -> inception_3a/output_inception_3a/output_0_split_0
I1022 15:13:56.105448 12764 net.cpp:433] inception_3a/output_inception_3a/output_0_split -> inception_3a/output_inception_3a/output_0_split_1
I1022 15:13:56.105456 12764 net.cpp:433] inception_3a/output_inception_3a/output_0_split -> inception_3a/output_inception_3a/output_0_split_2
I1022 15:13:56.105464 12764 net.cpp:433] inception_3a/output_inception_3a/output_0_split -> inception_3a/output_inception_3a/output_0_split_3
I1022 15:13:56.105474 12764 net.cpp:155] Setting up inception_3a/output_inception_3a/output_0_split
I1022 15:13:56.105480 12764 net.cpp:163] Top shape: 128 256 28 28 (25690112)
I1022 15:13:56.105485 12764 net.cpp:163] Top shape: 128 256 28 28 (25690112)
I1022 15:13:56.105490 12764 net.cpp:163] Top shape: 128 256 28 28 (25690112)
I1022 15:13:56.105494 12764 net.cpp:163] Top shape: 128 256 28 28 (25690112)
I1022 15:13:56.105499 12764 layer_factory.hpp:76] Creating layer inception_3b/1x1
I1022 15:13:56.105506 12764 net.cpp:110] Creating Layer inception_3b/1x1
I1022 15:13:56.105511 12764 net.cpp:477] inception_3b/1x1 <- inception_3a/output_inception_3a/output_0_split_0
I1022 15:13:56.105520 12764 net.cpp:433] inception_3b/1x1 -> inception_3b/1x1
I1022 15:13:56.105860 12764 net.cpp:155] Setting up inception_3b/1x1
I1022 15:13:56.105875 12764 net.cpp:163] Top shape: 128 128 28 28 (12845056)
I1022 15:13:56.105882 12764 layer_factory.hpp:76] Creating layer inception_3b/relu_1x1
I1022 15:13:56.105890 12764 net.cpp:110] Creating Layer inception_3b/relu_1x1
I1022 15:13:56.105903 12764 net.cpp:477] inception_3b/relu_1x1 <- inception_3b/1x1
I1022 15:13:56.105911 12764 net.cpp:419] inception_3b/relu_1x1 -> inception_3b/1x1 (in-place)
I1022 15:13:56.105968 12764 net.cpp:155] Setting up inception_3b/relu_1x1
I1022 15:13:56.105976 12764 net.cpp:163] Top shape: 128 128 28 28 (12845056)
I1022 15:13:56.105981 12764 layer_factory.hpp:76] Creating layer inception_3b/3x3_reduce
I1022 15:13:56.105989 12764 net.cpp:110] Creating Layer inception_3b/3x3_reduce
I1022 15:13:56.105994 12764 net.cpp:477] inception_3b/3x3_reduce <- inception_3a/output_inception_3a/output_0_split_1
I1022 15:13:56.106001 12764 net.cpp:433] inception_3b/3x3_reduce -> inception_3b/3x3_reduce
I1022 15:13:56.106348 12764 net.cpp:155] Setting up inception_3b/3x3_reduce
I1022 15:13:56.106366 12764 net.cpp:163] Top shape: 128 128 28 28 (12845056)
I1022 15:13:56.106374 12764 layer_factory.hpp:76] Creating layer inception_3b/relu_3x3_reduce
I1022 15:13:56.106381 12764 net.cpp:110] Creating Layer inception_3b/relu_3x3_reduce
I1022 15:13:56.106387 12764 net.cpp:477] inception_3b/relu_3x3_reduce <- inception_3b/3x3_reduce
I1022 15:13:56.106394 12764 net.cpp:419] inception_3b/relu_3x3_reduce -> inception_3b/3x3_reduce (in-place)
I1022 15:13:56.106564 12764 net.cpp:155] Setting up inception_3b/relu_3x3_reduce
I1022 15:13:56.106578 12764 net.cpp:163] Top shape: 128 128 28 28 (12845056)
I1022 15:13:56.106585 12764 layer_factory.hpp:76] Creating layer inception_3b/3x3
I1022 15:13:56.106595 12764 net.cpp:110] Creating Layer inception_3b/3x3
I1022 15:13:56.106600 12764 net.cpp:477] inception_3b/3x3 <- inception_3b/3x3_reduce
I1022 15:13:56.106607 12764 net.cpp:433] inception_3b/3x3 -> inception_3b/3x3
I1022 15:13:56.107483 12764 net.cpp:155] Setting up inception_3b/3x3
I1022 15:13:56.107499 12764 net.cpp:163] Top shape: 128 192 28 28 (19267584)
I1022 15:13:56.107507 12764 layer_factory.hpp:76] Creating layer inception_3b/relu_3x3
I1022 15:13:56.107514 12764 net.cpp:110] Creating Layer inception_3b/relu_3x3
I1022 15:13:56.107520 12764 net.cpp:477] inception_3b/relu_3x3 <- inception_3b/3x3
I1022 15:13:56.107527 12764 net.cpp:419] inception_3b/relu_3x3 -> inception_3b/3x3 (in-place)
I1022 15:13:56.107586 12764 net.cpp:155] Setting up inception_3b/relu_3x3
I1022 15:13:56.107594 12764 net.cpp:163] Top shape: 128 192 28 28 (19267584)
I1022 15:13:56.107599 12764 layer_factory.hpp:76] Creating layer inception_3b/5x5_reduce
I1022 15:13:56.107606 12764 net.cpp:110] Creating Layer inception_3b/5x5_reduce
I1022 15:13:56.107611 12764 net.cpp:477] inception_3b/5x5_reduce <- inception_3a/output_inception_3a/output_0_split_2
I1022 15:13:56.107619 12764 net.cpp:433] inception_3b/5x5_reduce -> inception_3b/5x5_reduce
I1022 15:13:56.107956 12764 net.cpp:155] Setting up inception_3b/5x5_reduce
I1022 15:13:56.107970 12764 net.cpp:163] Top shape: 128 32 28 28 (3211264)
I1022 15:13:56.107978 12764 layer_factory.hpp:76] Creating layer inception_3b/relu_5x5_reduce
I1022 15:13:56.107987 12764 net.cpp:110] Creating Layer inception_3b/relu_5x5_reduce
I1022 15:13:56.107993 12764 net.cpp:477] inception_3b/relu_5x5_reduce <- inception_3b/5x5_reduce
I1022 15:13:56.108000 12764 net.cpp:419] inception_3b/relu_5x5_reduce -> inception_3b/5x5_reduce (in-place)
I1022 15:13:56.108055 12764 net.cpp:155] Setting up inception_3b/relu_5x5_reduce
I1022 15:13:56.108063 12764 net.cpp:163] Top shape: 128 32 28 28 (3211264)
I1022 15:13:56.108067 12764 layer_factory.hpp:76] Creating layer inception_3b/5x5
I1022 15:13:56.108075 12764 net.cpp:110] Creating Layer inception_3b/5x5
I1022 15:13:56.108080 12764 net.cpp:477] inception_3b/5x5 <- inception_3b/5x5_reduce
I1022 15:13:56.108088 12764 net.cpp:433] inception_3b/5x5 -> inception_3b/5x5
I1022 15:13:56.108875 12764 net.cpp:155] Setting up inception_3b/5x5
I1022 15:13:56.108889 12764 net.cpp:163] Top shape: 128 96 28 28 (9633792)
I1022 15:13:56.108897 12764 layer_factory.hpp:76] Creating layer inception_3b/relu_5x5
I1022 15:13:56.108906 12764 net.cpp:110] Creating Layer inception_3b/relu_5x5
I1022 15:13:56.108916 12764 net.cpp:477] inception_3b/relu_5x5 <- inception_3b/5x5
I1022 15:13:56.108928 12764 net.cpp:419] inception_3b/relu_5x5 -> inception_3b/5x5 (in-place)
I1022 15:13:56.108986 12764 net.cpp:155] Setting up inception_3b/relu_5x5
I1022 15:13:56.108994 12764 net.cpp:163] Top shape: 128 96 28 28 (9633792)
I1022 15:13:56.108999 12764 layer_factory.hpp:76] Creating layer inception_3b/pool
I1022 15:13:56.109004 12764 layer_factory.cpp:60] CUDNN does not support padding or multiple tops. Using Caffe's own pooling layer.
I1022 15:13:56.109009 12764 net.cpp:110] Creating Layer inception_3b/pool
I1022 15:13:56.109015 12764 net.cpp:477] inception_3b/pool <- inception_3a/output_inception_3a/output_0_split_3
I1022 15:13:56.109021 12764 net.cpp:433] inception_3b/pool -> inception_3b/pool
I1022 15:13:56.109032 12764 net.cpp:155] Setting up inception_3b/pool
I1022 15:13:56.109038 12764 net.cpp:163] Top shape: 128 256 28 28 (25690112)
I1022 15:13:56.109042 12764 layer_factory.hpp:76] Creating layer inception_3b/pool_proj
I1022 15:13:56.109050 12764 net.cpp:110] Creating Layer inception_3b/pool_proj
I1022 15:13:56.109055 12764 net.cpp:477] inception_3b/pool_proj <- inception_3b/pool
I1022 15:13:56.109062 12764 net.cpp:433] inception_3b/pool_proj -> inception_3b/pool_proj
I1022 15:13:56.109402 12764 net.cpp:155] Setting up inception_3b/pool_proj
I1022 15:13:56.109416 12764 net.cpp:163] Top shape: 128 64 28 28 (6422528)
I1022 15:13:56.109424 12764 layer_factory.hpp:76] Creating layer inception_3b/relu_pool_proj
I1022 15:13:56.109431 12764 net.cpp:110] Creating Layer inception_3b/relu_pool_proj
I1022 15:13:56.109436 12764 net.cpp:477] inception_3b/relu_pool_proj <- inception_3b/pool_proj
I1022 15:13:56.109443 12764 net.cpp:419] inception_3b/relu_pool_proj -> inception_3b/pool_proj (in-place)
I1022 15:13:56.109614 12764 net.cpp:155] Setting up inception_3b/relu_pool_proj
I1022 15:13:56.109627 12764 net.cpp:163] Top shape: 128 64 28 28 (6422528)
I1022 15:13:56.109632 12764 layer_factory.hpp:76] Creating layer inception_3b/output
I1022 15:13:56.109639 12764 net.cpp:110] Creating Layer inception_3b/output
I1022 15:13:56.109644 12764 net.cpp:477] inception_3b/output <- inception_3b/1x1
I1022 15:13:56.109652 12764 net.cpp:477] inception_3b/output <- inception_3b/3x3
I1022 15:13:56.109657 12764 net.cpp:477] inception_3b/output <- inception_3b/5x5
I1022 15:13:56.109663 12764 net.cpp:477] inception_3b/output <- inception_3b/pool_proj
I1022 15:13:56.109668 12764 net.cpp:433] inception_3b/output -> inception_3b/output
I1022 15:13:56.109678 12764 net.cpp:155] Setting up inception_3b/output
I1022 15:13:56.109683 12764 net.cpp:163] Top shape: 128 480 28 28 (48168960)
I1022 15:13:56.109688 12764 layer_factory.hpp:76] Creating layer pool3/3x3_s2
I1022 15:13:56.109694 12764 net.cpp:110] Creating Layer pool3/3x3_s2
I1022 15:13:56.109699 12764 net.cpp:477] pool3/3x3_s2 <- inception_3b/output
I1022 15:13:56.109705 12764 net.cpp:433] pool3/3x3_s2 -> pool3/3x3_s2
I1022 15:13:56.109762 12764 net.cpp:155] Setting up pool3/3x3_s2
I1022 15:13:56.109771 12764 net.cpp:163] Top shape: 128 480 14 14 (12042240)
I1022 15:13:56.109776 12764 layer_factory.hpp:76] Creating layer pool3/3x3_s2_pool3/3x3_s2_0_split
I1022 15:13:56.109782 12764 net.cpp:110] Creating Layer pool3/3x3_s2_pool3/3x3_s2_0_split
I1022 15:13:56.109786 12764 net.cpp:477] pool3/3x3_s2_pool3/3x3_s2_0_split <- pool3/3x3_s2
I1022 15:13:56.109792 12764 net.cpp:433] pool3/3x3_s2_pool3/3x3_s2_0_split -> pool3/3x3_s2_pool3/3x3_s2_0_split_0
I1022 15:13:56.109800 12764 net.cpp:433] pool3/3x3_s2_pool3/3x3_s2_0_split -> pool3/3x3_s2_pool3/3x3_s2_0_split_1
I1022 15:13:56.109809 12764 net.cpp:433] pool3/3x3_s2_pool3/3x3_s2_0_split -> pool3/3x3_s2_pool3/3x3_s2_0_split_2
I1022 15:13:56.109817 12764 net.cpp:433] pool3/3x3_s2_pool3/3x3_s2_0_split -> pool3/3x3_s2_pool3/3x3_s2_0_split_3
I1022 15:13:56.109827 12764 net.cpp:155] Setting up pool3/3x3_s2_pool3/3x3_s2_0_split
I1022 15:13:56.109833 12764 net.cpp:163] Top shape: 128 480 14 14 (12042240)
I1022 15:13:56.109838 12764 net.cpp:163] Top shape: 128 480 14 14 (12042240)
I1022 15:13:56.109848 12764 net.cpp:163] Top shape: 128 480 14 14 (12042240)
I1022 15:13:56.109858 12764 net.cpp:163] Top shape: 128 480 14 14 (12042240)
I1022 15:13:56.109861 12764 layer_factory.hpp:76] Creating layer inception_4a/1x1
I1022 15:13:56.109870 12764 net.cpp:110] Creating Layer inception_4a/1x1
I1022 15:13:56.109874 12764 net.cpp:477] inception_4a/1x1 <- pool3/3x3_s2_pool3/3x3_s2_0_split_0
I1022 15:13:56.109882 12764 net.cpp:433] inception_4a/1x1 -> inception_4a/1x1
I1022 15:13:56.110270 12764 net.cpp:155] Setting up inception_4a/1x1
I1022 15:13:56.110286 12764 net.cpp:163] Top shape: 128 192 14 14 (4816896)
I1022 15:13:56.110294 12764 layer_factory.hpp:76] Creating layer inception_4a/relu_1x1
I1022 15:13:56.110301 12764 net.cpp:110] Creating Layer inception_4a/relu_1x1
I1022 15:13:56.110306 12764 net.cpp:477] inception_4a/relu_1x1 <- inception_4a/1x1
I1022 15:13:56.110313 12764 net.cpp:419] inception_4a/relu_1x1 -> inception_4a/1x1 (in-place)
I1022 15:13:56.110369 12764 net.cpp:155] Setting up inception_4a/relu_1x1
I1022 15:13:56.110378 12764 net.cpp:163] Top shape: 128 192 14 14 (4816896)
I1022 15:13:56.110383 12764 layer_factory.hpp:76] Creating layer inception_4a/3x3_reduce
I1022 15:13:56.110390 12764 net.cpp:110] Creating Layer inception_4a/3x3_reduce
I1022 15:13:56.110395 12764 net.cpp:477] inception_4a/3x3_reduce <- pool3/3x3_s2_pool3/3x3_s2_0_split_1
I1022 15:13:56.110404 12764 net.cpp:433] inception_4a/3x3_reduce -> inception_4a/3x3_reduce
I1022 15:13:56.110757 12764 net.cpp:155] Setting up inception_4a/3x3_reduce
I1022 15:13:56.110771 12764 net.cpp:163] Top shape: 128 96 14 14 (2408448)
I1022 15:13:56.110785 12764 layer_factory.hpp:76] Creating layer inception_4a/relu_3x3_reduce
I1022 15:13:56.110791 12764 net.cpp:110] Creating Layer inception_4a/relu_3x3_reduce
I1022 15:13:56.110796 12764 net.cpp:477] inception_4a/relu_3x3_reduce <- inception_4a/3x3_reduce
I1022 15:13:56.110803 12764 net.cpp:419] inception_4a/relu_3x3_reduce -> inception_4a/3x3_reduce (in-place)
I1022 15:13:56.110859 12764 net.cpp:155] Setting up inception_4a/relu_3x3_reduce
I1022 15:13:56.110867 12764 net.cpp:163] Top shape: 128 96 14 14 (2408448)
I1022 15:13:56.110872 12764 layer_factory.hpp:76] Creating layer inception_4a/3x3
I1022 15:13:56.110882 12764 net.cpp:110] Creating Layer inception_4a/3x3
I1022 15:13:56.110885 12764 net.cpp:477] inception_4a/3x3 <- inception_4a/3x3_reduce
I1022 15:13:56.110893 12764 net.cpp:433] inception_4a/3x3 -> inception_4a/3x3
I1022 15:13:56.111740 12764 net.cpp:155] Setting up inception_4a/3x3
I1022 15:13:56.111758 12764 net.cpp:163] Top shape: 128 208 14 14 (5218304)
I1022 15:13:56.111768 12764 layer_factory.hpp:76] Creating layer inception_4a/relu_3x3
I1022 15:13:56.111776 12764 net.cpp:110] Creating Layer inception_4a/relu_3x3
I1022 15:13:56.111781 12764 net.cpp:477] inception_4a/relu_3x3 <- inception_4a/3x3
I1022 15:13:56.111788 12764 net.cpp:419] inception_4a/relu_3x3 -> inception_4a/3x3 (in-place)
I1022 15:13:56.111958 12764 net.cpp:155] Setting up inception_4a/relu_3x3
I1022 15:13:56.111971 12764 net.cpp:163] Top shape: 128 208 14 14 (5218304)
I1022 15:13:56.111976 12764 layer_factory.hpp:76] Creating layer inception_4a/5x5_reduce
I1022 15:13:56.111985 12764 net.cpp:110] Creating Layer inception_4a/5x5_reduce
I1022 15:13:56.111991 12764 net.cpp:477] inception_4a/5x5_reduce <- pool3/3x3_s2_pool3/3x3_s2_0_split_2
I1022 15:13:56.111999 12764 net.cpp:433] inception_4a/5x5_reduce -> inception_4a/5x5_reduce
I1022 15:13:56.112331 12764 net.cpp:155] Setting up inception_4a/5x5_reduce
I1022 15:13:56.112345 12764 net.cpp:163] Top shape: 128 16 14 14 (401408)
I1022 15:13:56.112354 12764 layer_factory.hpp:76] Creating layer inception_4a/relu_5x5_reduce
I1022 15:13:56.112360 12764 net.cpp:110] Creating Layer inception_4a/relu_5x5_reduce
I1022 15:13:56.112366 12764 net.cpp:477] inception_4a/relu_5x5_reduce <- inception_4a/5x5_reduce
I1022 15:13:56.112373 12764 net.cpp:419] inception_4a/relu_5x5_reduce -> inception_4a/5x5_reduce (in-place)
I1022 15:13:56.112429 12764 net.cpp:155] Setting up inception_4a/relu_5x5_reduce
I1022 15:13:56.112442 12764 net.cpp:163] Top shape: 128 16 14 14 (401408)
I1022 15:13:56.112453 12764 layer_factory.hpp:76] Creating layer inception_4a/5x5
I1022 15:13:56.112462 12764 net.cpp:110] Creating Layer inception_4a/5x5
I1022 15:13:56.112468 12764 net.cpp:477] inception_4a/5x5 <- inception_4a/5x5_reduce
I1022 15:13:56.112474 12764 net.cpp:433] inception_4a/5x5 -> inception_4a/5x5
I1022 15:13:56.112813 12764 net.cpp:155] Setting up inception_4a/5x5
I1022 15:13:56.112830 12764 net.cpp:163] Top shape: 128 48 14 14 (1204224)
I1022 15:13:56.112838 12764 layer_factory.hpp:76] Creating layer inception_4a/relu_5x5
I1022 15:13:56.112845 12764 net.cpp:110] Creating Layer inception_4a/relu_5x5
I1022 15:13:56.112850 12764 net.cpp:477] inception_4a/relu_5x5 <- inception_4a/5x5
I1022 15:13:56.112857 12764 net.cpp:419] inception_4a/relu_5x5 -> inception_4a/5x5 (in-place)
I1022 15:13:56.112913 12764 net.cpp:155] Setting up inception_4a/relu_5x5
I1022 15:13:56.112921 12764 net.cpp:163] Top shape: 128 48 14 14 (1204224)
I1022 15:13:56.112926 12764 layer_factory.hpp:76] Creating layer inception_4a/pool
I1022 15:13:56.112931 12764 layer_factory.cpp:60] CUDNN does not support padding or multiple tops. Using Caffe's own pooling layer.
I1022 15:13:56.112936 12764 net.cpp:110] Creating Layer inception_4a/pool
I1022 15:13:56.112942 12764 net.cpp:477] inception_4a/pool <- pool3/3x3_s2_pool3/3x3_s2_0_split_3
I1022 15:13:56.112949 12764 net.cpp:433] inception_4a/pool -> inception_4a/pool
I1022 15:13:56.112960 12764 net.cpp:155] Setting up inception_4a/pool
I1022 15:13:56.112967 12764 net.cpp:163] Top shape: 128 480 14 14 (12042240)
I1022 15:13:56.112972 12764 layer_factory.hpp:76] Creating layer inception_4a/pool_proj
I1022 15:13:56.112979 12764 net.cpp:110] Creating Layer inception_4a/pool_proj
I1022 15:13:56.112984 12764 net.cpp:477] inception_4a/pool_proj <- inception_4a/pool
I1022 15:13:56.112992 12764 net.cpp:433] inception_4a/pool_proj -> inception_4a/pool_proj
I1022 15:13:56.113339 12764 net.cpp:155] Setting up inception_4a/pool_proj
I1022 15:13:56.113353 12764 net.cpp:163] Top shape: 128 64 14 14 (1605632)
I1022 15:13:56.113361 12764 layer_factory.hpp:76] Creating layer inception_4a/relu_pool_proj
I1022 15:13:56.113368 12764 net.cpp:110] Creating Layer inception_4a/relu_pool_proj
I1022 15:13:56.113373 12764 net.cpp:477] inception_4a/relu_pool_proj <- inception_4a/pool_proj
I1022 15:13:56.113380 12764 net.cpp:419] inception_4a/relu_pool_proj -> inception_4a/pool_proj (in-place)
I1022 15:13:56.113436 12764 net.cpp:155] Setting up inception_4a/relu_pool_proj
I1022 15:13:56.113445 12764 net.cpp:163] Top shape: 128 64 14 14 (1605632)
I1022 15:13:56.113450 12764 layer_factory.hpp:76] Creating layer inception_4a/output
I1022 15:13:56.113456 12764 net.cpp:110] Creating Layer inception_4a/output
I1022 15:13:56.113461 12764 net.cpp:477] inception_4a/output <- inception_4a/1x1
I1022 15:13:56.113466 12764 net.cpp:477] inception_4a/output <- inception_4a/3x3
I1022 15:13:56.113471 12764 net.cpp:477] inception_4a/output <- inception_4a/5x5
I1022 15:13:56.113477 12764 net.cpp:477] inception_4a/output <- inception_4a/pool_proj
I1022 15:13:56.113482 12764 net.cpp:433] inception_4a/output -> inception_4a/output
I1022 15:13:56.113492 12764 net.cpp:155] Setting up inception_4a/output
I1022 15:13:56.113497 12764 net.cpp:163] Top shape: 128 512 14 14 (12845056)
I1022 15:13:56.113502 12764 layer_factory.hpp:76] Creating layer inception_4a/output_inception_4a/output_0_split
I1022 15:13:56.113508 12764 net.cpp:110] Creating Layer inception_4a/output_inception_4a/output_0_split
I1022 15:13:56.113512 12764 net.cpp:477] inception_4a/output_inception_4a/output_0_split <- inception_4a/output
I1022 15:13:56.113519 12764 net.cpp:433] inception_4a/output_inception_4a/output_0_split -> inception_4a/output_inception_4a/output_0_split_0
I1022 15:13:56.113528 12764 net.cpp:433] inception_4a/output_inception_4a/output_0_split -> inception_4a/output_inception_4a/output_0_split_1
I1022 15:13:56.113538 12764 net.cpp:433] inception_4a/output_inception_4a/output_0_split -> inception_4a/output_inception_4a/output_0_split_2
I1022 15:13:56.113556 12764 net.cpp:433] inception_4a/output_inception_4a/output_0_split -> inception_4a/output_inception_4a/output_0_split_3
I1022 15:13:56.113567 12764 net.cpp:155] Setting up inception_4a/output_inception_4a/output_0_split
I1022 15:13:56.113574 12764 net.cpp:163] Top shape: 128 512 14 14 (12845056)
I1022 15:13:56.113579 12764 net.cpp:163] Top shape: 128 512 14 14 (12845056)
I1022 15:13:56.113582 12764 net.cpp:163] Top shape: 128 512 14 14 (12845056)
I1022 15:13:56.113587 12764 net.cpp:163] Top shape: 128 512 14 14 (12845056)
I1022 15:13:56.113591 12764 layer_factory.hpp:76] Creating layer inception_4b/1x1
I1022 15:13:56.113600 12764 net.cpp:110] Creating Layer inception_4b/1x1
I1022 15:13:56.113605 12764 net.cpp:477] inception_4b/1x1 <- inception_4a/output_inception_4a/output_0_split_0
I1022 15:13:56.113611 12764 net.cpp:433] inception_4b/1x1 -> inception_4b/1x1
I1022 15:13:56.113983 12764 net.cpp:155] Setting up inception_4b/1x1
I1022 15:13:56.113997 12764 net.cpp:163] Top shape: 128 160 14 14 (4014080)
I1022 15:13:56.114017 12764 layer_factory.hpp:76] Creating layer inception_4b/relu_1x1
I1022 15:13:56.114027 12764 net.cpp:110] Creating Layer inception_4b/relu_1x1
I1022 15:13:56.114032 12764 net.cpp:477] inception_4b/relu_1x1 <- inception_4b/1x1
I1022 15:13:56.114039 12764 net.cpp:419] inception_4b/relu_1x1 -> inception_4b/1x1 (in-place)
I1022 15:13:56.114213 12764 net.cpp:155] Setting up inception_4b/relu_1x1
I1022 15:13:56.114226 12764 net.cpp:163] Top shape: 128 160 14 14 (4014080)
I1022 15:13:56.114233 12764 layer_factory.hpp:76] Creating layer inception_4b/3x3_reduce
I1022 15:13:56.114241 12764 net.cpp:110] Creating Layer inception_4b/3x3_reduce
I1022 15:13:56.114246 12764 net.cpp:477] inception_4b/3x3_reduce <- inception_4a/output_inception_4a/output_0_split_1
I1022 15:13:56.114253 12764 net.cpp:433] inception_4b/3x3_reduce -> inception_4b/3x3_reduce
I1022 15:13:56.114620 12764 net.cpp:155] Setting up inception_4b/3x3_reduce
I1022 15:13:56.114634 12764 net.cpp:163] Top shape: 128 112 14 14 (2809856)
I1022 15:13:56.114642 12764 layer_factory.hpp:76] Creating layer inception_4b/relu_3x3_reduce
I1022 15:13:56.114650 12764 net.cpp:110] Creating Layer inception_4b/relu_3x3_reduce
I1022 15:13:56.114655 12764 net.cpp:477] inception_4b/relu_3x3_reduce <- inception_4b/3x3_reduce
I1022 15:13:56.114662 12764 net.cpp:419] inception_4b/relu_3x3_reduce -> inception_4b/3x3_reduce (in-place)
I1022 15:13:56.114718 12764 net.cpp:155] Setting up inception_4b/relu_3x3_reduce
I1022 15:13:56.114728 12764 net.cpp:163] Top shape: 128 112 14 14 (2809856)
I1022 15:13:56.114734 12764 layer_factory.hpp:76] Creating layer inception_4b/3x3
I1022 15:13:56.114743 12764 net.cpp:110] Creating Layer inception_4b/3x3
I1022 15:13:56.114748 12764 net.cpp:477] inception_4b/3x3 <- inception_4b/3x3_reduce
I1022 15:13:56.114755 12764 net.cpp:433] inception_4b/3x3 -> inception_4b/3x3
I1022 15:13:56.115633 12764 net.cpp:155] Setting up inception_4b/3x3
I1022 15:13:56.115648 12764 net.cpp:163] Top shape: 128 224 14 14 (5619712)
I1022 15:13:56.115656 12764 layer_factory.hpp:76] Creating layer inception_4b/relu_3x3
I1022 15:13:56.115664 12764 net.cpp:110] Creating Layer inception_4b/relu_3x3
I1022 15:13:56.115669 12764 net.cpp:477] inception_4b/relu_3x3 <- inception_4b/3x3
I1022 15:13:56.115676 12764 net.cpp:419] inception_4b/relu_3x3 -> inception_4b/3x3 (in-place)
I1022 15:13:56.115734 12764 net.cpp:155] Setting up inception_4b/relu_3x3
I1022 15:13:56.115742 12764 net.cpp:163] Top shape: 128 224 14 14 (5619712)
I1022 15:13:56.115747 12764 layer_factory.hpp:76] Creating layer inception_4b/5x5_reduce
I1022 15:13:56.115756 12764 net.cpp:110] Creating Layer inception_4b/5x5_reduce
I1022 15:13:56.115761 12764 net.cpp:477] inception_4b/5x5_reduce <- inception_4a/output_inception_4a/output_0_split_2
I1022 15:13:56.115767 12764 net.cpp:433] inception_4b/5x5_reduce -> inception_4b/5x5_reduce
I1022 15:13:56.116111 12764 net.cpp:155] Setting up inception_4b/5x5_reduce
I1022 15:13:56.116130 12764 net.cpp:163] Top shape: 128 24 14 14 (602112)
I1022 15:13:56.116144 12764 layer_factory.hpp:76] Creating layer inception_4b/relu_5x5_reduce
I1022 15:13:56.116152 12764 net.cpp:110] Creating Layer inception_4b/relu_5x5_reduce
I1022 15:13:56.116158 12764 net.cpp:477] inception_4b/relu_5x5_reduce <- inception_4b/5x5_reduce
I1022 15:13:56.116164 12764 net.cpp:419] inception_4b/relu_5x5_reduce -> inception_4b/5x5_reduce (in-place)
I1022 15:13:56.116336 12764 net.cpp:155] Setting up inception_4b/relu_5x5_reduce
I1022 15:13:56.116349 12764 net.cpp:163] Top shape: 128 24 14 14 (602112)
I1022 15:13:56.116354 12764 layer_factory.hpp:76] Creating layer inception_4b/5x5
I1022 15:13:56.116367 12764 net.cpp:110] Creating Layer inception_4b/5x5
I1022 15:13:56.116374 12764 net.cpp:477] inception_4b/5x5 <- inception_4b/5x5_reduce
I1022 15:13:56.116380 12764 net.cpp:433] inception_4b/5x5 -> inception_4b/5x5
I1022 15:13:56.117156 12764 net.cpp:155] Setting up inception_4b/5x5
I1022 15:13:56.117171 12764 net.cpp:163] Top shape: 128 64 14 14 (1605632)
I1022 15:13:56.117179 12764 layer_factory.hpp:76] Creating layer inception_4b/relu_5x5
I1022 15:13:56.117187 12764 net.cpp:110] Creating Layer inception_4b/relu_5x5
I1022 15:13:56.117192 12764 net.cpp:477] inception_4b/relu_5x5 <- inception_4b/5x5
I1022 15:13:56.117199 12764 net.cpp:419] inception_4b/relu_5x5 -> inception_4b/5x5 (in-place)
I1022 15:13:56.117256 12764 net.cpp:155] Setting up inception_4b/relu_5x5
I1022 15:13:56.117264 12764 net.cpp:163] Top shape: 128 64 14 14 (1605632)
I1022 15:13:56.117269 12764 layer_factory.hpp:76] Creating layer inception_4b/pool
I1022 15:13:56.117274 12764 layer_factory.cpp:60] CUDNN does not support padding or multiple tops. Using Caffe's own pooling layer.
I1022 15:13:56.117280 12764 net.cpp:110] Creating Layer inception_4b/pool
I1022 15:13:56.117285 12764 net.cpp:477] inception_4b/pool <- inception_4a/output_inception_4a/output_0_split_3
I1022 15:13:56.117291 12764 net.cpp:433] inception_4b/pool -> inception_4b/pool
I1022 15:13:56.117302 12764 net.cpp:155] Setting up inception_4b/pool
I1022 15:13:56.117308 12764 net.cpp:163] Top shape: 128 512 14 14 (12845056)
I1022 15:13:56.117313 12764 layer_factory.hpp:76] Creating layer inception_4b/pool_proj
I1022 15:13:56.117321 12764 net.cpp:110] Creating Layer inception_4b/pool_proj
I1022 15:13:56.117326 12764 net.cpp:477] inception_4b/pool_proj <- inception_4b/pool
I1022 15:13:56.117332 12764 net.cpp:433] inception_4b/pool_proj -> inception_4b/pool_proj
I1022 15:13:56.117696 12764 net.cpp:155] Setting up inception_4b/pool_proj
I1022 15:13:56.117709 12764 net.cpp:163] Top shape: 128 64 14 14 (1605632)
I1022 15:13:56.117717 12764 layer_factory.hpp:76] Creating layer inception_4b/relu_pool_proj
I1022 15:13:56.117724 12764 net.cpp:110] Creating Layer inception_4b/relu_pool_proj
I1022 15:13:56.117729 12764 net.cpp:477] inception_4b/relu_pool_proj <- inception_4b/pool_proj
I1022 15:13:56.117736 12764 net.cpp:419] inception_4b/relu_pool_proj -> inception_4b/pool_proj (in-place)
I1022 15:13:56.117794 12764 net.cpp:155] Setting up inception_4b/relu_pool_proj
I1022 15:13:56.117801 12764 net.cpp:163] Top shape: 128 64 14 14 (1605632)
I1022 15:13:56.117805 12764 layer_factory.hpp:76] Creating layer inception_4b/output
I1022 15:13:56.117811 12764 net.cpp:110] Creating Layer inception_4b/output
I1022 15:13:56.117816 12764 net.cpp:477] inception_4b/output <- inception_4b/1x1
I1022 15:13:56.117822 12764 net.cpp:477] inception_4b/output <- inception_4b/3x3
I1022 15:13:56.117827 12764 net.cpp:477] inception_4b/output <- inception_4b/5x5
I1022 15:13:56.117832 12764 net.cpp:477] inception_4b/output <- inception_4b/pool_proj
I1022 15:13:56.117838 12764 net.cpp:433] inception_4b/output -> inception_4b/output
I1022 15:13:56.117847 12764 net.cpp:155] Setting up inception_4b/output
I1022 15:13:56.117852 12764 net.cpp:163] Top shape: 128 512 14 14 (12845056)
I1022 15:13:56.117857 12764 layer_factory.hpp:76] Creating layer inception_4b/output_inception_4b/output_0_split
I1022 15:13:56.117863 12764 net.cpp:110] Creating Layer inception_4b/output_inception_4b/output_0_split
I1022 15:13:56.117877 12764 net.cpp:477] inception_4b/output_inception_4b/output_0_split <- inception_4b/output
I1022 15:13:56.117885 12764 net.cpp:433] inception_4b/output_inception_4b/output_0_split -> inception_4b/output_inception_4b/output_0_split_0
I1022 15:13:56.117893 12764 net.cpp:433] inception_4b/output_inception_4b/output_0_split -> inception_4b/output_inception_4b/output_0_split_1
I1022 15:13:56.117902 12764 net.cpp:433] inception_4b/output_inception_4b/output_0_split -> inception_4b/output_inception_4b/output_0_split_2
I1022 15:13:56.117911 12764 net.cpp:433] inception_4b/output_inception_4b/output_0_split -> inception_4b/output_inception_4b/output_0_split_3
I1022 15:13:56.117921 12764 net.cpp:155] Setting up inception_4b/output_inception_4b/output_0_split
I1022 15:13:56.117928 12764 net.cpp:163] Top shape: 128 512 14 14 (12845056)
I1022 15:13:56.117933 12764 net.cpp:163] Top shape: 128 512 14 14 (12845056)
I1022 15:13:56.117936 12764 net.cpp:163] Top shape: 128 512 14 14 (12845056)
I1022 15:13:56.117941 12764 net.cpp:163] Top shape: 128 512 14 14 (12845056)
I1022 15:13:56.117945 12764 layer_factory.hpp:76] Creating layer inception_4c/1x1
I1022 15:13:56.117954 12764 net.cpp:110] Creating Layer inception_4c/1x1
I1022 15:13:56.117959 12764 net.cpp:477] inception_4c/1x1 <- inception_4b/output_inception_4b/output_0_split_0
I1022 15:13:56.117965 12764 net.cpp:433] inception_4c/1x1 -> inception_4c/1x1
I1022 15:13:56.118342 12764 net.cpp:155] Setting up inception_4c/1x1
I1022 15:13:56.118357 12764 net.cpp:163] Top shape: 128 128 14 14 (3211264)
I1022 15:13:56.118366 12764 layer_factory.hpp:76] Creating layer inception_4c/relu_1x1
I1022 15:13:56.118373 12764 net.cpp:110] Creating Layer inception_4c/relu_1x1
I1022 15:13:56.118378 12764 net.cpp:477] inception_4c/relu_1x1 <- inception_4c/1x1
I1022 15:13:56.118386 12764 net.cpp:419] inception_4c/relu_1x1 -> inception_4c/1x1 (in-place)
I1022 15:13:56.118440 12764 net.cpp:155] Setting up inception_4c/relu_1x1
I1022 15:13:56.118449 12764 net.cpp:163] Top shape: 128 128 14 14 (3211264)
I1022 15:13:56.118454 12764 layer_factory.hpp:76] Creating layer inception_4c/3x3_reduce
I1022 15:13:56.118463 12764 net.cpp:110] Creating Layer inception_4c/3x3_reduce
I1022 15:13:56.118468 12764 net.cpp:477] inception_4c/3x3_reduce <- inception_4b/output_inception_4b/output_0_split_1
I1022 15:13:56.118474 12764 net.cpp:433] inception_4c/3x3_reduce -> inception_4c/3x3_reduce
I1022 15:13:56.118836 12764 net.cpp:155] Setting up inception_4c/3x3_reduce
I1022 15:13:56.118850 12764 net.cpp:163] Top shape: 128 128 14 14 (3211264)
I1022 15:13:56.118859 12764 layer_factory.hpp:76] Creating layer inception_4c/relu_3x3_reduce
I1022 15:13:56.118865 12764 net.cpp:110] Creating Layer inception_4c/relu_3x3_reduce
I1022 15:13:56.118870 12764 net.cpp:477] inception_4c/relu_3x3_reduce <- inception_4c/3x3_reduce
I1022 15:13:56.118877 12764 net.cpp:419] inception_4c/relu_3x3_reduce -> inception_4c/3x3_reduce (in-place)
I1022 15:13:56.119050 12764 net.cpp:155] Setting up inception_4c/relu_3x3_reduce
I1022 15:13:56.119062 12764 net.cpp:163] Top shape: 128 128 14 14 (3211264)
I1022 15:13:56.119067 12764 layer_factory.hpp:76] Creating layer inception_4c/3x3
I1022 15:13:56.119076 12764 net.cpp:110] Creating Layer inception_4c/3x3
I1022 15:13:56.119081 12764 net.cpp:477] inception_4c/3x3 <- inception_4c/3x3_reduce
I1022 15:13:56.119088 12764 net.cpp:433] inception_4c/3x3 -> inception_4c/3x3
I1022 15:13:56.120026 12764 net.cpp:155] Setting up inception_4c/3x3
I1022 15:13:56.120041 12764 net.cpp:163] Top shape: 128 256 14 14 (6422528)
I1022 15:13:56.120050 12764 layer_factory.hpp:76] Creating layer inception_4c/relu_3x3
I1022 15:13:56.120057 12764 net.cpp:110] Creating Layer inception_4c/relu_3x3
I1022 15:13:56.120062 12764 net.cpp:477] inception_4c/relu_3x3 <- inception_4c/3x3
I1022 15:13:56.120069 12764 net.cpp:419] inception_4c/relu_3x3 -> inception_4c/3x3 (in-place)
I1022 15:13:56.120127 12764 net.cpp:155] Setting up inception_4c/relu_3x3
I1022 15:13:56.120141 12764 net.cpp:163] Top shape: 128 256 14 14 (6422528)
I1022 15:13:56.120151 12764 layer_factory.hpp:76] Creating layer inception_4c/5x5_reduce
I1022 15:13:56.120160 12764 net.cpp:110] Creating Layer inception_4c/5x5_reduce
I1022 15:13:56.120165 12764 net.cpp:477] inception_4c/5x5_reduce <- inception_4b/output_inception_4b/output_0_split_2
I1022 15:13:56.120172 12764 net.cpp:433] inception_4c/5x5_reduce -> inception_4c/5x5_reduce
I1022 15:13:56.120522 12764 net.cpp:155] Setting up inception_4c/5x5_reduce
I1022 15:13:56.120535 12764 net.cpp:163] Top shape: 128 24 14 14 (602112)
I1022 15:13:56.120543 12764 layer_factory.hpp:76] Creating layer inception_4c/relu_5x5_reduce
I1022 15:13:56.120550 12764 net.cpp:110] Creating Layer inception_4c/relu_5x5_reduce
I1022 15:13:56.120555 12764 net.cpp:477] inception_4c/relu_5x5_reduce <- inception_4c/5x5_reduce
I1022 15:13:56.120563 12764 net.cpp:419] inception_4c/relu_5x5_reduce -> inception_4c/5x5_reduce (in-place)
I1022 15:13:56.120617 12764 net.cpp:155] Setting up inception_4c/relu_5x5_reduce
I1022 15:13:56.120625 12764 net.cpp:163] Top shape: 128 24 14 14 (602112)
I1022 15:13:56.120630 12764 layer_factory.hpp:76] Creating layer inception_4c/5x5
I1022 15:13:56.120638 12764 net.cpp:110] Creating Layer inception_4c/5x5
I1022 15:13:56.120643 12764 net.cpp:477] inception_4c/5x5 <- inception_4c/5x5_reduce
I1022 15:13:56.120651 12764 net.cpp:433] inception_4c/5x5 -> inception_4c/5x5
I1022 15:13:56.121011 12764 net.cpp:155] Setting up inception_4c/5x5
I1022 15:13:56.121024 12764 net.cpp:163] Top shape: 128 64 14 14 (1605632)
I1022 15:13:56.121032 12764 layer_factory.hpp:76] Creating layer inception_4c/relu_5x5
I1022 15:13:56.121039 12764 net.cpp:110] Creating Layer inception_4c/relu_5x5
I1022 15:13:56.121045 12764 net.cpp:477] inception_4c/relu_5x5 <- inception_4c/5x5
I1022 15:13:56.121052 12764 net.cpp:419] inception_4c/relu_5x5 -> inception_4c/5x5 (in-place)
I1022 15:13:56.121109 12764 net.cpp:155] Setting up inception_4c/relu_5x5
I1022 15:13:56.121116 12764 net.cpp:163] Top shape: 128 64 14 14 (1605632)
I1022 15:13:56.121121 12764 layer_factory.hpp:76] Creating layer inception_4c/pool
I1022 15:13:56.121126 12764 layer_factory.cpp:60] CUDNN does not support padding or multiple tops. Using Caffe's own pooling layer.
I1022 15:13:56.121132 12764 net.cpp:110] Creating Layer inception_4c/pool
I1022 15:13:56.121137 12764 net.cpp:477] inception_4c/pool <- inception_4b/output_inception_4b/output_0_split_3
I1022 15:13:56.121145 12764 net.cpp:433] inception_4c/pool -> inception_4c/pool
I1022 15:13:56.121155 12764 net.cpp:155] Setting up inception_4c/pool
I1022 15:13:56.121160 12764 net.cpp:163] Top shape: 128 512 14 14 (12845056)
I1022 15:13:56.121165 12764 layer_factory.hpp:76] Creating layer inception_4c/pool_proj
I1022 15:13:56.121172 12764 net.cpp:110] Creating Layer inception_4c/pool_proj
I1022 15:13:56.121177 12764 net.cpp:477] inception_4c/pool_proj <- inception_4c/pool
I1022 15:13:56.121186 12764 net.cpp:433] inception_4c/pool_proj -> inception_4c/pool_proj
I1022 15:13:56.121956 12764 net.cpp:155] Setting up inception_4c/pool_proj
I1022 15:13:56.121971 12764 net.cpp:163] Top shape: 128 64 14 14 (1605632)
I1022 15:13:56.121987 12764 layer_factory.hpp:76] Creating layer inception_4c/relu_pool_proj
I1022 15:13:56.121995 12764 net.cpp:110] Creating Layer inception_4c/relu_pool_proj
I1022 15:13:56.122001 12764 net.cpp:477] inception_4c/relu_pool_proj <- inception_4c/pool_proj
I1022 15:13:56.122012 12764 net.cpp:419] inception_4c/relu_pool_proj -> inception_4c/pool_proj (in-place)
I1022 15:13:56.122194 12764 net.cpp:155] Setting up inception_4c/relu_pool_proj
I1022 15:13:56.122206 12764 net.cpp:163] Top shape: 128 64 14 14 (1605632)
I1022 15:13:56.122212 12764 layer_factory.hpp:76] Creating layer inception_4c/output
I1022 15:13:56.122220 12764 net.cpp:110] Creating Layer inception_4c/output
I1022 15:13:56.122225 12764 net.cpp:477] inception_4c/output <- inception_4c/1x1
I1022 15:13:56.122231 12764 net.cpp:477] inception_4c/output <- inception_4c/3x3
I1022 15:13:56.122236 12764 net.cpp:477] inception_4c/output <- inception_4c/5x5
I1022 15:13:56.122251 12764 net.cpp:477] inception_4c/output <- inception_4c/pool_proj
I1022 15:13:56.122258 12764 net.cpp:433] inception_4c/output -> inception_4c/output
I1022 15:13:56.122269 12764 net.cpp:155] Setting up inception_4c/output
I1022 15:13:56.122277 12764 net.cpp:163] Top shape: 128 512 14 14 (12845056)
I1022 15:13:56.122280 12764 layer_factory.hpp:76] Creating layer inception_4c/output_inception_4c/output_0_split
I1022 15:13:56.122287 12764 net.cpp:110] Creating Layer inception_4c/output_inception_4c/output_0_split
I1022 15:13:56.122292 12764 net.cpp:477] inception_4c/output_inception_4c/output_0_split <- inception_4c/output
I1022 15:13:56.122299 12764 net.cpp:433] inception_4c/output_inception_4c/output_0_split -> inception_4c/output_inception_4c/output_0_split_0
I1022 15:13:56.122308 12764 net.cpp:433] inception_4c/output_inception_4c/output_0_split -> inception_4c/output_inception_4c/output_0_split_1
I1022 15:13:56.122316 12764 net.cpp:433] inception_4c/output_inception_4c/output_0_split -> inception_4c/output_inception_4c/output_0_split_2
I1022 15:13:56.122325 12764 net.cpp:433] inception_4c/output_inception_4c/output_0_split -> inception_4c/output_inception_4c/output_0_split_3
I1022 15:13:56.122335 12764 net.cpp:155] Setting up inception_4c/output_inception_4c/output_0_split
I1022 15:13:56.122341 12764 net.cpp:163] Top shape: 128 512 14 14 (12845056)
I1022 15:13:56.122346 12764 net.cpp:163] Top shape: 128 512 14 14 (12845056)
I1022 15:13:56.122350 12764 net.cpp:163] Top shape: 128 512 14 14 (12845056)
I1022 15:13:56.122355 12764 net.cpp:163] Top shape: 128 512 14 14 (12845056)
I1022 15:13:56.122359 12764 layer_factory.hpp:76] Creating layer inception_4d/1x1
I1022 15:13:56.122367 12764 net.cpp:110] Creating Layer inception_4d/1x1
I1022 15:13:56.122372 12764 net.cpp:477] inception_4d/1x1 <- inception_4c/output_inception_4c/output_0_split_0
I1022 15:13:56.122380 12764 net.cpp:433] inception_4d/1x1 -> inception_4d/1x1
I1022 15:13:56.122752 12764 net.cpp:155] Setting up inception_4d/1x1
I1022 15:13:56.122766 12764 net.cpp:163] Top shape: 128 112 14 14 (2809856)
I1022 15:13:56.122776 12764 layer_factory.hpp:76] Creating layer inception_4d/relu_1x1
I1022 15:13:56.122782 12764 net.cpp:110] Creating Layer inception_4d/relu_1x1
I1022 15:13:56.122787 12764 net.cpp:477] inception_4d/relu_1x1 <- inception_4d/1x1
I1022 15:13:56.122794 12764 net.cpp:419] inception_4d/relu_1x1 -> inception_4d/1x1 (in-place)
I1022 15:13:56.122851 12764 net.cpp:155] Setting up inception_4d/relu_1x1
I1022 15:13:56.122859 12764 net.cpp:163] Top shape: 128 112 14 14 (2809856)
I1022 15:13:56.122864 12764 layer_factory.hpp:76] Creating layer inception_4d/3x3_reduce
I1022 15:13:56.122872 12764 net.cpp:110] Creating Layer inception_4d/3x3_reduce
I1022 15:13:56.122877 12764 net.cpp:477] inception_4d/3x3_reduce <- inception_4c/output_inception_4c/output_0_split_1
I1022 15:13:56.122884 12764 net.cpp:433] inception_4d/3x3_reduce -> inception_4d/3x3_reduce
I1022 15:13:56.123265 12764 net.cpp:155] Setting up inception_4d/3x3_reduce
I1022 15:13:56.123280 12764 net.cpp:163] Top shape: 128 144 14 14 (3612672)
I1022 15:13:56.123287 12764 layer_factory.hpp:76] Creating layer inception_4d/relu_3x3_reduce
I1022 15:13:56.123294 12764 net.cpp:110] Creating Layer inception_4d/relu_3x3_reduce
I1022 15:13:56.123301 12764 net.cpp:477] inception_4d/relu_3x3_reduce <- inception_4d/3x3_reduce
I1022 15:13:56.123307 12764 net.cpp:419] inception_4d/relu_3x3_reduce -> inception_4d/3x3_reduce (in-place)
I1022 15:13:56.123364 12764 net.cpp:155] Setting up inception_4d/relu_3x3_reduce
I1022 15:13:56.123373 12764 net.cpp:163] Top shape: 128 144 14 14 (3612672)
I1022 15:13:56.123378 12764 layer_factory.hpp:76] Creating layer inception_4d/3x3
I1022 15:13:56.123385 12764 net.cpp:110] Creating Layer inception_4d/3x3
I1022 15:13:56.123389 12764 net.cpp:477] inception_4d/3x3 <- inception_4d/3x3_reduce
I1022 15:13:56.123399 12764 net.cpp:433] inception_4d/3x3 -> inception_4d/3x3
I1022 15:13:56.124459 12764 net.cpp:155] Setting up inception_4d/3x3
I1022 15:13:56.124482 12764 net.cpp:163] Top shape: 128 288 14 14 (7225344)
I1022 15:13:56.124496 12764 layer_factory.hpp:76] Creating layer inception_4d/relu_3x3
I1022 15:13:56.124505 12764 net.cpp:110] Creating Layer inception_4d/relu_3x3
I1022 15:13:56.124511 12764 net.cpp:477] inception_4d/relu_3x3 <- inception_4d/3x3
I1022 15:13:56.124517 12764 net.cpp:419] inception_4d/relu_3x3 -> inception_4d/3x3 (in-place)
I1022 15:13:56.124574 12764 net.cpp:155] Setting up inception_4d/relu_3x3
I1022 15:13:56.124583 12764 net.cpp:163] Top shape: 128 288 14 14 (7225344)
I1022 15:13:56.124588 12764 layer_factory.hpp:76] Creating layer inception_4d/5x5_reduce
I1022 15:13:56.124595 12764 net.cpp:110] Creating Layer inception_4d/5x5_reduce
I1022 15:13:56.124600 12764 net.cpp:477] inception_4d/5x5_reduce <- inception_4c/output_inception_4c/output_0_split_2
I1022 15:13:56.124608 12764 net.cpp:433] inception_4d/5x5_reduce -> inception_4d/5x5_reduce
I1022 15:13:56.124956 12764 net.cpp:155] Setting up inception_4d/5x5_reduce
I1022 15:13:56.124970 12764 net.cpp:163] Top shape: 128 32 14 14 (802816)
I1022 15:13:56.124979 12764 layer_factory.hpp:76] Creating layer inception_4d/relu_5x5_reduce
I1022 15:13:56.124985 12764 net.cpp:110] Creating Layer inception_4d/relu_5x5_reduce
I1022 15:13:56.124990 12764 net.cpp:477] inception_4d/relu_5x5_reduce <- inception_4d/5x5_reduce
I1022 15:13:56.124997 12764 net.cpp:419] inception_4d/relu_5x5_reduce -> inception_4d/5x5_reduce (in-place)
I1022 15:13:56.125174 12764 net.cpp:155] Setting up inception_4d/relu_5x5_reduce
I1022 15:13:56.125186 12764 net.cpp:163] Top shape: 128 32 14 14 (802816)
I1022 15:13:56.125191 12764 layer_factory.hpp:76] Creating layer inception_4d/5x5
I1022 15:13:56.125200 12764 net.cpp:110] Creating Layer inception_4d/5x5
I1022 15:13:56.125206 12764 net.cpp:477] inception_4d/5x5 <- inception_4d/5x5_reduce
I1022 15:13:56.125213 12764 net.cpp:433] inception_4d/5x5 -> inception_4d/5x5
I1022 15:13:56.125576 12764 net.cpp:155] Setting up inception_4d/5x5
I1022 15:13:56.125589 12764 net.cpp:163] Top shape: 128 64 14 14 (1605632)
I1022 15:13:56.125597 12764 layer_factory.hpp:76] Creating layer inception_4d/relu_5x5
I1022 15:13:56.125604 12764 net.cpp:110] Creating Layer inception_4d/relu_5x5
I1022 15:13:56.125610 12764 net.cpp:477] inception_4d/relu_5x5 <- inception_4d/5x5
I1022 15:13:56.125617 12764 net.cpp:419] inception_4d/relu_5x5 -> inception_4d/5x5 (in-place)
I1022 15:13:56.125674 12764 net.cpp:155] Setting up inception_4d/relu_5x5
I1022 15:13:56.125682 12764 net.cpp:163] Top shape: 128 64 14 14 (1605632)
I1022 15:13:56.125687 12764 layer_factory.hpp:76] Creating layer inception_4d/pool
I1022 15:13:56.125692 12764 layer_factory.cpp:60] CUDNN does not support padding or multiple tops. Using Caffe's own pooling layer.
I1022 15:13:56.125697 12764 net.cpp:110] Creating Layer inception_4d/pool
I1022 15:13:56.125702 12764 net.cpp:477] inception_4d/pool <- inception_4c/output_inception_4c/output_0_split_3
I1022 15:13:56.125710 12764 net.cpp:433] inception_4d/pool -> inception_4d/pool
I1022 15:13:56.125720 12764 net.cpp:155] Setting up inception_4d/pool
I1022 15:13:56.125725 12764 net.cpp:163] Top shape: 128 512 14 14 (12845056)
I1022 15:13:56.125730 12764 layer_factory.hpp:76] Creating layer inception_4d/pool_proj
I1022 15:13:56.125737 12764 net.cpp:110] Creating Layer inception_4d/pool_proj
I1022 15:13:56.125742 12764 net.cpp:477] inception_4d/pool_proj <- inception_4d/pool
I1022 15:13:56.125749 12764 net.cpp:433] inception_4d/pool_proj -> inception_4d/pool_proj
I1022 15:13:56.126116 12764 net.cpp:155] Setting up inception_4d/pool_proj
I1022 15:13:56.126132 12764 net.cpp:163] Top shape: 128 64 14 14 (1605632)
I1022 15:13:56.126140 12764 layer_factory.hpp:76] Creating layer inception_4d/relu_pool_proj
I1022 15:13:56.126147 12764 net.cpp:110] Creating Layer inception_4d/relu_pool_proj
I1022 15:13:56.126152 12764 net.cpp:477] inception_4d/relu_pool_proj <- inception_4d/pool_proj
I1022 15:13:56.126159 12764 net.cpp:419] inception_4d/relu_pool_proj -> inception_4d/pool_proj (in-place)
I1022 15:13:56.126221 12764 net.cpp:155] Setting up inception_4d/relu_pool_proj
I1022 15:13:56.126235 12764 net.cpp:163] Top shape: 128 64 14 14 (1605632)
I1022 15:13:56.126240 12764 layer_factory.hpp:76] Creating layer inception_4d/output
I1022 15:13:56.126247 12764 net.cpp:110] Creating Layer inception_4d/output
I1022 15:13:56.126252 12764 net.cpp:477] inception_4d/output <- inception_4d/1x1
I1022 15:13:56.126257 12764 net.cpp:477] inception_4d/output <- inception_4d/3x3
I1022 15:13:56.126263 12764 net.cpp:477] inception_4d/output <- inception_4d/5x5
I1022 15:13:56.126268 12764 net.cpp:477] inception_4d/output <- inception_4d/pool_proj
I1022 15:13:56.126274 12764 net.cpp:433] inception_4d/output -> inception_4d/output
I1022 15:13:56.126283 12764 net.cpp:155] Setting up inception_4d/output
I1022 15:13:56.126288 12764 net.cpp:163] Top shape: 128 528 14 14 (13246464)
I1022 15:13:56.126293 12764 layer_factory.hpp:76] Creating layer inception_4d/output_inception_4d/output_0_split
I1022 15:13:56.126299 12764 net.cpp:110] Creating Layer inception_4d/output_inception_4d/output_0_split
I1022 15:13:56.126303 12764 net.cpp:477] inception_4d/output_inception_4d/output_0_split <- inception_4d/output
I1022 15:13:56.126310 12764 net.cpp:433] inception_4d/output_inception_4d/output_0_split -> inception_4d/output_inception_4d/output_0_split_0
I1022 15:13:56.126319 12764 net.cpp:433] inception_4d/output_inception_4d/output_0_split -> inception_4d/output_inception_4d/output_0_split_1
I1022 15:13:56.126327 12764 net.cpp:433] inception_4d/output_inception_4d/output_0_split -> inception_4d/output_inception_4d/output_0_split_2
I1022 15:13:56.126337 12764 net.cpp:433] inception_4d/output_inception_4d/output_0_split -> inception_4d/output_inception_4d/output_0_split_3
I1022 15:13:56.126346 12764 net.cpp:155] Setting up inception_4d/output_inception_4d/output_0_split
I1022 15:13:56.126351 12764 net.cpp:163] Top shape: 128 528 14 14 (13246464)
I1022 15:13:56.126356 12764 net.cpp:163] Top shape: 128 528 14 14 (13246464)
I1022 15:13:56.126361 12764 net.cpp:163] Top shape: 128 528 14 14 (13246464)
I1022 15:13:56.126366 12764 net.cpp:163] Top shape: 128 528 14 14 (13246464)
I1022 15:13:56.126370 12764 layer_factory.hpp:76] Creating layer inception_4e/1x1
I1022 15:13:56.126379 12764 net.cpp:110] Creating Layer inception_4e/1x1
I1022 15:13:56.126382 12764 net.cpp:477] inception_4e/1x1 <- inception_4d/output_inception_4d/output_0_split_0
I1022 15:13:56.126389 12764 net.cpp:433] inception_4e/1x1 -> inception_4e/1x1
I1022 15:13:56.127204 12764 net.cpp:155] Setting up inception_4e/1x1
I1022 15:13:56.127220 12764 net.cpp:163] Top shape: 128 256 14 14 (6422528)
I1022 15:13:56.127229 12764 layer_factory.hpp:76] Creating layer inception_4e/relu_1x1
I1022 15:13:56.127236 12764 net.cpp:110] Creating Layer inception_4e/relu_1x1
I1022 15:13:56.127243 12764 net.cpp:477] inception_4e/relu_1x1 <- inception_4e/1x1
I1022 15:13:56.127249 12764 net.cpp:419] inception_4e/relu_1x1 -> inception_4e/1x1 (in-place)
I1022 15:13:56.127424 12764 net.cpp:155] Setting up inception_4e/relu_1x1
I1022 15:13:56.127436 12764 net.cpp:163] Top shape: 128 256 14 14 (6422528)
I1022 15:13:56.127441 12764 layer_factory.hpp:76] Creating layer inception_4e/3x3_reduce
I1022 15:13:56.127450 12764 net.cpp:110] Creating Layer inception_4e/3x3_reduce
I1022 15:13:56.127455 12764 net.cpp:477] inception_4e/3x3_reduce <- inception_4d/output_inception_4d/output_0_split_1
I1022 15:13:56.127463 12764 net.cpp:433] inception_4e/3x3_reduce -> inception_4e/3x3_reduce
I1022 15:13:56.127842 12764 net.cpp:155] Setting up inception_4e/3x3_reduce
I1022 15:13:56.127856 12764 net.cpp:163] Top shape: 128 160 14 14 (4014080)
I1022 15:13:56.127864 12764 layer_factory.hpp:76] Creating layer inception_4e/relu_3x3_reduce
I1022 15:13:56.127871 12764 net.cpp:110] Creating Layer inception_4e/relu_3x3_reduce
I1022 15:13:56.127876 12764 net.cpp:477] inception_4e/relu_3x3_reduce <- inception_4e/3x3_reduce
I1022 15:13:56.127883 12764 net.cpp:419] inception_4e/relu_3x3_reduce -> inception_4e/3x3_reduce (in-place)
I1022 15:13:56.127946 12764 net.cpp:155] Setting up inception_4e/relu_3x3_reduce
I1022 15:13:56.127960 12764 net.cpp:163] Top shape: 128 160 14 14 (4014080)
I1022 15:13:56.127965 12764 layer_factory.hpp:76] Creating layer inception_4e/3x3
I1022 15:13:56.127974 12764 net.cpp:110] Creating Layer inception_4e/3x3
I1022 15:13:56.127979 12764 net.cpp:477] inception_4e/3x3 <- inception_4e/3x3_reduce
I1022 15:13:56.127985 12764 net.cpp:433] inception_4e/3x3 -> inception_4e/3x3
I1022 15:13:56.129151 12764 net.cpp:155] Setting up inception_4e/3x3
I1022 15:13:56.129168 12764 net.cpp:163] Top shape: 128 320 14 14 (8028160)
I1022 15:13:56.129176 12764 layer_factory.hpp:76] Creating layer inception_4e/relu_3x3
I1022 15:13:56.129184 12764 net.cpp:110] Creating Layer inception_4e/relu_3x3
I1022 15:13:56.129189 12764 net.cpp:477] inception_4e/relu_3x3 <- inception_4e/3x3
I1022 15:13:56.129196 12764 net.cpp:419] inception_4e/relu_3x3 -> inception_4e/3x3 (in-place)
I1022 15:13:56.129256 12764 net.cpp:155] Setting up inception_4e/relu_3x3
I1022 15:13:56.129263 12764 net.cpp:163] Top shape: 128 320 14 14 (8028160)
I1022 15:13:56.129268 12764 layer_factory.hpp:76] Creating layer inception_4e/5x5_reduce
I1022 15:13:56.129277 12764 net.cpp:110] Creating Layer inception_4e/5x5_reduce
I1022 15:13:56.129282 12764 net.cpp:477] inception_4e/5x5_reduce <- inception_4d/output_inception_4d/output_0_split_2
I1022 15:13:56.129289 12764 net.cpp:433] inception_4e/5x5_reduce -> inception_4e/5x5_reduce
I1022 15:13:56.129637 12764 net.cpp:155] Setting up inception_4e/5x5_reduce
I1022 15:13:56.129650 12764 net.cpp:163] Top shape: 128 32 14 14 (802816)
I1022 15:13:56.129658 12764 layer_factory.hpp:76] Creating layer inception_4e/relu_5x5_reduce
I1022 15:13:56.129665 12764 net.cpp:110] Creating Layer inception_4e/relu_5x5_reduce
I1022 15:13:56.129670 12764 net.cpp:477] inception_4e/relu_5x5_reduce <- inception_4e/5x5_reduce
I1022 15:13:56.129678 12764 net.cpp:419] inception_4e/relu_5x5_reduce -> inception_4e/5x5_reduce (in-place)
I1022 15:13:56.129734 12764 net.cpp:155] Setting up inception_4e/relu_5x5_reduce
I1022 15:13:56.129742 12764 net.cpp:163] Top shape: 128 32 14 14 (802816)
I1022 15:13:56.129746 12764 layer_factory.hpp:76] Creating layer inception_4e/5x5
I1022 15:13:56.129755 12764 net.cpp:110] Creating Layer inception_4e/5x5
I1022 15:13:56.129760 12764 net.cpp:477] inception_4e/5x5 <- inception_4e/5x5_reduce
I1022 15:13:56.129766 12764 net.cpp:433] inception_4e/5x5 -> inception_4e/5x5
I1022 15:13:56.130590 12764 net.cpp:155] Setting up inception_4e/5x5
I1022 15:13:56.130607 12764 net.cpp:163] Top shape: 128 128 14 14 (3211264)
I1022 15:13:56.130616 12764 layer_factory.hpp:76] Creating layer inception_4e/relu_5x5
I1022 15:13:56.130623 12764 net.cpp:110] Creating Layer inception_4e/relu_5x5
I1022 15:13:56.130630 12764 net.cpp:477] inception_4e/relu_5x5 <- inception_4e/5x5
I1022 15:13:56.130636 12764 net.cpp:419] inception_4e/relu_5x5 -> inception_4e/5x5 (in-place)
I1022 15:13:56.130810 12764 net.cpp:155] Setting up inception_4e/relu_5x5
I1022 15:13:56.130823 12764 net.cpp:163] Top shape: 128 128 14 14 (3211264)
I1022 15:13:56.130828 12764 layer_factory.hpp:76] Creating layer inception_4e/pool
I1022 15:13:56.130833 12764 layer_factory.cpp:60] CUDNN does not support padding or multiple tops. Using Caffe's own pooling layer.
I1022 15:13:56.130839 12764 net.cpp:110] Creating Layer inception_4e/pool
I1022 15:13:56.130846 12764 net.cpp:477] inception_4e/pool <- inception_4d/output_inception_4d/output_0_split_3
I1022 15:13:56.130852 12764 net.cpp:433] inception_4e/pool -> inception_4e/pool
I1022 15:13:56.130863 12764 net.cpp:155] Setting up inception_4e/pool
I1022 15:13:56.130869 12764 net.cpp:163] Top shape: 128 528 14 14 (13246464)
I1022 15:13:56.130874 12764 layer_factory.hpp:76] Creating layer inception_4e/pool_proj
I1022 15:13:56.130882 12764 net.cpp:110] Creating Layer inception_4e/pool_proj
I1022 15:13:56.130887 12764 net.cpp:477] inception_4e/pool_proj <- inception_4e/pool
I1022 15:13:56.130894 12764 net.cpp:433] inception_4e/pool_proj -> inception_4e/pool_proj
I1022 15:13:56.131273 12764 net.cpp:155] Setting up inception_4e/pool_proj
I1022 15:13:56.131294 12764 net.cpp:163] Top shape: 128 128 14 14 (3211264)
I1022 15:13:56.131302 12764 layer_factory.hpp:76] Creating layer inception_4e/relu_pool_proj
I1022 15:13:56.131309 12764 net.cpp:110] Creating Layer inception_4e/relu_pool_proj
I1022 15:13:56.131315 12764 net.cpp:477] inception_4e/relu_pool_proj <- inception_4e/pool_proj
I1022 15:13:56.131322 12764 net.cpp:419] inception_4e/relu_pool_proj -> inception_4e/pool_proj (in-place)
I1022 15:13:56.131379 12764 net.cpp:155] Setting up inception_4e/relu_pool_proj
I1022 15:13:56.131387 12764 net.cpp:163] Top shape: 128 128 14 14 (3211264)
I1022 15:13:56.131392 12764 layer_factory.hpp:76] Creating layer inception_4e/output
I1022 15:13:56.131398 12764 net.cpp:110] Creating Layer inception_4e/output
I1022 15:13:56.131403 12764 net.cpp:477] inception_4e/output <- inception_4e/1x1
I1022 15:13:56.131409 12764 net.cpp:477] inception_4e/output <- inception_4e/3x3
I1022 15:13:56.131414 12764 net.cpp:477] inception_4e/output <- inception_4e/5x5
I1022 15:13:56.131420 12764 net.cpp:477] inception_4e/output <- inception_4e/pool_proj
I1022 15:13:56.131425 12764 net.cpp:433] inception_4e/output -> inception_4e/output
I1022 15:13:56.131434 12764 net.cpp:155] Setting up inception_4e/output
I1022 15:13:56.131440 12764 net.cpp:163] Top shape: 128 832 14 14 (20873216)
I1022 15:13:56.131444 12764 layer_factory.hpp:76] Creating layer pool4/3x3_s2
I1022 15:13:56.131450 12764 net.cpp:110] Creating Layer pool4/3x3_s2
I1022 15:13:56.131455 12764 net.cpp:477] pool4/3x3_s2 <- inception_4e/output
I1022 15:13:56.131463 12764 net.cpp:433] pool4/3x3_s2 -> pool4/3x3_s2
I1022 15:13:56.131518 12764 net.cpp:155] Setting up pool4/3x3_s2
I1022 15:13:56.131526 12764 net.cpp:163] Top shape: 128 832 7 7 (5218304)
I1022 15:13:56.131531 12764 layer_factory.hpp:76] Creating layer pool4/3x3_s2_pool4/3x3_s2_0_split
I1022 15:13:56.131537 12764 net.cpp:110] Creating Layer pool4/3x3_s2_pool4/3x3_s2_0_split
I1022 15:13:56.131541 12764 net.cpp:477] pool4/3x3_s2_pool4/3x3_s2_0_split <- pool4/3x3_s2
I1022 15:13:56.131548 12764 net.cpp:433] pool4/3x3_s2_pool4/3x3_s2_0_split -> pool4/3x3_s2_pool4/3x3_s2_0_split_0
I1022 15:13:56.131556 12764 net.cpp:433] pool4/3x3_s2_pool4/3x3_s2_0_split -> pool4/3x3_s2_pool4/3x3_s2_0_split_1
I1022 15:13:56.131564 12764 net.cpp:433] pool4/3x3_s2_pool4/3x3_s2_0_split -> pool4/3x3_s2_pool4/3x3_s2_0_split_2
I1022 15:13:56.131572 12764 net.cpp:433] pool4/3x3_s2_pool4/3x3_s2_0_split -> pool4/3x3_s2_pool4/3x3_s2_0_split_3
I1022 15:13:56.131582 12764 net.cpp:155] Setting up pool4/3x3_s2_pool4/3x3_s2_0_split
I1022 15:13:56.131587 12764 net.cpp:163] Top shape: 128 832 7 7 (5218304)
I1022 15:13:56.131592 12764 net.cpp:163] Top shape: 128 832 7 7 (5218304)
I1022 15:13:56.131597 12764 net.cpp:163] Top shape: 128 832 7 7 (5218304)
I1022 15:13:56.131602 12764 net.cpp:163] Top shape: 128 832 7 7 (5218304)
I1022 15:13:56.131605 12764 layer_factory.hpp:76] Creating layer inception_5a/1x1
I1022 15:13:56.131613 12764 net.cpp:110] Creating Layer inception_5a/1x1
I1022 15:13:56.131618 12764 net.cpp:477] inception_5a/1x1 <- pool4/3x3_s2_pool4/3x3_s2_0_split_0
I1022 15:13:56.131625 12764 net.cpp:433] inception_5a/1x1 -> inception_5a/1x1
I1022 15:13:56.132499 12764 net.cpp:155] Setting up inception_5a/1x1
I1022 15:13:56.132514 12764 net.cpp:163] Top shape: 128 256 7 7 (1605632)
I1022 15:13:56.132522 12764 layer_factory.hpp:76] Creating layer inception_5a/relu_1x1
I1022 15:13:56.132530 12764 net.cpp:110] Creating Layer inception_5a/relu_1x1
I1022 15:13:56.132535 12764 net.cpp:477] inception_5a/relu_1x1 <- inception_5a/1x1
I1022 15:13:56.132542 12764 net.cpp:419] inception_5a/relu_1x1 -> inception_5a/1x1 (in-place)
I1022 15:13:56.132598 12764 net.cpp:155] Setting up inception_5a/relu_1x1
I1022 15:13:56.132606 12764 net.cpp:163] Top shape: 128 256 7 7 (1605632)
I1022 15:13:56.132611 12764 layer_factory.hpp:76] Creating layer inception_5a/3x3_reduce
I1022 15:13:56.132619 12764 net.cpp:110] Creating Layer inception_5a/3x3_reduce
I1022 15:13:56.132628 12764 net.cpp:477] inception_5a/3x3_reduce <- pool4/3x3_s2_pool4/3x3_s2_0_split_1
I1022 15:13:56.132642 12764 net.cpp:433] inception_5a/3x3_reduce -> inception_5a/3x3_reduce
I1022 15:13:56.133466 12764 net.cpp:155] Setting up inception_5a/3x3_reduce
I1022 15:13:56.133481 12764 net.cpp:163] Top shape: 128 160 7 7 (1003520)
I1022 15:13:56.133489 12764 layer_factory.hpp:76] Creating layer inception_5a/relu_3x3_reduce
I1022 15:13:56.133496 12764 net.cpp:110] Creating Layer inception_5a/relu_3x3_reduce
I1022 15:13:56.133502 12764 net.cpp:477] inception_5a/relu_3x3_reduce <- inception_5a/3x3_reduce
I1022 15:13:56.133508 12764 net.cpp:419] inception_5a/relu_3x3_reduce -> inception_5a/3x3_reduce (in-place)
I1022 15:13:56.133685 12764 net.cpp:155] Setting up inception_5a/relu_3x3_reduce
I1022 15:13:56.133698 12764 net.cpp:163] Top shape: 128 160 7 7 (1003520)
I1022 15:13:56.133704 12764 layer_factory.hpp:76] Creating layer inception_5a/3x3
I1022 15:13:56.133713 12764 net.cpp:110] Creating Layer inception_5a/3x3
I1022 15:13:56.133719 12764 net.cpp:477] inception_5a/3x3 <- inception_5a/3x3_reduce
I1022 15:13:56.133726 12764 net.cpp:433] inception_5a/3x3 -> inception_5a/3x3
I1022 15:13:56.134928 12764 net.cpp:155] Setting up inception_5a/3x3
I1022 15:13:56.134944 12764 net.cpp:163] Top shape: 128 320 7 7 (2007040)
I1022 15:13:56.134953 12764 layer_factory.hpp:76] Creating layer inception_5a/relu_3x3
I1022 15:13:56.134960 12764 net.cpp:110] Creating Layer inception_5a/relu_3x3
I1022 15:13:56.134965 12764 net.cpp:477] inception_5a/relu_3x3 <- inception_5a/3x3
I1022 15:13:56.134974 12764 net.cpp:419] inception_5a/relu_3x3 -> inception_5a/3x3 (in-place)
I1022 15:13:56.135032 12764 net.cpp:155] Setting up inception_5a/relu_3x3
I1022 15:13:56.135040 12764 net.cpp:163] Top shape: 128 320 7 7 (2007040)
I1022 15:13:56.135046 12764 layer_factory.hpp:76] Creating layer inception_5a/5x5_reduce
I1022 15:13:56.135053 12764 net.cpp:110] Creating Layer inception_5a/5x5_reduce
I1022 15:13:56.135058 12764 net.cpp:477] inception_5a/5x5_reduce <- pool4/3x3_s2_pool4/3x3_s2_0_split_2
I1022 15:13:56.135066 12764 net.cpp:433] inception_5a/5x5_reduce -> inception_5a/5x5_reduce
I1022 15:13:56.135432 12764 net.cpp:155] Setting up inception_5a/5x5_reduce
I1022 15:13:56.135447 12764 net.cpp:163] Top shape: 128 32 7 7 (200704)
I1022 15:13:56.135454 12764 layer_factory.hpp:76] Creating layer inception_5a/relu_5x5_reduce
I1022 15:13:56.135462 12764 net.cpp:110] Creating Layer inception_5a/relu_5x5_reduce
I1022 15:13:56.135467 12764 net.cpp:477] inception_5a/relu_5x5_reduce <- inception_5a/5x5_reduce
I1022 15:13:56.135474 12764 net.cpp:419] inception_5a/relu_5x5_reduce -> inception_5a/5x5_reduce (in-place)
I1022 15:13:56.135534 12764 net.cpp:155] Setting up inception_5a/relu_5x5_reduce
I1022 15:13:56.135541 12764 net.cpp:163] Top shape: 128 32 7 7 (200704)
I1022 15:13:56.135546 12764 layer_factory.hpp:76] Creating layer inception_5a/5x5
I1022 15:13:56.135555 12764 net.cpp:110] Creating Layer inception_5a/5x5
I1022 15:13:56.135560 12764 net.cpp:477] inception_5a/5x5 <- inception_5a/5x5_reduce
I1022 15:13:56.135565 12764 net.cpp:433] inception_5a/5x5 -> inception_5a/5x5
I1022 15:13:56.135957 12764 net.cpp:155] Setting up inception_5a/5x5
I1022 15:13:56.135972 12764 net.cpp:163] Top shape: 128 128 7 7 (802816)
I1022 15:13:56.135979 12764 layer_factory.hpp:76] Creating layer inception_5a/relu_5x5
I1022 15:13:56.135987 12764 net.cpp:110] Creating Layer inception_5a/relu_5x5
I1022 15:13:56.135993 12764 net.cpp:477] inception_5a/relu_5x5 <- inception_5a/5x5
I1022 15:13:56.135998 12764 net.cpp:419] inception_5a/relu_5x5 -> inception_5a/5x5 (in-place)
I1022 15:13:56.136056 12764 net.cpp:155] Setting up inception_5a/relu_5x5
I1022 15:13:56.136065 12764 net.cpp:163] Top shape: 128 128 7 7 (802816)
I1022 15:13:56.136070 12764 layer_factory.hpp:76] Creating layer inception_5a/pool
I1022 15:13:56.136075 12764 layer_factory.cpp:60] CUDNN does not support padding or multiple tops. Using Caffe's own pooling layer.
I1022 15:13:56.136080 12764 net.cpp:110] Creating Layer inception_5a/pool
I1022 15:13:56.136090 12764 net.cpp:477] inception_5a/pool <- pool4/3x3_s2_pool4/3x3_s2_0_split_3
I1022 15:13:56.136102 12764 net.cpp:433] inception_5a/pool -> inception_5a/pool
I1022 15:13:56.136113 12764 net.cpp:155] Setting up inception_5a/pool
I1022 15:13:56.136121 12764 net.cpp:163] Top shape: 128 832 7 7 (5218304)
I1022 15:13:56.136124 12764 layer_factory.hpp:76] Creating layer inception_5a/pool_proj
I1022 15:13:56.136142 12764 net.cpp:110] Creating Layer inception_5a/pool_proj
I1022 15:13:56.136147 12764 net.cpp:477] inception_5a/pool_proj <- inception_5a/pool
I1022 15:13:56.136155 12764 net.cpp:433] inception_5a/pool_proj -> inception_5a/pool_proj
I1022 15:13:56.136955 12764 net.cpp:155] Setting up inception_5a/pool_proj
I1022 15:13:56.136970 12764 net.cpp:163] Top shape: 128 128 7 7 (802816)
I1022 15:13:56.136979 12764 layer_factory.hpp:76] Creating layer inception_5a/relu_pool_proj
I1022 15:13:56.136986 12764 net.cpp:110] Creating Layer inception_5a/relu_pool_proj
I1022 15:13:56.136992 12764 net.cpp:477] inception_5a/relu_pool_proj <- inception_5a/pool_proj
I1022 15:13:56.136999 12764 net.cpp:419] inception_5a/relu_pool_proj -> inception_5a/pool_proj (in-place)
I1022 15:13:56.137174 12764 net.cpp:155] Setting up inception_5a/relu_pool_proj
I1022 15:13:56.137187 12764 net.cpp:163] Top shape: 128 128 7 7 (802816)
I1022 15:13:56.137193 12764 layer_factory.hpp:76] Creating layer inception_5a/output
I1022 15:13:56.137200 12764 net.cpp:110] Creating Layer inception_5a/output
I1022 15:13:56.137207 12764 net.cpp:477] inception_5a/output <- inception_5a/1x1
I1022 15:13:56.137214 12764 net.cpp:477] inception_5a/output <- inception_5a/3x3
I1022 15:13:56.137220 12764 net.cpp:477] inception_5a/output <- inception_5a/5x5
I1022 15:13:56.137226 12764 net.cpp:477] inception_5a/output <- inception_5a/pool_proj
I1022 15:13:56.137233 12764 net.cpp:433] inception_5a/output -> inception_5a/output
I1022 15:13:56.137243 12764 net.cpp:155] Setting up inception_5a/output
I1022 15:13:56.137249 12764 net.cpp:163] Top shape: 128 832 7 7 (5218304)
I1022 15:13:56.137253 12764 layer_factory.hpp:76] Creating layer inception_5a/output_inception_5a/output_0_split
I1022 15:13:56.137259 12764 net.cpp:110] Creating Layer inception_5a/output_inception_5a/output_0_split
I1022 15:13:56.137264 12764 net.cpp:477] inception_5a/output_inception_5a/output_0_split <- inception_5a/output
I1022 15:13:56.137271 12764 net.cpp:433] inception_5a/output_inception_5a/output_0_split -> inception_5a/output_inception_5a/output_0_split_0
I1022 15:13:56.137280 12764 net.cpp:433] inception_5a/output_inception_5a/output_0_split -> inception_5a/output_inception_5a/output_0_split_1
I1022 15:13:56.137290 12764 net.cpp:433] inception_5a/output_inception_5a/output_0_split -> inception_5a/output_inception_5a/output_0_split_2
I1022 15:13:56.137298 12764 net.cpp:433] inception_5a/output_inception_5a/output_0_split -> inception_5a/output_inception_5a/output_0_split_3
I1022 15:13:56.137308 12764 net.cpp:155] Setting up inception_5a/output_inception_5a/output_0_split
I1022 15:13:56.137315 12764 net.cpp:163] Top shape: 128 832 7 7 (5218304)
I1022 15:13:56.137318 12764 net.cpp:163] Top shape: 128 832 7 7 (5218304)
I1022 15:13:56.137323 12764 net.cpp:163] Top shape: 128 832 7 7 (5218304)
I1022 15:13:56.137328 12764 net.cpp:163] Top shape: 128 832 7 7 (5218304)
I1022 15:13:56.137332 12764 layer_factory.hpp:76] Creating layer inception_5b/1x1
I1022 15:13:56.137341 12764 net.cpp:110] Creating Layer inception_5b/1x1
I1022 15:13:56.137346 12764 net.cpp:477] inception_5b/1x1 <- inception_5a/output_inception_5a/output_0_split_0
I1022 15:13:56.137352 12764 net.cpp:433] inception_5b/1x1 -> inception_5b/1x1
I1022 15:13:56.138350 12764 net.cpp:155] Setting up inception_5b/1x1
I1022 15:13:56.138367 12764 net.cpp:163] Top shape: 128 384 7 7 (2408448)
I1022 15:13:56.138375 12764 layer_factory.hpp:76] Creating layer inception_5b/relu_1x1
I1022 15:13:56.138383 12764 net.cpp:110] Creating Layer inception_5b/relu_1x1
I1022 15:13:56.138388 12764 net.cpp:477] inception_5b/relu_1x1 <- inception_5b/1x1
I1022 15:13:56.138401 12764 net.cpp:419] inception_5b/relu_1x1 -> inception_5b/1x1 (in-place)
I1022 15:13:56.138468 12764 net.cpp:155] Setting up inception_5b/relu_1x1
I1022 15:13:56.138476 12764 net.cpp:163] Top shape: 128 384 7 7 (2408448)
I1022 15:13:56.138481 12764 layer_factory.hpp:76] Creating layer inception_5b/3x3_reduce
I1022 15:13:56.138489 12764 net.cpp:110] Creating Layer inception_5b/3x3_reduce
I1022 15:13:56.138494 12764 net.cpp:477] inception_5b/3x3_reduce <- inception_5a/output_inception_5a/output_0_split_1
I1022 15:13:56.138501 12764 net.cpp:433] inception_5b/3x3_reduce -> inception_5b/3x3_reduce
I1022 15:13:56.139376 12764 net.cpp:155] Setting up inception_5b/3x3_reduce
I1022 15:13:56.139391 12764 net.cpp:163] Top shape: 128 192 7 7 (1204224)
I1022 15:13:56.139400 12764 layer_factory.hpp:76] Creating layer inception_5b/relu_3x3_reduce
I1022 15:13:56.139407 12764 net.cpp:110] Creating Layer inception_5b/relu_3x3_reduce
I1022 15:13:56.139412 12764 net.cpp:477] inception_5b/relu_3x3_reduce <- inception_5b/3x3_reduce
I1022 15:13:56.139420 12764 net.cpp:419] inception_5b/relu_3x3_reduce -> inception_5b/3x3_reduce (in-place)
I1022 15:13:56.139478 12764 net.cpp:155] Setting up inception_5b/relu_3x3_reduce
I1022 15:13:56.139487 12764 net.cpp:163] Top shape: 128 192 7 7 (1204224)
I1022 15:13:56.139492 12764 layer_factory.hpp:76] Creating layer inception_5b/3x3
I1022 15:13:56.139499 12764 net.cpp:110] Creating Layer inception_5b/3x3
I1022 15:13:56.139504 12764 net.cpp:477] inception_5b/3x3 <- inception_5b/3x3_reduce
I1022 15:13:56.139510 12764 net.cpp:433] inception_5b/3x3 -> inception_5b/3x3
I1022 15:13:56.141002 12764 net.cpp:155] Setting up inception_5b/3x3
I1022 15:13:56.141017 12764 net.cpp:163] Top shape: 128 384 7 7 (2408448)
I1022 15:13:56.141026 12764 layer_factory.hpp:76] Creating layer inception_5b/relu_3x3
I1022 15:13:56.141033 12764 net.cpp:110] Creating Layer inception_5b/relu_3x3
I1022 15:13:56.141039 12764 net.cpp:477] inception_5b/relu_3x3 <- inception_5b/3x3
I1022 15:13:56.141047 12764 net.cpp:419] inception_5b/relu_3x3 -> inception_5b/3x3 (in-place)
I1022 15:13:56.141223 12764 net.cpp:155] Setting up inception_5b/relu_3x3
I1022 15:13:56.141237 12764 net.cpp:163] Top shape: 128 384 7 7 (2408448)
I1022 15:13:56.141242 12764 layer_factory.hpp:76] Creating layer inception_5b/5x5_reduce
I1022 15:13:56.141252 12764 net.cpp:110] Creating Layer inception_5b/5x5_reduce
I1022 15:13:56.141257 12764 net.cpp:477] inception_5b/5x5_reduce <- inception_5a/output_inception_5a/output_0_split_2
I1022 15:13:56.141264 12764 net.cpp:433] inception_5b/5x5_reduce -> inception_5b/5x5_reduce
I1022 15:13:56.141645 12764 net.cpp:155] Setting up inception_5b/5x5_reduce
I1022 15:13:56.141659 12764 net.cpp:163] Top shape: 128 48 7 7 (301056)
I1022 15:13:56.141667 12764 layer_factory.hpp:76] Creating layer inception_5b/relu_5x5_reduce
I1022 15:13:56.141674 12764 net.cpp:110] Creating Layer inception_5b/relu_5x5_reduce
I1022 15:13:56.141680 12764 net.cpp:477] inception_5b/relu_5x5_reduce <- inception_5b/5x5_reduce
I1022 15:13:56.141687 12764 net.cpp:419] inception_5b/relu_5x5_reduce -> inception_5b/5x5_reduce (in-place)
I1022 15:13:56.141747 12764 net.cpp:155] Setting up inception_5b/relu_5x5_reduce
I1022 15:13:56.141755 12764 net.cpp:163] Top shape: 128 48 7 7 (301056)
I1022 15:13:56.141760 12764 layer_factory.hpp:76] Creating layer inception_5b/5x5
I1022 15:13:56.141768 12764 net.cpp:110] Creating Layer inception_5b/5x5
I1022 15:13:56.141773 12764 net.cpp:477] inception_5b/5x5 <- inception_5b/5x5_reduce
I1022 15:13:56.141780 12764 net.cpp:433] inception_5b/5x5 -> inception_5b/5x5
I1022 15:13:56.142225 12764 net.cpp:155] Setting up inception_5b/5x5
I1022 15:13:56.142240 12764 net.cpp:163] Top shape: 128 128 7 7 (802816)
I1022 15:13:56.142248 12764 layer_factory.hpp:76] Creating layer inception_5b/relu_5x5
I1022 15:13:56.142256 12764 net.cpp:110] Creating Layer inception_5b/relu_5x5
I1022 15:13:56.142261 12764 net.cpp:477] inception_5b/relu_5x5 <- inception_5b/5x5
I1022 15:13:56.142268 12764 net.cpp:419] inception_5b/relu_5x5 -> inception_5b/5x5 (in-place)
I1022 15:13:56.142335 12764 net.cpp:155] Setting up inception_5b/relu_5x5
I1022 15:13:56.142344 12764 net.cpp:163] Top shape: 128 128 7 7 (802816)
I1022 15:13:56.142349 12764 layer_factory.hpp:76] Creating layer inception_5b/pool
I1022 15:13:56.142354 12764 layer_factory.cpp:60] CUDNN does not support padding or multiple tops. Using Caffe's own pooling layer.
I1022 15:13:56.142360 12764 net.cpp:110] Creating Layer inception_5b/pool
I1022 15:13:56.142365 12764 net.cpp:477] inception_5b/pool <- inception_5a/output_inception_5a/output_0_split_3
I1022 15:13:56.142372 12764 net.cpp:433] inception_5b/pool -> inception_5b/pool
I1022 15:13:56.142382 12764 net.cpp:155] Setting up inception_5b/pool
I1022 15:13:56.142388 12764 net.cpp:163] Top shape: 128 832 7 7 (5218304)
I1022 15:13:56.142393 12764 layer_factory.hpp:76] Creating layer inception_5b/pool_proj
I1022 15:13:56.142401 12764 net.cpp:110] Creating Layer inception_5b/pool_proj
I1022 15:13:56.142405 12764 net.cpp:477] inception_5b/pool_proj <- inception_5b/pool
I1022 15:13:56.142413 12764 net.cpp:433] inception_5b/pool_proj -> inception_5b/pool_proj
I1022 15:13:56.143236 12764 net.cpp:155] Setting up inception_5b/pool_proj
I1022 15:13:56.143254 12764 net.cpp:163] Top shape: 128 128 7 7 (802816)
I1022 15:13:56.143263 12764 layer_factory.hpp:76] Creating layer inception_5b/relu_pool_proj
I1022 15:13:56.143271 12764 net.cpp:110] Creating Layer inception_5b/relu_pool_proj
I1022 15:13:56.143277 12764 net.cpp:477] inception_5b/relu_pool_proj <- inception_5b/pool_proj
I1022 15:13:56.143283 12764 net.cpp:419] inception_5b/relu_pool_proj -> inception_5b/pool_proj (in-place)
I1022 15:13:56.143343 12764 net.cpp:155] Setting up inception_5b/relu_pool_proj
I1022 15:13:56.143352 12764 net.cpp:163] Top shape: 128 128 7 7 (802816)
I1022 15:13:56.143357 12764 layer_factory.hpp:76] Creating layer inception_5b/output
I1022 15:13:56.143363 12764 net.cpp:110] Creating Layer inception_5b/output
I1022 15:13:56.143368 12764 net.cpp:477] inception_5b/output <- inception_5b/1x1
I1022 15:13:56.143373 12764 net.cpp:477] inception_5b/output <- inception_5b/3x3
I1022 15:13:56.143379 12764 net.cpp:477] inception_5b/output <- inception_5b/5x5
I1022 15:13:56.143384 12764 net.cpp:477] inception_5b/output <- inception_5b/pool_proj
I1022 15:13:56.143389 12764 net.cpp:433] inception_5b/output -> inception_5b/output
I1022 15:13:56.143399 12764 net.cpp:155] Setting up inception_5b/output
I1022 15:13:56.143404 12764 net.cpp:163] Top shape: 128 1024 7 7 (6422528)
I1022 15:13:56.143409 12764 layer_factory.hpp:76] Creating layer pool5/7x7_s1
I1022 15:13:56.143415 12764 net.cpp:110] Creating Layer pool5/7x7_s1
I1022 15:13:56.143420 12764 net.cpp:477] pool5/7x7_s1 <- inception_5b/output
I1022 15:13:56.143427 12764 net.cpp:433] pool5/7x7_s1 -> pool5/7x7_s1
I1022 15:13:56.143607 12764 net.cpp:155] Setting up pool5/7x7_s1
I1022 15:13:56.143620 12764 net.cpp:163] Top shape: 128 1024 1 1 (131072)
I1022 15:13:56.143625 12764 layer_factory.hpp:76] Creating layer pool5/drop_7x7_s1
I1022 15:13:56.143632 12764 net.cpp:110] Creating Layer pool5/drop_7x7_s1
I1022 15:13:56.143637 12764 net.cpp:477] pool5/drop_7x7_s1 <- pool5/7x7_s1
I1022 15:13:56.143643 12764 net.cpp:419] pool5/drop_7x7_s1 -> pool5/7x7_s1 (in-place)
I1022 15:13:56.143654 12764 net.cpp:155] Setting up pool5/drop_7x7_s1
I1022 15:13:56.143661 12764 net.cpp:163] Top shape: 128 1024 1 1 (131072)
I1022 15:13:56.143664 12764 layer_factory.hpp:76] Creating layer pool5/7x7_s1_pool5/drop_7x7_s1_0_split
I1022 15:13:56.143676 12764 net.cpp:110] Creating Layer pool5/7x7_s1_pool5/drop_7x7_s1_0_split
I1022 15:13:56.143681 12764 net.cpp:477] pool5/7x7_s1_pool5/drop_7x7_s1_0_split <- pool5/7x7_s1
I1022 15:13:56.143688 12764 net.cpp:433] pool5/7x7_s1_pool5/drop_7x7_s1_0_split -> pool5/7x7_s1_pool5/drop_7x7_s1_0_split_0
…
I1022 15:13:56.144111 12764 net.cpp:433] pool5/7x7_s1_pool5/drop_7x7_s1_0_split -> pool5/7x7_s1_pool5/drop_7x7_s1_0_split_37
I1022 15:13:56.144122 12764 net.cpp:433] pool5/7x7_s1_pool5/drop_7x7_s1_0_split -> pool5/7x7_s1_pool5/drop_7x7_s1_0_split_38
I1022 15:13:56.144134 12764 net.cpp:433] pool5/7x7_s1_pool5/drop_7x7_s1_0_split -> pool5/7x7_s1_pool5/drop_7x7_s1_0_split_39
I1022 15:13:56.144143 12764 net.cpp:433] pool5/7x7_s1_pool5/drop_7x7_s1_0_split -> pool5/7x7_s1_pool5/drop_7x7_s1_0_split_40
I1022 15:13:56.144182 12764 net.cpp:155] Setting up pool5/7x7_s1_pool5/drop_7x7_s1_0_split
I1022 15:13:56.144189 12764 net.cpp:163] Top shape: 128 1024 1 1 (131072)
I1022 15:13:56.144194 12764 net.cpp:163] Top shape: 128 1024 1 1 (131072)
I1022 15:13:56.144199 12764 net.cpp:163] Top shape: 128 1024 1 1 (131072)
I1022 15:13:56.144203 12764 net.cpp:163] Top shape: 128 1024 1 1 (131072)
I1022 15:13:56.144208 12764 net.cpp:163] Top shape: 128 1024 1 1 (131072)
I1022 15:13:56.144212 12764 net.cpp:163] Top shape: 128 1024 1 1 (131072)
I1022 15:13:56.144217 12764 net.cpp:163] Top shape: 128 1024 1 1 (131072)
I1022 15:13:56.144222 12764 net.cpp:163] Top shape: 128 1024 1 1 (131072)
I1022 15:13:56.144227 12764 net.cpp:163] Top shape: 128 1024 1 1 (131072)
I1022 15:13:56.144232 12764 net.cpp:163] Top shape: 128 1024 1 1 (131072)
I1022 15:13:56.144235 12764 net.cpp:163] Top shape: 128 1024 1 1 (131072)
I1022 15:13:56.144240 12764 net.cpp:163] Top shape: 128 1024 1 1 (131072)
I1022 15:13:56.144244 12764 net.cpp:163] Top shape: 128 1024 1 1 (131072)
I1022 15:13:56.144249 12764 net.cpp:163] Top shape: 128 1024 1 1 (131072)
I1022 15:13:56.144253 12764 net.cpp:163] Top shape: 128 1024 1 1 (131072)
I1022 15:13:56.144258 12764 net.cpp:163] Top shape: 128 1024 1 1 (131072)
I1022 15:13:56.144263 12764 net.cpp:163] Top shape: 128 1024 1 1 (131072)
I1022 15:13:56.144268 12764 net.cpp:163] Top shape: 128 1024 1 1 (131072)
I1022 15:13:56.144273 12764 net.cpp:163] Top shape: 128 1024 1 1 (131072)
I1022 15:13:56.144276 12764 net.cpp:163] Top shape: 128 1024 1 1 (131072)
I1022 15:13:56.144281 12764 net.cpp:163] Top shape: 128 1024 1 1 (131072)
I1022 15:13:56.144285 12764 net.cpp:163] Top shape: 128 1024 1 1 (131072)
I1022 15:13:56.144290 12764 net.cpp:163] Top shape: 128 1024 1 1 (131072)
I1022 15:13:56.144294 12764 net.cpp:163] Top shape: 128 1024 1 1 (131072)
I1022 15:13:56.144299 12764 net.cpp:163] Top shape: 128 1024 1 1 (131072)
I1022 15:13:56.144304 12764 net.cpp:163] Top shape: 128 1024 1 1 (131072)
I1022 15:13:56.144309 12764 net.cpp:163] Top shape: 128 1024 1 1 (131072)
I1022 15:13:56.144312 12764 net.cpp:163] Top shape: 128 1024 1 1 (131072)
I1022 15:13:56.144317 12764 net.cpp:163] Top shape: 128 1024 1 1 (131072)
I1022 15:13:56.144321 12764 net.cpp:163] Top shape: 128 1024 1 1 (131072)
I1022 15:13:56.144326 12764 net.cpp:163] Top shape: 128 1024 1 1 (131072)
I1022 15:13:56.144331 12764 net.cpp:163] Top shape: 128 1024 1 1 (131072)
I1022 15:13:56.144335 12764 net.cpp:163] Top shape: 128 1024 1 1 (131072)
I1022 15:13:56.144340 12764 net.cpp:163] Top shape: 128 1024 1 1 (131072)
I1022 15:13:56.144345 12764 net.cpp:163] Top shape: 128 1024 1 1 (131072)
I1022 15:13:56.144350 12764 net.cpp:163] Top shape: 128 1024 1 1 (131072)
I1022 15:13:56.144353 12764 net.cpp:163] Top shape: 128 1024 1 1 (131072)
I1022 15:13:56.144358 12764 net.cpp:163] Top shape: 128 1024 1 1 (131072)
I1022 15:13:56.144363 12764 net.cpp:163] Top shape: 128 1024 1 1 (131072)
I1022 15:13:56.144367 12764 net.cpp:163] Top shape: 128 1024 1 1 (131072)
I1022 15:13:56.144372 12764 net.cpp:163] Top shape: 128 1024 1 1 (131072)
I1022 15:13:56.144376 12764 layer_factory.hpp:76] Creating layer dir0_TL
I1022 15:13:56.144387 12764 net.cpp:110] Creating Layer dir0_TL
I1022 15:13:56.144392 12764 net.cpp:477] dir0_TL <- pool5/7x7_s1_pool5/drop_7x7_s1_0_split_0
I1022 15:13:56.144400 12764 net.cpp:433] dir0_TL -> dir0_TL
I1022 15:13:56.144912 12764 net.cpp:155] Setting up dir0_TL
I1022 15:13:56.144933 12764 net.cpp:163] Top shape: 128 4 1 1 (512)
I1022 15:13:56.144942 12764 layer_factory.hpp:76] Creating layer dir0_BR
I1022 15:13:56.144951 12764 net.cpp:110] Creating Layer dir0_BR
I1022 15:13:56.144958 12764 net.cpp:477] dir0_BR <- pool5/7x7_s1_pool5/drop_7x7_s1_0_split_1
I1022 15:13:56.144968 12764 net.cpp:433] dir0_BR -> dir0_BR
I1022 15:13:56.145433 12764 net.cpp:155] Setting up dir0_BR
I1022 15:13:56.145447 12764 net.cpp:163] Top shape: 128 4 1 1 (512)
I1022 15:13:56.145455 12764 layer_factory.hpp:76] Creating layer dir1_TL
I1022 15:13:56.145465 12764 net.cpp:110] Creating Layer dir1_TL
I1022 15:13:56.145472 12764 net.cpp:477] dir1_TL <- pool5/7x7_s1_pool5/drop_7x7_s1_0_split_2
I1022 15:13:56.145480 12764 net.cpp:433] dir1_TL -> dir1_TL
I1022 15:13:56.145944 12764 net.cpp:155] Setting up dir1_TL
I1022 15:13:56.145958 12764 net.cpp:163] Top shape: 128 4 1 1 (512)
I1022 15:13:56.145967 12764 layer_factory.hpp:76] Creating layer dir1_BR
I1022 15:13:56.145977 12764 net.cpp:110] Creating Layer dir1_BR
I1022 15:13:56.145983 12764 net.cpp:477] dir1_BR <- pool5/7x7_s1_pool5/drop_7x7_s1_0_split_3
I1022 15:13:56.145992 12764 net.cpp:433] dir1_BR -> dir1_BR
I1022 15:13:56.146461 12764 net.cpp:155] Setting up dir1_BR
I1022 15:13:56.146476 12764 net.cpp:163] Top shape: 128 4 1 1 (512)
I1022 15:13:56.146484 12764 layer_factory.hpp:76] Creating layer dir2_TL
I1022 15:13:56.146494 12764 net.cpp:110] Creating Layer dir2_TL
I1022 15:13:56.146500 12764 net.cpp:477] dir2_TL <- pool5/7x7_s1_pool5/drop_7x7_s1_0_split_4
I1022 15:13:56.146509 12764 net.cpp:433] dir2_TL -> dir2_TL
I1022 15:13:56.146973 12764 net.cpp:155] Setting up dir2_TL
I1022 15:13:56.146987 12764 net.cpp:163] Top shape: 128 4 1 1 (512)
I1022 15:13:56.146996 12764 layer_factory.hpp:76] Creating layer dir2_BR
I1022 15:13:56.147006 12764 net.cpp:110] Creating Layer dir2_BR
I1022 15:13:56.147011 12764 net.cpp:477] dir2_BR <- pool5/7x7_s1_pool5/drop_7x7_s1_0_split_5
I1022 15:13:56.147019 12764 net.cpp:433] dir2_BR -> dir2_BR
I1022 15:13:56.147481 12764 net.cpp:155] Setting up dir2_BR
I1022 15:13:56.147495 12764 net.cpp:163] Top shape: 128 4 1 1 (512)
I1022 15:13:56.147503 12764 layer_factory.hpp:76] Creating layer dir3_TL
I1022 15:13:56.147512 12764 net.cpp:110] Creating Layer dir3_TL
I1022 15:13:56.147518 12764 net.cpp:477] dir3_TL <- pool5/7x7_s1_pool5/drop_7x7_s1_0_split_6
I1022 15:13:56.147526 12764 net.cpp:433] dir3_TL -> dir3_TL
I1022 15:13:56.147986 12764 net.cpp:155] Setting up dir3_TL
I1022 15:13:56.148000 12764 net.cpp:163] Top shape: 128 4 1 1 (512)
I1022 15:13:56.148008 12764 layer_factory.hpp:76] Creating layer dir3_BR
I1022 15:13:56.148017 12764 net.cpp:110] Creating Layer dir3_BR
I1022 15:13:56.148023 12764 net.cpp:477] dir3_BR <- pool5/7x7_s1_pool5/drop_7x7_s1_0_split_7
I1022 15:13:56.148032 12764 net.cpp:433] dir3_BR -> dir3_BR
I1022 15:13:56.148494 12764 net.cpp:155] Setting up dir3_BR
I1022 15:13:56.148507 12764 net.cpp:163] Top shape: 128 4 1 1 (512)
I1022 15:13:56.148530 12764 layer_factory.hpp:76] Creating layer dir4_TL
I1022 15:13:56.148540 12764 net.cpp:110] Creating Layer dir4_TL
I1022 15:13:56.148546 12764 net.cpp:477] dir4_TL <- pool5/7x7_s1_pool5/drop_7x7_s1_0_split_8
I1022 15:13:56.148553 12764 net.cpp:433] dir4_TL -> dir4_TL
I1022 15:13:56.149016 12764 net.cpp:155] Setting up dir4_TL
I1022 15:13:56.149030 12764 net.cpp:163] Top shape: 128 4 1 1 (512)
I1022 15:13:56.149039 12764 layer_factory.hpp:76] Creating layer dir4_BR
I1022 15:13:56.149047 12764 net.cpp:110] Creating Layer dir4_BR
I1022 15:13:56.149054 12764 net.cpp:477] dir4_BR <- pool5/7x7_s1_pool5/drop_7x7_s1_0_split_9
I1022 15:13:56.149060 12764 net.cpp:433] dir4_BR -> dir4_BR
I1022 15:13:56.149521 12764 net.cpp:155] Setting up dir4_BR
I1022 15:13:56.149534 12764 net.cpp:163] Top shape: 128 4 1 1 (512)
I1022 15:13:56.149543 12764 layer_factory.hpp:76] Creating layer dir5_TL
I1022 15:13:56.149550 12764 net.cpp:110] Creating Layer dir5_TL
I1022 15:13:56.149556 12764 net.cpp:477] dir5_TL <- pool5/7x7_s1_pool5/drop_7x7_s1_0_split_10
I1022 15:13:56.149569 12764 net.cpp:433] dir5_TL -> dir5_TL
I1022 15:13:56.150039 12764 net.cpp:155] Setting up dir5_TL
I1022 15:13:56.150054 12764 net.cpp:163] Top shape: 128 4 1 1 (512)
I1022 15:13:56.150063 12764 layer_factory.hpp:76] Creating layer dir5_BR
I1022 15:13:56.150071 12764 net.cpp:110] Creating Layer dir5_BR
I1022 15:13:56.150076 12764 net.cpp:477] dir5_BR <- pool5/7x7_s1_pool5/drop_7x7_s1_0_split_11
I1022 15:13:56.150084 12764 net.cpp:433] dir5_BR -> dir5_BR
I1022 15:13:56.150543 12764 net.cpp:155] Setting up dir5_BR
I1022 15:13:56.150557 12764 net.cpp:163] Top shape: 128 4 1 1 (512)
I1022 15:13:56.150565 12764 layer_factory.hpp:76] Creating layer dir6_TL
I1022 15:13:56.150574 12764 net.cpp:110] Creating Layer dir6_TL
I1022 15:13:56.150580 12764 net.cpp:477] dir6_TL <- pool5/7x7_s1_pool5/drop_7x7_s1_0_split_12
I1022 15:13:56.150589 12764 net.cpp:433] dir6_TL -> dir6_TL
I1022 15:13:56.151047 12764 net.cpp:155] Setting up dir6_TL
I1022 15:13:56.151062 12764 net.cpp:163] Top shape: 128 4 1 1 (512)
I1022 15:13:56.151069 12764 layer_factory.hpp:76] Creating layer dir6_BR
I1022 15:13:56.151079 12764 net.cpp:110] Creating Layer dir6_BR
I1022 15:13:56.151084 12764 net.cpp:477] dir6_BR <- pool5/7x7_s1_pool5/drop_7x7_s1_0_split_13
I1022 15:13:56.151093 12764 net.cpp:433] dir6_BR -> dir6_BR
I1022 15:13:56.151554 12764 net.cpp:155] Setting up dir6_BR
I1022 15:13:56.151567 12764 net.cpp:163] Top shape: 128 4 1 1 (512)
I1022 15:13:56.151576 12764 layer_factory.hpp:76] Creating layer dir7_TL
I1022 15:13:56.151585 12764 net.cpp:110] Creating Layer dir7_TL
I1022 15:13:56.151590 12764 net.cpp:477] dir7_TL <- pool5/7x7_s1_pool5/drop_7x7_s1_0_split_14
I1022 15:13:56.151598 12764 net.cpp:433] dir7_TL -> dir7_TL
I1022 15:13:56.152063 12764 net.cpp:155] Setting up dir7_TL
I1022 15:13:56.152077 12764 net.cpp:163] Top shape: 128 4 1 1 (512)
I1022 15:13:56.152086 12764 layer_factory.hpp:76] Creating layer dir7_BR
I1022 15:13:56.152094 12764 net.cpp:110] Creating Layer dir7_BR
I1022 15:13:56.152101 12764 net.cpp:477] dir7_BR <- pool5/7x7_s1_pool5/drop_7x7_s1_0_split_15
I1022 15:13:56.152108 12764 net.cpp:433] dir7_BR -> dir7_BR
I1022 15:13:56.152570 12764 net.cpp:155] Setting up dir7_BR
I1022 15:13:56.152585 12764 net.cpp:163] Top shape: 128 4 1 1 (512)
I1022 15:13:56.152591 12764 layer_factory.hpp:76] Creating layer dir8_TL
I1022 15:13:56.152601 12764 net.cpp:110] Creating Layer dir8_TL
I1022 15:13:56.152606 12764 net.cpp:477] dir8_TL <- pool5/7x7_s1_pool5/drop_7x7_s1_0_split_16
I1022 15:13:56.152614 12764 net.cpp:433] dir8_TL -> dir8_TL
I1022 15:13:56.153077 12764 net.cpp:155] Setting up dir8_TL
I1022 15:13:56.153090 12764 net.cpp:163] Top shape: 128 4 1 1 (512)
I1022 15:13:56.153098 12764 layer_factory.hpp:76] Creating layer dir8_BR
I1022 15:13:56.153108 12764 net.cpp:110] Creating Layer dir8_BR
I1022 15:13:56.153113 12764 net.cpp:477] dir8_BR <- pool5/7x7_s1_pool5/drop_7x7_s1_0_split_17
I1022 15:13:56.153121 12764 net.cpp:433] dir8_BR -> dir8_BR
I1022 15:13:56.153585 12764 net.cpp:155] Setting up dir8_BR
I1022 15:13:56.153601 12764 net.cpp:163] Top shape: 128 4 1 1 (512)
I1022 15:13:56.153609 12764 layer_factory.hpp:76] Creating layer dir9_TL
I1022 15:13:56.153619 12764 net.cpp:110] Creating Layer dir9_TL
I1022 15:13:56.153623 12764 net.cpp:477] dir9_TL <- pool5/7x7_s1_pool5/drop_7x7_s1_0_split_18
I1022 15:13:56.153632 12764 net.cpp:433] dir9_TL -> dir9_TL
I1022 15:13:56.154114 12764 net.cpp:155] Setting up dir9_TL
I1022 15:13:56.154129 12764 net.cpp:163] Top shape: 128 4 1 1 (512)
I1022 15:13:56.154136 12764 layer_factory.hpp:76] Creating layer dir9_BR
I1022 15:13:56.154146 12764 net.cpp:110] Creating Layer dir9_BR
I1022 15:13:56.154152 12764 net.cpp:477] dir9_BR <- pool5/7x7_s1_pool5/drop_7x7_s1_0_split_19
I1022 15:13:56.154160 12764 net.cpp:433] dir9_BR -> dir9_BR
I1022 15:13:56.154625 12764 net.cpp:155] Setting up dir9_BR
I1022 15:13:56.154639 12764 net.cpp:163] Top shape: 128 4 1 1 (512)
I1022 15:13:56.154647 12764 layer_factory.hpp:76] Creating layer dir10_TL
I1022 15:13:56.154657 12764 net.cpp:110] Creating Layer dir10_TL
I1022 15:13:56.154667 12764 net.cpp:477] dir10_TL <- pool5/7x7_s1_pool5/drop_7x7_s1_0_split_20
I1022 15:13:56.154681 12764 net.cpp:433] dir10_TL -> dir10_TL
I1022 15:13:56.155145 12764 net.cpp:155] Setting up dir10_TL
I1022 15:13:56.155159 12764 net.cpp:163] Top shape: 128 4 1 1 (512)
I1022 15:13:56.155167 12764 layer_factory.hpp:76] Creating layer dir10_BR
I1022 15:13:56.155176 12764 net.cpp:110] Creating Layer dir10_BR
I1022 15:13:56.155181 12764 net.cpp:477] dir10_BR <- pool5/7x7_s1_pool5/drop_7x7_s1_0_split_21
I1022 15:13:56.155189 12764 net.cpp:433] dir10_BR -> dir10_BR
I1022 15:13:56.155653 12764 net.cpp:155] Setting up dir10_BR
I1022 15:13:56.155668 12764 net.cpp:163] Top shape: 128 4 1 1 (512)
I1022 15:13:56.155675 12764 layer_factory.hpp:76] Creating layer dir11_TL
I1022 15:13:56.155684 12764 net.cpp:110] Creating Layer dir11_TL
I1022 15:13:56.155690 12764 net.cpp:477] dir11_TL <- pool5/7x7_s1_pool5/drop_7x7_s1_0_split_22
I1022 15:13:56.155699 12764 net.cpp:433] dir11_TL -> dir11_TL
I1022 15:13:56.156162 12764 net.cpp:155] Setting up dir11_TL
I1022 15:13:56.156175 12764 net.cpp:163] Top shape: 128 4 1 1 (512)
I1022 15:13:56.156183 12764 layer_factory.hpp:76] Creating layer dir11_BR
I1022 15:13:56.156193 12764 net.cpp:110] Creating Layer dir11_BR
I1022 15:13:56.156198 12764 net.cpp:477] dir11_BR <- pool5/7x7_s1_pool5/drop_7x7_s1_0_split_23
I1022 15:13:56.156206 12764 net.cpp:433] dir11_BR -> dir11_BR
I1022 15:13:56.156672 12764 net.cpp:155] Setting up dir11_BR
I1022 15:13:56.156689 12764 net.cpp:163] Top shape: 128 4 1 1 (512)
I1022 15:13:56.156697 12764 layer_factory.hpp:76] Creating layer dir12_TL
I1022 15:13:56.156708 12764 net.cpp:110] Creating Layer dir12_TL
I1022 15:13:56.156713 12764 net.cpp:477] dir12_TL <- pool5/7x7_s1_pool5/drop_7x7_s1_0_split_24
I1022 15:13:56.156721 12764 net.cpp:433] dir12_TL -> dir12_TL
I1022 15:13:56.157188 12764 net.cpp:155] Setting up dir12_TL
I1022 15:13:56.157202 12764 net.cpp:163] Top shape: 128 4 1 1 (512)
I1022 15:13:56.157209 12764 layer_factory.hpp:76] Creating layer dir12_BR
I1022 15:13:56.157219 12764 net.cpp:110] Creating Layer dir12_BR
I1022 15:13:56.157224 12764 net.cpp:477] dir12_BR <- pool5/7x7_s1_pool5/drop_7x7_s1_0_split_25
I1022 15:13:56.157233 12764 net.cpp:433] dir12_BR -> dir12_BR
I1022 15:13:56.157696 12764 net.cpp:155] Setting up dir12_BR
I1022 15:13:56.157709 12764 net.cpp:163] Top shape: 128 4 1 1 (512)
I1022 15:13:56.157717 12764 layer_factory.hpp:76] Creating layer dir13_TL
I1022 15:13:56.157727 12764 net.cpp:110] Creating Layer dir13_TL
I1022 15:13:56.157732 12764 net.cpp:477] dir13_TL <- pool5/7x7_s1_pool5/drop_7x7_s1_0_split_26
I1022 15:13:56.157740 12764 net.cpp:433] dir13_TL -> dir13_TL
I1022 15:13:56.158217 12764 net.cpp:155] Setting up dir13_TL
I1022 15:13:56.158232 12764 net.cpp:163] Top shape: 128 4 1 1 (512)
I1022 15:13:56.158241 12764 layer_factory.hpp:76] Creating layer dir13_BR
I1022 15:13:56.158249 12764 net.cpp:110] Creating Layer dir13_BR
I1022 15:13:56.158255 12764 net.cpp:477] dir13_BR <- pool5/7x7_s1_pool5/drop_7x7_s1_0_split_27
I1022 15:13:56.158263 12764 net.cpp:433] dir13_BR -> dir13_BR
I1022 15:13:56.158726 12764 net.cpp:155] Setting up dir13_BR
I1022 15:13:56.158740 12764 net.cpp:163] Top shape: 128 4 1 1 (512)
I1022 15:13:56.158747 12764 layer_factory.hpp:76] Creating layer dir14_TL
I1022 15:13:56.158756 12764 net.cpp:110] Creating Layer dir14_TL
I1022 15:13:56.158762 12764 net.cpp:477] dir14_TL <- pool5/7x7_s1_pool5/drop_7x7_s1_0_split_28
I1022 15:13:56.158771 12764 net.cpp:433] dir14_TL -> dir14_TL
I1022 15:13:56.159240 12764 net.cpp:155] Setting up dir14_TL
I1022 15:13:56.159252 12764 net.cpp:163] Top shape: 128 4 1 1 (512)
I1022 15:13:56.159260 12764 layer_factory.hpp:76] Creating layer dir14_BR
I1022 15:13:56.159270 12764 net.cpp:110] Creating Layer dir14_BR
I1022 15:13:56.159276 12764 net.cpp:477] dir14_BR <- pool5/7x7_s1_pool5/drop_7x7_s1_0_split_29
I1022 15:13:56.159283 12764 net.cpp:433] dir14_BR -> dir14_BR
I1022 15:13:56.159751 12764 net.cpp:155] Setting up dir14_BR
I1022 15:13:56.159765 12764 net.cpp:163] Top shape: 128 4 1 1 (512)
I1022 15:13:56.159783 12764 layer_factory.hpp:76] Creating layer dir15_TL
I1022 15:13:56.159793 12764 net.cpp:110] Creating Layer dir15_TL
I1022 15:13:56.159798 12764 net.cpp:477] dir15_TL <- pool5/7x7_s1_pool5/drop_7x7_s1_0_split_30
I1022 15:13:56.159807 12764 net.cpp:433] dir15_TL -> dir15_TL
I1022 15:13:56.160279 12764 net.cpp:155] Setting up dir15_TL
I1022 15:13:56.160293 12764 net.cpp:163] Top shape: 128 4 1 1 (512)
I1022 15:13:56.160301 12764 layer_factory.hpp:76] Creating layer dir15_BR
I1022 15:13:56.160310 12764 net.cpp:110] Creating Layer dir15_BR
I1022 15:13:56.160316 12764 net.cpp:477] dir15_BR <- pool5/7x7_s1_pool5/drop_7x7_s1_0_split_31
I1022 15:13:56.160325 12764 net.cpp:433] dir15_BR -> dir15_BR
I1022 15:13:56.160790 12764 net.cpp:155] Setting up dir15_BR
I1022 15:13:56.160804 12764 net.cpp:163] Top shape: 128 4 1 1 (512)
I1022 15:13:56.160811 12764 layer_factory.hpp:76] Creating layer dir16_TL
I1022 15:13:56.160821 12764 net.cpp:110] Creating Layer dir16_TL
I1022 15:13:56.160826 12764 net.cpp:477] dir16_TL <- pool5/7x7_s1_pool5/drop_7x7_s1_0_split_32
I1022 15:13:56.160835 12764 net.cpp:433] dir16_TL -> dir16_TL
I1022 15:13:56.161303 12764 net.cpp:155] Setting up dir16_TL
I1022 15:13:56.161316 12764 net.cpp:163] Top shape: 128 4 1 1 (512)
I1022 15:13:56.161324 12764 layer_factory.hpp:76] Creating layer dir16_BR
I1022 15:13:56.161334 12764 net.cpp:110] Creating Layer dir16_BR
I1022 15:13:56.161339 12764 net.cpp:477] dir16_BR <- pool5/7x7_s1_pool5/drop_7x7_s1_0_split_33
I1022 15:13:56.161347 12764 net.cpp:433] dir16_BR -> dir16_BR
I1022 15:13:56.161813 12764 net.cpp:155] Setting up dir16_BR
I1022 15:13:56.161828 12764 net.cpp:163] Top shape: 128 4 1 1 (512)
I1022 15:13:56.161835 12764 layer_factory.hpp:76] Creating layer dir17_TL
I1022 15:13:56.161844 12764 net.cpp:110] Creating Layer dir17_TL
I1022 15:13:56.161850 12764 net.cpp:477] dir17_TL <- pool5/7x7_s1_pool5/drop_7x7_s1_0_split_34
I1022 15:13:56.161859 12764 net.cpp:433] dir17_TL -> dir17_TL
I1022 15:13:56.162333 12764 net.cpp:155] Setting up dir17_TL
I1022 15:13:56.162348 12764 net.cpp:163] Top shape: 128 4 1 1 (512)
I1022 15:13:56.162355 12764 layer_factory.hpp:76] Creating layer dir17_BR
I1022 15:13:56.162365 12764 net.cpp:110] Creating Layer dir17_BR
I1022 15:13:56.162370 12764 net.cpp:477] dir17_BR <- pool5/7x7_s1_pool5/drop_7x7_s1_0_split_35
I1022 15:13:56.162379 12764 net.cpp:433] dir17_BR -> dir17_BR
I1022 15:13:56.162848 12764 net.cpp:155] Setting up dir17_BR
I1022 15:13:56.162863 12764 net.cpp:163] Top shape: 128 4 1 1 (512)
I1022 15:13:56.162870 12764 layer_factory.hpp:76] Creating layer dir18_TL
I1022 15:13:56.162879 12764 net.cpp:110] Creating Layer dir18_TL
I1022 15:13:56.162885 12764 net.cpp:477] dir18_TL <- pool5/7x7_s1_pool5/drop_7x7_s1_0_split_36
I1022 15:13:56.162894 12764 net.cpp:433] dir18_TL -> dir18_TL
I1022 15:13:56.163362 12764 net.cpp:155] Setting up dir18_TL
I1022 15:13:56.163377 12764 net.cpp:163] Top shape: 128 4 1 1 (512)
I1022 15:13:56.163384 12764 layer_factory.hpp:76] Creating layer dir18_BR
I1022 15:13:56.163394 12764 net.cpp:110] Creating Layer dir18_BR
I1022 15:13:56.163399 12764 net.cpp:477] dir18_BR <- pool5/7x7_s1_pool5/drop_7x7_s1_0_split_37
I1022 15:13:56.163408 12764 net.cpp:433] dir18_BR -> dir18_BR
I1022 15:13:56.163882 12764 net.cpp:155] Setting up dir18_BR
I1022 15:13:56.163895 12764 net.cpp:163] Top shape: 128 4 1 1 (512)
I1022 15:13:56.163903 12764 layer_factory.hpp:76] Creating layer dir19_TL
I1022 15:13:56.163913 12764 net.cpp:110] Creating Layer dir19_TL
I1022 15:13:56.163918 12764 net.cpp:477] dir19_TL <- pool5/7x7_s1_pool5/drop_7x7_s1_0_split_38
I1022 15:13:56.163926 12764 net.cpp:433] dir19_TL -> dir19_TL
I1022 15:13:56.164399 12764 net.cpp:155] Setting up dir19_TL
I1022 15:13:56.164412 12764 net.cpp:163] Top shape: 128 4 1 1 (512)
I1022 15:13:56.164420 12764 layer_factory.hpp:76] Creating layer dir19_BR
I1022 15:13:56.164429 12764 net.cpp:110] Creating Layer dir19_BR
I1022 15:13:56.164435 12764 net.cpp:477] dir19_BR <- pool5/7x7_s1_pool5/drop_7x7_s1_0_split_39
I1022 15:13:56.164448 12764 net.cpp:433] dir19_BR -> dir19_BR
I1022 15:13:56.164929 12764 net.cpp:155] Setting up dir19_BR
I1022 15:13:56.164943 12764 net.cpp:163] Top shape: 128 4 1 1 (512)
I1022 15:13:56.164952 12764 layer_factory.hpp:76] Creating layer cls
I1022 15:13:56.164960 12764 net.cpp:110] Creating Layer cls
I1022 15:13:56.164965 12764 net.cpp:477] cls <- pool5/7x7_s1_pool5/drop_7x7_s1_0_split_40
I1022 15:13:56.164974 12764 net.cpp:433] cls -> cls
I1022 15:13:56.165909 12764 net.cpp:155] Setting up cls
I1022 15:13:56.165922 12764 net.cpp:163] Top shape: 128 21 1 1 (2688)
I1022 15:13:56.165931 12764 layer_factory.hpp:76] Creating layer loss0_TL
I1022 15:13:56.165940 12764 net.cpp:110] Creating Layer loss0_TL
I1022 15:13:56.165945 12764 net.cpp:477] loss0_TL <- dir0_TL
I1022 15:13:56.165951 12764 net.cpp:477] loss0_TL <- dir0_TL_label
I1022 15:13:56.165957 12764 net.cpp:433] loss0_TL -> loss0_TL
I1022 15:13:56.165977 12764 layer_factory.hpp:76] Creating layer loss0_TL
…
I1022 17:22:01.244120 12764 attention_data_layer.cpp:116] num: 3000 /data1/PASCAL/VOCdevkit/VOC2007/JPEGImages/008574.jpg 3 500 333 attention data parsing... 64
I1022 17:22:01.530948 12764 attention_data_layer.cpp:116] num: 4000 /data1/PASCAL/VOCdevkit/VOC2007/JPEGImages/002955.jpg 3 375 500 attention data parsing... 64
I1022 17:22:01.804858 12764 attention_data_layer.cpp:125] Number of images  : 4952
I1022 17:22:01.804883 12764 attention_data_layer.cpp:126] Number of windows : 479232
I1022 17:22:01.804890 12764 attention_data_layer.cpp:134] output data size: 64,3,224,224
I1022 17:22:01.804934 12764 net.cpp:155] Setting up data
I1022 17:22:01.804944 12764 net.cpp:163] Top shape: 64 3 224 224 (9633792)
I1022 17:22:01.804949 12764 net.cpp:163] Top shape: 64 (64)
I1022 17:22:01.804957 12764 net.cpp:163] Top shape: 64 (64)
I1022 17:22:01.804961 12764 net.cpp:163] Top shape: 64 (64)
I1022 17:22:01.804966 12764 net.cpp:163] Top shape: 64 (64)
I1022 17:22:01.804971 12764 net.cpp:163] Top shape: 64 (64)
I1022 17:22:01.804975 12764 net.cpp:163] Top shape: 64 (64)
I1022 17:22:01.804980 12764 net.cpp:163] Top shape: 64 (64)
I1022 17:22:01.804986 12764 net.cpp:163] Top shape: 64 (64)
I1022 17:22:01.804990 12764 net.cpp:163] Top shape: 64 (64)
I1022 17:22:01.804993 12764 net.cpp:163] Top shape: 64 (64)
I1022 17:22:01.804997 12764 net.cpp:163] Top shape: 64 (64)
I1022 17:22:01.805002 12764 net.cpp:163] Top shape: 64 (64)
I1022 17:22:01.805006 12764 net.cpp:163] Top shape: 64 (64)
I1022 17:22:01.805011 12764 net.cpp:163] Top shape: 64 (64)
I1022 17:22:01.805016 12764 net.cpp:163] Top shape: 64 (64)
I1022 17:22:01.805019 12764 net.cpp:163] Top shape: 64 (64)
I1022 17:22:01.805023 12764 net.cpp:163] Top shape: 64 (64)
I1022 17:22:01.805028 12764 net.cpp:163] Top shape: 64 (64)
I1022 17:22:01.805032 12764 net.cpp:163] Top shape: 64 (64)
I1022 17:22:01.805037 12764 net.cpp:163] Top shape: 64 (64)
I1022 17:22:01.805040 12764 net.cpp:163] Top shape: 64 (64)
I1022 17:22:01.805045 12764 net.cpp:163] Top shape: 64 (64)
I1022 17:22:01.805049 12764 net.cpp:163] Top shape: 64 (64)
I1022 17:22:01.805053 12764 net.cpp:163] Top shape: 64 (64)
I1022 17:22:01.805058 12764 net.cpp:163] Top shape: 64 (64)
I1022 17:22:01.805061 12764 net.cpp:163] Top shape: 64 (64)
I1022 17:22:01.805065 12764 net.cpp:163] Top shape: 64 (64)
I1022 17:22:01.805070 12764 net.cpp:163] Top shape: 64 (64)
I1022 17:22:01.805074 12764 net.cpp:163] Top shape: 64 (64)
I1022 17:22:01.805078 12764 net.cpp:163] Top shape: 64 (64)
I1022 17:22:01.805095 12764 net.cpp:163] Top shape: 64 (64)
I1022 17:22:01.805100 12764 net.cpp:163] Top shape: 64 (64)
I1022 17:22:01.805104 12764 net.cpp:163] Top shape: 64 (64)
I1022 17:22:01.805109 12764 net.cpp:163] Top shape: 64 (64)
I1022 17:22:01.805114 12764 net.cpp:163] Top shape: 64 (64)
I1022 17:22:01.805117 12764 net.cpp:163] Top shape: 64 (64)
I1022 17:22:01.805121 12764 net.cpp:163] Top shape: 64 (64)
I1022 17:22:01.805126 12764 net.cpp:163] Top shape: 64 (64)
I1022 17:22:01.805130 12764 net.cpp:163] Top shape: 64 (64)
I1022 17:22:01.805135 12764 net.cpp:163] Top shape: 64 (64)
I1022 17:22:01.805138 12764 net.cpp:163] Top shape: 64 (64)
I1022 17:22:01.805145 12764 layer_factory.hpp:76] Creating layer dir0_TL_label_data_1_split
I1022 17:22:01.805158 12764 net.cpp:110] Creating Layer dir0_TL_label_data_1_split
I1022 17:22:01.805165 12764 net.cpp:477] dir0_TL_label_data_1_split <- dir0_TL_label
I1022 17:22:01.805173 12764 net.cpp:433] dir0_TL_label_data_1_split -> dir0_TL_label_data_1_split_0
I1022 17:22:01.805184 12764 net.cpp:433] dir0_TL_label_data_1_split -> dir0_TL_label_data_1_split_1
I1022 17:22:01.805194 12764 net.cpp:155] Setting up dir0_TL_label_data_1_split
I1022 17:22:01.805201 12764 net.cpp:163] Top shape: 64 (64)
I1022 17:22:01.805205 12764 net.cpp:163] Top shape: 64 (64)
I1022 17:22:01.805209 12764 layer_factory.hpp:76] Creating layer dir0_BR_label_data_2_split
I1022 17:22:01.805215 12764 net.cpp:110] Creating Layer dir0_BR_label_data_2_split
I1022 17:22:01.805220 12764 net.cpp:477] dir0_BR_label_data_2_split <- dir0_BR_label
I1022 17:22:01.805227 12764 net.cpp:433] dir0_BR_label_data_2_split -> dir0_BR_label_data_2_split_0
I1022 17:22:01.805234 12764 net.cpp:433] dir0_BR_label_data_2_split -> dir0_BR_label_data_2_split_1
I1022 17:22:01.805241 12764 net.cpp:155] Setting up dir0_BR_label_data_2_split
I1022 17:22:01.805250 12764 net.cpp:163] Top shape: 64 (64)
I1022 17:22:01.805256 12764 net.cpp:163] Top shape: 64 (64)
I1022 17:22:01.805260 12764 layer_factory.hpp:76] Creating layer dir1_TL_label_data_3_split
I1022 17:22:01.805266 12764 net.cpp:110] Creating Layer dir1_TL_label_data_3_split
I1022 17:22:01.805271 12764 net.cpp:477] dir1_TL_label_data_3_split <- dir1_TL_label
I1022 17:22:01.805277 12764 net.cpp:433] dir1_TL_label_data_3_split -> dir1_TL_label_data_3_split_0
I1022 17:22:01.805284 12764 net.cpp:433] dir1_TL_label_data_3_split -> dir1_TL_label_data_3_split_1
I1022 17:22:01.805292 12764 net.cpp:155] Setting up dir1_TL_label_data_3_split
I1022 17:22:01.805299 12764 net.cpp:163] Top shape: 64 (64)
I1022 17:22:01.805302 12764 net.cpp:163] Top shape: 64 (64)
I1022 17:22:01.805306 12764 layer_factory.hpp:76] Creating layer dir1_BR_label_data_4_split
I1022 17:22:01.805312 12764 net.cpp:110] Creating Layer dir1_BR_label_data_4_split
I1022 17:22:01.805317 12764 net.cpp:477] dir1_BR_label_data_4_split <- dir1_BR_label
I1022 17:22:01.805325 12764 net.cpp:433] dir1_BR_label_data_4_split -> dir1_BR_label_data_4_split_0
I1022 17:22:01.805331 12764 net.cpp:433] dir1_BR_label_data_4_split -> dir1_BR_label_data_4_split_1
I1022 17:22:01.805338 12764 net.cpp:155] Setting up dir1_BR_label_data_4_split
I1022 17:22:01.805344 12764 net.cpp:163] Top shape: 64 (64)
I1022 17:22:01.805348 12764 net.cpp:163] Top shape: 64 (64)
I1022 17:22:01.805352 12764 layer_factory.hpp:76] Creating layer dir2_TL_label_data_5_split
I1022 17:22:01.805358 12764 net.cpp:110] Creating Layer dir2_TL_label_data_5_split
I1022 17:22:01.805362 12764 net.cpp:477] dir2_TL_label_data_5_split <- dir2_TL_label
I1022 17:22:01.805369 12764 net.cpp:433] dir2_TL_label_data_5_split -> dir2_TL_label_data_5_split_0
I1022 17:22:01.805377 12764 net.cpp:433] dir2_TL_label_data_5_split -> dir2_TL_label_data_5_split_1
I1022 17:22:01.805383 12764 net.cpp:155] Setting up dir2_TL_label_data_5_split
I1022 17:22:01.805388 12764 net.cpp:163] Top shape: 64 (64)
I1022 17:22:01.805393 12764 net.cpp:163] Top shape: 64 (64)
I1022 17:22:01.805397 12764 layer_factory.hpp:76] Creating layer dir2_BR_label_data_6_split
I1022 17:22:01.805402 12764 net.cpp:110] Creating Layer dir2_BR_label_data_6_split
I1022 17:22:01.805413 12764 net.cpp:477] dir2_BR_label_data_6_split <- dir2_BR_label
I1022 17:22:01.805418 12764 net.cpp:433] dir2_BR_label_data_6_split -> dir2_BR_label_data_6_split_0
I1022 17:22:01.805425 12764 net.cpp:433] dir2_BR_label_data_6_split -> dir2_BR_label_data_6_split_1
I1022 17:22:01.805433 12764 net.cpp:155] Setting up dir2_BR_label_data_6_split
I1022 17:22:01.805438 12764 net.cpp:163] Top shape: 64 (64)
I1022 17:22:01.805443 12764 net.cpp:163] Top shape: 64 (64)
I1022 17:22:01.805447 12764 layer_factory.hpp:76] Creating layer dir3_TL_label_data_7_split
I1022 17:22:01.805452 12764 net.cpp:110] Creating Layer dir3_TL_label_data_7_split
I1022 17:22:01.805456 12764 net.cpp:477] dir3_TL_label_data_7_split <- dir3_TL_label
I1022 17:22:01.805462 12764 net.cpp:433] dir3_TL_label_data_7_split -> dir3_TL_label_data_7_split_0
I1022 17:22:01.805469 12764 net.cpp:433] dir3_TL_label_data_7_split -> dir3_TL_label_data_7_split_1
I1022 17:22:01.805477 12764 net.cpp:155] Setting up dir3_TL_label_data_7_split
I1022 17:22:01.805482 12764 net.cpp:163] Top shape: 64 (64)
I1022 17:22:01.805486 12764 net.cpp:163] Top shape: 64 (64)
I1022 17:22:01.805490 12764 layer_factory.hpp:76] Creating layer dir3_BR_label_data_8_split
I1022 17:22:01.805498 12764 net.cpp:110] Creating Layer dir3_BR_label_data_8_split
I1022 17:22:01.805502 12764 net.cpp:477] dir3_BR_label_data_8_split <- dir3_BR_label
I1022 17:22:01.805508 12764 net.cpp:433] dir3_BR_label_data_8_split -> dir3_BR_label_data_8_split_0
I1022 17:22:01.805516 12764 net.cpp:433] dir3_BR_label_data_8_split -> dir3_BR_label_data_8_split_1
I1022 17:22:01.805522 12764 net.cpp:155] Setting up dir3_BR_label_data_8_split
I1022 17:22:01.805527 12764 net.cpp:163] Top shape: 64 (64)
I1022 17:22:01.805532 12764 net.cpp:163] Top shape: 64 (64)
I1022 17:22:01.805536 12764 layer_factory.hpp:76] Creating layer dir4_TL_label_data_9_split
I1022 17:22:01.805544 12764 net.cpp:110] Creating Layer dir4_TL_label_data_9_split
I1022 17:22:01.805549 12764 net.cpp:477] dir4_TL_label_data_9_split <- dir4_TL_label
I1022 17:22:01.805555 12764 net.cpp:433] dir4_TL_label_data_9_split -> dir4_TL_label_data_9_split_0
I1022 17:22:01.805562 12764 net.cpp:433] dir4_TL_label_data_9_split -> dir4_TL_label_data_9_split_1
I1022 17:22:01.805569 12764 net.cpp:155] Setting up dir4_TL_label_data_9_split
I1022 17:22:01.805574 12764 net.cpp:163] Top shape: 64 (64)
I1022 17:22:01.805578 12764 net.cpp:163] Top shape: 64 (64)
I1022 17:22:01.805583 12764 layer_factory.hpp:76] Creating layer dir4_BR_label_data_10_split
I1022 17:22:01.805588 12764 net.cpp:110] Creating Layer dir4_BR_label_data_10_split
I1022 17:22:01.805593 12764 net.cpp:477] dir4_BR_label_data_10_split <- dir4_BR_label
I1022 17:22:01.805598 12764 net.cpp:433] dir4_BR_label_data_10_split -> dir4_BR_label_data_10_split_0
I1022 17:22:01.805604 12764 net.cpp:433] dir4_BR_label_data_10_split -> dir4_BR_label_data_10_split_1
I1022 17:22:01.805613 12764 net.cpp:155] Setting up dir4_BR_label_data_10_split
I1022 17:22:01.805618 12764 net.cpp:163] Top shape: 64 (64)
I1022 17:22:01.805622 12764 net.cpp:163] Top shape: 64 (64)
I1022 17:22:01.805626 12764 layer_factory.hpp:76] Creating layer dir5_TL_label_data_11_split
I1022 17:22:01.805632 12764 net.cpp:110] Creating Layer dir5_TL_label_data_11_split
I1022 17:22:01.805636 12764 net.cpp:477] dir5_TL_label_data_11_split <- dir5_TL_label
I1022 17:22:01.805642 12764 net.cpp:433] dir5_TL_label_data_11_split -> dir5_TL_label_data_11_split_0
I1022 17:22:01.805649 12764 net.cpp:433] dir5_TL_label_data_11_split -> dir5_TL_label_data_11_split_1
I1022 17:22:01.805655 12764 net.cpp:155] Setting up dir5_TL_label_data_11_split
I1022 17:22:01.805661 12764 net.cpp:163] Top shape: 64 (64)
I1022 17:22:01.805665 12764 net.cpp:163] Top shape: 64 (64)
I1022 17:22:01.805670 12764 layer_factory.hpp:76] Creating layer dir5_BR_label_data_12_split
I1022 17:22:01.805675 12764 net.cpp:110] Creating Layer dir5_BR_label_data_12_split
I1022 17:22:01.805680 12764 net.cpp:477] dir5_BR_label_data_12_split <- dir5_BR_label
I1022 17:22:01.805690 12764 net.cpp:433] dir5_BR_label_data_12_split -> dir5_BR_label_data_12_split_0
I1022 17:22:01.805702 12764 net.cpp:433] dir5_BR_label_data_12_split -> dir5_BR_label_data_12_split_1
I1022 17:22:01.805711 12764 net.cpp:155] Setting up dir5_BR_label_data_12_split
I1022 17:22:01.805716 12764 net.cpp:163] Top shape: 64 (64)
I1022 17:22:01.805721 12764 net.cpp:163] Top shape: 64 (64)
I1022 17:22:01.805724 12764 layer_factory.hpp:76] Creating layer dir6_TL_label_data_13_split
I1022 17:22:01.805730 12764 net.cpp:110] Creating Layer dir6_TL_label_data_13_split
I1022 17:22:01.805734 12764 net.cpp:477] dir6_TL_label_data_13_split <- dir6_TL_label
I1022 17:22:01.805739 12764 net.cpp:433] dir6_TL_label_data_13_split -> dir6_TL_label_data_13_split_0
I1022 17:22:01.805747 12764 net.cpp:433] dir6_TL_label_data_13_split -> dir6_TL_label_data_13_split_1
I1022 17:22:01.805753 12764 net.cpp:155] Setting up dir6_TL_label_data_13_split
I1022 17:22:01.805758 12764 net.cpp:163] Top shape: 64 (64)
I1022 17:22:01.805763 12764 net.cpp:163] Top shape: 64 (64)
I1022 17:22:01.805768 12764 layer_factory.hpp:76] Creating layer dir6_BR_label_data_14_split
I1022 17:22:01.805773 12764 net.cpp:110] Creating Layer dir6_BR_label_data_14_split
I1022 17:22:01.805778 12764 net.cpp:477] dir6_BR_label_data_14_split <- dir6_BR_label
I1022 17:22:01.805783 12764 net.cpp:433] dir6_BR_label_data_14_split -> dir6_BR_label_data_14_split_0
I1022 17:22:01.805790 12764 net.cpp:433] dir6_BR_label_data_14_split -> dir6_BR_label_data_14_split_1
I1022 17:22:01.805798 12764 net.cpp:155] Setting up dir6_BR_label_data_14_split
I1022 17:22:01.805802 12764 net.cpp:163] Top shape: 64 (64)
I1022 17:22:01.805807 12764 net.cpp:163] Top shape: 64 (64)
I1022 17:22:01.805811 12764 layer_factory.hpp:76] Creating layer dir7_TL_label_data_15_split
I1022 17:22:01.805816 12764 net.cpp:110] Creating Layer dir7_TL_label_data_15_split
…
I1022 17:22:01.876762 12764 net.cpp:155] Setting up inception_5b/relu_pool_proj
I1022 17:22:01.876770 12764 net.cpp:163] Top shape: 64 128 7 7 (401408)
I1022 17:22:01.876775 12764 layer_factory.hpp:76] Creating layer inception_5b/output
I1022 17:22:01.876782 12764 net.cpp:110] Creating Layer inception_5b/output
I1022 17:22:01.876786 12764 net.cpp:477] inception_5b/output <- inception_5b/1x1
I1022 17:22:01.876792 12764 net.cpp:477] inception_5b/output <- inception_5b/3x3
I1022 17:22:01.876797 12764 net.cpp:477] inception_5b/output <- inception_5b/5x5
I1022 17:22:01.876802 12764 net.cpp:477] inception_5b/output <- inception_5b/pool_proj
I1022 17:22:01.876808 12764 net.cpp:433] inception_5b/output -> inception_5b/output
I1022 17:22:01.876816 12764 net.cpp:155] Setting up inception_5b/output
I1022 17:22:01.876821 12764 net.cpp:163] Top shape: 64 1024 7 7 (3211264)
I1022 17:22:01.876827 12764 layer_factory.hpp:76] Creating layer pool5/7x7_s1
I1022 17:22:01.876832 12764 net.cpp:110] Creating Layer pool5/7x7_s1
I1022 17:22:01.876837 12764 net.cpp:477] pool5/7x7_s1 <- inception_5b/output
I1022 17:22:01.876843 12764 net.cpp:433] pool5/7x7_s1 -> pool5/7x7_s1
I1022 17:22:01.876901 12764 net.cpp:155] Setting up pool5/7x7_s1
I1022 17:22:01.876909 12764 net.cpp:163] Top shape: 64 1024 1 1 (65536)
I1022 17:22:01.876914 12764 layer_factory.hpp:76] Creating layer pool5/drop_7x7_s1
I1022 17:22:01.876920 12764 net.cpp:110] Creating Layer pool5/drop_7x7_s1
I1022 17:22:01.876925 12764 net.cpp:477] pool5/drop_7x7_s1 <- pool5/7x7_s1
I1022 17:22:01.876931 12764 net.cpp:419] pool5/drop_7x7_s1 -> pool5/7x7_s1 (in-place)
I1022 17:22:01.876946 12764 net.cpp:155] Setting up pool5/drop_7x7_s1
I1022 17:22:01.876952 12764 net.cpp:163] Top shape: 64 1024 1 1 (65536)
I1022 17:22:01.876956 12764 layer_factory.hpp:76] Creating layer pool5/7x7_s1_pool5/drop_7x7_s1_0_split
I1022 17:22:01.876966 12764 net.cpp:110] Creating Layer pool5/7x7_s1_pool5/drop_7x7_s1_0_split
I1022 17:22:01.876971 12764 net.cpp:477] pool5/7x7_s1_pool5/drop_7x7_s1_0_split <- pool5/7x7_s1
I1022 17:22:01.876977 12764 net.cpp:433] pool5/7x7_s1_pool5/drop_7x7_s1_0_split -> pool5/7x7_s1_pool5/drop_7x7_s1_0_split_0
…
I1022 17:22:01.877388 12764 net.cpp:433] pool5/7x7_s1_pool5/drop_7x7_s1_0_split -> pool5/7x7_s1_pool5/drop_7x7_s1_0_split_37
I1022 17:22:01.877396 12764 net.cpp:433] pool5/7x7_s1_pool5/drop_7x7_s1_0_split -> pool5/7x7_s1_pool5/drop_7x7_s1_0_split_38
I1022 17:22:01.877406 12764 net.cpp:433] pool5/7x7_s1_pool5/drop_7x7_s1_0_split -> pool5/7x7_s1_pool5/drop_7x7_s1_0_split_39
I1022 17:22:01.877416 12764 net.cpp:433] pool5/7x7_s1_pool5/drop_7x7_s1_0_split -> pool5/7x7_s1_pool5/drop_7x7_s1_0_split_40
I1022 17:22:01.877444 12764 net.cpp:155] Setting up pool5/7x7_s1_pool5/drop_7x7_s1_0_split
I1022 17:22:01.877449 12764 net.cpp:163] Top shape: 64 1024 1 1 (65536)
I1022 17:22:01.877454 12764 net.cpp:163] Top shape: 64 1024 1 1 (65536)
I1022 17:22:01.877459 12764 net.cpp:163] Top shape: 64 1024 1 1 (65536)
I1022 17:22:01.877462 12764 net.cpp:163] Top shape: 64 1024 1 1 (65536)
I1022 17:22:01.877470 12764 net.cpp:163] Top shape: 64 1024 1 1 (65536)
I1022 17:22:01.877475 12764 net.cpp:163] Top shape: 64 1024 1 1 (65536)
I1022 17:22:01.877478 12764 net.cpp:163] Top shape: 64 1024 1 1 (65536)
I1022 17:22:01.877482 12764 net.cpp:163] Top shape: 64 1024 1 1 (65536)
I1022 17:22:01.877487 12764 net.cpp:163] Top shape: 64 1024 1 1 (65536)
I1022 17:22:01.877491 12764 net.cpp:163] Top shape: 64 1024 1 1 (65536)
I1022 17:22:01.877496 12764 net.cpp:163] Top shape: 64 1024 1 1 (65536)
I1022 17:22:01.877499 12764 net.cpp:163] Top shape: 64 1024 1 1 (65536)
I1022 17:22:01.877504 12764 net.cpp:163] Top shape: 64 1024 1 1 (65536)
I1022 17:22:01.877508 12764 net.cpp:163] Top shape: 64 1024 1 1 (65536)
I1022 17:22:01.877512 12764 net.cpp:163] Top shape: 64 1024 1 1 (65536)
I1022 17:22:01.877517 12764 net.cpp:163] Top shape: 64 1024 1 1 (65536)
I1022 17:22:01.877522 12764 net.cpp:163] Top shape: 64 1024 1 1 (65536)
I1022 17:22:01.877527 12764 net.cpp:163] Top shape: 64 1024 1 1 (65536)
I1022 17:22:01.877532 12764 net.cpp:163] Top shape: 64 1024 1 1 (65536)
I1022 17:22:01.877535 12764 net.cpp:163] Top shape: 64 1024 1 1 (65536)
I1022 17:22:01.877539 12764 net.cpp:163] Top shape: 64 1024 1 1 (65536)
I1022 17:22:01.877544 12764 net.cpp:163] Top shape: 64 1024 1 1 (65536)
I1022 17:22:01.877548 12764 net.cpp:163] Top shape: 64 1024 1 1 (65536)
I1022 17:22:01.877552 12764 net.cpp:163] Top shape: 64 1024 1 1 (65536)
I1022 17:22:01.877557 12764 net.cpp:163] Top shape: 64 1024 1 1 (65536)
I1022 17:22:01.877562 12764 net.cpp:163] Top shape: 64 1024 1 1 (65536)
I1022 17:22:01.877565 12764 net.cpp:163] Top shape: 64 1024 1 1 (65536)
I1022 17:22:01.877570 12764 net.cpp:163] Top shape: 64 1024 1 1 (65536)
I1022 17:22:01.877574 12764 net.cpp:163] Top shape: 64 1024 1 1 (65536)
I1022 17:22:01.877578 12764 net.cpp:163] Top shape: 64 1024 1 1 (65536)
I1022 17:22:01.877583 12764 net.cpp:163] Top shape: 64 1024 1 1 (65536)
I1022 17:22:01.877588 12764 net.cpp:163] Top shape: 64 1024 1 1 (65536)
I1022 17:22:01.877591 12764 net.cpp:163] Top shape: 64 1024 1 1 (65536)
I1022 17:22:01.877596 12764 net.cpp:163] Top shape: 64 1024 1 1 (65536)
I1022 17:22:01.877600 12764 net.cpp:163] Top shape: 64 1024 1 1 (65536)
I1022 17:22:01.877609 12764 net.cpp:163] Top shape: 64 1024 1 1 (65536)
I1022 17:22:01.877614 12764 net.cpp:163] Top shape: 64 1024 1 1 (65536)
I1022 17:22:01.877617 12764 net.cpp:163] Top shape: 64 1024 1 1 (65536)
I1022 17:22:01.877621 12764 net.cpp:163] Top shape: 64 1024 1 1 (65536)
I1022 17:22:01.877626 12764 net.cpp:163] Top shape: 64 1024 1 1 (65536)
I1022 17:22:01.877630 12764 net.cpp:163] Top shape: 64 1024 1 1 (65536)
I1022 17:22:01.877635 12764 layer_factory.hpp:76] Creating layer dir0_TL
I1022 17:22:01.877642 12764 net.cpp:110] Creating Layer dir0_TL
I1022 17:22:01.877647 12764 net.cpp:477] dir0_TL <- pool5/7x7_s1_pool5/drop_7x7_s1_0_split_0
I1022 17:22:01.877656 12764 net.cpp:433] dir0_TL -> dir0_TL
I1022 17:22:01.878445 12764 net.cpp:155] Setting up dir0_TL
I1022 17:22:01.878460 12764 net.cpp:163] Top shape: 64 4 1 1 (256)
I1022 17:22:01.878468 12764 layer_factory.hpp:76] Creating layer dir0_TL_dir0_TL_0_split
I1022 17:22:01.878475 12764 net.cpp:110] Creating Layer dir0_TL_dir0_TL_0_split
I1022 17:22:01.878480 12764 net.cpp:477] dir0_TL_dir0_TL_0_split <- dir0_TL
I1022 17:22:01.878486 12764 net.cpp:433] dir0_TL_dir0_TL_0_split -> dir0_TL_dir0_TL_0_split_0
I1022 17:22:01.878495 12764 net.cpp:433] dir0_TL_dir0_TL_0_split -> dir0_TL_dir0_TL_0_split_1
I1022 17:22:01.878504 12764 net.cpp:155] Setting up dir0_TL_dir0_TL_0_split
I1022 17:22:01.878509 12764 net.cpp:163] Top shape: 64 4 1 1 (256)
I1022 17:22:01.878514 12764 net.cpp:163] Top shape: 64 4 1 1 (256)
I1022 17:22:01.878517 12764 layer_factory.hpp:76] Creating layer dir0_BR
I1022 17:22:01.878525 12764 net.cpp:110] Creating Layer dir0_BR
I1022 17:22:01.878530 12764 net.cpp:477] dir0_BR <- pool5/7x7_s1_pool5/drop_7x7_s1_0_split_1
I1022 17:22:01.878537 12764 net.cpp:433] dir0_BR -> dir0_BR
I1022 17:22:01.879298 12764 net.cpp:155] Setting up dir0_BR
I1022 17:22:01.879312 12764 net.cpp:163] Top shape: 64 4 1 1 (256)
I1022 17:22:01.879324 12764 layer_factory.hpp:76] Creating layer dir0_BR_dir0_BR_0_split
I1022 17:22:01.879331 12764 net.cpp:110] Creating Layer dir0_BR_dir0_BR_0_split
I1022 17:22:01.879336 12764 net.cpp:477] dir0_BR_dir0_BR_0_split <- dir0_BR
I1022 17:22:01.879344 12764 net.cpp:433] dir0_BR_dir0_BR_0_split -> dir0_BR_dir0_BR_0_split_0
I1022 17:22:01.879353 12764 net.cpp:433] dir0_BR_dir0_BR_0_split -> dir0_BR_dir0_BR_0_split_1
I1022 17:22:01.879360 12764 net.cpp:155] Setting up dir0_BR_dir0_BR_0_split
I1022 17:22:01.879366 12764 net.cpp:163] Top shape: 64 4 1 1 (256)
I1022 17:22:01.879370 12764 net.cpp:163] Top shape: 64 4 1 1 (256)
I1022 17:22:01.879375 12764 layer_factory.hpp:76] Creating layer dir1_TL
I1022 17:22:01.879382 12764 net.cpp:110] Creating Layer dir1_TL
I1022 17:22:01.879387 12764 net.cpp:477] dir1_TL <- pool5/7x7_s1_pool5/drop_7x7_s1_0_split_2
I1022 17:22:01.879395 12764 net.cpp:433] dir1_TL -> dir1_TL
I1022 17:22:01.880141 12764 net.cpp:155] Setting up dir1_TL
I1022 17:22:01.880156 12764 net.cpp:163] Top shape: 64 4 1 1 (256)
I1022 17:22:01.880163 12764 layer_factory.hpp:76] Creating layer dir1_TL_dir1_TL_0_split
I1022 17:22:01.880169 12764 net.cpp:110] Creating Layer dir1_TL_dir1_TL_0_split
I1022 17:22:01.880174 12764 net.cpp:477] dir1_TL_dir1_TL_0_split <- dir1_TL
I1022 17:22:01.880182 12764 net.cpp:433] dir1_TL_dir1_TL_0_split -> dir1_TL_dir1_TL_0_split_0
I1022 17:22:01.880190 12764 net.cpp:433] dir1_TL_dir1_TL_0_split -> dir1_TL_dir1_TL_0_split_1
I1022 17:22:01.880198 12764 net.cpp:155] Setting up dir1_TL_dir1_TL_0_split
I1022 17:22:01.880203 12764 net.cpp:163] Top shape: 64 4 1 1 (256)
I1022 17:22:01.880208 12764 net.cpp:163] Top shape: 64 4 1 1 (256)
I1022 17:22:01.880213 12764 layer_factory.hpp:76] Creating layer dir1_BR
I1022 17:22:01.880220 12764 net.cpp:110] Creating Layer dir1_BR
I1022 17:22:01.880225 12764 net.cpp:477] dir1_BR <- pool5/7x7_s1_pool5/drop_7x7_s1_0_split_3
I1022 17:22:01.880233 12764 net.cpp:433] dir1_BR -> dir1_BR
I1022 17:22:01.880972 12764 net.cpp:155] Setting up dir1_BR
I1022 17:22:01.880985 12764 net.cpp:163] Top shape: 64 4 1 1 (256)
I1022 17:22:01.880993 12764 layer_factory.hpp:76] Creating layer dir1_BR_dir1_BR_0_split
I1022 17:22:01.881011 12764 net.cpp:110] Creating Layer dir1_BR_dir1_BR_0_split
I1022 17:22:01.881016 12764 net.cpp:477] dir1_BR_dir1_BR_0_split <- dir1_BR
I1022 17:22:01.881022 12764 net.cpp:433] dir1_BR_dir1_BR_0_split -> dir1_BR_dir1_BR_0_split_0
I1022 17:22:01.881031 12764 net.cpp:433] dir1_BR_dir1_BR_0_split -> dir1_BR_dir1_BR_0_split_1
I1022 17:22:01.881038 12764 net.cpp:155] Setting up dir1_BR_dir1_BR_0_split
I1022 17:22:01.881044 12764 net.cpp:163] Top shape: 64 4 1 1 (256)
I1022 17:22:01.881048 12764 net.cpp:163] Top shape: 64 4 1 1 (256)
I1022 17:22:01.881052 12764 layer_factory.hpp:76] Creating layer dir2_TL
I1022 17:22:01.881060 12764 net.cpp:110] Creating Layer dir2_TL
I1022 17:22:01.881065 12764 net.cpp:477] dir2_TL <- pool5/7x7_s1_pool5/drop_7x7_s1_0_split_4
I1022 17:22:01.881073 12764 net.cpp:433] dir2_TL -> dir2_TL
I1022 17:22:01.881817 12764 net.cpp:155] Setting up dir2_TL
I1022 17:22:01.881831 12764 net.cpp:163] Top shape: 64 4 1 1 (256)
I1022 17:22:01.881839 12764 layer_factory.hpp:76] Creating layer dir2_TL_dir2_TL_0_split
I1022 17:22:01.881845 12764 net.cpp:110] Creating Layer dir2_TL_dir2_TL_0_split
I1022 17:22:01.881850 12764 net.cpp:477] dir2_TL_dir2_TL_0_split <- dir2_TL
I1022 17:22:01.881857 12764 net.cpp:433] dir2_TL_dir2_TL_0_split -> dir2_TL_dir2_TL_0_split_0
I1022 17:22:01.881865 12764 net.cpp:433] dir2_TL_dir2_TL_0_split -> dir2_TL_dir2_TL_0_split_1
I1022 17:22:01.881873 12764 net.cpp:155] Setting up dir2_TL_dir2_TL_0_split
I1022 17:22:01.881878 12764 net.cpp:163] Top shape: 64 4 1 1 (256)
I1022 17:22:01.881883 12764 net.cpp:163] Top shape: 64 4 1 1 (256)
I1022 17:22:01.881887 12764 layer_factory.hpp:76] Creating layer dir2_BR
I1022 17:22:01.881896 12764 net.cpp:110] Creating Layer dir2_BR
I1022 17:22:01.881901 12764 net.cpp:477] dir2_BR <- pool5/7x7_s1_pool5/drop_7x7_s1_0_split_5
I1022 17:22:01.881912 12764 net.cpp:433] dir2_BR -> dir2_BR
I1022 17:22:01.882664 12764 net.cpp:155] Setting up dir2_BR
I1022 17:22:01.882678 12764 net.cpp:163] Top shape: 64 4 1 1 (256)
I1022 17:22:01.882686 12764 layer_factory.hpp:76] Creating layer dir2_BR_dir2_BR_0_split
I1022 17:22:01.882694 12764 net.cpp:110] Creating Layer dir2_BR_dir2_BR_0_split
I1022 17:22:01.882699 12764 net.cpp:477] dir2_BR_dir2_BR_0_split <- dir2_BR
I1022 17:22:01.882705 12764 net.cpp:433] dir2_BR_dir2_BR_0_split -> dir2_BR_dir2_BR_0_split_0
I1022 17:22:01.882714 12764 net.cpp:433] dir2_BR_dir2_BR_0_split -> dir2_BR_dir2_BR_0_split_1
I1022 17:22:01.882721 12764 net.cpp:155] Setting up dir2_BR_dir2_BR_0_split
I1022 17:22:01.882726 12764 net.cpp:163] Top shape: 64 4 1 1 (256)
I1022 17:22:01.882731 12764 net.cpp:163] Top shape: 64 4 1 1 (256)
I1022 17:22:01.882735 12764 layer_factory.hpp:76] Creating layer dir3_TL
I1022 17:22:01.882742 12764 net.cpp:110] Creating Layer dir3_TL
I1022 17:22:01.882747 12764 net.cpp:477] dir3_TL <- pool5/7x7_s1_pool5/drop_7x7_s1_0_split_6
I1022 17:22:01.882755 12764 net.cpp:433] dir3_TL -> dir3_TL
I1022 17:22:01.883496 12764 net.cpp:155] Setting up dir3_TL
I1022 17:22:01.883509 12764 net.cpp:163] Top shape: 64 4 1 1 (256)
I1022 17:22:01.883517 12764 layer_factory.hpp:76] Creating layer dir3_TL_dir3_TL_0_split
I1022 17:22:01.883524 12764 net.cpp:110] Creating Layer dir3_TL_dir3_TL_0_split
I1022 17:22:01.883529 12764 net.cpp:477] dir3_TL_dir3_TL_0_split <- dir3_TL
I1022 17:22:01.883536 12764 net.cpp:433] dir3_TL_dir3_TL_0_split -> dir3_TL_dir3_TL_0_split_0
I1022 17:22:01.883544 12764 net.cpp:433] dir3_TL_dir3_TL_0_split -> dir3_TL_dir3_TL_0_split_1
I1022 17:22:01.883553 12764 net.cpp:155] Setting up dir3_TL_dir3_TL_0_split
I1022 17:22:01.883558 12764 net.cpp:163] Top shape: 64 4 1 1 (256)
I1022 17:22:01.883563 12764 net.cpp:163] Top shape: 64 4 1 1 (256)
I1022 17:22:01.883566 12764 layer_factory.hpp:76] Creating layer dir3_BR
I1022 17:22:01.883574 12764 net.cpp:110] Creating Layer dir3_BR
I1022 17:22:01.883579 12764 net.cpp:477] dir3_BR <- pool5/7x7_s1_pool5/drop_7x7_s1_0_split_7
I1022 17:22:01.883584 12764 net.cpp:433] dir3_BR -> dir3_BR
I1022 17:22:01.884325 12764 net.cpp:155] Setting up dir3_BR
I1022 17:22:01.884346 12764 net.cpp:163] Top shape: 64 4 1 1 (256)
I1022 17:22:01.884364 12764 layer_factory.hpp:76] Creating layer dir3_BR_dir3_BR_0_split
I1022 17:22:01.884372 12764 net.cpp:110] Creating Layer dir3_BR_dir3_BR_0_split
I1022 17:22:01.884377 12764 net.cpp:477] dir3_BR_dir3_BR_0_split <- dir3_BR
I1022 17:22:01.884383 12764 net.cpp:433] dir3_BR_dir3_BR_0_split -> dir3_BR_dir3_BR_0_split_0
I1022 17:22:01.884392 12764 net.cpp:433] dir3_BR_dir3_BR_0_split -> dir3_BR_dir3_BR_0_split_1
I1022 17:22:01.884400 12764 net.cpp:155] Setting up dir3_BR_dir3_BR_0_split
I1022 17:22:01.884405 12764 net.cpp:163] Top shape: 64 4 1 1 (256)
I1022 17:22:01.884410 12764 net.cpp:163] Top shape: 64 4 1 1 (256)
I1022 17:22:01.884414 12764 layer_factory.hpp:76] Creating layer dir4_TL
I1022 17:22:01.884421 12764 net.cpp:110] Creating Layer dir4_TL
I1022 17:22:01.884426 12764 net.cpp:477] dir4_TL <- pool5/7x7_s1_pool5/drop_7x7_s1_0_split_8
I1022 17:22:01.884433 12764 net.cpp:433] dir4_TL -> dir4_TL
I1022 17:22:01.885175 12764 net.cpp:155] Setting up dir4_TL
I1022 17:22:01.885190 12764 net.cpp:163] Top shape: 64 4 1 1 (256)
I1022 17:22:01.885197 12764 layer_factory.hpp:76] Creating layer dir4_TL_dir4_TL_0_split
I1022 17:22:01.885203 12764 net.cpp:110] Creating Layer dir4_TL_dir4_TL_0_split
I1022 17:22:01.885208 12764 net.cpp:477] dir4_TL_dir4_TL_0_split <- dir4_TL
I1022 17:22:01.885215 12764 net.cpp:433] dir4_TL_dir4_TL_0_split -> dir4_TL_dir4_TL_0_split_0
I1022 17:22:01.885224 12764 net.cpp:433] dir4_TL_dir4_TL_0_split -> dir4_TL_dir4_TL_0_split_1
I1022 17:22:01.885232 12764 net.cpp:155] Setting up dir4_TL_dir4_TL_0_split
I1022 17:22:01.885237 12764 net.cpp:163] Top shape: 64 4 1 1 (256)
I1022 17:22:01.885241 12764 net.cpp:163] Top shape: 64 4 1 1 (256)
I1022 17:22:01.885246 12764 layer_factory.hpp:76] Creating layer dir4_BR
I1022 17:22:01.885258 12764 net.cpp:110] Creating Layer dir4_BR
I1022 17:22:01.885263 12764 net.cpp:477] dir4_BR <- pool5/7x7_s1_pool5/drop_7x7_s1_0_split_9
I1022 17:22:01.885270 12764 net.cpp:433] dir4_BR -> dir4_BR
I1022 17:22:01.886014 12764 net.cpp:155] Setting up dir4_BR
I1022 17:22:01.886029 12764 net.cpp:163] Top shape: 64 4 1 1 (256)
I1022 17:22:01.886037 12764 layer_factory.hpp:76] Creating layer dir4_BR_dir4_BR_0_split
I1022 17:22:01.886044 12764 net.cpp:110] Creating Layer dir4_BR_dir4_BR_0_split
I1022 17:22:01.886049 12764 net.cpp:477] dir4_BR_dir4_BR_0_split <- dir4_BR
I1022 17:22:01.886055 12764 net.cpp:433] dir4_BR_dir4_BR_0_split -> dir4_BR_dir4_BR_0_split_0
I1022 17:22:01.886064 12764 net.cpp:433] dir4_BR_dir4_BR_0_split -> dir4_BR_dir4_BR_0_split_1
I1022 17:22:01.886071 12764 net.cpp:155] Setting up dir4_BR_dir4_BR_0_split
I1022 17:22:01.886076 12764 net.cpp:163] Top shape: 64 4 1 1 (256)
I1022 17:22:01.886081 12764 net.cpp:163] Top shape: 64 4 1 1 (256)
I1022 17:22:01.886085 12764 layer_factory.hpp:76] Creating layer dir5_TL
I1022 17:22:01.886093 12764 net.cpp:110] Creating Layer dir5_TL
I1022 17:22:01.886097 12764 net.cpp:477] dir5_TL <- pool5/7x7_s1_pool5/drop_7x7_s1_0_split_10
I1022 17:22:01.886106 12764 net.cpp:433] dir5_TL -> dir5_TL
I1022 17:22:01.886844 12764 net.cpp:155] Setting up dir5_TL
I1022 17:22:01.886858 12764 net.cpp:163] Top shape: 64 4 1 1 (256)
I1022 17:22:01.886865 12764 layer_factory.hpp:76] Creating layer dir5_TL_dir5_TL_0_split
I1022 17:22:01.886873 12764 net.cpp:110] Creating Layer dir5_TL_dir5_TL_0_split
I1022 17:22:01.886878 12764 net.cpp:477] dir5_TL_dir5_TL_0_split <- dir5_TL
I1022 17:22:01.886884 12764 net.cpp:433] dir5_TL_dir5_TL_0_split -> dir5_TL_dir5_TL_0_split_0
I1022 17:22:01.886893 12764 net.cpp:433] dir5_TL_dir5_TL_0_split -> dir5_TL_dir5_TL_0_split_1
I1022 17:22:01.886900 12764 net.cpp:155] Setting up dir5_TL_dir5_TL_0_split
I1022 17:22:01.886906 12764 net.cpp:163] Top shape: 64 4 1 1 (256)
I1022 17:22:01.886910 12764 net.cpp:163] Top shape: 64 4 1 1 (256)
I1022 17:22:01.886914 12764 layer_factory.hpp:76] Creating layer dir5_BR
I1022 17:22:01.886922 12764 net.cpp:110] Creating Layer dir5_BR
I1022 17:22:01.886927 12764 net.cpp:477] dir5_BR <- pool5/7x7_s1_pool5/drop_7x7_s1_0_split_11
I1022 17:22:01.886942 12764 net.cpp:433] dir5_BR -> dir5_BR
I1022 17:22:01.887694 12764 net.cpp:155] Setting up dir5_BR
I1022 17:22:01.887708 12764 net.cpp:163] Top shape: 64 4 1 1 (256)
I1022 17:22:01.887715 12764 layer_factory.hpp:76] Creating layer dir5_BR_dir5_BR_0_split
I1022 17:22:01.887722 12764 net.cpp:110] Creating Layer dir5_BR_dir5_BR_0_split
I1022 17:22:01.887727 12764 net.cpp:477] dir5_BR_dir5_BR_0_split <- dir5_BR
I1022 17:22:01.887733 12764 net.cpp:433] dir5_BR_dir5_BR_0_split -> dir5_BR_dir5_BR_0_split_0
I1022 17:22:01.887742 12764 net.cpp:433] dir5_BR_dir5_BR_0_split -> dir5_BR_dir5_BR_0_split_1
I1022 17:22:01.887749 12764 net.cpp:155] Setting up dir5_BR_dir5_BR_0_split
I1022 17:22:01.887755 12764 net.cpp:163] Top shape: 64 4 1 1 (256)
I1022 17:22:01.887759 12764 net.cpp:163] Top shape: 64 4 1 1 (256)
I1022 17:22:01.887763 12764 layer_factory.hpp:76] Creating layer dir6_TL
I1022 17:22:01.887771 12764 net.cpp:110] Creating Layer dir6_TL
I1022 17:22:01.887776 12764 net.cpp:477] dir6_TL <- pool5/7x7_s1_pool5/drop_7x7_s1_0_split_12
I1022 17:22:01.887784 12764 net.cpp:433] dir6_TL -> dir6_TL
I1022 17:22:01.888523 12764 net.cpp:155] Setting up dir6_TL
I1022 17:22:01.888536 12764 net.cpp:163] Top shape: 64 4 1 1 (256)
I1022 17:22:01.888545 12764 layer_factory.hpp:76] Creating layer dir6_TL_dir6_TL_0_split
I1022 17:22:01.888551 12764 net.cpp:110] Creating Layer dir6_TL_dir6_TL_0_split
I1022 17:22:01.888556 12764 net.cpp:477] dir6_TL_dir6_TL_0_split <- dir6_TL
I1022 17:22:01.888563 12764 net.cpp:433] dir6_TL_dir6_TL_0_split -> dir6_TL_dir6_TL_0_split_0
I1022 17:22:01.888571 12764 net.cpp:433] dir6_TL_dir6_TL_0_split -> dir6_TL_dir6_TL_0_split_1
I1022 17:22:01.888579 12764 net.cpp:155] Setting up dir6_TL_dir6_TL_0_split
I1022 17:22:01.888584 12764 net.cpp:163] Top shape: 64 4 1 1 (256)
I1022 17:22:01.888594 12764 net.cpp:163] Top shape: 64 4 1 1 (256)
I1022 17:22:01.888598 12764 layer_factory.hpp:76] Creating layer dir6_BR
I1022 17:22:01.888607 12764 net.cpp:110] Creating Layer dir6_BR
I1022 17:22:01.888612 12764 net.cpp:477] dir6_BR <- pool5/7x7_s1_pool5/drop_7x7_s1_0_split_13
I1022 17:22:01.888619 12764 net.cpp:433] dir6_BR -> dir6_BR
I1022 17:22:01.889363 12764 net.cpp:155] Setting up dir6_BR
I1022 17:22:01.889376 12764 net.cpp:163] Top shape: 64 4 1 1 (256)
I1022 17:22:01.889384 12764 layer_factory.hpp:76] Creating layer dir6_BR_dir6_BR_0_split
I1022 17:22:01.889390 12764 net.cpp:110] Creating Layer dir6_BR_dir6_BR_0_split
I1022 17:22:01.889395 12764 net.cpp:477] dir6_BR_dir6_BR_0_split <- dir6_BR
I1022 17:22:01.889402 12764 net.cpp:433] dir6_BR_dir6_BR_0_split -> dir6_BR_dir6_BR_0_split_0
I1022 17:22:01.889410 12764 net.cpp:433] dir6_BR_dir6_BR_0_split -> dir6_BR_dir6_BR_0_split_1
I1022 17:22:01.889418 12764 net.cpp:155] Setting up dir6_BR_dir6_BR_0_split
I1022 17:22:01.889423 12764 net.cpp:163] Top shape: 64 4 1 1 (256)
I1022 17:22:01.889428 12764 net.cpp:163] Top shape: 64 4 1 1 (256)
I1022 17:22:01.889432 12764 layer_factory.hpp:76] Creating layer dir7_TL
I1022 17:22:01.889441 12764 net.cpp:110] Creating Layer dir7_TL
I1022 17:22:01.889446 12764 net.cpp:477] dir7_TL <- pool5/7x7_s1_pool5/drop_7x7_s1_0_split_14
I1022 17:22:01.889452 12764 net.cpp:433] dir7_TL -> dir7_TL
I1022 17:22:01.890205 12764 net.cpp:155] Setting up dir7_TL
I1022 17:22:01.890219 12764 net.cpp:163] Top shape: 64 4 1 1 (256)
I1022 17:22:01.890228 12764 layer_factory.hpp:76] Creating layer dir7_TL_dir7_TL_0_split
I1022 17:22:01.890234 12764 net.cpp:110] Creating Layer dir7_TL_dir7_TL_0_split
I1022 17:22:01.890239 12764 net.cpp:477] dir7_TL_dir7_TL_0_split <- dir7_TL
I1022 17:22:01.890246 12764 net.cpp:433] dir7_TL_dir7_TL_0_split -> dir7_TL_dir7_TL_0_split_0
I1022 17:22:01.890254 12764 net.cpp:433] dir7_TL_dir7_TL_0_split -> dir7_TL_dir7_TL_0_split_1
I1022 17:22:01.890262 12764 net.cpp:155] Setting up dir7_TL_dir7_TL_0_split
I1022 17:22:01.890269 12764 net.cpp:163] Top shape: 64 4 1 1 (256)
I1022 17:22:01.890272 12764 net.cpp:163] Top shape: 64 4 1 1 (256)
I1022 17:22:01.890276 12764 layer_factory.hpp:76] Creating layer dir7_BR
I1022 17:22:01.890292 12764 net.cpp:110] Creating Layer dir7_BR
I1022 17:22:01.890298 12764 net.cpp:477] dir7_BR <- pool5/7x7_s1_pool5/drop_7x7_s1_0_split_15
I1022 17:22:01.890305 12764 net.cpp:433] dir7_BR -> dir7_BR
I1022 17:22:01.891048 12764 net.cpp:155] Setting up dir7_BR
I1022 17:22:01.891062 12764 net.cpp:163] Top shape: 64 4 1 1 (256)
I1022 17:22:01.891069 12764 layer_factory.hpp:76] Creating layer dir7_BR_dir7_BR_0_split
I1022 17:22:01.891077 12764 net.cpp:110] Creating Layer dir7_BR_dir7_BR_0_split
I1022 17:22:01.891082 12764 net.cpp:477] dir7_BR_dir7_BR_0_split <- dir7_BR
I1022 17:22:01.891088 12764 net.cpp:433] dir7_BR_dir7_BR_0_split -> dir7_BR_dir7_BR_0_split_0
I1022 17:22:01.891098 12764 net.cpp:433] dir7_BR_dir7_BR_0_split -> dir7_BR_dir7_BR_0_split_1
I1022 17:22:01.891105 12764 net.cpp:155] Setting up dir7_BR_dir7_BR_0_split
I1022 17:22:01.891110 12764 net.cpp:163] Top shape: 64 4 1 1 (256)
I1022 17:22:01.891115 12764 net.cpp:163] Top shape: 64 4 1 1 (256)
I1022 17:22:01.891119 12764 layer_factory.hpp:76] Creating layer dir8_TL
I1022 17:22:01.891127 12764 net.cpp:110] Creating Layer dir8_TL
I1022 17:22:01.891131 12764 net.cpp:477] dir8_TL <- pool5/7x7_s1_pool5/drop_7x7_s1_0_split_16
I1022 17:22:01.891139 12764 net.cpp:433] dir8_TL -> dir8_TL
I1022 17:22:01.891885 12764 net.cpp:155] Setting up dir8_TL
I1022 17:22:01.891897 12764 net.cpp:163] Top shape: 64 4 1 1 (256)
I1022 17:22:01.891906 12764 layer_factory.hpp:76] Creating layer dir8_TL_dir8_TL_0_split
I1022 17:22:01.891911 12764 net.cpp:110] Creating Layer dir8_TL_dir8_TL_0_split
I1022 17:22:01.891916 12764 net.cpp:477] dir8_TL_dir8_TL_0_split <- dir8_TL
I1022 17:22:01.891923 12764 net.cpp:433] dir8_TL_dir8_TL_0_split -> dir8_TL_dir8_TL_0_split_0
I1022 17:22:01.891932 12764 net.cpp:433] dir8_TL_dir8_TL_0_split -> dir8_TL_dir8_TL_0_split_1
I1022 17:22:01.891945 12764 net.cpp:155] Setting up dir8_TL_dir8_TL_0_split
I1022 17:22:01.891952 12764 net.cpp:163] Top shape: 64 4 1 1 (256)
I1022 17:22:01.891957 12764 net.cpp:163] Top shape: 64 4 1 1 (256)
I1022 17:22:01.891960 12764 layer_factory.hpp:76] Creating layer dir8_BR
I1022 17:22:01.891968 12764 net.cpp:110] Creating Layer dir8_BR
I1022 17:22:01.891973 12764 net.cpp:477] dir8_BR <- pool5/7x7_s1_pool5/drop_7x7_s1_0_split_17
I1022 17:22:01.891980 12764 net.cpp:433] dir8_BR -> dir8_BR
I1022 17:22:01.892722 12764 net.cpp:155] Setting up dir8_BR
I1022 17:22:01.892736 12764 net.cpp:163] Top shape: 64 4 1 1 (256)
I1022 17:22:01.892745 12764 layer_factory.hpp:76] Creating layer dir8_BR_dir8_BR_0_split
I1022 17:22:01.892751 12764 net.cpp:110] Creating Layer dir8_BR_dir8_BR_0_split
I1022 17:22:01.892756 12764 net.cpp:477] dir8_BR_dir8_BR_0_split <- dir8_BR
I1022 17:22:01.892763 12764 net.cpp:433] dir8_BR_dir8_BR_0_split -> dir8_BR_dir8_BR_0_split_0
I1022 17:22:01.892771 12764 net.cpp:433] dir8_BR_dir8_BR_0_split -> dir8_BR_dir8_BR_0_split_1
I1022 17:22:01.892778 12764 net.cpp:155] Setting up dir8_BR_dir8_BR_0_split
I1022 17:22:01.892784 12764 net.cpp:163] Top shape: 64 4 1 1 (256)
I1022 17:22:01.892788 12764 net.cpp:163] Top shape: 64 4 1 1 (256)
I1022 17:22:01.892792 12764 layer_factory.hpp:76] Creating layer dir9_TL
I1022 17:22:01.892801 12764 net.cpp:110] Creating Layer dir9_TL
I1022 17:22:01.892804 12764 net.cpp:477] dir9_TL <- pool5/7x7_s1_pool5/drop_7x7_s1_0_split_18
I1022 17:22:01.892812 12764 net.cpp:433] dir9_TL -> dir9_TL
I1022 17:22:01.893554 12764 net.cpp:155] Setting up dir9_TL
I1022 17:22:01.893568 12764 net.cpp:163] Top shape: 64 4 1 1 (256)
I1022 17:22:01.893575 12764 layer_factory.hpp:76] Creating layer dir9_TL_dir9_TL_0_split
I1022 17:22:01.893581 12764 net.cpp:110] Creating Layer dir9_TL_dir9_TL_0_split
I1022 17:22:01.893586 12764 net.cpp:477] dir9_TL_dir9_TL_0_split <- dir9_TL
I1022 17:22:01.893594 12764 net.cpp:433] dir9_TL_dir9_TL_0_split -> dir9_TL_dir9_TL_0_split_0
I1022 17:22:01.893601 12764 net.cpp:433] dir9_TL_dir9_TL_0_split -> dir9_TL_dir9_TL_0_split_1
I1022 17:22:01.893610 12764 net.cpp:155] Setting up dir9_TL_dir9_TL_0_split
I1022 17:22:01.893622 12764 net.cpp:163] Top shape: 64 4 1 1 (256)
I1022 17:22:01.893627 12764 net.cpp:163] Top shape: 64 4 1 1 (256)
I1022 17:22:01.893631 12764 layer_factory.hpp:76] Creating layer dir9_BR
I1022 17:22:01.893640 12764 net.cpp:110] Creating Layer dir9_BR
I1022 17:22:01.893646 12764 net.cpp:477] dir9_BR <- pool5/7x7_s1_pool5/drop_7x7_s1_0_split_19
I1022 17:22:01.893652 12764 net.cpp:433] dir9_BR -> dir9_BR
I1022 17:22:01.894403 12764 net.cpp:155] Setting up dir9_BR
I1022 17:22:01.894418 12764 net.cpp:163] Top shape: 64 4 1 1 (256)
I1022 17:22:01.894425 12764 layer_factory.hpp:76] Creating layer dir9_BR_dir9_BR_0_split
I1022 17:22:01.894433 12764 net.cpp:110] Creating Layer dir9_BR_dir9_BR_0_split
I1022 17:22:01.894438 12764 net.cpp:477] dir9_BR_dir9_BR_0_split <- dir9_BR
I1022 17:22:01.894444 12764 net.cpp:433] dir9_BR_dir9_BR_0_split -> dir9_BR_dir9_BR_0_split_0
I1022 17:22:01.894453 12764 net.cpp:433] dir9_BR_dir9_BR_0_split -> dir9_BR_dir9_BR_0_split_1
I1022 17:22:01.894460 12764 net.cpp:155] Setting up dir9_BR_dir9_BR_0_split
I1022 17:22:01.894466 12764 net.cpp:163] Top shape: 64 4 1 1 (256)
I1022 17:22:01.894471 12764 net.cpp:163] Top shape: 64 4 1 1 (256)
I1022 17:22:01.894475 12764 layer_factory.hpp:76] Creating layer dir10_TL
I1022 17:22:01.894484 12764 net.cpp:110] Creating Layer dir10_TL
I1022 17:22:01.894487 12764 net.cpp:477] dir10_TL <- pool5/7x7_s1_pool5/drop_7x7_s1_0_split_20
I1022 17:22:01.894495 12764 net.cpp:433] dir10_TL -> dir10_TL
I1022 17:22:01.895236 12764 net.cpp:155] Setting up dir10_TL
I1022 17:22:01.895249 12764 net.cpp:163] Top shape: 64 4 1 1 (256)
I1022 17:22:01.895257 12764 layer_factory.hpp:76] Creating layer dir10_TL_dir10_TL_0_split
I1022 17:22:01.895263 12764 net.cpp:110] Creating Layer dir10_TL_dir10_TL_0_split
I1022 17:22:01.895268 12764 net.cpp:477] dir10_TL_dir10_TL_0_split <- dir10_TL
I1022 17:22:01.895277 12764 net.cpp:433] dir10_TL_dir10_TL_0_split -> dir10_TL_dir10_TL_0_split_0
I1022 17:22:01.895289 12764 net.cpp:433] dir10_TL_dir10_TL_0_split -> dir10_TL_dir10_TL_0_split_1
I1022 17:22:01.895299 12764 net.cpp:155] Setting up dir10_TL_dir10_TL_0_split
I1022 17:22:01.895304 12764 net.cpp:163] Top shape: 64 4 1 1 (256)
I1022 17:22:01.895309 12764 net.cpp:163] Top shape: 64 4 1 1 (256)
I1022 17:22:01.895313 12764 layer_factory.hpp:76] Creating layer dir10_BR
I1022 17:22:01.895323 12764 net.cpp:110] Creating Layer dir10_BR
I1022 17:22:01.895326 12764 net.cpp:477] dir10_BR <- pool5/7x7_s1_pool5/drop_7x7_s1_0_split_21
I1022 17:22:01.895334 12764 net.cpp:433] dir10_BR -> dir10_BR
I1022 17:22:01.896078 12764 net.cpp:155] Setting up dir10_BR
I1022 17:22:01.896091 12764 net.cpp:163] Top shape: 64 4 1 1 (256)
I1022 17:22:01.896100 12764 layer_factory.hpp:76] Creating layer dir10_BR_dir10_BR_0_split
I1022 17:22:01.896106 12764 net.cpp:110] Creating Layer dir10_BR_dir10_BR_0_split
I1022 17:22:01.896111 12764 net.cpp:477] dir10_BR_dir10_BR_0_split <- dir10_BR
I1022 17:22:01.896118 12764 net.cpp:433] dir10_BR_dir10_BR_0_split -> dir10_BR_dir10_BR_0_split_0
I1022 17:22:01.896126 12764 net.cpp:433] dir10_BR_dir10_BR_0_split -> dir10_BR_dir10_BR_0_split_1
I1022 17:22:01.896134 12764 net.cpp:155] Setting up dir10_BR_dir10_BR_0_split
I1022 17:22:01.896141 12764 net.cpp:163] Top shape: 64 4 1 1 (256)
I1022 17:22:01.896144 12764 net.cpp:163] Top shape: 64 4 1 1 (256)
I1022 17:22:01.896148 12764 layer_factory.hpp:76] Creating layer dir11_TL
I1022 17:22:01.896157 12764 net.cpp:110] Creating Layer dir11_TL
I1022 17:22:01.896160 12764 net.cpp:477] dir11_TL <- pool5/7x7_s1_pool5/drop_7x7_s1_0_split_22
I1022 17:22:01.896168 12764 net.cpp:433] dir11_TL -> dir11_TL
I1022 17:22:01.896909 12764 net.cpp:155] Setting up dir11_TL
I1022 17:22:01.896924 12764 net.cpp:163] Top shape: 64 4 1 1 (256)
I1022 17:22:01.896931 12764 layer_factory.hpp:76] Creating layer dir11_TL_dir11_TL_0_split
I1022 17:22:01.896937 12764 net.cpp:110] Creating Layer dir11_TL_dir11_TL_0_split
I1022 17:22:01.896942 12764 net.cpp:477] dir11_TL_dir11_TL_0_split <- dir11_TL
I1022 17:22:01.896950 12764 net.cpp:433] dir11_TL_dir11_TL_0_split -> dir11_TL_dir11_TL_0_split_0
I1022 17:22:01.896966 12764 net.cpp:433] dir11_TL_dir11_TL_0_split -> dir11_TL_dir11_TL_0_split_1
I1022 17:22:01.896975 12764 net.cpp:155] Setting up dir11_TL_dir11_TL_0_split
I1022 17:22:01.896981 12764 net.cpp:163] Top shape: 64 4 1 1 (256)
I1022 17:22:01.896986 12764 net.cpp:163] Top shape: 64 4 1 1 (256)
I1022 17:22:01.896989 12764 layer_factory.hpp:76] Creating layer dir11_BR
I1022 17:22:01.896997 12764 net.cpp:110] Creating Layer dir11_BR
I1022 17:22:01.897002 12764 net.cpp:477] dir11_BR <- pool5/7x7_s1_pool5/drop_7x7_s1_0_split_23
I1022 17:22:01.897009 12764 net.cpp:433] dir11_BR -> dir11_BR
I1022 17:22:01.897781 12764 net.cpp:155] Setting up dir11_BR
I1022 17:22:01.897795 12764 net.cpp:163] Top shape: 64 4 1 1 (256)
I1022 17:22:01.897804 12764 layer_factory.hpp:76] Creating layer dir11_BR_dir11_BR_0_split
I1022 17:22:01.897811 12764 net.cpp:110] Creating Layer dir11_BR_dir11_BR_0_split
I1022 17:22:01.897816 12764 net.cpp:477] dir11_BR_dir11_BR_0_split <- dir11_BR
I1022 17:22:01.897825 12764 net.cpp:433] dir11_BR_dir11_BR_0_split -> dir11_BR_dir11_BR_0_split_0
I1022 17:22:01.897833 12764 net.cpp:433] dir11_BR_dir11_BR_0_split -> dir11_BR_dir11_BR_0_split_1
I1022 17:22:01.897842 12764 net.cpp:155] Setting up dir11_BR_dir11_BR_0_split
I1022 17:22:01.897848 12764 net.cpp:163] Top shape: 64 4 1 1 (256)
I1022 17:22:01.897853 12764 net.cpp:163] Top shape: 64 4 1 1 (256)
I1022 17:22:01.897857 12764 layer_factory.hpp:76] Creating layer dir12_TL
I1022 17:22:01.897866 12764 net.cpp:110] Creating Layer dir12_TL
I1022 17:22:01.897871 12764 net.cpp:477] dir12_TL <- pool5/7x7_s1_pool5/drop_7x7_s1_0_split_24
I1022 17:22:01.897878 12764 net.cpp:433] dir12_TL -> dir12_TL
I1022 17:22:01.898653 12764 net.cpp:155] Setting up dir12_TL
I1022 17:22:01.898669 12764 net.cpp:163] Top shape: 64 4 1 1 (256)
I1022 17:22:01.898676 12764 layer_factory.hpp:76] Creating layer dir12_TL_dir12_TL_0_split
I1022 17:22:01.898687 12764 net.cpp:110] Creating Layer dir12_TL_dir12_TL_0_split
I1022 17:22:01.898694 12764 net.cpp:477] dir12_TL_dir12_TL_0_split <- dir12_TL
I1022 17:22:01.898700 12764 net.cpp:433] dir12_TL_dir12_TL_0_split -> dir12_TL_dir12_TL_0_split_0
I1022 17:22:01.898708 12764 net.cpp:433] dir12_TL_dir12_TL_0_split -> dir12_TL_dir12_TL_0_split_1
I1022 17:22:01.898716 12764 net.cpp:155] Setting up dir12_TL_dir12_TL_0_split
I1022 17:22:01.898722 12764 net.cpp:163] Top shape: 64 4 1 1 (256)
I1022 17:22:01.898726 12764 net.cpp:163] Top shape: 64 4 1 1 (256)
I1022 17:22:01.898730 12764 layer_factory.hpp:76] Creating layer dir12_BR
I1022 17:22:01.898738 12764 net.cpp:110] Creating Layer dir12_BR
I1022 17:22:01.898743 12764 net.cpp:477] dir12_BR <- pool5/7x7_s1_pool5/drop_7x7_s1_0_split_25
I1022 17:22:01.898751 12764 net.cpp:433] dir12_BR -> dir12_BR
I1022 17:22:01.899493 12764 net.cpp:155] Setting up dir12_BR
I1022 17:22:01.899507 12764 net.cpp:163] Top shape: 64 4 1 1 (256)
I1022 17:22:01.899515 12764 layer_factory.hpp:76] Creating layer dir12_BR_dir12_BR_0_split
I1022 17:22:01.899521 12764 net.cpp:110] Creating Layer dir12_BR_dir12_BR_0_split
I1022 17:22:01.899526 12764 net.cpp:477] dir12_BR_dir12_BR_0_split <- dir12_BR
I1022 17:22:01.899533 12764 net.cpp:433] dir12_BR_dir12_BR_0_split -> dir12_BR_dir12_BR_0_split_0
I1022 17:22:01.899541 12764 net.cpp:433] dir12_BR_dir12_BR_0_split -> dir12_BR_dir12_BR_0_split_1
I1022 17:22:01.899549 12764 net.cpp:155] Setting up dir12_BR_dir12_BR_0_split
I1022 17:22:01.899555 12764 net.cpp:163] Top shape: 64 4 1 1 (256)
I1022 17:22:01.899559 12764 net.cpp:163] Top shape: 64 4 1 1 (256)
I1022 17:22:01.899564 12764 layer_factory.hpp:76] Creating layer dir13_TL
I1022 17:22:01.899571 12764 net.cpp:110] Creating Layer dir13_TL
I1022 17:22:01.899576 12764 net.cpp:477] dir13_TL <- pool5/7x7_s1_pool5/drop_7x7_s1_0_split_26
I1022 17:22:01.899583 12764 net.cpp:433] dir13_TL -> dir13_TL
I1022 17:22:01.900346 12764 net.cpp:155] Setting up dir13_TL
I1022 17:22:01.900359 12764 net.cpp:163] Top shape: 64 4 1 1 (256)
I1022 17:22:01.900368 12764 layer_factory.hpp:76] Creating layer dir13_TL_dir13_TL_0_split
I1022 17:22:01.900382 12764 net.cpp:110] Creating Layer dir13_TL_dir13_TL_0_split
I1022 17:22:01.900389 12764 net.cpp:477] dir13_TL_dir13_TL_0_split <- dir13_TL
I1022 17:22:01.900396 12764 net.cpp:433] dir13_TL_dir13_TL_0_split -> dir13_TL_dir13_TL_0_split_0
I1022 17:22:01.900405 12764 net.cpp:433] dir13_TL_dir13_TL_0_split -> dir13_TL_dir13_TL_0_split_1
I1022 17:22:01.900415 12764 net.cpp:155] Setting up dir13_TL_dir13_TL_0_split
I1022 17:22:01.900421 12764 net.cpp:163] Top shape: 64 4 1 1 (256)
I1022 17:22:01.900426 12764 net.cpp:163] Top shape: 64 4 1 1 (256)
I1022 17:22:01.900430 12764 layer_factory.hpp:76] Creating layer dir13_BR
I1022 17:22:01.900439 12764 net.cpp:110] Creating Layer dir13_BR
I1022 17:22:01.900444 12764 net.cpp:477] dir13_BR <- pool5/7x7_s1_pool5/drop_7x7_s1_0_split_27
I1022 17:22:01.900452 12764 net.cpp:433] dir13_BR -> dir13_BR
I1022 17:22:01.901226 12764 net.cpp:155] Setting up dir13_BR
I1022 17:22:01.901239 12764 net.cpp:163] Top shape: 64 4 1 1 (256)
I1022 17:22:01.901247 12764 layer_factory.hpp:76] Creating layer dir13_BR_dir13_BR_0_split
I1022 17:22:01.901253 12764 net.cpp:110] Creating Layer dir13_BR_dir13_BR_0_split
I1022 17:22:01.901258 12764 net.cpp:477] dir13_BR_dir13_BR_0_split <- dir13_BR
I1022 17:22:01.901265 12764 net.cpp:433] dir13_BR_dir13_BR_0_split -> dir13_BR_dir13_BR_0_split_0
I1022 17:22:01.901273 12764 net.cpp:433] dir13_BR_dir13_BR_0_split -> dir13_BR_dir13_BR_0_split_1
I1022 17:22:01.901281 12764 net.cpp:155] Setting up dir13_BR_dir13_BR_0_split
I1022 17:22:01.901288 12764 net.cpp:163] Top shape: 64 4 1 1 (256)
I1022 17:22:01.901291 12764 net.cpp:163] Top shape: 64 4 1 1 (256)
I1022 17:22:01.901295 12764 layer_factory.hpp:76] Creating layer dir14_TL
I1022 17:22:01.901303 12764 net.cpp:110] Creating Layer dir14_TL
I1022 17:22:01.901307 12764 net.cpp:477] dir14_TL <- pool5/7x7_s1_pool5/drop_7x7_s1_0_split_28
I1022 17:22:01.901319 12764 net.cpp:433] dir14_TL -> dir14_TL
I1022 17:22:01.902072 12764 net.cpp:155] Setting up dir14_TL
I1022 17:22:01.902087 12764 net.cpp:163] Top shape: 64 4 1 1 (256)
I1022 17:22:01.902096 12764 layer_factory.hpp:76] Creating layer dir14_TL_dir14_TL_0_split
I1022 17:22:01.902101 12764 net.cpp:110] Creating Layer dir14_TL_dir14_TL_0_split
I1022 17:22:01.902107 12764 net.cpp:477] dir14_TL_dir14_TL_0_split <- dir14_TL
I1022 17:22:01.902113 12764 net.cpp:433] dir14_TL_dir14_TL_0_split -> dir14_TL_dir14_TL_0_split_0
I1022 17:22:01.902122 12764 net.cpp:433] dir14_TL_dir14_TL_0_split -> dir14_TL_dir14_TL_0_split_1
I1022 17:22:01.902129 12764 net.cpp:155] Setting up dir14_TL_dir14_TL_0_split
I1022 17:22:01.902134 12764 net.cpp:163] Top shape: 64 4 1 1 (256)
I1022 17:22:01.902139 12764 net.cpp:163] Top shape: 64 4 1 1 (256)
I1022 17:22:01.902143 12764 layer_factory.hpp:76] Creating layer dir14_BR
I1022 17:22:01.902150 12764 net.cpp:110] Creating Layer dir14_BR
I1022 17:22:01.902155 12764 net.cpp:477] dir14_BR <- pool5/7x7_s1_pool5/drop_7x7_s1_0_split_29
I1022 17:22:01.902161 12764 net.cpp:433] dir14_BR -> dir14_BR
I1022 17:22:01.902905 12764 net.cpp:155] Setting up dir14_BR
I1022 17:22:01.902920 12764 net.cpp:163] Top shape: 64 4 1 1 (256)
I1022 17:22:01.902926 12764 layer_factory.hpp:76] Creating layer dir14_BR_dir14_BR_0_split
I1022 17:22:01.902933 12764 net.cpp:110] Creating Layer dir14_BR_dir14_BR_0_split
I1022 17:22:01.902938 12764 net.cpp:477] dir14_BR_dir14_BR_0_split <- dir14_BR
I1022 17:22:01.902945 12764 net.cpp:433] dir14_BR_dir14_BR_0_split -> dir14_BR_dir14_BR_0_split_0
I1022 17:22:01.902952 12764 net.cpp:433] dir14_BR_dir14_BR_0_split -> dir14_BR_dir14_BR_0_split_1
I1022 17:22:01.902961 12764 net.cpp:155] Setting up dir14_BR_dir14_BR_0_split
I1022 17:22:01.902966 12764 net.cpp:163] Top shape: 64 4 1 1 (256)
I1022 17:22:01.902971 12764 net.cpp:163] Top shape: 64 4 1 1 (256)
I1022 17:22:01.902976 12764 layer_factory.hpp:76] Creating layer dir15_TL
I1022 17:22:01.902982 12764 net.cpp:110] Creating Layer dir15_TL
I1022 17:22:01.902987 12764 net.cpp:477] dir15_TL <- pool5/7x7_s1_pool5/drop_7x7_s1_0_split_30
I1022 17:22:01.902993 12764 net.cpp:433] dir15_TL -> dir15_TL
I1022 17:22:01.903748 12764 net.cpp:155] Setting up dir15_TL
I1022 17:22:01.903761 12764 net.cpp:163] Top shape: 64 4 1 1 (256)
I1022 17:22:01.903769 12764 layer_factory.hpp:76] Creating layer dir15_TL_dir15_TL_0_split
I1022 17:22:01.903775 12764 net.cpp:110] Creating Layer dir15_TL_dir15_TL_0_split
I1022 17:22:01.903780 12764 net.cpp:477] dir15_TL_dir15_TL_0_split <- dir15_TL
I1022 17:22:01.903786 12764 net.cpp:433] dir15_TL_dir15_TL_0_split -> dir15_TL_dir15_TL_0_split_0
I1022 17:22:01.903795 12764 net.cpp:433] dir15_TL_dir15_TL_0_split -> dir15_TL_dir15_TL_0_split_1
I1022 17:22:01.903802 12764 net.cpp:155] Setting up dir15_TL_dir15_TL_0_split
I1022 17:22:01.903808 12764 net.cpp:163] Top shape: 64 4 1 1 (256)
I1022 17:22:01.903813 12764 net.cpp:163] Top shape: 64 4 1 1 (256)
I1022 17:22:01.903817 12764 layer_factory.hpp:76] Creating layer dir15_BR
I1022 17:22:01.903825 12764 net.cpp:110] Creating Layer dir15_BR
I1022 17:22:01.903830 12764 net.cpp:477] dir15_BR <- pool5/7x7_s1_pool5/drop_7x7_s1_0_split_31
I1022 17:22:01.903836 12764 net.cpp:433] dir15_BR -> dir15_BR
I1022 17:22:01.904585 12764 net.cpp:155] Setting up dir15_BR
I1022 17:22:01.904599 12764 net.cpp:163] Top shape: 64 4 1 1 (256)
I1022 17:22:01.904606 12764 layer_factory.hpp:76] Creating layer dir15_BR_dir15_BR_0_split
I1022 17:22:01.904613 12764 net.cpp:110] Creating Layer dir15_BR_dir15_BR_0_split
I1022 17:22:01.904618 12764 net.cpp:477] dir15_BR_dir15_BR_0_split <- dir15_BR
I1022 17:22:01.904624 12764 net.cpp:433] dir15_BR_dir15_BR_0_split -> dir15_BR_dir15_BR_0_split_0
I1022 17:22:01.904633 12764 net.cpp:433] dir15_BR_dir15_BR_0_split -> dir15_BR_dir15_BR_0_split_1
I1022 17:22:01.904640 12764 net.cpp:155] Setting up dir15_BR_dir15_BR_0_split
I1022 17:22:01.904645 12764 net.cpp:163] Top shape: 64 4 1 1 (256)
I1022 17:22:01.904650 12764 net.cpp:163] Top shape: 64 4 1 1 (256)
I1022 17:22:01.904659 12764 layer_factory.hpp:76] Creating layer dir16_TL
I1022 17:22:01.904667 12764 net.cpp:110] Creating Layer dir16_TL
I1022 17:22:01.904672 12764 net.cpp:477] dir16_TL <- pool5/7x7_s1_pool5/drop_7x7_s1_0_split_32
I1022 17:22:01.904680 12764 net.cpp:433] dir16_TL -> dir16_TL
I1022 17:22:01.905428 12764 net.cpp:155] Setting up dir16_TL
I1022 17:22:01.905442 12764 net.cpp:163] Top shape: 64 4 1 1 (256)
I1022 17:22:01.905449 12764 layer_factory.hpp:76] Creating layer dir16_TL_dir16_TL_0_split
I1022 17:22:01.905457 12764 net.cpp:110] Creating Layer dir16_TL_dir16_TL_0_split
I1022 17:22:01.905462 12764 net.cpp:477] dir16_TL_dir16_TL_0_split <- dir16_TL
I1022 17:22:01.905467 12764 net.cpp:433] dir16_TL_dir16_TL_0_split -> dir16_TL_dir16_TL_0_split_0
I1022 17:22:01.905475 12764 net.cpp:433] dir16_TL_dir16_TL_0_split -> dir16_TL_dir16_TL_0_split_1
I1022 17:22:01.905483 12764 net.cpp:155] Setting up dir16_TL_dir16_TL_0_split
I1022 17:22:01.905489 12764 net.cpp:163] Top shape: 64 4 1 1 (256)
I1022 17:22:01.905493 12764 net.cpp:163] Top shape: 64 4 1 1 (256)
I1022 17:22:01.905498 12764 layer_factory.hpp:76] Creating layer dir16_BR
I1022 17:22:01.905521 12764 net.cpp:110] Creating Layer dir16_BR
I1022 17:22:01.905527 12764 net.cpp:477] dir16_BR <- pool5/7x7_s1_pool5/drop_7x7_s1_0_split_33
I1022 17:22:01.905534 12764 net.cpp:433] dir16_BR -> dir16_BR
I1022 17:22:01.906292 12764 net.cpp:155] Setting up dir16_BR
I1022 17:22:01.906306 12764 net.cpp:163] Top shape: 64 4 1 1 (256)
I1022 17:22:01.906316 12764 layer_factory.hpp:76] Creating layer dir16_BR_dir16_BR_0_split
I1022 17:22:01.906322 12764 net.cpp:110] Creating Layer dir16_BR_dir16_BR_0_split
I1022 17:22:01.906327 12764 net.cpp:477] dir16_BR_dir16_BR_0_split <- dir16_BR
I1022 17:22:01.906333 12764 net.cpp:433] dir16_BR_dir16_BR_0_split -> dir16_BR_dir16_BR_0_split_0
I1022 17:22:01.906342 12764 net.cpp:433] dir16_BR_dir16_BR_0_split -> dir16_BR_dir16_BR_0_split_1
I1022 17:22:01.906349 12764 net.cpp:155] Setting up dir16_BR_dir16_BR_0_split
I1022 17:22:01.906354 12764 net.cpp:163] Top shape: 64 4 1 1 (256)
I1022 17:22:01.906359 12764 net.cpp:163] Top shape: 64 4 1 1 (256)
I1022 17:22:01.906363 12764 layer_factory.hpp:76] Creating layer dir17_TL
I1022 17:22:01.906378 12764 net.cpp:110] Creating Layer dir17_TL
I1022 17:22:01.906384 12764 net.cpp:477] dir17_TL <- pool5/7x7_s1_pool5/drop_7x7_s1_0_split_34
I1022 17:22:01.906391 12764 net.cpp:433] dir17_TL -> dir17_TL
I1022 17:22:01.907145 12764 net.cpp:155] Setting up dir17_TL
I1022 17:22:01.907160 12764 net.cpp:163] Top shape: 64 4 1 1 (256)
I1022 17:22:01.907166 12764 layer_factory.hpp:76] Creating layer dir17_TL_dir17_TL_0_split
I1022 17:22:01.907173 12764 net.cpp:110] Creating Layer dir17_TL_dir17_TL_0_split
I1022 17:22:01.907177 12764 net.cpp:477] dir17_TL_dir17_TL_0_split <- dir17_TL
I1022 17:22:01.907184 12764 net.cpp:433] dir17_TL_dir17_TL_0_split -> dir17_TL_dir17_TL_0_split_0
I1022 17:22:01.907192 12764 net.cpp:433] dir17_TL_dir17_TL_0_split -> dir17_TL_dir17_TL_0_split_1
I1022 17:22:01.907201 12764 net.cpp:155] Setting up dir17_TL_dir17_TL_0_split
I1022 17:22:01.907205 12764 net.cpp:163] Top shape: 64 4 1 1 (256)
I1022 17:22:01.907210 12764 net.cpp:163] Top shape: 64 4 1 1 (256)
I1022 17:22:01.907214 12764 layer_factory.hpp:76] Creating layer dir17_BR
I1022 17:22:01.907222 12764 net.cpp:110] Creating Layer dir17_BR
I1022 17:22:01.907225 12764 net.cpp:477] dir17_BR <- pool5/7x7_s1_pool5/drop_7x7_s1_0_split_35
I1022 17:22:01.907232 12764 net.cpp:433] dir17_BR -> dir17_BR
I1022 17:22:01.907977 12764 net.cpp:155] Setting up dir17_BR
I1022 17:22:01.907991 12764 net.cpp:163] Top shape: 64 4 1 1 (256)
I1022 17:22:01.907999 12764 layer_factory.hpp:76] Creating layer dir17_BR_dir17_BR_0_split
I1022 17:22:01.908005 12764 net.cpp:110] Creating Layer dir17_BR_dir17_BR_0_split
I1022 17:22:01.908010 12764 net.cpp:477] dir17_BR_dir17_BR_0_split <- dir17_BR
I1022 17:22:01.908016 12764 net.cpp:433] dir17_BR_dir17_BR_0_split -> dir17_BR_dir17_BR_0_split_0
I1022 17:22:01.908025 12764 net.cpp:433] dir17_BR_dir17_BR_0_split -> dir17_BR_dir17_BR_0_split_1
I1022 17:22:01.908036 12764 net.cpp:155] Setting up dir17_BR_dir17_BR_0_split
I1022 17:22:01.908043 12764 net.cpp:163] Top shape: 64 4 1 1 (256)
I1022 17:22:01.908047 12764 net.cpp:163] Top shape: 64 4 1 1 (256)
I1022 17:22:01.908052 12764 layer_factory.hpp:76] Creating layer dir18_TL
I1022 17:22:01.908059 12764 net.cpp:110] Creating Layer dir18_TL
I1022 17:22:01.908064 12764 net.cpp:477] dir18_TL <- pool5/7x7_s1_pool5/drop_7x7_s1_0_split_36
I1022 17:22:01.908071 12764 net.cpp:433] dir18_TL -> dir18_TL
I1022 17:22:01.908819 12764 net.cpp:155] Setting up dir18_TL
I1022 17:22:01.908833 12764 net.cpp:163] Top shape: 64 4 1 1 (256)
I1022 17:22:01.908840 12764 layer_factory.hpp:76] Creating layer dir18_TL_dir18_TL_0_split
I1022 17:22:01.908848 12764 net.cpp:110] Creating Layer dir18_TL_dir18_TL_0_split
I1022 17:22:01.908852 12764 net.cpp:477] dir18_TL_dir18_TL_0_split <- dir18_TL
I1022 17:22:01.908859 12764 net.cpp:433] dir18_TL_dir18_TL_0_split -> dir18_TL_dir18_TL_0_split_0
I1022 17:22:01.908866 12764 net.cpp:433] dir18_TL_dir18_TL_0_split -> dir18_TL_dir18_TL_0_split_1
I1022 17:22:01.908874 12764 net.cpp:155] Setting up dir18_TL_dir18_TL_0_split
I1022 17:22:01.908879 12764 net.cpp:163] Top shape: 64 4 1 1 (256)
I1022 17:22:01.908885 12764 net.cpp:163] Top shape: 64 4 1 1 (256)
I1022 17:22:01.908888 12764 layer_factory.hpp:76] Creating layer dir18_BR
I1022 17:22:01.908895 12764 net.cpp:110] Creating Layer dir18_BR
I1022 17:22:01.908900 12764 net.cpp:477] dir18_BR <- pool5/7x7_s1_pool5/drop_7x7_s1_0_split_37
I1022 17:22:01.908906 12764 net.cpp:433] dir18_BR -> dir18_BR
I1022 17:22:01.909651 12764 net.cpp:155] Setting up dir18_BR
I1022 17:22:01.909664 12764 net.cpp:163] Top shape: 64 4 1 1 (256)
I1022 17:22:01.909672 12764 layer_factory.hpp:76] Creating layer dir18_BR_dir18_BR_0_split
I1022 17:22:01.909678 12764 net.cpp:110] Creating Layer dir18_BR_dir18_BR_0_split
I1022 17:22:01.909683 12764 net.cpp:477] dir18_BR_dir18_BR_0_split <- dir18_BR
I1022 17:22:01.909689 12764 net.cpp:433] dir18_BR_dir18_BR_0_split -> dir18_BR_dir18_BR_0_split_0
I1022 17:22:01.909698 12764 net.cpp:433] dir18_BR_dir18_BR_0_split -> dir18_BR_dir18_BR_0_split_1
I1022 17:22:01.909713 12764 net.cpp:155] Setting up dir18_BR_dir18_BR_0_split
I1022 17:22:01.909719 12764 net.cpp:163] Top shape: 64 4 1 1 (256)
I1022 17:22:01.909724 12764 net.cpp:163] Top shape: 64 4 1 1 (256)
I1022 17:22:01.909729 12764 layer_factory.hpp:76] Creating layer dir19_TL
I1022 17:22:01.909736 12764 net.cpp:110] Creating Layer dir19_TL
I1022 17:22:01.909740 12764 net.cpp:477] dir19_TL <- pool5/7x7_s1_pool5/drop_7x7_s1_0_split_38
I1022 17:22:01.909747 12764 net.cpp:433] dir19_TL -> dir19_TL
I1022 17:22:01.911325 12764 net.cpp:155] Setting up dir19_TL
I1022 17:22:01.911341 12764 net.cpp:163] Top shape: 64 4 1 1 (256)
I1022 17:22:01.911350 12764 layer_factory.hpp:76] Creating layer dir19_TL_dir19_TL_0_split
I1022 17:22:01.911356 12764 net.cpp:110] Creating Layer dir19_TL_dir19_TL_0_split
I1022 17:22:01.911361 12764 net.cpp:477] dir19_TL_dir19_TL_0_split <- dir19_TL
I1022 17:22:01.911368 12764 net.cpp:433] dir19_TL_dir19_TL_0_split -> dir19_TL_dir19_TL_0_split_0
I1022 17:22:01.911376 12764 net.cpp:433] dir19_TL_dir19_TL_0_split -> dir19_TL_dir19_TL_0_split_1
I1022 17:22:01.911383 12764 net.cpp:155] Setting up dir19_TL_dir19_TL_0_split
I1022 17:22:01.911389 12764 net.cpp:163] Top shape: 64 4 1 1 (256)
I1022 17:22:01.911394 12764 net.cpp:163] Top shape: 64 4 1 1 (256)
I1022 17:22:01.911398 12764 layer_factory.hpp:76] Creating layer dir19_BR
I1022 17:22:01.911406 12764 net.cpp:110] Creating Layer dir19_BR
I1022 17:22:01.911411 12764 net.cpp:477] dir19_BR <- pool5/7x7_s1_pool5/drop_7x7_s1_0_split_39
I1022 17:22:01.911417 12764 net.cpp:433] dir19_BR -> dir19_BR
I1022 17:22:01.912153 12764 net.cpp:155] Setting up dir19_BR
I1022 17:22:01.912166 12764 net.cpp:163] Top shape: 64 4 1 1 (256)
I1022 17:22:01.912173 12764 layer_factory.hpp:76] Creating layer dir19_BR_dir19_BR_0_split
I1022 17:22:01.912180 12764 net.cpp:110] Creating Layer dir19_BR_dir19_BR_0_split
I1022 17:22:01.912190 12764 net.cpp:477] dir19_BR_dir19_BR_0_split <- dir19_BR
I1022 17:22:01.912197 12764 net.cpp:433] dir19_BR_dir19_BR_0_split -> dir19_BR_dir19_BR_0_split_0
I1022 17:22:01.912205 12764 net.cpp:433] dir19_BR_dir19_BR_0_split -> dir19_BR_dir19_BR_0_split_1
I1022 17:22:01.912214 12764 net.cpp:155] Setting up dir19_BR_dir19_BR_0_split
I1022 17:22:01.912219 12764 net.cpp:163] Top shape: 64 4 1 1 (256)
I1022 17:22:01.912223 12764 net.cpp:163] Top shape: 64 4 1 1 (256)
I1022 17:22:01.912227 12764 layer_factory.hpp:76] Creating layer cls
I1022 17:22:01.912235 12764 net.cpp:110] Creating Layer cls
I1022 17:22:01.912240 12764 net.cpp:477] cls <- pool5/7x7_s1_pool5/drop_7x7_s1_0_split_40
I1022 17:22:01.912246 12764 net.cpp:433] cls -> cls
I1022 17:22:01.913472 12764 net.cpp:155] Setting up cls
I1022 17:22:01.913486 12764 net.cpp:163] Top shape: 64 21 1 1 (1344)
I1022 17:22:01.913494 12764 layer_factory.hpp:76] Creating layer cls_cls_0_split
I1022 17:22:01.913501 12764 net.cpp:110] Creating Layer cls_cls_0_split
I1022 17:22:01.913506 12764 net.cpp:477] cls_cls_0_split <- cls
I1022 17:22:01.913512 12764 net.cpp:433] cls_cls_0_split -> cls_cls_0_split_0
I1022 17:22:01.913521 12764 net.cpp:433] cls_cls_0_split -> cls_cls_0_split_1
I1022 17:22:01.913527 12764 net.cpp:155] Setting up cls_cls_0_split
I1022 17:22:01.913533 12764 net.cpp:163] Top shape: 64 21 1 1 (1344)
I1022 17:22:01.913538 12764 net.cpp:163] Top shape: 64 21 1 1 (1344)
I1022 17:22:01.913542 12764 layer_factory.hpp:76] Creating layer loss0_TL
I1022 17:22:01.913549 12764 net.cpp:110] Creating Layer loss0_TL
I1022 17:22:01.913554 12764 net.cpp:477] loss0_TL <- dir0_TL_dir0_TL_0_split_0
I1022 17:22:01.913559 12764 net.cpp:477] loss0_TL <- dir0_TL_label_data_1_split_0
I1022 17:22:01.913566 12764 net.cpp:433] loss0_TL -> loss0_TL
I1022 17:22:01.913574 12764 layer_factory.hpp:76] Creating layer loss0_TL
…
