input: "data"
input_shape {
  dim: 1
  dim: 3
  dim: 224
  dim: 224
}

layer {
  name: "conv1/7x7_s2"
  type: "Convolution"
  bottom: "data"
  top: "conv1/7x7_s2"
  param {
    lr_mult: 0.25
    decay_mult: 1
  }
  param {
    lr_mult: 0.5
    decay_mult: 0
  }
  convolution_param {
    num_output: 64
    pad: 3
    kernel_size: 7
    group: 1
    stride: 2
  }
}

layer {
  name: "conv1/relu_7x7"
  type: "ReLU"
  bottom: "conv1/7x7_s2"
  top: "conv1/7x7_s2"
}

layer {
  name: "pool1/3x3_s2"
  type: "Pooling"
  bottom: "conv1/7x7_s2"
  top: "pool1/3x3_s2"
  pooling_param {
    pool: MAX
    kernel_size: 3
    stride: 2
    pad: 0
  }
}

layer {
  name: "conv2/3x3_reduce"
  type: "Convolution"
  bottom: "pool1/3x3_s2"
  top: "conv2/3x3_reduce"
  param {
    lr_mult: 0.25
    decay_mult: 1
  }
  param {
    lr_mult: 0.5
    decay_mult: 0
  }
  convolution_param {
    num_output: 64
    pad: 0
    kernel_size: 1
    group: 1
    stride: 1
  }
}

layer {
  name: "conv2/relu_3x3_reduce"
  type: "ReLU"
  bottom: "conv2/3x3_reduce"
  top: "conv2/3x3_reduce"
}

layer {
  name: "conv2/3x3"
  type: "Convolution"
  bottom: "conv2/3x3_reduce"
  top: "conv2/3x3"
  param {
    lr_mult: 0.25
    decay_mult: 1
  }
  param {
    lr_mult: 0.5
    decay_mult: 0
  }
  convolution_param {
    num_output: 192
    pad: 1
    kernel_size: 3
    group: 1
    stride: 1
  }
}

layer {
  name: "conv2/relu_3x3"
  type: "ReLU"
  bottom: "conv2/3x3"
  top: "conv2/3x3"
}

layer {
  name: "pool2/3x3_s2"
  type: "Pooling"
  bottom: "conv2/3x3"
  top: "pool2/3x3_s2"
  pooling_param {
    pool: MAX
    kernel_size: 3
    stride: 2
    pad: 0
  }
}

layer {
  name: "inception_3a/1x1"
  type: "Convolution"
  bottom: "pool2/3x3_s2"
  top: "inception_3a/1x1"
  param {
    lr_mult: 0.25
    decay_mult: 1
  }
  param {
    lr_mult: 0.5
    decay_mult: 0
  }
  convolution_param {
    num_output: 64
    pad: 0
    kernel_size: 1
    group: 1
    stride: 1
  }
}

layer {
  name: "inception_3a/relu_1x1"
  type: "ReLU"
  bottom: "inception_3a/1x1"
  top: "inception_3a/1x1"
}

layer {
  name: "inception_3a/3x3_reduce"
  type: "Convolution"
  bottom: "pool2/3x3_s2"
  top: "inception_3a/3x3_reduce"
  param {
    lr_mult: 0.25
    decay_mult: 1
  }
  param {
    lr_mult: 0.5
    decay_mult: 0
  }
  convolution_param {
    num_output: 96
    pad: 0
    kernel_size: 1
    group: 1
    stride: 1
  }
}

layer {
  name: "inception_3a/relu_3x3_reduce"
  type: "ReLU"
  bottom: "inception_3a/3x3_reduce"
  top: "inception_3a/3x3_reduce"
}

layer {
  name: "inception_3a/3x3"
  type: "Convolution"
  bottom: "inception_3a/3x3_reduce"
  top: "inception_3a/3x3"
  param {
    lr_mult: 0.25
    decay_mult: 1
  }
  param {
    lr_mult: 0.5
    decay_mult: 0
  }
  convolution_param {
    num_output: 128
    pad: 1
    kernel_size: 3
    group: 1
    stride: 1
  }
}

layer {
  name: "inception_3a/relu_3x3"
  type: "ReLU"
  bottom: "inception_3a/3x3"
  top: "inception_3a/3x3"
}

layer {
  name: "inception_3a/5x5_reduce"
  type: "Convolution"
  bottom: "pool2/3x3_s2"
  top: "inception_3a/5x5_reduce"
  param {
    lr_mult: 0.25
    decay_mult: 1
  }
  param {
    lr_mult: 0.5
    decay_mult: 0
  }
  convolution_param {
    num_output: 16
    pad: 0
    kernel_size: 1
    group: 1
    stride: 1
  }
}

layer {
  name: "inception_3a/relu_5x5_reduce"
  type: "ReLU"
  bottom: "inception_3a/5x5_reduce"
  top: "inception_3a/5x5_reduce"
}

layer {
  name: "inception_3a/5x5"
  type: "Convolution"
  bottom: "inception_3a/5x5_reduce"
  top: "inception_3a/5x5"
  param {
    lr_mult: 0.25
    decay_mult: 1
  }
  param {
    lr_mult: 0.5
    decay_mult: 0
  }
  convolution_param {
    num_output: 32
    pad: 2
    kernel_size: 5
    group: 1
    stride: 1
  }
}

layer {
  name: "inception_3a/relu_5x5"
  type: "ReLU"
  bottom: "inception_3a/5x5"
  top: "inception_3a/5x5"
}

layer {
  name: "inception_3a/pool"
  type: "Pooling"
  bottom: "pool2/3x3_s2"
  top: "inception_3a/pool"
  pooling_param {
    pool: MAX
    kernel_size: 3
    stride: 1
    pad: 1
  }
}

layer {
  name: "inception_3a/pool_proj"
  type: "Convolution"
  bottom: "inception_3a/pool"
  top: "inception_3a/pool_proj"
  param {
    lr_mult: 0.25
    decay_mult: 1
  }
  param {
    lr_mult: 0.5
    decay_mult: 0
  }
  convolution_param {
    num_output: 32
    pad: 0
    kernel_size: 1
    group: 1
    stride: 1
  }
}

layer {
  name: "inception_3a/relu_pool_proj"
  type: "ReLU"
  bottom: "inception_3a/pool_proj"
  top: "inception_3a/pool_proj"
}

layer {
  name: "inception_3a/output"
  type: "Concat"
  bottom: "inception_3a/1x1"
  bottom: "inception_3a/3x3"
  bottom: "inception_3a/5x5"
  bottom: "inception_3a/pool_proj"
  top: "inception_3a/output"
}

layer {
  name: "inception_3b/1x1"
  type: "Convolution"
  bottom: "inception_3a/output"
  top: "inception_3b/1x1"
  param {
    lr_mult: 0.25
    decay_mult: 1
  }
  param {
    lr_mult: 0.5
    decay_mult: 0
  }
  convolution_param {
    num_output: 128
    pad: 0
    kernel_size: 1
    group: 1
    stride: 1
  }
}

layer {
  name: "inception_3b/relu_1x1"
  type: "ReLU"
  bottom: "inception_3b/1x1"
  top: "inception_3b/1x1"
}

layer {
  name: "inception_3b/3x3_reduce"
  type: "Convolution"
  bottom: "inception_3a/output"
  top: "inception_3b/3x3_reduce"
  param {
    lr_mult: 0.25
    decay_mult: 1
  }
  param {
    lr_mult: 0.5
    decay_mult: 0
  }
  convolution_param {
    num_output: 128
    pad: 0
    kernel_size: 1
    group: 1
    stride: 1
  }
}

layer {
  name: "inception_3b/relu_3x3_reduce"
  type: "ReLU"
  bottom: "inception_3b/3x3_reduce"
  top: "inception_3b/3x3_reduce"
}

layer {
  name: "inception_3b/3x3"
  type: "Convolution"
  bottom: "inception_3b/3x3_reduce"
  top: "inception_3b/3x3"
  param {
    lr_mult: 0.25
    decay_mult: 1
  }
  param {
    lr_mult: 0.5
    decay_mult: 0
  }
  convolution_param {
    num_output: 192
    pad: 1
    kernel_size: 3
    group: 1
    stride: 1
  }
}

layer {
  name: "inception_3b/relu_3x3"
  type: "ReLU"
  bottom: "inception_3b/3x3"
  top: "inception_3b/3x3"
}

layer {
  name: "inception_3b/5x5_reduce"
  type: "Convolution"
  bottom: "inception_3a/output"
  top: "inception_3b/5x5_reduce"
  param {
    lr_mult: 0.25
    decay_mult: 1
  }
  param {
    lr_mult: 0.5
    decay_mult: 0
  }
  convolution_param {
    num_output: 32
    pad: 0
    kernel_size: 1
    group: 1
    stride: 1
  }
}

layer {
  name: "inception_3b/relu_5x5_reduce"
  type: "ReLU"
  bottom: "inception_3b/5x5_reduce"
  top: "inception_3b/5x5_reduce"
}

layer {
  name: "inception_3b/5x5"
  type: "Convolution"
  bottom: "inception_3b/5x5_reduce"
  top: "inception_3b/5x5"
  param {
    lr_mult: 0.25
    decay_mult: 1
  }
  param {
    lr_mult: 0.5
    decay_mult: 0
  }
  convolution_param {
    num_output: 96
    pad: 2
    kernel_size: 5
    group: 1
    stride: 1
  }
}

layer {
  name: "inception_3b/relu_5x5"
  type: "ReLU"
  bottom: "inception_3b/5x5"
  top: "inception_3b/5x5"
}

layer {
  name: "inception_3b/pool"
  type: "Pooling"
  bottom: "inception_3a/output"
  top: "inception_3b/pool"
  pooling_param {
    pool: MAX
    kernel_size: 3
    stride: 1
    pad: 1
  }
}

layer {
  name: "inception_3b/pool_proj"
  type: "Convolution"
  bottom: "inception_3b/pool"
  top: "inception_3b/pool_proj"
  param {
    lr_mult: 0.25
    decay_mult: 1
  }
  param {
    lr_mult: 0.5
    decay_mult: 0
  }
  convolution_param {
    num_output: 64
    pad: 0
    kernel_size: 1
    group: 1
    stride: 1
  }
}

layer {
  name: "inception_3b/relu_pool_proj"
  type: "ReLU"
  bottom: "inception_3b/pool_proj"
  top: "inception_3b/pool_proj"
}

layer {
  name: "inception_3b/output"
  type: "Concat"
  bottom: "inception_3b/1x1"
  bottom: "inception_3b/3x3"
  bottom: "inception_3b/5x5"
  bottom: "inception_3b/pool_proj"
  top: "inception_3b/output"
}

layer {
  name: "pool3/3x3_s2"
  type: "Pooling"
  bottom: "inception_3b/output"
  top: "pool3/3x3_s2"
  pooling_param {
    pool: MAX
    kernel_size: 3
    stride: 2
    pad: 0
  }
}

layer {
  name: "inception_4a/1x1"
  type: "Convolution"
  bottom: "pool3/3x3_s2"
  top: "inception_4a/1x1"
  param {
    lr_mult: 0.25
    decay_mult: 1
  }
  param {
    lr_mult: 0.5
    decay_mult: 0
  }
  convolution_param {
    num_output: 192
    pad: 0
    kernel_size: 1
    group: 1
    stride: 1
  }
}

layer {
  name: "inception_4a/relu_1x1"
  type: "ReLU"
  bottom: "inception_4a/1x1"
  top: "inception_4a/1x1"
}

layer {
  name: "inception_4a/3x3_reduce"
  type: "Convolution"
  bottom: "pool3/3x3_s2"
  top: "inception_4a/3x3_reduce"
  param {
    lr_mult: 0.25
    decay_mult: 1
  }
  param {
    lr_mult: 0.5
    decay_mult: 0
  }
  convolution_param {
    num_output: 96
    pad: 0
    kernel_size: 1
    group: 1
    stride: 1
  }
}

layer {
  name: "inception_4a/relu_3x3_reduce"
  type: "ReLU"
  bottom: "inception_4a/3x3_reduce"
  top: "inception_4a/3x3_reduce"
}

layer {
  name: "inception_4a/3x3"
  type: "Convolution"
  bottom: "inception_4a/3x3_reduce"
  top: "inception_4a/3x3"
  param {
    lr_mult: 0.25
    decay_mult: 1
  }
  param {
    lr_mult: 0.5
    decay_mult: 0
  }
  convolution_param {
    num_output: 208
    pad: 1
    kernel_size: 3
    group: 1
    stride: 1
  }
}

layer {
  name: "inception_4a/relu_3x3"
  type: "ReLU"
  bottom: "inception_4a/3x3"
  top: "inception_4a/3x3"
}

layer {
  name: "inception_4a/5x5_reduce"
  type: "Convolution"
  bottom: "pool3/3x3_s2"
  top: "inception_4a/5x5_reduce"
  param {
    lr_mult: 0.25
    decay_mult: 1
  }
  param {
    lr_mult: 0.5
    decay_mult: 0
  }
  convolution_param {
    num_output: 16
    pad: 0
    kernel_size: 1
    group: 1
    stride: 1
  }
}

layer {
  name: "inception_4a/relu_5x5_reduce"
  type: "ReLU"
  bottom: "inception_4a/5x5_reduce"
  top: "inception_4a/5x5_reduce"
}

layer {
  name: "inception_4a/5x5"
  type: "Convolution"
  bottom: "inception_4a/5x5_reduce"
  top: "inception_4a/5x5"
  param {
    lr_mult: 0.25
    decay_mult: 1
  }
  param {
    lr_mult: 0.5
    decay_mult: 0
  }
  convolution_param {
    num_output: 48
    pad: 2
    kernel_size: 5
    group: 1
    stride: 1
  }
}

layer {
  name: "inception_4a/relu_5x5"
  type: "ReLU"
  bottom: "inception_4a/5x5"
  top: "inception_4a/5x5"
}

layer {
  name: "inception_4a/pool"
  type: "Pooling"
  bottom: "pool3/3x3_s2"
  top: "inception_4a/pool"
  pooling_param {
    pool: MAX
    kernel_size: 3
    stride: 1
    pad: 1
  }
}

layer {
  name: "inception_4a/pool_proj"
  type: "Convolution"
  bottom: "inception_4a/pool"
  top: "inception_4a/pool_proj"
  param {
    lr_mult: 0.25
    decay_mult: 1
  }
  param {
    lr_mult: 0.5
    decay_mult: 0
  }
  convolution_param {
    num_output: 64
    pad: 0
    kernel_size: 1
    group: 1
    stride: 1
  }
}

layer {
  name: "inception_4a/relu_pool_proj"
  type: "ReLU"
  bottom: "inception_4a/pool_proj"
  top: "inception_4a/pool_proj"
}

layer {
  name: "inception_4a/output"
  type: "Concat"
  bottom: "inception_4a/1x1"
  bottom: "inception_4a/3x3"
  bottom: "inception_4a/5x5"
  bottom: "inception_4a/pool_proj"
  top: "inception_4a/output"
}

layer {
  name: "inception_4b/1x1"
  type: "Convolution"
  bottom: "inception_4a/output"
  top: "inception_4b/1x1"
  param {
    lr_mult: 0.25
    decay_mult: 1
  }
  param {
    lr_mult: 0.5
    decay_mult: 0
  }
  convolution_param {
    num_output: 160
    pad: 0
    kernel_size: 1
    group: 1
    stride: 1
  }
}

layer {
  name: "inception_4b/relu_1x1"
  type: "ReLU"
  bottom: "inception_4b/1x1"
  top: "inception_4b/1x1"
}

layer {
  name: "inception_4b/3x3_reduce"
  type: "Convolution"
  bottom: "inception_4a/output"
  top: "inception_4b/3x3_reduce"
  param {
    lr_mult: 0.25
    decay_mult: 1
  }
  param {
    lr_mult: 0.5
    decay_mult: 0
  }
  convolution_param {
    num_output: 112
    pad: 0
    kernel_size: 1
    group: 1
    stride: 1
  }
}

layer {
  name: "inception_4b/relu_3x3_reduce"
  type: "ReLU"
  bottom: "inception_4b/3x3_reduce"
  top: "inception_4b/3x3_reduce"
}

layer {
  name: "inception_4b/3x3"
  type: "Convolution"
  bottom: "inception_4b/3x3_reduce"
  top: "inception_4b/3x3"
  param {
    lr_mult: 0.25
    decay_mult: 1
  }
  param {
    lr_mult: 0.5
    decay_mult: 0
  }
  convolution_param {
    num_output: 224
    pad: 1
    kernel_size: 3
    group: 1
    stride: 1
  }
}

layer {
  name: "inception_4b/relu_3x3"
  type: "ReLU"
  bottom: "inception_4b/3x3"
  top: "inception_4b/3x3"
}

layer {
  name: "inception_4b/5x5_reduce"
  type: "Convolution"
  bottom: "inception_4a/output"
  top: "inception_4b/5x5_reduce"
  param {
    lr_mult: 0.25
    decay_mult: 1
  }
  param {
    lr_mult: 0.5
    decay_mult: 0
  }
  convolution_param {
    num_output: 24
    pad: 0
    kernel_size: 1
    group: 1
    stride: 1
  }
}

layer {
  name: "inception_4b/relu_5x5_reduce"
  type: "ReLU"
  bottom: "inception_4b/5x5_reduce"
  top: "inception_4b/5x5_reduce"
}

layer {
  name: "inception_4b/5x5"
  type: "Convolution"
  bottom: "inception_4b/5x5_reduce"
  top: "inception_4b/5x5"
  param {
    lr_mult: 0.25
    decay_mult: 1
  }
  param {
    lr_mult: 0.5
    decay_mult: 0
  }
  convolution_param {
    num_output: 64
    pad: 2
    kernel_size: 5
    group: 1
    stride: 1
  }
}

layer {
  name: "inception_4b/relu_5x5"
  type: "ReLU"
  bottom: "inception_4b/5x5"
  top: "inception_4b/5x5"
}

layer {
  name: "inception_4b/pool"
  type: "Pooling"
  bottom: "inception_4a/output"
  top: "inception_4b/pool"
  pooling_param {
    pool: MAX
    kernel_size: 3
    stride: 1
    pad: 1
  }
}

layer {
  name: "inception_4b/pool_proj"
  type: "Convolution"
  bottom: "inception_4b/pool"
  top: "inception_4b/pool_proj"
  param {
    lr_mult: 0.25
    decay_mult: 1
  }
  param {
    lr_mult: 0.5
    decay_mult: 0
  }
  convolution_param {
    num_output: 64
    pad: 0
    kernel_size: 1
    group: 1
    stride: 1
  }
}

layer {
  name: "inception_4b/relu_pool_proj"
  type: "ReLU"
  bottom: "inception_4b/pool_proj"
  top: "inception_4b/pool_proj"
}

layer {
  name: "inception_4b/output"
  type: "Concat"
  bottom: "inception_4b/1x1"
  bottom: "inception_4b/3x3"
  bottom: "inception_4b/5x5"
  bottom: "inception_4b/pool_proj"
  top: "inception_4b/output"
}

layer {
  name: "inception_4c/1x1"
  type: "Convolution"
  bottom: "inception_4b/output"
  top: "inception_4c/1x1"
  param {
    lr_mult: 0.25
    decay_mult: 1
  }
  param {
    lr_mult: 0.5
    decay_mult: 0
  }
  convolution_param {
    num_output: 128
    pad: 0
    kernel_size: 1
    group: 1
    stride: 1
  }
}

layer {
  name: "inception_4c/relu_1x1"
  type: "ReLU"
  bottom: "inception_4c/1x1"
  top: "inception_4c/1x1"
}

layer {
  name: "inception_4c/3x3_reduce"
  type: "Convolution"
  bottom: "inception_4b/output"
  top: "inception_4c/3x3_reduce"
  param {
    lr_mult: 0.25
    decay_mult: 1
  }
  param {
    lr_mult: 0.5
    decay_mult: 0
  }
  convolution_param {
    num_output: 128
    pad: 0
    kernel_size: 1
    group: 1
    stride: 1
  }
}

layer {
  name: "inception_4c/relu_3x3_reduce"
  type: "ReLU"
  bottom: "inception_4c/3x3_reduce"
  top: "inception_4c/3x3_reduce"
}

layer {
  name: "inception_4c/3x3"
  type: "Convolution"
  bottom: "inception_4c/3x3_reduce"
  top: "inception_4c/3x3"
  param {
    lr_mult: 0.25
    decay_mult: 1
  }
  param {
    lr_mult: 0.5
    decay_mult: 0
  }
  convolution_param {
    num_output: 256
    pad: 1
    kernel_size: 3
    group: 1
    stride: 1
  }
}

layer {
  name: "inception_4c/relu_3x3"
  type: "ReLU"
  bottom: "inception_4c/3x3"
  top: "inception_4c/3x3"
}

layer {
  name: "inception_4c/5x5_reduce"
  type: "Convolution"
  bottom: "inception_4b/output"
  top: "inception_4c/5x5_reduce"
  param {
    lr_mult: 0.25
    decay_mult: 1
  }
  param {
    lr_mult: 0.5
    decay_mult: 0
  }
  convolution_param {
    num_output: 24
    pad: 0
    kernel_size: 1
    group: 1
    stride: 1
  }
}

layer {
  name: "inception_4c/relu_5x5_reduce"
  type: "ReLU"
  bottom: "inception_4c/5x5_reduce"
  top: "inception_4c/5x5_reduce"
}

layer {
  name: "inception_4c/5x5"
  type: "Convolution"
  bottom: "inception_4c/5x5_reduce"
  top: "inception_4c/5x5"
  param {
    lr_mult: 0.25
    decay_mult: 1
  }
  param {
    lr_mult: 0.5
    decay_mult: 0
  }
  convolution_param {
    num_output: 64
    pad: 2
    kernel_size: 5
    group: 1
    stride: 1
  }
}

layer {
  name: "inception_4c/relu_5x5"
  type: "ReLU"
  bottom: "inception_4c/5x5"
  top: "inception_4c/5x5"
}

layer {
  name: "inception_4c/pool"
  type: "Pooling"
  bottom: "inception_4b/output"
  top: "inception_4c/pool"
  pooling_param {
    pool: MAX
    kernel_size: 3
    stride: 1
    pad: 1
  }
}

layer {
  name: "inception_4c/pool_proj"
  type: "Convolution"
  bottom: "inception_4c/pool"
  top: "inception_4c/pool_proj"
  param {
    lr_mult: 0.25
    decay_mult: 1
  }
  param {
    lr_mult: 0.5
    decay_mult: 0
  }
  convolution_param {
    num_output: 64
    pad: 0
    kernel_size: 1
    group: 1
    stride: 1
  }
}

layer {
  name: "inception_4c/relu_pool_proj"
  type: "ReLU"
  bottom: "inception_4c/pool_proj"
  top: "inception_4c/pool_proj"
}

layer {
  name: "inception_4c/output"
  type: "Concat"
  bottom: "inception_4c/1x1"
  bottom: "inception_4c/3x3"
  bottom: "inception_4c/5x5"
  bottom: "inception_4c/pool_proj"
  top: "inception_4c/output"
}

layer {
  name: "inception_4d/1x1"
  type: "Convolution"
  bottom: "inception_4c/output"
  top: "inception_4d/1x1"
  param {
    lr_mult: 0.25
    decay_mult: 1
  }
  param {
    lr_mult: 0.5
    decay_mult: 0
  }
  convolution_param {
    num_output: 112
    pad: 0
    kernel_size: 1
    group: 1
    stride: 1
  }
}

layer {
  name: "inception_4d/relu_1x1"
  type: "ReLU"
  bottom: "inception_4d/1x1"
  top: "inception_4d/1x1"
}

layer {
  name: "inception_4d/3x3_reduce"
  type: "Convolution"
  bottom: "inception_4c/output"
  top: "inception_4d/3x3_reduce"
  param {
    lr_mult: 0.25
    decay_mult: 1
  }
  param {
    lr_mult: 0.5
    decay_mult: 0
  }
  convolution_param {
    num_output: 144
    pad: 0
    kernel_size: 1
    group: 1
    stride: 1
  }
}

layer {
  name: "inception_4d/relu_3x3_reduce"
  type: "ReLU"
  bottom: "inception_4d/3x3_reduce"
  top: "inception_4d/3x3_reduce"
}

layer {
  name: "inception_4d/3x3"
  type: "Convolution"
  bottom: "inception_4d/3x3_reduce"
  top: "inception_4d/3x3"
  param {
    lr_mult: 0.25
    decay_mult: 1
  }
  param {
    lr_mult: 0.5
    decay_mult: 0
  }
  convolution_param {
    num_output: 288
    pad: 1
    kernel_size: 3
    group: 1
    stride: 1
  }
}

layer {
  name: "inception_4d/relu_3x3"
  type: "ReLU"
  bottom: "inception_4d/3x3"
  top: "inception_4d/3x3"
}

layer {
  name: "inception_4d/5x5_reduce"
  type: "Convolution"
  bottom: "inception_4c/output"
  top: "inception_4d/5x5_reduce"
  param {
    lr_mult: 0.25
    decay_mult: 1
  }
  param {
    lr_mult: 0.5
    decay_mult: 0
  }
  convolution_param {
    num_output: 32
    pad: 0
    kernel_size: 1
    group: 1
    stride: 1
  }
}

layer {
  name: "inception_4d/relu_5x5_reduce"
  type: "ReLU"
  bottom: "inception_4d/5x5_reduce"
  top: "inception_4d/5x5_reduce"
}

layer {
  name: "inception_4d/5x5"
  type: "Convolution"
  bottom: "inception_4d/5x5_reduce"
  top: "inception_4d/5x5"
  param {
    lr_mult: 0.25
    decay_mult: 1
  }
  param {
    lr_mult: 0.5
    decay_mult: 0
  }
  convolution_param {
    num_output: 64
    pad: 2
    kernel_size: 5
    group: 1
    stride: 1
  }
}

layer {
  name: "inception_4d/relu_5x5"
  type: "ReLU"
  bottom: "inception_4d/5x5"
  top: "inception_4d/5x5"
}

layer {
  name: "inception_4d/pool"
  type: "Pooling"
  bottom: "inception_4c/output"
  top: "inception_4d/pool"
  pooling_param {
    pool: MAX
    kernel_size: 3
    stride: 1
    pad: 1
  }
}

layer {
  name: "inception_4d/pool_proj"
  type: "Convolution"
  bottom: "inception_4d/pool"
  top: "inception_4d/pool_proj"
  param {
    lr_mult: 0.25
    decay_mult: 1
  }
  param {
    lr_mult: 0.5
    decay_mult: 0
  }
  convolution_param {
    num_output: 64
    pad: 0
    kernel_size: 1
    group: 1
    stride: 1
  }
}

layer {
  name: "inception_4d/relu_pool_proj"
  type: "ReLU"
  bottom: "inception_4d/pool_proj"
  top: "inception_4d/pool_proj"
}

layer {
  name: "inception_4d/output"
  type: "Concat"
  bottom: "inception_4d/1x1"
  bottom: "inception_4d/3x3"
  bottom: "inception_4d/5x5"
  bottom: "inception_4d/pool_proj"
  top: "inception_4d/output"
}

layer {
  name: "inception_4e/1x1"
  type: "Convolution"
  bottom: "inception_4d/output"
  top: "inception_4e/1x1"
  param {
    lr_mult: 0.25
    decay_mult: 1
  }
  param {
    lr_mult: 0.5
    decay_mult: 0
  }
  convolution_param {
    num_output: 256
    pad: 0
    kernel_size: 1
    group: 1
    stride: 1
  }
}

layer {
  name: "inception_4e/relu_1x1"
  type: "ReLU"
  bottom: "inception_4e/1x1"
  top: "inception_4e/1x1"
}

layer {
  name: "inception_4e/3x3_reduce"
  type: "Convolution"
  bottom: "inception_4d/output"
  top: "inception_4e/3x3_reduce"
  param {
    lr_mult: 0.25
    decay_mult: 1
  }
  param {
    lr_mult: 0.5
    decay_mult: 0
  }
  convolution_param {
    num_output: 160
    pad: 0
    kernel_size: 1
    group: 1
    stride: 1
  }
}

layer {
  name: "inception_4e/relu_3x3_reduce"
  type: "ReLU"
  bottom: "inception_4e/3x3_reduce"
  top: "inception_4e/3x3_reduce"
}

layer {
  name: "inception_4e/3x3"
  type: "Convolution"
  bottom: "inception_4e/3x3_reduce"
  top: "inception_4e/3x3"
  param {
    lr_mult: 0.25
    decay_mult: 1
  }
  param {
    lr_mult: 0.5
    decay_mult: 0
  }
  convolution_param {
    num_output: 320
    pad: 1
    kernel_size: 3
    group: 1
    stride: 1
  }
}

layer {
  name: "inception_4e/relu_3x3"
  type: "ReLU"
  bottom: "inception_4e/3x3"
  top: "inception_4e/3x3"
}

layer {
  name: "inception_4e/5x5_reduce"
  type: "Convolution"
  bottom: "inception_4d/output"
  top: "inception_4e/5x5_reduce"
  param {
    lr_mult: 0.25
    decay_mult: 1
  }
  param {
    lr_mult: 0.5
    decay_mult: 0
  }
  convolution_param {
    num_output: 32
    pad: 0
    kernel_size: 1
    group: 1
    stride: 1
  }
}

layer {
  name: "inception_4e/relu_5x5_reduce"
  type: "ReLU"
  bottom: "inception_4e/5x5_reduce"
  top: "inception_4e/5x5_reduce"
}

layer {
  name: "inception_4e/5x5"
  type: "Convolution"
  bottom: "inception_4e/5x5_reduce"
  top: "inception_4e/5x5"
  param {
    lr_mult: 0.25
    decay_mult: 1
  }
  param {
    lr_mult: 0.5
    decay_mult: 0
  }
  convolution_param {
    num_output: 128
    pad: 2
    kernel_size: 5
    group: 1
    stride: 1
  }
}

layer {
  name: "inception_4e/relu_5x5"
  type: "ReLU"
  bottom: "inception_4e/5x5"
  top: "inception_4e/5x5"
}

layer {
  name: "inception_4e/pool"
  type: "Pooling"
  bottom: "inception_4d/output"
  top: "inception_4e/pool"
  pooling_param {
    pool: MAX
    kernel_size: 3
    stride: 1
    pad: 1
  }
}

layer {
  name: "inception_4e/pool_proj"
  type: "Convolution"
  bottom: "inception_4e/pool"
  top: "inception_4e/pool_proj"
  param {
    lr_mult: 0.25
    decay_mult: 1
  }
  param {
    lr_mult: 0.5
    decay_mult: 0
  }
  convolution_param {
    num_output: 128
    pad: 0
    kernel_size: 1
    group: 1
    stride: 1
  }
}

layer {
  name: "inception_4e/relu_pool_proj"
  type: "ReLU"
  bottom: "inception_4e/pool_proj"
  top: "inception_4e/pool_proj"
}

layer {
  name: "inception_4e/output"
  type: "Concat"
  bottom: "inception_4e/1x1"
  bottom: "inception_4e/3x3"
  bottom: "inception_4e/5x5"
  bottom: "inception_4e/pool_proj"
  top: "inception_4e/output"
}

layer {
  name: "pool4/3x3_s2"
  type: "Pooling"
  bottom: "inception_4e/output"
  top: "pool4/3x3_s2"
  pooling_param {
    pool: MAX
    kernel_size: 3
    stride: 2
    pad: 0
  }
}

layer {
  name: "inception_5a/1x1"
  type: "Convolution"
  bottom: "pool4/3x3_s2"
  top: "inception_5a/1x1"
  param {
    lr_mult: 0.25
    decay_mult: 1
  }
  param {
    lr_mult: 0.5
    decay_mult: 0
  }
  convolution_param {
    num_output: 256
    pad: 0
    kernel_size: 1
    group: 1
    stride: 1
  }
}

layer {
  name: "inception_5a/relu_1x1"
  type: "ReLU"
  bottom: "inception_5a/1x1"
  top: "inception_5a/1x1"
}

layer {
  name: "inception_5a/3x3_reduce"
  type: "Convolution"
  bottom: "pool4/3x3_s2"
  top: "inception_5a/3x3_reduce"
  param {
    lr_mult: 0.25
    decay_mult: 1
  }
  param {
    lr_mult: 0.5
    decay_mult: 0
  }
  convolution_param {
    num_output: 160
    pad: 0
    kernel_size: 1
    group: 1
    stride: 1
  }
}

layer {
  name: "inception_5a/relu_3x3_reduce"
  type: "ReLU"
  bottom: "inception_5a/3x3_reduce"
  top: "inception_5a/3x3_reduce"
}

layer {
  name: "inception_5a/3x3"
  type: "Convolution"
  bottom: "inception_5a/3x3_reduce"
  top: "inception_5a/3x3"
  param {
    lr_mult: 0.25
    decay_mult: 1
  }
  param {
    lr_mult: 0.5
    decay_mult: 0
  }
  convolution_param {
    num_output: 320
    pad: 1
    kernel_size: 3
    group: 1
    stride: 1
  }
}

layer {
  name: "inception_5a/relu_3x3"
  type: "ReLU"
  bottom: "inception_5a/3x3"
  top: "inception_5a/3x3"
}

layer {
  name: "inception_5a/5x5_reduce"
  type: "Convolution"
  bottom: "pool4/3x3_s2"
  top: "inception_5a/5x5_reduce"
  param {
    lr_mult: 0.25
    decay_mult: 1
  }
  param {
    lr_mult: 0.5
    decay_mult: 0
  }
  convolution_param {
    num_output: 32
    pad: 0
    kernel_size: 1
    group: 1
    stride: 1
  }
}

layer {
  name: "inception_5a/relu_5x5_reduce"
  type: "ReLU"
  bottom: "inception_5a/5x5_reduce"
  top: "inception_5a/5x5_reduce"
}

layer {
  name: "inception_5a/5x5"
  type: "Convolution"
  bottom: "inception_5a/5x5_reduce"
  top: "inception_5a/5x5"
  param {
    lr_mult: 0.25
    decay_mult: 1
  }
  param {
    lr_mult: 0.5
    decay_mult: 0
  }
  convolution_param {
    num_output: 128
    pad: 2
    kernel_size: 5
    group: 1
    stride: 1
  }
}

layer {
  name: "inception_5a/relu_5x5"
  type: "ReLU"
  bottom: "inception_5a/5x5"
  top: "inception_5a/5x5"
}

layer {
  name: "inception_5a/pool"
  type: "Pooling"
  bottom: "pool4/3x3_s2"
  top: "inception_5a/pool"
  pooling_param {
    pool: MAX
    kernel_size: 3
    stride: 1
    pad: 1
  }
}

layer {
  name: "inception_5a/pool_proj"
  type: "Convolution"
  bottom: "inception_5a/pool"
  top: "inception_5a/pool_proj"
  param {
    lr_mult: 0.25
    decay_mult: 1
  }
  param {
    lr_mult: 0.5
    decay_mult: 0
  }
  convolution_param {
    num_output: 128
    pad: 0
    kernel_size: 1
    group: 1
    stride: 1
  }
}

layer {
  name: "inception_5a/relu_pool_proj"
  type: "ReLU"
  bottom: "inception_5a/pool_proj"
  top: "inception_5a/pool_proj"
}

layer {
  name: "inception_5a/output"
  type: "Concat"
  bottom: "inception_5a/1x1"
  bottom: "inception_5a/3x3"
  bottom: "inception_5a/5x5"
  bottom: "inception_5a/pool_proj"
  top: "inception_5a/output"
}

layer {
  name: "inception_5b/1x1"
  type: "Convolution"
  bottom: "inception_5a/output"
  top: "inception_5b/1x1"
  param {
    lr_mult: 0.25
    decay_mult: 1
  }
  param {
    lr_mult: 0.5
    decay_mult: 0
  }
  convolution_param {
    num_output: 384
    pad: 0
    kernel_size: 1
    group: 1
    stride: 1
  }
}

layer {
  name: "inception_5b/relu_1x1"
  type: "ReLU"
  bottom: "inception_5b/1x1"
  top: "inception_5b/1x1"
}

layer {
  name: "inception_5b/3x3_reduce"
  type: "Convolution"
  bottom: "inception_5a/output"
  top: "inception_5b/3x3_reduce"
  param {
    lr_mult: 0.25
    decay_mult: 1
  }
  param {
    lr_mult: 0.5
    decay_mult: 0
  }
  convolution_param {
    num_output: 192
    pad: 0
    kernel_size: 1
    group: 1
    stride: 1
  }
}

layer {
  name: "inception_5b/relu_3x3_reduce"
  type: "ReLU"
  bottom: "inception_5b/3x3_reduce"
  top: "inception_5b/3x3_reduce"
}

layer {
  name: "inception_5b/3x3"
  type: "Convolution"
  bottom: "inception_5b/3x3_reduce"
  top: "inception_5b/3x3"
  param {
    lr_mult: 0.25
    decay_mult: 1
  }
  param {
    lr_mult: 0.5
    decay_mult: 0
  }
  convolution_param {
    num_output: 384
    pad: 1
    kernel_size: 3
    group: 1
    stride: 1
  }
}

layer {
  name: "inception_5b/relu_3x3"
  type: "ReLU"
  bottom: "inception_5b/3x3"
  top: "inception_5b/3x3"
}

layer {
  name: "inception_5b/5x5_reduce"
  type: "Convolution"
  bottom: "inception_5a/output"
  top: "inception_5b/5x5_reduce"
  param {
    lr_mult: 0.25
    decay_mult: 1
  }
  param {
    lr_mult: 0.5
    decay_mult: 0
  }
  convolution_param {
    num_output: 48
    pad: 0
    kernel_size: 1
    group: 1
    stride: 1
  }
}

layer {
  name: "inception_5b/relu_5x5_reduce"
  type: "ReLU"
  bottom: "inception_5b/5x5_reduce"
  top: "inception_5b/5x5_reduce"
}

layer {
  name: "inception_5b/5x5"
  type: "Convolution"
  bottom: "inception_5b/5x5_reduce"
  top: "inception_5b/5x5"
  param {
    lr_mult: 0.25
    decay_mult: 1
  }
  param {
    lr_mult: 0.5
    decay_mult: 0
  }
  convolution_param {
    num_output: 128
    pad: 2
    kernel_size: 5
    group: 1
    stride: 1
  }
}

layer {
  name: "inception_5b/relu_5x5"
  type: "ReLU"
  bottom: "inception_5b/5x5"
  top: "inception_5b/5x5"
}

layer {
  name: "inception_5b/pool"
  type: "Pooling"
  bottom: "inception_5a/output"
  top: "inception_5b/pool"
  pooling_param {
    pool: MAX
    kernel_size: 3
    stride: 1
    pad: 1
  }
}

layer {
  name: "inception_5b/pool_proj"
  type: "Convolution"
  bottom: "inception_5b/pool"
  top: "inception_5b/pool_proj"
  param {
    lr_mult: 0.25
    decay_mult: 1
  }
  param {
    lr_mult: 0.5
    decay_mult: 0
  }
  convolution_param {
    num_output: 128
    pad: 0
    kernel_size: 1
    group: 1
    stride: 1
  }
}

layer {
  name: "inception_5b/relu_pool_proj"
  type: "ReLU"
  bottom: "inception_5b/pool_proj"
  top: "inception_5b/pool_proj"
}

layer {
  name: "inception_5b/output"
  type: "Concat"
  bottom: "inception_5b/1x1"
  bottom: "inception_5b/3x3"
  bottom: "inception_5b/5x5"
  bottom: "inception_5b/pool_proj"
  top: "inception_5b/output"
}

layer {
  name: "pool5/7x7_s1"
  type: "Pooling"
  bottom: "inception_5b/output"
  top: "pool5/7x7_s1"
  pooling_param {
    pool: AVE
    kernel_size: 7
    stride: 1
    pad: 0
  }
}

layer {
  name: "pool5/drop_7x7_s1"
  type: "Dropout"
  bottom: "pool5/7x7_s1"
  top: "pool5/7x7_s1"
}

layer {
  name: "dir0_TL"
  type: "Convolution"
  bottom: "pool5/7x7_s1"
  top: "dir0_TL"
  param {
    lr_mult: 1
    decay_mult: 1
  }
  param {
    lr_mult: 2
    decay_mult: 0
  }
  convolution_param {
    num_output: 4
    kernel_size: 1
    weight_filler {
      type: "gaussian"
      std: 0.01
    }
    bias_filler {
      type: "constant"
      value: 0
    }
  }
}

layer {
  name: "dir0_BR"
  type: "Convolution"
  bottom: "pool5/7x7_s1"
  top: "dir0_BR"
  param {
    lr_mult: 1
    decay_mult: 1
  }
  param {
    lr_mult: 2
    decay_mult: 0
  }
  convolution_param {
    num_output: 4
    kernel_size: 1
    weight_filler {
      type: "gaussian"
      std: 0.01
    }
    bias_filler {
      type: "constant"
      value: 0
    }
  }
}

layer {
  name: "dir1_TL"
  type: "Convolution"
  bottom: "pool5/7x7_s1"
  top: "dir1_TL"
  param {
    lr_mult: 1
    decay_mult: 1
  }
  param {
    lr_mult: 2
    decay_mult: 0
  }
  convolution_param {
    num_output: 4
    kernel_size: 1
    weight_filler {
      type: "gaussian"
      std: 0.01
    }
    bias_filler {
      type: "constant"
      value: 0
    }
  }
}

layer {
  name: "dir1_BR"
  type: "Convolution"
  bottom: "pool5/7x7_s1"
  top: "dir1_BR"
  param {
    lr_mult: 1
    decay_mult: 1
  }
  param {
    lr_mult: 2
    decay_mult: 0
  }
  convolution_param {
    num_output: 4
    kernel_size: 1
    weight_filler {
      type: "gaussian"
      std: 0.01
    }
    bias_filler {
      type: "constant"
      value: 0
    }
  }
}

layer {
  name: "dir2_TL"
  type: "Convolution"
  bottom: "pool5/7x7_s1"
  top: "dir2_TL"
  param {
    lr_mult: 1
    decay_mult: 1
  }
  param {
    lr_mult: 2
    decay_mult: 0
  }
  convolution_param {
    num_output: 4
    kernel_size: 1
    weight_filler {
      type: "gaussian"
      std: 0.01
    }
    bias_filler {
      type: "constant"
      value: 0
    }
  }
}

layer {
  name: "dir2_BR"
  type: "Convolution"
  bottom: "pool5/7x7_s1"
  top: "dir2_BR"
  param {
    lr_mult: 1
    decay_mult: 1
  }
  param {
    lr_mult: 2
    decay_mult: 0
  }
  convolution_param {
    num_output: 4
    kernel_size: 1
    weight_filler {
      type: "gaussian"
      std: 0.01
    }
    bias_filler {
      type: "constant"
      value: 0
    }
  }
}

layer {
  name: "dir3_TL"
  type: "Convolution"
  bottom: "pool5/7x7_s1"
  top: "dir3_TL"
  param {
    lr_mult: 1
    decay_mult: 1
  }
  param {
    lr_mult: 2
    decay_mult: 0
  }
  convolution_param {
    num_output: 4
    kernel_size: 1
    weight_filler {
      type: "gaussian"
      std: 0.01
    }
    bias_filler {
      type: "constant"
      value: 0
    }
  }
}

layer {
  name: "dir3_BR"
  type: "Convolution"
  bottom: "pool5/7x7_s1"
  top: "dir3_BR"
  param {
    lr_mult: 1
    decay_mult: 1
  }
  param {
    lr_mult: 2
    decay_mult: 0
  }
  convolution_param {
    num_output: 4
    kernel_size: 1
    weight_filler {
      type: "gaussian"
      std: 0.01
    }
    bias_filler {
      type: "constant"
      value: 0
    }
  }
}

layer {
  name: "dir4_TL"
  type: "Convolution"
  bottom: "pool5/7x7_s1"
  top: "dir4_TL"
  param {
    lr_mult: 1
    decay_mult: 1
  }
  param {
    lr_mult: 2
    decay_mult: 0
  }
  convolution_param {
    num_output: 4
    kernel_size: 1
    weight_filler {
      type: "gaussian"
      std: 0.01
    }
    bias_filler {
      type: "constant"
      value: 0
    }
  }
}

layer {
  name: "dir4_BR"
  type: "Convolution"
  bottom: "pool5/7x7_s1"
  top: "dir4_BR"
  param {
    lr_mult: 1
    decay_mult: 1
  }
  param {
    lr_mult: 2
    decay_mult: 0
  }
  convolution_param {
    num_output: 4
    kernel_size: 1
    weight_filler {
      type: "gaussian"
      std: 0.01
    }
    bias_filler {
      type: "constant"
      value: 0
    }
  }
}

layer {
  name: "dir5_TL"
  type: "Convolution"
  bottom: "pool5/7x7_s1"
  top: "dir5_TL"
  param {
    lr_mult: 1
    decay_mult: 1
  }
  param {
    lr_mult: 2
    decay_mult: 0
  }
  convolution_param {
    num_output: 4
    kernel_size: 1
    weight_filler {
      type: "gaussian"
      std: 0.01
    }
    bias_filler {
      type: "constant"
      value: 0
    }
  }
}

layer {
  name: "dir5_BR"
  type: "Convolution"
  bottom: "pool5/7x7_s1"
  top: "dir5_BR"
  param {
    lr_mult: 1
    decay_mult: 1
  }
  param {
    lr_mult: 2
    decay_mult: 0
  }
  convolution_param {
    num_output: 4
    kernel_size: 1
    weight_filler {
      type: "gaussian"
      std: 0.01
    }
    bias_filler {
      type: "constant"
      value: 0
    }
  }
}

layer {
  name: "dir6_TL"
  type: "Convolution"
  bottom: "pool5/7x7_s1"
  top: "dir6_TL"
  param {
    lr_mult: 1
    decay_mult: 1
  }
  param {
    lr_mult: 2
    decay_mult: 0
  }
  convolution_param {
    num_output: 4
    kernel_size: 1
    weight_filler {
      type: "gaussian"
      std: 0.01
    }
    bias_filler {
      type: "constant"
      value: 0
    }
  }
}

layer {
  name: "dir6_BR"
  type: "Convolution"
  bottom: "pool5/7x7_s1"
  top: "dir6_BR"
  param {
    lr_mult: 1
    decay_mult: 1
  }
  param {
    lr_mult: 2
    decay_mult: 0
  }
  convolution_param {
    num_output: 4
    kernel_size: 1
    weight_filler {
      type: "gaussian"
      std: 0.01
    }
    bias_filler {
      type: "constant"
      value: 0
    }
  }
}

layer {
  name: "dir7_TL"
  type: "Convolution"
  bottom: "pool5/7x7_s1"
  top: "dir7_TL"
  param {
    lr_mult: 1
    decay_mult: 1
  }
  param {
    lr_mult: 2
    decay_mult: 0
  }
  convolution_param {
    num_output: 4
    kernel_size: 1
    weight_filler {
      type: "gaussian"
      std: 0.01
    }
    bias_filler {
      type: "constant"
      value: 0
    }
  }
}

layer {
  name: "dir7_BR"
  type: "Convolution"
  bottom: "pool5/7x7_s1"
  top: "dir7_BR"
  param {
    lr_mult: 1
    decay_mult: 1
  }
  param {
    lr_mult: 2
    decay_mult: 0
  }
  convolution_param {
    num_output: 4
    kernel_size: 1
    weight_filler {
      type: "gaussian"
      std: 0.01
    }
    bias_filler {
      type: "constant"
      value: 0
    }
  }
}

layer {
  name: "dir8_TL"
  type: "Convolution"
  bottom: "pool5/7x7_s1"
  top: "dir8_TL"
  param {
    lr_mult: 1
    decay_mult: 1
  }
  param {
    lr_mult: 2
    decay_mult: 0
  }
  convolution_param {
    num_output: 4
    kernel_size: 1
    weight_filler {
      type: "gaussian"
      std: 0.01
    }
    bias_filler {
      type: "constant"
      value: 0
    }
  }
}

layer {
  name: "dir8_BR"
  type: "Convolution"
  bottom: "pool5/7x7_s1"
  top: "dir8_BR"
  param {
    lr_mult: 1
    decay_mult: 1
  }
  param {
    lr_mult: 2
    decay_mult: 0
  }
  convolution_param {
    num_output: 4
    kernel_size: 1
    weight_filler {
      type: "gaussian"
      std: 0.01
    }
    bias_filler {
      type: "constant"
      value: 0
    }
  }
}

layer {
  name: "dir9_TL"
  type: "Convolution"
  bottom: "pool5/7x7_s1"
  top: "dir9_TL"
  param {
    lr_mult: 1
    decay_mult: 1
  }
  param {
    lr_mult: 2
    decay_mult: 0
  }
  convolution_param {
    num_output: 4
    kernel_size: 1
    weight_filler {
      type: "gaussian"
      std: 0.01
    }
    bias_filler {
      type: "constant"
      value: 0
    }
  }
}

layer {
  name: "dir9_BR"
  type: "Convolution"
  bottom: "pool5/7x7_s1"
  top: "dir9_BR"
  param {
    lr_mult: 1
    decay_mult: 1
  }
  param {
    lr_mult: 2
    decay_mult: 0
  }
  convolution_param {
    num_output: 4
    kernel_size: 1
    weight_filler {
      type: "gaussian"
      std: 0.01
    }
    bias_filler {
      type: "constant"
      value: 0
    }
  }
}

layer {
  name: "dir10_TL"
  type: "Convolution"
  bottom: "pool5/7x7_s1"
  top: "dir10_TL"
  param {
    lr_mult: 1
    decay_mult: 1
  }
  param {
    lr_mult: 2
    decay_mult: 0
  }
  convolution_param {
    num_output: 4
    kernel_size: 1
    weight_filler {
      type: "gaussian"
      std: 0.01
    }
    bias_filler {
      type: "constant"
      value: 0
    }
  }
}

layer {
  name: "dir10_BR"
  type: "Convolution"
  bottom: "pool5/7x7_s1"
  top: "dir10_BR"
  param {
    lr_mult: 1
    decay_mult: 1
  }
  param {
    lr_mult: 2
    decay_mult: 0
  }
  convolution_param {
    num_output: 4
    kernel_size: 1
    weight_filler {
      type: "gaussian"
      std: 0.01
    }
    bias_filler {
      type: "constant"
      value: 0
    }
  }
}

layer {
  name: "dir11_TL"
  type: "Convolution"
  bottom: "pool5/7x7_s1"
  top: "dir11_TL"
  param {
    lr_mult: 1
    decay_mult: 1
  }
  param {
    lr_mult: 2
    decay_mult: 0
  }
  convolution_param {
    num_output: 4
    kernel_size: 1
    weight_filler {
      type: "gaussian"
      std: 0.01
    }
    bias_filler {
      type: "constant"
      value: 0
    }
  }
}

layer {
  name: "dir11_BR"
  type: "Convolution"
  bottom: "pool5/7x7_s1"
  top: "dir11_BR"
  param {
    lr_mult: 1
    decay_mult: 1
  }
  param {
    lr_mult: 2
    decay_mult: 0
  }
  convolution_param {
    num_output: 4
    kernel_size: 1
    weight_filler {
      type: "gaussian"
      std: 0.01
    }
    bias_filler {
      type: "constant"
      value: 0
    }
  }
}

layer {
  name: "dir12_TL"
  type: "Convolution"
  bottom: "pool5/7x7_s1"
  top: "dir12_TL"
  param {
    lr_mult: 1
    decay_mult: 1
  }
  param {
    lr_mult: 2
    decay_mult: 0
  }
  convolution_param {
    num_output: 4
    kernel_size: 1
    weight_filler {
      type: "gaussian"
      std: 0.01
    }
    bias_filler {
      type: "constant"
      value: 0
    }
  }
}

layer {
  name: "dir12_BR"
  type: "Convolution"
  bottom: "pool5/7x7_s1"
  top: "dir12_BR"
  param {
    lr_mult: 1
    decay_mult: 1
  }
  param {
    lr_mult: 2
    decay_mult: 0
  }
  convolution_param {
    num_output: 4
    kernel_size: 1
    weight_filler {
      type: "gaussian"
      std: 0.01
    }
    bias_filler {
      type: "constant"
      value: 0
    }
  }
}

layer {
  name: "dir13_TL"
  type: "Convolution"
  bottom: "pool5/7x7_s1"
  top: "dir13_TL"
  param {
    lr_mult: 1
    decay_mult: 1
  }
  param {
    lr_mult: 2
    decay_mult: 0
  }
  convolution_param {
    num_output: 4
    kernel_size: 1
    weight_filler {
      type: "gaussian"
      std: 0.01
    }
    bias_filler {
      type: "constant"
      value: 0
    }
  }
}

layer {
  name: "dir13_BR"
  type: "Convolution"
  bottom: "pool5/7x7_s1"
  top: "dir13_BR"
  param {
    lr_mult: 1
    decay_mult: 1
  }
  param {
    lr_mult: 2
    decay_mult: 0
  }
  convolution_param {
    num_output: 4
    kernel_size: 1
    weight_filler {
      type: "gaussian"
      std: 0.01
    }
    bias_filler {
      type: "constant"
      value: 0
    }
  }
}

layer {
  name: "dir14_TL"
  type: "Convolution"
  bottom: "pool5/7x7_s1"
  top: "dir14_TL"
  param {
    lr_mult: 1
    decay_mult: 1
  }
  param {
    lr_mult: 2
    decay_mult: 0
  }
  convolution_param {
    num_output: 4
    kernel_size: 1
    weight_filler {
      type: "gaussian"
      std: 0.01
    }
    bias_filler {
      type: "constant"
      value: 0
    }
  }
}

layer {
  name: "dir14_BR"
  type: "Convolution"
  bottom: "pool5/7x7_s1"
  top: "dir14_BR"
  param {
    lr_mult: 1
    decay_mult: 1
  }
  param {
    lr_mult: 2
    decay_mult: 0
  }
  convolution_param {
    num_output: 4
    kernel_size: 1
    weight_filler {
      type: "gaussian"
      std: 0.01
    }
    bias_filler {
      type: "constant"
      value: 0
    }
  }
}

layer {
  name: "dir15_TL"
  type: "Convolution"
  bottom: "pool5/7x7_s1"
  top: "dir15_TL"
  param {
    lr_mult: 1
    decay_mult: 1
  }
  param {
    lr_mult: 2
    decay_mult: 0
  }
  convolution_param {
    num_output: 4
    kernel_size: 1
    weight_filler {
      type: "gaussian"
      std: 0.01
    }
    bias_filler {
      type: "constant"
      value: 0
    }
  }
}

layer {
  name: "dir15_BR"
  type: "Convolution"
  bottom: "pool5/7x7_s1"
  top: "dir15_BR"
  param {
    lr_mult: 1
    decay_mult: 1
  }
  param {
    lr_mult: 2
    decay_mult: 0
  }
  convolution_param {
    num_output: 4
    kernel_size: 1
    weight_filler {
      type: "gaussian"
      std: 0.01
    }
    bias_filler {
      type: "constant"
      value: 0
    }
  }
}

layer {
  name: "dir16_TL"
  type: "Convolution"
  bottom: "pool5/7x7_s1"
  top: "dir16_TL"
  param {
    lr_mult: 1
    decay_mult: 1
  }
  param {
    lr_mult: 2
    decay_mult: 0
  }
  convolution_param {
    num_output: 4
    kernel_size: 1
    weight_filler {
      type: "gaussian"
      std: 0.01
    }
    bias_filler {
      type: "constant"
      value: 0
    }
  }
}

layer {
  name: "dir16_BR"
  type: "Convolution"
  bottom: "pool5/7x7_s1"
  top: "dir16_BR"
  param {
    lr_mult: 1
    decay_mult: 1
  }
  param {
    lr_mult: 2
    decay_mult: 0
  }
  convolution_param {
    num_output: 4
    kernel_size: 1
    weight_filler {
      type: "gaussian"
      std: 0.01
    }
    bias_filler {
      type: "constant"
      value: 0
    }
  }
}

layer {
  name: "dir17_TL"
  type: "Convolution"
  bottom: "pool5/7x7_s1"
  top: "dir17_TL"
  param {
    lr_mult: 1
    decay_mult: 1
  }
  param {
    lr_mult: 2
    decay_mult: 0
  }
  convolution_param {
    num_output: 4
    kernel_size: 1
    weight_filler {
      type: "gaussian"
      std: 0.01
    }
    bias_filler {
      type: "constant"
      value: 0
    }
  }
}

layer {
  name: "dir17_BR"
  type: "Convolution"
  bottom: "pool5/7x7_s1"
  top: "dir17_BR"
  param {
    lr_mult: 1
    decay_mult: 1
  }
  param {
    lr_mult: 2
    decay_mult: 0
  }
  convolution_param {
    num_output: 4
    kernel_size: 1
    weight_filler {
      type: "gaussian"
      std: 0.01
    }
    bias_filler {
      type: "constant"
      value: 0
    }
  }
}

layer {
  name: "dir18_TL"
  type: "Convolution"
  bottom: "pool5/7x7_s1"
  top: "dir18_TL"
  param {
    lr_mult: 1
    decay_mult: 1
  }
  param {
    lr_mult: 2
    decay_mult: 0
  }
  convolution_param {
    num_output: 4
    kernel_size: 1
    weight_filler {
      type: "gaussian"
      std: 0.01
    }
    bias_filler {
      type: "constant"
      value: 0
    }
  }
}

layer {
  name: "dir18_BR"
  type: "Convolution"
  bottom: "pool5/7x7_s1"
  top: "dir18_BR"
  param {
    lr_mult: 1
    decay_mult: 1
  }
  param {
    lr_mult: 2
    decay_mult: 0
  }
  convolution_param {
    num_output: 4
    kernel_size: 1
    weight_filler {
      type: "gaussian"
      std: 0.01
    }
    bias_filler {
      type: "constant"
      value: 0
    }
  }
}

layer {
  name: "dir19_TL"
  type: "Convolution"
  bottom: "pool5/7x7_s1"
  top: "dir19_TL"
  param {
    lr_mult: 1
    decay_mult: 1
  }
  param {
    lr_mult: 2
    decay_mult: 0
  }
  convolution_param {
    num_output: 4
    kernel_size: 1
    weight_filler {
      type: "gaussian"
      std: 0.01
    }
    bias_filler {
      type: "constant"
      value: 0
    }
  }
}

layer {
  name: "dir19_BR"
  type: "Convolution"
  bottom: "pool5/7x7_s1"
  top: "dir19_BR"
  param {
    lr_mult: 1
    decay_mult: 1
  }
  param {
    lr_mult: 2
    decay_mult: 0
  }
  convolution_param {
    num_output: 4
    kernel_size: 1
    weight_filler {
      type: "gaussian"
      std: 0.01
    }
    bias_filler {
      type: "constant"
      value: 0
    }
  }
}

layer {
  name: "dir20_TL"
  type: "Convolution"
  bottom: "pool5/7x7_s1"
  top: "dir20_TL"
  param {
    lr_mult: 1
    decay_mult: 1
  }
  param {
    lr_mult: 2
    decay_mult: 0
  }
  convolution_param {
    num_output: 4
    kernel_size: 1
    weight_filler {
      type: "gaussian"
      std: 0.01
    }
    bias_filler {
      type: "constant"
      value: 0
    }
  }
}

layer {
  name: "dir20_BR"
  type: "Convolution"
  bottom: "pool5/7x7_s1"
  top: "dir20_BR"
  param {
    lr_mult: 1
    decay_mult: 1
  }
  param {
    lr_mult: 2
    decay_mult: 0
  }
  convolution_param {
    num_output: 4
    kernel_size: 1
    weight_filler {
      type: "gaussian"
      std: 0.01
    }
    bias_filler {
      type: "constant"
      value: 0
    }
  }
}

layer {
  name: "dir21_TL"
  type: "Convolution"
  bottom: "pool5/7x7_s1"
  top: "dir21_TL"
  param {
    lr_mult: 1
    decay_mult: 1
  }
  param {
    lr_mult: 2
    decay_mult: 0
  }
  convolution_param {
    num_output: 4
    kernel_size: 1
    weight_filler {
      type: "gaussian"
      std: 0.01
    }
    bias_filler {
      type: "constant"
      value: 0
    }
  }
}

layer {
  name: "dir21_BR"
  type: "Convolution"
  bottom: "pool5/7x7_s1"
  top: "dir21_BR"
  param {
    lr_mult: 1
    decay_mult: 1
  }
  param {
    lr_mult: 2
    decay_mult: 0
  }
  convolution_param {
    num_output: 4
    kernel_size: 1
    weight_filler {
      type: "gaussian"
      std: 0.01
    }
    bias_filler {
      type: "constant"
      value: 0
    }
  }
}

layer {
  name: "dir22_TL"
  type: "Convolution"
  bottom: "pool5/7x7_s1"
  top: "dir22_TL"
  param {
    lr_mult: 1
    decay_mult: 1
  }
  param {
    lr_mult: 2
    decay_mult: 0
  }
  convolution_param {
    num_output: 4
    kernel_size: 1
    weight_filler {
      type: "gaussian"
      std: 0.01
    }
    bias_filler {
      type: "constant"
      value: 0
    }
  }
}

layer {
  name: "dir22_BR"
  type: "Convolution"
  bottom: "pool5/7x7_s1"
  top: "dir22_BR"
  param {
    lr_mult: 1
    decay_mult: 1
  }
  param {
    lr_mult: 2
    decay_mult: 0
  }
  convolution_param {
    num_output: 4
    kernel_size: 1
    weight_filler {
      type: "gaussian"
      std: 0.01
    }
    bias_filler {
      type: "constant"
      value: 0
    }
  }
}

layer {
  name: "dir23_TL"
  type: "Convolution"
  bottom: "pool5/7x7_s1"
  top: "dir23_TL"
  param {
    lr_mult: 1
    decay_mult: 1
  }
  param {
    lr_mult: 2
    decay_mult: 0
  }
  convolution_param {
    num_output: 4
    kernel_size: 1
    weight_filler {
      type: "gaussian"
      std: 0.01
    }
    bias_filler {
      type: "constant"
      value: 0
    }
  }
}

layer {
  name: "dir23_BR"
  type: "Convolution"
  bottom: "pool5/7x7_s1"
  top: "dir23_BR"
  param {
    lr_mult: 1
    decay_mult: 1
  }
  param {
    lr_mult: 2
    decay_mult: 0
  }
  convolution_param {
    num_output: 4
    kernel_size: 1
    weight_filler {
      type: "gaussian"
      std: 0.01
    }
    bias_filler {
      type: "constant"
      value: 0
    }
  }
}

layer {
  name: "dir24_TL"
  type: "Convolution"
  bottom: "pool5/7x7_s1"
  top: "dir24_TL"
  param {
    lr_mult: 1
    decay_mult: 1
  }
  param {
    lr_mult: 2
    decay_mult: 0
  }
  convolution_param {
    num_output: 4
    kernel_size: 1
    weight_filler {
      type: "gaussian"
      std: 0.01
    }
    bias_filler {
      type: "constant"
      value: 0
    }
  }
}

layer {
  name: "dir24_BR"
  type: "Convolution"
  bottom: "pool5/7x7_s1"
  top: "dir24_BR"
  param {
    lr_mult: 1
    decay_mult: 1
  }
  param {
    lr_mult: 2
    decay_mult: 0
  }
  convolution_param {
    num_output: 4
    kernel_size: 1
    weight_filler {
      type: "gaussian"
      std: 0.01
    }
    bias_filler {
      type: "constant"
      value: 0
    }
  }
}

layer {
  name: "dir25_TL"
  type: "Convolution"
  bottom: "pool5/7x7_s1"
  top: "dir25_TL"
  param {
    lr_mult: 1
    decay_mult: 1
  }
  param {
    lr_mult: 2
    decay_mult: 0
  }
  convolution_param {
    num_output: 4
    kernel_size: 1
    weight_filler {
      type: "gaussian"
      std: 0.01
    }
    bias_filler {
      type: "constant"
      value: 0
    }
  }
}

layer {
  name: "dir25_BR"
  type: "Convolution"
  bottom: "pool5/7x7_s1"
  top: "dir25_BR"
  param {
    lr_mult: 1
    decay_mult: 1
  }
  param {
    lr_mult: 2
    decay_mult: 0
  }
  convolution_param {
    num_output: 4
    kernel_size: 1
    weight_filler {
      type: "gaussian"
      std: 0.01
    }
    bias_filler {
      type: "constant"
      value: 0
    }
  }
}

layer {
  name: "dir26_TL"
  type: "Convolution"
  bottom: "pool5/7x7_s1"
  top: "dir26_TL"
  param {
    lr_mult: 1
    decay_mult: 1
  }
  param {
    lr_mult: 2
    decay_mult: 0
  }
  convolution_param {
    num_output: 4
    kernel_size: 1
    weight_filler {
      type: "gaussian"
      std: 0.01
    }
    bias_filler {
      type: "constant"
      value: 0
    }
  }
}

layer {
  name: "dir26_BR"
  type: "Convolution"
  bottom: "pool5/7x7_s1"
  top: "dir26_BR"
  param {
    lr_mult: 1
    decay_mult: 1
  }
  param {
    lr_mult: 2
    decay_mult: 0
  }
  convolution_param {
    num_output: 4
    kernel_size: 1
    weight_filler {
      type: "gaussian"
      std: 0.01
    }
    bias_filler {
      type: "constant"
      value: 0
    }
  }
}

layer {
  name: "dir27_TL"
  type: "Convolution"
  bottom: "pool5/7x7_s1"
  top: "dir27_TL"
  param {
    lr_mult: 1
    decay_mult: 1
  }
  param {
    lr_mult: 2
    decay_mult: 0
  }
  convolution_param {
    num_output: 4
    kernel_size: 1
    weight_filler {
      type: "gaussian"
      std: 0.01
    }
    bias_filler {
      type: "constant"
      value: 0
    }
  }
}

layer {
  name: "dir27_BR"
  type: "Convolution"
  bottom: "pool5/7x7_s1"
  top: "dir27_BR"
  param {
    lr_mult: 1
    decay_mult: 1
  }
  param {
    lr_mult: 2
    decay_mult: 0
  }
  convolution_param {
    num_output: 4
    kernel_size: 1
    weight_filler {
      type: "gaussian"
      std: 0.01
    }
    bias_filler {
      type: "constant"
      value: 0
    }
  }
}

layer {
  name: "dir28_TL"
  type: "Convolution"
  bottom: "pool5/7x7_s1"
  top: "dir28_TL"
  param {
    lr_mult: 1
    decay_mult: 1
  }
  param {
    lr_mult: 2
    decay_mult: 0
  }
  convolution_param {
    num_output: 4
    kernel_size: 1
    weight_filler {
      type: "gaussian"
      std: 0.01
    }
    bias_filler {
      type: "constant"
      value: 0
    }
  }
}

layer {
  name: "dir28_BR"
  type: "Convolution"
  bottom: "pool5/7x7_s1"
  top: "dir28_BR"
  param {
    lr_mult: 1
    decay_mult: 1
  }
  param {
    lr_mult: 2
    decay_mult: 0
  }
  convolution_param {
    num_output: 4
    kernel_size: 1
    weight_filler {
      type: "gaussian"
      std: 0.01
    }
    bias_filler {
      type: "constant"
      value: 0
    }
  }
}

layer {
  name: "dir29_TL"
  type: "Convolution"
  bottom: "pool5/7x7_s1"
  top: "dir29_TL"
  param {
    lr_mult: 1
    decay_mult: 1
  }
  param {
    lr_mult: 2
    decay_mult: 0
  }
  convolution_param {
    num_output: 4
    kernel_size: 1
    weight_filler {
      type: "gaussian"
      std: 0.01
    }
    bias_filler {
      type: "constant"
      value: 0
    }
  }
}

layer {
  name: "dir29_BR"
  type: "Convolution"
  bottom: "pool5/7x7_s1"
  top: "dir29_BR"
  param {
    lr_mult: 1
    decay_mult: 1
  }
  param {
    lr_mult: 2
    decay_mult: 0
  }
  convolution_param {
    num_output: 4
    kernel_size: 1
    weight_filler {
      type: "gaussian"
      std: 0.01
    }
    bias_filler {
      type: "constant"
      value: 0
    }
  }
}

layer {
  name: "dir30_TL"
  type: "Convolution"
  bottom: "pool5/7x7_s1"
  top: "dir30_TL"
  param {
    lr_mult: 1
    decay_mult: 1
  }
  param {
    lr_mult: 2
    decay_mult: 0
  }
  convolution_param {
    num_output: 4
    kernel_size: 1
    weight_filler {
      type: "gaussian"
      std: 0.01
    }
    bias_filler {
      type: "constant"
      value: 0
    }
  }
}

layer {
  name: "dir30_BR"
  type: "Convolution"
  bottom: "pool5/7x7_s1"
  top: "dir30_BR"
  param {
    lr_mult: 1
    decay_mult: 1
  }
  param {
    lr_mult: 2
    decay_mult: 0
  }
  convolution_param {
    num_output: 4
    kernel_size: 1
    weight_filler {
      type: "gaussian"
      std: 0.01
    }
    bias_filler {
      type: "constant"
      value: 0
    }
  }
}

layer {
  name: "dir31_TL"
  type: "Convolution"
  bottom: "pool5/7x7_s1"
  top: "dir31_TL"
  param {
    lr_mult: 1
    decay_mult: 1
  }
  param {
    lr_mult: 2
    decay_mult: 0
  }
  convolution_param {
    num_output: 4
    kernel_size: 1
    weight_filler {
      type: "gaussian"
      std: 0.01
    }
    bias_filler {
      type: "constant"
      value: 0
    }
  }
}

layer {
  name: "dir31_BR"
  type: "Convolution"
  bottom: "pool5/7x7_s1"
  top: "dir31_BR"
  param {
    lr_mult: 1
    decay_mult: 1
  }
  param {
    lr_mult: 2
    decay_mult: 0
  }
  convolution_param {
    num_output: 4
    kernel_size: 1
    weight_filler {
      type: "gaussian"
      std: 0.01
    }
    bias_filler {
      type: "constant"
      value: 0
    }
  }
}

layer {
  name: "dir32_TL"
  type: "Convolution"
  bottom: "pool5/7x7_s1"
  top: "dir32_TL"
  param {
    lr_mult: 1
    decay_mult: 1
  }
  param {
    lr_mult: 2
    decay_mult: 0
  }
  convolution_param {
    num_output: 4
    kernel_size: 1
    weight_filler {
      type: "gaussian"
      std: 0.01
    }
    bias_filler {
      type: "constant"
      value: 0
    }
  }
}

layer {
  name: "dir32_BR"
  type: "Convolution"
  bottom: "pool5/7x7_s1"
  top: "dir32_BR"
  param {
    lr_mult: 1
    decay_mult: 1
  }
  param {
    lr_mult: 2
    decay_mult: 0
  }
  convolution_param {
    num_output: 4
    kernel_size: 1
    weight_filler {
      type: "gaussian"
      std: 0.01
    }
    bias_filler {
      type: "constant"
      value: 0
    }
  }
}

layer {
  name: "dir33_TL"
  type: "Convolution"
  bottom: "pool5/7x7_s1"
  top: "dir33_TL"
  param {
    lr_mult: 1
    decay_mult: 1
  }
  param {
    lr_mult: 2
    decay_mult: 0
  }
  convolution_param {
    num_output: 4
    kernel_size: 1
    weight_filler {
      type: "gaussian"
      std: 0.01
    }
    bias_filler {
      type: "constant"
      value: 0
    }
  }
}

layer {
  name: "dir33_BR"
  type: "Convolution"
  bottom: "pool5/7x7_s1"
  top: "dir33_BR"
  param {
    lr_mult: 1
    decay_mult: 1
  }
  param {
    lr_mult: 2
    decay_mult: 0
  }
  convolution_param {
    num_output: 4
    kernel_size: 1
    weight_filler {
      type: "gaussian"
      std: 0.01
    }
    bias_filler {
      type: "constant"
      value: 0
    }
  }
}

layer {
  name: "dir34_TL"
  type: "Convolution"
  bottom: "pool5/7x7_s1"
  top: "dir34_TL"
  param {
    lr_mult: 1
    decay_mult: 1
  }
  param {
    lr_mult: 2
    decay_mult: 0
  }
  convolution_param {
    num_output: 4
    kernel_size: 1
    weight_filler {
      type: "gaussian"
      std: 0.01
    }
    bias_filler {
      type: "constant"
      value: 0
    }
  }
}

layer {
  name: "dir34_BR"
  type: "Convolution"
  bottom: "pool5/7x7_s1"
  top: "dir34_BR"
  param {
    lr_mult: 1
    decay_mult: 1
  }
  param {
    lr_mult: 2
    decay_mult: 0
  }
  convolution_param {
    num_output: 4
    kernel_size: 1
    weight_filler {
      type: "gaussian"
      std: 0.01
    }
    bias_filler {
      type: "constant"
      value: 0
    }
  }
}

layer {
  name: "dir35_TL"
  type: "Convolution"
  bottom: "pool5/7x7_s1"
  top: "dir35_TL"
  param {
    lr_mult: 1
    decay_mult: 1
  }
  param {
    lr_mult: 2
    decay_mult: 0
  }
  convolution_param {
    num_output: 4
    kernel_size: 1
    weight_filler {
      type: "gaussian"
      std: 0.01
    }
    bias_filler {
      type: "constant"
      value: 0
    }
  }
}

layer {
  name: "dir35_BR"
  type: "Convolution"
  bottom: "pool5/7x7_s1"
  top: "dir35_BR"
  param {
    lr_mult: 1
    decay_mult: 1
  }
  param {
    lr_mult: 2
    decay_mult: 0
  }
  convolution_param {
    num_output: 4
    kernel_size: 1
    weight_filler {
      type: "gaussian"
      std: 0.01
    }
    bias_filler {
      type: "constant"
      value: 0
    }
  }
}

layer {
  name: "dir36_TL"
  type: "Convolution"
  bottom: "pool5/7x7_s1"
  top: "dir36_TL"
  param {
    lr_mult: 1
    decay_mult: 1
  }
  param {
    lr_mult: 2
    decay_mult: 0
  }
  convolution_param {
    num_output: 4
    kernel_size: 1
    weight_filler {
      type: "gaussian"
      std: 0.01
    }
    bias_filler {
      type: "constant"
      value: 0
    }
  }
}

layer {
  name: "dir36_BR"
  type: "Convolution"
  bottom: "pool5/7x7_s1"
  top: "dir36_BR"
  param {
    lr_mult: 1
    decay_mult: 1
  }
  param {
    lr_mult: 2
    decay_mult: 0
  }
  convolution_param {
    num_output: 4
    kernel_size: 1
    weight_filler {
      type: "gaussian"
      std: 0.01
    }
    bias_filler {
      type: "constant"
      value: 0
    }
  }
}

layer {
  name: "dir37_TL"
  type: "Convolution"
  bottom: "pool5/7x7_s1"
  top: "dir37_TL"
  param {
    lr_mult: 1
    decay_mult: 1
  }
  param {
    lr_mult: 2
    decay_mult: 0
  }
  convolution_param {
    num_output: 4
    kernel_size: 1
    weight_filler {
      type: "gaussian"
      std: 0.01
    }
    bias_filler {
      type: "constant"
      value: 0
    }
  }
}

layer {
  name: "dir37_BR"
  type: "Convolution"
  bottom: "pool5/7x7_s1"
  top: "dir37_BR"
  param {
    lr_mult: 1
    decay_mult: 1
  }
  param {
    lr_mult: 2
    decay_mult: 0
  }
  convolution_param {
    num_output: 4
    kernel_size: 1
    weight_filler {
      type: "gaussian"
      std: 0.01
    }
    bias_filler {
      type: "constant"
      value: 0
    }
  }
}

layer {
  name: "dir38_TL"
  type: "Convolution"
  bottom: "pool5/7x7_s1"
  top: "dir38_TL"
  param {
    lr_mult: 1
    decay_mult: 1
  }
  param {
    lr_mult: 2
    decay_mult: 0
  }
  convolution_param {
    num_output: 4
    kernel_size: 1
    weight_filler {
      type: "gaussian"
      std: 0.01
    }
    bias_filler {
      type: "constant"
      value: 0
    }
  }
}

layer {
  name: "dir38_BR"
  type: "Convolution"
  bottom: "pool5/7x7_s1"
  top: "dir38_BR"
  param {
    lr_mult: 1
    decay_mult: 1
  }
  param {
    lr_mult: 2
    decay_mult: 0
  }
  convolution_param {
    num_output: 4
    kernel_size: 1
    weight_filler {
      type: "gaussian"
      std: 0.01
    }
    bias_filler {
      type: "constant"
      value: 0
    }
  }
}

layer {
  name: "dir39_TL"
  type: "Convolution"
  bottom: "pool5/7x7_s1"
  top: "dir39_TL"
  param {
    lr_mult: 1
    decay_mult: 1
  }
  param {
    lr_mult: 2
    decay_mult: 0
  }
  convolution_param {
    num_output: 4
    kernel_size: 1
    weight_filler {
      type: "gaussian"
      std: 0.01
    }
    bias_filler {
      type: "constant"
      value: 0
    }
  }
}

layer {
  name: "dir39_BR"
  type: "Convolution"
  bottom: "pool5/7x7_s1"
  top: "dir39_BR"
  param {
    lr_mult: 1
    decay_mult: 1
  }
  param {
    lr_mult: 2
    decay_mult: 0
  }
  convolution_param {
    num_output: 4
    kernel_size: 1
    weight_filler {
      type: "gaussian"
      std: 0.01
    }
    bias_filler {
      type: "constant"
      value: 0
    }
  }
}

layer {
  name: "dir40_TL"
  type: "Convolution"
  bottom: "pool5/7x7_s1"
  top: "dir40_TL"
  param {
    lr_mult: 1
    decay_mult: 1
  }
  param {
    lr_mult: 2
    decay_mult: 0
  }
  convolution_param {
    num_output: 4
    kernel_size: 1
    weight_filler {
      type: "gaussian"
      std: 0.01
    }
    bias_filler {
      type: "constant"
      value: 0
    }
  }
}

layer {
  name: "dir40_BR"
  type: "Convolution"
  bottom: "pool5/7x7_s1"
  top: "dir40_BR"
  param {
    lr_mult: 1
    decay_mult: 1
  }
  param {
    lr_mult: 2
    decay_mult: 0
  }
  convolution_param {
    num_output: 4
    kernel_size: 1
    weight_filler {
      type: "gaussian"
      std: 0.01
    }
    bias_filler {
      type: "constant"
      value: 0
    }
  }
}

layer {
  name: "dir41_TL"
  type: "Convolution"
  bottom: "pool5/7x7_s1"
  top: "dir41_TL"
  param {
    lr_mult: 1
    decay_mult: 1
  }
  param {
    lr_mult: 2
    decay_mult: 0
  }
  convolution_param {
    num_output: 4
    kernel_size: 1
    weight_filler {
      type: "gaussian"
      std: 0.01
    }
    bias_filler {
      type: "constant"
      value: 0
    }
  }
}

layer {
  name: "dir41_BR"
  type: "Convolution"
  bottom: "pool5/7x7_s1"
  top: "dir41_BR"
  param {
    lr_mult: 1
    decay_mult: 1
  }
  param {
    lr_mult: 2
    decay_mult: 0
  }
  convolution_param {
    num_output: 4
    kernel_size: 1
    weight_filler {
      type: "gaussian"
      std: 0.01
    }
    bias_filler {
      type: "constant"
      value: 0
    }
  }
}

layer {
  name: "dir42_TL"
  type: "Convolution"
  bottom: "pool5/7x7_s1"
  top: "dir42_TL"
  param {
    lr_mult: 1
    decay_mult: 1
  }
  param {
    lr_mult: 2
    decay_mult: 0
  }
  convolution_param {
    num_output: 4
    kernel_size: 1
    weight_filler {
      type: "gaussian"
      std: 0.01
    }
    bias_filler {
      type: "constant"
      value: 0
    }
  }
}

layer {
  name: "dir42_BR"
  type: "Convolution"
  bottom: "pool5/7x7_s1"
  top: "dir42_BR"
  param {
    lr_mult: 1
    decay_mult: 1
  }
  param {
    lr_mult: 2
    decay_mult: 0
  }
  convolution_param {
    num_output: 4
    kernel_size: 1
    weight_filler {
      type: "gaussian"
      std: 0.01
    }
    bias_filler {
      type: "constant"
      value: 0
    }
  }
}

layer {
  name: "dir43_TL"
  type: "Convolution"
  bottom: "pool5/7x7_s1"
  top: "dir43_TL"
  param {
    lr_mult: 1
    decay_mult: 1
  }
  param {
    lr_mult: 2
    decay_mult: 0
  }
  convolution_param {
    num_output: 4
    kernel_size: 1
    weight_filler {
      type: "gaussian"
      std: 0.01
    }
    bias_filler {
      type: "constant"
      value: 0
    }
  }
}

layer {
  name: "dir43_BR"
  type: "Convolution"
  bottom: "pool5/7x7_s1"
  top: "dir43_BR"
  param {
    lr_mult: 1
    decay_mult: 1
  }
  param {
    lr_mult: 2
    decay_mult: 0
  }
  convolution_param {
    num_output: 4
    kernel_size: 1
    weight_filler {
      type: "gaussian"
      std: 0.01
    }
    bias_filler {
      type: "constant"
      value: 0
    }
  }
}

layer {
  name: "dir44_TL"
  type: "Convolution"
  bottom: "pool5/7x7_s1"
  top: "dir44_TL"
  param {
    lr_mult: 1
    decay_mult: 1
  }
  param {
    lr_mult: 2
    decay_mult: 0
  }
  convolution_param {
    num_output: 4
    kernel_size: 1
    weight_filler {
      type: "gaussian"
      std: 0.01
    }
    bias_filler {
      type: "constant"
      value: 0
    }
  }
}

layer {
  name: "dir44_BR"
  type: "Convolution"
  bottom: "pool5/7x7_s1"
  top: "dir44_BR"
  param {
    lr_mult: 1
    decay_mult: 1
  }
  param {
    lr_mult: 2
    decay_mult: 0
  }
  convolution_param {
    num_output: 4
    kernel_size: 1
    weight_filler {
      type: "gaussian"
      std: 0.01
    }
    bias_filler {
      type: "constant"
      value: 0
    }
  }
}

layer {
  name: "dir45_TL"
  type: "Convolution"
  bottom: "pool5/7x7_s1"
  top: "dir45_TL"
  param {
    lr_mult: 1
    decay_mult: 1
  }
  param {
    lr_mult: 2
    decay_mult: 0
  }
  convolution_param {
    num_output: 4
    kernel_size: 1
    weight_filler {
      type: "gaussian"
      std: 0.01
    }
    bias_filler {
      type: "constant"
      value: 0
    }
  }
}

layer {
  name: "dir45_BR"
  type: "Convolution"
  bottom: "pool5/7x7_s1"
  top: "dir45_BR"
  param {
    lr_mult: 1
    decay_mult: 1
  }
  param {
    lr_mult: 2
    decay_mult: 0
  }
  convolution_param {
    num_output: 4
    kernel_size: 1
    weight_filler {
      type: "gaussian"
      std: 0.01
    }
    bias_filler {
      type: "constant"
      value: 0
    }
  }
}

layer {
  name: "dir46_TL"
  type: "Convolution"
  bottom: "pool5/7x7_s1"
  top: "dir46_TL"
  param {
    lr_mult: 1
    decay_mult: 1
  }
  param {
    lr_mult: 2
    decay_mult: 0
  }
  convolution_param {
    num_output: 4
    kernel_size: 1
    weight_filler {
      type: "gaussian"
      std: 0.01
    }
    bias_filler {
      type: "constant"
      value: 0
    }
  }
}

layer {
  name: "dir46_BR"
  type: "Convolution"
  bottom: "pool5/7x7_s1"
  top: "dir46_BR"
  param {
    lr_mult: 1
    decay_mult: 1
  }
  param {
    lr_mult: 2
    decay_mult: 0
  }
  convolution_param {
    num_output: 4
    kernel_size: 1
    weight_filler {
      type: "gaussian"
      std: 0.01
    }
    bias_filler {
      type: "constant"
      value: 0
    }
  }
}

layer {
  name: "dir47_TL"
  type: "Convolution"
  bottom: "pool5/7x7_s1"
  top: "dir47_TL"
  param {
    lr_mult: 1
    decay_mult: 1
  }
  param {
    lr_mult: 2
    decay_mult: 0
  }
  convolution_param {
    num_output: 4
    kernel_size: 1
    weight_filler {
      type: "gaussian"
      std: 0.01
    }
    bias_filler {
      type: "constant"
      value: 0
    }
  }
}

layer {
  name: "dir47_BR"
  type: "Convolution"
  bottom: "pool5/7x7_s1"
  top: "dir47_BR"
  param {
    lr_mult: 1
    decay_mult: 1
  }
  param {
    lr_mult: 2
    decay_mult: 0
  }
  convolution_param {
    num_output: 4
    kernel_size: 1
    weight_filler {
      type: "gaussian"
      std: 0.01
    }
    bias_filler {
      type: "constant"
      value: 0
    }
  }
}

layer {
  name: "dir48_TL"
  type: "Convolution"
  bottom: "pool5/7x7_s1"
  top: "dir48_TL"
  param {
    lr_mult: 1
    decay_mult: 1
  }
  param {
    lr_mult: 2
    decay_mult: 0
  }
  convolution_param {
    num_output: 4
    kernel_size: 1
    weight_filler {
      type: "gaussian"
      std: 0.01
    }
    bias_filler {
      type: "constant"
      value: 0
    }
  }
}

layer {
  name: "dir48_BR"
  type: "Convolution"
  bottom: "pool5/7x7_s1"
  top: "dir48_BR"
  param {
    lr_mult: 1
    decay_mult: 1
  }
  param {
    lr_mult: 2
    decay_mult: 0
  }
  convolution_param {
    num_output: 4
    kernel_size: 1
    weight_filler {
      type: "gaussian"
      std: 0.01
    }
    bias_filler {
      type: "constant"
      value: 0
    }
  }
}

layer {
  name: "dir49_TL"
  type: "Convolution"
  bottom: "pool5/7x7_s1"
  top: "dir49_TL"
  param {
    lr_mult: 1
    decay_mult: 1
  }
  param {
    lr_mult: 2
    decay_mult: 0
  }
  convolution_param {
    num_output: 4
    kernel_size: 1
    weight_filler {
      type: "gaussian"
      std: 0.01
    }
    bias_filler {
      type: "constant"
      value: 0
    }
  }
}

layer {
  name: "dir49_BR"
  type: "Convolution"
  bottom: "pool5/7x7_s1"
  top: "dir49_BR"
  param {
    lr_mult: 1
    decay_mult: 1
  }
  param {
    lr_mult: 2
    decay_mult: 0
  }
  convolution_param {
    num_output: 4
    kernel_size: 1
    weight_filler {
      type: "gaussian"
      std: 0.01
    }
    bias_filler {
      type: "constant"
      value: 0
    }
  }
}

layer {
  name: "dir50_TL"
  type: "Convolution"
  bottom: "pool5/7x7_s1"
  top: "dir50_TL"
  param {
    lr_mult: 1
    decay_mult: 1
  }
  param {
    lr_mult: 2
    decay_mult: 0
  }
  convolution_param {
    num_output: 4
    kernel_size: 1
    weight_filler {
      type: "gaussian"
      std: 0.01
    }
    bias_filler {
      type: "constant"
      value: 0
    }
  }
}

layer {
  name: "dir50_BR"
  type: "Convolution"
  bottom: "pool5/7x7_s1"
  top: "dir50_BR"
  param {
    lr_mult: 1
    decay_mult: 1
  }
  param {
    lr_mult: 2
    decay_mult: 0
  }
  convolution_param {
    num_output: 4
    kernel_size: 1
    weight_filler {
      type: "gaussian"
      std: 0.01
    }
    bias_filler {
      type: "constant"
      value: 0
    }
  }
}

layer {
  name: "dir51_TL"
  type: "Convolution"
  bottom: "pool5/7x7_s1"
  top: "dir51_TL"
  param {
    lr_mult: 1
    decay_mult: 1
  }
  param {
    lr_mult: 2
    decay_mult: 0
  }
  convolution_param {
    num_output: 4
    kernel_size: 1
    weight_filler {
      type: "gaussian"
      std: 0.01
    }
    bias_filler {
      type: "constant"
      value: 0
    }
  }
}

layer {
  name: "dir51_BR"
  type: "Convolution"
  bottom: "pool5/7x7_s1"
  top: "dir51_BR"
  param {
    lr_mult: 1
    decay_mult: 1
  }
  param {
    lr_mult: 2
    decay_mult: 0
  }
  convolution_param {
    num_output: 4
    kernel_size: 1
    weight_filler {
      type: "gaussian"
      std: 0.01
    }
    bias_filler {
      type: "constant"
      value: 0
    }
  }
}

layer {
  name: "dir52_TL"
  type: "Convolution"
  bottom: "pool5/7x7_s1"
  top: "dir52_TL"
  param {
    lr_mult: 1
    decay_mult: 1
  }
  param {
    lr_mult: 2
    decay_mult: 0
  }
  convolution_param {
    num_output: 4
    kernel_size: 1
    weight_filler {
      type: "gaussian"
      std: 0.01
    }
    bias_filler {
      type: "constant"
      value: 0
    }
  }
}

layer {
  name: "dir52_BR"
  type: "Convolution"
  bottom: "pool5/7x7_s1"
  top: "dir52_BR"
  param {
    lr_mult: 1
    decay_mult: 1
  }
  param {
    lr_mult: 2
    decay_mult: 0
  }
  convolution_param {
    num_output: 4
    kernel_size: 1
    weight_filler {
      type: "gaussian"
      std: 0.01
    }
    bias_filler {
      type: "constant"
      value: 0
    }
  }
}

layer {
  name: "dir53_TL"
  type: "Convolution"
  bottom: "pool5/7x7_s1"
  top: "dir53_TL"
  param {
    lr_mult: 1
    decay_mult: 1
  }
  param {
    lr_mult: 2
    decay_mult: 0
  }
  convolution_param {
    num_output: 4
    kernel_size: 1
    weight_filler {
      type: "gaussian"
      std: 0.01
    }
    bias_filler {
      type: "constant"
      value: 0
    }
  }
}

layer {
  name: "dir53_BR"
  type: "Convolution"
  bottom: "pool5/7x7_s1"
  top: "dir53_BR"
  param {
    lr_mult: 1
    decay_mult: 1
  }
  param {
    lr_mult: 2
    decay_mult: 0
  }
  convolution_param {
    num_output: 4
    kernel_size: 1
    weight_filler {
      type: "gaussian"
      std: 0.01
    }
    bias_filler {
      type: "constant"
      value: 0
    }
  }
}

layer {
  name: "dir54_TL"
  type: "Convolution"
  bottom: "pool5/7x7_s1"
  top: "dir54_TL"
  param {
    lr_mult: 1
    decay_mult: 1
  }
  param {
    lr_mult: 2
    decay_mult: 0
  }
  convolution_param {
    num_output: 4
    kernel_size: 1
    weight_filler {
      type: "gaussian"
      std: 0.01
    }
    bias_filler {
      type: "constant"
      value: 0
    }
  }
}

layer {
  name: "dir54_BR"
  type: "Convolution"
  bottom: "pool5/7x7_s1"
  top: "dir54_BR"
  param {
    lr_mult: 1
    decay_mult: 1
  }
  param {
    lr_mult: 2
    decay_mult: 0
  }
  convolution_param {
    num_output: 4
    kernel_size: 1
    weight_filler {
      type: "gaussian"
      std: 0.01
    }
    bias_filler {
      type: "constant"
      value: 0
    }
  }
}

layer {
  name: "dir55_TL"
  type: "Convolution"
  bottom: "pool5/7x7_s1"
  top: "dir55_TL"
  param {
    lr_mult: 1
    decay_mult: 1
  }
  param {
    lr_mult: 2
    decay_mult: 0
  }
  convolution_param {
    num_output: 4
    kernel_size: 1
    weight_filler {
      type: "gaussian"
      std: 0.01
    }
    bias_filler {
      type: "constant"
      value: 0
    }
  }
}

layer {
  name: "dir55_BR"
  type: "Convolution"
  bottom: "pool5/7x7_s1"
  top: "dir55_BR"
  param {
    lr_mult: 1
    decay_mult: 1
  }
  param {
    lr_mult: 2
    decay_mult: 0
  }
  convolution_param {
    num_output: 4
    kernel_size: 1
    weight_filler {
      type: "gaussian"
      std: 0.01
    }
    bias_filler {
      type: "constant"
      value: 0
    }
  }
}

layer {
  name: "dir56_TL"
  type: "Convolution"
  bottom: "pool5/7x7_s1"
  top: "dir56_TL"
  param {
    lr_mult: 1
    decay_mult: 1
  }
  param {
    lr_mult: 2
    decay_mult: 0
  }
  convolution_param {
    num_output: 4
    kernel_size: 1
    weight_filler {
      type: "gaussian"
      std: 0.01
    }
    bias_filler {
      type: "constant"
      value: 0
    }
  }
}

layer {
  name: "dir56_BR"
  type: "Convolution"
  bottom: "pool5/7x7_s1"
  top: "dir56_BR"
  param {
    lr_mult: 1
    decay_mult: 1
  }
  param {
    lr_mult: 2
    decay_mult: 0
  }
  convolution_param {
    num_output: 4
    kernel_size: 1
    weight_filler {
      type: "gaussian"
      std: 0.01
    }
    bias_filler {
      type: "constant"
      value: 0
    }
  }
}

layer {
  name: "dir57_TL"
  type: "Convolution"
  bottom: "pool5/7x7_s1"
  top: "dir57_TL"
  param {
    lr_mult: 1
    decay_mult: 1
  }
  param {
    lr_mult: 2
    decay_mult: 0
  }
  convolution_param {
    num_output: 4
    kernel_size: 1
    weight_filler {
      type: "gaussian"
      std: 0.01
    }
    bias_filler {
      type: "constant"
      value: 0
    }
  }
}

layer {
  name: "dir57_BR"
  type: "Convolution"
  bottom: "pool5/7x7_s1"
  top: "dir57_BR"
  param {
    lr_mult: 1
    decay_mult: 1
  }
  param {
    lr_mult: 2
    decay_mult: 0
  }
  convolution_param {
    num_output: 4
    kernel_size: 1
    weight_filler {
      type: "gaussian"
      std: 0.01
    }
    bias_filler {
      type: "constant"
      value: 0
    }
  }
}

layer {
  name: "dir58_TL"
  type: "Convolution"
  bottom: "pool5/7x7_s1"
  top: "dir58_TL"
  param {
    lr_mult: 1
    decay_mult: 1
  }
  param {
    lr_mult: 2
    decay_mult: 0
  }
  convolution_param {
    num_output: 4
    kernel_size: 1
    weight_filler {
      type: "gaussian"
      std: 0.01
    }
    bias_filler {
      type: "constant"
      value: 0
    }
  }
}

layer {
  name: "dir58_BR"
  type: "Convolution"
  bottom: "pool5/7x7_s1"
  top: "dir58_BR"
  param {
    lr_mult: 1
    decay_mult: 1
  }
  param {
    lr_mult: 2
    decay_mult: 0
  }
  convolution_param {
    num_output: 4
    kernel_size: 1
    weight_filler {
      type: "gaussian"
      std: 0.01
    }
    bias_filler {
      type: "constant"
      value: 0
    }
  }
}

layer {
  name: "dir59_TL"
  type: "Convolution"
  bottom: "pool5/7x7_s1"
  top: "dir59_TL"
  param {
    lr_mult: 1
    decay_mult: 1
  }
  param {
    lr_mult: 2
    decay_mult: 0
  }
  convolution_param {
    num_output: 4
    kernel_size: 1
    weight_filler {
      type: "gaussian"
      std: 0.01
    }
    bias_filler {
      type: "constant"
      value: 0
    }
  }
}

layer {
  name: "dir59_BR"
  type: "Convolution"
  bottom: "pool5/7x7_s1"
  top: "dir59_BR"
  param {
    lr_mult: 1
    decay_mult: 1
  }
  param {
    lr_mult: 2
    decay_mult: 0
  }
  convolution_param {
    num_output: 4
    kernel_size: 1
    weight_filler {
      type: "gaussian"
      std: 0.01
    }
    bias_filler {
      type: "constant"
      value: 0
    }
  }
}

layer {
  name: "dir60_TL"
  type: "Convolution"
  bottom: "pool5/7x7_s1"
  top: "dir60_TL"
  param {
    lr_mult: 1
    decay_mult: 1
  }
  param {
    lr_mult: 2
    decay_mult: 0
  }
  convolution_param {
    num_output: 4
    kernel_size: 1
    weight_filler {
      type: "gaussian"
      std: 0.01
    }
    bias_filler {
      type: "constant"
      value: 0
    }
  }
}

layer {
  name: "dir60_BR"
  type: "Convolution"
  bottom: "pool5/7x7_s1"
  top: "dir60_BR"
  param {
    lr_mult: 1
    decay_mult: 1
  }
  param {
    lr_mult: 2
    decay_mult: 0
  }
  convolution_param {
    num_output: 4
    kernel_size: 1
    weight_filler {
      type: "gaussian"
      std: 0.01
    }
    bias_filler {
      type: "constant"
      value: 0
    }
  }
}

layer {
  name: "dir61_TL"
  type: "Convolution"
  bottom: "pool5/7x7_s1"
  top: "dir61_TL"
  param {
    lr_mult: 1
    decay_mult: 1
  }
  param {
    lr_mult: 2
    decay_mult: 0
  }
  convolution_param {
    num_output: 4
    kernel_size: 1
    weight_filler {
      type: "gaussian"
      std: 0.01
    }
    bias_filler {
      type: "constant"
      value: 0
    }
  }
}

layer {
  name: "dir61_BR"
  type: "Convolution"
  bottom: "pool5/7x7_s1"
  top: "dir61_BR"
  param {
    lr_mult: 1
    decay_mult: 1
  }
  param {
    lr_mult: 2
    decay_mult: 0
  }
  convolution_param {
    num_output: 4
    kernel_size: 1
    weight_filler {
      type: "gaussian"
      std: 0.01
    }
    bias_filler {
      type: "constant"
      value: 0
    }
  }
}

layer {
  name: "dir62_TL"
  type: "Convolution"
  bottom: "pool5/7x7_s1"
  top: "dir62_TL"
  param {
    lr_mult: 1
    decay_mult: 1
  }
  param {
    lr_mult: 2
    decay_mult: 0
  }
  convolution_param {
    num_output: 4
    kernel_size: 1
    weight_filler {
      type: "gaussian"
      std: 0.01
    }
    bias_filler {
      type: "constant"
      value: 0
    }
  }
}

layer {
  name: "dir62_BR"
  type: "Convolution"
  bottom: "pool5/7x7_s1"
  top: "dir62_BR"
  param {
    lr_mult: 1
    decay_mult: 1
  }
  param {
    lr_mult: 2
    decay_mult: 0
  }
  convolution_param {
    num_output: 4
    kernel_size: 1
    weight_filler {
      type: "gaussian"
      std: 0.01
    }
    bias_filler {
      type: "constant"
      value: 0
    }
  }
}

layer {
  name: "dir63_TL"
  type: "Convolution"
  bottom: "pool5/7x7_s1"
  top: "dir63_TL"
  param {
    lr_mult: 1
    decay_mult: 1
  }
  param {
    lr_mult: 2
    decay_mult: 0
  }
  convolution_param {
    num_output: 4
    kernel_size: 1
    weight_filler {
      type: "gaussian"
      std: 0.01
    }
    bias_filler {
      type: "constant"
      value: 0
    }
  }
}

layer {
  name: "dir63_BR"
  type: "Convolution"
  bottom: "pool5/7x7_s1"
  top: "dir63_BR"
  param {
    lr_mult: 1
    decay_mult: 1
  }
  param {
    lr_mult: 2
    decay_mult: 0
  }
  convolution_param {
    num_output: 4
    kernel_size: 1
    weight_filler {
      type: "gaussian"
      std: 0.01
    }
    bias_filler {
      type: "constant"
      value: 0
    }
  }
}

layer {
  name: "dir64_TL"
  type: "Convolution"
  bottom: "pool5/7x7_s1"
  top: "dir64_TL"
  param {
    lr_mult: 1
    decay_mult: 1
  }
  param {
    lr_mult: 2
    decay_mult: 0
  }
  convolution_param {
    num_output: 4
    kernel_size: 1
    weight_filler {
      type: "gaussian"
      std: 0.01
    }
    bias_filler {
      type: "constant"
      value: 0
    }
  }
}

layer {
  name: "dir64_BR"
  type: "Convolution"
  bottom: "pool5/7x7_s1"
  top: "dir64_BR"
  param {
    lr_mult: 1
    decay_mult: 1
  }
  param {
    lr_mult: 2
    decay_mult: 0
  }
  convolution_param {
    num_output: 4
    kernel_size: 1
    weight_filler {
      type: "gaussian"
      std: 0.01
    }
    bias_filler {
      type: "constant"
      value: 0
    }
  }
}

layer {
  name: "dir65_TL"
  type: "Convolution"
  bottom: "pool5/7x7_s1"
  top: "dir65_TL"
  param {
    lr_mult: 1
    decay_mult: 1
  }
  param {
    lr_mult: 2
    decay_mult: 0
  }
  convolution_param {
    num_output: 4
    kernel_size: 1
    weight_filler {
      type: "gaussian"
      std: 0.01
    }
    bias_filler {
      type: "constant"
      value: 0
    }
  }
}

layer {
  name: "dir65_BR"
  type: "Convolution"
  bottom: "pool5/7x7_s1"
  top: "dir65_BR"
  param {
    lr_mult: 1
    decay_mult: 1
  }
  param {
    lr_mult: 2
    decay_mult: 0
  }
  convolution_param {
    num_output: 4
    kernel_size: 1
    weight_filler {
      type: "gaussian"
      std: 0.01
    }
    bias_filler {
      type: "constant"
      value: 0
    }
  }
}

layer {
  name: "dir66_TL"
  type: "Convolution"
  bottom: "pool5/7x7_s1"
  top: "dir66_TL"
  param {
    lr_mult: 1
    decay_mult: 1
  }
  param {
    lr_mult: 2
    decay_mult: 0
  }
  convolution_param {
    num_output: 4
    kernel_size: 1
    weight_filler {
      type: "gaussian"
      std: 0.01
    }
    bias_filler {
      type: "constant"
      value: 0
    }
  }
}

layer {
  name: "dir66_BR"
  type: "Convolution"
  bottom: "pool5/7x7_s1"
  top: "dir66_BR"
  param {
    lr_mult: 1
    decay_mult: 1
  }
  param {
    lr_mult: 2
    decay_mult: 0
  }
  convolution_param {
    num_output: 4
    kernel_size: 1
    weight_filler {
      type: "gaussian"
      std: 0.01
    }
    bias_filler {
      type: "constant"
      value: 0
    }
  }
}

layer {
  name: "dir67_TL"
  type: "Convolution"
  bottom: "pool5/7x7_s1"
  top: "dir67_TL"
  param {
    lr_mult: 1
    decay_mult: 1
  }
  param {
    lr_mult: 2
    decay_mult: 0
  }
  convolution_param {
    num_output: 4
    kernel_size: 1
    weight_filler {
      type: "gaussian"
      std: 0.01
    }
    bias_filler {
      type: "constant"
      value: 0
    }
  }
}

layer {
  name: "dir67_BR"
  type: "Convolution"
  bottom: "pool5/7x7_s1"
  top: "dir67_BR"
  param {
    lr_mult: 1
    decay_mult: 1
  }
  param {
    lr_mult: 2
    decay_mult: 0
  }
  convolution_param {
    num_output: 4
    kernel_size: 1
    weight_filler {
      type: "gaussian"
      std: 0.01
    }
    bias_filler {
      type: "constant"
      value: 0
    }
  }
}

layer {
  name: "dir68_TL"
  type: "Convolution"
  bottom: "pool5/7x7_s1"
  top: "dir68_TL"
  param {
    lr_mult: 1
    decay_mult: 1
  }
  param {
    lr_mult: 2
    decay_mult: 0
  }
  convolution_param {
    num_output: 4
    kernel_size: 1
    weight_filler {
      type: "gaussian"
      std: 0.01
    }
    bias_filler {
      type: "constant"
      value: 0
    }
  }
}

layer {
  name: "dir68_BR"
  type: "Convolution"
  bottom: "pool5/7x7_s1"
  top: "dir68_BR"
  param {
    lr_mult: 1
    decay_mult: 1
  }
  param {
    lr_mult: 2
    decay_mult: 0
  }
  convolution_param {
    num_output: 4
    kernel_size: 1
    weight_filler {
      type: "gaussian"
      std: 0.01
    }
    bias_filler {
      type: "constant"
      value: 0
    }
  }
}

layer {
  name: "dir69_TL"
  type: "Convolution"
  bottom: "pool5/7x7_s1"
  top: "dir69_TL"
  param {
    lr_mult: 1
    decay_mult: 1
  }
  param {
    lr_mult: 2
    decay_mult: 0
  }
  convolution_param {
    num_output: 4
    kernel_size: 1
    weight_filler {
      type: "gaussian"
      std: 0.01
    }
    bias_filler {
      type: "constant"
      value: 0
    }
  }
}

layer {
  name: "dir69_BR"
  type: "Convolution"
  bottom: "pool5/7x7_s1"
  top: "dir69_BR"
  param {
    lr_mult: 1
    decay_mult: 1
  }
  param {
    lr_mult: 2
    decay_mult: 0
  }
  convolution_param {
    num_output: 4
    kernel_size: 1
    weight_filler {
      type: "gaussian"
      std: 0.01
    }
    bias_filler {
      type: "constant"
      value: 0
    }
  }
}

layer {
  name: "dir70_TL"
  type: "Convolution"
  bottom: "pool5/7x7_s1"
  top: "dir70_TL"
  param {
    lr_mult: 1
    decay_mult: 1
  }
  param {
    lr_mult: 2
    decay_mult: 0
  }
  convolution_param {
    num_output: 4
    kernel_size: 1
    weight_filler {
      type: "gaussian"
      std: 0.01
    }
    bias_filler {
      type: "constant"
      value: 0
    }
  }
}

layer {
  name: "dir70_BR"
  type: "Convolution"
  bottom: "pool5/7x7_s1"
  top: "dir70_BR"
  param {
    lr_mult: 1
    decay_mult: 1
  }
  param {
    lr_mult: 2
    decay_mult: 0
  }
  convolution_param {
    num_output: 4
    kernel_size: 1
    weight_filler {
      type: "gaussian"
      std: 0.01
    }
    bias_filler {
      type: "constant"
      value: 0
    }
  }
}

layer {
  name: "dir71_TL"
  type: "Convolution"
  bottom: "pool5/7x7_s1"
  top: "dir71_TL"
  param {
    lr_mult: 1
    decay_mult: 1
  }
  param {
    lr_mult: 2
    decay_mult: 0
  }
  convolution_param {
    num_output: 4
    kernel_size: 1
    weight_filler {
      type: "gaussian"
      std: 0.01
    }
    bias_filler {
      type: "constant"
      value: 0
    }
  }
}

layer {
  name: "dir71_BR"
  type: "Convolution"
  bottom: "pool5/7x7_s1"
  top: "dir71_BR"
  param {
    lr_mult: 1
    decay_mult: 1
  }
  param {
    lr_mult: 2
    decay_mult: 0
  }
  convolution_param {
    num_output: 4
    kernel_size: 1
    weight_filler {
      type: "gaussian"
      std: 0.01
    }
    bias_filler {
      type: "constant"
      value: 0
    }
  }
}

layer {
  name: "dir72_TL"
  type: "Convolution"
  bottom: "pool5/7x7_s1"
  top: "dir72_TL"
  param {
    lr_mult: 1
    decay_mult: 1
  }
  param {
    lr_mult: 2
    decay_mult: 0
  }
  convolution_param {
    num_output: 4
    kernel_size: 1
    weight_filler {
      type: "gaussian"
      std: 0.01
    }
    bias_filler {
      type: "constant"
      value: 0
    }
  }
}

layer {
  name: "dir72_BR"
  type: "Convolution"
  bottom: "pool5/7x7_s1"
  top: "dir72_BR"
  param {
    lr_mult: 1
    decay_mult: 1
  }
  param {
    lr_mult: 2
    decay_mult: 0
  }
  convolution_param {
    num_output: 4
    kernel_size: 1
    weight_filler {
      type: "gaussian"
      std: 0.01
    }
    bias_filler {
      type: "constant"
      value: 0
    }
  }
}

layer {
  name: "dir73_TL"
  type: "Convolution"
  bottom: "pool5/7x7_s1"
  top: "dir73_TL"
  param {
    lr_mult: 1
    decay_mult: 1
  }
  param {
    lr_mult: 2
    decay_mult: 0
  }
  convolution_param {
    num_output: 4
    kernel_size: 1
    weight_filler {
      type: "gaussian"
      std: 0.01
    }
    bias_filler {
      type: "constant"
      value: 0
    }
  }
}

layer {
  name: "dir73_BR"
  type: "Convolution"
  bottom: "pool5/7x7_s1"
  top: "dir73_BR"
  param {
    lr_mult: 1
    decay_mult: 1
  }
  param {
    lr_mult: 2
    decay_mult: 0
  }
  convolution_param {
    num_output: 4
    kernel_size: 1
    weight_filler {
      type: "gaussian"
      std: 0.01
    }
    bias_filler {
      type: "constant"
      value: 0
    }
  }
}

layer {
  name: "dir74_TL"
  type: "Convolution"
  bottom: "pool5/7x7_s1"
  top: "dir74_TL"
  param {
    lr_mult: 1
    decay_mult: 1
  }
  param {
    lr_mult: 2
    decay_mult: 0
  }
  convolution_param {
    num_output: 4
    kernel_size: 1
    weight_filler {
      type: "gaussian"
      std: 0.01
    }
    bias_filler {
      type: "constant"
      value: 0
    }
  }
}

layer {
  name: "dir74_BR"
  type: "Convolution"
  bottom: "pool5/7x7_s1"
  top: "dir74_BR"
  param {
    lr_mult: 1
    decay_mult: 1
  }
  param {
    lr_mult: 2
    decay_mult: 0
  }
  convolution_param {
    num_output: 4
    kernel_size: 1
    weight_filler {
      type: "gaussian"
      std: 0.01
    }
    bias_filler {
      type: "constant"
      value: 0
    }
  }
}

layer {
  name: "dir75_TL"
  type: "Convolution"
  bottom: "pool5/7x7_s1"
  top: "dir75_TL"
  param {
    lr_mult: 1
    decay_mult: 1
  }
  param {
    lr_mult: 2
    decay_mult: 0
  }
  convolution_param {
    num_output: 4
    kernel_size: 1
    weight_filler {
      type: "gaussian"
      std: 0.01
    }
    bias_filler {
      type: "constant"
      value: 0
    }
  }
}

layer {
  name: "dir75_BR"
  type: "Convolution"
  bottom: "pool5/7x7_s1"
  top: "dir75_BR"
  param {
    lr_mult: 1
    decay_mult: 1
  }
  param {
    lr_mult: 2
    decay_mult: 0
  }
  convolution_param {
    num_output: 4
    kernel_size: 1
    weight_filler {
      type: "gaussian"
      std: 0.01
    }
    bias_filler {
      type: "constant"
      value: 0
    }
  }
}

layer {
  name: "dir76_TL"
  type: "Convolution"
  bottom: "pool5/7x7_s1"
  top: "dir76_TL"
  param {
    lr_mult: 1
    decay_mult: 1
  }
  param {
    lr_mult: 2
    decay_mult: 0
  }
  convolution_param {
    num_output: 4
    kernel_size: 1
    weight_filler {
      type: "gaussian"
      std: 0.01
    }
    bias_filler {
      type: "constant"
      value: 0
    }
  }
}

layer {
  name: "dir76_BR"
  type: "Convolution"
  bottom: "pool5/7x7_s1"
  top: "dir76_BR"
  param {
    lr_mult: 1
    decay_mult: 1
  }
  param {
    lr_mult: 2
    decay_mult: 0
  }
  convolution_param {
    num_output: 4
    kernel_size: 1
    weight_filler {
      type: "gaussian"
      std: 0.01
    }
    bias_filler {
      type: "constant"
      value: 0
    }
  }
}

layer {
  name: "dir77_TL"
  type: "Convolution"
  bottom: "pool5/7x7_s1"
  top: "dir77_TL"
  param {
    lr_mult: 1
    decay_mult: 1
  }
  param {
    lr_mult: 2
    decay_mult: 0
  }
  convolution_param {
    num_output: 4
    kernel_size: 1
    weight_filler {
      type: "gaussian"
      std: 0.01
    }
    bias_filler {
      type: "constant"
      value: 0
    }
  }
}

layer {
  name: "dir77_BR"
  type: "Convolution"
  bottom: "pool5/7x7_s1"
  top: "dir77_BR"
  param {
    lr_mult: 1
    decay_mult: 1
  }
  param {
    lr_mult: 2
    decay_mult: 0
  }
  convolution_param {
    num_output: 4
    kernel_size: 1
    weight_filler {
      type: "gaussian"
      std: 0.01
    }
    bias_filler {
      type: "constant"
      value: 0
    }
  }
}

layer {
  name: "dir78_TL"
  type: "Convolution"
  bottom: "pool5/7x7_s1"
  top: "dir78_TL"
  param {
    lr_mult: 1
    decay_mult: 1
  }
  param {
    lr_mult: 2
    decay_mult: 0
  }
  convolution_param {
    num_output: 4
    kernel_size: 1
    weight_filler {
      type: "gaussian"
      std: 0.01
    }
    bias_filler {
      type: "constant"
      value: 0
    }
  }
}

layer {
  name: "dir78_BR"
  type: "Convolution"
  bottom: "pool5/7x7_s1"
  top: "dir78_BR"
  param {
    lr_mult: 1
    decay_mult: 1
  }
  param {
    lr_mult: 2
    decay_mult: 0
  }
  convolution_param {
    num_output: 4
    kernel_size: 1
    weight_filler {
      type: "gaussian"
      std: 0.01
    }
    bias_filler {
      type: "constant"
      value: 0
    }
  }
}

layer {
  name: "dir79_TL"
  type: "Convolution"
  bottom: "pool5/7x7_s1"
  top: "dir79_TL"
  param {
    lr_mult: 1
    decay_mult: 1
  }
  param {
    lr_mult: 2
    decay_mult: 0
  }
  convolution_param {
    num_output: 4
    kernel_size: 1
    weight_filler {
      type: "gaussian"
      std: 0.01
    }
    bias_filler {
      type: "constant"
      value: 0
    }
  }
}

layer {
  name: "dir79_BR"
  type: "Convolution"
  bottom: "pool5/7x7_s1"
  top: "dir79_BR"
  param {
    lr_mult: 1
    decay_mult: 1
  }
  param {
    lr_mult: 2
    decay_mult: 0
  }
  convolution_param {
    num_output: 4
    kernel_size: 1
    weight_filler {
      type: "gaussian"
      std: 0.01
    }
    bias_filler {
      type: "constant"
      value: 0
    }
  }
}

layer {
  name: "dir80_TL"
  type: "Convolution"
  bottom: "pool5/7x7_s1"
  top: "dir80_TL"
  param {
    lr_mult: 1
    decay_mult: 1
  }
  param {
    lr_mult: 2
    decay_mult: 0
  }
  convolution_param {
    num_output: 4
    kernel_size: 1
    weight_filler {
      type: "gaussian"
      std: 0.01
    }
    bias_filler {
      type: "constant"
      value: 0
    }
  }
}

layer {
  name: "dir80_BR"
  type: "Convolution"
  bottom: "pool5/7x7_s1"
  top: "dir80_BR"
  param {
    lr_mult: 1
    decay_mult: 1
  }
  param {
    lr_mult: 2
    decay_mult: 0
  }
  convolution_param {
    num_output: 4
    kernel_size: 1
    weight_filler {
      type: "gaussian"
      std: 0.01
    }
    bias_filler {
      type: "constant"
      value: 0
    }
  }
}

layer {
  name: "dir81_TL"
  type: "Convolution"
  bottom: "pool5/7x7_s1"
  top: "dir81_TL"
  param {
    lr_mult: 1
    decay_mult: 1
  }
  param {
    lr_mult: 2
    decay_mult: 0
  }
  convolution_param {
    num_output: 4
    kernel_size: 1
    weight_filler {
      type: "gaussian"
      std: 0.01
    }
    bias_filler {
      type: "constant"
      value: 0
    }
  }
}

layer {
  name: "dir81_BR"
  type: "Convolution"
  bottom: "pool5/7x7_s1"
  top: "dir81_BR"
  param {
    lr_mult: 1
    decay_mult: 1
  }
  param {
    lr_mult: 2
    decay_mult: 0
  }
  convolution_param {
    num_output: 4
    kernel_size: 1
    weight_filler {
      type: "gaussian"
      std: 0.01
    }
    bias_filler {
      type: "constant"
      value: 0
    }
  }
}

layer {
  name: "dir82_TL"
  type: "Convolution"
  bottom: "pool5/7x7_s1"
  top: "dir82_TL"
  param {
    lr_mult: 1
    decay_mult: 1
  }
  param {
    lr_mult: 2
    decay_mult: 0
  }
  convolution_param {
    num_output: 4
    kernel_size: 1
    weight_filler {
      type: "gaussian"
      std: 0.01
    }
    bias_filler {
      type: "constant"
      value: 0
    }
  }
}

layer {
  name: "dir82_BR"
  type: "Convolution"
  bottom: "pool5/7x7_s1"
  top: "dir82_BR"
  param {
    lr_mult: 1
    decay_mult: 1
  }
  param {
    lr_mult: 2
    decay_mult: 0
  }
  convolution_param {
    num_output: 4
    kernel_size: 1
    weight_filler {
      type: "gaussian"
      std: 0.01
    }
    bias_filler {
      type: "constant"
      value: 0
    }
  }
}

layer {
  name: "dir83_TL"
  type: "Convolution"
  bottom: "pool5/7x7_s1"
  top: "dir83_TL"
  param {
    lr_mult: 1
    decay_mult: 1
  }
  param {
    lr_mult: 2
    decay_mult: 0
  }
  convolution_param {
    num_output: 4
    kernel_size: 1
    weight_filler {
      type: "gaussian"
      std: 0.01
    }
    bias_filler {
      type: "constant"
      value: 0
    }
  }
}

layer {
  name: "dir83_BR"
  type: "Convolution"
  bottom: "pool5/7x7_s1"
  top: "dir83_BR"
  param {
    lr_mult: 1
    decay_mult: 1
  }
  param {
    lr_mult: 2
    decay_mult: 0
  }
  convolution_param {
    num_output: 4
    kernel_size: 1
    weight_filler {
      type: "gaussian"
      std: 0.01
    }
    bias_filler {
      type: "constant"
      value: 0
    }
  }
}

layer {
  name: "dir84_TL"
  type: "Convolution"
  bottom: "pool5/7x7_s1"
  top: "dir84_TL"
  param {
    lr_mult: 1
    decay_mult: 1
  }
  param {
    lr_mult: 2
    decay_mult: 0
  }
  convolution_param {
    num_output: 4
    kernel_size: 1
    weight_filler {
      type: "gaussian"
      std: 0.01
    }
    bias_filler {
      type: "constant"
      value: 0
    }
  }
}

layer {
  name: "dir84_BR"
  type: "Convolution"
  bottom: "pool5/7x7_s1"
  top: "dir84_BR"
  param {
    lr_mult: 1
    decay_mult: 1
  }
  param {
    lr_mult: 2
    decay_mult: 0
  }
  convolution_param {
    num_output: 4
    kernel_size: 1
    weight_filler {
      type: "gaussian"
      std: 0.01
    }
    bias_filler {
      type: "constant"
      value: 0
    }
  }
}

layer {
  name: "dir85_TL"
  type: "Convolution"
  bottom: "pool5/7x7_s1"
  top: "dir85_TL"
  param {
    lr_mult: 1
    decay_mult: 1
  }
  param {
    lr_mult: 2
    decay_mult: 0
  }
  convolution_param {
    num_output: 4
    kernel_size: 1
    weight_filler {
      type: "gaussian"
      std: 0.01
    }
    bias_filler {
      type: "constant"
      value: 0
    }
  }
}

layer {
  name: "dir85_BR"
  type: "Convolution"
  bottom: "pool5/7x7_s1"
  top: "dir85_BR"
  param {
    lr_mult: 1
    decay_mult: 1
  }
  param {
    lr_mult: 2
    decay_mult: 0
  }
  convolution_param {
    num_output: 4
    kernel_size: 1
    weight_filler {
      type: "gaussian"
      std: 0.01
    }
    bias_filler {
      type: "constant"
      value: 0
    }
  }
}

layer {
  name: "dir86_TL"
  type: "Convolution"
  bottom: "pool5/7x7_s1"
  top: "dir86_TL"
  param {
    lr_mult: 1
    decay_mult: 1
  }
  param {
    lr_mult: 2
    decay_mult: 0
  }
  convolution_param {
    num_output: 4
    kernel_size: 1
    weight_filler {
      type: "gaussian"
      std: 0.01
    }
    bias_filler {
      type: "constant"
      value: 0
    }
  }
}

layer {
  name: "dir86_BR"
  type: "Convolution"
  bottom: "pool5/7x7_s1"
  top: "dir86_BR"
  param {
    lr_mult: 1
    decay_mult: 1
  }
  param {
    lr_mult: 2
    decay_mult: 0
  }
  convolution_param {
    num_output: 4
    kernel_size: 1
    weight_filler {
      type: "gaussian"
      std: 0.01
    }
    bias_filler {
      type: "constant"
      value: 0
    }
  }
}

layer {
  name: "dir87_TL"
  type: "Convolution"
  bottom: "pool5/7x7_s1"
  top: "dir87_TL"
  param {
    lr_mult: 1
    decay_mult: 1
  }
  param {
    lr_mult: 2
    decay_mult: 0
  }
  convolution_param {
    num_output: 4
    kernel_size: 1
    weight_filler {
      type: "gaussian"
      std: 0.01
    }
    bias_filler {
      type: "constant"
      value: 0
    }
  }
}

layer {
  name: "dir87_BR"
  type: "Convolution"
  bottom: "pool5/7x7_s1"
  top: "dir87_BR"
  param {
    lr_mult: 1
    decay_mult: 1
  }
  param {
    lr_mult: 2
    decay_mult: 0
  }
  convolution_param {
    num_output: 4
    kernel_size: 1
    weight_filler {
      type: "gaussian"
      std: 0.01
    }
    bias_filler {
      type: "constant"
      value: 0
    }
  }
}

layer {
  name: "dir88_TL"
  type: "Convolution"
  bottom: "pool5/7x7_s1"
  top: "dir88_TL"
  param {
    lr_mult: 1
    decay_mult: 1
  }
  param {
    lr_mult: 2
    decay_mult: 0
  }
  convolution_param {
    num_output: 4
    kernel_size: 1
    weight_filler {
      type: "gaussian"
      std: 0.01
    }
    bias_filler {
      type: "constant"
      value: 0
    }
  }
}

layer {
  name: "dir88_BR"
  type: "Convolution"
  bottom: "pool5/7x7_s1"
  top: "dir88_BR"
  param {
    lr_mult: 1
    decay_mult: 1
  }
  param {
    lr_mult: 2
    decay_mult: 0
  }
  convolution_param {
    num_output: 4
    kernel_size: 1
    weight_filler {
      type: "gaussian"
      std: 0.01
    }
    bias_filler {
      type: "constant"
      value: 0
    }
  }
}

layer {
  name: "dir89_TL"
  type: "Convolution"
  bottom: "pool5/7x7_s1"
  top: "dir89_TL"
  param {
    lr_mult: 1
    decay_mult: 1
  }
  param {
    lr_mult: 2
    decay_mult: 0
  }
  convolution_param {
    num_output: 4
    kernel_size: 1
    weight_filler {
      type: "gaussian"
      std: 0.01
    }
    bias_filler {
      type: "constant"
      value: 0
    }
  }
}

layer {
  name: "dir89_BR"
  type: "Convolution"
  bottom: "pool5/7x7_s1"
  top: "dir89_BR"
  param {
    lr_mult: 1
    decay_mult: 1
  }
  param {
    lr_mult: 2
    decay_mult: 0
  }
  convolution_param {
    num_output: 4
    kernel_size: 1
    weight_filler {
      type: "gaussian"
      std: 0.01
    }
    bias_filler {
      type: "constant"
      value: 0
    }
  }
}

layer {
  name: "dir90_TL"
  type: "Convolution"
  bottom: "pool5/7x7_s1"
  top: "dir90_TL"
  param {
    lr_mult: 1
    decay_mult: 1
  }
  param {
    lr_mult: 2
    decay_mult: 0
  }
  convolution_param {
    num_output: 4
    kernel_size: 1
    weight_filler {
      type: "gaussian"
      std: 0.01
    }
    bias_filler {
      type: "constant"
      value: 0
    }
  }
}

layer {
  name: "dir90_BR"
  type: "Convolution"
  bottom: "pool5/7x7_s1"
  top: "dir90_BR"
  param {
    lr_mult: 1
    decay_mult: 1
  }
  param {
    lr_mult: 2
    decay_mult: 0
  }
  convolution_param {
    num_output: 4
    kernel_size: 1
    weight_filler {
      type: "gaussian"
      std: 0.01
    }
    bias_filler {
      type: "constant"
      value: 0
    }
  }
}

layer {
  name: "dir91_TL"
  type: "Convolution"
  bottom: "pool5/7x7_s1"
  top: "dir91_TL"
  param {
    lr_mult: 1
    decay_mult: 1
  }
  param {
    lr_mult: 2
    decay_mult: 0
  }
  convolution_param {
    num_output: 4
    kernel_size: 1
    weight_filler {
      type: "gaussian"
      std: 0.01
    }
    bias_filler {
      type: "constant"
      value: 0
    }
  }
}

layer {
  name: "dir91_BR"
  type: "Convolution"
  bottom: "pool5/7x7_s1"
  top: "dir91_BR"
  param {
    lr_mult: 1
    decay_mult: 1
  }
  param {
    lr_mult: 2
    decay_mult: 0
  }
  convolution_param {
    num_output: 4
    kernel_size: 1
    weight_filler {
      type: "gaussian"
      std: 0.01
    }
    bias_filler {
      type: "constant"
      value: 0
    }
  }
}

layer {
  name: "dir92_TL"
  type: "Convolution"
  bottom: "pool5/7x7_s1"
  top: "dir92_TL"
  param {
    lr_mult: 1
    decay_mult: 1
  }
  param {
    lr_mult: 2
    decay_mult: 0
  }
  convolution_param {
    num_output: 4
    kernel_size: 1
    weight_filler {
      type: "gaussian"
      std: 0.01
    }
    bias_filler {
      type: "constant"
      value: 0
    }
  }
}

layer {
  name: "dir92_BR"
  type: "Convolution"
  bottom: "pool5/7x7_s1"
  top: "dir92_BR"
  param {
    lr_mult: 1
    decay_mult: 1
  }
  param {
    lr_mult: 2
    decay_mult: 0
  }
  convolution_param {
    num_output: 4
    kernel_size: 1
    weight_filler {
      type: "gaussian"
      std: 0.01
    }
    bias_filler {
      type: "constant"
      value: 0
    }
  }
}

layer {
  name: "dir93_TL"
  type: "Convolution"
  bottom: "pool5/7x7_s1"
  top: "dir93_TL"
  param {
    lr_mult: 1
    decay_mult: 1
  }
  param {
    lr_mult: 2
    decay_mult: 0
  }
  convolution_param {
    num_output: 4
    kernel_size: 1
    weight_filler {
      type: "gaussian"
      std: 0.01
    }
    bias_filler {
      type: "constant"
      value: 0
    }
  }
}

layer {
  name: "dir93_BR"
  type: "Convolution"
  bottom: "pool5/7x7_s1"
  top: "dir93_BR"
  param {
    lr_mult: 1
    decay_mult: 1
  }
  param {
    lr_mult: 2
    decay_mult: 0
  }
  convolution_param {
    num_output: 4
    kernel_size: 1
    weight_filler {
      type: "gaussian"
      std: 0.01
    }
    bias_filler {
      type: "constant"
      value: 0
    }
  }
}

layer {
  name: "dir94_TL"
  type: "Convolution"
  bottom: "pool5/7x7_s1"
  top: "dir94_TL"
  param {
    lr_mult: 1
    decay_mult: 1
  }
  param {
    lr_mult: 2
    decay_mult: 0
  }
  convolution_param {
    num_output: 4
    kernel_size: 1
    weight_filler {
      type: "gaussian"
      std: 0.01
    }
    bias_filler {
      type: "constant"
      value: 0
    }
  }
}

layer {
  name: "dir94_BR"
  type: "Convolution"
  bottom: "pool5/7x7_s1"
  top: "dir94_BR"
  param {
    lr_mult: 1
    decay_mult: 1
  }
  param {
    lr_mult: 2
    decay_mult: 0
  }
  convolution_param {
    num_output: 4
    kernel_size: 1
    weight_filler {
      type: "gaussian"
      std: 0.01
    }
    bias_filler {
      type: "constant"
      value: 0
    }
  }
}

layer {
  name: "dir95_TL"
  type: "Convolution"
  bottom: "pool5/7x7_s1"
  top: "dir95_TL"
  param {
    lr_mult: 1
    decay_mult: 1
  }
  param {
    lr_mult: 2
    decay_mult: 0
  }
  convolution_param {
    num_output: 4
    kernel_size: 1
    weight_filler {
      type: "gaussian"
      std: 0.01
    }
    bias_filler {
      type: "constant"
      value: 0
    }
  }
}

layer {
  name: "dir95_BR"
  type: "Convolution"
  bottom: "pool5/7x7_s1"
  top: "dir95_BR"
  param {
    lr_mult: 1
    decay_mult: 1
  }
  param {
    lr_mult: 2
    decay_mult: 0
  }
  convolution_param {
    num_output: 4
    kernel_size: 1
    weight_filler {
      type: "gaussian"
      std: 0.01
    }
    bias_filler {
      type: "constant"
      value: 0
    }
  }
}

layer {
  name: "dir96_TL"
  type: "Convolution"
  bottom: "pool5/7x7_s1"
  top: "dir96_TL"
  param {
    lr_mult: 1
    decay_mult: 1
  }
  param {
    lr_mult: 2
    decay_mult: 0
  }
  convolution_param {
    num_output: 4
    kernel_size: 1
    weight_filler {
      type: "gaussian"
      std: 0.01
    }
    bias_filler {
      type: "constant"
      value: 0
    }
  }
}

layer {
  name: "dir96_BR"
  type: "Convolution"
  bottom: "pool5/7x7_s1"
  top: "dir96_BR"
  param {
    lr_mult: 1
    decay_mult: 1
  }
  param {
    lr_mult: 2
    decay_mult: 0
  }
  convolution_param {
    num_output: 4
    kernel_size: 1
    weight_filler {
      type: "gaussian"
      std: 0.01
    }
    bias_filler {
      type: "constant"
      value: 0
    }
  }
}

layer {
  name: "dir97_TL"
  type: "Convolution"
  bottom: "pool5/7x7_s1"
  top: "dir97_TL"
  param {
    lr_mult: 1
    decay_mult: 1
  }
  param {
    lr_mult: 2
    decay_mult: 0
  }
  convolution_param {
    num_output: 4
    kernel_size: 1
    weight_filler {
      type: "gaussian"
      std: 0.01
    }
    bias_filler {
      type: "constant"
      value: 0
    }
  }
}

layer {
  name: "dir97_BR"
  type: "Convolution"
  bottom: "pool5/7x7_s1"
  top: "dir97_BR"
  param {
    lr_mult: 1
    decay_mult: 1
  }
  param {
    lr_mult: 2
    decay_mult: 0
  }
  convolution_param {
    num_output: 4
    kernel_size: 1
    weight_filler {
      type: "gaussian"
      std: 0.01
    }
    bias_filler {
      type: "constant"
      value: 0
    }
  }
}

layer {
  name: "dir98_TL"
  type: "Convolution"
  bottom: "pool5/7x7_s1"
  top: "dir98_TL"
  param {
    lr_mult: 1
    decay_mult: 1
  }
  param {
    lr_mult: 2
    decay_mult: 0
  }
  convolution_param {
    num_output: 4
    kernel_size: 1
    weight_filler {
      type: "gaussian"
      std: 0.01
    }
    bias_filler {
      type: "constant"
      value: 0
    }
  }
}

layer {
  name: "dir98_BR"
  type: "Convolution"
  bottom: "pool5/7x7_s1"
  top: "dir98_BR"
  param {
    lr_mult: 1
    decay_mult: 1
  }
  param {
    lr_mult: 2
    decay_mult: 0
  }
  convolution_param {
    num_output: 4
    kernel_size: 1
    weight_filler {
      type: "gaussian"
      std: 0.01
    }
    bias_filler {
      type: "constant"
      value: 0
    }
  }
}

layer {
  name: "dir99_TL"
  type: "Convolution"
  bottom: "pool5/7x7_s1"
  top: "dir99_TL"
  param {
    lr_mult: 1
    decay_mult: 1
  }
  param {
    lr_mult: 2
    decay_mult: 0
  }
  convolution_param {
    num_output: 4
    kernel_size: 1
    weight_filler {
      type: "gaussian"
      std: 0.01
    }
    bias_filler {
      type: "constant"
      value: 0
    }
  }
}

layer {
  name: "dir99_BR"
  type: "Convolution"
  bottom: "pool5/7x7_s1"
  top: "dir99_BR"
  param {
    lr_mult: 1
    decay_mult: 1
  }
  param {
    lr_mult: 2
    decay_mult: 0
  }
  convolution_param {
    num_output: 4
    kernel_size: 1
    weight_filler {
      type: "gaussian"
      std: 0.01
    }
    bias_filler {
      type: "constant"
      value: 0
    }
  }
}

layer {
  name: "dir100_TL"
  type: "Convolution"
  bottom: "pool5/7x7_s1"
  top: "dir100_TL"
  param {
    lr_mult: 1
    decay_mult: 1
  }
  param {
    lr_mult: 2
    decay_mult: 0
  }
  convolution_param {
    num_output: 4
    kernel_size: 1
    weight_filler {
      type: "gaussian"
      std: 0.01
    }
    bias_filler {
      type: "constant"
      value: 0
    }
  }
}

layer {
  name: "dir100_BR"
  type: "Convolution"
  bottom: "pool5/7x7_s1"
  top: "dir100_BR"
  param {
    lr_mult: 1
    decay_mult: 1
  }
  param {
    lr_mult: 2
    decay_mult: 0
  }
  convolution_param {
    num_output: 4
    kernel_size: 1
    weight_filler {
      type: "gaussian"
      std: 0.01
    }
    bias_filler {
      type: "constant"
      value: 0
    }
  }
}

layer {
  name: "dir101_TL"
  type: "Convolution"
  bottom: "pool5/7x7_s1"
  top: "dir101_TL"
  param {
    lr_mult: 1
    decay_mult: 1
  }
  param {
    lr_mult: 2
    decay_mult: 0
  }
  convolution_param {
    num_output: 4
    kernel_size: 1
    weight_filler {
      type: "gaussian"
      std: 0.01
    }
    bias_filler {
      type: "constant"
      value: 0
    }
  }
}

layer {
  name: "dir101_BR"
  type: "Convolution"
  bottom: "pool5/7x7_s1"
  top: "dir101_BR"
  param {
    lr_mult: 1
    decay_mult: 1
  }
  param {
    lr_mult: 2
    decay_mult: 0
  }
  convolution_param {
    num_output: 4
    kernel_size: 1
    weight_filler {
      type: "gaussian"
      std: 0.01
    }
    bias_filler {
      type: "constant"
      value: 0
    }
  }
}

layer {
  name: "dir102_TL"
  type: "Convolution"
  bottom: "pool5/7x7_s1"
  top: "dir102_TL"
  param {
    lr_mult: 1
    decay_mult: 1
  }
  param {
    lr_mult: 2
    decay_mult: 0
  }
  convolution_param {
    num_output: 4
    kernel_size: 1
    weight_filler {
      type: "gaussian"
      std: 0.01
    }
    bias_filler {
      type: "constant"
      value: 0
    }
  }
}

layer {
  name: "dir102_BR"
  type: "Convolution"
  bottom: "pool5/7x7_s1"
  top: "dir102_BR"
  param {
    lr_mult: 1
    decay_mult: 1
  }
  param {
    lr_mult: 2
    decay_mult: 0
  }
  convolution_param {
    num_output: 4
    kernel_size: 1
    weight_filler {
      type: "gaussian"
      std: 0.01
    }
    bias_filler {
      type: "constant"
      value: 0
    }
  }
}

layer {
  name: "dir103_TL"
  type: "Convolution"
  bottom: "pool5/7x7_s1"
  top: "dir103_TL"
  param {
    lr_mult: 1
    decay_mult: 1
  }
  param {
    lr_mult: 2
    decay_mult: 0
  }
  convolution_param {
    num_output: 4
    kernel_size: 1
    weight_filler {
      type: "gaussian"
      std: 0.01
    }
    bias_filler {
      type: "constant"
      value: 0
    }
  }
}

layer {
  name: "dir103_BR"
  type: "Convolution"
  bottom: "pool5/7x7_s1"
  top: "dir103_BR"
  param {
    lr_mult: 1
    decay_mult: 1
  }
  param {
    lr_mult: 2
    decay_mult: 0
  }
  convolution_param {
    num_output: 4
    kernel_size: 1
    weight_filler {
      type: "gaussian"
      std: 0.01
    }
    bias_filler {
      type: "constant"
      value: 0
    }
  }
}

layer {
  name: "dir104_TL"
  type: "Convolution"
  bottom: "pool5/7x7_s1"
  top: "dir104_TL"
  param {
    lr_mult: 1
    decay_mult: 1
  }
  param {
    lr_mult: 2
    decay_mult: 0
  }
  convolution_param {
    num_output: 4
    kernel_size: 1
    weight_filler {
      type: "gaussian"
      std: 0.01
    }
    bias_filler {
      type: "constant"
      value: 0
    }
  }
}

layer {
  name: "dir104_BR"
  type: "Convolution"
  bottom: "pool5/7x7_s1"
  top: "dir104_BR"
  param {
    lr_mult: 1
    decay_mult: 1
  }
  param {
    lr_mult: 2
    decay_mult: 0
  }
  convolution_param {
    num_output: 4
    kernel_size: 1
    weight_filler {
      type: "gaussian"
      std: 0.01
    }
    bias_filler {
      type: "constant"
      value: 0
    }
  }
}

layer {
  name: "dir105_TL"
  type: "Convolution"
  bottom: "pool5/7x7_s1"
  top: "dir105_TL"
  param {
    lr_mult: 1
    decay_mult: 1
  }
  param {
    lr_mult: 2
    decay_mult: 0
  }
  convolution_param {
    num_output: 4
    kernel_size: 1
    weight_filler {
      type: "gaussian"
      std: 0.01
    }
    bias_filler {
      type: "constant"
      value: 0
    }
  }
}

layer {
  name: "dir105_BR"
  type: "Convolution"
  bottom: "pool5/7x7_s1"
  top: "dir105_BR"
  param {
    lr_mult: 1
    decay_mult: 1
  }
  param {
    lr_mult: 2
    decay_mult: 0
  }
  convolution_param {
    num_output: 4
    kernel_size: 1
    weight_filler {
      type: "gaussian"
      std: 0.01
    }
    bias_filler {
      type: "constant"
      value: 0
    }
  }
}

layer {
  name: "dir106_TL"
  type: "Convolution"
  bottom: "pool5/7x7_s1"
  top: "dir106_TL"
  param {
    lr_mult: 1
    decay_mult: 1
  }
  param {
    lr_mult: 2
    decay_mult: 0
  }
  convolution_param {
    num_output: 4
    kernel_size: 1
    weight_filler {
      type: "gaussian"
      std: 0.01
    }
    bias_filler {
      type: "constant"
      value: 0
    }
  }
}

layer {
  name: "dir106_BR"
  type: "Convolution"
  bottom: "pool5/7x7_s1"
  top: "dir106_BR"
  param {
    lr_mult: 1
    decay_mult: 1
  }
  param {
    lr_mult: 2
    decay_mult: 0
  }
  convolution_param {
    num_output: 4
    kernel_size: 1
    weight_filler {
      type: "gaussian"
      std: 0.01
    }
    bias_filler {
      type: "constant"
      value: 0
    }
  }
}

layer {
  name: "dir107_TL"
  type: "Convolution"
  bottom: "pool5/7x7_s1"
  top: "dir107_TL"
  param {
    lr_mult: 1
    decay_mult: 1
  }
  param {
    lr_mult: 2
    decay_mult: 0
  }
  convolution_param {
    num_output: 4
    kernel_size: 1
    weight_filler {
      type: "gaussian"
      std: 0.01
    }
    bias_filler {
      type: "constant"
      value: 0
    }
  }
}

layer {
  name: "dir107_BR"
  type: "Convolution"
  bottom: "pool5/7x7_s1"
  top: "dir107_BR"
  param {
    lr_mult: 1
    decay_mult: 1
  }
  param {
    lr_mult: 2
    decay_mult: 0
  }
  convolution_param {
    num_output: 4
    kernel_size: 1
    weight_filler {
      type: "gaussian"
      std: 0.01
    }
    bias_filler {
      type: "constant"
      value: 0
    }
  }
}

layer {
  name: "dir108_TL"
  type: "Convolution"
  bottom: "pool5/7x7_s1"
  top: "dir108_TL"
  param {
    lr_mult: 1
    decay_mult: 1
  }
  param {
    lr_mult: 2
    decay_mult: 0
  }
  convolution_param {
    num_output: 4
    kernel_size: 1
    weight_filler {
      type: "gaussian"
      std: 0.01
    }
    bias_filler {
      type: "constant"
      value: 0
    }
  }
}

layer {
  name: "dir108_BR"
  type: "Convolution"
  bottom: "pool5/7x7_s1"
  top: "dir108_BR"
  param {
    lr_mult: 1
    decay_mult: 1
  }
  param {
    lr_mult: 2
    decay_mult: 0
  }
  convolution_param {
    num_output: 4
    kernel_size: 1
    weight_filler {
      type: "gaussian"
      std: 0.01
    }
    bias_filler {
      type: "constant"
      value: 0
    }
  }
}

layer {
  name: "dir109_TL"
  type: "Convolution"
  bottom: "pool5/7x7_s1"
  top: "dir109_TL"
  param {
    lr_mult: 1
    decay_mult: 1
  }
  param {
    lr_mult: 2
    decay_mult: 0
  }
  convolution_param {
    num_output: 4
    kernel_size: 1
    weight_filler {
      type: "gaussian"
      std: 0.01
    }
    bias_filler {
      type: "constant"
      value: 0
    }
  }
}

layer {
  name: "dir109_BR"
  type: "Convolution"
  bottom: "pool5/7x7_s1"
  top: "dir109_BR"
  param {
    lr_mult: 1
    decay_mult: 1
  }
  param {
    lr_mult: 2
    decay_mult: 0
  }
  convolution_param {
    num_output: 4
    kernel_size: 1
    weight_filler {
      type: "gaussian"
      std: 0.01
    }
    bias_filler {
      type: "constant"
      value: 0
    }
  }
}

layer {
  name: "dir110_TL"
  type: "Convolution"
  bottom: "pool5/7x7_s1"
  top: "dir110_TL"
  param {
    lr_mult: 1
    decay_mult: 1
  }
  param {
    lr_mult: 2
    decay_mult: 0
  }
  convolution_param {
    num_output: 4
    kernel_size: 1
    weight_filler {
      type: "gaussian"
      std: 0.01
    }
    bias_filler {
      type: "constant"
      value: 0
    }
  }
}

layer {
  name: "dir110_BR"
  type: "Convolution"
  bottom: "pool5/7x7_s1"
  top: "dir110_BR"
  param {
    lr_mult: 1
    decay_mult: 1
  }
  param {
    lr_mult: 2
    decay_mult: 0
  }
  convolution_param {
    num_output: 4
    kernel_size: 1
    weight_filler {
      type: "gaussian"
      std: 0.01
    }
    bias_filler {
      type: "constant"
      value: 0
    }
  }
}

layer {
  name: "dir111_TL"
  type: "Convolution"
  bottom: "pool5/7x7_s1"
  top: "dir111_TL"
  param {
    lr_mult: 1
    decay_mult: 1
  }
  param {
    lr_mult: 2
    decay_mult: 0
  }
  convolution_param {
    num_output: 4
    kernel_size: 1
    weight_filler {
      type: "gaussian"
      std: 0.01
    }
    bias_filler {
      type: "constant"
      value: 0
    }
  }
}

layer {
  name: "dir111_BR"
  type: "Convolution"
  bottom: "pool5/7x7_s1"
  top: "dir111_BR"
  param {
    lr_mult: 1
    decay_mult: 1
  }
  param {
    lr_mult: 2
    decay_mult: 0
  }
  convolution_param {
    num_output: 4
    kernel_size: 1
    weight_filler {
      type: "gaussian"
      std: 0.01
    }
    bias_filler {
      type: "constant"
      value: 0
    }
  }
}

layer {
  name: "dir112_TL"
  type: "Convolution"
  bottom: "pool5/7x7_s1"
  top: "dir112_TL"
  param {
    lr_mult: 1
    decay_mult: 1
  }
  param {
    lr_mult: 2
    decay_mult: 0
  }
  convolution_param {
    num_output: 4
    kernel_size: 1
    weight_filler {
      type: "gaussian"
      std: 0.01
    }
    bias_filler {
      type: "constant"
      value: 0
    }
  }
}

layer {
  name: "dir112_BR"
  type: "Convolution"
  bottom: "pool5/7x7_s1"
  top: "dir112_BR"
  param {
    lr_mult: 1
    decay_mult: 1
  }
  param {
    lr_mult: 2
    decay_mult: 0
  }
  convolution_param {
    num_output: 4
    kernel_size: 1
    weight_filler {
      type: "gaussian"
      std: 0.01
    }
    bias_filler {
      type: "constant"
      value: 0
    }
  }
}

layer {
  name: "dir113_TL"
  type: "Convolution"
  bottom: "pool5/7x7_s1"
  top: "dir113_TL"
  param {
    lr_mult: 1
    decay_mult: 1
  }
  param {
    lr_mult: 2
    decay_mult: 0
  }
  convolution_param {
    num_output: 4
    kernel_size: 1
    weight_filler {
      type: "gaussian"
      std: 0.01
    }
    bias_filler {
      type: "constant"
      value: 0
    }
  }
}

layer {
  name: "dir113_BR"
  type: "Convolution"
  bottom: "pool5/7x7_s1"
  top: "dir113_BR"
  param {
    lr_mult: 1
    decay_mult: 1
  }
  param {
    lr_mult: 2
    decay_mult: 0
  }
  convolution_param {
    num_output: 4
    kernel_size: 1
    weight_filler {
      type: "gaussian"
      std: 0.01
    }
    bias_filler {
      type: "constant"
      value: 0
    }
  }
}

layer {
  name: "dir114_TL"
  type: "Convolution"
  bottom: "pool5/7x7_s1"
  top: "dir114_TL"
  param {
    lr_mult: 1
    decay_mult: 1
  }
  param {
    lr_mult: 2
    decay_mult: 0
  }
  convolution_param {
    num_output: 4
    kernel_size: 1
    weight_filler {
      type: "gaussian"
      std: 0.01
    }
    bias_filler {
      type: "constant"
      value: 0
    }
  }
}

layer {
  name: "dir114_BR"
  type: "Convolution"
  bottom: "pool5/7x7_s1"
  top: "dir114_BR"
  param {
    lr_mult: 1
    decay_mult: 1
  }
  param {
    lr_mult: 2
    decay_mult: 0
  }
  convolution_param {
    num_output: 4
    kernel_size: 1
    weight_filler {
      type: "gaussian"
      std: 0.01
    }
    bias_filler {
      type: "constant"
      value: 0
    }
  }
}

layer {
  name: "dir115_TL"
  type: "Convolution"
  bottom: "pool5/7x7_s1"
  top: "dir115_TL"
  param {
    lr_mult: 1
    decay_mult: 1
  }
  param {
    lr_mult: 2
    decay_mult: 0
  }
  convolution_param {
    num_output: 4
    kernel_size: 1
    weight_filler {
      type: "gaussian"
      std: 0.01
    }
    bias_filler {
      type: "constant"
      value: 0
    }
  }
}

layer {
  name: "dir115_BR"
  type: "Convolution"
  bottom: "pool5/7x7_s1"
  top: "dir115_BR"
  param {
    lr_mult: 1
    decay_mult: 1
  }
  param {
    lr_mult: 2
    decay_mult: 0
  }
  convolution_param {
    num_output: 4
    kernel_size: 1
    weight_filler {
      type: "gaussian"
      std: 0.01
    }
    bias_filler {
      type: "constant"
      value: 0
    }
  }
}

layer {
  name: "dir116_TL"
  type: "Convolution"
  bottom: "pool5/7x7_s1"
  top: "dir116_TL"
  param {
    lr_mult: 1
    decay_mult: 1
  }
  param {
    lr_mult: 2
    decay_mult: 0
  }
  convolution_param {
    num_output: 4
    kernel_size: 1
    weight_filler {
      type: "gaussian"
      std: 0.01
    }
    bias_filler {
      type: "constant"
      value: 0
    }
  }
}

layer {
  name: "dir116_BR"
  type: "Convolution"
  bottom: "pool5/7x7_s1"
  top: "dir116_BR"
  param {
    lr_mult: 1
    decay_mult: 1
  }
  param {
    lr_mult: 2
    decay_mult: 0
  }
  convolution_param {
    num_output: 4
    kernel_size: 1
    weight_filler {
      type: "gaussian"
      std: 0.01
    }
    bias_filler {
      type: "constant"
      value: 0
    }
  }
}

layer {
  name: "dir117_TL"
  type: "Convolution"
  bottom: "pool5/7x7_s1"
  top: "dir117_TL"
  param {
    lr_mult: 1
    decay_mult: 1
  }
  param {
    lr_mult: 2
    decay_mult: 0
  }
  convolution_param {
    num_output: 4
    kernel_size: 1
    weight_filler {
      type: "gaussian"
      std: 0.01
    }
    bias_filler {
      type: "constant"
      value: 0
    }
  }
}

layer {
  name: "dir117_BR"
  type: "Convolution"
  bottom: "pool5/7x7_s1"
  top: "dir117_BR"
  param {
    lr_mult: 1
    decay_mult: 1
  }
  param {
    lr_mult: 2
    decay_mult: 0
  }
  convolution_param {
    num_output: 4
    kernel_size: 1
    weight_filler {
      type: "gaussian"
      std: 0.01
    }
    bias_filler {
      type: "constant"
      value: 0
    }
  }
}

layer {
  name: "dir118_TL"
  type: "Convolution"
  bottom: "pool5/7x7_s1"
  top: "dir118_TL"
  param {
    lr_mult: 1
    decay_mult: 1
  }
  param {
    lr_mult: 2
    decay_mult: 0
  }
  convolution_param {
    num_output: 4
    kernel_size: 1
    weight_filler {
      type: "gaussian"
      std: 0.01
    }
    bias_filler {
      type: "constant"
      value: 0
    }
  }
}

layer {
  name: "dir118_BR"
  type: "Convolution"
  bottom: "pool5/7x7_s1"
  top: "dir118_BR"
  param {
    lr_mult: 1
    decay_mult: 1
  }
  param {
    lr_mult: 2
    decay_mult: 0
  }
  convolution_param {
    num_output: 4
    kernel_size: 1
    weight_filler {
      type: "gaussian"
      std: 0.01
    }
    bias_filler {
      type: "constant"
      value: 0
    }
  }
}

layer {
  name: "dir119_TL"
  type: "Convolution"
  bottom: "pool5/7x7_s1"
  top: "dir119_TL"
  param {
    lr_mult: 1
    decay_mult: 1
  }
  param {
    lr_mult: 2
    decay_mult: 0
  }
  convolution_param {
    num_output: 4
    kernel_size: 1
    weight_filler {
      type: "gaussian"
      std: 0.01
    }
    bias_filler {
      type: "constant"
      value: 0
    }
  }
}

layer {
  name: "dir119_BR"
  type: "Convolution"
  bottom: "pool5/7x7_s1"
  top: "dir119_BR"
  param {
    lr_mult: 1
    decay_mult: 1
  }
  param {
    lr_mult: 2
    decay_mult: 0
  }
  convolution_param {
    num_output: 4
    kernel_size: 1
    weight_filler {
      type: "gaussian"
      std: 0.01
    }
    bias_filler {
      type: "constant"
      value: 0
    }
  }
}

layer {
  name: "dir120_TL"
  type: "Convolution"
  bottom: "pool5/7x7_s1"
  top: "dir120_TL"
  param {
    lr_mult: 1
    decay_mult: 1
  }
  param {
    lr_mult: 2
    decay_mult: 0
  }
  convolution_param {
    num_output: 4
    kernel_size: 1
    weight_filler {
      type: "gaussian"
      std: 0.01
    }
    bias_filler {
      type: "constant"
      value: 0
    }
  }
}

layer {
  name: "dir120_BR"
  type: "Convolution"
  bottom: "pool5/7x7_s1"
  top: "dir120_BR"
  param {
    lr_mult: 1
    decay_mult: 1
  }
  param {
    lr_mult: 2
    decay_mult: 0
  }
  convolution_param {
    num_output: 4
    kernel_size: 1
    weight_filler {
      type: "gaussian"
      std: 0.01
    }
    bias_filler {
      type: "constant"
      value: 0
    }
  }
}

layer {
  name: "dir121_TL"
  type: "Convolution"
  bottom: "pool5/7x7_s1"
  top: "dir121_TL"
  param {
    lr_mult: 1
    decay_mult: 1
  }
  param {
    lr_mult: 2
    decay_mult: 0
  }
  convolution_param {
    num_output: 4
    kernel_size: 1
    weight_filler {
      type: "gaussian"
      std: 0.01
    }
    bias_filler {
      type: "constant"
      value: 0
    }
  }
}

layer {
  name: "dir121_BR"
  type: "Convolution"
  bottom: "pool5/7x7_s1"
  top: "dir121_BR"
  param {
    lr_mult: 1
    decay_mult: 1
  }
  param {
    lr_mult: 2
    decay_mult: 0
  }
  convolution_param {
    num_output: 4
    kernel_size: 1
    weight_filler {
      type: "gaussian"
      std: 0.01
    }
    bias_filler {
      type: "constant"
      value: 0
    }
  }
}

layer {
  name: "dir122_TL"
  type: "Convolution"
  bottom: "pool5/7x7_s1"
  top: "dir122_TL"
  param {
    lr_mult: 1
    decay_mult: 1
  }
  param {
    lr_mult: 2
    decay_mult: 0
  }
  convolution_param {
    num_output: 4
    kernel_size: 1
    weight_filler {
      type: "gaussian"
      std: 0.01
    }
    bias_filler {
      type: "constant"
      value: 0
    }
  }
}

layer {
  name: "dir122_BR"
  type: "Convolution"
  bottom: "pool5/7x7_s1"
  top: "dir122_BR"
  param {
    lr_mult: 1
    decay_mult: 1
  }
  param {
    lr_mult: 2
    decay_mult: 0
  }
  convolution_param {
    num_output: 4
    kernel_size: 1
    weight_filler {
      type: "gaussian"
      std: 0.01
    }
    bias_filler {
      type: "constant"
      value: 0
    }
  }
}

layer {
  name: "dir123_TL"
  type: "Convolution"
  bottom: "pool5/7x7_s1"
  top: "dir123_TL"
  param {
    lr_mult: 1
    decay_mult: 1
  }
  param {
    lr_mult: 2
    decay_mult: 0
  }
  convolution_param {
    num_output: 4
    kernel_size: 1
    weight_filler {
      type: "gaussian"
      std: 0.01
    }
    bias_filler {
      type: "constant"
      value: 0
    }
  }
}

layer {
  name: "dir123_BR"
  type: "Convolution"
  bottom: "pool5/7x7_s1"
  top: "dir123_BR"
  param {
    lr_mult: 1
    decay_mult: 1
  }
  param {
    lr_mult: 2
    decay_mult: 0
  }
  convolution_param {
    num_output: 4
    kernel_size: 1
    weight_filler {
      type: "gaussian"
      std: 0.01
    }
    bias_filler {
      type: "constant"
      value: 0
    }
  }
}

layer {
  name: "dir124_TL"
  type: "Convolution"
  bottom: "pool5/7x7_s1"
  top: "dir124_TL"
  param {
    lr_mult: 1
    decay_mult: 1
  }
  param {
    lr_mult: 2
    decay_mult: 0
  }
  convolution_param {
    num_output: 4
    kernel_size: 1
    weight_filler {
      type: "gaussian"
      std: 0.01
    }
    bias_filler {
      type: "constant"
      value: 0
    }
  }
}

layer {
  name: "dir124_BR"
  type: "Convolution"
  bottom: "pool5/7x7_s1"
  top: "dir124_BR"
  param {
    lr_mult: 1
    decay_mult: 1
  }
  param {
    lr_mult: 2
    decay_mult: 0
  }
  convolution_param {
    num_output: 4
    kernel_size: 1
    weight_filler {
      type: "gaussian"
      std: 0.01
    }
    bias_filler {
      type: "constant"
      value: 0
    }
  }
}

layer {
  name: "dir125_TL"
  type: "Convolution"
  bottom: "pool5/7x7_s1"
  top: "dir125_TL"
  param {
    lr_mult: 1
    decay_mult: 1
  }
  param {
    lr_mult: 2
    decay_mult: 0
  }
  convolution_param {
    num_output: 4
    kernel_size: 1
    weight_filler {
      type: "gaussian"
      std: 0.01
    }
    bias_filler {
      type: "constant"
      value: 0
    }
  }
}

layer {
  name: "dir125_BR"
  type: "Convolution"
  bottom: "pool5/7x7_s1"
  top: "dir125_BR"
  param {
    lr_mult: 1
    decay_mult: 1
  }
  param {
    lr_mult: 2
    decay_mult: 0
  }
  convolution_param {
    num_output: 4
    kernel_size: 1
    weight_filler {
      type: "gaussian"
      std: 0.01
    }
    bias_filler {
      type: "constant"
      value: 0
    }
  }
}

layer {
  name: "dir126_TL"
  type: "Convolution"
  bottom: "pool5/7x7_s1"
  top: "dir126_TL"
  param {
    lr_mult: 1
    decay_mult: 1
  }
  param {
    lr_mult: 2
    decay_mult: 0
  }
  convolution_param {
    num_output: 4
    kernel_size: 1
    weight_filler {
      type: "gaussian"
      std: 0.01
    }
    bias_filler {
      type: "constant"
      value: 0
    }
  }
}

layer {
  name: "dir126_BR"
  type: "Convolution"
  bottom: "pool5/7x7_s1"
  top: "dir126_BR"
  param {
    lr_mult: 1
    decay_mult: 1
  }
  param {
    lr_mult: 2
    decay_mult: 0
  }
  convolution_param {
    num_output: 4
    kernel_size: 1
    weight_filler {
      type: "gaussian"
      std: 0.01
    }
    bias_filler {
      type: "constant"
      value: 0
    }
  }
}

layer {
  name: "dir127_TL"
  type: "Convolution"
  bottom: "pool5/7x7_s1"
  top: "dir127_TL"
  param {
    lr_mult: 1
    decay_mult: 1
  }
  param {
    lr_mult: 2
    decay_mult: 0
  }
  convolution_param {
    num_output: 4
    kernel_size: 1
    weight_filler {
      type: "gaussian"
      std: 0.01
    }
    bias_filler {
      type: "constant"
      value: 0
    }
  }
}

layer {
  name: "dir127_BR"
  type: "Convolution"
  bottom: "pool5/7x7_s1"
  top: "dir127_BR"
  param {
    lr_mult: 1
    decay_mult: 1
  }
  param {
    lr_mult: 2
    decay_mult: 0
  }
  convolution_param {
    num_output: 4
    kernel_size: 1
    weight_filler {
      type: "gaussian"
      std: 0.01
    }
    bias_filler {
      type: "constant"
      value: 0
    }
  }
}

layer {
  name: "dir128_TL"
  type: "Convolution"
  bottom: "pool5/7x7_s1"
  top: "dir128_TL"
  param {
    lr_mult: 1
    decay_mult: 1
  }
  param {
    lr_mult: 2
    decay_mult: 0
  }
  convolution_param {
    num_output: 4
    kernel_size: 1
    weight_filler {
      type: "gaussian"
      std: 0.01
    }
    bias_filler {
      type: "constant"
      value: 0
    }
  }
}

layer {
  name: "dir128_BR"
  type: "Convolution"
  bottom: "pool5/7x7_s1"
  top: "dir128_BR"
  param {
    lr_mult: 1
    decay_mult: 1
  }
  param {
    lr_mult: 2
    decay_mult: 0
  }
  convolution_param {
    num_output: 4
    kernel_size: 1
    weight_filler {
      type: "gaussian"
      std: 0.01
    }
    bias_filler {
      type: "constant"
      value: 0
    }
  }
}

layer {
  name: "dir129_TL"
  type: "Convolution"
  bottom: "pool5/7x7_s1"
  top: "dir129_TL"
  param {
    lr_mult: 1
    decay_mult: 1
  }
  param {
    lr_mult: 2
    decay_mult: 0
  }
  convolution_param {
    num_output: 4
    kernel_size: 1
    weight_filler {
      type: "gaussian"
      std: 0.01
    }
    bias_filler {
      type: "constant"
      value: 0
    }
  }
}

layer {
  name: "dir129_BR"
  type: "Convolution"
  bottom: "pool5/7x7_s1"
  top: "dir129_BR"
  param {
    lr_mult: 1
    decay_mult: 1
  }
  param {
    lr_mult: 2
    decay_mult: 0
  }
  convolution_param {
    num_output: 4
    kernel_size: 1
    weight_filler {
      type: "gaussian"
      std: 0.01
    }
    bias_filler {
      type: "constant"
      value: 0
    }
  }
}

layer {
  name: "dir130_TL"
  type: "Convolution"
  bottom: "pool5/7x7_s1"
  top: "dir130_TL"
  param {
    lr_mult: 1
    decay_mult: 1
  }
  param {
    lr_mult: 2
    decay_mult: 0
  }
  convolution_param {
    num_output: 4
    kernel_size: 1
    weight_filler {
      type: "gaussian"
      std: 0.01
    }
    bias_filler {
      type: "constant"
      value: 0
    }
  }
}

layer {
  name: "dir130_BR"
  type: "Convolution"
  bottom: "pool5/7x7_s1"
  top: "dir130_BR"
  param {
    lr_mult: 1
    decay_mult: 1
  }
  param {
    lr_mult: 2
    decay_mult: 0
  }
  convolution_param {
    num_output: 4
    kernel_size: 1
    weight_filler {
      type: "gaussian"
      std: 0.01
    }
    bias_filler {
      type: "constant"
      value: 0
    }
  }
}

layer {
  name: "dir131_TL"
  type: "Convolution"
  bottom: "pool5/7x7_s1"
  top: "dir131_TL"
  param {
    lr_mult: 1
    decay_mult: 1
  }
  param {
    lr_mult: 2
    decay_mult: 0
  }
  convolution_param {
    num_output: 4
    kernel_size: 1
    weight_filler {
      type: "gaussian"
      std: 0.01
    }
    bias_filler {
      type: "constant"
      value: 0
    }
  }
}

layer {
  name: "dir131_BR"
  type: "Convolution"
  bottom: "pool5/7x7_s1"
  top: "dir131_BR"
  param {
    lr_mult: 1
    decay_mult: 1
  }
  param {
    lr_mult: 2
    decay_mult: 0
  }
  convolution_param {
    num_output: 4
    kernel_size: 1
    weight_filler {
      type: "gaussian"
      std: 0.01
    }
    bias_filler {
      type: "constant"
      value: 0
    }
  }
}

layer {
  name: "dir132_TL"
  type: "Convolution"
  bottom: "pool5/7x7_s1"
  top: "dir132_TL"
  param {
    lr_mult: 1
    decay_mult: 1
  }
  param {
    lr_mult: 2
    decay_mult: 0
  }
  convolution_param {
    num_output: 4
    kernel_size: 1
    weight_filler {
      type: "gaussian"
      std: 0.01
    }
    bias_filler {
      type: "constant"
      value: 0
    }
  }
}

layer {
  name: "dir132_BR"
  type: "Convolution"
  bottom: "pool5/7x7_s1"
  top: "dir132_BR"
  param {
    lr_mult: 1
    decay_mult: 1
  }
  param {
    lr_mult: 2
    decay_mult: 0
  }
  convolution_param {
    num_output: 4
    kernel_size: 1
    weight_filler {
      type: "gaussian"
      std: 0.01
    }
    bias_filler {
      type: "constant"
      value: 0
    }
  }
}

layer {
  name: "dir133_TL"
  type: "Convolution"
  bottom: "pool5/7x7_s1"
  top: "dir133_TL"
  param {
    lr_mult: 1
    decay_mult: 1
  }
  param {
    lr_mult: 2
    decay_mult: 0
  }
  convolution_param {
    num_output: 4
    kernel_size: 1
    weight_filler {
      type: "gaussian"
      std: 0.01
    }
    bias_filler {
      type: "constant"
      value: 0
    }
  }
}

layer {
  name: "dir133_BR"
  type: "Convolution"
  bottom: "pool5/7x7_s1"
  top: "dir133_BR"
  param {
    lr_mult: 1
    decay_mult: 1
  }
  param {
    lr_mult: 2
    decay_mult: 0
  }
  convolution_param {
    num_output: 4
    kernel_size: 1
    weight_filler {
      type: "gaussian"
      std: 0.01
    }
    bias_filler {
      type: "constant"
      value: 0
    }
  }
}

layer {
  name: "dir134_TL"
  type: "Convolution"
  bottom: "pool5/7x7_s1"
  top: "dir134_TL"
  param {
    lr_mult: 1
    decay_mult: 1
  }
  param {
    lr_mult: 2
    decay_mult: 0
  }
  convolution_param {
    num_output: 4
    kernel_size: 1
    weight_filler {
      type: "gaussian"
      std: 0.01
    }
    bias_filler {
      type: "constant"
      value: 0
    }
  }
}

layer {
  name: "dir134_BR"
  type: "Convolution"
  bottom: "pool5/7x7_s1"
  top: "dir134_BR"
  param {
    lr_mult: 1
    decay_mult: 1
  }
  param {
    lr_mult: 2
    decay_mult: 0
  }
  convolution_param {
    num_output: 4
    kernel_size: 1
    weight_filler {
      type: "gaussian"
      std: 0.01
    }
    bias_filler {
      type: "constant"
      value: 0
    }
  }
}

layer {
  name: "dir135_TL"
  type: "Convolution"
  bottom: "pool5/7x7_s1"
  top: "dir135_TL"
  param {
    lr_mult: 1
    decay_mult: 1
  }
  param {
    lr_mult: 2
    decay_mult: 0
  }
  convolution_param {
    num_output: 4
    kernel_size: 1
    weight_filler {
      type: "gaussian"
      std: 0.01
    }
    bias_filler {
      type: "constant"
      value: 0
    }
  }
}

layer {
  name: "dir135_BR"
  type: "Convolution"
  bottom: "pool5/7x7_s1"
  top: "dir135_BR"
  param {
    lr_mult: 1
    decay_mult: 1
  }
  param {
    lr_mult: 2
    decay_mult: 0
  }
  convolution_param {
    num_output: 4
    kernel_size: 1
    weight_filler {
      type: "gaussian"
      std: 0.01
    }
    bias_filler {
      type: "constant"
      value: 0
    }
  }
}

layer {
  name: "dir136_TL"
  type: "Convolution"
  bottom: "pool5/7x7_s1"
  top: "dir136_TL"
  param {
    lr_mult: 1
    decay_mult: 1
  }
  param {
    lr_mult: 2
    decay_mult: 0
  }
  convolution_param {
    num_output: 4
    kernel_size: 1
    weight_filler {
      type: "gaussian"
      std: 0.01
    }
    bias_filler {
      type: "constant"
      value: 0
    }
  }
}

layer {
  name: "dir136_BR"
  type: "Convolution"
  bottom: "pool5/7x7_s1"
  top: "dir136_BR"
  param {
    lr_mult: 1
    decay_mult: 1
  }
  param {
    lr_mult: 2
    decay_mult: 0
  }
  convolution_param {
    num_output: 4
    kernel_size: 1
    weight_filler {
      type: "gaussian"
      std: 0.01
    }
    bias_filler {
      type: "constant"
      value: 0
    }
  }
}

layer {
  name: "dir137_TL"
  type: "Convolution"
  bottom: "pool5/7x7_s1"
  top: "dir137_TL"
  param {
    lr_mult: 1
    decay_mult: 1
  }
  param {
    lr_mult: 2
    decay_mult: 0
  }
  convolution_param {
    num_output: 4
    kernel_size: 1
    weight_filler {
      type: "gaussian"
      std: 0.01
    }
    bias_filler {
      type: "constant"
      value: 0
    }
  }
}

layer {
  name: "dir137_BR"
  type: "Convolution"
  bottom: "pool5/7x7_s1"
  top: "dir137_BR"
  param {
    lr_mult: 1
    decay_mult: 1
  }
  param {
    lr_mult: 2
    decay_mult: 0
  }
  convolution_param {
    num_output: 4
    kernel_size: 1
    weight_filler {
      type: "gaussian"
      std: 0.01
    }
    bias_filler {
      type: "constant"
      value: 0
    }
  }
}

layer {
  name: "dir138_TL"
  type: "Convolution"
  bottom: "pool5/7x7_s1"
  top: "dir138_TL"
  param {
    lr_mult: 1
    decay_mult: 1
  }
  param {
    lr_mult: 2
    decay_mult: 0
  }
  convolution_param {
    num_output: 4
    kernel_size: 1
    weight_filler {
      type: "gaussian"
      std: 0.01
    }
    bias_filler {
      type: "constant"
      value: 0
    }
  }
}

layer {
  name: "dir138_BR"
  type: "Convolution"
  bottom: "pool5/7x7_s1"
  top: "dir138_BR"
  param {
    lr_mult: 1
    decay_mult: 1
  }
  param {
    lr_mult: 2
    decay_mult: 0
  }
  convolution_param {
    num_output: 4
    kernel_size: 1
    weight_filler {
      type: "gaussian"
      std: 0.01
    }
    bias_filler {
      type: "constant"
      value: 0
    }
  }
}

layer {
  name: "dir139_TL"
  type: "Convolution"
  bottom: "pool5/7x7_s1"
  top: "dir139_TL"
  param {
    lr_mult: 1
    decay_mult: 1
  }
  param {
    lr_mult: 2
    decay_mult: 0
  }
  convolution_param {
    num_output: 4
    kernel_size: 1
    weight_filler {
      type: "gaussian"
      std: 0.01
    }
    bias_filler {
      type: "constant"
      value: 0
    }
  }
}

layer {
  name: "dir139_BR"
  type: "Convolution"
  bottom: "pool5/7x7_s1"
  top: "dir139_BR"
  param {
    lr_mult: 1
    decay_mult: 1
  }
  param {
    lr_mult: 2
    decay_mult: 0
  }
  convolution_param {
    num_output: 4
    kernel_size: 1
    weight_filler {
      type: "gaussian"
      std: 0.01
    }
    bias_filler {
      type: "constant"
      value: 0
    }
  }
}

layer {
  name: "dir140_TL"
  type: "Convolution"
  bottom: "pool5/7x7_s1"
  top: "dir140_TL"
  param {
    lr_mult: 1
    decay_mult: 1
  }
  param {
    lr_mult: 2
    decay_mult: 0
  }
  convolution_param {
    num_output: 4
    kernel_size: 1
    weight_filler {
      type: "gaussian"
      std: 0.01
    }
    bias_filler {
      type: "constant"
      value: 0
    }
  }
}

layer {
  name: "dir140_BR"
  type: "Convolution"
  bottom: "pool5/7x7_s1"
  top: "dir140_BR"
  param {
    lr_mult: 1
    decay_mult: 1
  }
  param {
    lr_mult: 2
    decay_mult: 0
  }
  convolution_param {
    num_output: 4
    kernel_size: 1
    weight_filler {
      type: "gaussian"
      std: 0.01
    }
    bias_filler {
      type: "constant"
      value: 0
    }
  }
}

layer {
  name: "dir141_TL"
  type: "Convolution"
  bottom: "pool5/7x7_s1"
  top: "dir141_TL"
  param {
    lr_mult: 1
    decay_mult: 1
  }
  param {
    lr_mult: 2
    decay_mult: 0
  }
  convolution_param {
    num_output: 4
    kernel_size: 1
    weight_filler {
      type: "gaussian"
      std: 0.01
    }
    bias_filler {
      type: "constant"
      value: 0
    }
  }
}

layer {
  name: "dir141_BR"
  type: "Convolution"
  bottom: "pool5/7x7_s1"
  top: "dir141_BR"
  param {
    lr_mult: 1
    decay_mult: 1
  }
  param {
    lr_mult: 2
    decay_mult: 0
  }
  convolution_param {
    num_output: 4
    kernel_size: 1
    weight_filler {
      type: "gaussian"
      std: 0.01
    }
    bias_filler {
      type: "constant"
      value: 0
    }
  }
}

layer {
  name: "dir142_TL"
  type: "Convolution"
  bottom: "pool5/7x7_s1"
  top: "dir142_TL"
  param {
    lr_mult: 1
    decay_mult: 1
  }
  param {
    lr_mult: 2
    decay_mult: 0
  }
  convolution_param {
    num_output: 4
    kernel_size: 1
    weight_filler {
      type: "gaussian"
      std: 0.01
    }
    bias_filler {
      type: "constant"
      value: 0
    }
  }
}

layer {
  name: "dir142_BR"
  type: "Convolution"
  bottom: "pool5/7x7_s1"
  top: "dir142_BR"
  param {
    lr_mult: 1
    decay_mult: 1
  }
  param {
    lr_mult: 2
    decay_mult: 0
  }
  convolution_param {
    num_output: 4
    kernel_size: 1
    weight_filler {
      type: "gaussian"
      std: 0.01
    }
    bias_filler {
      type: "constant"
      value: 0
    }
  }
}

layer {
  name: "dir143_TL"
  type: "Convolution"
  bottom: "pool5/7x7_s1"
  top: "dir143_TL"
  param {
    lr_mult: 1
    decay_mult: 1
  }
  param {
    lr_mult: 2
    decay_mult: 0
  }
  convolution_param {
    num_output: 4
    kernel_size: 1
    weight_filler {
      type: "gaussian"
      std: 0.01
    }
    bias_filler {
      type: "constant"
      value: 0
    }
  }
}

layer {
  name: "dir143_BR"
  type: "Convolution"
  bottom: "pool5/7x7_s1"
  top: "dir143_BR"
  param {
    lr_mult: 1
    decay_mult: 1
  }
  param {
    lr_mult: 2
    decay_mult: 0
  }
  convolution_param {
    num_output: 4
    kernel_size: 1
    weight_filler {
      type: "gaussian"
      std: 0.01
    }
    bias_filler {
      type: "constant"
      value: 0
    }
  }
}

layer {
  name: "dir144_TL"
  type: "Convolution"
  bottom: "pool5/7x7_s1"
  top: "dir144_TL"
  param {
    lr_mult: 1
    decay_mult: 1
  }
  param {
    lr_mult: 2
    decay_mult: 0
  }
  convolution_param {
    num_output: 4
    kernel_size: 1
    weight_filler {
      type: "gaussian"
      std: 0.01
    }
    bias_filler {
      type: "constant"
      value: 0
    }
  }
}

layer {
  name: "dir144_BR"
  type: "Convolution"
  bottom: "pool5/7x7_s1"
  top: "dir144_BR"
  param {
    lr_mult: 1
    decay_mult: 1
  }
  param {
    lr_mult: 2
    decay_mult: 0
  }
  convolution_param {
    num_output: 4
    kernel_size: 1
    weight_filler {
      type: "gaussian"
      std: 0.01
    }
    bias_filler {
      type: "constant"
      value: 0
    }
  }
}

layer {
  name: "dir145_TL"
  type: "Convolution"
  bottom: "pool5/7x7_s1"
  top: "dir145_TL"
  param {
    lr_mult: 1
    decay_mult: 1
  }
  param {
    lr_mult: 2
    decay_mult: 0
  }
  convolution_param {
    num_output: 4
    kernel_size: 1
    weight_filler {
      type: "gaussian"
      std: 0.01
    }
    bias_filler {
      type: "constant"
      value: 0
    }
  }
}

layer {
  name: "dir145_BR"
  type: "Convolution"
  bottom: "pool5/7x7_s1"
  top: "dir145_BR"
  param {
    lr_mult: 1
    decay_mult: 1
  }
  param {
    lr_mult: 2
    decay_mult: 0
  }
  convolution_param {
    num_output: 4
    kernel_size: 1
    weight_filler {
      type: "gaussian"
      std: 0.01
    }
    bias_filler {
      type: "constant"
      value: 0
    }
  }
}

layer {
  name: "dir146_TL"
  type: "Convolution"
  bottom: "pool5/7x7_s1"
  top: "dir146_TL"
  param {
    lr_mult: 1
    decay_mult: 1
  }
  param {
    lr_mult: 2
    decay_mult: 0
  }
  convolution_param {
    num_output: 4
    kernel_size: 1
    weight_filler {
      type: "gaussian"
      std: 0.01
    }
    bias_filler {
      type: "constant"
      value: 0
    }
  }
}

layer {
  name: "dir146_BR"
  type: "Convolution"
  bottom: "pool5/7x7_s1"
  top: "dir146_BR"
  param {
    lr_mult: 1
    decay_mult: 1
  }
  param {
    lr_mult: 2
    decay_mult: 0
  }
  convolution_param {
    num_output: 4
    kernel_size: 1
    weight_filler {
      type: "gaussian"
      std: 0.01
    }
    bias_filler {
      type: "constant"
      value: 0
    }
  }
}

layer {
  name: "dir147_TL"
  type: "Convolution"
  bottom: "pool5/7x7_s1"
  top: "dir147_TL"
  param {
    lr_mult: 1
    decay_mult: 1
  }
  param {
    lr_mult: 2
    decay_mult: 0
  }
  convolution_param {
    num_output: 4
    kernel_size: 1
    weight_filler {
      type: "gaussian"
      std: 0.01
    }
    bias_filler {
      type: "constant"
      value: 0
    }
  }
}

layer {
  name: "dir147_BR"
  type: "Convolution"
  bottom: "pool5/7x7_s1"
  top: "dir147_BR"
  param {
    lr_mult: 1
    decay_mult: 1
  }
  param {
    lr_mult: 2
    decay_mult: 0
  }
  convolution_param {
    num_output: 4
    kernel_size: 1
    weight_filler {
      type: "gaussian"
      std: 0.01
    }
    bias_filler {
      type: "constant"
      value: 0
    }
  }
}

layer {
  name: "dir148_TL"
  type: "Convolution"
  bottom: "pool5/7x7_s1"
  top: "dir148_TL"
  param {
    lr_mult: 1
    decay_mult: 1
  }
  param {
    lr_mult: 2
    decay_mult: 0
  }
  convolution_param {
    num_output: 4
    kernel_size: 1
    weight_filler {
      type: "gaussian"
      std: 0.01
    }
    bias_filler {
      type: "constant"
      value: 0
    }
  }
}

layer {
  name: "dir148_BR"
  type: "Convolution"
  bottom: "pool5/7x7_s1"
  top: "dir148_BR"
  param {
    lr_mult: 1
    decay_mult: 1
  }
  param {
    lr_mult: 2
    decay_mult: 0
  }
  convolution_param {
    num_output: 4
    kernel_size: 1
    weight_filler {
      type: "gaussian"
      std: 0.01
    }
    bias_filler {
      type: "constant"
      value: 0
    }
  }
}

layer {
  name: "dir149_TL"
  type: "Convolution"
  bottom: "pool5/7x7_s1"
  top: "dir149_TL"
  param {
    lr_mult: 1
    decay_mult: 1
  }
  param {
    lr_mult: 2
    decay_mult: 0
  }
  convolution_param {
    num_output: 4
    kernel_size: 1
    weight_filler {
      type: "gaussian"
      std: 0.01
    }
    bias_filler {
      type: "constant"
      value: 0
    }
  }
}

layer {
  name: "dir149_BR"
  type: "Convolution"
  bottom: "pool5/7x7_s1"
  top: "dir149_BR"
  param {
    lr_mult: 1
    decay_mult: 1
  }
  param {
    lr_mult: 2
    decay_mult: 0
  }
  convolution_param {
    num_output: 4
    kernel_size: 1
    weight_filler {
      type: "gaussian"
      std: 0.01
    }
    bias_filler {
      type: "constant"
      value: 0
    }
  }
}

layer {
  name: "dir150_TL"
  type: "Convolution"
  bottom: "pool5/7x7_s1"
  top: "dir150_TL"
  param {
    lr_mult: 1
    decay_mult: 1
  }
  param {
    lr_mult: 2
    decay_mult: 0
  }
  convolution_param {
    num_output: 4
    kernel_size: 1
    weight_filler {
      type: "gaussian"
      std: 0.01
    }
    bias_filler {
      type: "constant"
      value: 0
    }
  }
}

layer {
  name: "dir150_BR"
  type: "Convolution"
  bottom: "pool5/7x7_s1"
  top: "dir150_BR"
  param {
    lr_mult: 1
    decay_mult: 1
  }
  param {
    lr_mult: 2
    decay_mult: 0
  }
  convolution_param {
    num_output: 4
    kernel_size: 1
    weight_filler {
      type: "gaussian"
      std: 0.01
    }
    bias_filler {
      type: "constant"
      value: 0
    }
  }
}

layer {
  name: "dir151_TL"
  type: "Convolution"
  bottom: "pool5/7x7_s1"
  top: "dir151_TL"
  param {
    lr_mult: 1
    decay_mult: 1
  }
  param {
    lr_mult: 2
    decay_mult: 0
  }
  convolution_param {
    num_output: 4
    kernel_size: 1
    weight_filler {
      type: "gaussian"
      std: 0.01
    }
    bias_filler {
      type: "constant"
      value: 0
    }
  }
}

layer {
  name: "dir151_BR"
  type: "Convolution"
  bottom: "pool5/7x7_s1"
  top: "dir151_BR"
  param {
    lr_mult: 1
    decay_mult: 1
  }
  param {
    lr_mult: 2
    decay_mult: 0
  }
  convolution_param {
    num_output: 4
    kernel_size: 1
    weight_filler {
      type: "gaussian"
      std: 0.01
    }
    bias_filler {
      type: "constant"
      value: 0
    }
  }
}

layer {
  name: "dir152_TL"
  type: "Convolution"
  bottom: "pool5/7x7_s1"
  top: "dir152_TL"
  param {
    lr_mult: 1
    decay_mult: 1
  }
  param {
    lr_mult: 2
    decay_mult: 0
  }
  convolution_param {
    num_output: 4
    kernel_size: 1
    weight_filler {
      type: "gaussian"
      std: 0.01
    }
    bias_filler {
      type: "constant"
      value: 0
    }
  }
}

layer {
  name: "dir152_BR"
  type: "Convolution"
  bottom: "pool5/7x7_s1"
  top: "dir152_BR"
  param {
    lr_mult: 1
    decay_mult: 1
  }
  param {
    lr_mult: 2
    decay_mult: 0
  }
  convolution_param {
    num_output: 4
    kernel_size: 1
    weight_filler {
      type: "gaussian"
      std: 0.01
    }
    bias_filler {
      type: "constant"
      value: 0
    }
  }
}

layer {
  name: "dir153_TL"
  type: "Convolution"
  bottom: "pool5/7x7_s1"
  top: "dir153_TL"
  param {
    lr_mult: 1
    decay_mult: 1
  }
  param {
    lr_mult: 2
    decay_mult: 0
  }
  convolution_param {
    num_output: 4
    kernel_size: 1
    weight_filler {
      type: "gaussian"
      std: 0.01
    }
    bias_filler {
      type: "constant"
      value: 0
    }
  }
}

layer {
  name: "dir153_BR"
  type: "Convolution"
  bottom: "pool5/7x7_s1"
  top: "dir153_BR"
  param {
    lr_mult: 1
    decay_mult: 1
  }
  param {
    lr_mult: 2
    decay_mult: 0
  }
  convolution_param {
    num_output: 4
    kernel_size: 1
    weight_filler {
      type: "gaussian"
      std: 0.01
    }
    bias_filler {
      type: "constant"
      value: 0
    }
  }
}

layer {
  name: "dir154_TL"
  type: "Convolution"
  bottom: "pool5/7x7_s1"
  top: "dir154_TL"
  param {
    lr_mult: 1
    decay_mult: 1
  }
  param {
    lr_mult: 2
    decay_mult: 0
  }
  convolution_param {
    num_output: 4
    kernel_size: 1
    weight_filler {
      type: "gaussian"
      std: 0.01
    }
    bias_filler {
      type: "constant"
      value: 0
    }
  }
}

layer {
  name: "dir154_BR"
  type: "Convolution"
  bottom: "pool5/7x7_s1"
  top: "dir154_BR"
  param {
    lr_mult: 1
    decay_mult: 1
  }
  param {
    lr_mult: 2
    decay_mult: 0
  }
  convolution_param {
    num_output: 4
    kernel_size: 1
    weight_filler {
      type: "gaussian"
      std: 0.01
    }
    bias_filler {
      type: "constant"
      value: 0
    }
  }
}

layer {
  name: "dir155_TL"
  type: "Convolution"
  bottom: "pool5/7x7_s1"
  top: "dir155_TL"
  param {
    lr_mult: 1
    decay_mult: 1
  }
  param {
    lr_mult: 2
    decay_mult: 0
  }
  convolution_param {
    num_output: 4
    kernel_size: 1
    weight_filler {
      type: "gaussian"
      std: 0.01
    }
    bias_filler {
      type: "constant"
      value: 0
    }
  }
}

layer {
  name: "dir155_BR"
  type: "Convolution"
  bottom: "pool5/7x7_s1"
  top: "dir155_BR"
  param {
    lr_mult: 1
    decay_mult: 1
  }
  param {
    lr_mult: 2
    decay_mult: 0
  }
  convolution_param {
    num_output: 4
    kernel_size: 1
    weight_filler {
      type: "gaussian"
      std: 0.01
    }
    bias_filler {
      type: "constant"
      value: 0
    }
  }
}

layer {
  name: "dir156_TL"
  type: "Convolution"
  bottom: "pool5/7x7_s1"
  top: "dir156_TL"
  param {
    lr_mult: 1
    decay_mult: 1
  }
  param {
    lr_mult: 2
    decay_mult: 0
  }
  convolution_param {
    num_output: 4
    kernel_size: 1
    weight_filler {
      type: "gaussian"
      std: 0.01
    }
    bias_filler {
      type: "constant"
      value: 0
    }
  }
}

layer {
  name: "dir156_BR"
  type: "Convolution"
  bottom: "pool5/7x7_s1"
  top: "dir156_BR"
  param {
    lr_mult: 1
    decay_mult: 1
  }
  param {
    lr_mult: 2
    decay_mult: 0
  }
  convolution_param {
    num_output: 4
    kernel_size: 1
    weight_filler {
      type: "gaussian"
      std: 0.01
    }
    bias_filler {
      type: "constant"
      value: 0
    }
  }
}

layer {
  name: "dir157_TL"
  type: "Convolution"
  bottom: "pool5/7x7_s1"
  top: "dir157_TL"
  param {
    lr_mult: 1
    decay_mult: 1
  }
  param {
    lr_mult: 2
    decay_mult: 0
  }
  convolution_param {
    num_output: 4
    kernel_size: 1
    weight_filler {
      type: "gaussian"
      std: 0.01
    }
    bias_filler {
      type: "constant"
      value: 0
    }
  }
}

layer {
  name: "dir157_BR"
  type: "Convolution"
  bottom: "pool5/7x7_s1"
  top: "dir157_BR"
  param {
    lr_mult: 1
    decay_mult: 1
  }
  param {
    lr_mult: 2
    decay_mult: 0
  }
  convolution_param {
    num_output: 4
    kernel_size: 1
…
    }
    bias_filler {
      type: "constant"
      value: 0
    }
  }
}

layer {
  name: "dir182_BR"
  type: "Convolution"
  bottom: "pool5/7x7_s1"
  top: "dir182_BR"
  param {
    lr_mult: 1
    decay_mult: 1
  }
  param {
    lr_mult: 2
    decay_mult: 0
  }
  convolution_param {
    num_output: 4
    kernel_size: 1
    weight_filler {
      type: "gaussian"
      std: 0.01
    }
    bias_filler {
      type: "constant"
      value: 0
    }
  }
}

layer {
  name: "dir183_TL"
  type: "Convolution"
  bottom: "pool5/7x7_s1"
  top: "dir183_TL"
  param {
    lr_mult: 1
    decay_mult: 1
  }
  param {
    lr_mult: 2
    decay_mult: 0
  }
  convolution_param {
    num_output: 4
    kernel_size: 1
    weight_filler {
      type: "gaussian"
      std: 0.01
    }
    bias_filler {
      type: "constant"
      value: 0
    }
  }
}

layer {
  name: "dir183_BR"
  type: "Convolution"
  bottom: "pool5/7x7_s1"
  top: "dir183_BR"
  param {
    lr_mult: 1
    decay_mult: 1
  }
  param {
    lr_mult: 2
    decay_mult: 0
  }
  convolution_param {
    num_output: 4
    kernel_size: 1
    weight_filler {
      type: "gaussian"
      std: 0.01
    }
    bias_filler {
      type: "constant"
      value: 0
    }
  }
}

layer {
  name: "dir184_TL"
  type: "Convolution"
  bottom: "pool5/7x7_s1"
  top: "dir184_TL"
  param {
    lr_mult: 1
    decay_mult: 1
  }
  param {
    lr_mult: 2
    decay_mult: 0
  }
  convolution_param {
    num_output: 4
    kernel_size: 1
    weight_filler {
      type: "gaussian"
      std: 0.01
    }
    bias_filler {
      type: "constant"
      value: 0
    }
  }
}

layer {
  name: "dir184_BR"
  type: "Convolution"
  bottom: "pool5/7x7_s1"
  top: "dir184_BR"
  param {
    lr_mult: 1
    decay_mult: 1
  }
  param {
    lr_mult: 2
    decay_mult: 0
  }
  convolution_param {
    num_output: 4
    kernel_size: 1
    weight_filler {
      type: "gaussian"
      std: 0.01
    }
    bias_filler {
      type: "constant"
      value: 0
    }
  }
}

layer {
  name: "dir185_TL"
  type: "Convolution"
  bottom: "pool5/7x7_s1"
  top: "dir185_TL"
  param {
    lr_mult: 1
    decay_mult: 1
  }
  param {
    lr_mult: 2
    decay_mult: 0
  }
  convolution_param {
    num_output: 4
    kernel_size: 1
    weight_filler {
      type: "gaussian"
      std: 0.01
    }
    bias_filler {
      type: "constant"
      value: 0
    }
  }
}

layer {
  name: "dir185_BR"
  type: "Convolution"
  bottom: "pool5/7x7_s1"
  top: "dir185_BR"
  param {
    lr_mult: 1
    decay_mult: 1
  }
  param {
    lr_mult: 2
    decay_mult: 0
  }
  convolution_param {
    num_output: 4
    kernel_size: 1
    weight_filler {
      type: "gaussian"
      std: 0.01
    }
    bias_filler {
      type: "constant"
      value: 0
    }
  }
}

layer {
  name: "dir186_TL"
  type: "Convolution"
  bottom: "pool5/7x7_s1"
  top: "dir186_TL"
  param {
    lr_mult: 1
    decay_mult: 1
  }
  param {
    lr_mult: 2
    decay_mult: 0
  }
  convolution_param {
    num_output: 4
    kernel_size: 1
    weight_filler {
      type: "gaussian"
      std: 0.01
    }
    bias_filler {
      type: "constant"
      value: 0
    }
  }
}

layer {
  name: "dir186_BR"
  type: "Convolution"
  bottom: "pool5/7x7_s1"
  top: "dir186_BR"
  param {
    lr_mult: 1
    decay_mult: 1
  }
  param {
    lr_mult: 2
    decay_mult: 0
  }
  convolution_param {
    num_output: 4
    kernel_size: 1
    weight_filler {
      type: "gaussian"
      std: 0.01
    }
    bias_filler {
      type: "constant"
      value: 0
    }
  }
}

layer {
  name: "dir187_TL"
  type: "Convolution"
  bottom: "pool5/7x7_s1"
  top: "dir187_TL"
  param {
    lr_mult: 1
    decay_mult: 1
  }
  param {
    lr_mult: 2
    decay_mult: 0
  }
  convolution_param {
    num_output: 4
    kernel_size: 1
    weight_filler {
      type: "gaussian"
      std: 0.01
    }
    bias_filler {
      type: "constant"
      value: 0
    }
  }
}

layer {
  name: "dir187_BR"
  type: "Convolution"
  bottom: "pool5/7x7_s1"
  top: "dir187_BR"
  param {
    lr_mult: 1
    decay_mult: 1
  }
  param {
    lr_mult: 2
    decay_mult: 0
  }
  convolution_param {
    num_output: 4
    kernel_size: 1
    weight_filler {
      type: "gaussian"
      std: 0.01
    }
    bias_filler {
      type: "constant"
      value: 0
    }
  }
}

layer {
  name: "dir188_TL"
  type: "Convolution"
  bottom: "pool5/7x7_s1"
  top: "dir188_TL"
  param {
    lr_mult: 1
    decay_mult: 1
  }
  param {
    lr_mult: 2
    decay_mult: 0
  }
  convolution_param {
    num_output: 4
    kernel_size: 1
    weight_filler {
      type: "gaussian"
      std: 0.01
    }
    bias_filler {
      type: "constant"
      value: 0
    }
  }
}

layer {
  name: "dir188_BR"
  type: "Convolution"
  bottom: "pool5/7x7_s1"
  top: "dir188_BR"
  param {
    lr_mult: 1
    decay_mult: 1
  }
  param {
    lr_mult: 2
    decay_mult: 0
  }
  convolution_param {
    num_output: 4
    kernel_size: 1
    weight_filler {
      type: "gaussian"
      std: 0.01
    }
    bias_filler {
      type: "constant"
      value: 0
    }
  }
}

layer {
  name: "dir189_TL"
  type: "Convolution"
  bottom: "pool5/7x7_s1"
  top: "dir189_TL"
  param {
    lr_mult: 1
    decay_mult: 1
  }
  param {
    lr_mult: 2
    decay_mult: 0
  }
  convolution_param {
    num_output: 4
    kernel_size: 1
    weight_filler {
      type: "gaussian"
      std: 0.01
    }
    bias_filler {
      type: "constant"
      value: 0
    }
  }
}

layer {
  name: "dir189_BR"
  type: "Convolution"
  bottom: "pool5/7x7_s1"
  top: "dir189_BR"
  param {
    lr_mult: 1
    decay_mult: 1
  }
  param {
    lr_mult: 2
    decay_mult: 0
  }
  convolution_param {
    num_output: 4
    kernel_size: 1
    weight_filler {
      type: "gaussian"
      std: 0.01
    }
    bias_filler {
      type: "constant"
      value: 0
    }
  }
}

layer {
  name: "dir190_TL"
  type: "Convolution"
  bottom: "pool5/7x7_s1"
  top: "dir190_TL"
  param {
    lr_mult: 1
    decay_mult: 1
  }
  param {
    lr_mult: 2
    decay_mult: 0
  }
  convolution_param {
    num_output: 4
    kernel_size: 1
    weight_filler {
      type: "gaussian"
      std: 0.01
    }
    bias_filler {
      type: "constant"
      value: 0
    }
  }
}

layer {
  name: "dir190_BR"
  type: "Convolution"
  bottom: "pool5/7x7_s1"
  top: "dir190_BR"
  param {
    lr_mult: 1
    decay_mult: 1
  }
  param {
    lr_mult: 2
    decay_mult: 0
  }
  convolution_param {
    num_output: 4
    kernel_size: 1
    weight_filler {
      type: "gaussian"
      std: 0.01
    }
    bias_filler {
      type: "constant"
      value: 0
    }
  }
}

layer {
  name: "dir191_TL"
  type: "Convolution"
  bottom: "pool5/7x7_s1"
  top: "dir191_TL"
  param {
    lr_mult: 1
    decay_mult: 1
  }
  param {
    lr_mult: 2
    decay_mult: 0
  }
  convolution_param {
    num_output: 4
    kernel_size: 1
    weight_filler {
      type: "gaussian"
      std: 0.01
    }
    bias_filler {
      type: "constant"
      value: 0
    }
  }
}

layer {
  name: "dir191_BR"
  type: "Convolution"
  bottom: "pool5/7x7_s1"
  top: "dir191_BR"
  param {
    lr_mult: 1
    decay_mult: 1
  }
  param {
    lr_mult: 2
    decay_mult: 0
  }
  convolution_param {
    num_output: 4
    kernel_size: 1
    weight_filler {
      type: "gaussian"
      std: 0.01
    }
    bias_filler {
      type: "constant"
      value: 0
    }
  }
}

layer {
  name: "dir192_TL"
  type: "Convolution"
  bottom: "pool5/7x7_s1"
  top: "dir192_TL"
  param {
    lr_mult: 1
    decay_mult: 1
  }
  param {
    lr_mult: 2
    decay_mult: 0
  }
  convolution_param {
    num_output: 4
    kernel_size: 1
    weight_filler {
      type: "gaussian"
      std: 0.01
    }
    bias_filler {
      type: "constant"
      value: 0
    }
  }
}

layer {
  name: "dir192_BR"
  type: "Convolution"
  bottom: "pool5/7x7_s1"
  top: "dir192_BR"
  param {
    lr_mult: 1
    decay_mult: 1
  }
  param {
    lr_mult: 2
    decay_mult: 0
  }
  convolution_param {
    num_output: 4
    kernel_size: 1
    weight_filler {
      type: "gaussian"
      std: 0.01
    }
    bias_filler {
      type: "constant"
      value: 0
    }
  }
}

layer {
  name: "dir193_TL"
  type: "Convolution"
  bottom: "pool5/7x7_s1"
  top: "dir193_TL"
  param {
    lr_mult: 1
    decay_mult: 1
  }
  param {
    lr_mult: 2
    decay_mult: 0
  }
  convolution_param {
    num_output: 4
    kernel_size: 1
    weight_filler {
      type: "gaussian"
      std: 0.01
    }
    bias_filler {
      type: "constant"
      value: 0
    }
  }
}

layer {
  name: "dir193_BR"
  type: "Convolution"
  bottom: "pool5/7x7_s1"
  top: "dir193_BR"
  param {
    lr_mult: 1
    decay_mult: 1
  }
  param {
    lr_mult: 2
    decay_mult: 0
  }
  convolution_param {
    num_output: 4
    kernel_size: 1
    weight_filler {
      type: "gaussian"
      std: 0.01
    }
    bias_filler {
      type: "constant"
      value: 0
    }
  }
}

layer {
  name: "dir194_TL"
  type: "Convolution"
  bottom: "pool5/7x7_s1"
  top: "dir194_TL"
  param {
    lr_mult: 1
    decay_mult: 1
  }
  param {
    lr_mult: 2
    decay_mult: 0
  }
  convolution_param {
    num_output: 4
    kernel_size: 1
    weight_filler {
      type: "gaussian"
      std: 0.01
    }
    bias_filler {
      type: "constant"
      value: 0
    }
  }
}

layer {
  name: "dir194_BR"
  type: "Convolution"
  bottom: "pool5/7x7_s1"
  top: "dir194_BR"
  param {
    lr_mult: 1
    decay_mult: 1
  }
  param {
    lr_mult: 2
    decay_mult: 0
  }
  convolution_param {
    num_output: 4
    kernel_size: 1
    weight_filler {
      type: "gaussian"
      std: 0.01
    }
    bias_filler {
      type: "constant"
      value: 0
    }
  }
}

layer {
  name: "dir195_TL"
  type: "Convolution"
  bottom: "pool5/7x7_s1"
  top: "dir195_TL"
  param {
    lr_mult: 1
    decay_mult: 1
  }
  param {
    lr_mult: 2
    decay_mult: 0
  }
  convolution_param {
    num_output: 4
    kernel_size: 1
    weight_filler {
      type: "gaussian"
      std: 0.01
    }
    bias_filler {
      type: "constant"
      value: 0
    }
  }
}

layer {
  name: "dir195_BR"
  type: "Convolution"
  bottom: "pool5/7x7_s1"
  top: "dir195_BR"
  param {
    lr_mult: 1
    decay_mult: 1
  }
  param {
    lr_mult: 2
    decay_mult: 0
  }
  convolution_param {
    num_output: 4
    kernel_size: 1
    weight_filler {
      type: "gaussian"
      std: 0.01
    }
    bias_filler {
      type: "constant"
      value: 0
    }
  }
}

layer {
  name: "dir196_TL"
  type: "Convolution"
  bottom: "pool5/7x7_s1"
  top: "dir196_TL"
  param {
    lr_mult: 1
    decay_mult: 1
  }
  param {
    lr_mult: 2
    decay_mult: 0
  }
  convolution_param {
    num_output: 4
    kernel_size: 1
    weight_filler {
      type: "gaussian"
      std: 0.01
    }
    bias_filler {
      type: "constant"
      value: 0
    }
  }
}

layer {
  name: "dir196_BR"
  type: "Convolution"
  bottom: "pool5/7x7_s1"
  top: "dir196_BR"
  param {
    lr_mult: 1
    decay_mult: 1
  }
  param {
    lr_mult: 2
    decay_mult: 0
  }
  convolution_param {
    num_output: 4
    kernel_size: 1
    weight_filler {
      type: "gaussian"
      std: 0.01
    }
    bias_filler {
      type: "constant"
      value: 0
    }
  }
}

layer {
  name: "dir197_TL"
  type: "Convolution"
  bottom: "pool5/7x7_s1"
  top: "dir197_TL"
  param {
    lr_mult: 1
    decay_mult: 1
  }
  param {
    lr_mult: 2
    decay_mult: 0
  }
  convolution_param {
    num_output: 4
    kernel_size: 1
    weight_filler {
      type: "gaussian"
      std: 0.01
    }
    bias_filler {
      type: "constant"
      value: 0
    }
  }
}

layer {
  name: "dir197_BR"
  type: "Convolution"
  bottom: "pool5/7x7_s1"
  top: "dir197_BR"
  param {
    lr_mult: 1
    decay_mult: 1
  }
  param {
    lr_mult: 2
    decay_mult: 0
  }
  convolution_param {
    num_output: 4
    kernel_size: 1
    weight_filler {
      type: "gaussian"
      std: 0.01
    }
    bias_filler {
      type: "constant"
      value: 0
    }
  }
}

layer {
  name: "dir198_TL"
  type: "Convolution"
  bottom: "pool5/7x7_s1"
  top: "dir198_TL"
  param {
    lr_mult: 1
    decay_mult: 1
  }
  param {
    lr_mult: 2
    decay_mult: 0
  }
  convolution_param {
    num_output: 4
    kernel_size: 1
    weight_filler {
      type: "gaussian"
      std: 0.01
    }
    bias_filler {
      type: "constant"
      value: 0
    }
  }
}

layer {
  name: "dir198_BR"
  type: "Convolution"
  bottom: "pool5/7x7_s1"
  top: "dir198_BR"
  param {
    lr_mult: 1
    decay_mult: 1
  }
  param {
    lr_mult: 2
    decay_mult: 0
  }
  convolution_param {
    num_output: 4
    kernel_size: 1
    weight_filler {
      type: "gaussian"
      std: 0.01
    }
    bias_filler {
      type: "constant"
      value: 0
    }
  }
}

layer {
  name: "dir199_TL"
  type: "Convolution"
  bottom: "pool5/7x7_s1"
  top: "dir199_TL"
  param {
    lr_mult: 1
    decay_mult: 1
  }
  param {
    lr_mult: 2
    decay_mult: 0
  }
  convolution_param {
    num_output: 4
    kernel_size: 1
    weight_filler {
      type: "gaussian"
      std: 0.01
    }
    bias_filler {
      type: "constant"
      value: 0
    }
  }
}

layer {
  name: "dir199_BR"
  type: "Convolution"
  bottom: "pool5/7x7_s1"
  top: "dir199_BR"
  param {
    lr_mult: 1
    decay_mult: 1
  }
  param {
    lr_mult: 2
    decay_mult: 0
  }
  convolution_param {
    num_output: 4
    kernel_size: 1
    weight_filler {
      type: "gaussian"
      std: 0.01
    }
    bias_filler {
      type: "constant"
      value: 0
    }
  }
}

layer {
  name: "cls"
  type: "Convolution"
  bottom: "pool5/7x7_s1"
  top: "cls"
  param {
    lr_mult: 1
    decay_mult: 1
  }
  param {
    lr_mult: 2
    decay_mult: 0
  }
  convolution_param {
    num_output: 201
    kernel_size: 1
    weight_filler {
      type: "gaussian"
      std: 0.01
    }
    bias_filler {
      type: "constant"
      value: 0
    }
  }
}

layer {
  name: "prob0_TL"
  type: "Softmax"
  bottom: "dir0_TL"
  top: "prob0_TL"
}

layer {
  name: "prob0_BR"
  type: "Softmax"
  bottom: "dir0_BR"
  top: "prob0_BR"
}

layer {
  name: "prob1_TL"
  type: "Softmax"
  bottom: "dir1_TL"
  top: "prob1_TL"
}

layer {
  name: "prob1_BR"
  type: "Softmax"
  bottom: "dir1_BR"
  top: "prob1_BR"
}

layer {
  name: "prob2_TL"
  type: "Softmax"
  bottom: "dir2_TL"
  top: "prob2_TL"
}

layer {
  name: "prob2_BR"
  type: "Softmax"
  bottom: "dir2_BR"
  top: "prob2_BR"
}

layer {
  name: "prob3_TL"
  type: "Softmax"
  bottom: "dir3_TL"
  top: "prob3_TL"
}

layer {
  name: "prob3_BR"
  type: "Softmax"
  bottom: "dir3_BR"
  top: "prob3_BR"
}

layer {
  name: "prob4_TL"
  type: "Softmax"
  bottom: "dir4_TL"
  top: "prob4_TL"
}

layer {
  name: "prob4_BR"
  type: "Softmax"
  bottom: "dir4_BR"
  top: "prob4_BR"
}

layer {
  name: "prob5_TL"
  type: "Softmax"
  bottom: "dir5_TL"
  top: "prob5_TL"
}

layer {
  name: "prob5_BR"
  type: "Softmax"
  bottom: "dir5_BR"
  top: "prob5_BR"
}

layer {
  name: "prob6_TL"
  type: "Softmax"
  bottom: "dir6_TL"
  top: "prob6_TL"
}

layer {
  name: "prob6_BR"
  type: "Softmax"
  bottom: "dir6_BR"
  top: "prob6_BR"
}

layer {
  name: "prob7_TL"
  type: "Softmax"
  bottom: "dir7_TL"
  top: "prob7_TL"
}

layer {
  name: "prob7_BR"
  type: "Softmax"
  bottom: "dir7_BR"
  top: "prob7_BR"
}

layer {
  name: "prob8_TL"
  type: "Softmax"
  bottom: "dir8_TL"
  top: "prob8_TL"
}

layer {
  name: "prob8_BR"
  type: "Softmax"
  bottom: "dir8_BR"
  top: "prob8_BR"
}

layer {
  name: "prob9_TL"
  type: "Softmax"
  bottom: "dir9_TL"
  top: "prob9_TL"
}

layer {
  name: "prob9_BR"
  type: "Softmax"
  bottom: "dir9_BR"
  top: "prob9_BR"
}

layer {
  name: "prob10_TL"
  type: "Softmax"
  bottom: "dir10_TL"
  top: "prob10_TL"
}

layer {
  name: "prob10_BR"
  type: "Softmax"
  bottom: "dir10_BR"
  top: "prob10_BR"
}

layer {
  name: "prob11_TL"
  type: "Softmax"
  bottom: "dir11_TL"
  top: "prob11_TL"
}

layer {
  name: "prob11_BR"
  type: "Softmax"
  bottom: "dir11_BR"
  top: "prob11_BR"
}

layer {
  name: "prob12_TL"
  type: "Softmax"
  bottom: "dir12_TL"
  top: "prob12_TL"
}

layer {
  name: "prob12_BR"
  type: "Softmax"
  bottom: "dir12_BR"
  top: "prob12_BR"
}

layer {
  name: "prob13_TL"
  type: "Softmax"
  bottom: "dir13_TL"
  top: "prob13_TL"
}

layer {
  name: "prob13_BR"
  type: "Softmax"
  bottom: "dir13_BR"
  top: "prob13_BR"
}

layer {
  name: "prob14_TL"
  type: "Softmax"
  bottom: "dir14_TL"
  top: "prob14_TL"
}

layer {
  name: "prob14_BR"
  type: "Softmax"
  bottom: "dir14_BR"
  top: "prob14_BR"
}

layer {
  name: "prob15_TL"
  type: "Softmax"
  bottom: "dir15_TL"
  top: "prob15_TL"
}

layer {
  name: "prob15_BR"
  type: "Softmax"
  bottom: "dir15_BR"
  top: "prob15_BR"
}

layer {
  name: "prob16_TL"
  type: "Softmax"
  bottom: "dir16_TL"
  top: "prob16_TL"
}

layer {
  name: "prob16_BR"
  type: "Softmax"
  bottom: "dir16_BR"
  top: "prob16_BR"
}

layer {
  name: "prob17_TL"
  type: "Softmax"
  bottom: "dir17_TL"
  top: "prob17_TL"
}

layer {
  name: "prob17_BR"
  type: "Softmax"
  bottom: "dir17_BR"
  top: "prob17_BR"
}

layer {
  name: "prob18_TL"
  type: "Softmax"
  bottom: "dir18_TL"
  top: "prob18_TL"
}

layer {
  name: "prob18_BR"
  type: "Softmax"
  bottom: "dir18_BR"
  top: "prob18_BR"
}

layer {
  name: "prob19_TL"
  type: "Softmax"
  bottom: "dir19_TL"
  top: "prob19_TL"
}

layer {
  name: "prob19_BR"
  type: "Softmax"
  bottom: "dir19_BR"
  top: "prob19_BR"
}

layer {
  name: "prob20_TL"
  type: "Softmax"
  bottom: "dir20_TL"
  top: "prob20_TL"
}

layer {
  name: "prob20_BR"
  type: "Softmax"
  bottom: "dir20_BR"
  top: "prob20_BR"
}

layer {
  name: "prob21_TL"
  type: "Softmax"
  bottom: "dir21_TL"
  top: "prob21_TL"
}

layer {
  name: "prob21_BR"
  type: "Softmax"
  bottom: "dir21_BR"
  top: "prob21_BR"
}

layer {
  name: "prob22_TL"
  type: "Softmax"
  bottom: "dir22_TL"
  top: "prob22_TL"
}

layer {
  name: "prob22_BR"
  type: "Softmax"
  bottom: "dir22_BR"
  top: "prob22_BR"
}

layer {
  name: "prob23_TL"
  type: "Softmax"
  bottom: "dir23_TL"
  top: "prob23_TL"
}

layer {
  name: "prob23_BR"
  type: "Softmax"
  bottom: "dir23_BR"
  top: "prob23_BR"
}

layer {
  name: "prob24_TL"
  type: "Softmax"
  bottom: "dir24_TL"
  top: "prob24_TL"
}

layer {
  name: "prob24_BR"
  type: "Softmax"
  bottom: "dir24_BR"
  top: "prob24_BR"
}

layer {
  name: "prob25_TL"
  type: "Softmax"
  bottom: "dir25_TL"
  top: "prob25_TL"
}

layer {
  name: "prob25_BR"
  type: "Softmax"
  bottom: "dir25_BR"
  top: "prob25_BR"
}

layer {
  name: "prob26_TL"
  type: "Softmax"
  bottom: "dir26_TL"
  top: "prob26_TL"
}

layer {
  name: "prob26_BR"
  type: "Softmax"
  bottom: "dir26_BR"
  top: "prob26_BR"
}

layer {
  name: "prob27_TL"
  type: "Softmax"
  bottom: "dir27_TL"
  top: "prob27_TL"
}

layer {
  name: "prob27_BR"
  type: "Softmax"
  bottom: "dir27_BR"
  top: "prob27_BR"
}

layer {
  name: "prob28_TL"
  type: "Softmax"
  bottom: "dir28_TL"
  top: "prob28_TL"
}

layer {
  name: "prob28_BR"
  type: "Softmax"
  bottom: "dir28_BR"
  top: "prob28_BR"
}

layer {
  name: "prob29_TL"
  type: "Softmax"
  bottom: "dir29_TL"
  top: "prob29_TL"
}

layer {
  name: "prob29_BR"
  type: "Softmax"
  bottom: "dir29_BR"
  top: "prob29_BR"
}

layer {
  name: "prob30_TL"
  type: "Softmax"
  bottom: "dir30_TL"
  top: "prob30_TL"
}

layer {
  name: "prob30_BR"
  type: "Softmax"
  bottom: "dir30_BR"
  top: "prob30_BR"
}

layer {
  name: "prob31_TL"
  type: "Softmax"
  bottom: "dir31_TL"
  top: "prob31_TL"
}

layer {
  name: "prob31_BR"
  type: "Softmax"
  bottom: "dir31_BR"
  top: "prob31_BR"
}

layer {
  name: "prob32_TL"
  type: "Softmax"
  bottom: "dir32_TL"
  top: "prob32_TL"
}

layer {
  name: "prob32_BR"
  type: "Softmax"
  bottom: "dir32_BR"
  top: "prob32_BR"
}

layer {
  name: "prob33_TL"
  type: "Softmax"
  bottom: "dir33_TL"
  top: "prob33_TL"
}

layer {
  name: "prob33_BR"
  type: "Softmax"
  bottom: "dir33_BR"
  top: "prob33_BR"
}

layer {
  name: "prob34_TL"
  type: "Softmax"
  bottom: "dir34_TL"
  top: "prob34_TL"
}

layer {
  name: "prob34_BR"
  type: "Softmax"
  bottom: "dir34_BR"
  top: "prob34_BR"
}

layer {
  name: "prob35_TL"
  type: "Softmax"
  bottom: "dir35_TL"
  top: "prob35_TL"
}

layer {
  name: "prob35_BR"
  type: "Softmax"
  bottom: "dir35_BR"
  top: "prob35_BR"
}

layer {
  name: "prob36_TL"
  type: "Softmax"
  bottom: "dir36_TL"
  top: "prob36_TL"
}

layer {
  name: "prob36_BR"
  type: "Softmax"
  bottom: "dir36_BR"
  top: "prob36_BR"
}

layer {
  name: "prob37_TL"
  type: "Softmax"
  bottom: "dir37_TL"
  top: "prob37_TL"
}

layer {
  name: "prob37_BR"
  type: "Softmax"
  bottom: "dir37_BR"
  top: "prob37_BR"
}

layer {
  name: "prob38_TL"
  type: "Softmax"
  bottom: "dir38_TL"
  top: "prob38_TL"
}

layer {
  name: "prob38_BR"
  type: "Softmax"
  bottom: "dir38_BR"
  top: "prob38_BR"
}

layer {
  name: "prob39_TL"
  type: "Softmax"
  bottom: "dir39_TL"
  top: "prob39_TL"
}

layer {
  name: "prob39_BR"
  type: "Softmax"
  bottom: "dir39_BR"
  top: "prob39_BR"
}

layer {
  name: "prob40_TL"
  type: "Softmax"
  bottom: "dir40_TL"
  top: "prob40_TL"
}

layer {
  name: "prob40_BR"
  type: "Softmax"
  bottom: "dir40_BR"
  top: "prob40_BR"
}

layer {
  name: "prob41_TL"
  type: "Softmax"
  bottom: "dir41_TL"
  top: "prob41_TL"
}

layer {
  name: "prob41_BR"
  type: "Softmax"
  bottom: "dir41_BR"
  top: "prob41_BR"
}

layer {
  name: "prob42_TL"
  type: "Softmax"
  bottom: "dir42_TL"
  top: "prob42_TL"
}

layer {
  name: "prob42_BR"
  type: "Softmax"
  bottom: "dir42_BR"
  top: "prob42_BR"
}

layer {
  name: "prob43_TL"
  type: "Softmax"
  bottom: "dir43_TL"
  top: "prob43_TL"
}

layer {
  name: "prob43_BR"
  type: "Softmax"
  bottom: "dir43_BR"
  top: "prob43_BR"
}

layer {
  name: "prob44_TL"
  type: "Softmax"
  bottom: "dir44_TL"
  top: "prob44_TL"
}

layer {
  name: "prob44_BR"
  type: "Softmax"
  bottom: "dir44_BR"
  top: "prob44_BR"
}

layer {
  name: "prob45_TL"
  type: "Softmax"
  bottom: "dir45_TL"
  top: "prob45_TL"
}

layer {
  name: "prob45_BR"
  type: "Softmax"
  bottom: "dir45_BR"
  top: "prob45_BR"
}

layer {
  name: "prob46_TL"
  type: "Softmax"
  bottom: "dir46_TL"
  top: "prob46_TL"
}

layer {
  name: "prob46_BR"
  type: "Softmax"
  bottom: "dir46_BR"
  top: "prob46_BR"
}

layer {
  name: "prob47_TL"
  type: "Softmax"
  bottom: "dir47_TL"
  top: "prob47_TL"
}

layer {
  name: "prob47_BR"
  type: "Softmax"
  bottom: "dir47_BR"
  top: "prob47_BR"
}

layer {
  name: "prob48_TL"
  type: "Softmax"
  bottom: "dir48_TL"
  top: "prob48_TL"
}

layer {
  name: "prob48_BR"
  type: "Softmax"
  bottom: "dir48_BR"
  top: "prob48_BR"
}

layer {
  name: "prob49_TL"
  type: "Softmax"
  bottom: "dir49_TL"
  top: "prob49_TL"
}

layer {
  name: "prob49_BR"
  type: "Softmax"
  bottom: "dir49_BR"
  top: "prob49_BR"
}

layer {
  name: "prob50_TL"
  type: "Softmax"
  bottom: "dir50_TL"
  top: "prob50_TL"
}

layer {
  name: "prob50_BR"
  type: "Softmax"
  bottom: "dir50_BR"
  top: "prob50_BR"
}

layer {
  name: "prob51_TL"
  type: "Softmax"
  bottom: "dir51_TL"
  top: "prob51_TL"
}

layer {
  name: "prob51_BR"
  type: "Softmax"
  bottom: "dir51_BR"
  top: "prob51_BR"
}

layer {
  name: "prob52_TL"
  type: "Softmax"
  bottom: "dir52_TL"
  top: "prob52_TL"
}

layer {
  name: "prob52_BR"
  type: "Softmax"
  bottom: "dir52_BR"
  top: "prob52_BR"
}

layer {
  name: "prob53_TL"
  type: "Softmax"
  bottom: "dir53_TL"
  top: "prob53_TL"
}

layer {
  name: "prob53_BR"
  type: "Softmax"
  bottom: "dir53_BR"
  top: "prob53_BR"
}

layer {
  name: "prob54_TL"
  type: "Softmax"
  bottom: "dir54_TL"
  top: "prob54_TL"
}

layer {
  name: "prob54_BR"
  type: "Softmax"
  bottom: "dir54_BR"
  top: "prob54_BR"
}

layer {
  name: "prob55_TL"
  type: "Softmax"
  bottom: "dir55_TL"
  top: "prob55_TL"
}

layer {
  name: "prob55_BR"
  type: "Softmax"
  bottom: "dir55_BR"
  top: "prob55_BR"
}

layer {
  name: "prob56_TL"
  type: "Softmax"
  bottom: "dir56_TL"
  top: "prob56_TL"
}

layer {
  name: "prob56_BR"
  type: "Softmax"
  bottom: "dir56_BR"
  top: "prob56_BR"
}

layer {
  name: "prob57_TL"
  type: "Softmax"
  bottom: "dir57_TL"
  top: "prob57_TL"
}

layer {
  name: "prob57_BR"
  type: "Softmax"
  bottom: "dir57_BR"
  top: "prob57_BR"
}

layer {
  name: "prob58_TL"
  type: "Softmax"
  bottom: "dir58_TL"
  top: "prob58_TL"
}

layer {
  name: "prob58_BR"
  type: "Softmax"
  bottom: "dir58_BR"
  top: "prob58_BR"
}

layer {
  name: "prob59_TL"
  type: "Softmax"
  bottom: "dir59_TL"
  top: "prob59_TL"
}

layer {
  name: "prob59_BR"
  type: "Softmax"
  bottom: "dir59_BR"
  top: "prob59_BR"
}

layer {
  name: "prob60_TL"
  type: "Softmax"
  bottom: "dir60_TL"
  top: "prob60_TL"
}

layer {
  name: "prob60_BR"
  type: "Softmax"
  bottom: "dir60_BR"
  top: "prob60_BR"
}

layer {
  name: "prob61_TL"
  type: "Softmax"
  bottom: "dir61_TL"
  top: "prob61_TL"
}

layer {
  name: "prob61_BR"
  type: "Softmax"
  bottom: "dir61_BR"
  top: "prob61_BR"
}

layer {
  name: "prob62_TL"
  type: "Softmax"
  bottom: "dir62_TL"
  top: "prob62_TL"
}

layer {
  name: "prob62_BR"
  type: "Softmax"
  bottom: "dir62_BR"
  top: "prob62_BR"
}

layer {
  name: "prob63_TL"
  type: "Softmax"
  bottom: "dir63_TL"
  top: "prob63_TL"
}

layer {
  name: "prob63_BR"
  type: "Softmax"
  bottom: "dir63_BR"
  top: "prob63_BR"
}

layer {
  name: "prob64_TL"
  type: "Softmax"
  bottom: "dir64_TL"
  top: "prob64_TL"
}

layer {
  name: "prob64_BR"
  type: "Softmax"
  bottom: "dir64_BR"
  top: "prob64_BR"
}

layer {
  name: "prob65_TL"
  type: "Softmax"
  bottom: "dir65_TL"
  top: "prob65_TL"
}

layer {
  name: "prob65_BR"
  type: "Softmax"
  bottom: "dir65_BR"
  top: "prob65_BR"
}

layer {
  name: "prob66_TL"
  type: "Softmax"
  bottom: "dir66_TL"
  top: "prob66_TL"
}

layer {
  name: "prob66_BR"
  type: "Softmax"
  bottom: "dir66_BR"
  top: "prob66_BR"
}

layer {
  name: "prob67_TL"
  type: "Softmax"
  bottom: "dir67_TL"
  top: "prob67_TL"
}

layer {
  name: "prob67_BR"
  type: "Softmax"
  bottom: "dir67_BR"
  top: "prob67_BR"
}

layer {
  name: "prob68_TL"
  type: "Softmax"
  bottom: "dir68_TL"
  top: "prob68_TL"
}

layer {
  name: "prob68_BR"
  type: "Softmax"
  bottom: "dir68_BR"
  top: "prob68_BR"
}

layer {
  name: "prob69_TL"
  type: "Softmax"
  bottom: "dir69_TL"
  top: "prob69_TL"
}

layer {
  name: "prob69_BR"
  type: "Softmax"
  bottom: "dir69_BR"
  top: "prob69_BR"
}

layer {
  name: "prob70_TL"
  type: "Softmax"
  bottom: "dir70_TL"
  top: "prob70_TL"
}

layer {
  name: "prob70_BR"
  type: "Softmax"
  bottom: "dir70_BR"
  top: "prob70_BR"
}

layer {
  name: "prob71_TL"
  type: "Softmax"
  bottom: "dir71_TL"
  top: "prob71_TL"
}

layer {
  name: "prob71_BR"
  type: "Softmax"
  bottom: "dir71_BR"
  top: "prob71_BR"
}

layer {
  name: "prob72_TL"
  type: "Softmax"
  bottom: "dir72_TL"
  top: "prob72_TL"
}

layer {
  name: "prob72_BR"
  type: "Softmax"
  bottom: "dir72_BR"
  top: "prob72_BR"
}

layer {
  name: "prob73_TL"
  type: "Softmax"
  bottom: "dir73_TL"
  top: "prob73_TL"
}

layer {
  name: "prob73_BR"
  type: "Softmax"
  bottom: "dir73_BR"
  top: "prob73_BR"
}

layer {
  name: "prob74_TL"
  type: "Softmax"
  bottom: "dir74_TL"
  top: "prob74_TL"
}

layer {
  name: "prob74_BR"
  type: "Softmax"
  bottom: "dir74_BR"
  top: "prob74_BR"
}

layer {
  name: "prob75_TL"
  type: "Softmax"
  bottom: "dir75_TL"
  top: "prob75_TL"
}

layer {
  name: "prob75_BR"
  type: "Softmax"
  bottom: "dir75_BR"
  top: "prob75_BR"
}

layer {
  name: "prob76_TL"
  type: "Softmax"
  bottom: "dir76_TL"
  top: "prob76_TL"
}

layer {
  name: "prob76_BR"
  type: "Softmax"
  bottom: "dir76_BR"
  top: "prob76_BR"
}

layer {
  name: "prob77_TL"
  type: "Softmax"
  bottom: "dir77_TL"
  top: "prob77_TL"
}

layer {
  name: "prob77_BR"
  type: "Softmax"
  bottom: "dir77_BR"
  top: "prob77_BR"
}

layer {
  name: "prob78_TL"
  type: "Softmax"
  bottom: "dir78_TL"
  top: "prob78_TL"
}

layer {
  name: "prob78_BR"
  type: "Softmax"
  bottom: "dir78_BR"
  top: "prob78_BR"
}

layer {
  name: "prob79_TL"
  type: "Softmax"
  bottom: "dir79_TL"
  top: "prob79_TL"
}

layer {
  name: "prob79_BR"
  type: "Softmax"
  bottom: "dir79_BR"
  top: "prob79_BR"
}

layer {
  name: "prob80_TL"
  type: "Softmax"
  bottom: "dir80_TL"
  top: "prob80_TL"
}

layer {
  name: "prob80_BR"
  type: "Softmax"
  bottom: "dir80_BR"
  top: "prob80_BR"
}

layer {
  name: "prob81_TL"
  type: "Softmax"
  bottom: "dir81_TL"
  top: "prob81_TL"
}

layer {
  name: "prob81_BR"
  type: "Softmax"
  bottom: "dir81_BR"
  top: "prob81_BR"
}

layer {
  name: "prob82_TL"
  type: "Softmax"
  bottom: "dir82_TL"
  top: "prob82_TL"
}

layer {
  name: "prob82_BR"
  type: "Softmax"
  bottom: "dir82_BR"
  top: "prob82_BR"
}

layer {
  name: "prob83_TL"
  type: "Softmax"
  bottom: "dir83_TL"
  top: "prob83_TL"
}

layer {
  name: "prob83_BR"
  type: "Softmax"
  bottom: "dir83_BR"
  top: "prob83_BR"
}

layer {
  name: "prob84_TL"
  type: "Softmax"
  bottom: "dir84_TL"
  top: "prob84_TL"
}

layer {
  name: "prob84_BR"
  type: "Softmax"
  bottom: "dir84_BR"
  top: "prob84_BR"
}

layer {
  name: "prob85_TL"
  type: "Softmax"
  bottom: "dir85_TL"
  top: "prob85_TL"
}

layer {
  name: "prob85_BR"
  type: "Softmax"
  bottom: "dir85_BR"
  top: "prob85_BR"
}

layer {
  name: "prob86_TL"
  type: "Softmax"
  bottom: "dir86_TL"
  top: "prob86_TL"
}

layer {
  name: "prob86_BR"
  type: "Softmax"
  bottom: "dir86_BR"
  top: "prob86_BR"
}

layer {
  name: "prob87_TL"
  type: "Softmax"
  bottom: "dir87_TL"
  top: "prob87_TL"
}

layer {
  name: "prob87_BR"
  type: "Softmax"
  bottom: "dir87_BR"
  top: "prob87_BR"
}

layer {
  name: "prob88_TL"
  type: "Softmax"
  bottom: "dir88_TL"
  top: "prob88_TL"
}

layer {
  name: "prob88_BR"
  type: "Softmax"
  bottom: "dir88_BR"
  top: "prob88_BR"
}

layer {
  name: "prob89_TL"
  type: "Softmax"
  bottom: "dir89_TL"
  top: "prob89_TL"
}

layer {
  name: "prob89_BR"
  type: "Softmax"
  bottom: "dir89_BR"
  top: "prob89_BR"
}

layer {
  name: "prob90_TL"
  type: "Softmax"
  bottom: "dir90_TL"
  top: "prob90_TL"
}

layer {
  name: "prob90_BR"
  type: "Softmax"
  bottom: "dir90_BR"
  top: "prob90_BR"
}

layer {
  name: "prob91_TL"
  type: "Softmax"
  bottom: "dir91_TL"
  top: "prob91_TL"
}

layer {
  name: "prob91_BR"
  type: "Softmax"
  bottom: "dir91_BR"
  top: "prob91_BR"
}

layer {
  name: "prob92_TL"
  type: "Softmax"
  bottom: "dir92_TL"
  top: "prob92_TL"
}

layer {
  name: "prob92_BR"
  type: "Softmax"
  bottom: "dir92_BR"
  top: "prob92_BR"
}

layer {
  name: "prob93_TL"
  type: "Softmax"
  bottom: "dir93_TL"
  top: "prob93_TL"
}

layer {
  name: "prob93_BR"
  type: "Softmax"
  bottom: "dir93_BR"
  top: "prob93_BR"
}

layer {
  name: "prob94_TL"
  type: "Softmax"
  bottom: "dir94_TL"
  top: "prob94_TL"
}

layer {
  name: "prob94_BR"
  type: "Softmax"
  bottom: "dir94_BR"
  top: "prob94_BR"
}

layer {
  name: "prob95_TL"
  type: "Softmax"
  bottom: "dir95_TL"
  top: "prob95_TL"
}

layer {
  name: "prob95_BR"
  type: "Softmax"
  bottom: "dir95_BR"
  top: "prob95_BR"
}

layer {
  name: "prob96_TL"
  type: "Softmax"
  bottom: "dir96_TL"
  top: "prob96_TL"
}

layer {
  name: "prob96_BR"
  type: "Softmax"
  bottom: "dir96_BR"
  top: "prob96_BR"
}

layer {
  name: "prob97_TL"
  type: "Softmax"
  bottom: "dir97_TL"
  top: "prob97_TL"
}

layer {
  name: "prob97_BR"
  type: "Softmax"
  bottom: "dir97_BR"
  top: "prob97_BR"
}

layer {
  name: "prob98_TL"
  type: "Softmax"
  bottom: "dir98_TL"
  top: "prob98_TL"
}

layer {
  name: "prob98_BR"
  type: "Softmax"
  bottom: "dir98_BR"
  top: "prob98_BR"
}

layer {
  name: "prob99_TL"
  type: "Softmax"
  bottom: "dir99_TL"
  top: "prob99_TL"
}

layer {
  name: "prob99_BR"
  type: "Softmax"
  bottom: "dir99_BR"
  top: "prob99_BR"
}

layer {
  name: "prob100_TL"
  type: "Softmax"
  bottom: "dir100_TL"
  top: "prob100_TL"
}

layer {
  name: "prob100_BR"
  type: "Softmax"
  bottom: "dir100_BR"
  top: "prob100_BR"
}

layer {
  name: "prob101_TL"
  type: "Softmax"
  bottom: "dir101_TL"
  top: "prob101_TL"
}

layer {
  name: "prob101_BR"
  type: "Softmax"
  bottom: "dir101_BR"
  top: "prob101_BR"
}

layer {
  name: "prob102_TL"
  type: "Softmax"
  bottom: "dir102_TL"
  top: "prob102_TL"
}

layer {
  name: "prob102_BR"
  type: "Softmax"
  bottom: "dir102_BR"
  top: "prob102_BR"
}

layer {
  name: "prob103_TL"
  type: "Softmax"
  bottom: "dir103_TL"
  top: "prob103_TL"
}

layer {
  name: "prob103_BR"
  type: "Softmax"
  bottom: "dir103_BR"
  top: "prob103_BR"
}

layer {
  name: "prob104_TL"
  type: "Softmax"
  bottom: "dir104_TL"
  top: "prob104_TL"
}

layer {
  name: "prob104_BR"
  type: "Softmax"
  bottom: "dir104_BR"
  top: "prob104_BR"
}

layer {
  name: "prob105_TL"
  type: "Softmax"
  bottom: "dir105_TL"
  top: "prob105_TL"
}

layer {
  name: "prob105_BR"
  type: "Softmax"
  bottom: "dir105_BR"
  top: "prob105_BR"
}

layer {
  name: "prob106_TL"
  type: "Softmax"
  bottom: "dir106_TL"
  top: "prob106_TL"
}

layer {
  name: "prob106_BR"
  type: "Softmax"
  bottom: "dir106_BR"
  top: "prob106_BR"
}

layer {
  name: "prob107_TL"
  type: "Softmax"
  bottom: "dir107_TL"
  top: "prob107_TL"
}

layer {
  name: "prob107_BR"
  type: "Softmax"
  bottom: "dir107_BR"
  top: "prob107_BR"
}

layer {
  name: "prob108_TL"
  type: "Softmax"
  bottom: "dir108_TL"
  top: "prob108_TL"
}

layer {
  name: "prob108_BR"
  type: "Softmax"
  bottom: "dir108_BR"
  top: "prob108_BR"
}

layer {
  name: "prob109_TL"
  type: "Softmax"
  bottom: "dir109_TL"
  top: "prob109_TL"
}

layer {
  name: "prob109_BR"
  type: "Softmax"
  bottom: "dir109_BR"
  top: "prob109_BR"
}

layer {
  name: "prob110_TL"
  type: "Softmax"
  bottom: "dir110_TL"
  top: "prob110_TL"
}

layer {
  name: "prob110_BR"
  type: "Softmax"
  bottom: "dir110_BR"
  top: "prob110_BR"
}

layer {
  name: "prob111_TL"
  type: "Softmax"
  bottom: "dir111_TL"
  top: "prob111_TL"
}

layer {
  name: "prob111_BR"
  type: "Softmax"
  bottom: "dir111_BR"
  top: "prob111_BR"
}

layer {
  name: "prob112_TL"
  type: "Softmax"
  bottom: "dir112_TL"
  top: "prob112_TL"
}

layer {
  name: "prob112_BR"
  type: "Softmax"
  bottom: "dir112_BR"
  top: "prob112_BR"
}

layer {
  name: "prob113_TL"
  type: "Softmax"
  bottom: "dir113_TL"
  top: "prob113_TL"
}

layer {
  name: "prob113_BR"
  type: "Softmax"
  bottom: "dir113_BR"
  top: "prob113_BR"
}

layer {
  name: "prob114_TL"
  type: "Softmax"
  bottom: "dir114_TL"
  top: "prob114_TL"
}

layer {
  name: "prob114_BR"
  type: "Softmax"
  bottom: "dir114_BR"
  top: "prob114_BR"
}

layer {
  name: "prob115_TL"
  type: "Softmax"
  bottom: "dir115_TL"
  top: "prob115_TL"
}

layer {
  name: "prob115_BR"
  type: "Softmax"
  bottom: "dir115_BR"
  top: "prob115_BR"
}

layer {
  name: "prob116_TL"
  type: "Softmax"
  bottom: "dir116_TL"
  top: "prob116_TL"
}

layer {
  name: "prob116_BR"
  type: "Softmax"
  bottom: "dir116_BR"
  top: "prob116_BR"
}

layer {
  name: "prob117_TL"
  type: "Softmax"
  bottom: "dir117_TL"
  top: "prob117_TL"
}

layer {
  name: "prob117_BR"
  type: "Softmax"
  bottom: "dir117_BR"
  top: "prob117_BR"
}

layer {
  name: "prob118_TL"
  type: "Softmax"
  bottom: "dir118_TL"
  top: "prob118_TL"
}

layer {
  name: "prob118_BR"
  type: "Softmax"
  bottom: "dir118_BR"
  top: "prob118_BR"
}

layer {
  name: "prob119_TL"
  type: "Softmax"
  bottom: "dir119_TL"
  top: "prob119_TL"
}

layer {
  name: "prob119_BR"
  type: "Softmax"
  bottom: "dir119_BR"
  top: "prob119_BR"
}

layer {
  name: "prob120_TL"
  type: "Softmax"
  bottom: "dir120_TL"
  top: "prob120_TL"
}

layer {
  name: "prob120_BR"
  type: "Softmax"
  bottom: "dir120_BR"
  top: "prob120_BR"
}

layer {
  name: "prob121_TL"
  type: "Softmax"
  bottom: "dir121_TL"
  top: "prob121_TL"
}

layer {
  name: "prob121_BR"
  type: "Softmax"
  bottom: "dir121_BR"
  top: "prob121_BR"
}

layer {
  name: "prob122_TL"
  type: "Softmax"
  bottom: "dir122_TL"
  top: "prob122_TL"
}

layer {
  name: "prob122_BR"
  type: "Softmax"
  bottom: "dir122_BR"
  top: "prob122_BR"
}

layer {
  name: "prob123_TL"
  type: "Softmax"
  bottom: "dir123_TL"
  top: "prob123_TL"
}

layer {
  name: "prob123_BR"
  type: "Softmax"
  bottom: "dir123_BR"
  top: "prob123_BR"
}

layer {
  name: "prob124_TL"
  type: "Softmax"
  bottom: "dir124_TL"
  top: "prob124_TL"
}

layer {
  name: "prob124_BR"
  type: "Softmax"
  bottom: "dir124_BR"
  top: "prob124_BR"
}

layer {
  name: "prob125_TL"
  type: "Softmax"
  bottom: "dir125_TL"
  top: "prob125_TL"
}

layer {
  name: "prob125_BR"
  type: "Softmax"
  bottom: "dir125_BR"
  top: "prob125_BR"
}

layer {
  name: "prob126_TL"
  type: "Softmax"
  bottom: "dir126_TL"
  top: "prob126_TL"
}

layer {
  name: "prob126_BR"
  type: "Softmax"
  bottom: "dir126_BR"
  top: "prob126_BR"
}

layer {
  name: "prob127_TL"
  type: "Softmax"
  bottom: "dir127_TL"
  top: "prob127_TL"
}

layer {
  name: "prob127_BR"
  type: "Softmax"
  bottom: "dir127_BR"
  top: "prob127_BR"
}

layer {
  name: "prob128_TL"
  type: "Softmax"
  bottom: "dir128_TL"
  top: "prob128_TL"
}

layer {
  name: "prob128_BR"
  type: "Softmax"
  bottom: "dir128_BR"
  top: "prob128_BR"
}

layer {
  name: "prob129_TL"
  type: "Softmax"
  bottom: "dir129_TL"
  top: "prob129_TL"
}

layer {
  name: "prob129_BR"
  type: "Softmax"
  bottom: "dir129_BR"
  top: "prob129_BR"
}

layer {
  name: "prob130_TL"
  type: "Softmax"
  bottom: "dir130_TL"
  top: "prob130_TL"
}

layer {
  name: "prob130_BR"
  type: "Softmax"
  bottom: "dir130_BR"
  top: "prob130_BR"
}

layer {
  name: "prob131_TL"
  type: "Softmax"
  bottom: "dir131_TL"
  top: "prob131_TL"
}

layer {
  name: "prob131_BR"
  type: "Softmax"
  bottom: "dir131_BR"
  top: "prob131_BR"
}

layer {
  name: "prob132_TL"
  type: "Softmax"
  bottom: "dir132_TL"
  top: "prob132_TL"
}

layer {
  name: "prob132_BR"
  type: "Softmax"
  bottom: "dir132_BR"
  top: "prob132_BR"
}

layer {
  name: "prob133_TL"
  type: "Softmax"
  bottom: "dir133_TL"
  top: "prob133_TL"
}

layer {
  name: "prob133_BR"
  type: "Softmax"
  bottom: "dir133_BR"
  top: "prob133_BR"
}

layer {
  name: "prob134_TL"
  type: "Softmax"
  bottom: "dir134_TL"
  top: "prob134_TL"
}

layer {
  name: "prob134_BR"
  type: "Softmax"
  bottom: "dir134_BR"
  top: "prob134_BR"
}

layer {
  name: "prob135_TL"
  type: "Softmax"
  bottom: "dir135_TL"
  top: "prob135_TL"
}

layer {
  name: "prob135_BR"
  type: "Softmax"
  bottom: "dir135_BR"
  top: "prob135_BR"
}

layer {
  name: "prob136_TL"
  type: "Softmax"
  bottom: "dir136_TL"
  top: "prob136_TL"
}

layer {
  name: "prob136_BR"
  type: "Softmax"
  bottom: "dir136_BR"
  top: "prob136_BR"
}

layer {
  name: "prob137_TL"
  type: "Softmax"
  bottom: "dir137_TL"
  top: "prob137_TL"
}

layer {
  name: "prob137_BR"
  type: "Softmax"
  bottom: "dir137_BR"
  top: "prob137_BR"
}

layer {
  name: "prob138_TL"
  type: "Softmax"
  bottom: "dir138_TL"
  top: "prob138_TL"
}

layer {
  name: "prob138_BR"
  type: "Softmax"
  bottom: "dir138_BR"
  top: "prob138_BR"
}

layer {
  name: "prob139_TL"
  type: "Softmax"
  bottom: "dir139_TL"
  top: "prob139_TL"
}

layer {
  name: "prob139_BR"
  type: "Softmax"
  bottom: "dir139_BR"
  top: "prob139_BR"
}

layer {
  name: "prob140_TL"
  type: "Softmax"
  bottom: "dir140_TL"
  top: "prob140_TL"
}

layer {
  name: "prob140_BR"
  type: "Softmax"
  bottom: "dir140_BR"
  top: "prob140_BR"
}

layer {
  name: "prob141_TL"
  type: "Softmax"
  bottom: "dir141_TL"
  top: "prob141_TL"
}

layer {
  name: "prob141_BR"
  type: "Softmax"
  bottom: "dir141_BR"
  top: "prob141_BR"
}

layer {
  name: "prob142_TL"
  type: "Softmax"
  bottom: "dir142_TL"
  top: "prob142_TL"
}

layer {
  name: "prob142_BR"
  type: "Softmax"
  bottom: "dir142_BR"
  top: "prob142_BR"
}

layer {
  name: "prob143_TL"
  type: "Softmax"
  bottom: "dir143_TL"
  top: "prob143_TL"
}

layer {
  name: "prob143_BR"
  type: "Softmax"
  bottom: "dir143_BR"
  top: "prob143_BR"
}

layer {
  name: "prob144_TL"
  type: "Softmax"
  bottom: "dir144_TL"
  top: "prob144_TL"
}

layer {
  name: "prob144_BR"
  type: "Softmax"
  bottom: "dir144_BR"
  top: "prob144_BR"
}

layer {
  name: "prob145_TL"
  type: "Softmax"
  bottom: "dir145_TL"
  top: "prob145_TL"
}

layer {
  name: "prob145_BR"
  type: "Softmax"
  bottom: "dir145_BR"
  top: "prob145_BR"
}

layer {
  name: "prob146_TL"
  type: "Softmax"
  bottom: "dir146_TL"
  top: "prob146_TL"
}

layer {
  name: "prob146_BR"
  type: "Softmax"
  bottom: "dir146_BR"
  top: "prob146_BR"
}

layer {
  name: "prob147_TL"
  type: "Softmax"
  bottom: "dir147_TL"
  top: "prob147_TL"
}

layer {
  name: "prob147_BR"
  type: "Softmax"
  bottom: "dir147_BR"
  top: "prob147_BR"
}

layer {
  name: "prob148_TL"
  type: "Softmax"
  bottom: "dir148_TL"
  top: "prob148_TL"
}

layer {
  name: "prob148_BR"
  type: "Softmax"
  bottom: "dir148_BR"
  top: "prob148_BR"
}

layer {
  name: "prob149_TL"
  type: "Softmax"
  bottom: "dir149_TL"
  top: "prob149_TL"
}

layer {
  name: "prob149_BR"
  type: "Softmax"
  bottom: "dir149_BR"
  top: "prob149_BR"
}

layer {
  name: "prob150_TL"
  type: "Softmax"
  bottom: "dir150_TL"
  top: "prob150_TL"
}

layer {
  name: "prob150_BR"
  type: "Softmax"
  bottom: "dir150_BR"
  top: "prob150_BR"
}

layer {
  name: "prob151_TL"
  type: "Softmax"
  bottom: "dir151_TL"
  top: "prob151_TL"
}

layer {
  name: "prob151_BR"
  type: "Softmax"
  bottom: "dir151_BR"
  top: "prob151_BR"
}

layer {
  name: "prob152_TL"
  type: "Softmax"
  bottom: "dir152_TL"
  top: "prob152_TL"
}

layer {
  name: "prob152_BR"
  type: "Softmax"
  bottom: "dir152_BR"
  top: "prob152_BR"
}

layer {
  name: "prob153_TL"
  type: "Softmax"
  bottom: "dir153_TL"
  top: "prob153_TL"
}

layer {
  name: "prob153_BR"
  type: "Softmax"
  bottom: "dir153_BR"
  top: "prob153_BR"
}

layer {
  name: "prob154_TL"
  type: "Softmax"
  bottom: "dir154_TL"
  top: "prob154_TL"
}

layer {
  name: "prob154_BR"
  type: "Softmax"
  bottom: "dir154_BR"
  top: "prob154_BR"
}

layer {
  name: "prob155_TL"
  type: "Softmax"
  bottom: "dir155_TL"
  top: "prob155_TL"
}

layer {
  name: "prob155_BR"
  type: "Softmax"
  bottom: "dir155_BR"
  top: "prob155_BR"
}

layer {
  name: "prob156_TL"
  type: "Softmax"
  bottom: "dir156_TL"
  top: "prob156_TL"
}

layer {
  name: "prob156_BR"
  type: "Softmax"
  bottom: "dir156_BR"
  top: "prob156_BR"
}

layer {
  name: "prob157_TL"
  type: "Softmax"
  bottom: "dir157_TL"
  top: "prob157_TL"
}

layer {
  name: "prob157_BR"
  type: "Softmax"
  bottom: "dir157_BR"
  top: "prob157_BR"
}

layer {
  name: "prob158_TL"
  type: "Softmax"
  bottom: "dir158_TL"
  top: "prob158_TL"
}

layer {
  name: "prob158_BR"
  type: "Softmax"
  bottom: "dir158_BR"
  top: "prob158_BR"
}

layer {
  name: "prob159_TL"
  type: "Softmax"
  bottom: "dir159_TL"
  top: "prob159_TL"
}

layer {
  name: "prob159_BR"
  type: "Softmax"
  bottom: "dir159_BR"
  top: "prob159_BR"
}

layer {
  name: "prob160_TL"
  type: "Softmax"
  bottom: "dir160_TL"
  top: "prob160_TL"
}

layer {
  name: "prob160_BR"
  type: "Softmax"
  bottom: "dir160_BR"
  top: "prob160_BR"
}

layer {
  name: "prob161_TL"
  type: "Softmax"
  bottom: "dir161_TL"
  top: "prob161_TL"
}

layer {
  name: "prob161_BR"
  type: "Softmax"
  bottom: "dir161_BR"
  top: "prob161_BR"
}

layer {
  name: "prob162_TL"
  type: "Softmax"
  bottom: "dir162_TL"
  top: "prob162_TL"
}

layer {
  name: "prob162_BR"
  type: "Softmax"
  bottom: "dir162_BR"
  top: "prob162_BR"
}

layer {
  name: "prob163_TL"
  type: "Softmax"
  bottom: "dir163_TL"
  top: "prob163_TL"
}

layer {
  name: "prob163_BR"
  type: "Softmax"
  bottom: "dir163_BR"
  top: "prob163_BR"
}

layer {
  name: "prob164_TL"
  type: "Softmax"
  bottom: "dir164_TL"
  top: "prob164_TL"
}

layer {
  name: "prob164_BR"
  type: "Softmax"
  bottom: "dir164_BR"
  top: "prob164_BR"
}

layer {
  name: "prob165_TL"
  type: "Softmax"
  bottom: "dir165_TL"
  top: "prob165_TL"
}

layer {
  name: "prob165_BR"
  type: "Softmax"
  bottom: "dir165_BR"
  top: "prob165_BR"
}

layer {
  name: "prob166_TL"
  type: "Softmax"
  bottom: "dir166_TL"
  top: "prob166_TL"
}

layer {
  name: "prob166_BR"
  type: "Softmax"
  bottom: "dir166_BR"
  top: "prob166_BR"
}

layer {
  name: "prob167_TL"
  type: "Softmax"
  bottom: "dir167_TL"
  top: "prob167_TL"
}

layer {
  name: "prob167_BR"
  type: "Softmax"
  bottom: "dir167_BR"
  top: "prob167_BR"
}

layer {
  name: "prob168_TL"
  type: "Softmax"
  bottom: "dir168_TL"
  top: "prob168_TL"
}

layer {
  name: "prob168_BR"
  type: "Softmax"
  bottom: "dir168_BR"
  top: "prob168_BR"
}

layer {
  name: "prob169_TL"
  type: "Softmax"
  bottom: "dir169_TL"
  top: "prob169_TL"
}

layer {
  name: "prob169_BR"
  type: "Softmax"
  bottom: "dir169_BR"
  top: "prob169_BR"
}

layer {
  name: "prob170_TL"
  type: "Softmax"
  bottom: "dir170_TL"
  top: "prob170_TL"
}

layer {
  name: "prob170_BR"
  type: "Softmax"
  bottom: "dir170_BR"
  top: "prob170_BR"
}

layer {
  name: "prob171_TL"
  type: "Softmax"
  bottom: "dir171_TL"
  top: "prob171_TL"
}

layer {
  name: "prob171_BR"
  type: "Softmax"
  bottom: "dir171_BR"
  top: "prob171_BR"
}

layer {
  name: "prob172_TL"
  type: "Softmax"
  bottom: "dir172_TL"
  top: "prob172_TL"
}

layer {
  name: "prob172_BR"
  type: "Softmax"
  bottom: "dir172_BR"
  top: "prob172_BR"
}

layer {
  name: "prob173_TL"
  type: "Softmax"
  bottom: "dir173_TL"
  top: "prob173_TL"
}

layer {
  name: "prob173_BR"
  type: "Softmax"
  bottom: "dir173_BR"
  top: "prob173_BR"
}

layer {
  name: "prob174_TL"
  type: "Softmax"
  bottom: "dir174_TL"
  top: "prob174_TL"
}

layer {
  name: "prob174_BR"
  type: "Softmax"
  bottom: "dir174_BR"
  top: "prob174_BR"
}

layer {
  name: "prob175_TL"
  type: "Softmax"
  bottom: "dir175_TL"
  top: "prob175_TL"
}

layer {
  name: "prob175_BR"
  type: "Softmax"
  bottom: "dir175_BR"
  top: "prob175_BR"
}

layer {
  name: "prob176_TL"
  type: "Softmax"
  bottom: "dir176_TL"
  top: "prob176_TL"
}

layer {
  name: "prob176_BR"
  type: "Softmax"
  bottom: "dir176_BR"
  top: "prob176_BR"
}

layer {
  name: "prob177_TL"
  type: "Softmax"
  bottom: "dir177_TL"
  top: "prob177_TL"
}

layer {
  name: "prob177_BR"
  type: "Softmax"
  bottom: "dir177_BR"
  top: "prob177_BR"
}

layer {
  name: "prob178_TL"
  type: "Softmax"
  bottom: "dir178_TL"
  top: "prob178_TL"
}

layer {
  name: "prob178_BR"
  type: "Softmax"
  bottom: "dir178_BR"
  top: "prob178_BR"
}

layer {
  name: "prob179_TL"
  type: "Softmax"
  bottom: "dir179_TL"
  top: "prob179_TL"
}

layer {
  name: "prob179_BR"
  type: "Softmax"
  bottom: "dir179_BR"
  top: "prob179_BR"
}

layer {
  name: "prob180_TL"
  type: "Softmax"
  bottom: "dir180_TL"
  top: "prob180_TL"
}

layer {
  name: "prob180_BR"
  type: "Softmax"
  bottom: "dir180_BR"
  top: "prob180_BR"
}

layer {
  name: "prob181_TL"
  type: "Softmax"
  bottom: "dir181_TL"
  top: "prob181_TL"
}

layer {
  name: "prob181_BR"
  type: "Softmax"
  bottom: "dir181_BR"
  top: "prob181_BR"
}

layer {
  name: "prob182_TL"
  type: "Softmax"
  bottom: "dir182_TL"
  top: "prob182_TL"
}

layer {
  name: "prob182_BR"
  type: "Softmax"
  bottom: "dir182_BR"
  top: "prob182_BR"
}

layer {
  name: "prob183_TL"
  type: "Softmax"
  bottom: "dir183_TL"
  top: "prob183_TL"
}

layer {
  name: "prob183_BR"
  type: "Softmax"
  bottom: "dir183_BR"
  top: "prob183_BR"
}

layer {
  name: "prob184_TL"
  type: "Softmax"
  bottom: "dir184_TL"
  top: "prob184_TL"
}

layer {
  name: "prob184_BR"
  type: "Softmax"
  bottom: "dir184_BR"
  top: "prob184_BR"
}

layer {
  name: "prob185_TL"
  type: "Softmax"
  bottom: "dir185_TL"
  top: "prob185_TL"
}

layer {
  name: "prob185_BR"
  type: "Softmax"
  bottom: "dir185_BR"
  top: "prob185_BR"
}

layer {
  name: "prob186_TL"
  type: "Softmax"
  bottom: "dir186_TL"
  top: "prob186_TL"
}

layer {
  name: "prob186_BR"
  type: "Softmax"
  bottom: "dir186_BR"
  top: "prob186_BR"
}

layer {
  name: "prob187_TL"
  type: "Softmax"
  bottom: "dir187_TL"
  top: "prob187_TL"
}

layer {
  name: "prob187_BR"
  type: "Softmax"
  bottom: "dir187_BR"
  top: "prob187_BR"
}

layer {
  name: "prob188_TL"
  type: "Softmax"
  bottom: "dir188_TL"
  top: "prob188_TL"
}

layer {
  name: "prob188_BR"
  type: "Softmax"
  bottom: "dir188_BR"
  top: "prob188_BR"
}

layer {
  name: "prob189_TL"
  type: "Softmax"
  bottom: "dir189_TL"
  top: "prob189_TL"
}

layer {
  name: "prob189_BR"
  type: "Softmax"
  bottom: "dir189_BR"
  top: "prob189_BR"
}

layer {
  name: "prob190_TL"
  type: "Softmax"
  bottom: "dir190_TL"
  top: "prob190_TL"
}

layer {
  name: "prob190_BR"
  type: "Softmax"
  bottom: "dir190_BR"
  top: "prob190_BR"
}

layer {
  name: "prob191_TL"
  type: "Softmax"
  bottom: "dir191_TL"
  top: "prob191_TL"
}

layer {
  name: "prob191_BR"
  type: "Softmax"
  bottom: "dir191_BR"
  top: "prob191_BR"
}

layer {
  name: "prob192_TL"
  type: "Softmax"
  bottom: "dir192_TL"
  top: "prob192_TL"
}

layer {
  name: "prob192_BR"
  type: "Softmax"
  bottom: "dir192_BR"
  top: "prob192_BR"
}

layer {
  name: "prob193_TL"
  type: "Softmax"
  bottom: "dir193_TL"
  top: "prob193_TL"
}

layer {
  name: "prob193_BR"
  type: "Softmax"
  bottom: "dir193_BR"
  top: "prob193_BR"
}

layer {
  name: "prob194_TL"
  type: "Softmax"
  bottom: "dir194_TL"
  top: "prob194_TL"
}

layer {
  name: "prob194_BR"
  type: "Softmax"
  bottom: "dir194_BR"
  top: "prob194_BR"
}

layer {
  name: "prob195_TL"
  type: "Softmax"
  bottom: "dir195_TL"
  top: "prob195_TL"
}

layer {
  name: "prob195_BR"
  type: "Softmax"
  bottom: "dir195_BR"
  top: "prob195_BR"
}

layer {
  name: "prob196_TL"
  type: "Softmax"
  bottom: "dir196_TL"
  top: "prob196_TL"
}

layer {
  name: "prob196_BR"
  type: "Softmax"
  bottom: "dir196_BR"
  top: "prob196_BR"
}

layer {
  name: "prob197_TL"
  type: "Softmax"
  bottom: "dir197_TL"
  top: "prob197_TL"
}

layer {
  name: "prob197_BR"
  type: "Softmax"
  bottom: "dir197_BR"
  top: "prob197_BR"
}

layer {
  name: "prob198_TL"
  type: "Softmax"
  bottom: "dir198_TL"
  top: "prob198_TL"
}

layer {
  name: "prob198_BR"
  type: "Softmax"
  bottom: "dir198_BR"
  top: "prob198_BR"
}

layer {
  name: "prob199_TL"
  type: "Softmax"
  bottom: "dir199_TL"
  top: "prob199_TL"
}

layer {
  name: "prob199_BR"
  type: "Softmax"
  bottom: "dir199_BR"
  top: "prob199_BR"
}

layer {
  name: "prob_cls"
  type: "Softmax"
  bottom: "cls"
  top: "prob_cls"
}

