input: "data"
input_shape {
  dim: 1
  dim: 3
  dim: 224
  dim: 224
}

layer {
  name: "conv1/7x7_s2"
  type: "Convolution"
  bottom: "data"
  top: "conv1/7x7_s2"
  param {
    lr_mult: 0.25
    decay_mult: 1
  }
  convolution_param {
    num_output: 64
    bias_term: false
    pad: 3
    kernel_size: 7
    group: 1
    stride: 2
  }
}

layer {
  name: "conv1/7x7_s2/bn"
  type: "BN"
  bottom: "conv1/7x7_s2"
  top: "conv1/7x7_s2/bn"
  param {
    lr_mult: 0.25
    decay_mult: 1
  }
  param {
    lr_mult: 0.5
    decay_mult: 0
  }
  bn_param {
    scale_filler {
      type: "constant"
      value: 1
    }
    shift_filler {
      type: "constant"
      value: 0
    }
  }
}

layer {
  name: "conv1/relu_7x7"
  type: "ReLU"
  bottom: "conv1/7x7_s2/bn"
  top: "conv1/7x7_s2/bn"
}

layer {
  name: "pool1/3x3_s2"
  type: "Pooling"
  bottom: "conv1/7x7_s2/bn"
  top: "pool1/3x3_s2"
  pooling_param {
    pool: MAX
    kernel_size: 3
    stride: 2
    pad: 0
  }
}

layer {
  name: "conv2/3x3_reduce"
  type: "Convolution"
  bottom: "pool1/3x3_s2"
  top: "conv2/3x3_reduce"
  param {
    lr_mult: 0.25
    decay_mult: 1
  }
  convolution_param {
    num_output: 64
    bias_term: false
    pad: 0
    kernel_size: 1
    group: 1
    stride: 1
  }
}

layer {
  name: "conv2/3x3_reduce/bn"
  type: "BN"
  bottom: "conv2/3x3_reduce"
  top: "conv2/3x3_reduce/bn"
  param {
    lr_mult: 0.25
    decay_mult: 1
  }
  param {
    lr_mult: 0.5
    decay_mult: 0
  }
  bn_param {
    scale_filler {
      type: "constant"
      value: 1
    }
    shift_filler {
      type: "constant"
      value: 0
    }
  }
}

layer {
  name: "conv2/relu_3x3_reduce"
  type: "ReLU"
  bottom: "conv2/3x3_reduce/bn"
  top: "conv2/3x3_reduce/bn"
}

layer {
  name: "conv2/3x3"
  type: "Convolution"
  bottom: "conv2/3x3_reduce/bn"
  top: "conv2/3x3"
  param {
    lr_mult: 0.25
    decay_mult: 1
  }
  convolution_param {
    num_output: 192
    bias_term: false
    pad: 1
    kernel_size: 3
    group: 1
    stride: 1
  }
}

layer {
  name: "conv2/3x3/bn"
  type: "BN"
  bottom: "conv2/3x3"
  top: "conv2/3x3/bn"
  param {
    lr_mult: 0.25
    decay_mult: 1
  }
  param {
    lr_mult: 0.5
    decay_mult: 0
  }
  bn_param {
    scale_filler {
      type: "constant"
      value: 1
    }
    shift_filler {
      type: "constant"
      value: 0
    }
  }
}

layer {
  name: "conv2/relu_3x3"
  type: "ReLU"
  bottom: "conv2/3x3/bn"
  top: "conv2/3x3/bn"
}

layer {
  name: "pool2/3x3_s2"
  type: "Pooling"
  bottom: "conv2/3x3/bn"
  top: "pool2/3x3_s2"
  pooling_param {
    pool: MAX
    kernel_size: 3
    stride: 2
    pad: 0
  }
}

layer {
  name: "inception_3a/1x1"
  type: "Convolution"
  bottom: "pool2/3x3_s2"
  top: "inception_3a/1x1"
  param {
    lr_mult: 0.25
    decay_mult: 1
  }
  convolution_param {
    num_output: 64
    bias_term: false
    pad: 0
    kernel_size: 1
    group: 1
    stride: 1
  }
}

layer {
  name: "inception_3a/1x1/bn"
  type: "BN"
  bottom: "inception_3a/1x1"
  top: "inception_3a/1x1/bn"
  param {
    lr_mult: 0.25
    decay_mult: 1
  }
  param {
    lr_mult: 0.5
    decay_mult: 0
  }
  bn_param {
    scale_filler {
      type: "constant"
      value: 1
    }
    shift_filler {
      type: "constant"
      value: 0
    }
  }
}

layer {
  name: "inception_3a/relu_1x1"
  type: "ReLU"
  bottom: "inception_3a/1x1/bn"
  top: "inception_3a/1x1/bn"
}

layer {
  name: "inception_3a/3x3_reduce"
  type: "Convolution"
  bottom: "pool2/3x3_s2"
  top: "inception_3a/3x3_reduce"
  param {
    lr_mult: 0.25
    decay_mult: 1
  }
  convolution_param {
    num_output: 64
    bias_term: false
    pad: 0
    kernel_size: 1
    group: 1
    stride: 1
  }
}

layer {
  name: "inception_3a/3x3_reduce/bn"
  type: "BN"
  bottom: "inception_3a/3x3_reduce"
  top: "inception_3a/3x3_reduce/bn"
  param {
    lr_mult: 0.25
    decay_mult: 1
  }
  param {
    lr_mult: 0.5
    decay_mult: 0
  }
  bn_param {
    scale_filler {
      type: "constant"
      value: 1
    }
    shift_filler {
      type: "constant"
      value: 0
    }
  }
}

layer {
  name: "inception_3a/relu_3x3_reduce"
  type: "ReLU"
  bottom: "inception_3a/3x3_reduce/bn"
  top: "inception_3a/3x3_reduce/bn"
}

layer {
  name: "inception_3a/3x3"
  type: "Convolution"
  bottom: "inception_3a/3x3_reduce/bn"
  top: "inception_3a/3x3"
  param {
    lr_mult: 0.25
    decay_mult: 1
  }
  convolution_param {
    num_output: 64
    bias_term: false
    pad: 1
    kernel_size: 3
    group: 1
    stride: 1
  }
}

layer {
  name: "inception_3a/3x3/bn"
  type: "BN"
  bottom: "inception_3a/3x3"
  top: "inception_3a/3x3/bn"
  param {
    lr_mult: 0.25
    decay_mult: 1
  }
  param {
    lr_mult: 0.5
    decay_mult: 0
  }
  bn_param {
    scale_filler {
      type: "constant"
      value: 1
    }
    shift_filler {
      type: "constant"
      value: 0
    }
  }
}

layer {
  name: "inception_3a/relu_3x3"
  type: "ReLU"
  bottom: "inception_3a/3x3/bn"
  top: "inception_3a/3x3/bn"
}

layer {
  name: "inception_3a/double3x3_reduce"
  type: "Convolution"
  bottom: "pool2/3x3_s2"
  top: "inception_3a/double3x3_reduce"
  param {
    lr_mult: 0.25
    decay_mult: 1
  }
  convolution_param {
    num_output: 64
    bias_term: false
    pad: 0
    kernel_size: 1
    group: 1
    stride: 1
  }
}

layer {
  name: "inception_3a/double3x3_reduce/bn"
  type: "BN"
  bottom: "inception_3a/double3x3_reduce"
  top: "inception_3a/double3x3_reduce/bn"
  param {
    lr_mult: 0.25
    decay_mult: 1
  }
  param {
    lr_mult: 0.5
    decay_mult: 0
  }
  bn_param {
    scale_filler {
      type: "constant"
      value: 1
    }
    shift_filler {
      type: "constant"
      value: 0
    }
  }
}

layer {
  name: "inception_3a/relu_double3x3_reduce"
  type: "ReLU"
  bottom: "inception_3a/double3x3_reduce/bn"
  top: "inception_3a/double3x3_reduce/bn"
}

layer {
  name: "inception_3a/double3x3a"
  type: "Convolution"
  bottom: "inception_3a/double3x3_reduce/bn"
  top: "inception_3a/double3x3a"
  param {
    lr_mult: 0.25
    decay_mult: 1
  }
  convolution_param {
    num_output: 96
    bias_term: false
    pad: 1
    kernel_size: 3
    group: 1
    stride: 1
  }
}

layer {
  name: "inception_3a/double3x3a/bn"
  type: "BN"
  bottom: "inception_3a/double3x3a"
  top: "inception_3a/double3x3a/bn"
  param {
    lr_mult: 0.25
    decay_mult: 1
  }
  param {
    lr_mult: 0.5
    decay_mult: 0
  }
  bn_param {
    scale_filler {
      type: "constant"
      value: 1
    }
    shift_filler {
      type: "constant"
      value: 0
    }
  }
}

layer {
  name: "inception_3a/relu_double3x3a"
  type: "ReLU"
  bottom: "inception_3a/double3x3a/bn"
  top: "inception_3a/double3x3a/bn"
}

layer {
  name: "inception_3a/double3x3b"
  type: "Convolution"
  bottom: "inception_3a/double3x3a/bn"
  top: "inception_3a/double3x3b"
  param {
    lr_mult: 0.25
    decay_mult: 1
  }
  convolution_param {
    num_output: 96
    bias_term: false
    pad: 1
    kernel_size: 3
    group: 1
    stride: 1
  }
}

layer {
  name: "inception_3a/double3x3b/bn"
  type: "BN"
  bottom: "inception_3a/double3x3b"
  top: "inception_3a/double3x3b/bn"
  param {
    lr_mult: 0.25
    decay_mult: 1
  }
  param {
    lr_mult: 0.5
    decay_mult: 0
  }
  bn_param {
    scale_filler {
      type: "constant"
      value: 1
    }
    shift_filler {
      type: "constant"
      value: 0
    }
  }
}

layer {
  name: "inception_3a/relu_double3x3b"
  type: "ReLU"
  bottom: "inception_3a/double3x3b/bn"
  top: "inception_3a/double3x3b/bn"
}

layer {
  name: "inception_3a/pool"
  type: "Pooling"
  bottom: "pool2/3x3_s2"
  top: "inception_3a/pool"
  pooling_param {
    pool: AVE
    kernel_size: 3
    stride: 1
    pad: 1
  }
}

layer {
  name: "inception_3a/pool_proj"
  type: "Convolution"
  bottom: "inception_3a/pool"
  top: "inception_3a/pool_proj"
  param {
    lr_mult: 0.25
    decay_mult: 1
  }
  convolution_param {
    num_output: 32
    bias_term: false
    pad: 0
    kernel_size: 1
    group: 1
    stride: 1
  }
}

layer {
  name: "inception_3a/pool_proj/bn"
  type: "BN"
  bottom: "inception_3a/pool_proj"
  top: "inception_3a/pool_proj/bn"
  param {
    lr_mult: 0.25
    decay_mult: 1
  }
  param {
    lr_mult: 0.5
    decay_mult: 0
  }
  bn_param {
    scale_filler {
      type: "constant"
      value: 1
    }
    shift_filler {
      type: "constant"
      value: 0
    }
  }
}

layer {
  name: "inception_3a/relu_pool_proj"
  type: "ReLU"
  bottom: "inception_3a/pool_proj/bn"
  top: "inception_3a/pool_proj/bn"
}

layer {
  name: "inception_3a/output"
  type: "Concat"
  bottom: "inception_3a/1x1/bn"
  bottom: "inception_3a/3x3/bn"
  bottom: "inception_3a/double3x3b/bn"
  bottom: "inception_3a/pool_proj/bn"
  top: "inception_3a/output"
}

layer {
  name: "inception_3b/1x1"
  type: "Convolution"
  bottom: "inception_3a/output"
  top: "inception_3b/1x1"
  param {
    lr_mult: 0.25
    decay_mult: 1
  }
  convolution_param {
    num_output: 64
    bias_term: false
    pad: 0
    kernel_size: 1
    group: 1
    stride: 1
  }
}

layer {
  name: "inception_3b/1x1/bn"
  type: "BN"
  bottom: "inception_3b/1x1"
  top: "inception_3b/1x1/bn"
  param {
    lr_mult: 0.25
    decay_mult: 1
  }
  param {
    lr_mult: 0.5
    decay_mult: 0
  }
  bn_param {
    scale_filler {
      type: "constant"
      value: 1
    }
    shift_filler {
      type: "constant"
      value: 0
    }
  }
}

layer {
  name: "inception_3b/relu_1x1"
  type: "ReLU"
  bottom: "inception_3b/1x1/bn"
  top: "inception_3b/1x1/bn"
}

layer {
  name: "inception_3b/3x3_reduce"
  type: "Convolution"
  bottom: "inception_3a/output"
  top: "inception_3b/3x3_reduce"
  param {
    lr_mult: 0.25
    decay_mult: 1
  }
  convolution_param {
    num_output: 64
    bias_term: false
    pad: 0
    kernel_size: 1
    group: 1
    stride: 1
  }
}

layer {
  name: "inception_3b/3x3_reduce/bn"
  type: "BN"
  bottom: "inception_3b/3x3_reduce"
  top: "inception_3b/3x3_reduce/bn"
  param {
    lr_mult: 0.25
    decay_mult: 1
  }
  param {
    lr_mult: 0.5
    decay_mult: 0
  }
  bn_param {
    scale_filler {
      type: "constant"
      value: 1
    }
    shift_filler {
      type: "constant"
      value: 0
    }
  }
}

layer {
  name: "inception_3b/relu_3x3_reduce"
  type: "ReLU"
  bottom: "inception_3b/3x3_reduce/bn"
  top: "inception_3b/3x3_reduce/bn"
}

layer {
  name: "inception_3b/3x3"
  type: "Convolution"
  bottom: "inception_3b/3x3_reduce/bn"
  top: "inception_3b/3x3"
  param {
    lr_mult: 0.25
    decay_mult: 1
  }
  convolution_param {
    num_output: 96
    bias_term: false
    pad: 1
    kernel_size: 3
    group: 1
    stride: 1
  }
}

layer {
  name: "inception_3b/3x3/bn"
  type: "BN"
  bottom: "inception_3b/3x3"
  top: "inception_3b/3x3/bn"
  param {
    lr_mult: 0.25
    decay_mult: 1
  }
  param {
    lr_mult: 0.5
    decay_mult: 0
  }
  bn_param {
    scale_filler {
      type: "constant"
      value: 1
    }
    shift_filler {
      type: "constant"
      value: 0
    }
  }
}

layer {
  name: "inception_3b/relu_3x3"
  type: "ReLU"
  bottom: "inception_3b/3x3/bn"
  top: "inception_3b/3x3/bn"
}

layer {
  name: "inception_3b/double3x3_reduce"
  type: "Convolution"
  bottom: "inception_3a/output"
  top: "inception_3b/double3x3_reduce"
  param {
    lr_mult: 0.25
    decay_mult: 1
  }
  convolution_param {
    num_output: 64
    bias_term: false
    pad: 0
    kernel_size: 1
    group: 1
    stride: 1
  }
}

layer {
  name: "inception_3b/double3x3_reduce/bn"
  type: "BN"
  bottom: "inception_3b/double3x3_reduce"
  top: "inception_3b/double3x3_reduce/bn"
  param {
    lr_mult: 0.25
    decay_mult: 1
  }
  param {
    lr_mult: 0.5
    decay_mult: 0
  }
  bn_param {
    scale_filler {
      type: "constant"
      value: 1
    }
    shift_filler {
      type: "constant"
      value: 0
    }
  }
}

layer {
  name: "inception_3b/relu_double3x3_reduce"
  type: "ReLU"
  bottom: "inception_3b/double3x3_reduce/bn"
  top: "inception_3b/double3x3_reduce/bn"
}

layer {
  name: "inception_3b/double3x3a"
  type: "Convolution"
  bottom: "inception_3b/double3x3_reduce/bn"
  top: "inception_3b/double3x3a"
  param {
    lr_mult: 0.25
    decay_mult: 1
  }
  convolution_param {
    num_output: 96
    bias_term: false
    pad: 1
    kernel_size: 3
    group: 1
    stride: 1
  }
}

layer {
  name: "inception_3b/double3x3a/bn"
  type: "BN"
  bottom: "inception_3b/double3x3a"
  top: "inception_3b/double3x3a/bn"
  param {
    lr_mult: 0.25
    decay_mult: 1
  }
  param {
    lr_mult: 0.5
    decay_mult: 0
  }
  bn_param {
    scale_filler {
      type: "constant"
      value: 1
    }
    shift_filler {
      type: "constant"
      value: 0
    }
  }
}

layer {
  name: "inception_3b/relu_double3x3a"
  type: "ReLU"
  bottom: "inception_3b/double3x3a/bn"
  top: "inception_3b/double3x3a/bn"
}

layer {
  name: "inception_3b/double3x3b"
  type: "Convolution"
  bottom: "inception_3b/double3x3a/bn"
  top: "inception_3b/double3x3b"
  param {
    lr_mult: 0.25
    decay_mult: 1
  }
  convolution_param {
    num_output: 96
    bias_term: false
    pad: 1
    kernel_size: 3
    group: 1
    stride: 1
  }
}

layer {
  name: "inception_3b/double3x3b/bn"
  type: "BN"
  bottom: "inception_3b/double3x3b"
  top: "inception_3b/double3x3b/bn"
  param {
    lr_mult: 0.25
    decay_mult: 1
  }
  param {
    lr_mult: 0.5
    decay_mult: 0
  }
  bn_param {
    scale_filler {
      type: "constant"
      value: 1
    }
    shift_filler {
      type: "constant"
      value: 0
    }
  }
}

layer {
  name: "inception_3b/relu_double3x3b"
  type: "ReLU"
  bottom: "inception_3b/double3x3b/bn"
  top: "inception_3b/double3x3b/bn"
}

layer {
  name: "inception_3b/pool"
  type: "Pooling"
  bottom: "inception_3a/output"
  top: "inception_3b/pool"
  pooling_param {
    pool: AVE
    kernel_size: 3
    stride: 1
    pad: 1
  }
}

layer {
  name: "inception_3b/pool_proj"
  type: "Convolution"
  bottom: "inception_3b/pool"
  top: "inception_3b/pool_proj"
  param {
    lr_mult: 0.25
    decay_mult: 1
  }
  convolution_param {
    num_output: 64
    bias_term: false
    pad: 0
    kernel_size: 1
    group: 1
    stride: 1
  }
}

layer {
  name: "inception_3b/pool_proj/bn"
  type: "BN"
  bottom: "inception_3b/pool_proj"
  top: "inception_3b/pool_proj/bn"
  param {
    lr_mult: 0.25
    decay_mult: 1
  }
  param {
    lr_mult: 0.5
    decay_mult: 0
  }
  bn_param {
    scale_filler {
      type: "constant"
      value: 1
    }
    shift_filler {
      type: "constant"
      value: 0
    }
  }
}

layer {
  name: "inception_3b/relu_pool_proj"
  type: "ReLU"
  bottom: "inception_3b/pool_proj/bn"
  top: "inception_3b/pool_proj/bn"
}

layer {
  name: "inception_3b/output"
  type: "Concat"
  bottom: "inception_3b/1x1/bn"
  bottom: "inception_3b/3x3/bn"
  bottom: "inception_3b/double3x3b/bn"
  bottom: "inception_3b/pool_proj/bn"
  top: "inception_3b/output"
}

layer {
  name: "inception_3c/3x3_reduce"
  type: "Convolution"
  bottom: "inception_3b/output"
  top: "inception_3c/3x3_reduce"
  param {
    lr_mult: 0.25
    decay_mult: 1
  }
  convolution_param {
    num_output: 128
    bias_term: false
    pad: 0
    kernel_size: 1
    group: 1
    stride: 1
  }
}

layer {
  name: "inception_3c/3x3_reduce/bn"
  type: "BN"
  bottom: "inception_3c/3x3_reduce"
  top: "inception_3c/3x3_reduce/bn"
  param {
    lr_mult: 0.25
    decay_mult: 1
  }
  param {
    lr_mult: 0.5
    decay_mult: 0
  }
  bn_param {
    scale_filler {
      type: "constant"
      value: 1
    }
    shift_filler {
      type: "constant"
      value: 0
    }
  }
}

layer {
  name: "inception_3c/relu_3x3_reduce"
  type: "ReLU"
  bottom: "inception_3c/3x3_reduce/bn"
  top: "inception_3c/3x3_reduce/bn"
}

layer {
  name: "inception_3c/3x3"
  type: "Convolution"
  bottom: "inception_3c/3x3_reduce/bn"
  top: "inception_3c/3x3"
  param {
    lr_mult: 0.25
    decay_mult: 1
  }
  convolution_param {
    num_output: 160
    bias_term: false
    pad: 1
    kernel_size: 3
    group: 1
    stride: 2
  }
}

layer {
  name: "inception_3c/3x3/bn"
  type: "BN"
  bottom: "inception_3c/3x3"
  top: "inception_3c/3x3/bn"
  param {
    lr_mult: 0.25
    decay_mult: 1
  }
  param {
    lr_mult: 0.5
    decay_mult: 0
  }
  bn_param {
    scale_filler {
      type: "constant"
      value: 1
    }
    shift_filler {
      type: "constant"
      value: 0
    }
  }
}

layer {
  name: "inception_3c/relu_3x3"
  type: "ReLU"
  bottom: "inception_3c/3x3/bn"
  top: "inception_3c/3x3/bn"
}

layer {
  name: "inception_3c/double3x3_reduce"
  type: "Convolution"
  bottom: "inception_3b/output"
  top: "inception_3c/double3x3_reduce"
  param {
    lr_mult: 0.25
    decay_mult: 1
  }
  convolution_param {
    num_output: 64
    bias_term: false
    pad: 0
    kernel_size: 1
    group: 1
    stride: 1
  }
}

layer {
  name: "inception_3c/double3x3_reduce/bn"
  type: "BN"
  bottom: "inception_3c/double3x3_reduce"
  top: "inception_3c/double3x3_reduce/bn"
  param {
    lr_mult: 0.25
    decay_mult: 1
  }
  param {
    lr_mult: 0.5
    decay_mult: 0
  }
  bn_param {
    scale_filler {
      type: "constant"
      value: 1
    }
    shift_filler {
      type: "constant"
      value: 0
    }
  }
}

layer {
  name: "inception_3c/relu_double3x3_reduce"
  type: "ReLU"
  bottom: "inception_3c/double3x3_reduce/bn"
  top: "inception_3c/double3x3_reduce/bn"
}

layer {
  name: "inception_3c/double3x3a"
  type: "Convolution"
  bottom: "inception_3c/double3x3_reduce/bn"
  top: "inception_3c/double3x3a"
  param {
    lr_mult: 0.25
    decay_mult: 1
  }
  convolution_param {
    num_output: 96
    bias_term: false
    pad: 1
    kernel_size: 3
    group: 1
    stride: 1
  }
}

layer {
  name: "inception_3c/double3x3a/bn"
  type: "BN"
  bottom: "inception_3c/double3x3a"
  top: "inception_3c/double3x3a/bn"
  param {
    lr_mult: 0.25
    decay_mult: 1
  }
  param {
    lr_mult: 0.5
    decay_mult: 0
  }
  bn_param {
    scale_filler {
      type: "constant"
      value: 1
    }
    shift_filler {
      type: "constant"
      value: 0
    }
  }
}

layer {
  name: "inception_3c/relu_double3x3a"
  type: "ReLU"
  bottom: "inception_3c/double3x3a/bn"
  top: "inception_3c/double3x3a/bn"
}

layer {
  name: "inception_3c/double3x3b"
  type: "Convolution"
  bottom: "inception_3c/double3x3a/bn"
  top: "inception_3c/double3x3b"
  param {
    lr_mult: 0.25
    decay_mult: 1
  }
  convolution_param {
    num_output: 96
    bias_term: false
    pad: 1
    kernel_size: 3
    group: 1
    stride: 2
  }
}

layer {
  name: "inception_3c/double3x3b/bn"
  type: "BN"
  bottom: "inception_3c/double3x3b"
  top: "inception_3c/double3x3b/bn"
  param {
    lr_mult: 0.25
    decay_mult: 1
  }
  param {
    lr_mult: 0.5
    decay_mult: 0
  }
  bn_param {
    scale_filler {
      type: "constant"
      value: 1
    }
    shift_filler {
      type: "constant"
      value: 0
    }
  }
}

layer {
  name: "inception_3c/relu_double3x3b"
  type: "ReLU"
  bottom: "inception_3c/double3x3b/bn"
  top: "inception_3c/double3x3b/bn"
}

layer {
  name: "inception_3c/pool/3x3_s2"
  type: "Pooling"
  bottom: "inception_3b/output"
  top: "inception_3c/pool/3x3_s2"
  pooling_param {
    pool: MAX
    kernel_size: 3
    stride: 2
    pad: 0
  }
}

layer {
  name: "inception_3c/output"
  type: "Concat"
  bottom: "inception_3c/3x3/bn"
  bottom: "inception_3c/double3x3b/bn"
  bottom: "inception_3c/pool/3x3_s2"
  top: "inception_3c/output"
}

layer {
  name: "inception_4a/1x1"
  type: "Convolution"
  bottom: "inception_3c/output"
  top: "inception_4a/1x1"
  param {
    lr_mult: 0.25
    decay_mult: 1
  }
  convolution_param {
    num_output: 224
    bias_term: false
    pad: 0
    kernel_size: 1
    group: 1
    stride: 1
  }
}

layer {
  name: "inception_4a/1x1/bn"
  type: "BN"
  bottom: "inception_4a/1x1"
  top: "inception_4a/1x1/bn"
  param {
    lr_mult: 0.25
    decay_mult: 1
  }
  param {
    lr_mult: 0.5
    decay_mult: 0
  }
  bn_param {
    scale_filler {
      type: "constant"
      value: 1
    }
    shift_filler {
      type: "constant"
      value: 0
    }
  }
}

layer {
  name: "inception_4a/relu_1x1"
  type: "ReLU"
  bottom: "inception_4a/1x1/bn"
  top: "inception_4a/1x1/bn"
}

layer {
  name: "inception_4a/3x3_reduce"
  type: "Convolution"
  bottom: "inception_3c/output"
  top: "inception_4a/3x3_reduce"
  param {
    lr_mult: 0.25
    decay_mult: 1
  }
  convolution_param {
    num_output: 64
    bias_term: false
    pad: 0
    kernel_size: 1
    group: 1
    stride: 1
  }
}

layer {
  name: "inception_4a/3x3_reduce/bn"
  type: "BN"
  bottom: "inception_4a/3x3_reduce"
  top: "inception_4a/3x3_reduce/bn"
  param {
    lr_mult: 0.25
    decay_mult: 1
  }
  param {
    lr_mult: 0.5
    decay_mult: 0
  }
  bn_param {
    scale_filler {
      type: "constant"
      value: 1
    }
    shift_filler {
      type: "constant"
      value: 0
    }
  }
}

layer {
  name: "inception_4a/relu_3x3_reduce"
  type: "ReLU"
  bottom: "inception_4a/3x3_reduce/bn"
  top: "inception_4a/3x3_reduce/bn"
}

layer {
  name: "inception_4a/3x3"
  type: "Convolution"
  bottom: "inception_4a/3x3_reduce/bn"
  top: "inception_4a/3x3"
  param {
    lr_mult: 0.25
    decay_mult: 1
  }
  convolution_param {
    num_output: 96
    bias_term: false
    pad: 1
    kernel_size: 3
    group: 1
    stride: 1
  }
}

layer {
  name: "inception_4a/3x3/bn"
  type: "BN"
  bottom: "inception_4a/3x3"
  top: "inception_4a/3x3/bn"
  param {
    lr_mult: 0.25
    decay_mult: 1
  }
  param {
    lr_mult: 0.5
    decay_mult: 0
  }
  bn_param {
    scale_filler {
      type: "constant"
      value: 1
    }
    shift_filler {
      type: "constant"
      value: 0
    }
  }
}

layer {
  name: "inception_4a/relu_3x3"
  type: "ReLU"
  bottom: "inception_4a/3x3/bn"
  top: "inception_4a/3x3/bn"
}

layer {
  name: "inception_4a/double3x3_reduce"
  type: "Convolution"
  bottom: "inception_3c/output"
  top: "inception_4a/double3x3_reduce"
  param {
    lr_mult: 0.25
    decay_mult: 1
  }
  convolution_param {
    num_output: 96
    bias_term: false
    pad: 0
    kernel_size: 1
    group: 1
    stride: 1
  }
}

layer {
  name: "inception_4a/double3x3_reduce/bn"
  type: "BN"
  bottom: "inception_4a/double3x3_reduce"
  top: "inception_4a/double3x3_reduce/bn"
  param {
    lr_mult: 0.25
    decay_mult: 1
  }
  param {
    lr_mult: 0.5
    decay_mult: 0
  }
  bn_param {
    scale_filler {
      type: "constant"
      value: 1
    }
    shift_filler {
      type: "constant"
      value: 0
    }
  }
}

layer {
  name: "inception_4a/relu_double3x3_reduce"
  type: "ReLU"
  bottom: "inception_4a/double3x3_reduce/bn"
  top: "inception_4a/double3x3_reduce/bn"
}

layer {
  name: "inception_4a/double3x3a"
  type: "Convolution"
  bottom: "inception_4a/double3x3_reduce/bn"
  top: "inception_4a/double3x3a"
  param {
    lr_mult: 0.25
    decay_mult: 1
  }
  convolution_param {
    num_output: 128
    bias_term: false
    pad: 1
    kernel_size: 3
    group: 1
    stride: 1
  }
}

layer {
  name: "inception_4a/double3x3a/bn"
  type: "BN"
  bottom: "inception_4a/double3x3a"
  top: "inception_4a/double3x3a/bn"
  param {
    lr_mult: 0.25
    decay_mult: 1
  }
  param {
    lr_mult: 0.5
    decay_mult: 0
  }
  bn_param {
    scale_filler {
      type: "constant"
      value: 1
    }
    shift_filler {
      type: "constant"
      value: 0
    }
  }
}

layer {
  name: "inception_4a/relu_double3x3a"
  type: "ReLU"
  bottom: "inception_4a/double3x3a/bn"
  top: "inception_4a/double3x3a/bn"
}

layer {
  name: "inception_4a/double3x3b"
  type: "Convolution"
  bottom: "inception_4a/double3x3a/bn"
  top: "inception_4a/double3x3b"
  param {
    lr_mult: 0.25
    decay_mult: 1
  }
  convolution_param {
    num_output: 128
    bias_term: false
    pad: 1
    kernel_size: 3
    group: 1
    stride: 1
  }
}

layer {
  name: "inception_4a/double3x3b/bn"
  type: "BN"
  bottom: "inception_4a/double3x3b"
  top: "inception_4a/double3x3b/bn"
  param {
    lr_mult: 0.25
    decay_mult: 1
  }
  param {
    lr_mult: 0.5
    decay_mult: 0
  }
  bn_param {
    scale_filler {
      type: "constant"
      value: 1
    }
    shift_filler {
      type: "constant"
      value: 0
    }
  }
}

layer {
  name: "inception_4a/relu_double3x3b"
  type: "ReLU"
  bottom: "inception_4a/double3x3b/bn"
  top: "inception_4a/double3x3b/bn"
}

layer {
  name: "inception_4a/pool"
  type: "Pooling"
  bottom: "inception_3c/output"
  top: "inception_4a/pool"
  pooling_param {
    pool: AVE
    kernel_size: 3
    stride: 1
    pad: 1
  }
}

layer {
  name: "inception_4a/pool_proj"
  type: "Convolution"
  bottom: "inception_4a/pool"
  top: "inception_4a/pool_proj"
  param {
    lr_mult: 0.25
    decay_mult: 1
  }
  convolution_param {
    num_output: 128
    bias_term: false
    pad: 0
    kernel_size: 1
    group: 1
    stride: 1
  }
}

layer {
  name: "inception_4a/pool_proj/bn"
  type: "BN"
  bottom: "inception_4a/pool_proj"
  top: "inception_4a/pool_proj/bn"
  param {
    lr_mult: 0.25
    decay_mult: 1
  }
  param {
    lr_mult: 0.5
    decay_mult: 0
  }
  bn_param {
    scale_filler {
      type: "constant"
      value: 1
    }
    shift_filler {
      type: "constant"
      value: 0
    }
  }
}

layer {
  name: "inception_4a/relu_pool_proj"
  type: "ReLU"
  bottom: "inception_4a/pool_proj/bn"
  top: "inception_4a/pool_proj/bn"
}

layer {
  name: "inception_4a/output"
  type: "Concat"
  bottom: "inception_4a/1x1/bn"
  bottom: "inception_4a/3x3/bn"
  bottom: "inception_4a/double3x3b/bn"
  bottom: "inception_4a/pool_proj/bn"
  top: "inception_4a/output"
}

layer {
  name: "inception_4b/1x1"
  type: "Convolution"
  bottom: "inception_4a/output"
  top: "inception_4b/1x1"
  param {
    lr_mult: 0.25
    decay_mult: 1
  }
  convolution_param {
    num_output: 192
    bias_term: false
    pad: 0
    kernel_size: 1
    group: 1
    stride: 1
  }
}

layer {
  name: "inception_4b/1x1/bn"
  type: "BN"
  bottom: "inception_4b/1x1"
  top: "inception_4b/1x1/bn"
  param {
    lr_mult: 0.25
    decay_mult: 1
  }
  param {
    lr_mult: 0.5
    decay_mult: 0
  }
  bn_param {
    scale_filler {
      type: "constant"
      value: 1
    }
    shift_filler {
      type: "constant"
      value: 0
    }
  }
}

layer {
  name: "inception_4b/relu_1x1"
  type: "ReLU"
  bottom: "inception_4b/1x1/bn"
  top: "inception_4b/1x1/bn"
}

layer {
  name: "inception_4b/3x3_reduce"
  type: "Convolution"
  bottom: "inception_4a/output"
  top: "inception_4b/3x3_reduce"
  param {
    lr_mult: 0.25
    decay_mult: 1
  }
  convolution_param {
    num_output: 96
    bias_term: false
    pad: 0
    kernel_size: 1
    group: 1
    stride: 1
  }
}

layer {
  name: "inception_4b/3x3_reduce/bn"
  type: "BN"
  bottom: "inception_4b/3x3_reduce"
  top: "inception_4b/3x3_reduce/bn"
  param {
    lr_mult: 0.25
    decay_mult: 1
  }
  param {
    lr_mult: 0.5
    decay_mult: 0
  }
  bn_param {
    scale_filler {
      type: "constant"
      value: 1
    }
    shift_filler {
      type: "constant"
      value: 0
    }
  }
}

layer {
  name: "inception_4b/relu_3x3_reduce"
  type: "ReLU"
  bottom: "inception_4b/3x3_reduce/bn"
  top: "inception_4b/3x3_reduce/bn"
}

layer {
  name: "inception_4b/3x3"
  type: "Convolution"
  bottom: "inception_4b/3x3_reduce/bn"
  top: "inception_4b/3x3"
  param {
    lr_mult: 0.25
    decay_mult: 1
  }
  convolution_param {
    num_output: 128
    bias_term: false
    pad: 1
    kernel_size: 3
    group: 1
    stride: 1
  }
}

layer {
  name: "inception_4b/3x3/bn"
  type: "BN"
  bottom: "inception_4b/3x3"
  top: "inception_4b/3x3/bn"
  param {
    lr_mult: 0.25
    decay_mult: 1
  }
  param {
    lr_mult: 0.5
    decay_mult: 0
  }
  bn_param {
    scale_filler {
      type: "constant"
      value: 1
    }
    shift_filler {
      type: "constant"
      value: 0
    }
  }
}

layer {
  name: "inception_4b/relu_3x3"
  type: "ReLU"
  bottom: "inception_4b/3x3/bn"
  top: "inception_4b/3x3/bn"
}

layer {
  name: "inception_4b/double3x3_reduce"
  type: "Convolution"
  bottom: "inception_4a/output"
  top: "inception_4b/double3x3_reduce"
  param {
    lr_mult: 0.25
    decay_mult: 1
  }
  convolution_param {
    num_output: 96
    bias_term: false
    pad: 0
    kernel_size: 1
    group: 1
    stride: 1
  }
}

layer {
  name: "inception_4b/double3x3_reduce/bn"
  type: "BN"
  bottom: "inception_4b/double3x3_reduce"
  top: "inception_4b/double3x3_reduce/bn"
  param {
    lr_mult: 0.25
    decay_mult: 1
  }
  param {
    lr_mult: 0.5
    decay_mult: 0
  }
  bn_param {
    scale_filler {
      type: "constant"
      value: 1
    }
    shift_filler {
      type: "constant"
      value: 0
    }
  }
}

layer {
  name: "inception_4b/relu_double3x3_reduce"
  type: "ReLU"
  bottom: "inception_4b/double3x3_reduce/bn"
  top: "inception_4b/double3x3_reduce/bn"
}

layer {
  name: "inception_4b/double3x3a"
  type: "Convolution"
  bottom: "inception_4b/double3x3_reduce/bn"
  top: "inception_4b/double3x3a"
  param {
    lr_mult: 0.25
    decay_mult: 1
  }
  convolution_param {
    num_output: 128
    bias_term: false
    pad: 1
    kernel_size: 3
    group: 1
    stride: 1
  }
}

layer {
  name: "inception_4b/double3x3a/bn"
  type: "BN"
  bottom: "inception_4b/double3x3a"
  top: "inception_4b/double3x3a/bn"
  param {
    lr_mult: 0.25
    decay_mult: 1
  }
  param {
    lr_mult: 0.5
    decay_mult: 0
  }
  bn_param {
    scale_filler {
      type: "constant"
      value: 1
    }
    shift_filler {
      type: "constant"
      value: 0
    }
  }
}

layer {
  name: "inception_4b/relu_double3x3a"
  type: "ReLU"
  bottom: "inception_4b/double3x3a/bn"
  top: "inception_4b/double3x3a/bn"
}

layer {
  name: "inception_4b/double3x3b"
  type: "Convolution"
  bottom: "inception_4b/double3x3a/bn"
  top: "inception_4b/double3x3b"
  param {
    lr_mult: 0.25
    decay_mult: 1
  }
  convolution_param {
    num_output: 128
    bias_term: false
    pad: 1
    kernel_size: 3
    group: 1
    stride: 1
  }
}

layer {
  name: "inception_4b/double3x3b/bn"
  type: "BN"
  bottom: "inception_4b/double3x3b"
  top: "inception_4b/double3x3b/bn"
  param {
    lr_mult: 0.25
    decay_mult: 1
  }
  param {
    lr_mult: 0.5
    decay_mult: 0
  }
  bn_param {
    scale_filler {
      type: "constant"
      value: 1
    }
    shift_filler {
      type: "constant"
      value: 0
    }
  }
}

layer {
  name: "inception_4b/relu_double3x3b"
  type: "ReLU"
  bottom: "inception_4b/double3x3b/bn"
  top: "inception_4b/double3x3b/bn"
}

layer {
  name: "inception_4b/pool"
  type: "Pooling"
  bottom: "inception_4a/output"
  top: "inception_4b/pool"
  pooling_param {
    pool: AVE
    kernel_size: 3
    stride: 1
    pad: 1
  }
}

layer {
  name: "inception_4b/pool_proj"
  type: "Convolution"
  bottom: "inception_4b/pool"
  top: "inception_4b/pool_proj"
  param {
    lr_mult: 0.25
    decay_mult: 1
  }
  convolution_param {
    num_output: 128
    bias_term: false
    pad: 0
    kernel_size: 1
    group: 1
    stride: 1
  }
}

layer {
  name: "inception_4b/pool_proj/bn"
  type: "BN"
  bottom: "inception_4b/pool_proj"
  top: "inception_4b/pool_proj/bn"
  param {
    lr_mult: 0.25
    decay_mult: 1
  }
  param {
    lr_mult: 0.5
    decay_mult: 0
  }
  bn_param {
    scale_filler {
      type: "constant"
      value: 1
    }
    shift_filler {
      type: "constant"
      value: 0
    }
  }
}

layer {
  name: "inception_4b/relu_pool_proj"
  type: "ReLU"
  bottom: "inception_4b/pool_proj/bn"
  top: "inception_4b/pool_proj/bn"
}

layer {
  name: "inception_4b/output"
  type: "Concat"
  bottom: "inception_4b/1x1/bn"
  bottom: "inception_4b/3x3/bn"
  bottom: "inception_4b/double3x3b/bn"
  bottom: "inception_4b/pool_proj/bn"
  top: "inception_4b/output"
}

layer {
  name: "inception_4c/1x1"
  type: "Convolution"
  bottom: "inception_4b/output"
  top: "inception_4c/1x1"
  param {
    lr_mult: 0.25
    decay_mult: 1
  }
  convolution_param {
    num_output: 160
    bias_term: false
    pad: 0
    kernel_size: 1
    group: 1
    stride: 1
  }
}

layer {
  name: "inception_4c/1x1/bn"
  type: "BN"
  bottom: "inception_4c/1x1"
  top: "inception_4c/1x1/bn"
  param {
    lr_mult: 0.25
    decay_mult: 1
  }
  param {
    lr_mult: 0.5
    decay_mult: 0
  }
  bn_param {
    scale_filler {
      type: "constant"
      value: 1
    }
    shift_filler {
      type: "constant"
      value: 0
    }
  }
}

layer {
  name: "inception_4c/relu_1x1"
  type: "ReLU"
  bottom: "inception_4c/1x1/bn"
  top: "inception_4c/1x1/bn"
}

layer {
  name: "inception_4c/3x3_reduce"
  type: "Convolution"
  bottom: "inception_4b/output"
  top: "inception_4c/3x3_reduce"
  param {
    lr_mult: 0.25
    decay_mult: 1
  }
  convolution_param {
    num_output: 128
    bias_term: false
    pad: 0
    kernel_size: 1
    group: 1
    stride: 1
  }
}

layer {
  name: "inception_4c/3x3_reduce/bn"
  type: "BN"
  bottom: "inception_4c/3x3_reduce"
  top: "inception_4c/3x3_reduce/bn"
  param {
    lr_mult: 0.25
    decay_mult: 1
  }
  param {
    lr_mult: 0.5
    decay_mult: 0
  }
  bn_param {
    scale_filler {
      type: "constant"
      value: 1
    }
    shift_filler {
      type: "constant"
      value: 0
    }
  }
}

layer {
  name: "inception_4c/relu_3x3_reduce"
  type: "ReLU"
  bottom: "inception_4c/3x3_reduce/bn"
  top: "inception_4c/3x3_reduce/bn"
}

layer {
  name: "inception_4c/3x3"
  type: "Convolution"
  bottom: "inception_4c/3x3_reduce/bn"
  top: "inception_4c/3x3"
  param {
    lr_mult: 0.25
    decay_mult: 1
  }
  convolution_param {
    num_output: 160
    bias_term: false
    pad: 1
    kernel_size: 3
    group: 1
    stride: 1
  }
}

layer {
  name: "inception_4c/3x3/bn"
  type: "BN"
  bottom: "inception_4c/3x3"
  top: "inception_4c/3x3/bn"
  param {
    lr_mult: 0.25
    decay_mult: 1
  }
  param {
    lr_mult: 0.5
    decay_mult: 0
  }
  bn_param {
    scale_filler {
      type: "constant"
      value: 1
    }
    shift_filler {
      type: "constant"
      value: 0
    }
  }
}

layer {
  name: "inception_4c/relu_3x3"
  type: "ReLU"
  bottom: "inception_4c/3x3/bn"
  top: "inception_4c/3x3/bn"
}

layer {
  name: "inception_4c/double3x3_reduce"
  type: "Convolution"
  bottom: "inception_4b/output"
  top: "inception_4c/double3x3_reduce"
  param {
    lr_mult: 0.25
    decay_mult: 1
  }
  convolution_param {
    num_output: 128
    bias_term: false
    pad: 0
    kernel_size: 1
    group: 1
    stride: 1
  }
}

layer {
  name: "inception_4c/double3x3_reduce/bn"
  type: "BN"
  bottom: "inception_4c/double3x3_reduce"
  top: "inception_4c/double3x3_reduce/bn"
  param {
    lr_mult: 0.25
    decay_mult: 1
  }
  param {
    lr_mult: 0.5
    decay_mult: 0
  }
  bn_param {
    scale_filler {
      type: "constant"
      value: 1
    }
    shift_filler {
      type: "constant"
      value: 0
    }
  }
}

layer {
  name: "inception_4c/relu_double3x3_reduce"
  type: "ReLU"
  bottom: "inception_4c/double3x3_reduce/bn"
  top: "inception_4c/double3x3_reduce/bn"
}

layer {
  name: "inception_4c/double3x3a"
  type: "Convolution"
  bottom: "inception_4c/double3x3_reduce/bn"
  top: "inception_4c/double3x3a"
  param {
    lr_mult: 0.25
    decay_mult: 1
  }
  convolution_param {
    num_output: 160
    bias_term: false
    pad: 1
    kernel_size: 3
    group: 1
    stride: 1
  }
}

layer {
  name: "inception_4c/double3x3a/bn"
  type: "BN"
  bottom: "inception_4c/double3x3a"
  top: "inception_4c/double3x3a/bn"
  param {
    lr_mult: 0.25
    decay_mult: 1
  }
  param {
    lr_mult: 0.5
    decay_mult: 0
  }
  bn_param {
    scale_filler {
      type: "constant"
      value: 1
    }
    shift_filler {
      type: "constant"
      value: 0
    }
  }
}

layer {
  name: "inception_4c/relu_double3x3a"
  type: "ReLU"
  bottom: "inception_4c/double3x3a/bn"
  top: "inception_4c/double3x3a/bn"
}

layer {
  name: "inception_4c/double3x3b"
  type: "Convolution"
  bottom: "inception_4c/double3x3a/bn"
  top: "inception_4c/double3x3b"
  param {
    lr_mult: 0.25
    decay_mult: 1
  }
  convolution_param {
    num_output: 160
    bias_term: false
    pad: 1
    kernel_size: 3
    group: 1
    stride: 1
  }
}

layer {
  name: "inception_4c/double3x3b/bn"
  type: "BN"
  bottom: "inception_4c/double3x3b"
  top: "inception_4c/double3x3b/bn"
  param {
    lr_mult: 0.25
    decay_mult: 1
  }
  param {
    lr_mult: 0.5
    decay_mult: 0
  }
  bn_param {
    scale_filler {
      type: "constant"
      value: 1
    }
    shift_filler {
      type: "constant"
      value: 0
    }
  }
}

layer {
  name: "inception_4c/relu_double3x3b"
  type: "ReLU"
  bottom: "inception_4c/double3x3b/bn"
  top: "inception_4c/double3x3b/bn"
}

layer {
  name: "inception_4c/pool"
  type: "Pooling"
  bottom: "inception_4b/output"
  top: "inception_4c/pool"
  pooling_param {
    pool: AVE
    kernel_size: 3
    stride: 1
    pad: 1
  }
}

layer {
  name: "inception_4c/pool_proj"
  type: "Convolution"
  bottom: "inception_4c/pool"
  top: "inception_4c/pool_proj"
  param {
    lr_mult: 0.25
    decay_mult: 1
  }
  convolution_param {
    num_output: 128
    bias_term: false
    pad: 0
    kernel_size: 1
    group: 1
    stride: 1
  }
}

layer {
  name: "inception_4c/pool_proj/bn"
  type: "BN"
  bottom: "inception_4c/pool_proj"
  top: "inception_4c/pool_proj/bn"
  param {
    lr_mult: 0.25
    decay_mult: 1
  }
  param {
    lr_mult: 0.5
    decay_mult: 0
  }
  bn_param {
    scale_filler {
      type: "constant"
      value: 1
    }
    shift_filler {
      type: "constant"
      value: 0
    }
  }
}

layer {
  name: "inception_4c/relu_pool_proj"
  type: "ReLU"
  bottom: "inception_4c/pool_proj/bn"
  top: "inception_4c/pool_proj/bn"
}

layer {
  name: "inception_4c/output"
  type: "Concat"
  bottom: "inception_4c/1x1/bn"
  bottom: "inception_4c/3x3/bn"
  bottom: "inception_4c/double3x3b/bn"
  bottom: "inception_4c/pool_proj/bn"
  top: "inception_4c/output"
}

layer {
  name: "inception_4d/1x1"
  type: "Convolution"
  bottom: "inception_4c/output"
  top: "inception_4d/1x1"
  param {
    lr_mult: 0.25
    decay_mult: 1
  }
  convolution_param {
    num_output: 96
    bias_term: false
    pad: 0
    kernel_size: 1
    group: 1
    stride: 1
  }
}

layer {
  name: "inception_4d/1x1/bn"
  type: "BN"
  bottom: "inception_4d/1x1"
  top: "inception_4d/1x1/bn"
  param {
    lr_mult: 0.25
    decay_mult: 1
  }
  param {
    lr_mult: 0.5
    decay_mult: 0
  }
  bn_param {
    scale_filler {
      type: "constant"
      value: 1
    }
    shift_filler {
      type: "constant"
      value: 0
    }
  }
}

layer {
  name: "inception_4d/relu_1x1"
  type: "ReLU"
  bottom: "inception_4d/1x1/bn"
  top: "inception_4d/1x1/bn"
}

layer {
  name: "inception_4d/3x3_reduce"
  type: "Convolution"
  bottom: "inception_4c/output"
  top: "inception_4d/3x3_reduce"
  param {
    lr_mult: 0.25
    decay_mult: 1
  }
  convolution_param {
    num_output: 128
    bias_term: false
    pad: 0
    kernel_size: 1
    group: 1
    stride: 1
  }
}

layer {
  name: "inception_4d/3x3_reduce/bn"
  type: "BN"
  bottom: "inception_4d/3x3_reduce"
  top: "inception_4d/3x3_reduce/bn"
  param {
    lr_mult: 0.25
    decay_mult: 1
  }
  param {
    lr_mult: 0.5
    decay_mult: 0
  }
  bn_param {
    scale_filler {
      type: "constant"
      value: 1
    }
    shift_filler {
      type: "constant"
      value: 0
    }
  }
}

layer {
  name: "inception_4d/relu_3x3_reduce"
  type: "ReLU"
  bottom: "inception_4d/3x3_reduce/bn"
  top: "inception_4d/3x3_reduce/bn"
}

layer {
  name: "inception_4d/3x3"
  type: "Convolution"
  bottom: "inception_4d/3x3_reduce/bn"
  top: "inception_4d/3x3"
  param {
    lr_mult: 0.25
    decay_mult: 1
  }
  convolution_param {
    num_output: 192
    bias_term: false
    pad: 1
    kernel_size: 3
    group: 1
    stride: 1
  }
}

layer {
  name: "inception_4d/3x3/bn"
  type: "BN"
  bottom: "inception_4d/3x3"
  top: "inception_4d/3x3/bn"
  param {
    lr_mult: 0.25
    decay_mult: 1
  }
  param {
    lr_mult: 0.5
    decay_mult: 0
  }
  bn_param {
    scale_filler {
      type: "constant"
      value: 1
    }
    shift_filler {
      type: "constant"
      value: 0
    }
  }
}

layer {
  name: "inception_4d/relu_3x3"
  type: "ReLU"
  bottom: "inception_4d/3x3/bn"
  top: "inception_4d/3x3/bn"
}

layer {
  name: "inception_4d/double3x3_reduce"
  type: "Convolution"
  bottom: "inception_4c/output"
  top: "inception_4d/double3x3_reduce"
  param {
    lr_mult: 0.25
    decay_mult: 1
  }
  convolution_param {
    num_output: 160
    bias_term: false
    pad: 0
    kernel_size: 1
    group: 1
    stride: 1
  }
}

layer {
  name: "inception_4d/double3x3_reduce/bn"
  type: "BN"
  bottom: "inception_4d/double3x3_reduce"
  top: "inception_4d/double3x3_reduce/bn"
  param {
    lr_mult: 0.25
    decay_mult: 1
  }
  param {
    lr_mult: 0.5
    decay_mult: 0
  }
  bn_param {
    scale_filler {
      type: "constant"
      value: 1
    }
    shift_filler {
      type: "constant"
      value: 0
    }
  }
}

layer {
  name: "inception_4d/relu_double3x3_reduce"
  type: "ReLU"
  bottom: "inception_4d/double3x3_reduce/bn"
  top: "inception_4d/double3x3_reduce/bn"
}

layer {
  name: "inception_4d/double3x3a"
  type: "Convolution"
  bottom: "inception_4d/double3x3_reduce/bn"
  top: "inception_4d/double3x3a"
  param {
    lr_mult: 0.25
    decay_mult: 1
  }
  convolution_param {
    num_output: 192
    bias_term: false
    pad: 1
    kernel_size: 3
    group: 1
    stride: 1
  }
}

layer {
  name: "inception_4d/double3x3a/bn"
  type: "BN"
  bottom: "inception_4d/double3x3a"
  top: "inception_4d/double3x3a/bn"
  param {
    lr_mult: 0.25
    decay_mult: 1
  }
  param {
    lr_mult: 0.5
    decay_mult: 0
  }
  bn_param {
    scale_filler {
      type: "constant"
      value: 1
    }
    shift_filler {
      type: "constant"
      value: 0
    }
  }
}

layer {
  name: "inception_4d/relu_double3x3a"
  type: "ReLU"
  bottom: "inception_4d/double3x3a/bn"
  top: "inception_4d/double3x3a/bn"
}

layer {
  name: "inception_4d/double3x3b"
  type: "Convolution"
  bottom: "inception_4d/double3x3a/bn"
  top: "inception_4d/double3x3b"
  param {
    lr_mult: 0.25
    decay_mult: 1
  }
  convolution_param {
    num_output: 192
    bias_term: false
    pad: 1
    kernel_size: 3
    group: 1
    stride: 1
  }
}

layer {
  name: "inception_4d/double3x3b/bn"
  type: "BN"
  bottom: "inception_4d/double3x3b"
  top: "inception_4d/double3x3b/bn"
  param {
    lr_mult: 0.25
    decay_mult: 1
  }
  param {
    lr_mult: 0.5
    decay_mult: 0
  }
  bn_param {
    scale_filler {
      type: "constant"
      value: 1
    }
    shift_filler {
      type: "constant"
      value: 0
    }
  }
}

layer {
  name: "inception_4d/relu_double3x3b"
  type: "ReLU"
  bottom: "inception_4d/double3x3b/bn"
  top: "inception_4d/double3x3b/bn"
}

layer {
  name: "inception_4d/pool"
  type: "Pooling"
  bottom: "inception_4c/output"
  top: "inception_4d/pool"
  pooling_param {
    pool: AVE
    kernel_size: 3
    stride: 1
    pad: 1
  }
}

layer {
  name: "inception_4d/pool_proj"
  type: "Convolution"
  bottom: "inception_4d/pool"
  top: "inception_4d/pool_proj"
  param {
    lr_mult: 0.25
    decay_mult: 1
  }
  convolution_param {
    num_output: 128
    bias_term: false
    pad: 0
    kernel_size: 1
    group: 1
    stride: 1
  }
}

layer {
  name: "inception_4d/pool_proj/bn"
  type: "BN"
  bottom: "inception_4d/pool_proj"
  top: "inception_4d/pool_proj/bn"
  param {
    lr_mult: 0.25
    decay_mult: 1
  }
  param {
    lr_mult: 0.5
    decay_mult: 0
  }
  bn_param {
    scale_filler {
      type: "constant"
      value: 1
    }
    shift_filler {
      type: "constant"
      value: 0
    }
  }
}

layer {
  name: "inception_4d/relu_pool_proj"
  type: "ReLU"
  bottom: "inception_4d/pool_proj/bn"
  top: "inception_4d/pool_proj/bn"
}

layer {
  name: "inception_4d/output"
  type: "Concat"
  bottom: "inception_4d/1x1/bn"
  bottom: "inception_4d/3x3/bn"
  bottom: "inception_4d/double3x3b/bn"
  bottom: "inception_4d/pool_proj/bn"
  top: "inception_4d/output"
}

layer {
  name: "inception_4e/3x3_reduce"
  type: "Convolution"
  bottom: "inception_4d/output"
  top: "inception_4e/3x3_reduce"
  param {
    lr_mult: 0.25
    decay_mult: 1
  }
  convolution_param {
    num_output: 128
    bias_term: false
    pad: 0
    kernel_size: 1
    group: 1
    stride: 1
  }
}

layer {
  name: "inception_4e/3x3_reduce/bn"
  type: "BN"
  bottom: "inception_4e/3x3_reduce"
  top: "inception_4e/3x3_reduce/bn"
  param {
    lr_mult: 0.25
    decay_mult: 1
  }
  param {
    lr_mult: 0.5
    decay_mult: 0
  }
  bn_param {
    scale_filler {
      type: "constant"
      value: 1
    }
    shift_filler {
      type: "constant"
      value: 0
    }
  }
}

layer {
  name: "inception_4e/relu_3x3_reduce"
  type: "ReLU"
  bottom: "inception_4e/3x3_reduce/bn"
  top: "inception_4e/3x3_reduce/bn"
}

layer {
  name: "inception_4e/3x3"
  type: "Convolution"
  bottom: "inception_4e/3x3_reduce/bn"
  top: "inception_4e/3x3"
  param {
    lr_mult: 0.25
    decay_mult: 1
  }
  convolution_param {
    num_output: 192
    bias_term: false
    pad: 1
    kernel_size: 3
    group: 1
    stride: 2
  }
}

layer {
  name: "inception_4e/3x3/bn"
  type: "BN"
  bottom: "inception_4e/3x3"
  top: "inception_4e/3x3/bn"
  param {
    lr_mult: 0.25
    decay_mult: 1
  }
  param {
    lr_mult: 0.5
    decay_mult: 0
  }
  bn_param {
    scale_filler {
      type: "constant"
      value: 1
    }
    shift_filler {
      type: "constant"
      value: 0
    }
  }
}

layer {
  name: "inception_4e/relu_3x3"
  type: "ReLU"
  bottom: "inception_4e/3x3/bn"
  top: "inception_4e/3x3/bn"
}

layer {
  name: "inception_4e/double3x3_reduce"
  type: "Convolution"
  bottom: "inception_4d/output"
  top: "inception_4e/double3x3_reduce"
  param {
    lr_mult: 0.25
    decay_mult: 1
  }
  convolution_param {
    num_output: 192
    bias_term: false
    pad: 0
    kernel_size: 1
    group: 1
    stride: 1
  }
}

layer {
  name: "inception_4e/double3x3_reduce/bn"
  type: "BN"
  bottom: "inception_4e/double3x3_reduce"
  top: "inception_4e/double3x3_reduce/bn"
  param {
    lr_mult: 0.25
    decay_mult: 1
  }
  param {
    lr_mult: 0.5
    decay_mult: 0
  }
  bn_param {
    scale_filler {
      type: "constant"
      value: 1
    }
    shift_filler {
      type: "constant"
      value: 0
    }
  }
}

layer {
  name: "inception_4e/relu_double3x3_reduce"
  type: "ReLU"
  bottom: "inception_4e/double3x3_reduce/bn"
  top: "inception_4e/double3x3_reduce/bn"
}

layer {
  name: "inception_4e/double3x3a"
  type: "Convolution"
  bottom: "inception_4e/double3x3_reduce/bn"
  top: "inception_4e/double3x3a"
  param {
    lr_mult: 0.25
    decay_mult: 1
  }
  convolution_param {
    num_output: 256
    bias_term: false
    pad: 1
    kernel_size: 3
    group: 1
    stride: 1
  }
}

layer {
  name: "inception_4e/double3x3a/bn"
  type: "BN"
  bottom: "inception_4e/double3x3a"
  top: "inception_4e/double3x3a/bn"
  param {
    lr_mult: 0.25
    decay_mult: 1
  }
  param {
    lr_mult: 0.5
    decay_mult: 0
  }
  bn_param {
    scale_filler {
      type: "constant"
      value: 1
    }
    shift_filler {
      type: "constant"
      value: 0
    }
  }
}

layer {
  name: "inception_4e/relu_double3x3a"
  type: "ReLU"
  bottom: "inception_4e/double3x3a/bn"
  top: "inception_4e/double3x3a/bn"
}

layer {
  name: "inception_4e/double3x3b"
  type: "Convolution"
  bottom: "inception_4e/double3x3a/bn"
  top: "inception_4e/double3x3b"
  param {
    lr_mult: 0.25
    decay_mult: 1
  }
  convolution_param {
    num_output: 256
    bias_term: false
    pad: 1
    kernel_size: 3
    group: 1
    stride: 2
  }
}

layer {
  name: "inception_4e/double3x3b/bn"
  type: "BN"
  bottom: "inception_4e/double3x3b"
  top: "inception_4e/double3x3b/bn"
  param {
    lr_mult: 0.25
    decay_mult: 1
  }
  param {
    lr_mult: 0.5
    decay_mult: 0
  }
  bn_param {
    scale_filler {
      type: "constant"
      value: 1
    }
    shift_filler {
      type: "constant"
      value: 0
    }
  }
}

layer {
  name: "inception_4e/relu_double3x3b"
  type: "ReLU"
  bottom: "inception_4e/double3x3b/bn"
  top: "inception_4e/double3x3b/bn"
}

layer {
  name: "inception_4e/pool/3x3_s2"
  type: "Pooling"
  bottom: "inception_4d/output"
  top: "inception_4e/pool/3x3_s2"
  pooling_param {
    pool: MAX
    kernel_size: 3
    stride: 2
    pad: 0
  }
}

layer {
  name: "inception_4e/output"
  type: "Concat"
  bottom: "inception_4e/3x3/bn"
  bottom: "inception_4e/double3x3b/bn"
  bottom: "inception_4e/pool/3x3_s2"
  top: "inception_4e/output"
}

layer {
  name: "inception_5a/1x1"
  type: "Convolution"
  bottom: "inception_4e/output"
  top: "inception_5a/1x1"
  param {
    lr_mult: 0.25
    decay_mult: 1
  }
  convolution_param {
    num_output: 352
    bias_term: false
    pad: 0
    kernel_size: 1
    group: 1
    stride: 1
  }
}

layer {
  name: "inception_5a/1x1/bn"
  type: "BN"
  bottom: "inception_5a/1x1"
  top: "inception_5a/1x1/bn"
  param {
    lr_mult: 0.25
    decay_mult: 1
  }
  param {
    lr_mult: 0.5
    decay_mult: 0
  }
  bn_param {
    scale_filler {
      type: "constant"
      value: 1
    }
    shift_filler {
      type: "constant"
      value: 0
    }
  }
}

layer {
  name: "inception_5a/relu_1x1"
  type: "ReLU"
  bottom: "inception_5a/1x1/bn"
  top: "inception_5a/1x1/bn"
}

layer {
  name: "inception_5a/3x3_reduce"
  type: "Convolution"
  bottom: "inception_4e/output"
  top: "inception_5a/3x3_reduce"
  param {
    lr_mult: 0.25
    decay_mult: 1
  }
  convolution_param {
    num_output: 192
    bias_term: false
    pad: 0
    kernel_size: 1
    group: 1
    stride: 1
  }
}

layer {
  name: "inception_5a/3x3_reduce/bn"
  type: "BN"
  bottom: "inception_5a/3x3_reduce"
  top: "inception_5a/3x3_reduce/bn"
  param {
    lr_mult: 0.25
    decay_mult: 1
  }
  param {
    lr_mult: 0.5
    decay_mult: 0
  }
  bn_param {
    scale_filler {
      type: "constant"
      value: 1
    }
    shift_filler {
      type: "constant"
      value: 0
    }
  }
}

layer {
  name: "inception_5a/relu_3x3_reduce"
  type: "ReLU"
  bottom: "inception_5a/3x3_reduce/bn"
  top: "inception_5a/3x3_reduce/bn"
}

layer {
  name: "inception_5a/3x3"
  type: "Convolution"
  bottom: "inception_5a/3x3_reduce/bn"
  top: "inception_5a/3x3"
  param {
    lr_mult: 0.25
    decay_mult: 1
  }
  convolution_param {
    num_output: 320
    bias_term: false
    pad: 1
    kernel_size: 3
    group: 1
    stride: 1
  }
}

layer {
  name: "inception_5a/3x3/bn"
  type: "BN"
  bottom: "inception_5a/3x3"
  top: "inception_5a/3x3/bn"
  param {
    lr_mult: 0.25
    decay_mult: 1
  }
  param {
    lr_mult: 0.5
    decay_mult: 0
  }
  bn_param {
    scale_filler {
      type: "constant"
      value: 1
    }
    shift_filler {
      type: "constant"
      value: 0
    }
  }
}

layer {
  name: "inception_5a/relu_3x3"
  type: "ReLU"
  bottom: "inception_5a/3x3/bn"
  top: "inception_5a/3x3/bn"
}

layer {
  name: "inception_5a/double3x3_reduce"
  type: "Convolution"
  bottom: "inception_4e/output"
  top: "inception_5a/double3x3_reduce"
  param {
    lr_mult: 0.25
    decay_mult: 1
  }
  convolution_param {
    num_output: 160
    bias_term: false
    pad: 0
    kernel_size: 1
    group: 1
    stride: 1
  }
}

layer {
  name: "inception_5a/double3x3_reduce/bn"
  type: "BN"
  bottom: "inception_5a/double3x3_reduce"
  top: "inception_5a/double3x3_reduce/bn"
  param {
    lr_mult: 0.25
    decay_mult: 1
  }
  param {
    lr_mult: 0.5
    decay_mult: 0
  }
  bn_param {
    scale_filler {
      type: "constant"
      value: 1
    }
    shift_filler {
      type: "constant"
      value: 0
    }
  }
}

layer {
  name: "inception_5a/relu_double3x3_reduce"
  type: "ReLU"
  bottom: "inception_5a/double3x3_reduce/bn"
  top: "inception_5a/double3x3_reduce/bn"
}

layer {
  name: "inception_5a/double3x3a"
  type: "Convolution"
  bottom: "inception_5a/double3x3_reduce/bn"
  top: "inception_5a/double3x3a"
  param {
    lr_mult: 0.25
    decay_mult: 1
  }
  convolution_param {
    num_output: 224
    bias_term: false
    pad: 1
    kernel_size: 3
    group: 1
    stride: 1
  }
}

layer {
  name: "inception_5a/double3x3a/bn"
  type: "BN"
  bottom: "inception_5a/double3x3a"
  top: "inception_5a/double3x3a/bn"
  param {
    lr_mult: 0.25
    decay_mult: 1
  }
  param {
    lr_mult: 0.5
    decay_mult: 0
  }
  bn_param {
    scale_filler {
      type: "constant"
      value: 1
    }
    shift_filler {
      type: "constant"
      value: 0
    }
  }
}

layer {
  name: "inception_5a/relu_double3x3a"
  type: "ReLU"
  bottom: "inception_5a/double3x3a/bn"
  top: "inception_5a/double3x3a/bn"
}

layer {
  name: "inception_5a/double3x3b"
  type: "Convolution"
  bottom: "inception_5a/double3x3a/bn"
  top: "inception_5a/double3x3b"
  param {
    lr_mult: 0.25
    decay_mult: 1
  }
  convolution_param {
    num_output: 224
    bias_term: false
    pad: 1
    kernel_size: 3
    group: 1
    stride: 1
  }
}

layer {
  name: "inception_5a/double3x3b/bn"
  type: "BN"
  bottom: "inception_5a/double3x3b"
  top: "inception_5a/double3x3b/bn"
  param {
    lr_mult: 0.25
    decay_mult: 1
  }
  param {
    lr_mult: 0.5
    decay_mult: 0
  }
  bn_param {
    scale_filler {
      type: "constant"
      value: 1
    }
    shift_filler {
      type: "constant"
      value: 0
    }
  }
}

layer {
  name: "inception_5a/relu_double3x3b"
  type: "ReLU"
  bottom: "inception_5a/double3x3b/bn"
  top: "inception_5a/double3x3b/bn"
}

layer {
  name: "inception_5a/pool"
  type: "Pooling"
  bottom: "inception_4e/output"
  top: "inception_5a/pool"
  pooling_param {
    pool: AVE
    kernel_size: 3
    stride: 1
    pad: 1
  }
}

layer {
  name: "inception_5a/pool_proj"
  type: "Convolution"
  bottom: "inception_5a/pool"
  top: "inception_5a/pool_proj"
  param {
    lr_mult: 0.25
    decay_mult: 1
  }
  convolution_param {
    num_output: 128
    bias_term: false
    pad: 0
    kernel_size: 1
    group: 1
    stride: 1
  }
}

layer {
  name: "inception_5a/pool_proj/bn"
  type: "BN"
  bottom: "inception_5a/pool_proj"
  top: "inception_5a/pool_proj/bn"
  param {
    lr_mult: 0.25
    decay_mult: 1
  }
  param {
    lr_mult: 0.5
    decay_mult: 0
  }
  bn_param {
    scale_filler {
      type: "constant"
      value: 1
    }
    shift_filler {
      type: "constant"
      value: 0
    }
  }
}

layer {
  name: "inception_5a/relu_pool_proj"
  type: "ReLU"
  bottom: "inception_5a/pool_proj/bn"
  top: "inception_5a/pool_proj/bn"
}

layer {
  name: "inception_5a/output"
  type: "Concat"
  bottom: "inception_5a/1x1/bn"
  bottom: "inception_5a/3x3/bn"
  bottom: "inception_5a/double3x3b/bn"
  bottom: "inception_5a/pool_proj/bn"
  top: "inception_5a/output"
}

layer {
  name: "inception_5b/1x1"
  type: "Convolution"
  bottom: "inception_5a/output"
  top: "inception_5b/1x1"
  param {
    lr_mult: 0.25
    decay_mult: 1
  }
  convolution_param {
    num_output: 352
    bias_term: false
    pad: 0
    kernel_size: 1
    group: 1
    stride: 1
  }
}

layer {
  name: "inception_5b/1x1/bn"
  type: "BN"
  bottom: "inception_5b/1x1"
  top: "inception_5b/1x1/bn"
  param {
    lr_mult: 0.25
    decay_mult: 1
  }
  param {
    lr_mult: 0.5
    decay_mult: 0
  }
  bn_param {
    scale_filler {
      type: "constant"
      value: 1
    }
    shift_filler {
      type: "constant"
      value: 0
    }
  }
}

layer {
  name: "inception_5b/relu_1x1"
  type: "ReLU"
  bottom: "inception_5b/1x1/bn"
  top: "inception_5b/1x1/bn"
}

layer {
  name: "inception_5b/3x3_reduce"
  type: "Convolution"
  bottom: "inception_5a/output"
  top: "inception_5b/3x3_reduce"
  param {
    lr_mult: 0.25
    decay_mult: 1
  }
  convolution_param {
    num_output: 192
    bias_term: false
    pad: 0
    kernel_size: 1
    group: 1
    stride: 1
  }
}

layer {
  name: "inception_5b/3x3_reduce/bn"
  type: "BN"
  bottom: "inception_5b/3x3_reduce"
  top: "inception_5b/3x3_reduce/bn"
  param {
    lr_mult: 0.25
    decay_mult: 1
  }
  param {
    lr_mult: 0.5
    decay_mult: 0
  }
  bn_param {
    scale_filler {
      type: "constant"
      value: 1
    }
    shift_filler {
      type: "constant"
      value: 0
    }
  }
}

layer {
  name: "inception_5b/relu_3x3_reduce"
  type: "ReLU"
  bottom: "inception_5b/3x3_reduce/bn"
  top: "inception_5b/3x3_reduce/bn"
}

layer {
  name: "inception_5b/3x3"
  type: "Convolution"
  bottom: "inception_5b/3x3_reduce/bn"
  top: "inception_5b/3x3"
  param {
    lr_mult: 0.25
    decay_mult: 1
  }
  convolution_param {
    num_output: 320
    bias_term: false
    pad: 1
    kernel_size: 3
    group: 1
    stride: 1
  }
}

layer {
  name: "inception_5b/3x3/bn"
  type: "BN"
  bottom: "inception_5b/3x3"
  top: "inception_5b/3x3/bn"
  param {
    lr_mult: 0.25
    decay_mult: 1
  }
  param {
    lr_mult: 0.5
    decay_mult: 0
  }
  bn_param {
    scale_filler {
      type: "constant"
      value: 1
    }
    shift_filler {
      type: "constant"
      value: 0
    }
  }
}

layer {
  name: "inception_5b/relu_3x3"
  type: "ReLU"
  bottom: "inception_5b/3x3/bn"
  top: "inception_5b/3x3/bn"
}

layer {
  name: "inception_5b/double3x3_reduce"
  type: "Convolution"
  bottom: "inception_5a/output"
  top: "inception_5b/double3x3_reduce"
  param {
    lr_mult: 0.25
    decay_mult: 1
  }
  convolution_param {
    num_output: 192
    bias_term: false
    pad: 0
    kernel_size: 1
    group: 1
    stride: 1
  }
}

layer {
  name: "inception_5b/double3x3_reduce/bn"
  type: "BN"
  bottom: "inception_5b/double3x3_reduce"
  top: "inception_5b/double3x3_reduce/bn"
  param {
    lr_mult: 0.25
    decay_mult: 1
  }
  param {
    lr_mult: 0.5
    decay_mult: 0
  }
  bn_param {
    scale_filler {
      type: "constant"
      value: 1
    }
    shift_filler {
      type: "constant"
      value: 0
    }
  }
}

layer {
  name: "inception_5b/relu_double3x3_reduce"
  type: "ReLU"
  bottom: "inception_5b/double3x3_reduce/bn"
  top: "inception_5b/double3x3_reduce/bn"
}

layer {
  name: "inception_5b/double3x3a"
  type: "Convolution"
  bottom: "inception_5b/double3x3_reduce/bn"
  top: "inception_5b/double3x3a"
  param {
    lr_mult: 0.25
    decay_mult: 1
  }
  convolution_param {
    num_output: 224
    bias_term: false
    pad: 1
    kernel_size: 3
    group: 1
    stride: 1
  }
}

layer {
  name: "inception_5b/double3x3a/bn"
  type: "BN"
  bottom: "inception_5b/double3x3a"
  top: "inception_5b/double3x3a/bn"
  param {
    lr_mult: 0.25
    decay_mult: 1
  }
  param {
    lr_mult: 0.5
    decay_mult: 0
  }
  bn_param {
    scale_filler {
      type: "constant"
      value: 1
    }
    shift_filler {
      type: "constant"
      value: 0
    }
  }
}

layer {
  name: "inception_5b/relu_double3x3a"
  type: "ReLU"
  bottom: "inception_5b/double3x3a/bn"
  top: "inception_5b/double3x3a/bn"
}

layer {
  name: "inception_5b/double3x3b"
  type: "Convolution"
  bottom: "inception_5b/double3x3a/bn"
  top: "inception_5b/double3x3b"
  param {
    lr_mult: 0.25
    decay_mult: 1
  }
  convolution_param {
    num_output: 224
    bias_term: false
    pad: 1
    kernel_size: 3
    group: 1
    stride: 1
  }
}

layer {
  name: "inception_5b/double3x3b/bn"
  type: "BN"
  bottom: "inception_5b/double3x3b"
  top: "inception_5b/double3x3b/bn"
  param {
    lr_mult: 0.25
    decay_mult: 1
  }
  param {
    lr_mult: 0.5
    decay_mult: 0
  }
  bn_param {
    scale_filler {
      type: "constant"
      value: 1
    }
    shift_filler {
      type: "constant"
      value: 0
    }
  }
}

layer {
  name: "inception_5b/relu_double3x3b"
  type: "ReLU"
  bottom: "inception_5b/double3x3b/bn"
  top: "inception_5b/double3x3b/bn"
}

layer {
  name: "inception_5b/pool"
  type: "Pooling"
  bottom: "inception_5a/output"
  top: "inception_5b/pool"
  pooling_param {
    pool: MAX
    kernel_size: 3
    stride: 1
    pad: 1
  }
}

layer {
  name: "inception_5b/pool_proj"
  type: "Convolution"
  bottom: "inception_5b/pool"
  top: "inception_5b/pool_proj"
  param {
    lr_mult: 0.25
    decay_mult: 1
  }
  convolution_param {
    num_output: 128
    bias_term: false
    pad: 0
    kernel_size: 1
    group: 1
    stride: 1
  }
}

layer {
  name: "inception_5b/pool_proj/bn"
  type: "BN"
  bottom: "inception_5b/pool_proj"
  top: "inception_5b/pool_proj/bn"
  param {
    lr_mult: 0.25
    decay_mult: 1
  }
  param {
    lr_mult: 0.5
    decay_mult: 0
  }
  bn_param {
    scale_filler {
      type: "constant"
      value: 1
    }
    shift_filler {
      type: "constant"
      value: 0
    }
  }
}

layer {
  name: "inception_5b/relu_pool_proj"
  type: "ReLU"
  bottom: "inception_5b/pool_proj/bn"
  top: "inception_5b/pool_proj/bn"
}

layer {
  name: "inception_5b/output"
  type: "Concat"
  bottom: "inception_5b/1x1/bn"
  bottom: "inception_5b/3x3/bn"
  bottom: "inception_5b/double3x3b/bn"
  bottom: "inception_5b/pool_proj/bn"
  top: "inception_5b/output"
}

layer {
  name: "pool5/7x7_s1"
  type: "Pooling"
  bottom: "inception_5b/output"
  top: "pool5/7x7_s1"
  pooling_param {
    pool: AVE
    kernel_size: 7
    stride: 1
    pad: 0
  }
}

layer {
  name: "dir0_TL"
  type: "Convolution"
  bottom: "pool5/7x7_s1"
  top: "dir0_TL"
  param {
    lr_mult: 1
    decay_mult: 1
  }
  param {
    lr_mult: 2
    decay_mult: 0
  }
  convolution_param {
    num_output: 4
    kernel_size: 1
    weight_filler {
      type: "gaussian"
      std: 0.01
    }
    bias_filler {
      type: "constant"
      value: 0
    }
  }
}

layer {
  name: "dir0_BR"
  type: "Convolution"
  bottom: "pool5/7x7_s1"
  top: "dir0_BR"
  param {
    lr_mult: 1
    decay_mult: 1
  }
  param {
    lr_mult: 2
    decay_mult: 0
  }
  convolution_param {
    num_output: 4
    kernel_size: 1
    weight_filler {
      type: "gaussian"
      std: 0.01
    }
    bias_filler {
      type: "constant"
      value: 0
    }
  }
}

layer {
  name: "dir1_TL"
  type: "Convolution"
  bottom: "pool5/7x7_s1"
  top: "dir1_TL"
  param {
    lr_mult: 1
    decay_mult: 1
  }
  param {
    lr_mult: 2
    decay_mult: 0
  }
  convolution_param {
    num_output: 4
    kernel_size: 1
    weight_filler {
      type: "gaussian"
      std: 0.01
    }
    bias_filler {
      type: "constant"
      value: 0
    }
  }
}

layer {
  name: "dir1_BR"
  type: "Convolution"
  bottom: "pool5/7x7_s1"
  top: "dir1_BR"
  param {
    lr_mult: 1
    decay_mult: 1
  }
  param {
    lr_mult: 2
    decay_mult: 0
  }
  convolution_param {
    num_output: 4
    kernel_size: 1
    weight_filler {
      type: "gaussian"
      std: 0.01
    }
    bias_filler {
      type: "constant"
      value: 0
    }
  }
}

layer {
  name: "dir2_TL"
  type: "Convolution"
  bottom: "pool5/7x7_s1"
  top: "dir2_TL"
  param {
    lr_mult: 1
    decay_mult: 1
  }
  param {
    lr_mult: 2
    decay_mult: 0
  }
  convolution_param {
    num_output: 4
    kernel_size: 1
    weight_filler {
      type: "gaussian"
      std: 0.01
    }
    bias_filler {
      type: "constant"
      value: 0
    }
  }
}

layer {
  name: "dir2_BR"
  type: "Convolution"
  bottom: "pool5/7x7_s1"
  top: "dir2_BR"
  param {
    lr_mult: 1
    decay_mult: 1
  }
  param {
    lr_mult: 2
    decay_mult: 0
  }
  convolution_param {
    num_output: 4
    kernel_size: 1
    weight_filler {
      type: "gaussian"
      std: 0.01
    }
    bias_filler {
      type: "constant"
      value: 0
    }
  }
}

layer {
  name: "dir3_TL"
  type: "Convolution"
  bottom: "pool5/7x7_s1"
  top: "dir3_TL"
  param {
    lr_mult: 1
    decay_mult: 1
  }
  param {
    lr_mult: 2
    decay_mult: 0
  }
  convolution_param {
    num_output: 4
    kernel_size: 1
    weight_filler {
      type: "gaussian"
      std: 0.01
    }
    bias_filler {
      type: "constant"
      value: 0
    }
  }
}

layer {
  name: "dir3_BR"
  type: "Convolution"
  bottom: "pool5/7x7_s1"
  top: "dir3_BR"
  param {
    lr_mult: 1
    decay_mult: 1
  }
  param {
    lr_mult: 2
    decay_mult: 0
  }
  convolution_param {
    num_output: 4
    kernel_size: 1
    weight_filler {
      type: "gaussian"
      std: 0.01
    }
    bias_filler {
      type: "constant"
      value: 0
    }
  }
}

layer {
  name: "dir4_TL"
  type: "Convolution"
  bottom: "pool5/7x7_s1"
  top: "dir4_TL"
  param {
    lr_mult: 1
    decay_mult: 1
  }
  param {
    lr_mult: 2
    decay_mult: 0
  }
  convolution_param {
    num_output: 4
    kernel_size: 1
    weight_filler {
      type: "gaussian"
      std: 0.01
    }
    bias_filler {
      type: "constant"
      value: 0
    }
  }
}

layer {
  name: "dir4_BR"
  type: "Convolution"
  bottom: "pool5/7x7_s1"
  top: "dir4_BR"
  param {
    lr_mult: 1
    decay_mult: 1
  }
  param {
    lr_mult: 2
    decay_mult: 0
  }
  convolution_param {
    num_output: 4
    kernel_size: 1
    weight_filler {
      type: "gaussian"
      std: 0.01
    }
    bias_filler {
      type: "constant"
      value: 0
    }
  }
}

layer {
  name: "dir5_TL"
  type: "Convolution"
  bottom: "pool5/7x7_s1"
  top: "dir5_TL"
  param {
    lr_mult: 1
    decay_mult: 1
  }
  param {
    lr_mult: 2
    decay_mult: 0
  }
  convolution_param {
    num_output: 4
    kernel_size: 1
    weight_filler {
      type: "gaussian"
      std: 0.01
    }
    bias_filler {
      type: "constant"
      value: 0
    }
  }
}

layer {
  name: "dir5_BR"
  type: "Convolution"
  bottom: "pool5/7x7_s1"
  top: "dir5_BR"
  param {
    lr_mult: 1
    decay_mult: 1
  }
  param {
    lr_mult: 2
    decay_mult: 0
  }
  convolution_param {
    num_output: 4
    kernel_size: 1
    weight_filler {
      type: "gaussian"
      std: 0.01
    }
    bias_filler {
      type: "constant"
      value: 0
    }
  }
}

layer {
  name: "dir6_TL"
  type: "Convolution"
  bottom: "pool5/7x7_s1"
  top: "dir6_TL"
  param {
    lr_mult: 1
    decay_mult: 1
  }
  param {
    lr_mult: 2
    decay_mult: 0
  }
  convolution_param {
    num_output: 4
    kernel_size: 1
    weight_filler {
      type: "gaussian"
      std: 0.01
    }
    bias_filler {
      type: "constant"
      value: 0
    }
  }
}

layer {
  name: "dir6_BR"
  type: "Convolution"
  bottom: "pool5/7x7_s1"
  top: "dir6_BR"
  param {
    lr_mult: 1
    decay_mult: 1
  }
  param {
    lr_mult: 2
    decay_mult: 0
  }
  convolution_param {
    num_output: 4
    kernel_size: 1
    weight_filler {
      type: "gaussian"
      std: 0.01
    }
    bias_filler {
      type: "constant"
      value: 0
    }
  }
}

layer {
  name: "dir7_TL"
  type: "Convolution"
  bottom: "pool5/7x7_s1"
  top: "dir7_TL"
  param {
    lr_mult: 1
    decay_mult: 1
  }
  param {
    lr_mult: 2
    decay_mult: 0
  }
  convolution_param {
    num_output: 4
    kernel_size: 1
    weight_filler {
      type: "gaussian"
      std: 0.01
    }
    bias_filler {
      type: "constant"
      value: 0
    }
  }
}

layer {
  name: "dir7_BR"
  type: "Convolution"
  bottom: "pool5/7x7_s1"
  top: "dir7_BR"
  param {
    lr_mult: 1
    decay_mult: 1
  }
  param {
    lr_mult: 2
    decay_mult: 0
  }
  convolution_param {
    num_output: 4
    kernel_size: 1
    weight_filler {
      type: "gaussian"
      std: 0.01
    }
    bias_filler {
      type: "constant"
      value: 0
    }
  }
}

layer {
  name: "dir8_TL"
  type: "Convolution"
  bottom: "pool5/7x7_s1"
  top: "dir8_TL"
  param {
    lr_mult: 1
    decay_mult: 1
  }
  param {
    lr_mult: 2
    decay_mult: 0
  }
  convolution_param {
    num_output: 4
    kernel_size: 1
    weight_filler {
      type: "gaussian"
      std: 0.01
    }
    bias_filler {
      type: "constant"
      value: 0
    }
  }
}

layer {
  name: "dir8_BR"
  type: "Convolution"
  bottom: "pool5/7x7_s1"
  top: "dir8_BR"
  param {
    lr_mult: 1
    decay_mult: 1
  }
  param {
    lr_mult: 2
    decay_mult: 0
  }
  convolution_param {
    num_output: 4
    kernel_size: 1
    weight_filler {
      type: "gaussian"
      std: 0.01
    }
    bias_filler {
      type: "constant"
      value: 0
    }
  }
}

layer {
  name: "dir9_TL"
  type: "Convolution"
  bottom: "pool5/7x7_s1"
  top: "dir9_TL"
  param {
    lr_mult: 1
    decay_mult: 1
  }
  param {
    lr_mult: 2
    decay_mult: 0
  }
  convolution_param {
    num_output: 4
    kernel_size: 1
    weight_filler {
      type: "gaussian"
      std: 0.01
    }
    bias_filler {
      type: "constant"
      value: 0
    }
  }
}

layer {
  name: "dir9_BR"
  type: "Convolution"
  bottom: "pool5/7x7_s1"
  top: "dir9_BR"
  param {
    lr_mult: 1
    decay_mult: 1
  }
  param {
    lr_mult: 2
    decay_mult: 0
  }
  convolution_param {
    num_output: 4
    kernel_size: 1
    weight_filler {
      type: "gaussian"
      std: 0.01
    }
    bias_filler {
      type: "constant"
      value: 0
    }
  }
}

layer {
  name: "dir10_TL"
  type: "Convolution"
  bottom: "pool5/7x7_s1"
  top: "dir10_TL"
  param {
    lr_mult: 1
    decay_mult: 1
  }
  param {
    lr_mult: 2
    decay_mult: 0
  }
  convolution_param {
    num_output: 4
    kernel_size: 1
    weight_filler {
      type: "gaussian"
      std: 0.01
    }
    bias_filler {
      type: "constant"
      value: 0
    }
  }
}

layer {
  name: "dir10_BR"
  type: "Convolution"
  bottom: "pool5/7x7_s1"
  top: "dir10_BR"
  param {
    lr_mult: 1
    decay_mult: 1
  }
  param {
    lr_mult: 2
    decay_mult: 0
  }
  convolution_param {
    num_output: 4
    kernel_size: 1
    weight_filler {
      type: "gaussian"
      std: 0.01
    }
    bias_filler {
      type: "constant"
      value: 0
    }
  }
}

layer {
  name: "dir11_TL"
  type: "Convolution"
  bottom: "pool5/7x7_s1"
  top: "dir11_TL"
  param {
    lr_mult: 1
    decay_mult: 1
  }
  param {
    lr_mult: 2
    decay_mult: 0
  }
  convolution_param {
    num_output: 4
    kernel_size: 1
    weight_filler {
      type: "gaussian"
      std: 0.01
    }
    bias_filler {
      type: "constant"
      value: 0
    }
  }
}

layer {
  name: "dir11_BR"
  type: "Convolution"
  bottom: "pool5/7x7_s1"
  top: "dir11_BR"
  param {
    lr_mult: 1
    decay_mult: 1
  }
  param {
    lr_mult: 2
    decay_mult: 0
  }
  convolution_param {
    num_output: 4
    kernel_size: 1
    weight_filler {
      type: "gaussian"
      std: 0.01
    }
    bias_filler {
      type: "constant"
      value: 0
    }
  }
}

layer {
  name: "dir12_TL"
  type: "Convolution"
  bottom: "pool5/7x7_s1"
  top: "dir12_TL"
  param {
    lr_mult: 1
    decay_mult: 1
  }
  param {
    lr_mult: 2
    decay_mult: 0
  }
  convolution_param {
    num_output: 4
    kernel_size: 1
    weight_filler {
      type: "gaussian"
      std: 0.01
    }
    bias_filler {
      type: "constant"
      value: 0
    }
  }
}

layer {
  name: "dir12_BR"
  type: "Convolution"
  bottom: "pool5/7x7_s1"
  top: "dir12_BR"
  param {
    lr_mult: 1
    decay_mult: 1
  }
  param {
    lr_mult: 2
    decay_mult: 0
  }
  convolution_param {
    num_output: 4
    kernel_size: 1
    weight_filler {
      type: "gaussian"
      std: 0.01
    }
    bias_filler {
      type: "constant"
      value: 0
    }
  }
}

layer {
  name: "dir13_TL"
  type: "Convolution"
  bottom: "pool5/7x7_s1"
  top: "dir13_TL"
  param {
    lr_mult: 1
    decay_mult: 1
  }
  param {
    lr_mult: 2
    decay_mult: 0
  }
  convolution_param {
    num_output: 4
    kernel_size: 1
    weight_filler {
      type: "gaussian"
      std: 0.01
    }
    bias_filler {
      type: "constant"
      value: 0
    }
  }
}

layer {
  name: "dir13_BR"
  type: "Convolution"
  bottom: "pool5/7x7_s1"
  top: "dir13_BR"
  param {
    lr_mult: 1
    decay_mult: 1
  }
  param {
    lr_mult: 2
    decay_mult: 0
  }
  convolution_param {
    num_output: 4
    kernel_size: 1
    weight_filler {
      type: "gaussian"
      std: 0.01
    }
    bias_filler {
      type: "constant"
      value: 0
    }
  }
}

layer {
  name: "dir14_TL"
  type: "Convolution"
  bottom: "pool5/7x7_s1"
  top: "dir14_TL"
  param {
    lr_mult: 1
    decay_mult: 1
  }
  param {
    lr_mult: 2
    decay_mult: 0
  }
  convolution_param {
    num_output: 4
    kernel_size: 1
    weight_filler {
      type: "gaussian"
      std: 0.01
    }
    bias_filler {
      type: "constant"
      value: 0
    }
  }
}

layer {
  name: "dir14_BR"
  type: "Convolution"
  bottom: "pool5/7x7_s1"
  top: "dir14_BR"
  param {
    lr_mult: 1
    decay_mult: 1
  }
  param {
    lr_mult: 2
    decay_mult: 0
  }
  convolution_param {
    num_output: 4
    kernel_size: 1
    weight_filler {
      type: "gaussian"
      std: 0.01
    }
    bias_filler {
      type: "constant"
      value: 0
    }
  }
}

layer {
  name: "dir15_TL"
  type: "Convolution"
  bottom: "pool5/7x7_s1"
  top: "dir15_TL"
  param {
    lr_mult: 1
    decay_mult: 1
  }
  param {
    lr_mult: 2
    decay_mult: 0
  }
  convolution_param {
    num_output: 4
    kernel_size: 1
    weight_filler {
      type: "gaussian"
      std: 0.01
    }
    bias_filler {
      type: "constant"
      value: 0
    }
  }
}

layer {
  name: "dir15_BR"
  type: "Convolution"
  bottom: "pool5/7x7_s1"
  top: "dir15_BR"
  param {
    lr_mult: 1
    decay_mult: 1
  }
  param {
    lr_mult: 2
    decay_mult: 0
  }
  convolution_param {
    num_output: 4
    kernel_size: 1
    weight_filler {
      type: "gaussian"
      std: 0.01
    }
    bias_filler {
      type: "constant"
      value: 0
    }
  }
}

layer {
  name: "dir16_TL"
  type: "Convolution"
  bottom: "pool5/7x7_s1"
  top: "dir16_TL"
  param {
    lr_mult: 1
    decay_mult: 1
  }
  param {
    lr_mult: 2
    decay_mult: 0
  }
  convolution_param {
    num_output: 4
    kernel_size: 1
    weight_filler {
      type: "gaussian"
      std: 0.01
    }
    bias_filler {
      type: "constant"
      value: 0
    }
  }
}

layer {
  name: "dir16_BR"
  type: "Convolution"
  bottom: "pool5/7x7_s1"
  top: "dir16_BR"
  param {
    lr_mult: 1
    decay_mult: 1
  }
  param {
    lr_mult: 2
    decay_mult: 0
  }
  convolution_param {
    num_output: 4
    kernel_size: 1
    weight_filler {
      type: "gaussian"
      std: 0.01
    }
    bias_filler {
      type: "constant"
      value: 0
    }
  }
}

layer {
  name: "dir17_TL"
  type: "Convolution"
  bottom: "pool5/7x7_s1"
  top: "dir17_TL"
  param {
    lr_mult: 1
    decay_mult: 1
  }
  param {
    lr_mult: 2
    decay_mult: 0
  }
  convolution_param {
    num_output: 4
    kernel_size: 1
    weight_filler {
      type: "gaussian"
      std: 0.01
    }
    bias_filler {
      type: "constant"
      value: 0
    }
  }
}

layer {
  name: "dir17_BR"
  type: "Convolution"
  bottom: "pool5/7x7_s1"
  top: "dir17_BR"
  param {
    lr_mult: 1
    decay_mult: 1
  }
  param {
    lr_mult: 2
    decay_mult: 0
  }
  convolution_param {
    num_output: 4
    kernel_size: 1
    weight_filler {
      type: "gaussian"
      std: 0.01
    }
    bias_filler {
      type: "constant"
      value: 0
    }
  }
}

layer {
  name: "dir18_TL"
  type: "Convolution"
  bottom: "pool5/7x7_s1"
  top: "dir18_TL"
  param {
    lr_mult: 1
    decay_mult: 1
  }
  param {
    lr_mult: 2
    decay_mult: 0
  }
  convolution_param {
    num_output: 4
    kernel_size: 1
    weight_filler {
      type: "gaussian"
      std: 0.01
    }
    bias_filler {
      type: "constant"
      value: 0
    }
  }
}

layer {
  name: "dir18_BR"
  type: "Convolution"
  bottom: "pool5/7x7_s1"
  top: "dir18_BR"
  param {
    lr_mult: 1
    decay_mult: 1
  }
  param {
    lr_mult: 2
    decay_mult: 0
  }
  convolution_param {
    num_output: 4
    kernel_size: 1
    weight_filler {
      type: "gaussian"
      std: 0.01
    }
    bias_filler {
      type: "constant"
      value: 0
    }
  }
}

layer {
  name: "dir19_TL"
  type: "Convolution"
  bottom: "pool5/7x7_s1"
  top: "dir19_TL"
  param {
    lr_mult: 1
    decay_mult: 1
  }
  param {
    lr_mult: 2
    decay_mult: 0
  }
  convolution_param {
    num_output: 4
    kernel_size: 1
    weight_filler {
      type: "gaussian"
      std: 0.01
    }
    bias_filler {
      type: "constant"
      value: 0
    }
  }
}

layer {
  name: "dir19_BR"
  type: "Convolution"
  bottom: "pool5/7x7_s1"
  top: "dir19_BR"
  param {
    lr_mult: 1
    decay_mult: 1
  }
  param {
    lr_mult: 2
    decay_mult: 0
  }
  convolution_param {
    num_output: 4
    kernel_size: 1
    weight_filler {
      type: "gaussian"
      std: 0.01
    }
    bias_filler {
      type: "constant"
      value: 0
    }
  }
}

layer {
  name: "cls"
  type: "Convolution"
  bottom: "pool5/7x7_s1"
  top: "cls"
  param {
    lr_mult: 0.25
    decay_mult: 1
  }
  param {
    lr_mult: 0.5
    decay_mult: 0
  }
  convolution_param {
    num_output: 21
    kernel_size: 1
    weight_filler {
      type: "gaussian"
      std: 0.01
    }
    bias_filler {
      type: "constant"
      value: 0
    }
  }
}

layer {
  name: "prob0_TL"
  type: "Softmax"
  bottom: "dir0_TL"
  top: "prob0_TL"
}

layer {
  name: "prob0_BR"
  type: "Softmax"
  bottom: "dir0_BR"
  top: "prob0_BR"
}

layer {
  name: "prob1_TL"
  type: "Softmax"
  bottom: "dir1_TL"
  top: "prob1_TL"
}

layer {
  name: "prob1_BR"
  type: "Softmax"
  bottom: "dir1_BR"
  top: "prob1_BR"
}

layer {
  name: "prob2_TL"
  type: "Softmax"
  bottom: "dir2_TL"
  top: "prob2_TL"
}

layer {
  name: "prob2_BR"
  type: "Softmax"
  bottom: "dir2_BR"
  top: "prob2_BR"
}

layer {
  name: "prob3_TL"
  type: "Softmax"
  bottom: "dir3_TL"
  top: "prob3_TL"
}

layer {
  name: "prob3_BR"
  type: "Softmax"
  bottom: "dir3_BR"
  top: "prob3_BR"
}

layer {
  name: "prob4_TL"
  type: "Softmax"
  bottom: "dir4_TL"
  top: "prob4_TL"
}

layer {
  name: "prob4_BR"
  type: "Softmax"
  bottom: "dir4_BR"
  top: "prob4_BR"
}

layer {
  name: "prob5_TL"
  type: "Softmax"
  bottom: "dir5_TL"
  top: "prob5_TL"
}

layer {
  name: "prob5_BR"
  type: "Softmax"
  bottom: "dir5_BR"
  top: "prob5_BR"
}

layer {
  name: "prob6_TL"
  type: "Softmax"
  bottom: "dir6_TL"
  top: "prob6_TL"
}

layer {
  name: "prob6_BR"
  type: "Softmax"
  bottom: "dir6_BR"
  top: "prob6_BR"
}

layer {
  name: "prob7_TL"
  type: "Softmax"
  bottom: "dir7_TL"
  top: "prob7_TL"
}

layer {
  name: "prob7_BR"
  type: "Softmax"
  bottom: "dir7_BR"
  top: "prob7_BR"
}

layer {
  name: "prob8_TL"
  type: "Softmax"
  bottom: "dir8_TL"
  top: "prob8_TL"
}

layer {
  name: "prob8_BR"
  type: "Softmax"
  bottom: "dir8_BR"
  top: "prob8_BR"
}

layer {
  name: "prob9_TL"
  type: "Softmax"
  bottom: "dir9_TL"
  top: "prob9_TL"
}

layer {
  name: "prob9_BR"
  type: "Softmax"
  bottom: "dir9_BR"
  top: "prob9_BR"
}

layer {
  name: "prob10_TL"
  type: "Softmax"
  bottom: "dir10_TL"
  top: "prob10_TL"
}

layer {
  name: "prob10_BR"
  type: "Softmax"
  bottom: "dir10_BR"
  top: "prob10_BR"
}

layer {
  name: "prob11_TL"
  type: "Softmax"
  bottom: "dir11_TL"
  top: "prob11_TL"
}

layer {
  name: "prob11_BR"
  type: "Softmax"
  bottom: "dir11_BR"
  top: "prob11_BR"
}

layer {
  name: "prob12_TL"
  type: "Softmax"
  bottom: "dir12_TL"
  top: "prob12_TL"
}

layer {
  name: "prob12_BR"
  type: "Softmax"
  bottom: "dir12_BR"
  top: "prob12_BR"
}

layer {
  name: "prob13_TL"
  type: "Softmax"
  bottom: "dir13_TL"
  top: "prob13_TL"
}

layer {
  name: "prob13_BR"
  type: "Softmax"
  bottom: "dir13_BR"
  top: "prob13_BR"
}

layer {
  name: "prob14_TL"
  type: "Softmax"
  bottom: "dir14_TL"
  top: "prob14_TL"
}

layer {
  name: "prob14_BR"
  type: "Softmax"
  bottom: "dir14_BR"
  top: "prob14_BR"
}

layer {
  name: "prob15_TL"
  type: "Softmax"
  bottom: "dir15_TL"
  top: "prob15_TL"
}

layer {
  name: "prob15_BR"
  type: "Softmax"
  bottom: "dir15_BR"
  top: "prob15_BR"
}

layer {
  name: "prob16_TL"
  type: "Softmax"
  bottom: "dir16_TL"
  top: "prob16_TL"
}

layer {
  name: "prob16_BR"
  type: "Softmax"
  bottom: "dir16_BR"
  top: "prob16_BR"
}

layer {
  name: "prob17_TL"
  type: "Softmax"
  bottom: "dir17_TL"
  top: "prob17_TL"
}

layer {
  name: "prob17_BR"
  type: "Softmax"
  bottom: "dir17_BR"
  top: "prob17_BR"
}

layer {
  name: "prob18_TL"
  type: "Softmax"
  bottom: "dir18_TL"
  top: "prob18_TL"
}

layer {
  name: "prob18_BR"
  type: "Softmax"
  bottom: "dir18_BR"
  top: "prob18_BR"
}

layer {
  name: "prob19_TL"
  type: "Softmax"
  bottom: "dir19_TL"
  top: "prob19_TL"
}

layer {
  name: "prob19_BR"
  type: "Softmax"
  bottom: "dir19_BR"
  top: "prob19_BR"
}

layer {
  name: "prob_cls"
  type: "Softmax"
  bottom: "cls"
  top: "prob_cls"
}

